…
      sampler {
        min_scale: 0.3
        max_scale: 1
        min_aspect_ratio: 0.5
        max_aspect_ratio: 2
      }
      sample_constraint {
        min_jaccard_overlap: 0.9
      }
      max_sample: 1
      max_trials: 50
    }
    batch_sampler {
      sampler {
        min_scale: 0.3
        max_scale: 1
        min_aspect_ratio: 0.5
        max_aspect_ratio: 2
      }
      sample_constraint {
        max_jaccard_overlap: 1
      }
      max_sample: 1
      max_trials: 50
    }
    label_map_file: "data/widerface/labelmap_voc.prototxt"
  }
}
layer {
  name: "conv1_1"
  type: "Convolution"
  bottom: "data"
  top: "conv1_1"
  param {
    lr_mult: 1
    decay_mult: 1
  }
  param {
    lr_mult: 2
    decay_mult: 0
  }
  convolution_param {
    num_output: 64
    pad: 1
    kernel_size: 3
    weight_filler {
      type: "xavier"
    }
    bias_filler {
      type: "constant"
      value: 0
    }
  }
}
layer {
  name: "relu1_1"
  type: "ReLU"
  bottom: "conv1_1"
  top: "conv1_1"
}
layer {
  name: "conv1_2"
  type: "Convolution"
  bottom: "conv1_1"
  top: "conv1_2"
  param {
    lr_mult: 1
    decay_mult: 1
  }
  param {
    lr_mult: 2
    decay_mult: 0
  }
  convolution_param {
    num_output: 64
    pad: 1
    kernel_size: 3
    weight_filler {
      type: "xavier"
    }
    bias_filler {
      type: "constant"
      value: 0
    }
  }
}
layer {
  name: "relu1_2"
  type: "ReLU"
  bottom: "conv1_2"
  top: "conv1_2"
}
layer {
  name: "pool1"
  type: "Pooling"
  bottom: "conv1_2"
  top: "pool1"
  pooling_param {
    pool: MAX
    kernel_size: 2
    stride: 2
  }
}
layer {
  name: "conv2_1"
  type: "Convolution"
  bottom: "pool1"
  top: "conv2_1"
  param {
    lr_mult: 1
    decay_mult: 1
  }
  param {
    lr_mult: 2
    decay_mult: 0
  }
  convolution_param {
    num_output: 128
    pad: 1
    kernel_size: 3
    weight_filler {
      type: "xavier"
    }
    bias_filler {
      type: "constant"
      value: 0
    }
  }
}
layer {
  name: "relu2_1"
  type: "ReLU"
  bottom: "conv2_1"
  top: "conv2_1"
}
layer {
  name: "conv2_2"
  type: "Convolution"
  bottom: "conv2_1"
  top: "conv2_2"
  param {
    lr_mult: 1
    decay_mult: 1
  }
  param {
    lr_mult: 2
    decay_mult: 0
  }
  convolution_param {
    num_output: 128
    pad: 1
    kernel_size: 3
    weight_filler {
      type: "xavier"
    }
    bias_filler {
      type: "constant"
      value: 0
    }
  }
}
layer {
  name: "relu2_2"
  type: "ReLU"
  bottom: "conv2_2"
  top: "conv2_2"
}
layer {
  name: "pool2"
  type: "Pooling"
  bottom: "conv2_2"
  top: "pool2"
  pooling_param {
    pool: MAX
    kernel_size: 2
    stride: 2
  }
}
layer {
  name: "conv3_1"
  type: "Convolution"
  bottom: "pool2"
  top: "conv3_1"
  param {
    lr_mult: 1
    decay_mult: 1
  }
  param {
    lr_mult: 2
    decay_mult: 0
  }
  convolution_param {
    num_output: 256
    pad: 1
    kernel_size: 3
    weight_filler {
      type: "xavier"
    }
    bias_filler {
      type: "constant"
      value: 0
    }
  }
}
layer {
  name: "relu3_1"
  type: "ReLU"
  bottom: "conv3_1"
  top: "conv3_1"
}
layer {
  name: "conv3_2"
  type: "Convolution"
  bottom: "conv3_1"
  top: "conv3_2"
  param {
    lr_mult: 1
    decay_mult: 1
  }
  param {
    lr_mult: 2
    decay_mult: 0
  }
  convolution_param {
    num_output: 256
    pad: 1
    kernel_size: 3
    weight_filler {
      type: "xavier"
    }
    bias_filler {
      type: "constant"
      value: 0
    }
  }
}
layer {
  name: "relu3_2"
  type: "ReLU"
  bottom: "conv3_2"
  top: "conv3_2"
}
layer {
  name: "conv3_3"
  type: "Convolution"
  bottom: "conv3_2"
  top: "conv3_3"
  param {
    lr_mult: 1
    decay_mult: 1
  }
  param {
    lr_mult: 2
    decay_mult: 0
  }
  convolution_param {
    num_output: 256
    pad: 1
    kernel_size: 3
    weight_filler {
      type: "xavier"
    }
    bias_filler {
      type: "constant"
      value: 0
    }
  }
}
layer {
  name: "relu3_3"
  type: "ReLU"
  bottom: "conv3_3"
  top: "conv3_3"
}
layer {
  name: "pool3"
  type: "Pooling"
  bottom: "conv3_3"
  top: "pool3"
  pooling_param {
    pool: MAX
    kernel_size: 2
    stride: 2
  }
}
layer {
  name: "conv4_1"
  type: "Convolution"
  bottom: "pool3"
  top: "conv4_1"
  param {
    lr_mult: 1
    decay_mult: 1
  }
  param {
    lr_mult: 2
    decay_mult: 0
  }
  convolution_param {
    num_output: 512
    pad: 1
    kernel_size: 3
    weight_filler {
      type: "xavier"
    }
    bias_filler {
      type: "constant"
      value: 0
    }
  }
}
layer {
  name: "relu4_1"
  type: "ReLU"
  bottom: "conv4_1"
  top: "conv4_1"
}
layer {
  name: "conv4_2"
  type: "Convolution"
  bottom: "conv4_1"
  top: "conv4_2"
  param {
    lr_mult: 1
    decay_mult: 1
  }
  param {
    lr_mult: 2
    decay_mult: 0
  }
  convolution_param {
    num_output: 512
    pad: 1
    kernel_size: 3
    weight_filler {
      type: "xavier"
    }
    bias_filler {
      type: "constant"
      value: 0
    }
  }
}
layer {
  name: "relu4_2"
  type: "ReLU"
  bottom: "conv4_2"
  top: "conv4_2"
}
layer {
  name: "conv4_3"
  type: "Convolution"
  bottom: "conv4_2"
  top: "conv4_3"
  param {
    lr_mult: 1
    decay_mult: 1
  }
  param {
    lr_mult: 2
    decay_mult: 0
  }
  convolution_param {
    num_output: 512
    pad: 1
    kernel_size: 3
    weight_filler {
      type: "xavier"
    }
    bias_filler {
      type: "constant"
      value: 0
    }
  }
}
layer {
  name: "relu4_3"
  type: "ReLU"
  bottom: "conv4_3"
  top: "conv4_3"
}
layer {
  name: "pool4"
  type: "Pooling"
  bottom: "conv4_3"
  top: "pool4"
  pooling_param {
    pool: MAX
    kernel_size: 2
    stride: 2
  }
}
layer {
  name: "conv5_1"
  type: "Convolution"
  bottom: "pool4"
  top: "conv5_1"
  param {
    lr_mult: 1
    decay_mult: 1
  }
  param {
    lr_mult: 2
    decay_mult: 0
  }
  convolution_param {
    num_output: 512
    pad: 1
    kernel_size: 3
    weight_filler {
      type: "xavier"
    }
    bias_filler {
      type: "constant"
      value: 0
    }
    dilation: 1
  }
}
layer {
  name: "relu5_1"
  type: "ReLU"
  bottom: "conv5_1"
  top: "conv5_1"
}
layer {
  name: "conv5_2"
  type: "Convolution"
  bottom: "conv5_1"
  top: "conv5_2"
  param {
    lr_mult: 1
    decay_mult: 1
  }
  param {
    lr_mult: 2
    decay_mult: 0
  }
  convolution_param {
    num_output: 512
    pad: 1
    kernel_size: 3
    weight_filler {
      type: "xavier"
    }
    bias_filler {
      type: "constant"
      value: 0
    }
    dilation: 1
  }
}
layer {
  name: "relu5_2"
  type: "ReLU"
  bottom: "conv5_2"
  top: "conv5_2"
}
layer {
  name: "conv5_3"
  type: "Convolution"
  bottom: "conv5_2"
  top: "conv5_3"
  param {
    lr_mult: 1
    decay_mult: 1
  }
  param {
    lr_mult: 2
    decay_mult: 0
  }
  convolution_param {
    num_output: 512
    pad: 1
    kernel_size: 3
    weight_filler {
      type: "xavier"
    }
    bias_filler {
      type: "constant"
      value: 0
    }
    dilation: 1
  }
}
layer {
  name: "relu5_3"
  type: "ReLU"
  bottom: "conv5_3"
  top: "conv5_3"
}
layer {
  name: "pool5"
  type: "Pooling"
  bottom: "conv5_3"
  top: "pool5"
  pooling_param {
    pool: MAX
    kernel_size: 3
    stride: 1
    pad: 1
  }
}
layer {
  name: "fc6"
  type: "Convolution"
  bottom: "pool5"
  top: "fc6"
  param {
    lr_mult: 1
    decay_mult: 1
  }
  param {
    lr_mult: 2
    decay_mult: 0
  }
  convolution_param {
    num_output: 1024
    pad: 1
    kernel_size: 3
    weight_filler {
      type: "xavier"
    }
    bias_filler {
      type: "constant"
      value: 0
    }
    dilation: 1
  }
}
layer {
  name: "relu6"
  type: "ReLU"
  bottom: "fc6"
  top: "fc6"
}
layer {
  name: "fc7"
  type: "Convolution"
  bottom: "fc6"
  top: "fc7"
  param {
    lr_mult: 1
    decay_mult: 1
  }
  param {
    lr_mult: 2
    decay_mult: 0
  }
  convolution_param {
    num_output: 1024
    kernel_size: 1
    weight_filler {
      type: "xavier"
    }
    bias_filler {
      type: "constant"
      value: 0
    }
  }
}
layer {
  name: "relu7"
  type: "ReLU"
  bottom: "fc7"
  top: "fc7"
}
layer {
  name: "conv6_1"
  type: "Convolution"
  bottom: "fc7"
  top: "conv6_1"
  param {
    lr_mult: 1
    decay_mult: 1
  }
  param {
    lr_mult: 2
    decay_mult: 0
  }
  convolution_param {
    num_output: 256
    pad: 0
    kernel_size: 1
    stride: 1
    weight_filler {
      type: "xavier"
    }
    bias_filler {
      type: "constant"
      value: 0
    }
  }
}
layer {
  name: "conv6_1_relu"
  type: "ReLU"
  bottom: "conv6_1"
  top: "conv6_1"
}
layer {
  name: "conv6_2"
  type: "Convolution"
  bottom: "conv6_1"
  top: "conv6_2"
  param {
    lr_mult: 1
    decay_mult: 1
  }
  param {
    lr_mult: 2
    decay_mult: 0
  }
  convolution_param {
    num_output: 512
    pad: 1
    kernel_size: 3
    stride: 2
    weight_filler {
      type: "xavier"
    }
    bias_filler {
      type: "constant"
      value: 0
    }
  }
}
layer {
  name: "conv6_2_relu"
  type: "ReLU"
  bottom: "conv6_2"
  top: "conv6_2"
}
layer {
  name: "conv7_1"
  type: "Convolution"
  bottom: "conv6_2"
  top: "conv7_1"
  param {
    lr_mult: 1
    decay_mult: 1
  }
  param {
    lr_mult: 2
    decay_mult: 0
  }
  convolution_param {
    num_output: 128
    pad: 0
    kernel_size: 1
    stride: 1
    weight_filler {
      type: "xavier"
    }
    bias_filler {
      type: "constant"
      value: 0
    }
  }
}
layer {
  name: "conv7_1_relu"
  type: "ReLU"
  bottom: "conv7_1"
  top: "conv7_1"
}
layer {
  name: "conv7_2"
  type: "Convolution"
  bottom: "conv7_1"
  top: "conv7_2"
  param {
    lr_mult: 1
    decay_mult: 1
  }
  param {
    lr_mult: 2
    decay_mult: 0
  }
  convolution_param {
    num_output: 256
    pad: 1
    kernel_size: 3
    stride: 2
    weight_filler {
      type: "xavier"
    }
    bias_filler {
      type: "constant"
      value: 0
    }
  }
}
layer {
  name: "conv7_2_relu"
  type: "ReLU"
  bottom: "conv7_2"
  top: "conv7_2"
}
layer {
  name: "conv8_1"
  type: "Convolution"
  bottom: "conv7_2"
  top: "conv8_1"
  param {
    lr_mult: 1
    decay_mult: 1
  }
  param {
    lr_mult: 2
    decay_mult: 0
  }
  convolution_param {
    num_output: 128
    pad: 0
    kernel_size: 1
    stride: 1
    weight_filler {
      type: "xavier"
    }
    bias_filler {
      type: "constant"
      value: 0
    }
  }
}
layer {
  name: "conv8_1_relu"
  type: "ReLU"
  bottom: "conv8_1"
  top: "conv8_1"
}
layer {
  name: "conv8_2"
  type: "Convolution"
  bottom: "conv8_1"
  top: "conv8_2"
  param {
    lr_mult: 1
    decay_mult: 1
  }
  param {
    lr_mult: 2
    decay_mult: 0
  }
  convolution_param {
    num_output: 256
    pad: 0
    kernel_size: 3
    stride: 1
    weight_filler {
      type: "xavier"
    }
    bias_filler {
      type: "constant"
      value: 0
    }
  }
}
layer {
  name: "conv8_2_relu"
  type: "ReLU"
  bottom: "conv8_2"
  top: "conv8_2"
}
layer {
  name: "conv9_1"
  type: "Convolution"
  bottom: "conv8_2"
  top: "conv9_1"
  param {
    lr_mult: 1
    decay_mult: 1
  }
  param {
    lr_mult: 2
    decay_mult: 0
  }
  convolution_param {
    num_output: 128
    pad: 0
    kernel_size: 1
    stride: 1
    weight_filler {
      type: "xavier"
    }
    bias_filler {
      type: "constant"
      value: 0
    }
  }
}
layer {
  name: "conv9_1_relu"
  type: "ReLU"
  bottom: "conv9_1"
  top: "conv9_1"
}
layer {
  name: "conv9_2"
  type: "Convolution"
  bottom: "conv9_1"
  top: "conv9_2"
  param {
    lr_mult: 1
    decay_mult: 1
  }
  param {
    lr_mult: 2
    decay_mult: 0
  }
  convolution_param {
    num_output: 256
    pad: 0
    kernel_size: 3
    stride: 1
    weight_filler {
      type: "xavier"
    }
    bias_filler {
      type: "constant"
      value: 0
    }
  }
}
layer {
  name: "conv9_2_relu"
  type: "ReLU"
  bottom: "conv9_2"
  top: "conv9_2"
}
layer {
  name: "conv4_3_norm"
  type: "Normalize"
  bottom: "conv4_3"
  top: "conv4_3_norm"
  norm_param {
    across_spatial: false
    scale_filler {
      type: "constant"
      value: 20
    }
    channel_shared: false
  }
}
layer {
  name: "conv4_3_norm_mbox_loc"
  type: "Convolution"
  bottom: "conv4_3_norm"
  top: "conv4_3_norm_mbox_loc"
  param {
    lr_mult: 1
    decay_mult: 1
  }
  param {
    lr_mult: 2
    decay_mult: 0
  }
  convolution_param {
    num_output: 16
    pad: 1
    kernel_size: 3
    stride: 1
    weight_filler {
      type: "xavier"
    }
    bias_filler {
      type: "constant"
      value: 0
    }
  }
}
layer {
  name: "conv4_3_norm_mbox_loc_perm"
  type: "Permute"
  bottom: "conv4_3_norm_mbox_loc"
  top: "conv4_3_norm_mbox_loc_perm"
  permute_param {
    order: 0
    order: 2
    order: 3
    order: 1
  }
}
layer {
  name: "conv4_3_norm_mbox_loc_flat"
  type: "Flatten"
  bottom: "conv4_3_norm_mbox_loc_perm"
  top: "conv4_3_norm_mbox_loc_flat"
  flatten_param {
    axis: 1
  }
}
layer {
  name: "conv4_3_norm_mbox_conf"
  type: "Convolution"
  bottom: "conv4_3_norm"
  top: "conv4_3_norm_mbox_conf"
  param {
    lr_mult: 1
    decay_mult: 1
  }
  param {
    lr_mult: 2
    decay_mult: 0
  }
  convolution_param {
    num_output: 8
    pad: 1
    kernel_size: 3
    stride: 1
    weight_filler {
      type: "xavier"
    }
    bias_filler {
      type: "constant"
      value: 0
    }
  }
}
layer {
  name: "conv4_3_norm_mbox_conf_perm"
  type: "Permute"
  bottom: "conv4_3_norm_mbox_conf"
  top: "conv4_3_norm_mbox_conf_perm"
  permute_param {
    order: 0
    order: 2
    order: 3
    order: 1
  }
}
layer {
  name: "conv4_3_norm_mbox_conf_flat"
  type: "Flatten"
  bottom: "conv4_3_norm_mbox_conf_perm"
  top: "conv4_3_norm_mbox_conf_flat"
  flatten_param {
    axis: 1
  }
}
layer {
  name: "conv4_3_norm_mbox_priorbox"
  type: "PriorBox"
  bottom: "conv4_3_norm"
  bottom: "data"
  top: "conv4_3_norm_mbox_priorbox"
  prior_box_param {
    min_size: 30
    max_size: 60
    aspect_ratio: 2
    flip: true
    clip: false
    variance: 0.1
    variance: 0.1
    variance: 0.2
    variance: 0.2
    step: 8
    offset: 0.5
  }
}
layer {
  name: "fc7_mbox_loc"
  type: "Convolution"
  bottom: "fc7"
  top: "fc7_mbox_loc"
  param {
    lr_mult: 1
    decay_mult: 1
  }
  param {
    lr_mult: 2
    decay_mult: 0
  }
  convolution_param {
    num_output: 24
    pad: 1
    kernel_size: 3
    stride: 1
    weight_filler {
      type: "xavier"
    }
    bias_filler {
      type: "constant"
      value: 0
    }
  }
}
layer {
  name: "fc7_mbox_loc_perm"
  type: "Permute"
  bottom: "fc7_mbox_loc"
  top: "fc7_mbox_loc_perm"
  permute_param {
    order: 0
    order: 2
    order: 3
    order: 1
  }
}
layer {
  name: "fc7_mbox_loc_flat"
  type: "Flatten"
  bottom: "fc7_mbox_loc_perm"
  top: "fc7_mbox_loc_flat"
  flatten_param {
    axis: 1
  }
}
layer {
  name: "fc7_mbox_conf"
  type: "Convolution"
  bottom: "fc7"
  top: "fc7_mbox_conf"
  param {
    lr_mult: 1
    decay_mult: 1
  }
  param {
    lr_mult: 2
    decay_mult: 0
  }
  convolution_param {
    num_output: 12
    pad: 1
    kernel_size: 3
    stride: 1
    weight_filler {
      type: "xavier"
    }
    bias_filler {
      type: "constant"
      value: 0
    }
  }
}
layer {
  name: "fc7_mbox_conf_perm"
  type: "Permute"
  bottom: "fc7_mbox_conf"
  top: "fc7_mbox_conf_perm"
  permute_param {
    order: 0
    order: 2
    order: 3
    order: 1
  }
}
layer {
  name: "fc7_mbox_conf_flat"
  type: "Flatten"
  bottom: "fc7_mbox_conf_perm"
  top: "fc7_mbox_conf_flat"
  flatten_param {
    axis: 1
  }
}
layer {
  name: "fc7_mbox_priorbox"
  type: "PriorBox"
  bottom: "fc7"
  bottom: "data"
  top: "fc7_mbox_priorbox"
  prior_box_param {
    min_size: 60
    max_size: 111
    aspect_ratio: 2
    aspect_ratio: 3
    flip: true
    clip: false
    variance: 0.1
    variance: 0.1
    variance: 0.2
    variance: 0.2
    step: 16
    offset: 0.5
  }
}
layer {
  name: "conv6_2_mbox_loc"
  type: "Convolution"
  bottom: "conv6_2"
  top: "conv6_2_mbox_loc"
  param {
    lr_mult: 1
    decay_mult: 1
  }
  param {
    lr_mult: 2
    decay_mult: 0
  }
  convolution_param {
    num_output: 24
    pad: 1
    kernel_size: 3
    stride: 1
    weight_filler {
      type: "xavier"
    }
    bias_filler {
      type: "constant"
      value: 0
    }
  }
}
layer {
  name: "conv6_2_mbox_loc_perm"
  type: "Permute"
  bottom: "conv6_2_mbox_loc"
  top: "conv6_2_mbox_loc_perm"
  permute_param {
    order: 0
    order: 2
    order: 3
    order: 1
  }
}
layer {
  name: "conv6_2_mbox_loc_flat"
  type: "Flatten"
  bottom: "conv6_2_mbox_loc_perm"
  top: "conv6_2_mbox_loc_flat"
  flatten_param {
    axis: 1
  }
}
layer {
  name: "conv6_2_mbox_conf"
  type: "Convolution"
  bottom: "conv6_2"
  top: "conv6_2_mbox_conf"
  param {
    lr_mult: 1
    decay_mult: 1
  }
  param {
    lr_mult: 2
    decay_mult: 0
  }
  convolution_param {
    num_output: 12
    pad: 1
    kernel_size: 3
    stride: 1
    weight_filler {
      type: "xavier"
    }
    bias_filler {
      type: "constant"
      value: 0
    }
  }
}
layer {
  name: "conv6_2_mbox_conf_perm"
  type: "Permute"
  bottom: "conv6_2_mbox_conf"
  top: "conv6_2_mbox_conf_perm"
  permute_param {
    order: 0
    order: 2
    order: 3
    order: 1
  }
}
layer {
  name: "conv6_2_mbox_conf_flat"
  type: "Flatten"
  bottom: "conv6_2_mbox_conf_perm"
  top: "conv6_2_mbox_conf_flat"
  flatten_param {
    axis: 1
  }
}
layer {
  name: "conv6_2_mbox_priorbox"
  type: "PriorBox"
  bottom: "conv6_2"
  bottom: "data"
  top: "conv6_2_mbox_priorbox"
  prior_box_param {
    min_size: 111
    max_size: 162
    aspect_ratio: 2
    aspect_ratio: 3
    flip: true
    clip: false
    variance: 0.1
    variance: 0.1
    variance: 0.2
    variance: 0.2
    step: 32
    offset: 0.5
  }
}
layer {
  name: "conv7_2_mbox_loc"
  type: "Convolution"
  bottom: "conv7_2"
  top: "conv7_2_mbox_loc"
  param {
    lr_mult: 1
    decay_mult: 1
  }
  param {
    lr_mult: 2
    decay_mult: 0
  }
  convolution_param {
    num_output: 24
    pad: 1
    kernel_size: 3
    stride: 1
    weight_filler {
      type: "xavier"
    }
    bias_filler {
      type: "constant"
      value: 0
    }
  }
}
layer {
  name: "conv7_2_mbox_loc_perm"
  type: "Permute"
  bottom: "conv7_2_mbox_loc"
  top: "conv7_2_mbox_loc_perm"
  permute_param {
    order: 0
    order: 2
    order: 3
    order: 1
  }
}
layer {
  name: "conv7_2_mbox_loc_flat"
  type: "Flatten"
  bottom: "conv7_2_mbox_loc_perm"
  top: "conv7_2_mbox_loc_flat"
  flatten_param {
    axis: 1
  }
}
layer {
  name: "conv7_2_mbox_conf"
  type: "Convolution"
  bottom: "conv7_2"
  top: "conv7_2_mbox_conf"
  param {
    lr_mult: 1
    decay_mult: 1
  }
  param {
    lr_mult: 2
    decay_mult: 0
  }
  convolution_param {
    num_output: 12
    pad: 1
    kernel_size: 3
    stride: 1
    weight_filler {
      type: "xavier"
    }
    bias_filler {
      type: "constant"
      value: 0
    }
  }
}
layer {
  name: "conv7_2_mbox_conf_perm"
  type: "Permute"
  bottom: "conv7_2_mbox_conf"
  top: "conv7_2_mbox_conf_perm"
  permute_param {
    order: 0
    order: 2
    order: 3
    order: 1
  }
}
layer {
  name: "conv7_2_mbox_conf_flat"
  type: "Flatten"
  bottom: "conv7_2_mbox_conf_perm"
  top: "conv7_2_mbox_conf_flat"
  flatten_param {
    axis: 1
  }
}
layer {
  name: "conv7_2_mbox_priorbox"
  type: "PriorBox"
  bottom: "conv7_2"
  bottom: "data"
  top: "conv7_2_mbox_priorbox"
  prior_box_param {
    min_size: 162
    max_size: 213
    aspect_ratio: 2
    aspect_ratio: 3
    flip: true
    clip: false
    variance: 0.1
    variance: 0.1
    variance: 0.2
    variance: 0.2
    step: 64
    offset: 0.5
  }
}
layer {
  name: "conv8_2_mbox_loc"
  type: "Convolution"
  bottom: "conv8_2"
  top: "conv8_2_mbox_loc"
  param {
    lr_mult: 1
    decay_mult: 1
  }
  param {
    lr_mult: 2
    decay_mult: 0
  }
  convolution_param {
    num_output: 16
    pad: 1
    kernel_size: 3
    stride: 1
    weight_filler {
      type: "xavier"
    }
    bias_filler {
      type: "constant"
      value: 0
    }
  }
}
layer {
  name: "conv8_2_mbox_loc_perm"
  type: "Permute"
  bottom: "conv8_2_mbox_loc"
  top: "conv8_2_mbox_loc_perm"
  permute_param {
    order: 0
    order: 2
    order: 3
    order: 1
  }
}
layer {
  name: "conv8_2_mbox_loc_flat"
  type: "Flatten"
  bottom: "conv8_2_mbox_loc_perm"
  top: "conv8_2_mbox_loc_flat"
  flatten_param {
    axis: 1
  }
}
layer {
  name: "conv8_2_mbox_conf"
  type: "Convolution"
  bottom: "conv8_2"
  top: "conv8_2_mbox_conf"
  param {
    lr_mult: 1
    decay_mult: 1
  }
  param {
    lr_mult: 2
    decay_mult: 0
  }
  convolution_param {
    num_output: 8
    pad: 1
    kernel_size: 3
    stride: 1
    weight_filler {
      type: "xavier"
    }
    bias_filler {
      type: "constant"
      value: 0
    }
  }
}
layer {
  name: "conv8_2_mbox_conf_perm"
  type: "Permute"
  bottom: "conv8_2_mbox_conf"
  top: "conv8_2_mbox_conf_perm"
  permute_param {
    order: 0
    order: 2
    order: 3
    order: 1
  }
}
layer {
  name: "conv8_2_mbox_conf_flat"
  type: "Flatten"
  bottom: "conv8_2_mbox_conf_perm"
  top: "conv8_2_mbox_conf_flat"
  flatten_param {
    axis: 1
  }
}
layer {
  name: "conv8_2_mbox_priorbox"
  type: "PriorBox"
  bottom: "conv8_2"
  bottom: "data"
  top: "conv8_2_mbox_priorbox"
  prior_box_param {
    min_size: 213
    max_size: 264
    aspect_ratio: 2
    flip: true
    clip: false
    variance: 0.1
    variance: 0.1
    variance: 0.2
    variance: 0.2
    step: 100
    offset: 0.5
  }
}
layer {
  name: "conv9_2_mbox_loc"
  type: "Convolution"
  bottom: "conv9_2"
  top: "conv9_2_mbox_loc"
  param {
    lr_mult: 1
    decay_mult: 1
  }
  param {
    lr_mult: 2
    decay_mult: 0
  }
  convolution_param {
    num_output: 16
    pad: 1
    kernel_size: 3
    stride: 1
    weight_filler {
      type: "xavier"
    }
    bias_filler {
      type: "constant"
      value: 0
    }
  }
}
layer {
  name: "conv9_2_mbox_loc_perm"
  type: "Permute"
  bottom: "conv9_2_mbox_loc"
  top: "conv9_2_mbox_loc_perm"
  permute_param {
    order: 0
    order: 2
    order: 3
    order: 1
  }
}
layer {
  name: "conv9_2_mbox_loc_flat"
  type: "Flatten"
  bottom: "conv9_2_mbox_loc_perm"
  top: "conv9_2_mbox_loc_flat"
  flatten_param {
    axis: 1
  }
}
layer {
  name: "conv9_2_mbox_conf"
  type: "Convolution"
  bottom: "conv9_2"
  top: "conv9_2_mbox_conf"
  param {
    lr_mult: 1
    decay_mult: 1
  }
  param {
    lr_mult: 2
    decay_mult: 0
  }
  convolution_param {
    num_output: 8
    pad: 1
    kernel_size: 3
    stride: 1
    weight_filler {
      type: "xavier"
    }
    bias_filler {
      type: "constant"
      value: 0
    }
  }
}
layer {
  name: "conv9_2_mbox_conf_perm"
  type: "Permute"
  bottom: "conv9_2_mbox_conf"
  top: "conv9_2_mbox_conf_perm"
  permute_param {
    order: 0
    order: 2
    order: 3
    order: 1
  }
}
layer {
  name: "conv9_2_mbox_conf_flat"
  type: "Flatten"
  bottom: "conv9_2_mbox_conf_perm"
  top: "conv9_2_mbox_conf_flat"
  flatten_param {
    axis: 1
  }
}
layer {
  name: "conv9_2_mbox_priorbox"
  type: "PriorBox"
  bottom: "conv9_2"
  bottom: "data"
  top: "conv9_2_mbox_priorbox"
  prior_box_param {
    min_size: 264
    max_size: 315
    aspect_ratio: 2
    flip: true
    clip: false
    variance: 0.1
    variance: 0.1
    variance: 0.2
    variance: 0.2
    step: 300
    offset: 0.5
  }
}
layer {
  name: "mbox_loc"
  type: "Concat"
  bottom: "conv4_3_norm_mbox_loc_flat"
  bottom: "fc7_mbox_loc_flat"
  bottom: "conv6_2_mbox_loc_flat"
  bottom: "conv7_2_mbox_loc_flat"
  bottom: "conv8_2_mbox_loc_flat"
  bottom: "conv9_2_mbox_loc_flat"
  top: "mbox_loc"
  concat_param {
    axis: 1
  }
}
layer {
  name: "mbox_conf"
  type: "Concat"
  bottom: "conv4_3_norm_mbox_conf_flat"
  bottom: "fc7_mbox_conf_flat"
  bottom: "conv6_2_mbox_conf_flat"
  bottom: "conv7_2_mbox_conf_flat"
  bottom: "conv8_2_mbox_conf_flat"
  bottom: "conv9_2_mbox_conf_flat"
  top: "mbox_conf"
  concat_param {
    axis: 1
  }
}
layer {
  name: "mbox_priorbox"
  type: "Concat"
  bottom: "conv4_3_norm_mbox_priorbox"
  bottom: "fc7_mbox_priorbox"
  bottom: "conv6_2_mbox_priorbox"
  bottom: "conv7_2_mbox_priorbox"
  bottom: "conv8_2_mbox_priorbox"
  bottom: "conv9_2_mbox_priorbox"
  top: "mbox_priorbox"
  concat_param {
    axis: 2
  }
}
layer {
  name: "mbox_loss"
  type: "MultiBoxLoss"
  bottom: "mbox_loc"
  bottom: "mbox_conf"
  bottom: "mbox_priorbox"
  bottom: "label"
  top: "mbox_loss"
  include {
    phase: TRAIN
  }
  propagate_down: true
  propagate_down: true
  propagate_down: false
  propagate_down: false
  loss_param {
    normalization: VALID
  }
  multibox_loss_param {
    loc_loss_type: SMOOTH_L1
    conf_loss_type: SOFTMAX
    loc_weight: 1
    num_classes: 2
    share_location: true
    match_type: PER_PREDICTION
    overlap_threshold: 0.5
    use_prior_for_matching: true
    background_label_id: 0
    use_difficult_gt: true
    neg_pos_ratio: 3
    neg_overlap: 0.5
    code_type: CENTER_SIZE
    ignore_cross_boundary_bbox: false
    mining_type: MAX_NEGATIVE
  }
}
I0815 11:09:34.744175  4727 layer_factory.hpp:77] Creating layer data
I0815 11:09:34.744302  4727 net.cpp:100] Creating Layer data
I0815 11:09:34.744313  4727 net.cpp:408] data -> data
I0815 11:09:34.744338  4727 net.cpp:408] data -> label
I0815 11:09:34.744977  4746 db_lmdb.cpp:35] Opened lmdb examples/widerface/widerface_trainval_lmdb
I0815 11:09:34.757563  4727 annotated_data_layer.cpp:62] output data size: 16,3,288,352
I0815 11:09:34.774770  4727 net.cpp:150] Setting up data
I0815 11:09:34.774803  4727 net.cpp:157] Top shape: 16 3 288 352 (4866048)
I0815 11:09:34.774811  4727 net.cpp:157] Top shape: 1 1 1 8 (8)
I0815 11:09:34.774834  4727 net.cpp:165] Memory required for data: 19464224
I0815 11:09:34.774855  4727 layer_factory.hpp:77] Creating layer data_data_0_split
I0815 11:09:34.774886  4727 net.cpp:100] Creating Layer data_data_0_split
I0815 11:09:34.774891  4727 net.cpp:434] data_data_0_split <- data
I0815 11:09:34.774901  4727 net.cpp:408] data_data_0_split -> data_data_0_split_0
I0815 11:09:34.774909  4727 net.cpp:408] data_data_0_split -> data_data_0_split_1
I0815 11:09:34.774914  4727 net.cpp:408] data_data_0_split -> data_data_0_split_2
I0815 11:09:34.774917  4727 net.cpp:408] data_data_0_split -> data_data_0_split_3
I0815 11:09:34.774940  4727 net.cpp:408] data_data_0_split -> data_data_0_split_4
I0815 11:09:34.774943  4727 net.cpp:408] data_data_0_split -> data_data_0_split_5
I0815 11:09:34.774946  4727 net.cpp:408] data_data_0_split -> data_data_0_split_6
I0815 11:09:34.775043  4727 net.cpp:150] Setting up data_data_0_split
I0815 11:09:34.775046  4727 net.cpp:157] Top shape: 16 3 288 352 (4866048)
I0815 11:09:34.775064  4727 net.cpp:157] Top shape: 16 3 288 352 (4866048)
I0815 11:09:34.775068  4727 net.cpp:157] Top shape: 16 3 288 352 (4866048)
I0815 11:09:34.775070  4727 net.cpp:157] Top shape: 16 3 288 352 (4866048)
I0815 11:09:34.775072  4727 net.cpp:157] Top shape: 16 3 288 352 (4866048)
I0815 11:09:34.775075  4727 net.cpp:157] Top shape: 16 3 288 352 (4866048)
I0815 11:09:34.775092  4727 net.cpp:157] Top shape: 16 3 288 352 (4866048)
I0815 11:09:34.775095  4727 net.cpp:165] Memory required for data: 155713568
I0815 11:09:34.775097  4727 layer_factory.hpp:77] Creating layer conv1_1
I0815 11:09:34.775108  4727 net.cpp:100] Creating Layer conv1_1
I0815 11:09:34.775112  4727 net.cpp:434] conv1_1 <- data_data_0_split_0
I0815 11:09:34.775116  4727 net.cpp:408] conv1_1 -> conv1_1
I0815 11:09:35.551133  4727 net.cpp:150] Setting up conv1_1
I0815 11:09:35.551151  4727 net.cpp:157] Top shape: 16 64 288 352 (103809024)
I0815 11:09:35.551172  4727 net.cpp:165] Memory required for data: 570949664
I0815 11:09:35.551189  4727 layer_factory.hpp:77] Creating layer relu1_1
I0815 11:09:35.551216  4727 net.cpp:100] Creating Layer relu1_1
I0815 11:09:35.551219  4727 net.cpp:434] relu1_1 <- conv1_1
I0815 11:09:35.551224  4727 net.cpp:395] relu1_1 -> conv1_1 (in-place)
I0815 11:09:35.551611  4727 net.cpp:150] Setting up relu1_1
I0815 11:09:35.551617  4727 net.cpp:157] Top shape: 16 64 288 352 (103809024)
I0815 11:09:35.551636  4727 net.cpp:165] Memory required for data: 986185760
I0815 11:09:35.551640  4727 layer_factory.hpp:77] Creating layer conv1_2
I0815 11:09:35.551666  4727 net.cpp:100] Creating Layer conv1_2
I0815 11:09:35.551669  4727 net.cpp:434] conv1_2 <- conv1_1
I0815 11:09:35.551676  4727 net.cpp:408] conv1_2 -> conv1_2
I0815 11:09:35.553885  4727 net.cpp:150] Setting up conv1_2
I0815 11:09:35.553894  4727 net.cpp:157] Top shape: 16 64 288 352 (103809024)
I0815 11:09:35.553912  4727 net.cpp:165] Memory required for data: 1401421856
I0815 11:09:35.553917  4727 layer_factory.hpp:77] Creating layer relu1_2
I0815 11:09:35.553937  4727 net.cpp:100] Creating Layer relu1_2
I0815 11:09:35.553941  4727 net.cpp:434] relu1_2 <- conv1_2
I0815 11:09:35.553944  4727 net.cpp:395] relu1_2 -> conv1_2 (in-place)
I0815 11:09:35.554306  4727 net.cpp:150] Setting up relu1_2
I0815 11:09:35.554312  4727 net.cpp:157] Top shape: 16 64 288 352 (103809024)
I0815 11:09:35.554332  4727 net.cpp:165] Memory required for data: 1816657952
I0815 11:09:35.554334  4727 layer_factory.hpp:77] Creating layer pool1
I0815 11:09:35.554340  4727 net.cpp:100] Creating Layer pool1
I0815 11:09:35.554358  4727 net.cpp:434] pool1 <- conv1_2
I0815 11:09:35.554363  4727 net.cpp:408] pool1 -> pool1
I0815 11:09:35.554402  4727 net.cpp:150] Setting up pool1
I0815 11:09:35.554419  4727 net.cpp:157] Top shape: 16 64 144 176 (25952256)
I0815 11:09:35.554424  4727 net.cpp:165] Memory required for data: 1920466976
I0815 11:09:35.554425  4727 layer_factory.hpp:77] Creating layer conv2_1
I0815 11:09:35.554431  4727 net.cpp:100] Creating Layer conv2_1
I0815 11:09:35.554435  4727 net.cpp:434] conv2_1 <- pool1
I0815 11:09:35.554469  4727 net.cpp:408] conv2_1 -> conv2_1
I0815 11:09:35.556988  4727 net.cpp:150] Setting up conv2_1
I0815 11:09:35.556995  4727 net.cpp:157] Top shape: 16 128 144 176 (51904512)
I0815 11:09:35.557014  4727 net.cpp:165] Memory required for data: 2128085024
I0815 11:09:35.557019  4727 layer_factory.hpp:77] Creating layer relu2_1
I0815 11:09:35.557040  4727 net.cpp:100] Creating Layer relu2_1
I0815 11:09:35.557044  4727 net.cpp:434] relu2_1 <- conv2_1
I0815 11:09:35.557047  4727 net.cpp:395] relu2_1 -> conv2_1 (in-place)
I0815 11:09:35.557524  4727 net.cpp:150] Setting up relu2_1
I0815 11:09:35.557531  4727 net.cpp:157] Top shape: 16 128 144 176 (51904512)
I0815 11:09:35.557535  4727 net.cpp:165] Memory required for data: 2335703072
I0815 11:09:35.557538  4727 layer_factory.hpp:77] Creating layer conv2_2
I0815 11:09:35.557559  4727 net.cpp:100] Creating Layer conv2_2
I0815 11:09:35.557562  4727 net.cpp:434] conv2_2 <- conv2_1
I0815 11:09:35.557582  4727 net.cpp:408] conv2_2 -> conv2_2
I0815 11:09:35.559634  4727 net.cpp:150] Setting up conv2_2
I0815 11:09:35.559641  4727 net.cpp:157] Top shape: 16 128 144 176 (51904512)
I0815 11:09:35.559660  4727 net.cpp:165] Memory required for data: 2543321120
I0815 11:09:35.559664  4727 layer_factory.hpp:77] Creating layer relu2_2
I0815 11:09:35.559669  4727 net.cpp:100] Creating Layer relu2_2
I0815 11:09:35.559686  4727 net.cpp:434] relu2_2 <- conv2_2
I0815 11:09:35.559690  4727 net.cpp:395] relu2_2 -> conv2_2 (in-place)
I0815 11:09:35.560061  4727 net.cpp:150] Setting up relu2_2
I0815 11:09:35.560067  4727 net.cpp:157] Top shape: 16 128 144 176 (51904512)
I0815 11:09:35.560086  4727 net.cpp:165] Memory required for data: 2750939168
I0815 11:09:35.560088  4727 layer_factory.hpp:77] Creating layer pool2
I0815 11:09:35.560094  4727 net.cpp:100] Creating Layer pool2
I0815 11:09:35.560112  4727 net.cpp:434] pool2 <- conv2_2
I0815 11:09:35.560117  4727 net.cpp:408] pool2 -> pool2
I0815 11:09:35.560150  4727 net.cpp:150] Setting up pool2
I0815 11:09:35.560154  4727 net.cpp:157] Top shape: 16 128 72 88 (12976128)
I0815 11:09:35.560170  4727 net.cpp:165] Memory required for data: 2802843680
I0815 11:09:35.560173  4727 layer_factory.hpp:77] Creating layer conv3_1
I0815 11:09:35.560179  4727 net.cpp:100] Creating Layer conv3_1
I0815 11:09:35.560183  4727 net.cpp:434] conv3_1 <- pool2
I0815 11:09:35.560185  4727 net.cpp:408] conv3_1 -> conv3_1
I0815 11:09:35.564050  4727 net.cpp:150] Setting up conv3_1
I0815 11:09:35.564061  4727 net.cpp:157] Top shape: 16 256 72 88 (25952256)
I0815 11:09:35.564082  4727 net.cpp:165] Memory required for data: 2906652704
I0815 11:09:35.564092  4727 layer_factory.hpp:77] Creating layer relu3_1
I0815 11:09:35.564098  4727 net.cpp:100] Creating Layer relu3_1
I0815 11:09:35.564102  4727 net.cpp:434] relu3_1 <- conv3_1
I0815 11:09:35.564107  4727 net.cpp:395] relu3_1 -> conv3_1 (in-place)
I0815 11:09:35.565783  4727 net.cpp:150] Setting up relu3_1
I0815 11:09:35.565791  4727 net.cpp:157] Top shape: 16 256 72 88 (25952256)
I0815 11:09:35.565810  4727 net.cpp:165] Memory required for data: 3010461728
I0815 11:09:35.565814  4727 layer_factory.hpp:77] Creating layer conv3_2
I0815 11:09:35.565825  4727 net.cpp:100] Creating Layer conv3_2
I0815 11:09:35.565829  4727 net.cpp:434] conv3_2 <- conv3_1
I0815 11:09:35.565834  4727 net.cpp:408] conv3_2 -> conv3_2
I0815 11:09:35.569954  4727 net.cpp:150] Setting up conv3_2
I0815 11:09:35.569963  4727 net.cpp:157] Top shape: 16 256 72 88 (25952256)
I0815 11:09:35.569983  4727 net.cpp:165] Memory required for data: 3114270752
I0815 11:09:35.569990  4727 layer_factory.hpp:77] Creating layer relu3_2
I0815 11:09:35.569995  4727 net.cpp:100] Creating Layer relu3_2
I0815 11:09:35.569999  4727 net.cpp:434] relu3_2 <- conv3_2
I0815 11:09:35.570003  4727 net.cpp:395] relu3_2 -> conv3_2 (in-place)
I0815 11:09:35.570372  4727 net.cpp:150] Setting up relu3_2
I0815 11:09:35.570379  4727 net.cpp:157] Top shape: 16 256 72 88 (25952256)
I0815 11:09:35.570399  4727 net.cpp:165] Memory required for data: 3218079776
I0815 11:09:35.570416  4727 layer_factory.hpp:77] Creating layer conv3_3
I0815 11:09:35.570426  4727 net.cpp:100] Creating Layer conv3_3
I0815 11:09:35.570430  4727 net.cpp:434] conv3_3 <- conv3_2
I0815 11:09:35.570435  4727 net.cpp:408] conv3_3 -> conv3_3
I0815 11:09:35.574601  4727 net.cpp:150] Setting up conv3_3
I0815 11:09:35.574610  4727 net.cpp:157] Top shape: 16 256 72 88 (25952256)
I0815 11:09:35.574615  4727 net.cpp:165] Memory required for data: 3321888800
I0815 11:09:35.574635  4727 layer_factory.hpp:77] Creating layer relu3_3
I0815 11:09:35.574641  4727 net.cpp:100] Creating Layer relu3_3
I0815 11:09:35.574643  4727 net.cpp:434] relu3_3 <- conv3_3
I0815 11:09:35.574647  4727 net.cpp:395] relu3_3 -> conv3_3 (in-place)
I0815 11:09:35.575024  4727 net.cpp:150] Setting up relu3_3
I0815 11:09:35.575031  4727 net.cpp:157] Top shape: 16 256 72 88 (25952256)
I0815 11:09:35.575049  4727 net.cpp:165] Memory required for data: 3425697824
I0815 11:09:35.575052  4727 layer_factory.hpp:77] Creating layer pool3
I0815 11:09:35.575058  4727 net.cpp:100] Creating Layer pool3
I0815 11:09:35.575062  4727 net.cpp:434] pool3 <- conv3_3
I0815 11:09:35.575065  4727 net.cpp:408] pool3 -> pool3
I0815 11:09:35.575103  4727 net.cpp:150] Setting up pool3
I0815 11:09:35.575106  4727 net.cpp:157] Top shape: 16 256 36 44 (6488064)
I0815 11:09:35.575109  4727 net.cpp:165] Memory required for data: 3451650080
I0815 11:09:35.575111  4727 layer_factory.hpp:77] Creating layer conv4_1
I0815 11:09:35.575119  4727 net.cpp:100] Creating Layer conv4_1
I0815 11:09:35.575120  4727 net.cpp:434] conv4_1 <- pool3
I0815 11:09:35.575124  4727 net.cpp:408] conv4_1 -> conv4_1
I0815 11:09:35.582340  4727 net.cpp:150] Setting up conv4_1
I0815 11:09:35.582355  4727 net.cpp:157] Top shape: 16 512 36 44 (12976128)
I0815 11:09:35.582376  4727 net.cpp:165] Memory required for data: 3503554592
I0815 11:09:35.582383  4727 layer_factory.hpp:77] Creating layer relu4_1
I0815 11:09:35.582406  4727 net.cpp:100] Creating Layer relu4_1
I0815 11:09:35.582410  4727 net.cpp:434] relu4_1 <- conv4_1
I0815 11:09:35.582414  4727 net.cpp:395] relu4_1 -> conv4_1 (in-place)
I0815 11:09:35.582911  4727 net.cpp:150] Setting up relu4_1
I0815 11:09:35.582918  4727 net.cpp:157] Top shape: 16 512 36 44 (12976128)
I0815 11:09:35.582937  4727 net.cpp:165] Memory required for data: 3555459104
I0815 11:09:35.582939  4727 layer_factory.hpp:77] Creating layer conv4_2
I0815 11:09:35.582965  4727 net.cpp:100] Creating Layer conv4_2
I0815 11:09:35.582969  4727 net.cpp:434] conv4_2 <- conv4_1
I0815 11:09:35.582973  4727 net.cpp:408] conv4_2 -> conv4_2
I0815 11:09:35.593856  4727 net.cpp:150] Setting up conv4_2
I0815 11:09:35.593875  4727 net.cpp:157] Top shape: 16 512 36 44 (12976128)
I0815 11:09:35.593881  4727 net.cpp:165] Memory required for data: 3607363616
I0815 11:09:35.593889  4727 layer_factory.hpp:77] Creating layer relu4_2
I0815 11:09:35.593895  4727 net.cpp:100] Creating Layer relu4_2
I0815 11:09:35.593899  4727 net.cpp:434] relu4_2 <- conv4_2
I0815 11:09:35.593902  4727 net.cpp:395] relu4_2 -> conv4_2 (in-place)
I0815 11:09:35.594295  4727 net.cpp:150] Setting up relu4_2
I0815 11:09:35.594301  4727 net.cpp:157] Top shape: 16 512 36 44 (12976128)
I0815 11:09:35.594305  4727 net.cpp:165] Memory required for data: 3659268128
I0815 11:09:35.594307  4727 layer_factory.hpp:77] Creating layer conv4_3
I0815 11:09:35.594316  4727 net.cpp:100] Creating Layer conv4_3
I0815 11:09:35.594319  4727 net.cpp:434] conv4_3 <- conv4_2
I0815 11:09:35.594323  4727 net.cpp:408] conv4_3 -> conv4_3
I0815 11:09:35.605962  4727 net.cpp:150] Setting up conv4_3
I0815 11:09:35.605980  4727 net.cpp:157] Top shape: 16 512 36 44 (12976128)
I0815 11:09:35.605986  4727 net.cpp:165] Memory required for data: 3711172640
I0815 11:09:35.605993  4727 layer_factory.hpp:77] Creating layer relu4_3
I0815 11:09:35.606000  4727 net.cpp:100] Creating Layer relu4_3
I0815 11:09:35.606003  4727 net.cpp:434] relu4_3 <- conv4_3
I0815 11:09:35.606009  4727 net.cpp:395] relu4_3 -> conv4_3 (in-place)
I0815 11:09:35.607313  4727 net.cpp:150] Setting up relu4_3
I0815 11:09:35.607333  4727 net.cpp:157] Top shape: 16 512 36 44 (12976128)
I0815 11:09:35.607337  4727 net.cpp:165] Memory required for data: 3763077152
I0815 11:09:35.607340  4727 layer_factory.hpp:77] Creating layer conv4_3_relu4_3_0_split
I0815 11:09:35.607347  4727 net.cpp:100] Creating Layer conv4_3_relu4_3_0_split
I0815 11:09:35.607350  4727 net.cpp:434] conv4_3_relu4_3_0_split <- conv4_3
I0815 11:09:35.607354  4727 net.cpp:408] conv4_3_relu4_3_0_split -> conv4_3_relu4_3_0_split_0
I0815 11:09:35.607360  4727 net.cpp:408] conv4_3_relu4_3_0_split -> conv4_3_relu4_3_0_split_1
I0815 11:09:35.607414  4727 net.cpp:150] Setting up conv4_3_relu4_3_0_split
I0815 11:09:35.607419  4727 net.cpp:157] Top shape: 16 512 36 44 (12976128)
I0815 11:09:35.607421  4727 net.cpp:157] Top shape: 16 512 36 44 (12976128)
I0815 11:09:35.607424  4727 net.cpp:165] Memory required for data: 3866886176
I0815 11:09:35.607426  4727 layer_factory.hpp:77] Creating layer pool4
I0815 11:09:35.607445  4727 net.cpp:100] Creating Layer pool4
I0815 11:09:35.607446  4727 net.cpp:434] pool4 <- conv4_3_relu4_3_0_split_0
I0815 11:09:35.607450  4727 net.cpp:408] pool4 -> pool4
I0815 11:09:35.607496  4727 net.cpp:150] Setting up pool4
I0815 11:09:35.607501  4727 net.cpp:157] Top shape: 16 512 18 22 (3244032)
I0815 11:09:35.607503  4727 net.cpp:165] Memory required for data: 3879862304
I0815 11:09:35.607506  4727 layer_factory.hpp:77] Creating layer conv5_1
I0815 11:09:35.607513  4727 net.cpp:100] Creating Layer conv5_1
I0815 11:09:35.607517  4727 net.cpp:434] conv5_1 <- pool4
I0815 11:09:35.607519  4727 net.cpp:408] conv5_1 -> conv5_1
I0815 11:09:35.618975  4727 net.cpp:150] Setting up conv5_1
I0815 11:09:35.618991  4727 net.cpp:157] Top shape: 16 512 18 22 (3244032)
I0815 11:09:35.618997  4727 net.cpp:165] Memory required for data: 3892838432
I0815 11:09:35.619004  4727 layer_factory.hpp:77] Creating layer relu5_1
I0815 11:09:35.619011  4727 net.cpp:100] Creating Layer relu5_1
I0815 11:09:35.619015  4727 net.cpp:434] relu5_1 <- conv5_1
I0815 11:09:35.619020  4727 net.cpp:395] relu5_1 -> conv5_1 (in-place)
I0815 11:09:35.619408  4727 net.cpp:150] Setting up relu5_1
I0815 11:09:35.619415  4727 net.cpp:157] Top shape: 16 512 18 22 (3244032)
I0815 11:09:35.619418  4727 net.cpp:165] Memory required for data: 3905814560
I0815 11:09:35.619421  4727 layer_factory.hpp:77] Creating layer conv5_2
I0815 11:09:35.619431  4727 net.cpp:100] Creating Layer conv5_2
I0815 11:09:35.619433  4727 net.cpp:434] conv5_2 <- conv5_1
I0815 11:09:35.619437  4727 net.cpp:408] conv5_2 -> conv5_2
I0815 11:09:35.630736  4727 net.cpp:150] Setting up conv5_2
I0815 11:09:35.630748  4727 net.cpp:157] Top shape: 16 512 18 22 (3244032)
I0815 11:09:35.630753  4727 net.cpp:165] Memory required for data: 3918790688
I0815 11:09:35.630758  4727 layer_factory.hpp:77] Creating layer relu5_2
I0815 11:09:35.630764  4727 net.cpp:100] Creating Layer relu5_2
I0815 11:09:35.630767  4727 net.cpp:434] relu5_2 <- conv5_2
I0815 11:09:35.630771  4727 net.cpp:395] relu5_2 -> conv5_2 (in-place)
I0815 11:09:35.631157  4727 net.cpp:150] Setting up relu5_2
I0815 11:09:35.631163  4727 net.cpp:157] Top shape: 16 512 18 22 (3244032)
I0815 11:09:35.631167  4727 net.cpp:165] Memory required for data: 3931766816
I0815 11:09:35.631170  4727 layer_factory.hpp:77] Creating layer conv5_3
I0815 11:09:35.631177  4727 net.cpp:100] Creating Layer conv5_3
I0815 11:09:35.631181  4727 net.cpp:434] conv5_3 <- conv5_2
I0815 11:09:35.631184  4727 net.cpp:408] conv5_3 -> conv5_3
I0815 11:09:35.643283  4727 net.cpp:150] Setting up conv5_3
I0815 11:09:35.643298  4727 net.cpp:157] Top shape: 16 512 18 22 (3244032)
I0815 11:09:35.643304  4727 net.cpp:165] Memory required for data: 3944742944
I0815 11:09:35.643311  4727 layer_factory.hpp:77] Creating layer relu5_3
I0815 11:09:35.643318  4727 net.cpp:100] Creating Layer relu5_3
I0815 11:09:35.643322  4727 net.cpp:434] relu5_3 <- conv5_3
I0815 11:09:35.643327  4727 net.cpp:395] relu5_3 -> conv5_3 (in-place)
I0815 11:09:35.643836  4727 net.cpp:150] Setting up relu5_3
I0815 11:09:35.643858  4727 net.cpp:157] Top shape: 16 512 18 22 (3244032)
I0815 11:09:35.643863  4727 net.cpp:165] Memory required for data: 3957719072
I0815 11:09:35.643867  4727 layer_factory.hpp:77] Creating layer pool5
I0815 11:09:35.643873  4727 net.cpp:100] Creating Layer pool5
I0815 11:09:35.643877  4727 net.cpp:434] pool5 <- conv5_3
I0815 11:09:35.643880  4727 net.cpp:408] pool5 -> pool5
I0815 11:09:35.643934  4727 net.cpp:150] Setting up pool5
I0815 11:09:35.643939  4727 net.cpp:157] Top shape: 16 512 18 22 (3244032)
I0815 11:09:35.643955  4727 net.cpp:165] Memory required for data: 3970695200
I0815 11:09:35.643957  4727 layer_factory.hpp:77] Creating layer fc6
I0815 11:09:35.643980  4727 net.cpp:100] Creating Layer fc6
I0815 11:09:35.643983  4727 net.cpp:434] fc6 <- pool5
I0815 11:09:35.643987  4727 net.cpp:408] fc6 -> fc6
I0815 11:09:35.664701  4727 net.cpp:150] Setting up fc6
I0815 11:09:35.664719  4727 net.cpp:157] Top shape: 16 1024 18 22 (6488064)
I0815 11:09:35.664726  4727 net.cpp:165] Memory required for data: 3996647456
I0815 11:09:35.664731  4727 layer_factory.hpp:77] Creating layer relu6
I0815 11:09:35.664739  4727 net.cpp:100] Creating Layer relu6
I0815 11:09:35.664742  4727 net.cpp:434] relu6 <- fc6
I0815 11:09:35.664747  4727 net.cpp:395] relu6 -> fc6 (in-place)
I0815 11:09:35.665236  4727 net.cpp:150] Setting up relu6
I0815 11:09:35.665243  4727 net.cpp:157] Top shape: 16 1024 18 22 (6488064)
I0815 11:09:35.665247  4727 net.cpp:165] Memory required for data: 4022599712
I0815 11:09:35.665251  4727 layer_factory.hpp:77] Creating layer fc7
I0815 11:09:35.665258  4727 net.cpp:100] Creating Layer fc7
I0815 11:09:35.665261  4727 net.cpp:434] fc7 <- fc6
I0815 11:09:35.665266  4727 net.cpp:408] fc7 -> fc7
I0815 11:09:35.671147  4727 net.cpp:150] Setting up fc7
I0815 11:09:35.671159  4727 net.cpp:157] Top shape: 16 1024 18 22 (6488064)
I0815 11:09:35.671164  4727 net.cpp:165] Memory required for data: 4048551968
I0815 11:09:35.671169  4727 layer_factory.hpp:77] Creating layer relu7
I0815 11:09:35.671175  4727 net.cpp:100] Creating Layer relu7
I0815 11:09:35.671178  4727 net.cpp:434] relu7 <- fc7
I0815 11:09:35.671181  4727 net.cpp:395] relu7 -> fc7 (in-place)
I0815 11:09:35.672991  4727 net.cpp:150] Setting up relu7
I0815 11:09:35.672998  4727 net.cpp:157] Top shape: 16 1024 18 22 (6488064)
I0815 11:09:35.673003  4727 net.cpp:165] Memory required for data: 4074504224
I0815 11:09:35.673005  4727 layer_factory.hpp:77] Creating layer fc7_relu7_0_split
I0815 11:09:35.673013  4727 net.cpp:100] Creating Layer fc7_relu7_0_split
I0815 11:09:35.673017  4727 net.cpp:434] fc7_relu7_0_split <- fc7
I0815 11:09:35.673022  4727 net.cpp:408] fc7_relu7_0_split -> fc7_relu7_0_split_0
I0815 11:09:35.673027  4727 net.cpp:408] fc7_relu7_0_split -> fc7_relu7_0_split_1
I0815 11:09:35.673032  4727 net.cpp:408] fc7_relu7_0_split -> fc7_relu7_0_split_2
I0815 11:09:35.673036  4727 net.cpp:408] fc7_relu7_0_split -> fc7_relu7_0_split_3
I0815 11:09:35.673096  4727 net.cpp:150] Setting up fc7_relu7_0_split
I0815 11:09:35.673100  4727 net.cpp:157] Top shape: 16 1024 18 22 (6488064)
I0815 11:09:35.673105  4727 net.cpp:157] Top shape: 16 1024 18 22 (6488064)
I0815 11:09:35.673106  4727 net.cpp:157] Top shape: 16 1024 18 22 (6488064)
I0815 11:09:35.673110  4727 net.cpp:157] Top shape: 16 1024 18 22 (6488064)
I0815 11:09:35.673111  4727 net.cpp:165] Memory required for data: 4178313248
I0815 11:09:35.673115  4727 layer_factory.hpp:77] Creating layer conv6_1
I0815 11:09:35.673121  4727 net.cpp:100] Creating Layer conv6_1
I0815 11:09:35.673125  4727 net.cpp:434] conv6_1 <- fc7_relu7_0_split_0
I0815 11:09:35.673130  4727 net.cpp:408] conv6_1 -> conv6_1
I0815 11:09:35.676004  4727 net.cpp:150] Setting up conv6_1
I0815 11:09:35.676013  4727 net.cpp:157] Top shape: 16 256 18 22 (1622016)
I0815 11:09:35.676017  4727 net.cpp:165] Memory required for data: 4184801312
I0815 11:09:35.676021  4727 layer_factory.hpp:77] Creating layer conv6_1_relu
I0815 11:09:35.676026  4727 net.cpp:100] Creating Layer conv6_1_relu
I0815 11:09:35.676029  4727 net.cpp:434] conv6_1_relu <- conv6_1
I0815 11:09:35.676048  4727 net.cpp:395] conv6_1_relu -> conv6_1 (in-place)
I0815 11:09:35.676434  4727 net.cpp:150] Setting up conv6_1_relu
I0815 11:09:35.676440  4727 net.cpp:157] Top shape: 16 256 18 22 (1622016)
I0815 11:09:35.676445  4727 net.cpp:165] Memory required for data: 4191289376
I0815 11:09:35.676447  4727 layer_factory.hpp:77] Creating layer conv6_2
I0815 11:09:35.676455  4727 net.cpp:100] Creating Layer conv6_2
I0815 11:09:35.676458  4727 net.cpp:434] conv6_2 <- conv6_1
I0815 11:09:35.676462  4727 net.cpp:408] conv6_2 -> conv6_2
I0815 11:09:35.682996  4727 net.cpp:150] Setting up conv6_2
I0815 11:09:35.683007  4727 net.cpp:157] Top shape: 16 512 9 11 (811008)
I0815 11:09:35.683012  4727 net.cpp:165] Memory required for data: 4194533408
I0815 11:09:35.683020  4727 layer_factory.hpp:77] Creating layer conv6_2_relu
I0815 11:09:35.683027  4727 net.cpp:100] Creating Layer conv6_2_relu
I0815 11:09:35.683030  4727 net.cpp:434] conv6_2_relu <- conv6_2
I0815 11:09:35.683034  4727 net.cpp:395] conv6_2_relu -> conv6_2 (in-place)
I0815 11:09:35.683388  4727 net.cpp:150] Setting up conv6_2_relu
I0815 11:09:35.683395  4727 net.cpp:157] Top shape: 16 512 9 11 (811008)
I0815 11:09:35.683398  4727 net.cpp:165] Memory required for data: 4197777440
I0815 11:09:35.683401  4727 layer_factory.hpp:77] Creating layer conv6_2_conv6_2_relu_0_split
I0815 11:09:35.683406  4727 net.cpp:100] Creating Layer conv6_2_conv6_2_relu_0_split
I0815 11:09:35.683409  4727 net.cpp:434] conv6_2_conv6_2_relu_0_split <- conv6_2
I0815 11:09:35.683413  4727 net.cpp:408] conv6_2_conv6_2_relu_0_split -> conv6_2_conv6_2_relu_0_split_0
I0815 11:09:35.683418  4727 net.cpp:408] conv6_2_conv6_2_relu_0_split -> conv6_2_conv6_2_relu_0_split_1
I0815 11:09:35.683421  4727 net.cpp:408] conv6_2_conv6_2_relu_0_split -> conv6_2_conv6_2_relu_0_split_2
I0815 11:09:35.683426  4727 net.cpp:408] conv6_2_conv6_2_relu_0_split -> conv6_2_conv6_2_relu_0_split_3
I0815 11:09:35.683483  4727 net.cpp:150] Setting up conv6_2_conv6_2_relu_0_split
I0815 11:09:35.683487  4727 net.cpp:157] Top shape: 16 512 9 11 (811008)
I0815 11:09:35.683491  4727 net.cpp:157] Top shape: 16 512 9 11 (811008)
I0815 11:09:35.683493  4727 net.cpp:157] Top shape: 16 512 9 11 (811008)
I0815 11:09:35.683496  4727 net.cpp:157] Top shape: 16 512 9 11 (811008)
I0815 11:09:35.683498  4727 net.cpp:165] Memory required for data: 4210753568
I0815 11:09:35.683501  4727 layer_factory.hpp:77] Creating layer conv7_1
I0815 11:09:35.683508  4727 net.cpp:100] Creating Layer conv7_1
I0815 11:09:35.683511  4727 net.cpp:434] conv7_1 <- conv6_2_conv6_2_relu_0_split_0
I0815 11:09:35.683516  4727 net.cpp:408] conv7_1 -> conv7_1
I0815 11:09:35.686090  4727 net.cpp:150] Setting up conv7_1
I0815 11:09:35.686098  4727 net.cpp:157] Top shape: 16 128 9 11 (202752)
I0815 11:09:35.686102  4727 net.cpp:165] Memory required for data: 4211564576
I0815 11:09:35.686106  4727 layer_factory.hpp:77] Creating layer conv7_1_relu
I0815 11:09:35.686112  4727 net.cpp:100] Creating Layer conv7_1_relu
I0815 11:09:35.686115  4727 net.cpp:434] conv7_1_relu <- conv7_1
I0815 11:09:35.686118  4727 net.cpp:395] conv7_1_relu -> conv7_1 (in-place)
I0815 11:09:35.686467  4727 net.cpp:150] Setting up conv7_1_relu
I0815 11:09:35.686473  4727 net.cpp:157] Top shape: 16 128 9 11 (202752)
I0815 11:09:35.686476  4727 net.cpp:165] Memory required for data: 4212375584
I0815 11:09:35.686480  4727 layer_factory.hpp:77] Creating layer conv7_2
I0815 11:09:35.686487  4727 net.cpp:100] Creating Layer conv7_2
I0815 11:09:35.686491  4727 net.cpp:434] conv7_2 <- conv7_1
I0815 11:09:35.686494  4727 net.cpp:408] conv7_2 -> conv7_2
I0815 11:09:35.689558  4727 net.cpp:150] Setting up conv7_2
I0815 11:09:35.689565  4727 net.cpp:157] Top shape: 16 256 5 6 (122880)
I0815 11:09:35.689569  4727 net.cpp:165] Memory required for data: 4212867104
I0815 11:09:35.689574  4727 layer_factory.hpp:77] Creating layer conv7_2_relu
I0815 11:09:35.689577  4727 net.cpp:100] Creating Layer conv7_2_relu
I0815 11:09:35.689580  4727 net.cpp:434] conv7_2_relu <- conv7_2
I0815 11:09:35.689595  4727 net.cpp:395] conv7_2_relu -> conv7_2 (in-place)
I0815 11:09:35.689958  4727 net.cpp:150] Setting up conv7_2_relu
I0815 11:09:35.689965  4727 net.cpp:157] Top shape: 16 256 5 6 (122880)
I0815 11:09:35.689968  4727 net.cpp:165] Memory required for data: 4213358624
I0815 11:09:35.689971  4727 layer_factory.hpp:77] Creating layer conv7_2_conv7_2_relu_0_split
I0815 11:09:35.689976  4727 net.cpp:100] Creating Layer conv7_2_conv7_2_relu_0_split
I0815 11:09:35.689978  4727 net.cpp:434] conv7_2_conv7_2_relu_0_split <- conv7_2
I0815 11:09:35.689983  4727 net.cpp:408] conv7_2_conv7_2_relu_0_split -> conv7_2_conv7_2_relu_0_split_0
I0815 11:09:35.689988  4727 net.cpp:408] conv7_2_conv7_2_relu_0_split -> conv7_2_conv7_2_relu_0_split_1
I0815 11:09:35.689992  4727 net.cpp:408] conv7_2_conv7_2_relu_0_split -> conv7_2_conv7_2_relu_0_split_2
I0815 11:09:35.689996  4727 net.cpp:408] conv7_2_conv7_2_relu_0_split -> conv7_2_conv7_2_relu_0_split_3
I0815 11:09:35.690055  4727 net.cpp:150] Setting up conv7_2_conv7_2_relu_0_split
I0815 11:09:35.690059  4727 net.cpp:157] Top shape: 16 256 5 6 (122880)
I0815 11:09:35.690062  4727 net.cpp:157] Top shape: 16 256 5 6 (122880)
I0815 11:09:35.690065  4727 net.cpp:157] Top shape: 16 256 5 6 (122880)
I0815 11:09:35.690068  4727 net.cpp:157] Top shape: 16 256 5 6 (122880)
I0815 11:09:35.690070  4727 net.cpp:165] Memory required for data: 4215324704
I0815 11:09:35.690073  4727 layer_factory.hpp:77] Creating layer conv8_1
I0815 11:09:35.690078  4727 net.cpp:100] Creating Layer conv8_1
I0815 11:09:35.690081  4727 net.cpp:434] conv8_1 <- conv7_2_conv7_2_relu_0_split_0
I0815 11:09:35.690088  4727 net.cpp:408] conv8_1 -> conv8_1
I0815 11:09:35.691710  4727 net.cpp:150] Setting up conv8_1
I0815 11:09:35.691717  4727 net.cpp:157] Top shape: 16 128 5 6 (61440)
I0815 11:09:35.691722  4727 net.cpp:165] Memory required for data: 4215570464
I0815 11:09:35.691726  4727 layer_factory.hpp:77] Creating layer conv8_1_relu
I0815 11:09:35.691731  4727 net.cpp:100] Creating Layer conv8_1_relu
I0815 11:09:35.691733  4727 net.cpp:434] conv8_1_relu <- conv8_1
I0815 11:09:35.691737  4727 net.cpp:395] conv8_1_relu -> conv8_1 (in-place)
I0815 11:09:35.693202  4727 net.cpp:150] Setting up conv8_1_relu
I0815 11:09:35.693210  4727 net.cpp:157] Top shape: 16 128 5 6 (61440)
I0815 11:09:35.693214  4727 net.cpp:165] Memory required for data: 4215816224
I0815 11:09:35.693217  4727 layer_factory.hpp:77] Creating layer conv8_2
I0815 11:09:35.693225  4727 net.cpp:100] Creating Layer conv8_2
I0815 11:09:35.693228  4727 net.cpp:434] conv8_2 <- conv8_1
I0815 11:09:35.693233  4727 net.cpp:408] conv8_2 -> conv8_2
I0815 11:09:35.696211  4727 net.cpp:150] Setting up conv8_2
I0815 11:09:35.696219  4727 net.cpp:157] Top shape: 16 256 3 4 (49152)
I0815 11:09:35.696223  4727 net.cpp:165] Memory required for data: 4216012832
I0815 11:09:35.696228  4727 layer_factory.hpp:77] Creating layer conv8_2_relu
I0815 11:09:35.696233  4727 net.cpp:100] Creating Layer conv8_2_relu
I0815 11:09:35.696236  4727 net.cpp:434] conv8_2_relu <- conv8_2
I0815 11:09:35.696239  4727 net.cpp:395] conv8_2_relu -> conv8_2 (in-place)
I0815 11:09:35.696594  4727 net.cpp:150] Setting up conv8_2_relu
I0815 11:09:35.696600  4727 net.cpp:157] Top shape: 16 256 3 4 (49152)
I0815 11:09:35.696604  4727 net.cpp:165] Memory required for data: 4216209440
I0815 11:09:35.696606  4727 layer_factory.hpp:77] Creating layer conv8_2_conv8_2_relu_0_split
I0815 11:09:35.696611  4727 net.cpp:100] Creating Layer conv8_2_conv8_2_relu_0_split
I0815 11:09:35.696614  4727 net.cpp:434] conv8_2_conv8_2_relu_0_split <- conv8_2
I0815 11:09:35.696619  4727 net.cpp:408] conv8_2_conv8_2_relu_0_split -> conv8_2_conv8_2_relu_0_split_0
I0815 11:09:35.696624  4727 net.cpp:408] conv8_2_conv8_2_relu_0_split -> conv8_2_conv8_2_relu_0_split_1
I0815 11:09:35.696627  4727 net.cpp:408] conv8_2_conv8_2_relu_0_split -> conv8_2_conv8_2_relu_0_split_2
I0815 11:09:35.696630  4727 net.cpp:408] conv8_2_conv8_2_relu_0_split -> conv8_2_conv8_2_relu_0_split_3
I0815 11:09:35.696691  4727 net.cpp:150] Setting up conv8_2_conv8_2_relu_0_split
I0815 11:09:35.696704  4727 net.cpp:157] Top shape: 16 256 3 4 (49152)
I0815 11:09:35.696708  4727 net.cpp:157] Top shape: 16 256 3 4 (49152)
I0815 11:09:35.696710  4727 net.cpp:157] Top shape: 16 256 3 4 (49152)
I0815 11:09:35.696713  4727 net.cpp:157] Top shape: 16 256 3 4 (49152)
I0815 11:09:35.696715  4727 net.cpp:165] Memory required for data: 4216995872
I0815 11:09:35.696718  4727 layer_factory.hpp:77] Creating layer conv9_1
I0815 11:09:35.696723  4727 net.cpp:100] Creating Layer conv9_1
I0815 11:09:35.696727  4727 net.cpp:434] conv9_1 <- conv8_2_conv8_2_relu_0_split_0
I0815 11:09:35.696732  4727 net.cpp:408] conv9_1 -> conv9_1
I0815 11:09:35.698374  4727 net.cpp:150] Setting up conv9_1
I0815 11:09:35.698380  4727 net.cpp:157] Top shape: 16 128 3 4 (24576)
I0815 11:09:35.698385  4727 net.cpp:165] Memory required for data: 4217094176
I0815 11:09:35.698388  4727 layer_factory.hpp:77] Creating layer conv9_1_relu
I0815 11:09:35.698393  4727 net.cpp:100] Creating Layer conv9_1_relu
I0815 11:09:35.698396  4727 net.cpp:434] conv9_1_relu <- conv9_1
I0815 11:09:35.698400  4727 net.cpp:395] conv9_1_relu -> conv9_1 (in-place)
I0815 11:09:35.698873  4727 net.cpp:150] Setting up conv9_1_relu
I0815 11:09:35.698880  4727 net.cpp:157] Top shape: 16 128 3 4 (24576)
I0815 11:09:35.698884  4727 net.cpp:165] Memory required for data: 4217192480
I0815 11:09:35.698886  4727 layer_factory.hpp:77] Creating layer conv9_2
I0815 11:09:35.698894  4727 net.cpp:100] Creating Layer conv9_2
I0815 11:09:35.698897  4727 net.cpp:434] conv9_2 <- conv9_1
I0815 11:09:35.698901  4727 net.cpp:408] conv9_2 -> conv9_2
I0815 11:09:35.702682  4727 net.cpp:150] Setting up conv9_2
I0815 11:09:35.702692  4727 net.cpp:157] Top shape: 16 256 1 2 (8192)
I0815 11:09:35.702695  4727 net.cpp:165] Memory required for data: 4217225248
I0815 11:09:35.702700  4727 layer_factory.hpp:77] Creating layer conv9_2_relu
I0815 11:09:35.702704  4727 net.cpp:100] Creating Layer conv9_2_relu
I0815 11:09:35.702708  4727 net.cpp:434] conv9_2_relu <- conv9_2
I0815 11:09:35.702711  4727 net.cpp:395] conv9_2_relu -> conv9_2 (in-place)
I0815 11:09:35.703068  4727 net.cpp:150] Setting up conv9_2_relu
I0815 11:09:35.703074  4727 net.cpp:157] Top shape: 16 256 1 2 (8192)
I0815 11:09:35.703078  4727 net.cpp:165] Memory required for data: 4217258016
I0815 11:09:35.703080  4727 layer_factory.hpp:77] Creating layer conv9_2_conv9_2_relu_0_split
I0815 11:09:35.703109  4727 net.cpp:100] Creating Layer conv9_2_conv9_2_relu_0_split
I0815 11:09:35.703114  4727 net.cpp:434] conv9_2_conv9_2_relu_0_split <- conv9_2
I0815 11:09:35.703119  4727 net.cpp:408] conv9_2_conv9_2_relu_0_split -> conv9_2_conv9_2_relu_0_split_0
I0815 11:09:35.703122  4727 net.cpp:408] conv9_2_conv9_2_relu_0_split -> conv9_2_conv9_2_relu_0_split_1
I0815 11:09:35.703127  4727 net.cpp:408] conv9_2_conv9_2_relu_0_split -> conv9_2_conv9_2_relu_0_split_2
I0815 11:09:35.703218  4727 net.cpp:150] Setting up conv9_2_conv9_2_relu_0_split
I0815 11:09:35.703222  4727 net.cpp:157] Top shape: 16 256 1 2 (8192)
I0815 11:09:35.703227  4727 net.cpp:157] Top shape: 16 256 1 2 (8192)
I0815 11:09:35.703228  4727 net.cpp:157] Top shape: 16 256 1 2 (8192)
I0815 11:09:35.703246  4727 net.cpp:165] Memory required for data: 4217356320
I0815 11:09:35.703248  4727 layer_factory.hpp:77] Creating layer conv4_3_norm
I0815 11:09:35.703254  4727 net.cpp:100] Creating Layer conv4_3_norm
I0815 11:09:35.703258  4727 net.cpp:434] conv4_3_norm <- conv4_3_relu4_3_0_split_1
I0815 11:09:35.703261  4727 net.cpp:408] conv4_3_norm -> conv4_3_norm
I0815 11:09:35.703431  4727 net.cpp:150] Setting up conv4_3_norm
I0815 11:09:35.703435  4727 net.cpp:157] Top shape: 16 512 36 44 (12976128)
I0815 11:09:35.703438  4727 net.cpp:165] Memory required for data: 4269260832
I0815 11:09:35.703442  4727 layer_factory.hpp:77] Creating layer conv4_3_norm_conv4_3_norm_0_split
I0815 11:09:35.703445  4727 net.cpp:100] Creating Layer conv4_3_norm_conv4_3_norm_0_split
I0815 11:09:35.703449  4727 net.cpp:434] conv4_3_norm_conv4_3_norm_0_split <- conv4_3_norm
I0815 11:09:35.703451  4727 net.cpp:408] conv4_3_norm_conv4_3_norm_0_split -> conv4_3_norm_conv4_3_norm_0_split_0
I0815 11:09:35.703469  4727 net.cpp:408] conv4_3_norm_conv4_3_norm_0_split -> conv4_3_norm_conv4_3_norm_0_split_1
I0815 11:09:35.703472  4727 net.cpp:408] conv4_3_norm_conv4_3_norm_0_split -> conv4_3_norm_conv4_3_norm_0_split_2
I0815 11:09:35.703547  4727 net.cpp:150] Setting up conv4_3_norm_conv4_3_norm_0_split
I0815 11:09:35.703552  4727 net.cpp:157] Top shape: 16 512 36 44 (12976128)
I0815 11:09:35.703555  4727 net.cpp:157] Top shape: 16 512 36 44 (12976128)
I0815 11:09:35.703557  4727 net.cpp:157] Top shape: 16 512 36 44 (12976128)
I0815 11:09:35.703560  4727 net.cpp:165] Memory required for data: 4424974368
I0815 11:09:35.703562  4727 layer_factory.hpp:77] Creating layer conv4_3_norm_mbox_loc
I0815 11:09:35.703569  4727 net.cpp:100] Creating Layer conv4_3_norm_mbox_loc
I0815 11:09:35.703572  4727 net.cpp:434] conv4_3_norm_mbox_loc <- conv4_3_norm_conv4_3_norm_0_split_0
I0815 11:09:35.703577  4727 net.cpp:408] conv4_3_norm_mbox_loc -> conv4_3_norm_mbox_loc
I0815 11:09:35.705736  4727 net.cpp:150] Setting up conv4_3_norm_mbox_loc
I0815 11:09:35.705744  4727 net.cpp:157] Top shape: 16 16 36 44 (405504)
I0815 11:09:35.705749  4727 net.cpp:165] Memory required for data: 4426596384
I0815 11:09:35.705754  4727 layer_factory.hpp:77] Creating layer conv4_3_norm_mbox_loc_perm
I0815 11:09:35.705761  4727 net.cpp:100] Creating Layer conv4_3_norm_mbox_loc_perm
I0815 11:09:35.705765  4727 net.cpp:434] conv4_3_norm_mbox_loc_perm <- conv4_3_norm_mbox_loc
I0815 11:09:35.705768  4727 net.cpp:408] conv4_3_norm_mbox_loc_perm -> conv4_3_norm_mbox_loc_perm
I0815 11:09:35.705868  4727 net.cpp:150] Setting up conv4_3_norm_mbox_loc_perm
I0815 11:09:35.705873  4727 net.cpp:157] Top shape: 16 36 44 16 (405504)
I0815 11:09:35.705876  4727 net.cpp:165] Memory required for data: 4428218400
I0815 11:09:35.705878  4727 layer_factory.hpp:77] Creating layer conv4_3_norm_mbox_loc_flat
I0815 11:09:35.705883  4727 net.cpp:100] Creating Layer conv4_3_norm_mbox_loc_flat
I0815 11:09:35.705886  4727 net.cpp:434] conv4_3_norm_mbox_loc_flat <- conv4_3_norm_mbox_loc_perm
I0815 11:09:35.705889  4727 net.cpp:408] conv4_3_norm_mbox_loc_flat -> conv4_3_norm_mbox_loc_flat
I0815 11:09:35.705914  4727 net.cpp:150] Setting up conv4_3_norm_mbox_loc_flat
I0815 11:09:35.705919  4727 net.cpp:157] Top shape: 16 25344 (405504)
I0815 11:09:35.705921  4727 net.cpp:165] Memory required for data: 4429840416
I0815 11:09:35.705924  4727 layer_factory.hpp:77] Creating layer conv4_3_norm_mbox_conf
I0815 11:09:35.705934  4727 net.cpp:100] Creating Layer conv4_3_norm_mbox_conf
I0815 11:09:35.705937  4727 net.cpp:434] conv4_3_norm_mbox_conf <- conv4_3_norm_conv4_3_norm_0_split_1
I0815 11:09:35.705941  4727 net.cpp:408] conv4_3_norm_mbox_conf -> conv4_3_norm_mbox_conf
I0815 11:09:35.707726  4727 net.cpp:150] Setting up conv4_3_norm_mbox_conf
I0815 11:09:35.707734  4727 net.cpp:157] Top shape: 16 8 36 44 (202752)
I0815 11:09:35.707739  4727 net.cpp:165] Memory required for data: 4430651424
I0815 11:09:35.707746  4727 layer_factory.hpp:77] Creating layer conv4_3_norm_mbox_conf_perm
I0815 11:09:35.707751  4727 net.cpp:100] Creating Layer conv4_3_norm_mbox_conf_perm
I0815 11:09:35.707754  4727 net.cpp:434] conv4_3_norm_mbox_conf_perm <- conv4_3_norm_mbox_conf
I0815 11:09:35.707757  4727 net.cpp:408] conv4_3_norm_mbox_conf_perm -> conv4_3_norm_mbox_conf_perm
I0815 11:09:35.707857  4727 net.cpp:150] Setting up conv4_3_norm_mbox_conf_perm
I0815 11:09:35.707861  4727 net.cpp:157] Top shape: 16 36 44 8 (202752)
I0815 11:09:35.707864  4727 net.cpp:165] Memory required for data: 4431462432
I0815 11:09:35.707866  4727 layer_factory.hpp:77] Creating layer conv4_3_norm_mbox_conf_flat
I0815 11:09:35.707871  4727 net.cpp:100] Creating Layer conv4_3_norm_mbox_conf_flat
I0815 11:09:35.707875  4727 net.cpp:434] conv4_3_norm_mbox_conf_flat <- conv4_3_norm_mbox_conf_perm
I0815 11:09:35.707878  4727 net.cpp:408] conv4_3_norm_mbox_conf_flat -> conv4_3_norm_mbox_conf_flat
I0815 11:09:35.707898  4727 net.cpp:150] Setting up conv4_3_norm_mbox_conf_flat
I0815 11:09:35.707911  4727 net.cpp:157] Top shape: 16 12672 (202752)
I0815 11:09:35.707914  4727 net.cpp:165] Memory required for data: 4432273440
I0815 11:09:35.707916  4727 layer_factory.hpp:77] Creating layer conv4_3_norm_mbox_priorbox
I0815 11:09:35.707922  4727 net.cpp:100] Creating Layer conv4_3_norm_mbox_priorbox
I0815 11:09:35.707926  4727 net.cpp:434] conv4_3_norm_mbox_priorbox <- conv4_3_norm_conv4_3_norm_0_split_2
I0815 11:09:35.707929  4727 net.cpp:434] conv4_3_norm_mbox_priorbox <- data_data_0_split_1
I0815 11:09:35.707932  4727 net.cpp:408] conv4_3_norm_mbox_priorbox -> conv4_3_norm_mbox_priorbox
I0815 11:09:35.707957  4727 net.cpp:150] Setting up conv4_3_norm_mbox_priorbox
I0815 11:09:35.707960  4727 net.cpp:157] Top shape: 1 2 25344 (50688)
I0815 11:09:35.707963  4727 net.cpp:165] Memory required for data: 4432476192
I0815 11:09:35.707965  4727 layer_factory.hpp:77] Creating layer fc7_mbox_loc
I0815 11:09:35.707973  4727 net.cpp:100] Creating Layer fc7_mbox_loc
I0815 11:09:35.707975  4727 net.cpp:434] fc7_mbox_loc <- fc7_relu7_0_split_1
I0815 11:09:35.707979  4727 net.cpp:408] fc7_mbox_loc -> fc7_mbox_loc
I0815 11:09:35.711262  4727 net.cpp:150] Setting up fc7_mbox_loc
I0815 11:09:35.711271  4727 net.cpp:157] Top shape: 16 24 18 22 (152064)
I0815 11:09:35.711274  4727 net.cpp:165] Memory required for data: 4433084448
I0815 11:09:35.711280  4727 layer_factory.hpp:77] Creating layer fc7_mbox_loc_perm
I0815 11:09:35.711284  4727 net.cpp:100] Creating Layer fc7_mbox_loc_perm
I0815 11:09:35.711289  4727 net.cpp:434] fc7_mbox_loc_perm <- fc7_mbox_loc
I0815 11:09:35.711294  4727 net.cpp:408] fc7_mbox_loc_perm -> fc7_mbox_loc_perm
I0815 11:09:35.711395  4727 net.cpp:150] Setting up fc7_mbox_loc_perm
I0815 11:09:35.711398  4727 net.cpp:157] Top shape: 16 18 22 24 (152064)
I0815 11:09:35.711402  4727 net.cpp:165] Memory required for data: 4433692704
I0815 11:09:35.711405  4727 layer_factory.hpp:77] Creating layer fc7_mbox_loc_flat
I0815 11:09:35.711408  4727 net.cpp:100] Creating Layer fc7_mbox_loc_flat
I0815 11:09:35.711411  4727 net.cpp:434] fc7_mbox_loc_flat <- fc7_mbox_loc_perm
I0815 11:09:35.711429  4727 net.cpp:408] fc7_mbox_loc_flat -> fc7_mbox_loc_flat
I0815 11:09:35.711452  4727 net.cpp:150] Setting up fc7_mbox_loc_flat
I0815 11:09:35.711454  4727 net.cpp:157] Top shape: 16 9504 (152064)
I0815 11:09:35.711472  4727 net.cpp:165] Memory required for data: 4434300960
I0815 11:09:35.711473  4727 layer_factory.hpp:77] Creating layer fc7_mbox_conf
I0815 11:09:35.711478  4727 net.cpp:100] Creating Layer fc7_mbox_conf
I0815 11:09:35.711483  4727 net.cpp:434] fc7_mbox_conf <- fc7_relu7_0_split_2
I0815 11:09:35.711485  4727 net.cpp:408] fc7_mbox_conf -> fc7_mbox_conf
I0815 11:09:35.713943  4727 net.cpp:150] Setting up fc7_mbox_conf
I0815 11:09:35.713951  4727 net.cpp:157] Top shape: 16 12 18 22 (76032)
I0815 11:09:35.713955  4727 net.cpp:165] Memory required for data: 4434605088
I0815 11:09:35.713976  4727 layer_factory.hpp:77] Creating layer fc7_mbox_conf_perm
I0815 11:09:35.713982  4727 net.cpp:100] Creating Layer fc7_mbox_conf_perm
I0815 11:09:35.713985  4727 net.cpp:434] fc7_mbox_conf_perm <- fc7_mbox_conf
I0815 11:09:35.713989  4727 net.cpp:408] fc7_mbox_conf_perm -> fc7_mbox_conf_perm
I0815 11:09:35.714103  4727 net.cpp:150] Setting up fc7_mbox_conf_perm
I0815 11:09:35.714107  4727 net.cpp:157] Top shape: 16 18 22 12 (76032)
I0815 11:09:35.714126  4727 net.cpp:165] Memory required for data: 4434909216
I0815 11:09:35.714128  4727 layer_factory.hpp:77] Creating layer fc7_mbox_conf_flat
I0815 11:09:35.714133  4727 net.cpp:100] Creating Layer fc7_mbox_conf_flat
I0815 11:09:35.714136  4727 net.cpp:434] fc7_mbox_conf_flat <- fc7_mbox_conf_perm
I0815 11:09:35.714139  4727 net.cpp:408] fc7_mbox_conf_flat -> fc7_mbox_conf_flat
I0815 11:09:35.714171  4727 net.cpp:150] Setting up fc7_mbox_conf_flat
I0815 11:09:35.714175  4727 net.cpp:157] Top shape: 16 4752 (76032)
I0815 11:09:35.714179  4727 net.cpp:165] Memory required for data: 4435213344
I0815 11:09:35.714180  4727 layer_factory.hpp:77] Creating layer fc7_mbox_priorbox
I0815 11:09:35.714221  4727 net.cpp:100] Creating Layer fc7_mbox_priorbox
I0815 11:09:35.714223  4727 net.cpp:434] fc7_mbox_priorbox <- fc7_relu7_0_split_3
I0815 11:09:35.714226  4727 net.cpp:434] fc7_mbox_priorbox <- data_data_0_split_2
I0815 11:09:35.714231  4727 net.cpp:408] fc7_mbox_priorbox -> fc7_mbox_priorbox
I0815 11:09:35.714285  4727 net.cpp:150] Setting up fc7_mbox_priorbox
I0815 11:09:35.714289  4727 net.cpp:157] Top shape: 1 2 9504 (19008)
I0815 11:09:35.714293  4727 net.cpp:165] Memory required for data: 4435289376
I0815 11:09:35.714294  4727 layer_factory.hpp:77] Creating layer conv6_2_mbox_loc
I0815 11:09:35.714301  4727 net.cpp:100] Creating Layer conv6_2_mbox_loc
I0815 11:09:35.714305  4727 net.cpp:434] conv6_2_mbox_loc <- conv6_2_conv6_2_relu_0_split_1
I0815 11:09:35.714309  4727 net.cpp:408] conv6_2_mbox_loc -> conv6_2_mbox_loc
I0815 11:09:35.716475  4727 net.cpp:150] Setting up conv6_2_mbox_loc
I0815 11:09:35.716483  4727 net.cpp:157] Top shape: 16 24 9 11 (38016)
I0815 11:09:35.716502  4727 net.cpp:165] Memory required for data: 4435441440
I0815 11:09:35.716506  4727 layer_factory.hpp:77] Creating layer conv6_2_mbox_loc_perm
I0815 11:09:35.716512  4727 net.cpp:100] Creating Layer conv6_2_mbox_loc_perm
I0815 11:09:35.716516  4727 net.cpp:434] conv6_2_mbox_loc_perm <- conv6_2_mbox_loc
I0815 11:09:35.716519  4727 net.cpp:408] conv6_2_mbox_loc_perm -> conv6_2_mbox_loc_perm
I0815 11:09:35.716650  4727 net.cpp:150] Setting up conv6_2_mbox_loc_perm
I0815 11:09:35.716655  4727 net.cpp:157] Top shape: 16 9 11 24 (38016)
I0815 11:09:35.716658  4727 net.cpp:165] Memory required for data: 4435593504
I0815 11:09:35.716660  4727 layer_factory.hpp:77] Creating layer conv6_2_mbox_loc_flat
I0815 11:09:35.716665  4727 net.cpp:100] Creating Layer conv6_2_mbox_loc_flat
I0815 11:09:35.716667  4727 net.cpp:434] conv6_2_mbox_loc_flat <- conv6_2_mbox_loc_perm
I0815 11:09:35.716670  4727 net.cpp:408] conv6_2_mbox_loc_flat -> conv6_2_mbox_loc_flat
I0815 11:09:35.716719  4727 net.cpp:150] Setting up conv6_2_mbox_loc_flat
I0815 11:09:35.716723  4727 net.cpp:157] Top shape: 16 2376 (38016)
I0815 11:09:35.716727  4727 net.cpp:165] Memory required for data: 4435745568
I0815 11:09:35.716728  4727 layer_factory.hpp:77] Creating layer conv6_2_mbox_conf
I0815 11:09:35.716735  4727 net.cpp:100] Creating Layer conv6_2_mbox_conf
I0815 11:09:35.716739  4727 net.cpp:434] conv6_2_mbox_conf <- conv6_2_conv6_2_relu_0_split_2
I0815 11:09:35.716743  4727 net.cpp:408] conv6_2_mbox_conf -> conv6_2_mbox_conf
I0815 11:09:35.719461  4727 net.cpp:150] Setting up conv6_2_mbox_conf
I0815 11:09:35.719470  4727 net.cpp:157] Top shape: 16 12 9 11 (19008)
I0815 11:09:35.719487  4727 net.cpp:165] Memory required for data: 4435821600
I0815 11:09:35.719491  4727 layer_factory.hpp:77] Creating layer conv6_2_mbox_conf_perm
I0815 11:09:35.719497  4727 net.cpp:100] Creating Layer conv6_2_mbox_conf_perm
I0815 11:09:35.719501  4727 net.cpp:434] conv6_2_mbox_conf_perm <- conv6_2_mbox_conf
I0815 11:09:35.719504  4727 net.cpp:408] conv6_2_mbox_conf_perm -> conv6_2_mbox_conf_perm
I0815 11:09:35.719615  4727 net.cpp:150] Setting up conv6_2_mbox_conf_perm
I0815 11:09:35.719620  4727 net.cpp:157] Top shape: 16 9 11 12 (19008)
I0815 11:09:35.719638  4727 net.cpp:165] Memory required for data: 4435897632
I0815 11:09:35.719641  4727 layer_factory.hpp:77] Creating layer conv6_2_mbox_conf_flat
I0815 11:09:35.719646  4727 net.cpp:100] Creating Layer conv6_2_mbox_conf_flat
I0815 11:09:35.719648  4727 net.cpp:434] conv6_2_mbox_conf_flat <- conv6_2_mbox_conf_perm
I0815 11:09:35.719652  4727 net.cpp:408] conv6_2_mbox_conf_flat -> conv6_2_mbox_conf_flat
I0815 11:09:35.719672  4727 net.cpp:150] Setting up conv6_2_mbox_conf_flat
I0815 11:09:35.719676  4727 net.cpp:157] Top shape: 16 1188 (19008)
I0815 11:09:35.719679  4727 net.cpp:165] Memory required for data: 4435973664
I0815 11:09:35.719681  4727 layer_factory.hpp:77] Creating layer conv6_2_mbox_priorbox
I0815 11:09:35.719686  4727 net.cpp:100] Creating Layer conv6_2_mbox_priorbox
I0815 11:09:35.719714  4727 net.cpp:434] conv6_2_mbox_priorbox <- conv6_2_conv6_2_relu_0_split_3
I0815 11:09:35.719718  4727 net.cpp:434] conv6_2_mbox_priorbox <- data_data_0_split_3
I0815 11:09:35.719722  4727 net.cpp:408] conv6_2_mbox_priorbox -> conv6_2_mbox_priorbox
I0815 11:09:35.719782  4727 net.cpp:150] Setting up conv6_2_mbox_priorbox
I0815 11:09:35.719786  4727 net.cpp:157] Top shape: 1 2 2376 (4752)
I0815 11:09:35.719805  4727 net.cpp:165] Memory required for data: 4435992672
I0815 11:09:35.719806  4727 layer_factory.hpp:77] Creating layer conv7_2_mbox_loc
I0815 11:09:35.719825  4727 net.cpp:100] Creating Layer conv7_2_mbox_loc
I0815 11:09:35.719828  4727 net.cpp:434] conv7_2_mbox_loc <- conv7_2_conv7_2_relu_0_split_1
I0815 11:09:35.719848  4727 net.cpp:408] conv7_2_mbox_loc -> conv7_2_mbox_loc
I0815 11:09:35.721776  4727 net.cpp:150] Setting up conv7_2_mbox_loc
I0815 11:09:35.721797  4727 net.cpp:157] Top shape: 16 24 5 6 (11520)
I0815 11:09:35.721801  4727 net.cpp:165] Memory required for data: 4436038752
I0815 11:09:35.721822  4727 layer_factory.hpp:77] Creating layer conv7_2_mbox_loc_perm
I0815 11:09:35.721828  4727 net.cpp:100] Creating Layer conv7_2_mbox_loc_perm
I0815 11:09:35.721832  4727 net.cpp:434] conv7_2_mbox_loc_perm <- conv7_2_mbox_loc
I0815 11:09:35.721835  4727 net.cpp:408] conv7_2_mbox_loc_perm -> conv7_2_mbox_loc_perm
I0815 11:09:35.721951  4727 net.cpp:150] Setting up conv7_2_mbox_loc_perm
I0815 11:09:35.721956  4727 net.cpp:157] Top shape: 16 5 6 24 (11520)
I0815 11:09:35.721973  4727 net.cpp:165] Memory required for data: 4436084832
I0815 11:09:35.721976  4727 layer_factory.hpp:77] Creating layer conv7_2_mbox_loc_flat
I0815 11:09:35.721979  4727 net.cpp:100] Creating Layer conv7_2_mbox_loc_flat
I0815 11:09:35.721982  4727 net.cpp:434] conv7_2_mbox_loc_flat <- conv7_2_mbox_loc_perm
I0815 11:09:35.721985  4727 net.cpp:408] conv7_2_mbox_loc_flat -> conv7_2_mbox_loc_flat
I0815 11:09:35.722007  4727 net.cpp:150] Setting up conv7_2_mbox_loc_flat
I0815 11:09:35.722010  4727 net.cpp:157] Top shape: 16 720 (11520)
I0815 11:09:35.722013  4727 net.cpp:165] Memory required for data: 4436130912
I0815 11:09:35.722015  4727 layer_factory.hpp:77] Creating layer conv7_2_mbox_conf
I0815 11:09:35.722021  4727 net.cpp:100] Creating Layer conv7_2_mbox_conf
I0815 11:09:35.722024  4727 net.cpp:434] conv7_2_mbox_conf <- conv7_2_conv7_2_relu_0_split_2
I0815 11:09:35.722028  4727 net.cpp:408] conv7_2_mbox_conf -> conv7_2_mbox_conf
I0815 11:09:35.723768  4727 net.cpp:150] Setting up conv7_2_mbox_conf
I0815 11:09:35.723775  4727 net.cpp:157] Top shape: 16 12 5 6 (5760)
I0815 11:09:35.723795  4727 net.cpp:165] Memory required for data: 4436153952
I0815 11:09:35.723799  4727 layer_factory.hpp:77] Creating layer conv7_2_mbox_conf_perm
I0815 11:09:35.723804  4727 net.cpp:100] Creating Layer conv7_2_mbox_conf_perm
I0815 11:09:35.723806  4727 net.cpp:434] conv7_2_mbox_conf_perm <- conv7_2_mbox_conf
I0815 11:09:35.723811  4727 net.cpp:408] conv7_2_mbox_conf_perm -> conv7_2_mbox_conf_perm
I0815 11:09:35.723927  4727 net.cpp:150] Setting up conv7_2_mbox_conf_perm
I0815 11:09:35.723932  4727 net.cpp:157] Top shape: 16 5 6 12 (5760)
I0815 11:09:35.723950  4727 net.cpp:165] Memory required for data: 4436176992
I0815 11:09:35.723953  4727 layer_factory.hpp:77] Creating layer conv7_2_mbox_conf_flat
I0815 11:09:35.723956  4727 net.cpp:100] Creating Layer conv7_2_mbox_conf_flat
I0815 11:09:35.723958  4727 net.cpp:434] conv7_2_mbox_conf_flat <- conv7_2_mbox_conf_perm
I0815 11:09:35.723963  4727 net.cpp:408] conv7_2_mbox_conf_flat -> conv7_2_mbox_conf_flat
I0815 11:09:35.723985  4727 net.cpp:150] Setting up conv7_2_mbox_conf_flat
I0815 11:09:35.723989  4727 net.cpp:157] Top shape: 16 360 (5760)
I0815 11:09:35.723991  4727 net.cpp:165] Memory required for data: 4436200032
I0815 11:09:35.723994  4727 layer_factory.hpp:77] Creating layer conv7_2_mbox_priorbox
I0815 11:09:35.723999  4727 net.cpp:100] Creating Layer conv7_2_mbox_priorbox
I0815 11:09:35.724001  4727 net.cpp:434] conv7_2_mbox_priorbox <- conv7_2_conv7_2_relu_0_split_3
I0815 11:09:35.724014  4727 net.cpp:434] conv7_2_mbox_priorbox <- data_data_0_split_4
I0815 11:09:35.724020  4727 net.cpp:408] conv7_2_mbox_priorbox -> conv7_2_mbox_priorbox
I0815 11:09:35.724042  4727 net.cpp:150] Setting up conv7_2_mbox_priorbox
I0815 11:09:35.724046  4727 net.cpp:157] Top shape: 1 2 720 (1440)
I0815 11:09:35.724050  4727 net.cpp:165] Memory required for data: 4436205792
I0815 11:09:35.724051  4727 layer_factory.hpp:77] Creating layer conv8_2_mbox_loc
I0815 11:09:35.724057  4727 net.cpp:100] Creating Layer conv8_2_mbox_loc
I0815 11:09:35.724073  4727 net.cpp:434] conv8_2_mbox_loc <- conv8_2_conv8_2_relu_0_split_1
I0815 11:09:35.724077  4727 net.cpp:408] conv8_2_mbox_loc -> conv8_2_mbox_loc
I0815 11:09:35.725852  4727 net.cpp:150] Setting up conv8_2_mbox_loc
I0815 11:09:35.725860  4727 net.cpp:157] Top shape: 16 16 3 4 (3072)
I0815 11:09:35.725863  4727 net.cpp:165] Memory required for data: 4436218080
I0815 11:09:35.725872  4727 layer_factory.hpp:77] Creating layer conv8_2_mbox_loc_perm
I0815 11:09:35.725878  4727 net.cpp:100] Creating Layer conv8_2_mbox_loc_perm
I0815 11:09:35.725880  4727 net.cpp:434] conv8_2_mbox_loc_perm <- conv8_2_mbox_loc
I0815 11:09:35.725884  4727 net.cpp:408] conv8_2_mbox_loc_perm -> conv8_2_mbox_loc_perm
I0815 11:09:35.726016  4727 net.cpp:150] Setting up conv8_2_mbox_loc_perm
I0815 11:09:35.726019  4727 net.cpp:157] Top shape: 16 3 4 16 (3072)
I0815 11:09:35.726022  4727 net.cpp:165] Memory required for data: 4436230368
I0815 11:09:35.726025  4727 layer_factory.hpp:77] Creating layer conv8_2_mbox_loc_flat
I0815 11:09:35.726029  4727 net.cpp:100] Creating Layer conv8_2_mbox_loc_flat
I0815 11:09:35.726032  4727 net.cpp:434] conv8_2_mbox_loc_flat <- conv8_2_mbox_loc_perm
I0815 11:09:35.726035  4727 net.cpp:408] conv8_2_mbox_loc_flat -> conv8_2_mbox_loc_flat
I0815 11:09:35.726071  4727 net.cpp:150] Setting up conv8_2_mbox_loc_flat
I0815 11:09:35.726075  4727 net.cpp:157] Top shape: 16 192 (3072)
I0815 11:09:35.726078  4727 net.cpp:165] Memory required for data: 4436242656
I0815 11:09:35.726080  4727 layer_factory.hpp:77] Creating layer conv8_2_mbox_conf
I0815 11:09:35.726088  4727 net.cpp:100] Creating Layer conv8_2_mbox_conf
I0815 11:09:35.726091  4727 net.cpp:434] conv8_2_mbox_conf <- conv8_2_conv8_2_relu_0_split_2
I0815 11:09:35.726095  4727 net.cpp:408] conv8_2_mbox_conf -> conv8_2_mbox_conf
I0815 11:09:35.728893  4727 net.cpp:150] Setting up conv8_2_mbox_conf
I0815 11:09:35.728900  4727 net.cpp:157] Top shape: 16 8 3 4 (1536)
I0815 11:09:35.728904  4727 net.cpp:165] Memory required for data: 4436248800
I0815 11:09:35.728909  4727 layer_factory.hpp:77] Creating layer conv8_2_mbox_conf_perm
I0815 11:09:35.728914  4727 net.cpp:100] Creating Layer conv8_2_mbox_conf_perm
I0815 11:09:35.728917  4727 net.cpp:434] conv8_2_mbox_conf_perm <- conv8_2_mbox_conf
I0815 11:09:35.728920  4727 net.cpp:408] conv8_2_mbox_conf_perm -> conv8_2_mbox_conf_perm
I0815 11:09:35.729053  4727 net.cpp:150] Setting up conv8_2_mbox_conf_perm
I0815 11:09:35.729058  4727 net.cpp:157] Top shape: 16 3 4 8 (1536)
I0815 11:09:35.729061  4727 net.cpp:165] Memory required for data: 4436254944
I0815 11:09:35.729063  4727 layer_factory.hpp:77] Creating layer conv8_2_mbox_conf_flat
I0815 11:09:35.729068  4727 net.cpp:100] Creating Layer conv8_2_mbox_conf_flat
I0815 11:09:35.729070  4727 net.cpp:434] conv8_2_mbox_conf_flat <- conv8_2_mbox_conf_perm
I0815 11:09:35.729074  4727 net.cpp:408] conv8_2_mbox_conf_flat -> conv8_2_mbox_conf_flat
I0815 11:09:35.729094  4727 net.cpp:150] Setting up conv8_2_mbox_conf_flat
I0815 11:09:35.729113  4727 net.cpp:157] Top shape: 16 96 (1536)
I0815 11:09:35.729115  4727 net.cpp:165] Memory required for data: 4436261088
I0815 11:09:35.729118  4727 layer_factory.hpp:77] Creating layer conv8_2_mbox_priorbox
I0815 11:09:35.729125  4727 net.cpp:100] Creating Layer conv8_2_mbox_priorbox
I0815 11:09:35.729127  4727 net.cpp:434] conv8_2_mbox_priorbox <- conv8_2_conv8_2_relu_0_split_3
I0815 11:09:35.729130  4727 net.cpp:434] conv8_2_mbox_priorbox <- data_data_0_split_5
I0815 11:09:35.729135  4727 net.cpp:408] conv8_2_mbox_priorbox -> conv8_2_mbox_priorbox
I0815 11:09:35.729204  4727 net.cpp:150] Setting up conv8_2_mbox_priorbox
I0815 11:09:35.729208  4727 net.cpp:157] Top shape: 1 2 192 (384)
I0815 11:09:35.729224  4727 net.cpp:165] Memory required for data: 4436262624
I0815 11:09:35.729226  4727 layer_factory.hpp:77] Creating layer conv9_2_mbox_loc
I0815 11:09:35.729233  4727 net.cpp:100] Creating Layer conv9_2_mbox_loc
I0815 11:09:35.729235  4727 net.cpp:434] conv9_2_mbox_loc <- conv9_2_conv9_2_relu_0_split_0
I0815 11:09:35.729240  4727 net.cpp:408] conv9_2_mbox_loc -> conv9_2_mbox_loc
I0815 11:09:35.731007  4727 net.cpp:150] Setting up conv9_2_mbox_loc
I0815 11:09:35.731014  4727 net.cpp:157] Top shape: 16 16 1 2 (512)
I0815 11:09:35.731019  4727 net.cpp:165] Memory required for data: 4436264672
I0815 11:09:35.731022  4727 layer_factory.hpp:77] Creating layer conv9_2_mbox_loc_perm
I0815 11:09:35.731029  4727 net.cpp:100] Creating Layer conv9_2_mbox_loc_perm
I0815 11:09:35.731031  4727 net.cpp:434] conv9_2_mbox_loc_perm <- conv9_2_mbox_loc
I0815 11:09:35.731034  4727 net.cpp:408] conv9_2_mbox_loc_perm -> conv9_2_mbox_loc_perm
I0815 11:09:35.731137  4727 net.cpp:150] Setting up conv9_2_mbox_loc_perm
I0815 11:09:35.731140  4727 net.cpp:157] Top shape: 16 1 2 16 (512)
I0815 11:09:35.731143  4727 net.cpp:165] Memory required for data: 4436266720
I0815 11:09:35.731145  4727 layer_factory.hpp:77] Creating layer conv9_2_mbox_loc_flat
I0815 11:09:35.731150  4727 net.cpp:100] Creating Layer conv9_2_mbox_loc_flat
I0815 11:09:35.731153  4727 net.cpp:434] conv9_2_mbox_loc_flat <- conv9_2_mbox_loc_perm
I0815 11:09:35.731156  4727 net.cpp:408] conv9_2_mbox_loc_flat -> conv9_2_mbox_loc_flat
I0815 11:09:35.731178  4727 net.cpp:150] Setting up conv9_2_mbox_loc_flat
I0815 11:09:35.731182  4727 net.cpp:157] Top shape: 16 32 (512)
I0815 11:09:35.731185  4727 net.cpp:165] Memory required for data: 4436268768
I0815 11:09:35.731187  4727 layer_factory.hpp:77] Creating layer conv9_2_mbox_conf
I0815 11:09:35.731194  4727 net.cpp:100] Creating Layer conv9_2_mbox_conf
I0815 11:09:35.731196  4727 net.cpp:434] conv9_2_mbox_conf <- conv9_2_conv9_2_relu_0_split_1
I0815 11:09:35.731201  4727 net.cpp:408] conv9_2_mbox_conf -> conv9_2_mbox_conf
I0815 11:09:35.732832  4727 net.cpp:150] Setting up conv9_2_mbox_conf
I0815 11:09:35.732841  4727 net.cpp:157] Top shape: 16 8 1 2 (256)
I0815 11:09:35.732843  4727 net.cpp:165] Memory required for data: 4436269792
I0815 11:09:35.732847  4727 layer_factory.hpp:77] Creating layer conv9_2_mbox_conf_perm
I0815 11:09:35.732852  4727 net.cpp:100] Creating Layer conv9_2_mbox_conf_perm
I0815 11:09:35.732856  4727 net.cpp:434] conv9_2_mbox_conf_perm <- conv9_2_mbox_conf
I0815 11:09:35.732859  4727 net.cpp:408] conv9_2_mbox_conf_perm -> conv9_2_mbox_conf_perm
I0815 11:09:35.732961  4727 net.cpp:150] Setting up conv9_2_mbox_conf_perm
I0815 11:09:35.732965  4727 net.cpp:157] Top shape: 16 1 2 8 (256)
I0815 11:09:35.732969  4727 net.cpp:165] Memory required for data: 4436270816
I0815 11:09:35.732970  4727 layer_factory.hpp:77] Creating layer conv9_2_mbox_conf_flat
I0815 11:09:35.732975  4727 net.cpp:100] Creating Layer conv9_2_mbox_conf_flat
I0815 11:09:35.732977  4727 net.cpp:434] conv9_2_mbox_conf_flat <- conv9_2_mbox_conf_perm
I0815 11:09:35.732980  4727 net.cpp:408] conv9_2_mbox_conf_flat -> conv9_2_mbox_conf_flat
I0815 11:09:35.733001  4727 net.cpp:150] Setting up conv9_2_mbox_conf_flat
I0815 11:09:35.733006  4727 net.cpp:157] Top shape: 16 16 (256)
I0815 11:09:35.733008  4727 net.cpp:165] Memory required for data: 4436271840
I0815 11:09:35.733011  4727 layer_factory.hpp:77] Creating layer conv9_2_mbox_priorbox
I0815 11:09:35.733016  4727 net.cpp:100] Creating Layer conv9_2_mbox_priorbox
I0815 11:09:35.733018  4727 net.cpp:434] conv9_2_mbox_priorbox <- conv9_2_conv9_2_relu_0_split_2
I0815 11:09:35.733021  4727 net.cpp:434] conv9_2_mbox_priorbox <- data_data_0_split_6
I0815 11:09:35.733024  4727 net.cpp:408] conv9_2_mbox_priorbox -> conv9_2_mbox_priorbox
I0815 11:09:35.733048  4727 net.cpp:150] Setting up conv9_2_mbox_priorbox
I0815 11:09:35.733060  4727 net.cpp:157] Top shape: 1 2 32 (64)
I0815 11:09:35.733063  4727 net.cpp:165] Memory required for data: 4436272096
I0815 11:09:35.733067  4727 layer_factory.hpp:77] Creating layer mbox_loc
I0815 11:09:35.733070  4727 net.cpp:100] Creating Layer mbox_loc
I0815 11:09:35.733073  4727 net.cpp:434] mbox_loc <- conv4_3_norm_mbox_loc_flat
I0815 11:09:35.733078  4727 net.cpp:434] mbox_loc <- fc7_mbox_loc_flat
I0815 11:09:35.733081  4727 net.cpp:434] mbox_loc <- conv6_2_mbox_loc_flat
I0815 11:09:35.733084  4727 net.cpp:434] mbox_loc <- conv7_2_mbox_loc_flat
I0815 11:09:35.733088  4727 net.cpp:434] mbox_loc <- conv8_2_mbox_loc_flat
I0815 11:09:35.733089  4727 net.cpp:434] mbox_loc <- conv9_2_mbox_loc_flat
I0815 11:09:35.733093  4727 net.cpp:408] mbox_loc -> mbox_loc
I0815 11:09:35.733120  4727 net.cpp:150] Setting up mbox_loc
I0815 11:09:35.733124  4727 net.cpp:157] Top shape: 16 38168 (610688)
I0815 11:09:35.733127  4727 net.cpp:165] Memory required for data: 4438714848
I0815 11:09:35.733129  4727 layer_factory.hpp:77] Creating layer mbox_conf
I0815 11:09:35.733134  4727 net.cpp:100] Creating Layer mbox_conf
I0815 11:09:35.733135  4727 net.cpp:434] mbox_conf <- conv4_3_norm_mbox_conf_flat
I0815 11:09:35.733139  4727 net.cpp:434] mbox_conf <- fc7_mbox_conf_flat
I0815 11:09:35.733141  4727 net.cpp:434] mbox_conf <- conv6_2_mbox_conf_flat
I0815 11:09:35.733144  4727 net.cpp:434] mbox_conf <- conv7_2_mbox_conf_flat
I0815 11:09:35.733146  4727 net.cpp:434] mbox_conf <- conv8_2_mbox_conf_flat
I0815 11:09:35.733150  4727 net.cpp:434] mbox_conf <- conv9_2_mbox_conf_flat
I0815 11:09:35.733152  4727 net.cpp:408] mbox_conf -> mbox_conf
I0815 11:09:35.733175  4727 net.cpp:150] Setting up mbox_conf
I0815 11:09:35.733177  4727 net.cpp:157] Top shape: 16 19084 (305344)
I0815 11:09:35.733180  4727 net.cpp:165] Memory required for data: 4439936224
I0815 11:09:35.733183  4727 layer_factory.hpp:77] Creating layer mbox_priorbox
I0815 11:09:35.733186  4727 net.cpp:100] Creating Layer mbox_priorbox
I0815 11:09:35.733189  4727 net.cpp:434] mbox_priorbox <- conv4_3_norm_mbox_priorbox
I0815 11:09:35.733192  4727 net.cpp:434] mbox_priorbox <- fc7_mbox_priorbox
I0815 11:09:35.733194  4727 net.cpp:434] mbox_priorbox <- conv6_2_mbox_priorbox
I0815 11:09:35.733197  4727 net.cpp:434] mbox_priorbox <- conv7_2_mbox_priorbox
I0815 11:09:35.733199  4727 net.cpp:434] mbox_priorbox <- conv8_2_mbox_priorbox
I0815 11:09:35.733202  4727 net.cpp:434] mbox_priorbox <- conv9_2_mbox_priorbox
I0815 11:09:35.733206  4727 net.cpp:408] mbox_priorbox -> mbox_priorbox
I0815 11:09:35.733225  4727 net.cpp:150] Setting up mbox_priorbox
I0815 11:09:35.733229  4727 net.cpp:157] Top shape: 1 2 38168 (76336)
I0815 11:09:35.733232  4727 net.cpp:165] Memory required for data: 4440241568
I0815 11:09:35.733234  4727 layer_factory.hpp:77] Creating layer mbox_loss
I0815 11:09:35.733242  4727 net.cpp:100] Creating Layer mbox_loss
I0815 11:09:35.733244  4727 net.cpp:434] mbox_loss <- mbox_loc
I0815 11:09:35.733247  4727 net.cpp:434] mbox_loss <- mbox_conf
I0815 11:09:35.733250  4727 net.cpp:434] mbox_loss <- mbox_priorbox
…
  phase: TEST
}
layer {
  name: "data"
  type: "AnnotatedData"
  top: "data"
  top: "label"
  include {
    phase: TEST
  }
  transform_param {
    mean_value: 104
    mean_value: 117
    mean_value: 123
    resize_param {
      prob: 1
      resize_mode: WARP
      height: 288
      width: 352
      interp_mode: LINEAR
    }
  }
  data_param {
    source: "examples/widerface/widerface_test_lmdb"
    batch_size: 4
    backend: LMDB
  }
  annotated_data_param {
    batch_sampler {
    }
    label_map_file: "data/widerface/labelmap_voc.prototxt"
  }
}
layer {
  name: "conv1_1"
  type: "Convolution"
  bottom: "data"
  top: "conv1_1"
  param {
    lr_mult: 1
    decay_mult: 1
  }
  param {
    lr_mult: 2
    decay_mult: 0
  }
  convolution_param {
    num_output: 64
    pad: 1
    kernel_size: 3
    weight_filler {
      type: "xavier"
    }
    bias_filler {
      type: "constant"
      value: 0
    }
  }
}
layer {
  name: "relu1_1"
  type: "ReLU"
  bottom: "conv1_1"
  top: "conv1_1"
}
layer {
  name: "conv1_2"
  type: "Convolution"
  bottom: "conv1_1"
  top: "conv1_2"
  param {
    lr_mult: 1
    decay_mult: 1
  }
  param {
    lr_mult: 2
    decay_mult: 0
  }
  convolution_param {
    num_output: 64
    pad: 1
    kernel_size: 3
    weight_filler {
      type: "xavier"
    }
    bias_filler {
      type: "constant"
      value: 0
    }
  }
}
layer {
  name: "relu1_2"
  type: "ReLU"
  bottom: "conv1_2"
  top: "conv1_2"
}
layer {
  name: "pool1"
  type: "Pooling"
  bottom: "conv1_2"
  top: "pool1"
  pooling_param {
    pool: MAX
    kernel_size: 2
    stride: 2
  }
}
layer {
  name: "conv2_1"
  type: "Convolution"
  bottom: "pool1"
  top: "conv2_1"
  param {
    lr_mult: 1
    decay_mult: 1
  }
  param {
    lr_mult: 2
    decay_mult: 0
  }
  convolution_param {
    num_output: 128
    pad: 1
    kernel_size: 3
    weight_filler {
      type: "xavier"
    }
    bias_filler {
      type: "constant"
      value: 0
    }
  }
}
layer {
  name: "relu2_1"
  type: "ReLU"
  bottom: "conv2_1"
  top: "conv2_1"
}
layer {
  name: "conv2_2"
  type: "Convolution"
  bottom: "conv2_1"
  top: "conv2_2"
  param {
    lr_mult: 1
    decay_mult: 1
  }
  param {
    lr_mult: 2
    decay_mult: 0
  }
  convolution_param {
    num_output: 128
    pad: 1
    kernel_size: 3
    weight_filler {
      type: "xavier"
    }
    bias_filler {
      type: "constant"
      value: 0
    }
  }
}
layer {
  name: "relu2_2"
  type: "ReLU"
  bottom: "conv2_2"
  top: "conv2_2"
}
layer {
  name: "pool2"
  type: "Pooling"
  bottom: "conv2_2"
  top: "pool2"
  pooling_param {
    pool: MAX
    kernel_size: 2
    stride: 2
  }
}
layer {
  name: "conv3_1"
  type: "Convolution"
  bottom: "pool2"
  top: "conv3_1"
  param {
    lr_mult: 1
    decay_mult: 1
  }
  param {
    lr_mult: 2
    decay_mult: 0
  }
  convolution_param {
    num_output: 256
    pad: 1
    kernel_size: 3
    weight_filler {
      type: "xavier"
    }
    bias_filler {
      type: "constant"
      value: 0
    }
  }
}
layer {
  name: "relu3_1"
  type: "ReLU"
  bottom: "conv3_1"
  top: "conv3_1"
}
layer {
  name: "conv3_2"
  type: "Convolution"
  bottom: "conv3_1"
  top: "conv3_2"
  param {
    lr_mult: 1
    decay_mult: 1
  }
  param {
    lr_mult: 2
    decay_mult: 0
  }
  convolution_param {
    num_output: 256
    pad: 1
    kernel_size: 3
    weight_filler {
      type: "xavier"
    }
    bias_filler {
      type: "constant"
      value: 0
    }
  }
}
layer {
  name: "relu3_2"
  type: "ReLU"
  bottom: "conv3_2"
  top: "conv3_2"
}
layer {
  name: "conv3_3"
  type: "Convolution"
  bottom: "conv3_2"
  top: "conv3_3"
  param {
    lr_mult: 1
    decay_mult: 1
  }
  param {
    lr_mult: 2
    decay_mult: 0
  }
  convolution_param {
    num_output: 256
    pad: 1
    kernel_size: 3
    weight_filler {
      type: "xavier"
    }
    bias_filler {
      type: "constant"
      value: 0
    }
  }
}
layer {
  name: "relu3_3"
  type: "ReLU"
  bottom: "conv3_3"
  top: "conv3_3"
}
layer {
  name: "pool3"
  type: "Pooling"
  bottom: "conv3_3"
  top: "pool3"
  pooling_param {
    pool: MAX
    kernel_size: 2
    stride: 2
  }
}
layer {
  name: "conv4_1"
  type: "Convolution"
  bottom: "pool3"
  top: "conv4_1"
  param {
    lr_mult: 1
    decay_mult: 1
  }
  param {
    lr_mult: 2
    decay_mult: 0
  }
  convolution_param {
    num_output: 512
    pad: 1
    kernel_size: 3
    weight_filler {
      type: "xavier"
    }
    bias_filler {
      type: "constant"
      value: 0
    }
  }
}
layer {
  name: "relu4_1"
  type: "ReLU"
  bottom: "conv4_1"
  top: "conv4_1"
}
layer {
  name: "conv4_2"
  type: "Convolution"
  bottom: "conv4_1"
  top: "conv4_2"
  param {
    lr_mult: 1
    decay_mult: 1
  }
  param {
    lr_mult: 2
    decay_mult: 0
  }
  convolution_param {
    num_output: 512
    pad: 1
    kernel_size: 3
    weight_filler {
      type: "xavier"
    }
    bias_filler {
      type: "constant"
      value: 0
    }
  }
}
layer {
  name: "relu4_2"
  type: "ReLU"
  bottom: "conv4_2"
  top: "conv4_2"
}
layer {
  name: "conv4_3"
  type: "Convolution"
  bottom: "conv4_2"
  top: "conv4_3"
  param {
    lr_mult: 1
    decay_mult: 1
  }
  param {
    lr_mult: 2
    decay_mult: 0
  }
  convolution_param {
    num_output: 512
    pad: 1
    kernel_size: 3
    weight_filler {
      type: "xavier"
    }
    bias_filler {
      type: "constant"
      value: 0
    }
  }
}
layer {
  name: "relu4_3"
  type: "ReLU"
  bottom: "conv4_3"
  top: "conv4_3"
}
layer {
  name: "pool4"
  type: "Pooling"
  bottom: "conv4_3"
  top: "pool4"
  pooling_param {
    pool: MAX
    kernel_size: 2
    stride: 2
  }
}
layer {
  name: "conv5_1"
  type: "Convolution"
  bottom: "pool4"
  top: "conv5_1"
  param {
    lr_mult: 1
    decay_mult: 1
  }
  param {
    lr_mult: 2
    decay_mult: 0
  }
  convolution_param {
    num_output: 512
    pad: 1
    kernel_size: 3
    weight_filler {
      type: "xavier"
    }
    bias_filler {
      type: "constant"
      value: 0
    }
    dilation: 1
  }
}
layer {
  name: "relu5_1"
  type: "ReLU"
  bottom: "conv5_1"
  top: "conv5_1"
}
layer {
  name: "conv5_2"
  type: "Convolution"
  bottom: "conv5_1"
  top: "conv5_2"
  param {
    lr_mult: 1
    decay_mult: 1
  }
  param {
    lr_mult: 2
    decay_mult: 0
  }
  convolution_param {
    num_output: 512
    pad: 1
    kernel_size: 3
    weight_filler {
      type: "xavier"
    }
    bias_filler {
      type: "constant"
      value: 0
    }
    dilation: 1
  }
}
layer {
  name: "relu5_2"
  type: "ReLU"
  bottom: "conv5_2"
  top: "conv5_2"
}
layer {
  name: "conv5_3"
  type: "Convolution"
  bottom: "conv5_2"
  top: "conv5_3"
  param {
    lr_mult: 1
    decay_mult: 1
  }
  param {
    lr_mult: 2
    decay_mult: 0
  }
  convolution_param {
    num_output: 512
    pad: 1
    kernel_size: 3
    weight_filler {
      type: "xavier"
    }
    bias_filler {
      type: "constant"
      value: 0
    }
    dilation: 1
  }
}
layer {
  name: "relu5_3"
  type: "ReLU"
  bottom: "conv5_3"
  top: "conv5_3"
}
layer {
  name: "pool5"
  type: "Pooling"
  bottom: "conv5_3"
  top: "pool5"
  pooling_param {
    pool: MAX
    kernel_size: 3
    stride: 1
    pad: 1
  }
}
layer {
  name: "fc6"
  type: "Convolution"
  bottom: "pool5"
  top: "fc6"
  param {
    lr_mult: 1
    decay_mult: 1
  }
  param {
    lr_mult: 2
    decay_mult: 0
  }
  convolution_param {
    num_output: 1024
    pad: 1
    kernel_size: 3
    weight_filler {
      type: "xavier"
    }
    bias_filler {
      type: "constant"
      value: 0
    }
    dilation: 1
  }
}
layer {
  name: "relu6"
  type: "ReLU"
  bottom: "fc6"
  top: "fc6"
}
layer {
  name: "fc7"
  type: "Convolution"
  bottom: "fc6"
  top: "fc7"
  param {
    lr_mult: 1
    decay_mult: 1
  }
  param {
    lr_mult: 2
    decay_mult: 0
  }
  convolution_param {
    num_output: 1024
    kernel_size: 1
    weight_filler {
      type: "xavier"
    }
    bias_filler {
      type: "constant"
      value: 0
    }
  }
}
layer {
  name: "relu7"
  type: "ReLU"
  bottom: "fc7"
  top: "fc7"
}
layer {
  name: "conv6_1"
  type: "Convolution"
  bottom: "fc7"
  top: "conv6_1"
  param {
    lr_mult: 1
    decay_mult: 1
  }
  param {
    lr_mult: 2
    decay_mult: 0
  }
  convolution_param {
    num_output: 256
    pad: 0
    kernel_size: 1
    stride: 1
    weight_filler {
      type: "xavier"
    }
    bias_filler {
      type: "constant"
      value: 0
    }
  }
}
layer {
  name: "conv6_1_relu"
  type: "ReLU"
  bottom: "conv6_1"
  top: "conv6_1"
}
layer {
  name: "conv6_2"
  type: "Convolution"
  bottom: "conv6_1"
  top: "conv6_2"
  param {
    lr_mult: 1
    decay_mult: 1
  }
  param {
    lr_mult: 2
    decay_mult: 0
  }
  convolution_param {
    num_output: 512
    pad: 1
    kernel_size: 3
    stride: 2
    weight_filler {
      type: "xavier"
    }
    bias_filler {
      type: "constant"
      value: 0
    }
  }
}
layer {
  name: "conv6_2_relu"
  type: "ReLU"
  bottom: "conv6_2"
  top: "conv6_2"
}
layer {
  name: "conv7_1"
  type: "Convolution"
  bottom: "conv6_2"
  top: "conv7_1"
  param {
    lr_mult: 1
    decay_mult: 1
  }
  param {
    lr_mult: 2
    decay_mult: 0
  }
  convolution_param {
    num_output: 128
    pad: 0
    kernel_size: 1
    stride: 1
    weight_filler {
      type: "xavier"
    }
    bias_filler {
      type: "constant"
      value: 0
    }
  }
}
layer {
  name: "conv7_1_relu"
  type: "ReLU"
  bottom: "conv7_1"
  top: "conv7_1"
}
layer {
  name: "conv7_2"
  type: "Convolution"
  bottom: "conv7_1"
  top: "conv7_2"
  param {
    lr_mult: 1
    decay_mult: 1
  }
  param {
    lr_mult: 2
    decay_mult: 0
  }
  convolution_param {
    num_output: 256
    pad: 1
    kernel_size: 3
    stride: 2
    weight_filler {
      type: "xavier"
    }
    bias_filler {
      type: "constant"
      value: 0
    }
  }
}
layer {
  name: "conv7_2_relu"
  type: "ReLU"
  bottom: "conv7_2"
  top: "conv7_2"
}
layer {
  name: "conv8_1"
  type: "Convolution"
  bottom: "conv7_2"
  top: "conv8_1"
  param {
    lr_mult: 1
    decay_mult: 1
  }
  param {
    lr_mult: 2
    decay_mult: 0
  }
  convolution_param {
    num_output: 128
    pad: 0
    kernel_size: 1
    stride: 1
    weight_filler {
      type: "xavier"
    }
    bias_filler {
      type: "constant"
      value: 0
    }
  }
}
layer {
  name: "conv8_1_relu"
  type: "ReLU"
  bottom: "conv8_1"
  top: "conv8_1"
}
layer {
  name: "conv8_2"
  type: "Convolution"
  bottom: "conv8_1"
  top: "conv8_2"
  param {
    lr_mult: 1
    decay_mult: 1
  }
  param {
    lr_mult: 2
    decay_mult: 0
  }
  convolution_param {
    num_output: 256
    pad: 0
    kernel_size: 3
    stride: 1
    weight_filler {
      type: "xavier"
    }
    bias_filler {
      type: "constant"
      value: 0
    }
  }
}
layer {
  name: "conv8_2_relu"
  type: "ReLU"
  bottom: "conv8_2"
  top: "conv8_2"
}
layer {
  name: "conv9_1"
  type: "Convolution"
  bottom: "conv8_2"
  top: "conv9_1"
  param {
    lr_mult: 1
    decay_mult: 1
  }
  param {
    lr_mult: 2
    decay_mult: 0
  }
  convolution_param {
    num_output: 128
    pad: 0
    kernel_size: 1
    stride: 1
    weight_filler {
      type: "xavier"
    }
    bias_filler {
      type: "constant"
      value: 0
    }
  }
}
layer {
  name: "conv9_1_relu"
  type: "ReLU"
  bottom: "conv9_1"
  top: "conv9_1"
}
layer {
  name: "conv9_2"
  type: "Convolution"
  bottom: "conv9_1"
  top: "conv9_2"
  param {
    lr_mult: 1
    decay_mult: 1
  }
  param {
    lr_mult: 2
    decay_mult: 0
  }
  convolution_param {
    num_output: 256
    pad: 0
    kernel_size: 3
    stride: 1
    weight_filler {
      type: "xavier"
    }
    bias_filler {
      type: "constant"
      value: 0
    }
  }
}
layer {
  name: "conv9_2_relu"
  type: "ReLU"
  bottom: "conv9_2"
  top: "conv9_2"
}
layer {
  name: "conv4_3_norm"
  type: "Normalize"
  bottom: "conv4_3"
  top: "conv4_3_norm"
  norm_param {
    across_spatial: false
    scale_filler {
      type: "constant"
      value: 20
    }
    channel_shared: false
  }
}
layer {
  name: "conv4_3_norm_mbox_loc"
  type: "Convolution"
  bottom: "conv4_3_norm"
  top: "conv4_3_norm_mbox_loc"
  param {
    lr_mult: 1
    decay_mult: 1
  }
  param {
    lr_mult: 2
    decay_mult: 0
  }
  convolution_param {
    num_output: 16
    pad: 1
    kernel_size: 3
    stride: 1
    weight_filler {
      type: "xavier"
    }
    bias_filler {
      type: "constant"
      value: 0
    }
  }
}
layer {
  name: "conv4_3_norm_mbox_loc_perm"
  type: "Permute"
  bottom: "conv4_3_norm_mbox_loc"
  top: "conv4_3_norm_mbox_loc_perm"
  permute_param {
    order: 0
    order: 2
    order: 3
    order: 1
  }
}
layer {
  name: "conv4_3_norm_mbox_loc_flat"
  type: "Flatten"
  bottom: "conv4_3_norm_mbox_loc_perm"
  top: "conv4_3_norm_mbox_loc_flat"
  flatten_param {
    axis: 1
  }
}
layer {
  name: "conv4_3_norm_mbox_conf"
  type: "Convolution"
  bottom: "conv4_3_norm"
  top: "conv4_3_norm_mbox_conf"
  param {
    lr_mult: 1
    decay_mult: 1
  }
  param {
    lr_mult: 2
    decay_mult: 0
  }
  convolution_param {
    num_output: 8
    pad: 1
    kernel_size: 3
    stride: 1
    weight_filler {
      type: "xavier"
    }
    bias_filler {
      type: "constant"
      value: 0
    }
  }
}
layer {
  name: "conv4_3_norm_mbox_conf_perm"
  type: "Permute"
  bottom: "conv4_3_norm_mbox_conf"
  top: "conv4_3_norm_mbox_conf_perm"
  permute_param {
    order: 0
    order: 2
    order: 3
    order: 1
  }
}
layer {
  name: "conv4_3_norm_mbox_conf_flat"
  type: "Flatten"
  bottom: "conv4_3_norm_mbox_conf_perm"
  top: "conv4_3_norm_mbox_conf_flat"
  flatten_param {
    axis: 1
  }
}
layer {
  name: "conv4_3_norm_mbox_priorbox"
  type: "PriorBox"
  bottom: "conv4_3_norm"
  bottom: "data"
  top: "conv4_3_norm_mbox_priorbox"
  prior_box_param {
    min_size: 30
    max_size: 60
    aspect_ratio: 2
    flip: true
    clip: false
    variance: 0.1
    variance: 0.1
    variance: 0.2
    variance: 0.2
    step: 8
    offset: 0.5
  }
}
layer {
  name: "fc7_mbox_loc"
  type: "Convolution"
  bottom: "fc7"
  top: "fc7_mbox_loc"
  param {
    lr_mult: 1
    decay_mult: 1
  }
  param {
    lr_mult: 2
    decay_mult: 0
  }
  convolution_param {
    num_output: 24
    pad: 1
    kernel_size: 3
    stride: 1
    weight_filler {
      type: "xavier"
    }
    bias_filler {
      type: "constant"
      value: 0
    }
  }
}
layer {
  name: "fc7_mbox_loc_perm"
  type: "Permute"
  bottom: "fc7_mbox_loc"
  top: "fc7_mbox_loc_perm"
  permute_param {
    order: 0
    order: 2
    order: 3
    order: 1
  }
}
layer {
  name: "fc7_mbox_loc_flat"
  type: "Flatten"
  bottom: "fc7_mbox_loc_perm"
  top: "fc7_mbox_loc_flat"
  flatten_param {
    axis: 1
  }
}
layer {
  name: "fc7_mbox_conf"
  type: "Convolution"
  bottom: "fc7"
  top: "fc7_mbox_conf"
  param {
    lr_mult: 1
    decay_mult: 1
  }
  param {
    lr_mult: 2
    decay_mult: 0
  }
  convolution_param {
    num_output: 12
    pad: 1
    kernel_size: 3
    stride: 1
    weight_filler {
      type: "xavier"
    }
    bias_filler {
      type: "constant"
      value: 0
    }
  }
}
layer {
  name: "fc7_mbox_conf_perm"
  type: "Permute"
  bottom: "fc7_mbox_conf"
  top: "fc7_mbox_conf_perm"
  permute_param {
    order: 0
    order: 2
    order: 3
    order: 1
  }
}
layer {
  name: "fc7_mbox_conf_flat"
  type: "Flatten"
  bottom: "fc7_mbox_conf_perm"
  top: "fc7_mbox_conf_flat"
  flatten_param {
    axis: 1
  }
}
layer {
  name: "fc7_mbox_priorbox"
  type: "PriorBox"
  bottom: "fc7"
  bottom: "data"
  top: "fc7_mbox_priorbox"
  prior_box_param {
    min_size: 60
    max_size: 111
    aspect_ratio: 2
    aspect_ratio: 3
    flip: true
    clip: false
    variance: 0.1
    variance: 0.1
    variance: 0.2
    variance: 0.2
    step: 16
    offset: 0.5
  }
}
layer {
  name: "conv6_2_mbox_loc"
  type: "Convolution"
  bottom: "conv6_2"
  top: "conv6_2_mbox_loc"
  param {
    lr_mult: 1
    decay_mult: 1
  }
  param {
    lr_mult: 2
    decay_mult: 0
  }
  convolution_param {
    num_output: 24
    pad: 1
    kernel_size: 3
    stride: 1
    weight_filler {
      type: "xavier"
    }
    bias_filler {
      type: "constant"
      value: 0
    }
  }
}
layer {
  name: "conv6_2_mbox_loc_perm"
  type: "Permute"
  bottom: "conv6_2_mbox_loc"
  top: "conv6_2_mbox_loc_perm"
  permute_param {
    order: 0
    order: 2
    order: 3
    order: 1
  }
}
layer {
  name: "conv6_2_mbox_loc_flat"
  type: "Flatten"
  bottom: "conv6_2_mbox_loc_perm"
  top: "conv6_2_mbox_loc_flat"
  flatten_param {
    axis: 1
  }
}
layer {
  name: "conv6_2_mbox_conf"
  type: "Convolution"
  bottom: "conv6_2"
  top: "conv6_2_mbox_conf"
  param {
    lr_mult: 1
    decay_mult: 1
  }
  param {
    lr_mult: 2
    decay_mult: 0
  }
  convolution_param {
    num_output: 12
    pad: 1
    kernel_size: 3
    stride: 1
    weight_filler {
      type: "xavier"
    }
    bias_filler {
      type: "constant"
      value: 0
    }
  }
}
layer {
  name: "conv6_2_mbox_conf_perm"
  type: "Permute"
  bottom: "conv6_2_mbox_conf"
  top: "conv6_2_mbox_conf_perm"
  permute_param {
    order: 0
    order: 2
    order: 3
    order: 1
  }
}
layer {
  name: "conv6_2_mbox_conf_flat"
  type: "Flatten"
  bottom: "conv6_2_mbox_conf_perm"
  top: "conv6_2_mbox_conf_flat"
  flatten_param {
    axis: 1
  }
}
layer {
  name: "conv6_2_mbox_priorbox"
  type: "PriorBox"
  bottom: "conv6_2"
  bottom: "data"
  top: "conv6_2_mbox_priorbox"
  prior_box_param {
    min_size: 111
    max_size: 162
    aspect_ratio: 2
    aspect_ratio: 3
    flip: true
    clip: false
    variance: 0.1
    variance: 0.1
    variance: 0.2
    variance: 0.2
    step: 32
    offset: 0.5
  }
}
layer {
  name: "conv7_2_mbox_loc"
  type: "Convolution"
  bottom: "conv7_2"
  top: "conv7_2_mbox_loc"
  param {
    lr_mult: 1
    decay_mult: 1
  }
  param {
    lr_mult: 2
    decay_mult: 0
  }
  convolution_param {
    num_output: 24
    pad: 1
    kernel_size: 3
    stride: 1
    weight_filler {
      type: "xavier"
    }
    bias_filler {
      type: "constant"
      value: 0
    }
  }
}
layer {
  name: "conv7_2_mbox_loc_perm"
  type: "Permute"
  bottom: "conv7_2_mbox_loc"
  top: "conv7_2_mbox_loc_perm"
  permute_param {
    order: 0
    order: 2
    order: 3
    order: 1
  }
}
layer {
  name: "conv7_2_mbox_loc_flat"
  type: "Flatten"
  bottom: "conv7_2_mbox_loc_perm"
  top: "conv7_2_mbox_loc_flat"
  flatten_param {
    axis: 1
  }
}
layer {
  name: "conv7_2_mbox_conf"
  type: "Convolution"
  bottom: "conv7_2"
  top: "conv7_2_mbox_conf"
  param {
    lr_mult: 1
    decay_mult: 1
  }
  param {
    lr_mult: 2
    decay_mult: 0
  }
  convolution_param {
    num_output: 12
    pad: 1
    kernel_size: 3
    stride: 1
    weight_filler {
      type: "xavier"
    }
    bias_filler {
      type: "constant"
      value: 0
    }
  }
}
layer {
  name: "conv7_2_mbox_conf_perm"
  type: "Permute"
  bottom: "conv7_2_mbox_conf"
  top: "conv7_2_mbox_conf_perm"
  permute_param {
    order: 0
    order: 2
    order: 3
    order: 1
  }
}
layer {
  name: "conv7_2_mbox_conf_flat"
  type: "Flatten"
  bottom: "conv7_2_mbox_conf_perm"
  top: "conv7_2_mbox_conf_flat"
  flatten_param {
    axis: 1
  }
}
layer {
  name: "conv7_2_mbox_priorbox"
  type: "PriorBox"
  bottom: "conv7_2"
  bottom: "data"
  top: "conv7_2_mbox_priorbox"
  prior_box_param {
    min_size: 162
    max_size: 213
    aspect_ratio: 2
    aspect_ratio: 3
    flip: true
    clip: false
    variance: 0.1
    variance: 0.1
    variance: 0.2
    variance: 0.2
    step: 64
    offset: 0.5
  }
}
layer {
  name: "conv8_2_mbox_loc"
  type: "Convolution"
  bottom: "conv8_2"
  top: "conv8_2_mbox_loc"
  param {
    lr_mult: 1
    decay_mult: 1
  }
  param {
    lr_mult: 2
    decay_mult: 0
  }
  convolution_param {
    num_output: 16
    pad: 1
    kernel_size: 3
    stride: 1
    weight_filler {
      type: "xavier"
    }
    bias_filler {
      type: "constant"
      value: 0
    }
  }
}
layer {
  name: "conv8_2_mbox_loc_perm"
  type: "Permute"
  bottom: "conv8_2_mbox_loc"
  top: "conv8_2_mbox_loc_perm"
  permute_param {
    order: 0
    order: 2
    order: 3
    order: 1
  }
}
layer {
  name: "conv8_2_mbox_loc_flat"
  type: "Flatten"
  bottom: "conv8_2_mbox_loc_perm"
  top: "conv8_2_mbox_loc_flat"
  flatten_param {
    axis: 1
  }
}
layer {
  name: "conv8_2_mbox_conf"
  type: "Convolution"
  bottom: "conv8_2"
  top: "conv8_2_mbox_conf"
  param {
    lr_mult: 1
    decay_mult: 1
  }
  param {
    lr_mult: 2
    decay_mult: 0
  }
  convolution_param {
    num_output: 8
    pad: 1
    kernel_size: 3
    stride: 1
    weight_filler {
      type: "xavier"
    }
    bias_filler {
      type: "constant"
      value: 0
    }
  }
}
layer {
  name: "conv8_2_mbox_conf_perm"
  type: "Permute"
  bottom: "conv8_2_mbox_conf"
  top: "conv8_2_mbox_conf_perm"
  permute_param {
    order: 0
    order: 2
    order: 3
    order: 1
  }
}
layer {
  name: "conv8_2_mbox_conf_flat"
  type: "Flatten"
  bottom: "conv8_2_mbox_conf_perm"
  top: "conv8_2_mbox_conf_flat"
  flatten_param {
    axis: 1
  }
}
layer {
  name: "conv8_2_mbox_priorbox"
  type: "PriorBox"
  bottom: "conv8_2"
  bottom: "data"
  top: "conv8_2_mbox_priorbox"
  prior_box_param {
    min_size: 213
    max_size: 264
    aspect_ratio: 2
    flip: true
    clip: false
    variance: 0.1
    variance: 0.1
    variance: 0.2
    variance: 0.2
    step: 100
    offset: 0.5
  }
}
layer {
  name: "conv9_2_mbox_loc"
  type: "Convolution"
  bottom: "conv9_2"
  top: "conv9_2_mbox_loc"
  param {
    lr_mult: 1
    decay_mult: 1
  }
  param {
    lr_mult: 2
    decay_mult: 0
  }
  convolution_param {
    num_output: 16
    pad: 1
    kernel_size: 3
    stride: 1
    weight_filler {
      type: "xavier"
    }
    bias_filler {
      type: "constant"
      value: 0
    }
  }
}
layer {
  name: "conv9_2_mbox_loc_perm"
  type: "Permute"
  bottom: "conv9_2_mbox_loc"
  top: "conv9_2_mbox_loc_perm"
  permute_param {
    order: 0
    order: 2
    order: 3
    order: 1
  }
}
layer {
  name: "conv9_2_mbox_loc_flat"
  type: "Flatten"
  bottom: "conv9_2_mbox_loc_perm"
  top: "conv9_2_mbox_loc_flat"
  flatten_param {
    axis: 1
  }
}
layer {
  name: "conv9_2_mbox_conf"
  type: "Convolution"
  bottom: "conv9_2"
  top: "conv9_2_mbox_conf"
  param {
    lr_mult: 1
    decay_mult: 1
  }
  param {
    lr_mult: 2
    decay_mult: 0
  }
  convolution_param {
    num_output: 8
    pad: 1
    kernel_size: 3
    stride: 1
    weight_filler {
      type: "xavier"
    }
    bias_filler {
      type: "constant"
      value: 0
    }
  }
}
layer {
  name: "conv9_2_mbox_conf_perm"
  type: "Permute"
  bottom: "conv9_2_mbox_conf"
  top: "conv9_2_mbox_conf_perm"
  permute_param {
    order: 0
    order: 2
    order: 3
    order: 1
  }
}
layer {
  name: "conv9_2_mbox_conf_flat"
  type: "Flatten"
  bottom: "conv9_2_mbox_conf_perm"
  top: "conv9_2_mbox_conf_flat"
  flatten_param {
    axis: 1
  }
}
layer {
  name: "conv9_2_mbox_priorbox"
  type: "PriorBox"
  bottom: "conv9_2"
  bottom: "data"
  top: "conv9_2_mbox_priorbox"
  prior_box_param {
    min_size: 264
    max_size: 315
    aspect_ratio: 2
    flip: true
    clip: false
    variance: 0.1
    variance: 0.1
    variance: 0.2
    variance: 0.2
    step: 300
    offset: 0.5
  }
}
layer {
  name: "mbox_loc"
  type: "Concat"
  bottom: "conv4_3_norm_mbox_loc_flat"
  bottom: "fc7_mbox_loc_flat"
  bottom: "conv6_2_mbox_loc_flat"
  bottom: "conv7_2_mbox_loc_flat"
  bottom: "conv8_2_mbox_loc_flat"
  bottom: "conv9_2_mbox_loc_flat"
  top: "mbox_loc"
  concat_param {
    axis: 1
  }
}
layer {
  name: "mbox_conf"
  type: "Concat"
  bottom: "conv4_3_norm_mbox_conf_flat"
  bottom: "fc7_mbox_conf_flat"
  bottom: "conv6_2_mbox_conf_flat"
  bottom: "conv7_2_mbox_conf_flat"
  bottom: "conv8_2_mbox_conf_flat"
  bottom: "conv9_2_mbox_conf_flat"
  top: "mbox_conf"
  concat_param {
    axis: 1
  }
}
layer {
  name: "mbox_priorbox"
  type: "Concat"
  bottom: "conv4_3_norm_mbox_priorbox"
  bottom: "fc7_mbox_priorbox"
  bottom: "conv6_2_mbox_priorbox"
  bottom: "conv7_2_mbox_priorbox"
  bottom: "conv8_2_mbox_priorbox"
  bottom: "conv9_2_mbox_priorbox"
  top: "mbox_priorbox"
  concat_param {
    axis: 2
  }
}
layer {
  name: "mbox_conf_reshape"
  type: "Reshape"
  bottom: "mbox_conf"
  top: "mbox_conf_reshape"
  reshape_param {
    shape {
      dim: 0
      dim: -1
      dim: 2
    }
  }
}
layer {
  name: "mbox_conf_softmax"
  type: "Softmax"
  bottom: "mbox_conf_reshape"
  top: "mbox_conf_softmax"
  softmax_param {
    axis: 2
  }
}
layer {
  name: "mbox_conf_flatten"
  type: "Flatten"
  bottom: "mbox_conf_softmax"
  top: "mbox_conf_flatten"
  flatten_param {
    axis: 1
  }
}
layer {
  name: "detection_out"
  type: "DetectionOutput"
  bottom: "mbox_loc"
  bottom: "mbox_conf_flatten"
  bottom: "mbox_priorbox"
  top: "detection_out"
  include {
    phase: TEST
  }
  detection_output_param {
    num_classes: 2
    share_location: true
    background_label_id: 0
    nms_param {
      nms_threshold: 0.45
      top_k: 400
    }
    save_output_param {
      output_directory: "/home/ly/data/VOCdevkit/results/wider_face/SSD_352x288/Main"
      output_name_prefix: "comp4_det_test_"
      output_format: "VOC"
      label_map_file: "data/widerface/labelmap_voc.prototxt"
      name_size_file: "data/widerface/test_name_size.txt"
      num_test_image: 2580
    }
    code_type: CENTER_SIZE
    keep_top_k: 200
    confidence_threshold: 0.01
  }
}
layer {
  name: "detection_eval"
  type: "DetectionEvaluate"
  bottom: "detection_out"
  bottom: "label"
  top: "detection_eval"
  include {
    phase: TEST
  }
  detection_evaluate_param {
    num_classes: 2
    background_label_id: 0
    overlap_threshold: 0.5
    evaluate_difficult_gt: false
    name_size_file: "data/widerface/test_name_size.txt"
  }
}
I0815 11:09:35.735558  4727 layer_factory.hpp:77] Creating layer data
I0815 11:09:35.735697  4727 net.cpp:100] Creating Layer data
I0815 11:09:35.735702  4727 net.cpp:408] data -> data
I0815 11:09:35.735709  4727 net.cpp:408] data -> label
I0815 11:09:35.736404  4766 db_lmdb.cpp:35] Opened lmdb examples/widerface/widerface_test_lmdb
I0815 11:09:35.737483  4727 annotated_data_layer.cpp:62] output data size: 4,3,288,352
I0815 11:09:35.742425  4727 net.cpp:150] Setting up data
I0815 11:09:35.742442  4727 net.cpp:157] Top shape: 4 3 288 352 (1216512)
I0815 11:09:35.742449  4727 net.cpp:157] Top shape: 1 1 5 8 (40)
I0815 11:09:35.742452  4727 net.cpp:165] Memory required for data: 4866208
I0815 11:09:35.742456  4727 layer_factory.hpp:77] Creating layer data_data_0_split
I0815 11:09:35.742465  4727 net.cpp:100] Creating Layer data_data_0_split
I0815 11:09:35.742467  4727 net.cpp:434] data_data_0_split <- data
I0815 11:09:35.742473  4727 net.cpp:408] data_data_0_split -> data_data_0_split_0
I0815 11:09:35.742480  4727 net.cpp:408] data_data_0_split -> data_data_0_split_1
I0815 11:09:35.742486  4727 net.cpp:408] data_data_0_split -> data_data_0_split_2
I0815 11:09:35.742489  4727 net.cpp:408] data_data_0_split -> data_data_0_split_3
I0815 11:09:35.742492  4727 net.cpp:408] data_data_0_split -> data_data_0_split_4
I0815 11:09:35.742496  4727 net.cpp:408] data_data_0_split -> data_data_0_split_5
I0815 11:09:35.742499  4727 net.cpp:408] data_data_0_split -> data_data_0_split_6
I0815 11:09:35.742666  4727 net.cpp:150] Setting up data_data_0_split
I0815 11:09:35.742671  4727 net.cpp:157] Top shape: 4 3 288 352 (1216512)
I0815 11:09:35.742674  4727 net.cpp:157] Top shape: 4 3 288 352 (1216512)
I0815 11:09:35.742676  4727 net.cpp:157] Top shape: 4 3 288 352 (1216512)
I0815 11:09:35.742702  4727 net.cpp:157] Top shape: 4 3 288 352 (1216512)
I0815 11:09:35.742705  4727 net.cpp:157] Top shape: 4 3 288 352 (1216512)
I0815 11:09:35.742708  4727 net.cpp:157] Top shape: 4 3 288 352 (1216512)
I0815 11:09:35.742710  4727 net.cpp:157] Top shape: 4 3 288 352 (1216512)
I0815 11:09:35.742727  4727 net.cpp:165] Memory required for data: 38928544
I0815 11:09:35.742730  4727 layer_factory.hpp:77] Creating layer conv1_1
I0815 11:09:35.742739  4727 net.cpp:100] Creating Layer conv1_1
I0815 11:09:35.742743  4727 net.cpp:434] conv1_1 <- data_data_0_split_0
I0815 11:09:35.742746  4727 net.cpp:408] conv1_1 -> conv1_1
I0815 11:09:35.746438  4727 net.cpp:150] Setting up conv1_1
I0815 11:09:35.746448  4727 net.cpp:157] Top shape: 4 64 288 352 (25952256)
I0815 11:09:35.746453  4727 net.cpp:165] Memory required for data: 142737568
I0815 11:09:35.746461  4727 layer_factory.hpp:77] Creating layer relu1_1
I0815 11:09:35.746466  4727 net.cpp:100] Creating Layer relu1_1
I0815 11:09:35.746471  4727 net.cpp:434] relu1_1 <- conv1_1
I0815 11:09:35.746474  4727 net.cpp:395] relu1_1 -> conv1_1 (in-place)
I0815 11:09:35.746861  4727 net.cpp:150] Setting up relu1_1
I0815 11:09:35.746867  4727 net.cpp:157] Top shape: 4 64 288 352 (25952256)
I0815 11:09:35.746871  4727 net.cpp:165] Memory required for data: 246546592
I0815 11:09:35.746873  4727 layer_factory.hpp:77] Creating layer conv1_2
I0815 11:09:35.746882  4727 net.cpp:100] Creating Layer conv1_2
I0815 11:09:35.746886  4727 net.cpp:434] conv1_2 <- conv1_1
I0815 11:09:35.746889  4727 net.cpp:408] conv1_2 -> conv1_2
I0815 11:09:35.749217  4727 net.cpp:150] Setting up conv1_2
I0815 11:09:35.749225  4727 net.cpp:157] Top shape: 4 64 288 352 (25952256)
I0815 11:09:35.749244  4727 net.cpp:165] Memory required for data: 350355616
I0815 11:09:35.749249  4727 layer_factory.hpp:77] Creating layer relu1_2
I0815 11:09:35.749255  4727 net.cpp:100] Creating Layer relu1_2
I0815 11:09:35.749258  4727 net.cpp:434] relu1_2 <- conv1_2
I0815 11:09:35.749261  4727 net.cpp:395] relu1_2 -> conv1_2 (in-place)
I0815 11:09:35.749807  4727 net.cpp:150] Setting up relu1_2
I0815 11:09:35.749815  4727 net.cpp:157] Top shape: 4 64 288 352 (25952256)
I0815 11:09:35.749819  4727 net.cpp:165] Memory required for data: 454164640
I0815 11:09:35.749821  4727 layer_factory.hpp:77] Creating layer pool1
I0815 11:09:35.749842  4727 net.cpp:100] Creating Layer pool1
I0815 11:09:35.749845  4727 net.cpp:434] pool1 <- conv1_2
I0815 11:09:35.749850  4727 net.cpp:408] pool1 -> pool1
I0815 11:09:35.749895  4727 net.cpp:150] Setting up pool1
I0815 11:09:35.749899  4727 net.cpp:157] Top shape: 4 64 144 176 (6488064)
I0815 11:09:35.749902  4727 net.cpp:165] Memory required for data: 480116896
I0815 11:09:35.749904  4727 layer_factory.hpp:77] Creating layer conv2_1
I0815 11:09:35.749912  4727 net.cpp:100] Creating Layer conv2_1
I0815 11:09:35.749914  4727 net.cpp:434] conv2_1 <- pool1
I0815 11:09:35.749917  4727 net.cpp:408] conv2_1 -> conv2_1
I0815 11:09:35.752794  4727 net.cpp:150] Setting up conv2_1
I0815 11:09:35.752802  4727 net.cpp:157] Top shape: 4 128 144 176 (12976128)
I0815 11:09:35.752821  4727 net.cpp:165] Memory required for data: 532021408
I0815 11:09:35.752827  4727 layer_factory.hpp:77] Creating layer relu2_1
I0815 11:09:35.752835  4727 net.cpp:100] Creating Layer relu2_1
I0815 11:09:35.752836  4727 net.cpp:434] relu2_1 <- conv2_1
I0815 11:09:35.752840  4727 net.cpp:395] relu2_1 -> conv2_1 (in-place)
I0815 11:09:35.753227  4727 net.cpp:150] Setting up relu2_1
I0815 11:09:35.753233  4727 net.cpp:157] Top shape: 4 128 144 176 (12976128)
I0815 11:09:35.753252  4727 net.cpp:165] Memory required for data: 583925920
I0815 11:09:35.753255  4727 layer_factory.hpp:77] Creating layer conv2_2
I0815 11:09:35.753264  4727 net.cpp:100] Creating Layer conv2_2
I0815 11:09:35.753268  4727 net.cpp:434] conv2_2 <- conv2_1
I0815 11:09:35.753273  4727 net.cpp:408] conv2_2 -> conv2_2
I0815 11:09:35.755654  4727 net.cpp:150] Setting up conv2_2
I0815 11:09:35.755662  4727 net.cpp:157] Top shape: 4 128 144 176 (12976128)
I0815 11:09:35.755681  4727 net.cpp:165] Memory required for data: 635830432
I0815 11:09:35.755686  4727 layer_factory.hpp:77] Creating layer relu2_2
I0815 11:09:35.755692  4727 net.cpp:100] Creating Layer relu2_2
I0815 11:09:35.755693  4727 net.cpp:434] relu2_2 <- conv2_2
I0815 11:09:35.755697  4727 net.cpp:395] relu2_2 -> conv2_2 (in-place)
I0815 11:09:35.756207  4727 net.cpp:150] Setting up relu2_2
I0815 11:09:35.756214  4727 net.cpp:157] Top shape: 4 128 144 176 (12976128)
I0815 11:09:35.756233  4727 net.cpp:165] Memory required for data: 687734944
I0815 11:09:35.756237  4727 layer_factory.hpp:77] Creating layer pool2
I0815 11:09:35.756242  4727 net.cpp:100] Creating Layer pool2
I0815 11:09:35.756245  4727 net.cpp:434] pool2 <- conv2_2
I0815 11:09:35.756248  4727 net.cpp:408] pool2 -> pool2
I0815 11:09:35.756292  4727 net.cpp:150] Setting up pool2
I0815 11:09:35.756297  4727 net.cpp:157] Top shape: 4 128 72 88 (3244032)
I0815 11:09:35.756300  4727 net.cpp:165] Memory required for data: 700711072
I0815 11:09:35.756304  4727 layer_factory.hpp:77] Creating layer conv3_1
I0815 11:09:35.756322  4727 net.cpp:100] Creating Layer conv3_1
I0815 11:09:35.756325  4727 net.cpp:434] conv3_1 <- pool2
I0815 11:09:35.756328  4727 net.cpp:408] conv3_1 -> conv3_1
I0815 11:09:35.759682  4727 net.cpp:150] Setting up conv3_1
I0815 11:09:35.759690  4727 net.cpp:157] Top shape: 4 256 72 88 (6488064)
I0815 11:09:35.759711  4727 net.cpp:165] Memory required for data: 726663328
I0815 11:09:35.759718  4727 layer_factory.hpp:77] Creating layer relu3_1
I0815 11:09:35.759723  4727 net.cpp:100] Creating Layer relu3_1
I0815 11:09:35.759726  4727 net.cpp:434] relu3_1 <- conv3_1
I0815 11:09:35.759732  4727 net.cpp:395] relu3_1 -> conv3_1 (in-place)
I0815 11:09:35.760120  4727 net.cpp:150] Setting up relu3_1
I0815 11:09:35.760126  4727 net.cpp:157] Top shape: 4 256 72 88 (6488064)
I0815 11:09:35.760145  4727 net.cpp:165] Memory required for data: 752615584
I0815 11:09:35.760147  4727 layer_factory.hpp:77] Creating layer conv3_2
I0815 11:09:35.760155  4727 net.cpp:100] Creating Layer conv3_2
I0815 11:09:35.760159  4727 net.cpp:434] conv3_2 <- conv3_1
I0815 11:09:35.760162  4727 net.cpp:408] conv3_2 -> conv3_2
I0815 11:09:35.765763  4727 net.cpp:150] Setting up conv3_2
I0815 11:09:35.765774  4727 net.cpp:157] Top shape: 4 256 72 88 (6488064)
I0815 11:09:35.765779  4727 net.cpp:165] Memory required for data: 778567840
I0815 11:09:35.765785  4727 layer_factory.hpp:77] Creating layer relu3_2
I0815 11:09:35.765791  4727 net.cpp:100] Creating Layer relu3_2
I0815 11:09:35.765794  4727 net.cpp:434] relu3_2 <- conv3_2
I0815 11:09:35.765799  4727 net.cpp:395] relu3_2 -> conv3_2 (in-place)
I0815 11:09:35.766181  4727 net.cpp:150] Setting up relu3_2
I0815 11:09:35.766187  4727 net.cpp:157] Top shape: 4 256 72 88 (6488064)
I0815 11:09:35.766191  4727 net.cpp:165] Memory required for data: 804520096
I0815 11:09:35.766193  4727 layer_factory.hpp:77] Creating layer conv3_3
I0815 11:09:35.766204  4727 net.cpp:100] Creating Layer conv3_3
I0815 11:09:35.766208  4727 net.cpp:434] conv3_3 <- conv3_2
I0815 11:09:35.766212  4727 net.cpp:408] conv3_3 -> conv3_3
I0815 11:09:35.770642  4727 net.cpp:150] Setting up conv3_3
I0815 11:09:35.770653  4727 net.cpp:157] Top shape: 4 256 72 88 (6488064)
I0815 11:09:35.770656  4727 net.cpp:165] Memory required for data: 830472352
I0815 11:09:35.770663  4727 layer_factory.hpp:77] Creating layer relu3_3
I0815 11:09:35.770668  4727 net.cpp:100] Creating Layer relu3_3
I0815 11:09:35.770671  4727 net.cpp:434] relu3_3 <- conv3_3
I0815 11:09:35.770675  4727 net.cpp:395] relu3_3 -> conv3_3 (in-place)
I0815 11:09:35.771209  4727 net.cpp:150] Setting up relu3_3
I0815 11:09:35.771216  4727 net.cpp:157] Top shape: 4 256 72 88 (6488064)
I0815 11:09:35.771220  4727 net.cpp:165] Memory required for data: 856424608
I0815 11:09:35.771222  4727 layer_factory.hpp:77] Creating layer pool3
I0815 11:09:35.771229  4727 net.cpp:100] Creating Layer pool3
I0815 11:09:35.771231  4727 net.cpp:434] pool3 <- conv3_3
I0815 11:09:35.771235  4727 net.cpp:408] pool3 -> pool3
I0815 11:09:35.771311  4727 net.cpp:150] Setting up pool3
I0815 11:09:35.771314  4727 net.cpp:157] Top shape: 4 256 36 44 (1622016)
I0815 11:09:35.771318  4727 net.cpp:165] Memory required for data: 862912672
I0815 11:09:35.771320  4727 layer_factory.hpp:77] Creating layer conv4_1
I0815 11:09:35.771355  4727 net.cpp:100] Creating Layer conv4_1
I0815 11:09:35.771358  4727 net.cpp:434] conv4_1 <- pool3
I0815 11:09:35.771363  4727 net.cpp:408] conv4_1 -> conv4_1
I0815 11:09:35.779239  4727 net.cpp:150] Setting up conv4_1
I0815 11:09:35.779253  4727 net.cpp:157] Top shape: 4 512 36 44 (3244032)
I0815 11:09:35.779258  4727 net.cpp:165] Memory required for data: 875888800
I0815 11:09:35.779264  4727 layer_factory.hpp:77] Creating layer relu4_1
I0815 11:09:35.779273  4727 net.cpp:100] Creating Layer relu4_1
I0815 11:09:35.779278  4727 net.cpp:434] relu4_1 <- conv4_1
I0815 11:09:35.779283  4727 net.cpp:395] relu4_1 -> conv4_1 (in-place)
I0815 11:09:35.779680  4727 net.cpp:150] Setting up relu4_1
I0815 11:09:35.779685  4727 net.cpp:157] Top shape: 4 512 36 44 (3244032)
I0815 11:09:35.779705  4727 net.cpp:165] Memory required for data: 888864928
I0815 11:09:35.779707  4727 layer_factory.hpp:77] Creating layer conv4_2
I0815 11:09:35.779717  4727 net.cpp:100] Creating Layer conv4_2
I0815 11:09:35.779721  4727 net.cpp:434] conv4_2 <- conv4_1
I0815 11:09:35.779726  4727 net.cpp:408] conv4_2 -> conv4_2
I0815 11:09:35.791148  4727 net.cpp:150] Setting up conv4_2
I0815 11:09:35.791162  4727 net.cpp:157] Top shape: 4 512 36 44 (3244032)
I0815 11:09:35.791167  4727 net.cpp:165] Memory required for data: 901841056
I0815 11:09:35.791175  4727 layer_factory.hpp:77] Creating layer relu4_2
I0815 11:09:35.791182  4727 net.cpp:100] Creating Layer relu4_2
I0815 11:09:35.791184  4727 net.cpp:434] relu4_2 <- conv4_2
I0815 11:09:35.791189  4727 net.cpp:395] relu4_2 -> conv4_2 (in-place)
I0815 11:09:35.791735  4727 net.cpp:150] Setting up relu4_2
I0815 11:09:35.791743  4727 net.cpp:157] Top shape: 4 512 36 44 (3244032)
I0815 11:09:35.791748  4727 net.cpp:165] Memory required for data: 914817184
I0815 11:09:35.791749  4727 layer_factory.hpp:77] Creating layer conv4_3
I0815 11:09:35.791759  4727 net.cpp:100] Creating Layer conv4_3
I0815 11:09:35.791762  4727 net.cpp:434] conv4_3 <- conv4_2
I0815 11:09:35.791766  4727 net.cpp:408] conv4_3 -> conv4_3
I0815 11:09:35.803735  4727 net.cpp:150] Setting up conv4_3
I0815 11:09:35.803750  4727 net.cpp:157] Top shape: 4 512 36 44 (3244032)
I0815 11:09:35.803755  4727 net.cpp:165] Memory required for data: 927793312
I0815 11:09:35.803761  4727 layer_factory.hpp:77] Creating layer relu4_3
I0815 11:09:35.803769  4727 net.cpp:100] Creating Layer relu4_3
I0815 11:09:35.803772  4727 net.cpp:434] relu4_3 <- conv4_3
I0815 11:09:35.803777  4727 net.cpp:395] relu4_3 -> conv4_3 (in-place)
I0815 11:09:35.804163  4727 net.cpp:150] Setting up relu4_3
I0815 11:09:35.804169  4727 net.cpp:157] Top shape: 4 512 36 44 (3244032)
I0815 11:09:35.804173  4727 net.cpp:165] Memory required for data: 940769440
I0815 11:09:35.804177  4727 layer_factory.hpp:77] Creating layer conv4_3_relu4_3_0_split
I0815 11:09:35.804181  4727 net.cpp:100] Creating Layer conv4_3_relu4_3_0_split
I0815 11:09:35.804184  4727 net.cpp:434] conv4_3_relu4_3_0_split <- conv4_3
I0815 11:09:35.804188  4727 net.cpp:408] conv4_3_relu4_3_0_split -> conv4_3_relu4_3_0_split_0
I0815 11:09:35.804194  4727 net.cpp:408] conv4_3_relu4_3_0_split -> conv4_3_relu4_3_0_split_1
I0815 11:09:35.804239  4727 net.cpp:150] Setting up conv4_3_relu4_3_0_split
I0815 11:09:35.804242  4727 net.cpp:157] Top shape: 4 512 36 44 (3244032)
I0815 11:09:35.804246  4727 net.cpp:157] Top shape: 4 512 36 44 (3244032)
I0815 11:09:35.804250  4727 net.cpp:165] Memory required for data: 966721696
I0815 11:09:35.804251  4727 layer_factory.hpp:77] Creating layer pool4
I0815 11:09:35.804256  4727 net.cpp:100] Creating Layer pool4
I0815 11:09:35.804260  4727 net.cpp:434] pool4 <- conv4_3_relu4_3_0_split_0
I0815 11:09:35.804263  4727 net.cpp:408] pool4 -> pool4
I0815 11:09:35.804302  4727 net.cpp:150] Setting up pool4
I0815 11:09:35.804306  4727 net.cpp:157] Top shape: 4 512 18 22 (811008)
I0815 11:09:35.804309  4727 net.cpp:165] Memory required for data: 969965728
I0815 11:09:35.804311  4727 layer_factory.hpp:77] Creating layer conv5_1
I0815 11:09:35.804318  4727 net.cpp:100] Creating Layer conv5_1
I0815 11:09:35.804334  4727 net.cpp:434] conv5_1 <- pool4
I0815 11:09:35.804339  4727 net.cpp:408] conv5_1 -> conv5_1
I0815 11:09:35.816933  4727 net.cpp:150] Setting up conv5_1
I0815 11:09:35.816947  4727 net.cpp:157] Top shape: 4 512 18 22 (811008)
I0815 11:09:35.816953  4727 net.cpp:165] Memory required for data: 973209760
I0815 11:09:35.816959  4727 layer_factory.hpp:77] Creating layer relu5_1
I0815 11:09:35.816967  4727 net.cpp:100] Creating Layer relu5_1
I0815 11:09:35.816969  4727 net.cpp:434] relu5_1 <- conv5_1
I0815 11:09:35.816974  4727 net.cpp:395] relu5_1 -> conv5_1 (in-place)
I0815 11:09:35.817356  4727 net.cpp:150] Setting up relu5_1
I0815 11:09:35.817363  4727 net.cpp:157] Top shape: 4 512 18 22 (811008)
I0815 11:09:35.817366  4727 net.cpp:165] Memory required for data: 976453792
I0815 11:09:35.817369  4727 layer_factory.hpp:77] Creating layer conv5_2
I0815 11:09:35.817380  4727 net.cpp:100] Creating Layer conv5_2
I0815 11:09:35.817384  4727 net.cpp:434] conv5_2 <- conv5_1
I0815 11:09:35.817387  4727 net.cpp:408] conv5_2 -> conv5_2
I0815 11:09:35.828796  4727 net.cpp:150] Setting up conv5_2
I0815 11:09:35.828811  4727 net.cpp:157] Top shape: 4 512 18 22 (811008)
I0815 11:09:35.828816  4727 net.cpp:165] Memory required for data: 979697824
I0815 11:09:35.828824  4727 layer_factory.hpp:77] Creating layer relu5_2
I0815 11:09:35.828830  4727 net.cpp:100] Creating Layer relu5_2
I0815 11:09:35.828833  4727 net.cpp:434] relu5_2 <- conv5_2
I0815 11:09:35.828837  4727 net.cpp:395] relu5_2 -> conv5_2 (in-place)
I0815 11:09:35.829350  4727 net.cpp:150] Setting up relu5_2
I0815 11:09:35.829357  4727 net.cpp:157] Top shape: 4 512 18 22 (811008)
I0815 11:09:35.829361  4727 net.cpp:165] Memory required for data: 982941856
I0815 11:09:35.829363  4727 layer_factory.hpp:77] Creating layer conv5_3
I0815 11:09:35.829373  4727 net.cpp:100] Creating Layer conv5_3
I0815 11:09:35.829376  4727 net.cpp:434] conv5_3 <- conv5_2
I0815 11:09:35.829381  4727 net.cpp:408] conv5_3 -> conv5_3
I0815 11:09:35.841971  4727 net.cpp:150] Setting up conv5_3
I0815 11:09:35.841986  4727 net.cpp:157] Top shape: 4 512 18 22 (811008)
I0815 11:09:35.841992  4727 net.cpp:165] Memory required for data: 986185888
I0815 11:09:35.841998  4727 layer_factory.hpp:77] Creating layer relu5_3
I0815 11:09:35.842008  4727 net.cpp:100] Creating Layer relu5_3
I0815 11:09:35.842012  4727 net.cpp:434] relu5_3 <- conv5_3
I0815 11:09:35.842017  4727 net.cpp:395] relu5_3 -> conv5_3 (in-place)
I0815 11:09:35.842401  4727 net.cpp:150] Setting up relu5_3
I0815 11:09:35.842408  4727 net.cpp:157] Top shape: 4 512 18 22 (811008)
I0815 11:09:35.842411  4727 net.cpp:165] Memory required for data: 989429920
I0815 11:09:35.842414  4727 layer_factory.hpp:77] Creating layer pool5
I0815 11:09:35.842420  4727 net.cpp:100] Creating Layer pool5
I0815 11:09:35.842425  4727 net.cpp:434] pool5 <- conv5_3
I0815 11:09:35.842429  4727 net.cpp:408] pool5 -> pool5
I0815 11:09:35.842478  4727 net.cpp:150] Setting up pool5
I0815 11:09:35.842481  4727 net.cpp:157] Top shape: 4 512 18 22 (811008)
I0815 11:09:35.842484  4727 net.cpp:165] Memory required for data: 992673952
I0815 11:09:35.842487  4727 layer_factory.hpp:77] Creating layer fc6
I0815 11:09:35.842495  4727 net.cpp:100] Creating Layer fc6
I0815 11:09:35.842499  4727 net.cpp:434] fc6 <- pool5
I0815 11:09:35.842501  4727 net.cpp:408] fc6 -> fc6
I0815 11:09:35.863636  4727 net.cpp:150] Setting up fc6
I0815 11:09:35.863651  4727 net.cpp:157] Top shape: 4 1024 18 22 (1622016)
I0815 11:09:35.863657  4727 net.cpp:165] Memory required for data: 999162016
I0815 11:09:35.863664  4727 layer_factory.hpp:77] Creating layer relu6
I0815 11:09:35.863670  4727 net.cpp:100] Creating Layer relu6
I0815 11:09:35.863674  4727 net.cpp:434] relu6 <- fc6
I0815 11:09:35.863678  4727 net.cpp:395] relu6 -> fc6 (in-place)
I0815 11:09:35.864202  4727 net.cpp:150] Setting up relu6
I0815 11:09:35.864208  4727 net.cpp:157] Top shape: 4 1024 18 22 (1622016)
I0815 11:09:35.864213  4727 net.cpp:165] Memory required for data: 1005650080
I0815 11:09:35.864215  4727 layer_factory.hpp:77] Creating layer fc7
I0815 11:09:35.864240  4727 net.cpp:100] Creating Layer fc7
I0815 11:09:35.864243  4727 net.cpp:434] fc7 <- fc6
I0815 11:09:35.864248  4727 net.cpp:408] fc7 -> fc7
I0815 11:09:35.870215  4727 net.cpp:150] Setting up fc7
I0815 11:09:35.870224  4727 net.cpp:157] Top shape: 4 1024 18 22 (1622016)
I0815 11:09:35.870229  4727 net.cpp:165] Memory required for data: 1012138144
I0815 11:09:35.870232  4727 layer_factory.hpp:77] Creating layer relu7
I0815 11:09:35.870239  4727 net.cpp:100] Creating Layer relu7
I0815 11:09:35.870241  4727 net.cpp:434] relu7 <- fc7
I0815 11:09:35.870244  4727 net.cpp:395] relu7 -> fc7 (in-place)
I0815 11:09:35.870622  4727 net.cpp:150] Setting up relu7
I0815 11:09:35.870628  4727 net.cpp:157] Top shape: 4 1024 18 22 (1622016)
I0815 11:09:35.870632  4727 net.cpp:165] Memory required for data: 1018626208
I0815 11:09:35.870635  4727 layer_factory.hpp:77] Creating layer fc7_relu7_0_split
I0815 11:09:35.870640  4727 net.cpp:100] Creating Layer fc7_relu7_0_split
I0815 11:09:35.870643  4727 net.cpp:434] fc7_relu7_0_split <- fc7
I0815 11:09:35.870647  4727 net.cpp:408] fc7_relu7_0_split -> fc7_relu7_0_split_0
I0815 11:09:35.870652  4727 net.cpp:408] fc7_relu7_0_split -> fc7_relu7_0_split_1
I0815 11:09:35.870658  4727 net.cpp:408] fc7_relu7_0_split -> fc7_relu7_0_split_2
I0815 11:09:35.870662  4727 net.cpp:408] fc7_relu7_0_split -> fc7_relu7_0_split_3
I0815 11:09:35.870739  4727 net.cpp:150] Setting up fc7_relu7_0_split
I0815 11:09:35.870743  4727 net.cpp:157] Top shape: 4 1024 18 22 (1622016)
I0815 11:09:35.870748  4727 net.cpp:157] Top shape: 4 1024 18 22 (1622016)
I0815 11:09:35.870750  4727 net.cpp:157] Top shape: 4 1024 18 22 (1622016)
I0815 11:09:35.870752  4727 net.cpp:157] Top shape: 4 1024 18 22 (1622016)
I0815 11:09:35.870755  4727 net.cpp:165] Memory required for data: 1044578464
I0815 11:09:35.870757  4727 layer_factory.hpp:77] Creating layer conv6_1
I0815 11:09:35.870765  4727 net.cpp:100] Creating Layer conv6_1
I0815 11:09:35.870769  4727 net.cpp:434] conv6_1 <- fc7_relu7_0_split_0
I0815 11:09:35.870772  4727 net.cpp:408] conv6_1 -> conv6_1
I0815 11:09:35.874913  4727 net.cpp:150] Setting up conv6_1
I0815 11:09:35.874924  4727 net.cpp:157] Top shape: 4 256 18 22 (405504)
I0815 11:09:35.874928  4727 net.cpp:165] Memory required for data: 1046200480
I0815 11:09:35.874933  4727 layer_factory.hpp:77] Creating layer conv6_1_relu
I0815 11:09:35.874938  4727 net.cpp:100] Creating Layer conv6_1_relu
I0815 11:09:35.874943  4727 net.cpp:434] conv6_1_relu <- conv6_1
I0815 11:09:35.874945  4727 net.cpp:395] conv6_1_relu -> conv6_1 (in-place)
I0815 11:09:35.875321  4727 net.cpp:150] Setting up conv6_1_relu
I0815 11:09:35.875327  4727 net.cpp:157] Top shape: 4 256 18 22 (405504)
I0815 11:09:35.875331  4727 net.cpp:165] Memory required for data: 1047822496
I0815 11:09:35.875334  4727 layer_factory.hpp:77] Creating layer conv6_2
I0815 11:09:35.875344  4727 net.cpp:100] Creating Layer conv6_2
I0815 11:09:35.875346  4727 net.cpp:434] conv6_2 <- conv6_1
I0815 11:09:35.875350  4727 net.cpp:408] conv6_2 -> conv6_2
I0815 11:09:35.881891  4727 net.cpp:150] Setting up conv6_2
I0815 11:09:35.881906  4727 net.cpp:157] Top shape: 4 512 9 11 (202752)
I0815 11:09:35.881911  4727 net.cpp:165] Memory required for data: 1048633504
I0815 11:09:35.881919  4727 layer_factory.hpp:77] Creating layer conv6_2_relu
I0815 11:09:35.881927  4727 net.cpp:100] Creating Layer conv6_2_relu
I0815 11:09:35.881932  4727 net.cpp:434] conv6_2_relu <- conv6_2
I0815 11:09:35.881935  4727 net.cpp:395] conv6_2_relu -> conv6_2 (in-place)
I0815 11:09:35.882457  4727 net.cpp:150] Setting up conv6_2_relu
I0815 11:09:35.882463  4727 net.cpp:157] Top shape: 4 512 9 11 (202752)
I0815 11:09:35.882467  4727 net.cpp:165] Memory required for data: 1049444512
I0815 11:09:35.882470  4727 layer_factory.hpp:77] Creating layer conv6_2_conv6_2_relu_0_split
I0815 11:09:35.882477  4727 net.cpp:100] Creating Layer conv6_2_conv6_2_relu_0_split
I0815 11:09:35.882478  4727 net.cpp:434] conv6_2_conv6_2_relu_0_split <- conv6_2
I0815 11:09:35.882496  4727 net.cpp:408] conv6_2_conv6_2_relu_0_split -> conv6_2_conv6_2_relu_0_split_0
I0815 11:09:35.882503  4727 net.cpp:408] conv6_2_conv6_2_relu_0_split -> conv6_2_conv6_2_relu_0_split_1
I0815 11:09:35.882506  4727 net.cpp:408] conv6_2_conv6_2_relu_0_split -> conv6_2_conv6_2_relu_0_split_2
I0815 11:09:35.882509  4727 net.cpp:408] conv6_2_conv6_2_relu_0_split -> conv6_2_conv6_2_relu_0_split_3
I0815 11:09:35.882589  4727 net.cpp:150] Setting up conv6_2_conv6_2_relu_0_split
I0815 11:09:35.882593  4727 net.cpp:157] Top shape: 4 512 9 11 (202752)
I0815 11:09:35.882597  4727 net.cpp:157] Top shape: 4 512 9 11 (202752)
I0815 11:09:35.882599  4727 net.cpp:157] Top shape: 4 512 9 11 (202752)
I0815 11:09:35.882602  4727 net.cpp:157] Top shape: 4 512 9 11 (202752)
I0815 11:09:35.882604  4727 net.cpp:165] Memory required for data: 1052688544
I0815 11:09:35.882607  4727 layer_factory.hpp:77] Creating layer conv7_1
I0815 11:09:35.882614  4727 net.cpp:100] Creating Layer conv7_1
I0815 11:09:35.882617  4727 net.cpp:434] conv7_1 <- conv6_2_conv6_2_relu_0_split_0
I0815 11:09:35.882622  4727 net.cpp:408] conv7_1 -> conv7_1
I0815 11:09:35.885478  4727 net.cpp:150] Setting up conv7_1
I0815 11:09:35.885485  4727 net.cpp:157] Top shape: 4 128 9 11 (50688)
I0815 11:09:35.885490  4727 net.cpp:165] Memory required for data: 1052891296
I0815 11:09:35.885494  4727 layer_factory.hpp:77] Creating layer conv7_1_relu
I0815 11:09:35.885499  4727 net.cpp:100] Creating Layer conv7_1_relu
I0815 11:09:35.885502  4727 net.cpp:434] conv7_1_relu <- conv7_1
I0815 11:09:35.885505  4727 net.cpp:395] conv7_1_relu -> conv7_1 (in-place)
I0815 11:09:35.885892  4727 net.cpp:150] Setting up conv7_1_relu
I0815 11:09:35.885898  4727 net.cpp:157] Top shape: 4 128 9 11 (50688)
I0815 11:09:35.885902  4727 net.cpp:165] Memory required for data: 1053094048
I0815 11:09:35.885905  4727 layer_factory.hpp:77] Creating layer conv7_2
I0815 11:09:35.885913  4727 net.cpp:100] Creating Layer conv7_2
I0815 11:09:35.885916  4727 net.cpp:434] conv7_2 <- conv7_1
I0815 11:09:35.885921  4727 net.cpp:408] conv7_2 -> conv7_2
I0815 11:09:35.889060  4727 net.cpp:150] Setting up conv7_2
I0815 11:09:35.889067  4727 net.cpp:157] Top shape: 4 256 5 6 (30720)
I0815 11:09:35.889071  4727 net.cpp:165] Memory required for data: 1053216928
I0815 11:09:35.889075  4727 layer_factory.hpp:77] Creating layer conv7_2_relu
I0815 11:09:35.889080  4727 net.cpp:100] Creating Layer conv7_2_relu
I0815 11:09:35.889082  4727 net.cpp:434] conv7_2_relu <- conv7_2
I0815 11:09:35.889086  4727 net.cpp:395] conv7_2_relu -> conv7_2 (in-place)
I0815 11:09:35.889593  4727 net.cpp:150] Setting up conv7_2_relu
I0815 11:09:35.889600  4727 net.cpp:157] Top shape: 4 256 5 6 (30720)
I0815 11:09:35.889605  4727 net.cpp:165] Memory required for data: 1053339808
I0815 11:09:35.889606  4727 layer_factory.hpp:77] Creating layer conv7_2_conv7_2_relu_0_split
I0815 11:09:35.889613  4727 net.cpp:100] Creating Layer conv7_2_conv7_2_relu_0_split
I0815 11:09:35.889616  4727 net.cpp:434] conv7_2_conv7_2_relu_0_split <- conv7_2
I0815 11:09:35.889621  4727 net.cpp:408] conv7_2_conv7_2_relu_0_split -> conv7_2_conv7_2_relu_0_split_0
I0815 11:09:35.889624  4727 net.cpp:408] conv7_2_conv7_2_relu_0_split -> conv7_2_conv7_2_relu_0_split_1
I0815 11:09:35.889628  4727 net.cpp:408] conv7_2_conv7_2_relu_0_split -> conv7_2_conv7_2_relu_0_split_2
I0815 11:09:35.889633  4727 net.cpp:408] conv7_2_conv7_2_relu_0_split -> conv7_2_conv7_2_relu_0_split_3
I0815 11:09:35.889711  4727 net.cpp:150] Setting up conv7_2_conv7_2_relu_0_split
I0815 11:09:35.889715  4727 net.cpp:157] Top shape: 4 256 5 6 (30720)
I0815 11:09:35.889719  4727 net.cpp:157] Top shape: 4 256 5 6 (30720)
I0815 11:09:35.889729  4727 net.cpp:157] Top shape: 4 256 5 6 (30720)
I0815 11:09:35.889731  4727 net.cpp:157] Top shape: 4 256 5 6 (30720)
I0815 11:09:35.889734  4727 net.cpp:165] Memory required for data: 1053831328
I0815 11:09:35.889736  4727 layer_factory.hpp:77] Creating layer conv8_1
I0815 11:09:35.889744  4727 net.cpp:100] Creating Layer conv8_1
I0815 11:09:35.889746  4727 net.cpp:434] conv8_1 <- conv7_2_conv7_2_relu_0_split_0
I0815 11:09:35.889760  4727 net.cpp:408] conv8_1 -> conv8_1
I0815 11:09:35.891578  4727 net.cpp:150] Setting up conv8_1
I0815 11:09:35.891587  4727 net.cpp:157] Top shape: 4 128 5 6 (15360)
I0815 11:09:35.891590  4727 net.cpp:165] Memory required for data: 1053892768
I0815 11:09:35.891594  4727 layer_factory.hpp:77] Creating layer conv8_1_relu
I0815 11:09:35.891598  4727 net.cpp:100] Creating Layer conv8_1_relu
I0815 11:09:35.891602  4727 net.cpp:434] conv8_1_relu <- conv8_1
I0815 11:09:35.891605  4727 net.cpp:395] conv8_1_relu -> conv8_1 (in-place)
I0815 11:09:35.891988  4727 net.cpp:150] Setting up conv8_1_relu
I0815 11:09:35.891994  4727 net.cpp:157] Top shape: 4 128 5 6 (15360)
I0815 11:09:35.891999  4727 net.cpp:165] Memory required for data: 1053954208
I0815 11:09:35.892001  4727 layer_factory.hpp:77] Creating layer conv8_2
I0815 11:09:35.892009  4727 net.cpp:100] Creating Layer conv8_2
I0815 11:09:35.892011  4727 net.cpp:434] conv8_2 <- conv8_1
I0815 11:09:35.892016  4727 net.cpp:408] conv8_2 -> conv8_2
I0815 11:09:35.896811  4727 net.cpp:150] Setting up conv8_2
I0815 11:09:35.896821  4727 net.cpp:157] Top shape: 4 256 3 4 (12288)
I0815 11:09:35.896826  4727 net.cpp:165] Memory required for data: 1054003360
I0815 11:09:35.896832  4727 layer_factory.hpp:77] Creating layer conv8_2_relu
I0815 11:09:35.896837  4727 net.cpp:100] Creating Layer conv8_2_relu
I0815 11:09:35.896842  4727 net.cpp:434] conv8_2_relu <- conv8_2
I0815 11:09:35.896845  4727 net.cpp:395] conv8_2_relu -> conv8_2 (in-place)
I0815 11:09:35.897223  4727 net.cpp:150] Setting up conv8_2_relu
I0815 11:09:35.897229  4727 net.cpp:157] Top shape: 4 256 3 4 (12288)
I0815 11:09:35.897233  4727 net.cpp:165] Memory required for data: 1054052512
I0815 11:09:35.897235  4727 layer_factory.hpp:77] Creating layer conv8_2_conv8_2_relu_0_split
I0815 11:09:35.897243  4727 net.cpp:100] Creating Layer conv8_2_conv8_2_relu_0_split
I0815 11:09:35.897245  4727 net.cpp:434] conv8_2_conv8_2_relu_0_split <- conv8_2
I0815 11:09:35.897249  4727 net.cpp:408] conv8_2_conv8_2_relu_0_split -> conv8_2_conv8_2_relu_0_split_0
I0815 11:09:35.897253  4727 net.cpp:408] conv8_2_conv8_2_relu_0_split -> conv8_2_conv8_2_relu_0_split_1
I0815 11:09:35.897258  4727 net.cpp:408] conv8_2_conv8_2_relu_0_split -> conv8_2_conv8_2_relu_0_split_2
I0815 11:09:35.897262  4727 net.cpp:408] conv8_2_conv8_2_relu_0_split -> conv8_2_conv8_2_relu_0_split_3
I0815 11:09:35.897339  4727 net.cpp:150] Setting up conv8_2_conv8_2_relu_0_split
I0815 11:09:35.897343  4727 net.cpp:157] Top shape: 4 256 3 4 (12288)
I0815 11:09:35.897347  4727 net.cpp:157] Top shape: 4 256 3 4 (12288)
I0815 11:09:35.897349  4727 net.cpp:157] Top shape: 4 256 3 4 (12288)
I0815 11:09:35.897352  4727 net.cpp:157] Top shape: 4 256 3 4 (12288)
I0815 11:09:35.897354  4727 net.cpp:165] Memory required for data: 1054249120
I0815 11:09:35.897356  4727 layer_factory.hpp:77] Creating layer conv9_1
I0815 11:09:35.897364  4727 net.cpp:100] Creating Layer conv9_1
I0815 11:09:35.897367  4727 net.cpp:434] conv9_1 <- conv8_2_conv8_2_relu_0_split_0
I0815 11:09:35.897370  4727 net.cpp:408] conv9_1 -> conv9_1
I0815 11:09:35.899178  4727 net.cpp:150] Setting up conv9_1
I0815 11:09:35.899186  4727 net.cpp:157] Top shape: 4 128 3 4 (6144)
I0815 11:09:35.899190  4727 net.cpp:165] Memory required for data: 1054273696
I0815 11:09:35.899194  4727 layer_factory.hpp:77] Creating layer conv9_1_relu
I0815 11:09:35.899199  4727 net.cpp:100] Creating Layer conv9_1_relu
I0815 11:09:35.899202  4727 net.cpp:434] conv9_1_relu <- conv9_1
I0815 11:09:35.899205  4727 net.cpp:395] conv9_1_relu -> conv9_1 (in-place)
I0815 11:09:35.899705  4727 net.cpp:150] Setting up conv9_1_relu
I0815 11:09:35.899713  4727 net.cpp:157] Top shape: 4 128 3 4 (6144)
I0815 11:09:35.899716  4727 net.cpp:165] Memory required for data: 1054298272
I0815 11:09:35.899719  4727 layer_factory.hpp:77] Creating layer conv9_2
I0815 11:09:35.899726  4727 net.cpp:100] Creating Layer conv9_2
I0815 11:09:35.899729  4727 net.cpp:434] conv9_2 <- conv9_1
I0815 11:09:35.899746  4727 net.cpp:408] conv9_2 -> conv9_2
I0815 11:09:35.903934  4727 net.cpp:150] Setting up conv9_2
I0815 11:09:35.903944  4727 net.cpp:157] Top shape: 4 256 1 2 (2048)
I0815 11:09:35.903947  4727 net.cpp:165] Memory required for data: 1054306464
I0815 11:09:35.903954  4727 layer_factory.hpp:77] Creating layer conv9_2_relu
I0815 11:09:35.903957  4727 net.cpp:100] Creating Layer conv9_2_relu
I0815 11:09:35.903960  4727 net.cpp:434] conv9_2_relu <- conv9_2
I0815 11:09:35.903965  4727 net.cpp:395] conv9_2_relu -> conv9_2 (in-place)
I0815 11:09:35.904466  4727 net.cpp:150] Setting up conv9_2_relu
I0815 11:09:35.904474  4727 net.cpp:157] Top shape: 4 256 1 2 (2048)
I0815 11:09:35.904477  4727 net.cpp:165] Memory required for data: 1054314656
I0815 11:09:35.904480  4727 layer_factory.hpp:77] Creating layer conv9_2_conv9_2_relu_0_split
I0815 11:09:35.904486  4727 net.cpp:100] Creating Layer conv9_2_conv9_2_relu_0_split
I0815 11:09:35.904489  4727 net.cpp:434] conv9_2_conv9_2_relu_0_split <- conv9_2
I0815 11:09:35.904494  4727 net.cpp:408] conv9_2_conv9_2_relu_0_split -> conv9_2_conv9_2_relu_0_split_0
I0815 11:09:35.904498  4727 net.cpp:408] conv9_2_conv9_2_relu_0_split -> conv9_2_conv9_2_relu_0_split_1
I0815 11:09:35.904502  4727 net.cpp:408] conv9_2_conv9_2_relu_0_split -> conv9_2_conv9_2_relu_0_split_2
I0815 11:09:35.904567  4727 net.cpp:150] Setting up conv9_2_conv9_2_relu_0_split
I0815 11:09:35.904570  4727 net.cpp:157] Top shape: 4 256 1 2 (2048)
I0815 11:09:35.904573  4727 net.cpp:157] Top shape: 4 256 1 2 (2048)
I0815 11:09:35.904577  4727 net.cpp:157] Top shape: 4 256 1 2 (2048)
I0815 11:09:35.904579  4727 net.cpp:165] Memory required for data: 1054339232
I0815 11:09:35.904582  4727 layer_factory.hpp:77] Creating layer conv4_3_norm
I0815 11:09:35.904587  4727 net.cpp:100] Creating Layer conv4_3_norm
I0815 11:09:35.904590  4727 net.cpp:434] conv4_3_norm <- conv4_3_relu4_3_0_split_1
I0815 11:09:35.904594  4727 net.cpp:408] conv4_3_norm -> conv4_3_norm
I0815 11:09:35.904788  4727 net.cpp:150] Setting up conv4_3_norm
I0815 11:09:35.904791  4727 net.cpp:157] Top shape: 4 512 36 44 (3244032)
I0815 11:09:35.904795  4727 net.cpp:165] Memory required for data: 1067315360
I0815 11:09:35.904798  4727 layer_factory.hpp:77] Creating layer conv4_3_norm_conv4_3_norm_0_split
I0815 11:09:35.904803  4727 net.cpp:100] Creating Layer conv4_3_norm_conv4_3_norm_0_split
I0815 11:09:35.904804  4727 net.cpp:434] conv4_3_norm_conv4_3_norm_0_split <- conv4_3_norm
I0815 11:09:35.904808  4727 net.cpp:408] conv4_3_norm_conv4_3_norm_0_split -> conv4_3_norm_conv4_3_norm_0_split_0
I0815 11:09:35.904814  4727 net.cpp:408] conv4_3_norm_conv4_3_norm_0_split -> conv4_3_norm_conv4_3_norm_0_split_1
I0815 11:09:35.904817  4727 net.cpp:408] conv4_3_norm_conv4_3_norm_0_split -> conv4_3_norm_conv4_3_norm_0_split_2
I0815 11:09:35.904873  4727 net.cpp:150] Setting up conv4_3_norm_conv4_3_norm_0_split
I0815 11:09:35.904877  4727 net.cpp:157] Top shape: 4 512 36 44 (3244032)
I0815 11:09:35.904881  4727 net.cpp:157] Top shape: 4 512 36 44 (3244032)
I0815 11:09:35.904883  4727 net.cpp:157] Top shape: 4 512 36 44 (3244032)
I0815 11:09:35.904886  4727 net.cpp:165] Memory required for data: 1106243744
I0815 11:09:35.904887  4727 layer_factory.hpp:77] Creating layer conv4_3_norm_mbox_loc
I0815 11:09:35.904894  4727 net.cpp:100] Creating Layer conv4_3_norm_mbox_loc
I0815 11:09:35.904897  4727 net.cpp:434] conv4_3_norm_mbox_loc <- conv4_3_norm_conv4_3_norm_0_split_0
I0815 11:09:35.904901  4727 net.cpp:408] conv4_3_norm_mbox_loc -> conv4_3_norm_mbox_loc
I0815 11:09:35.906950  4727 net.cpp:150] Setting up conv4_3_norm_mbox_loc
I0815 11:09:35.906958  4727 net.cpp:157] Top shape: 4 16 36 44 (101376)
I0815 11:09:35.906962  4727 net.cpp:165] Memory required for data: 1106649248
I0815 11:09:35.906968  4727 layer_factory.hpp:77] Creating layer conv4_3_norm_mbox_loc_perm
I0815 11:09:35.906975  4727 net.cpp:100] Creating Layer conv4_3_norm_mbox_loc_perm
I0815 11:09:35.906976  4727 net.cpp:434] conv4_3_norm_mbox_loc_perm <- conv4_3_norm_mbox_loc
I0815 11:09:35.906980  4727 net.cpp:408] conv4_3_norm_mbox_loc_perm -> conv4_3_norm_mbox_loc_perm
I0815 11:09:35.907117  4727 net.cpp:150] Setting up conv4_3_norm_mbox_loc_perm
I0815 11:09:35.907122  4727 net.cpp:157] Top shape: 4 36 44 16 (101376)
I0815 11:09:35.907126  4727 net.cpp:165] Memory required for data: 1107054752
I0815 11:09:35.907128  4727 layer_factory.hpp:77] Creating layer conv4_3_norm_mbox_loc_flat
I0815 11:09:35.907132  4727 net.cpp:100] Creating Layer conv4_3_norm_mbox_loc_flat
I0815 11:09:35.907135  4727 net.cpp:434] conv4_3_norm_mbox_loc_flat <- conv4_3_norm_mbox_loc_perm
I0815 11:09:35.907140  4727 net.cpp:408] conv4_3_norm_mbox_loc_flat -> conv4_3_norm_mbox_loc_flat
I0815 11:09:35.907166  4727 net.cpp:150] Setting up conv4_3_norm_mbox_loc_flat
I0815 11:09:35.907171  4727 net.cpp:157] Top shape: 4 25344 (101376)
I0815 11:09:35.907173  4727 net.cpp:165] Memory required for data: 1107460256
I0815 11:09:35.907176  4727 layer_factory.hpp:77] Creating layer conv4_3_norm_mbox_conf
I0815 11:09:35.907186  4727 net.cpp:100] Creating Layer conv4_3_norm_mbox_conf
I0815 11:09:35.907188  4727 net.cpp:434] conv4_3_norm_mbox_conf <- conv4_3_norm_conv4_3_norm_0_split_1
I0815 11:09:35.907192  4727 net.cpp:408] conv4_3_norm_mbox_conf -> conv4_3_norm_mbox_conf
I0815 11:09:35.909240  4727 net.cpp:150] Setting up conv4_3_norm_mbox_conf
I0815 11:09:35.909246  4727 net.cpp:157] Top shape: 4 8 36 44 (50688)
I0815 11:09:35.909250  4727 net.cpp:165] Memory required for data: 1107663008
I0815 11:09:35.909256  4727 layer_factory.hpp:77] Creating layer conv4_3_norm_mbox_conf_perm
I0815 11:09:35.909261  4727 net.cpp:100] Creating Layer conv4_3_norm_mbox_conf_perm
I0815 11:09:35.909265  4727 net.cpp:434] conv4_3_norm_mbox_conf_perm <- conv4_3_norm_mbox_conf
I0815 11:09:35.909268  4727 net.cpp:408] conv4_3_norm_mbox_conf_perm -> conv4_3_norm_mbox_conf_perm
I0815 11:09:35.909394  4727 net.cpp:150] Setting up conv4_3_norm_mbox_conf_perm
I0815 11:09:35.909399  4727 net.cpp:157] Top shape: 4 36 44 8 (50688)
I0815 11:09:35.909402  4727 net.cpp:165] Memory required for data: 1107865760
I0815 11:09:35.909404  4727 layer_factory.hpp:77] Creating layer conv4_3_norm_mbox_conf_flat
I0815 11:09:35.909407  4727 net.cpp:100] Creating Layer conv4_3_norm_mbox_conf_flat
I0815 11:09:35.909410  4727 net.cpp:434] conv4_3_norm_mbox_conf_flat <- conv4_3_norm_mbox_conf_perm
I0815 11:09:35.909413  4727 net.cpp:408] conv4_3_norm_mbox_conf_flat -> conv4_3_norm_mbox_conf_flat
I0815 11:09:35.909438  4727 net.cpp:150] Setting up conv4_3_norm_mbox_conf_flat
I0815 11:09:35.909442  4727 net.cpp:157] Top shape: 4 12672 (50688)
I0815 11:09:35.909446  4727 net.cpp:165] Memory required for data: 1108068512
I0815 11:09:35.909447  4727 layer_factory.hpp:77] Creating layer conv4_3_norm_mbox_priorbox
I0815 11:09:35.909452  4727 net.cpp:100] Creating Layer conv4_3_norm_mbox_priorbox
I0815 11:09:35.909456  4727 net.cpp:434] conv4_3_norm_mbox_priorbox <- conv4_3_norm_conv4_3_norm_0_split_2
I0815 11:09:35.909458  4727 net.cpp:434] conv4_3_norm_mbox_priorbox <- data_data_0_split_1
I0815 11:09:35.909462  4727 net.cpp:408] conv4_3_norm_mbox_priorbox -> conv4_3_norm_mbox_priorbox
I0815 11:09:35.909534  4727 net.cpp:150] Setting up conv4_3_norm_mbox_priorbox
I0815 11:09:35.909538  4727 net.cpp:157] Top shape: 1 2 25344 (50688)
I0815 11:09:35.909554  4727 net.cpp:165] Memory required for data: 1108271264
I0815 11:09:35.909556  4727 layer_factory.hpp:77] Creating layer fc7_mbox_loc
I0815 11:09:35.909561  4727 net.cpp:100] Creating Layer fc7_mbox_loc
I0815 11:09:35.909564  4727 net.cpp:434] fc7_mbox_loc <- fc7_relu7_0_split_1
I0815 11:09:35.909569  4727 net.cpp:408] fc7_mbox_loc -> fc7_mbox_loc
I0815 11:09:35.913067  4727 net.cpp:150] Setting up fc7_mbox_loc
I0815 11:09:35.913075  4727 net.cpp:157] Top shape: 4 24 18 22 (38016)
I0815 11:09:35.913079  4727 net.cpp:165] Memory required for data: 1108423328
I0815 11:09:35.913085  4727 layer_factory.hpp:77] Creating layer fc7_mbox_loc_perm
I0815 11:09:35.913091  4727 net.cpp:100] Creating Layer fc7_mbox_loc_perm
I0815 11:09:35.913095  4727 net.cpp:434] fc7_mbox_loc_perm <- fc7_mbox_loc
I0815 11:09:35.913110  4727 net.cpp:408] fc7_mbox_loc_perm -> fc7_mbox_loc_perm
I0815 11:09:35.913240  4727 net.cpp:150] Setting up fc7_mbox_loc_perm
I0815 11:09:35.913245  4727 net.cpp:157] Top shape: 4 18 22 24 (38016)
I0815 11:09:35.913249  4727 net.cpp:165] Memory required for data: 1108575392
I0815 11:09:35.913251  4727 layer_factory.hpp:77] Creating layer fc7_mbox_loc_flat
I0815 11:09:35.913254  4727 net.cpp:100] Creating Layer fc7_mbox_loc_flat
I0815 11:09:35.913257  4727 net.cpp:434] fc7_mbox_loc_flat <- fc7_mbox_loc_perm
I0815 11:09:35.913260  4727 net.cpp:408] fc7_mbox_loc_flat -> fc7_mbox_loc_flat
I0815 11:09:35.913285  4727 net.cpp:150] Setting up fc7_mbox_loc_flat
I0815 11:09:35.913290  4727 net.cpp:157] Top shape: 4 9504 (38016)
I0815 11:09:35.913292  4727 net.cpp:165] Memory required for data: 1108727456
I0815 11:09:35.913295  4727 layer_factory.hpp:77] Creating layer fc7_mbox_conf
I0815 11:09:35.913300  4727 net.cpp:100] Creating Layer fc7_mbox_conf
I0815 11:09:35.913303  4727 net.cpp:434] fc7_mbox_conf <- fc7_relu7_0_split_2
I0815 11:09:35.913308  4727 net.cpp:408] fc7_mbox_conf -> fc7_mbox_conf
I0815 11:09:35.915499  4727 net.cpp:150] Setting up fc7_mbox_conf
I0815 11:09:35.915508  4727 net.cpp:157] Top shape: 4 12 18 22 (19008)
I0815 11:09:35.915511  4727 net.cpp:165] Memory required for data: 1108803488
I0815 11:09:35.915516  4727 layer_factory.hpp:77] Creating layer fc7_mbox_conf_perm
I0815 11:09:35.915522  4727 net.cpp:100] Creating Layer fc7_mbox_conf_perm
I0815 11:09:35.915526  4727 net.cpp:434] fc7_mbox_conf_perm <- fc7_mbox_conf
I0815 11:09:35.915531  4727 net.cpp:408] fc7_mbox_conf_perm -> fc7_mbox_conf_perm
I0815 11:09:35.915659  4727 net.cpp:150] Setting up fc7_mbox_conf_perm
I0815 11:09:35.915663  4727 net.cpp:157] Top shape: 4 18 22 12 (19008)
I0815 11:09:35.915666  4727 net.cpp:165] Memory required for data: 1108879520
I0815 11:09:35.915668  4727 layer_factory.hpp:77] Creating layer fc7_mbox_conf_flat
I0815 11:09:35.915673  4727 net.cpp:100] Creating Layer fc7_mbox_conf_flat
I0815 11:09:35.915675  4727 net.cpp:434] fc7_mbox_conf_flat <- fc7_mbox_conf_perm
I0815 11:09:35.915679  4727 net.cpp:408] fc7_mbox_conf_flat -> fc7_mbox_conf_flat
I0815 11:09:35.915702  4727 net.cpp:150] Setting up fc7_mbox_conf_flat
I0815 11:09:35.915706  4727 net.cpp:157] Top shape: 4 4752 (19008)
I0815 11:09:35.915709  4727 net.cpp:165] Memory required for data: 1108955552
I0815 11:09:35.915711  4727 layer_factory.hpp:77] Creating layer fc7_mbox_priorbox
I0815 11:09:35.915716  4727 net.cpp:100] Creating Layer fc7_mbox_priorbox
I0815 11:09:35.915719  4727 net.cpp:434] fc7_mbox_priorbox <- fc7_relu7_0_split_3
I0815 11:09:35.915722  4727 net.cpp:434] fc7_mbox_priorbox <- data_data_0_split_2
I0815 11:09:35.915726  4727 net.cpp:408] fc7_mbox_priorbox -> fc7_mbox_priorbox
I0815 11:09:35.915752  4727 net.cpp:150] Setting up fc7_mbox_priorbox
I0815 11:09:35.915755  4727 net.cpp:157] Top shape: 1 2 9504 (19008)
I0815 11:09:35.915760  4727 net.cpp:165] Memory required for data: 1109031584
I0815 11:09:35.915761  4727 layer_factory.hpp:77] Creating layer conv6_2_mbox_loc
I0815 11:09:35.915766  4727 net.cpp:100] Creating Layer conv6_2_mbox_loc
I0815 11:09:35.915769  4727 net.cpp:434] conv6_2_mbox_loc <- conv6_2_conv6_2_relu_0_split_1
I0815 11:09:35.915773  4727 net.cpp:408] conv6_2_mbox_loc -> conv6_2_mbox_loc
I0815 11:09:35.917948  4727 net.cpp:150] Setting up conv6_2_mbox_loc
I0815 11:09:35.917954  4727 net.cpp:157] Top shape: 4 24 9 11 (9504)
I0815 11:09:35.917959  4727 net.cpp:165] Memory required for data: 1109069600
I0815 11:09:35.917965  4727 layer_factory.hpp:77] Creating layer conv6_2_mbox_loc_perm
I0815 11:09:35.917970  4727 net.cpp:100] Creating Layer conv6_2_mbox_loc_perm
I0815 11:09:35.917973  4727 net.cpp:434] conv6_2_mbox_loc_perm <- conv6_2_mbox_loc
I0815 11:09:35.917979  4727 net.cpp:408] conv6_2_mbox_loc_perm -> conv6_2_mbox_loc_perm
I0815 11:09:35.918107  4727 net.cpp:150] Setting up conv6_2_mbox_loc_perm
I0815 11:09:35.918112  4727 net.cpp:157] Top shape: 4 9 11 24 (9504)
I0815 11:09:35.918125  4727 net.cpp:165] Memory required for data: 1109107616
I0815 11:09:35.918128  4727 layer_factory.hpp:77] Creating layer conv6_2_mbox_loc_flat
I0815 11:09:35.918133  4727 net.cpp:100] Creating Layer conv6_2_mbox_loc_flat
I0815 11:09:35.918135  4727 net.cpp:434] conv6_2_mbox_loc_flat <- conv6_2_mbox_loc_perm
I0815 11:09:35.918138  4727 net.cpp:408] conv6_2_mbox_loc_flat -> conv6_2_mbox_loc_flat
I0815 11:09:35.918164  4727 net.cpp:150] Setting up conv6_2_mbox_loc_flat
I0815 11:09:35.918166  4727 net.cpp:157] Top shape: 4 2376 (9504)
I0815 11:09:35.918169  4727 net.cpp:165] Memory required for data: 1109145632
I0815 11:09:35.918171  4727 layer_factory.hpp:77] Creating layer conv6_2_mbox_conf
I0815 11:09:35.918177  4727 net.cpp:100] Creating Layer conv6_2_mbox_conf
I0815 11:09:35.918180  4727 net.cpp:434] conv6_2_mbox_conf <- conv6_2_conv6_2_relu_0_split_2
I0815 11:09:35.918184  4727 net.cpp:408] conv6_2_mbox_conf -> conv6_2_mbox_conf
I0815 11:09:35.920164  4727 net.cpp:150] Setting up conv6_2_mbox_conf
I0815 11:09:35.920172  4727 net.cpp:157] Top shape: 4 12 9 11 (4752)
I0815 11:09:35.920176  4727 net.cpp:165] Memory required for data: 1109164640
I0815 11:09:35.920181  4727 layer_factory.hpp:77] Creating layer conv6_2_mbox_conf_perm
I0815 11:09:35.920187  4727 net.cpp:100] Creating Layer conv6_2_mbox_conf_perm
I0815 11:09:35.920190  4727 net.cpp:434] conv6_2_mbox_conf_perm <- conv6_2_mbox_conf
I0815 11:09:35.920193  4727 net.cpp:408] conv6_2_mbox_conf_perm -> conv6_2_mbox_conf_perm
I0815 11:09:35.920321  4727 net.cpp:150] Setting up conv6_2_mbox_conf_perm
I0815 11:09:35.920326  4727 net.cpp:157] Top shape: 4 9 11 12 (4752)
I0815 11:09:35.920330  4727 net.cpp:165] Memory required for data: 1109183648
I0815 11:09:35.920331  4727 layer_factory.hpp:77] Creating layer conv6_2_mbox_conf_flat
I0815 11:09:35.920334  4727 net.cpp:100] Creating Layer conv6_2_mbox_conf_flat
I0815 11:09:35.920337  4727 net.cpp:434] conv6_2_mbox_conf_flat <- conv6_2_mbox_conf_perm
I0815 11:09:35.920341  4727 net.cpp:408] conv6_2_mbox_conf_flat -> conv6_2_mbox_conf_flat
I0815 11:09:35.920364  4727 net.cpp:150] Setting up conv6_2_mbox_conf_flat
I0815 11:09:35.920368  4727 net.cpp:157] Top shape: 4 1188 (4752)
I0815 11:09:35.920372  4727 net.cpp:165] Memory required for data: 1109202656
I0815 11:09:35.920373  4727 layer_factory.hpp:77] Creating layer conv6_2_mbox_priorbox
I0815 11:09:35.920378  4727 net.cpp:100] Creating Layer conv6_2_mbox_priorbox
I0815 11:09:35.920382  4727 net.cpp:434] conv6_2_mbox_priorbox <- conv6_2_conv6_2_relu_0_split_3
I0815 11:09:35.920384  4727 net.cpp:434] conv6_2_mbox_priorbox <- data_data_0_split_3
I0815 11:09:35.920387  4727 net.cpp:408] conv6_2_mbox_priorbox -> conv6_2_mbox_priorbox
I0815 11:09:35.920413  4727 net.cpp:150] Setting up conv6_2_mbox_priorbox
I0815 11:09:35.920418  4727 net.cpp:157] Top shape: 1 2 2376 (4752)
I0815 11:09:35.920420  4727 net.cpp:165] Memory required for data: 1109221664
I0815 11:09:35.920423  4727 layer_factory.hpp:77] Creating layer conv7_2_mbox_loc
I0815 11:09:35.920429  4727 net.cpp:100] Creating Layer conv7_2_mbox_loc
I0815 11:09:35.920431  4727 net.cpp:434] conv7_2_mbox_loc <- conv7_2_conv7_2_relu_0_split_1
I0815 11:09:35.920435  4727 net.cpp:408] conv7_2_mbox_loc -> conv7_2_mbox_loc
I0815 11:09:35.923547  4727 net.cpp:150] Setting up conv7_2_mbox_loc
I0815 11:09:35.923557  4727 net.cpp:157] Top shape: 4 24 5 6 (2880)
I0815 11:09:35.923560  4727 net.cpp:165] Memory required for data: 1109233184
I0815 11:09:35.923564  4727 layer_factory.hpp:77] Creating layer conv7_2_mbox_loc_perm
I0815 11:09:35.923573  4727 net.cpp:100] Creating Layer conv7_2_mbox_loc_perm
I0815 11:09:35.923575  4727 net.cpp:434] conv7_2_mbox_loc_perm <- conv7_2_mbox_loc
I0815 11:09:35.923579  4727 net.cpp:408] conv7_2_mbox_loc_perm -> conv7_2_mbox_loc_perm
I0815 11:09:35.923743  4727 net.cpp:150] Setting up conv7_2_mbox_loc_perm
I0815 11:09:35.923748  4727 net.cpp:157] Top shape: 4 5 6 24 (2880)
I0815 11:09:35.923750  4727 net.cpp:165] Memory required for data: 1109244704
I0815 11:09:35.923753  4727 layer_factory.hpp:77] Creating layer conv7_2_mbox_loc_flat
I0815 11:09:35.923784  4727 net.cpp:100] Creating Layer conv7_2_mbox_loc_flat
I0815 11:09:35.923786  4727 net.cpp:434] conv7_2_mbox_loc_flat <- conv7_2_mbox_loc_perm
I0815 11:09:35.923791  4727 net.cpp:408] conv7_2_mbox_loc_flat -> conv7_2_mbox_loc_flat
I0815 11:09:35.923817  4727 net.cpp:150] Setting up conv7_2_mbox_loc_flat
I0815 11:09:35.923821  4727 net.cpp:157] Top shape: 4 720 (2880)
I0815 11:09:35.923837  4727 net.cpp:165] Memory required for data: 1109256224
I0815 11:09:35.923840  4727 layer_factory.hpp:77] Creating layer conv7_2_mbox_conf
I0815 11:09:35.923862  4727 net.cpp:100] Creating Layer conv7_2_mbox_conf
I0815 11:09:35.923866  4727 net.cpp:434] conv7_2_mbox_conf <- conv7_2_conv7_2_relu_0_split_2
I0815 11:09:35.923869  4727 net.cpp:408] conv7_2_mbox_conf -> conv7_2_mbox_conf
I0815 11:09:35.925835  4727 net.cpp:150] Setting up conv7_2_mbox_conf
I0815 11:09:35.925843  4727 net.cpp:157] Top shape: 4 12 5 6 (1440)
I0815 11:09:35.925846  4727 net.cpp:165] Memory required for data: 1109261984
I0815 11:09:35.925850  4727 layer_factory.hpp:77] Creating layer conv7_2_mbox_conf_perm
I0815 11:09:35.925856  4727 net.cpp:100] Creating Layer conv7_2_mbox_conf_perm
I0815 11:09:35.925859  4727 net.cpp:434] conv7_2_mbox_conf_perm <- conv7_2_mbox_conf
I0815 11:09:35.925864  4727 net.cpp:408] conv7_2_mbox_conf_perm -> conv7_2_mbox_conf_perm
I0815 11:09:35.925992  4727 net.cpp:150] Setting up conv7_2_mbox_conf_perm
I0815 11:09:35.925997  4727 net.cpp:157] Top shape: 4 5 6 12 (1440)
I0815 11:09:35.925999  4727 net.cpp:165] Memory required for data: 1109267744
I0815 11:09:35.926002  4727 layer_factory.hpp:77] Creating layer conv7_2_mbox_conf_flat
I0815 11:09:35.926007  4727 net.cpp:100] Creating Layer conv7_2_mbox_conf_flat
I0815 11:09:35.926009  4727 net.cpp:434] conv7_2_mbox_conf_flat <- conv7_2_mbox_conf_perm
I0815 11:09:35.926012  4727 net.cpp:408] conv7_2_mbox_conf_flat -> conv7_2_mbox_conf_flat
I0815 11:09:35.926053  4727 net.cpp:150] Setting up conv7_2_mbox_conf_flat
I0815 11:09:35.926056  4727 net.cpp:157] Top shape: 4 360 (1440)
I0815 11:09:35.926059  4727 net.cpp:165] Memory required for data: 1109273504
I0815 11:09:35.926062  4727 layer_factory.hpp:77] Creating layer conv7_2_mbox_priorbox
I0815 11:09:35.926069  4727 net.cpp:100] Creating Layer conv7_2_mbox_priorbox
I0815 11:09:35.926071  4727 net.cpp:434] conv7_2_mbox_priorbox <- conv7_2_conv7_2_relu_0_split_3
I0815 11:09:35.926088  4727 net.cpp:434] conv7_2_mbox_priorbox <- data_data_0_split_4
I0815 11:09:35.926092  4727 net.cpp:408] conv7_2_mbox_priorbox -> conv7_2_mbox_priorbox
I0815 11:09:35.926147  4727 net.cpp:150] Setting up conv7_2_mbox_priorbox
I0815 11:09:35.926151  4727 net.cpp:157] Top shape: 1 2 720 (1440)
I0815 11:09:35.926154  4727 net.cpp:165] Memory required for data: 1109279264
I0815 11:09:35.926156  4727 layer_factory.hpp:77] Creating layer conv8_2_mbox_loc
I0815 11:09:35.926163  4727 net.cpp:100] Creating Layer conv8_2_mbox_loc
I0815 11:09:35.926167  4727 net.cpp:434] conv8_2_mbox_loc <- conv8_2_conv8_2_relu_0_split_1
I0815 11:09:35.926170  4727 net.cpp:408] conv8_2_mbox_loc -> conv8_2_mbox_loc
I0815 11:09:35.928139  4727 net.cpp:150] Setting up conv8_2_mbox_loc
I0815 11:09:35.928148  4727 net.cpp:157] Top shape: 4 16 3 4 (768)
I0815 11:09:35.928151  4727 net.cpp:165] Memory required for data: 1109282336
I0815 11:09:35.928159  4727 layer_factory.hpp:77] Creating layer conv8_2_mbox_loc_perm
I0815 11:09:35.928165  4727 net.cpp:100] Creating Layer conv8_2_mbox_loc_perm
I0815 11:09:35.928169  4727 net.cpp:434] conv8_2_mbox_loc_perm <- conv8_2_mbox_loc
I0815 11:09:35.928172  4727 net.cpp:408] conv8_2_mbox_loc_perm -> conv8_2_mbox_loc_perm
I0815 11:09:35.928308  4727 net.cpp:150] Setting up conv8_2_mbox_loc_perm
I0815 11:09:35.928311  4727 net.cpp:157] Top shape: 4 3 4 16 (768)
I0815 11:09:35.928314  4727 net.cpp:165] Memory required for data: 1109285408
I0815 11:09:35.928316  4727 layer_factory.hpp:77] Creating layer conv8_2_mbox_loc_flat
I0815 11:09:35.928321  4727 net.cpp:100] Creating Layer conv8_2_mbox_loc_flat
I0815 11:09:35.928331  4727 net.cpp:434] conv8_2_mbox_loc_flat <- conv8_2_mbox_loc_perm
I0815 11:09:35.928335  4727 net.cpp:408] conv8_2_mbox_loc_flat -> conv8_2_mbox_loc_flat
I0815 11:09:35.928390  4727 net.cpp:150] Setting up conv8_2_mbox_loc_flat
I0815 11:09:35.928393  4727 net.cpp:157] Top shape: 4 192 (768)
I0815 11:09:35.928396  4727 net.cpp:165] Memory required for data: 1109288480
I0815 11:09:35.928398  4727 layer_factory.hpp:77] Creating layer conv8_2_mbox_conf
I0815 11:09:35.928406  4727 net.cpp:100] Creating Layer conv8_2_mbox_conf
I0815 11:09:35.928411  4727 net.cpp:434] conv8_2_mbox_conf <- conv8_2_conv8_2_relu_0_split_2
I0815 11:09:35.928413  4727 net.cpp:408] conv8_2_mbox_conf -> conv8_2_mbox_conf
I0815 11:09:35.931656  4727 net.cpp:150] Setting up conv8_2_mbox_conf
I0815 11:09:35.931666  4727 net.cpp:157] Top shape: 4 8 3 4 (384)
I0815 11:09:35.931670  4727 net.cpp:165] Memory required for data: 1109290016
I0815 11:09:35.931675  4727 layer_factory.hpp:77] Creating layer conv8_2_mbox_conf_perm
I0815 11:09:35.931684  4727 net.cpp:100] Creating Layer conv8_2_mbox_conf_perm
I0815 11:09:35.931687  4727 net.cpp:434] conv8_2_mbox_conf_perm <- conv8_2_mbox_conf
I0815 11:09:35.931692  4727 net.cpp:408] conv8_2_mbox_conf_perm -> conv8_2_mbox_conf_perm
I0815 11:09:35.931826  4727 net.cpp:150] Setting up conv8_2_mbox_conf_perm
I0815 11:09:35.931830  4727 net.cpp:157] Top shape: 4 3 4 8 (384)
I0815 11:09:35.931833  4727 net.cpp:165] Memory required for data: 1109291552
I0815 11:09:35.931835  4727 layer_factory.hpp:77] Creating layer conv8_2_mbox_conf_flat
I0815 11:09:35.931840  4727 net.cpp:100] Creating Layer conv8_2_mbox_conf_flat
I0815 11:09:35.931843  4727 net.cpp:434] conv8_2_mbox_conf_flat <- conv8_2_mbox_conf_perm
I0815 11:09:35.931846  4727 net.cpp:408] conv8_2_mbox_conf_flat -> conv8_2_mbox_conf_flat
I0815 11:09:35.931886  4727 net.cpp:150] Setting up conv8_2_mbox_conf_flat
I0815 11:09:35.931890  4727 net.cpp:157] Top shape: 4 96 (384)
I0815 11:09:35.931893  4727 net.cpp:165] Memory required for data: 1109293088
I0815 11:09:35.931895  4727 layer_factory.hpp:77] Creating layer conv8_2_mbox_priorbox
I0815 11:09:35.931913  4727 net.cpp:100] Creating Layer conv8_2_mbox_priorbox
I0815 11:09:35.931917  4727 net.cpp:434] conv8_2_mbox_priorbox <- conv8_2_conv8_2_relu_0_split_3
I0815 11:09:35.931921  4727 net.cpp:434] conv8_2_mbox_priorbox <- data_data_0_split_5
I0815 11:09:35.931923  4727 net.cpp:408] conv8_2_mbox_priorbox -> conv8_2_mbox_priorbox
I0815 11:09:35.931951  4727 net.cpp:150] Setting up conv8_2_mbox_priorbox
I0815 11:09:35.931954  4727 net.cpp:157] Top shape: 1 2 192 (384)
I0815 11:09:35.931957  4727 net.cpp:165] Memory required for data: 1109294624
I0815 11:09:35.931959  4727 layer_factory.hpp:77] Creating layer conv9_2_mbox_loc
I0815 11:09:35.931967  4727 net.cpp:100] Creating Layer conv9_2_mbox_loc
I0815 11:09:35.931969  4727 net.cpp:434] conv9_2_mbox_loc <- conv9_2_conv9_2_relu_0_split_0
I0815 11:09:35.931973  4727 net.cpp:408] conv9_2_mbox_loc -> conv9_2_mbox_loc
I0815 11:09:35.934063  4727 net.cpp:150] Setting up conv9_2_mbox_loc
I0815 11:09:35.934072  4727 net.cpp:157] Top shape: 4 16 1 2 (128)
I0815 11:09:35.934075  4727 net.cpp:165] Memory required for data: 1109295136
I0815 11:09:35.934079  4727 layer_factory.hpp:77] Creating layer conv9_2_mbox_loc_perm
I0815 11:09:35.934084  4727 net.cpp:100] Creating Layer conv9_2_mbox_loc_perm
I0815 11:09:35.934088  4727 net.cpp:434] conv9_2_mbox_loc_perm <- conv9_2_mbox_loc
I0815 11:09:35.934092  4727 net.cpp:408] conv9_2_mbox_loc_perm -> conv9_2_mbox_loc_perm
I0815 11:09:35.934226  4727 net.cpp:150] Setting up conv9_2_mbox_loc_perm
I0815 11:09:35.934231  4727 net.cpp:157] Top shape: 4 1 2 16 (128)
I0815 11:09:35.934233  4727 net.cpp:165] Memory required for data: 1109295648
I0815 11:09:35.934237  4727 layer_factory.hpp:77] Creating layer conv9_2_mbox_loc_flat
I0815 11:09:35.934239  4727 net.cpp:100] Creating Layer conv9_2_mbox_loc_flat
I0815 11:09:35.934242  4727 net.cpp:434] conv9_2_mbox_loc_flat <- conv9_2_mbox_loc_perm
I0815 11:09:35.934245  4727 net.cpp:408] conv9_2_mbox_loc_flat -> conv9_2_mbox_loc_flat
I0815 11:09:35.934281  4727 net.cpp:150] Setting up conv9_2_mbox_loc_flat
I0815 11:09:35.934285  4727 net.cpp:157] Top shape: 4 32 (128)
I0815 11:09:35.934288  4727 net.cpp:165] Memory required for data: 1109296160
I0815 11:09:35.934290  4727 layer_factory.hpp:77] Creating layer conv9_2_mbox_conf
I0815 11:09:35.934296  4727 net.cpp:100] Creating Layer conv9_2_mbox_conf
I0815 11:09:35.934299  4727 net.cpp:434] conv9_2_mbox_conf <- conv9_2_conv9_2_relu_0_split_1
I0815 11:09:35.934303  4727 net.cpp:408] conv9_2_mbox_conf -> conv9_2_mbox_conf
I0815 11:09:35.936208  4727 net.cpp:150] Setting up conv9_2_mbox_conf
I0815 11:09:35.936214  4727 net.cpp:157] Top shape: 4 8 1 2 (64)
I0815 11:09:35.936218  4727 net.cpp:165] Memory required for data: 1109296416
I0815 11:09:35.936223  4727 layer_factory.hpp:77] Creating layer conv9_2_mbox_conf_perm
I0815 11:09:35.936228  4727 net.cpp:100] Creating Layer conv9_2_mbox_conf_perm
I0815 11:09:35.936231  4727 net.cpp:434] conv9_2_mbox_conf_perm <- conv9_2_mbox_conf
I0815 11:09:35.936235  4727 net.cpp:408] conv9_2_mbox_conf_perm -> conv9_2_mbox_conf_perm
I0815 11:09:35.936367  4727 net.cpp:150] Setting up conv9_2_mbox_conf_perm
I0815 11:09:35.936372  4727 net.cpp:157] Top shape: 4 1 2 8 (64)
I0815 11:09:35.936375  4727 net.cpp:165] Memory required for data: 1109296672
I0815 11:09:35.936378  4727 layer_factory.hpp:77] Creating layer conv9_2_mbox_conf_flat
I0815 11:09:35.936381  4727 net.cpp:100] Creating Layer conv9_2_mbox_conf_flat
I0815 11:09:35.936384  4727 net.cpp:434] conv9_2_mbox_conf_flat <- conv9_2_mbox_conf_perm
I0815 11:09:35.936388  4727 net.cpp:408] conv9_2_mbox_conf_flat -> conv9_2_mbox_conf_flat
I0815 11:09:35.936412  4727 net.cpp:150] Setting up conv9_2_mbox_conf_flat
I0815 11:09:35.936416  4727 net.cpp:157] Top shape: 4 16 (64)
I0815 11:09:35.936419  4727 net.cpp:165] Memory required for data: 1109296928
I0815 11:09:35.936421  4727 layer_factory.hpp:77] Creating layer conv9_2_mbox_priorbox
I0815 11:09:35.936426  4727 net.cpp:100] Creating Layer conv9_2_mbox_priorbox
I0815 11:09:35.936429  4727 net.cpp:434] conv9_2_mbox_priorbox <- conv9_2_conv9_2_relu_0_split_2
I0815 11:09:35.936431  4727 net.cpp:434] conv9_2_mbox_priorbox <- data_data_0_split_6
I0815 11:09:35.936434  4727 net.cpp:408] conv9_2_mbox_priorbox -> conv9_2_mbox_priorbox
I0815 11:09:35.936460  4727 net.cpp:150] Setting up conv9_2_mbox_priorbox
I0815 11:09:35.936463  4727 net.cpp:157] Top shape: 1 2 32 (64)
I0815 11:09:35.936466  4727 net.cpp:165] Memory required for data: 1109297184
I0815 11:09:35.936468  4727 layer_factory.hpp:77] Creating layer mbox_loc
I0815 11:09:35.936475  4727 net.cpp:100] Creating Layer mbox_loc
I0815 11:09:35.936477  4727 net.cpp:434] mbox_loc <- conv4_3_norm_mbox_loc_flat
I0815 11:09:35.936480  4727 net.cpp:434] mbox_loc <- fc7_mbox_loc_flat
I0815 11:09:35.936486  4727 net.cpp:434] mbox_loc <- conv6_2_mbox_loc_flat
I0815 11:09:35.936487  4727 net.cpp:434] mbox_loc <- conv7_2_mbox_loc_flat
I0815 11:09:35.936491  4727 net.cpp:434] mbox_loc <- conv8_2_mbox_loc_flat
I0815 11:09:35.936494  4727 net.cpp:434] mbox_loc <- conv9_2_mbox_loc_flat
I0815 11:09:35.936497  4727 net.cpp:408] mbox_loc -> mbox_loc
I0815 11:09:35.936524  4727 net.cpp:150] Setting up mbox_loc
I0815 11:09:35.936528  4727 net.cpp:157] Top shape: 4 38168 (152672)
I0815 11:09:35.936532  4727 net.cpp:165] Memory required for data: 1109907872
I0815 11:09:35.936533  4727 layer_factory.hpp:77] Creating layer mbox_conf
I0815 11:09:35.936538  4727 net.cpp:100] Creating Layer mbox_conf
I0815 11:09:35.936542  4727 net.cpp:434] mbox_conf <- conv4_3_norm_mbox_conf_flat
I0815 11:09:35.936544  4727 net.cpp:434] mbox_conf <- fc7_mbox_conf_flat
I0815 11:09:35.936547  4727 net.cpp:434] mbox_conf <- conv6_2_mbox_conf_flat
I0815 11:09:35.936550  4727 net.cpp:434] mbox_conf <- conv7_2_mbox_conf_flat
I0815 11:09:35.936553  4727 net.cpp:434] mbox_conf <- conv8_2_mbox_conf_flat
I0815 11:09:35.936554  4727 net.cpp:434] mbox_conf <- conv9_2_mbox_conf_flat
I0815 11:09:35.936558  4727 net.cpp:408] mbox_conf -> mbox_conf
I0815 11:09:35.936591  4727 net.cpp:150] Setting up mbox_conf
I0815 11:09:35.936595  4727 net.cpp:157] Top shape: 4 19084 (76336)
I0815 11:09:35.936599  4727 net.cpp:165] Memory required for data: 1110213216
I0815 11:09:35.936600  4727 layer_factory.hpp:77] Creating layer mbox_priorbox
I0815 11:09:35.936604  4727 net.cpp:100] Creating Layer mbox_priorbox
I0815 11:09:35.936606  4727 net.cpp:434] mbox_priorbox <- conv4_3_norm_mbox_priorbox
I0815 11:09:35.936609  4727 net.cpp:434] mbox_priorbox <- fc7_mbox_priorbox
I0815 11:09:35.936612  4727 net.cpp:434] mbox_priorbox <- conv6_2_mbox_priorbox
I0815 11:09:35.936614  4727 net.cpp:434] mbox_priorbox <- conv7_2_mbox_priorbox
I0815 11:09:35.936617  4727 net.cpp:434] mbox_priorbox <- conv8_2_mbox_priorbox
I0815 11:09:35.936619  4727 net.cpp:434] mbox_priorbox <- conv9_2_mbox_priorbox
I0815 11:09:35.936623  4727 net.cpp:408] mbox_priorbox -> mbox_priorbox
I0815 11:09:35.936646  4727 net.cpp:150] Setting up mbox_priorbox
I0815 11:09:35.936650  4727 net.cpp:157] Top shape: 1 2 38168 (76336)
I0815 11:09:35.936653  4727 net.cpp:165] Memory required for data: 1110518560
I0815 11:09:35.936655  4727 layer_factory.hpp:77] Creating layer mbox_conf_reshape
I0815 11:09:35.936663  4727 net.cpp:100] Creating Layer mbox_conf_reshape
I0815 11:09:35.936666  4727 net.cpp:434] mbox_conf_reshape <- mbox_conf
I0815 11:09:35.936669  4727 net.cpp:408] mbox_conf_reshape -> mbox_conf_reshape
I0815 11:09:35.936702  4727 net.cpp:150] Setting up mbox_conf_reshape
I0815 11:09:35.936705  4727 net.cpp:157] Top shape: 4 9542 2 (76336)
I0815 11:09:35.936708  4727 net.cpp:165] Memory required for data: 1110823904
I0815 11:09:35.936712  4727 layer_factory.hpp:77] Creating layer mbox_conf_softmax
I0815 11:09:35.936714  4727 net.cpp:100] Creating Layer mbox_conf_softmax
I0815 11:09:35.936718  4727 net.cpp:434] mbox_conf_softmax <- mbox_conf_reshape
I0815 11:09:35.936722  4727 net.cpp:408] mbox_conf_softmax -> mbox_conf_softmax
I0815 11:09:35.937184  4727 net.cpp:150] Setting up mbox_conf_softmax
I0815 11:09:35.937191  4727 net.cpp:157] Top shape: 4 9542 2 (76336)
I0815 11:09:35.937194  4727 net.cpp:165] Memory required for data: 1111129248
I0815 11:09:35.937196  4727 layer_factory.hpp:77] Creating layer mbox_conf_flatten
I0815 11:09:35.937201  4727 net.cpp:100] Creating Layer mbox_conf_flatten
I0815 11:09:35.937204  4727 net.cpp:434] mbox_conf_flatten <- mbox_conf_softmax
I0815 11:09:35.937207  4727 net.cpp:408] mbox_conf_flatten -> mbox_conf_flatten
I0815 11:09:35.937233  4727 net.cpp:150] Setting up mbox_conf_flatten
I0815 11:09:35.937237  4727 net.cpp:157] Top shape: 4 19084 (76336)
I0815 11:09:35.937239  4727 net.cpp:165] Memory required for data: 1111434592
I0815 11:09:35.937242  4727 layer_factory.hpp:77] Creating layer detection_out
I0815 11:09:35.937253  4727 net.cpp:100] Creating Layer detection_out
I0815 11:09:35.937256  4727 net.cpp:434] detection_out <- mbox_loc
I0815 11:09:35.937259  4727 net.cpp:434] detection_out <- mbox_conf_flatten
I0815 11:09:35.937263  4727 net.cpp:434] detection_out <- mbox_priorbox
I0815 11:09:35.937268  4727 net.cpp:408] detection_out -> detection_out
W0815 11:09:35.937291  4727 detection_output_layer.cpp:49] Failed to create directory: /home/ly/data/VOCdevkit/results/wider_face/SSD_352x288/Main
I0815 11:09:35.938140  4727 net.cpp:150] Setting up detection_out
I0815 11:09:35.938146  4727 net.cpp:157] Top shape: 1 1 1 7 (7)
I0815 11:09:35.938149  4727 net.cpp:165] Memory required for data: 1111434620
I0815 11:09:35.938153  4727 layer_factory.hpp:77] Creating layer detection_eval
I0815 11:09:35.938158  4727 net.cpp:100] Creating Layer detection_eval
I0815 11:09:35.938160  4727 net.cpp:434] detection_eval <- detection_out
I0815 11:09:35.938163  4727 net.cpp:434] detection_eval <- label
I0815 11:09:35.938166  4727 net.cpp:408] detection_eval -> detection_eval
I0815 11:09:35.938614  4727 net.cpp:150] Setting up detection_eval
I0815 11:09:35.938619  4727 net.cpp:157] Top shape: 1 1 2 5 (10)
I0815 11:09:35.938622  4727 net.cpp:165] Memory required for data: 1111434660
I0815 11:09:35.938632  4727 net.cpp:228] detection_eval does not need backward computation.
I0815 11:09:35.938650  4727 net.cpp:228] detection_out does not need backward computation.
I0815 11:09:35.938653  4727 net.cpp:228] mbox_conf_flatten does not need backward computation.
I0815 11:09:35.938657  4727 net.cpp:228] mbox_conf_softmax does not need backward computation.
…
