…
I0826 17:13:27.492820 28156 solver.cpp:106] Creating training net from net file: face_train_test.prototxt
I0826 17:13:27.493362 28156 net.cpp:58] Initializing net from parameters: 
name: "Face-ResNet"
state {
  phase: TRAIN
  level: 0
  stage: ""
}
layer {
  name: "data"
  type: "Data"
  top: "data"
  top: "label"
  include {
    phase: TRAIN
  }
  transform_param {
    scale: 0.0078125
    mirror: true
    mean_value: 127.5
    mean_value: 127.5
    mean_value: 127.5
    force_color: true
  }
  data_param {
    source: "/media/ly/data/caffe-face/face_example/clean_data/lmdb"
    batch_size: 16
    backend: LMDB
  }
}
layer {
  name: "conv1a"
  type: "Convolution"
  bottom: "data"
  top: "conv1a"
  param {
    lr_mult: 1
    decay_mult: 1
  }
  param {
    lr_mult: 2
    decay_mult: 0
  }
  convolution_param {
    num_output: 32
    kernel_size: 3
    stride: 1
    weight_filler {
      type: "xavier"
    }
    bias_filler {
      type: "constant"
      value: 0
    }
  }
}
layer {
  name: "relu1a"
  type: "PReLU"
  bottom: "conv1a"
  top: "conv1a"
}
layer {
  name: "conv1b"
  type: "Convolution"
  bottom: "conv1a"
  top: "conv1b"
  param {
    lr_mult: 1
    decay_mult: 1
  }
  param {
    lr_mult: 2
    decay_mult: 0
  }
  convolution_param {
    num_output: 64
    kernel_size: 3
    stride: 1
    weight_filler {
      type: "xavier"
    }
    bias_filler {
      type: "constant"
      value: 0
    }
  }
}
layer {
  name: "relu1b"
  type: "PReLU"
  bottom: "conv1b"
  top: "conv1b"
}
layer {
  name: "pool1b"
  type: "Pooling"
  bottom: "conv1b"
  top: "pool1b"
  pooling_param {
    pool: MAX
    kernel_size: 2
    stride: 2
  }
}
layer {
  name: "conv2_1"
  type: "Convolution"
  bottom: "pool1b"
  top: "conv2_1"
  param {
    lr_mult: 1
    decay_mult: 1
  }
  param {
    lr_mult: 0
    decay_mult: 0
  }
  convolution_param {
    num_output: 64
    pad: 1
    kernel_size: 3
    stride: 1
    weight_filler {
      type: "gaussian"
      std: 0.01
    }
    bias_filler {
      type: "constant"
      value: 0
    }
  }
}
layer {
  name: "relu2_1"
  type: "PReLU"
  bottom: "conv2_1"
  top: "conv2_1"
}
layer {
  name: "conv2_2"
  type: "Convolution"
  bottom: "conv2_1"
  top: "conv2_2"
  param {
    lr_mult: 1
    decay_mult: 1
  }
  param {
    lr_mult: 0
    decay_mult: 0
  }
  convolution_param {
    num_output: 64
    pad: 1
    kernel_size: 3
    stride: 1
    weight_filler {
      type: "gaussian"
      std: 0.01
    }
    bias_filler {
      type: "constant"
      value: 0
    }
  }
}
layer {
  name: "relu2_2"
  type: "PReLU"
  bottom: "conv2_2"
  top: "conv2_2"
}
layer {
  name: "res2_2"
  type: "Eltwise"
  bottom: "pool1b"
  bottom: "conv2_2"
  top: "res2_2"
  eltwise_param {
    operation: SUM
  }
}
layer {
  name: "conv2"
  type: "Convolution"
  bottom: "res2_2"
  top: "conv2"
  param {
    lr_mult: 1
    decay_mult: 1
  }
  param {
    lr_mult: 2
    decay_mult: 0
  }
  convolution_param {
    num_output: 128
    kernel_size: 3
    stride: 1
    weight_filler {
      type: "xavier"
    }
    bias_filler {
      type: "constant"
      value: 0
    }
  }
}
layer {
  name: "relu2"
  type: "PReLU"
  bottom: "conv2"
  top: "conv2"
}
layer {
  name: "pool2"
  type: "Pooling"
  bottom: "conv2"
  top: "pool2"
  pooling_param {
    pool: MAX
    kernel_size: 2
    stride: 2
  }
}
layer {
  name: "conv3_1"
  type: "Convolution"
  bottom: "pool2"
  top: "conv3_1"
  param {
    lr_mult: 1
    decay_mult: 1
  }
  param {
    lr_mult: 0
    decay_mult: 0
  }
  convolution_param {
    num_output: 128
    pad: 1
    kernel_size: 3
    stride: 1
    weight_filler {
      type: "gaussian"
      std: 0.01
    }
    bias_filler {
      type: "constant"
      value: 0
    }
  }
}
layer {
  name: "relu3_1"
  type: "PReLU"
  bottom: "conv3_1"
  top: "conv3_1"
}
layer {
  name: "conv3_2"
  type: "Convolution"
  bottom: "conv3_1"
  top: "conv3_2"
  param {
    lr_mult: 1
    decay_mult: 1
  }
  param {
    lr_mult: 0
    decay_mult: 0
  }
  convolution_param {
    num_output: 128
    pad: 1
    kernel_size: 3
    stride: 1
    weight_filler {
      type: "gaussian"
      std: 0.01
    }
    bias_filler {
      type: "constant"
      value: 0
    }
  }
}
layer {
  name: "relu3_2"
  type: "PReLU"
  bottom: "conv3_2"
  top: "conv3_2"
}
layer {
  name: "res3_2"
  type: "Eltwise"
  bottom: "pool2"
  bottom: "conv3_2"
  top: "res3_2"
  eltwise_param {
    operation: SUM
  }
}
layer {
  name: "conv3_3"
  type: "Convolution"
  bottom: "res3_2"
  top: "conv3_3"
  param {
    lr_mult: 1
    decay_mult: 1
  }
  param {
    lr_mult: 0
    decay_mult: 0
  }
  convolution_param {
    num_output: 128
    pad: 1
    kernel_size: 3
    stride: 1
    weight_filler {
      type: "gaussian"
      std: 0.01
    }
    bias_filler {
      type: "constant"
      value: 0
    }
  }
}
layer {
  name: "relu3_3"
  type: "PReLU"
  bottom: "conv3_3"
  top: "conv3_3"
}
layer {
  name: "conv3_4"
  type: "Convolution"
  bottom: "conv3_3"
  top: "conv3_4"
  param {
    lr_mult: 1
    decay_mult: 1
  }
  param {
    lr_mult: 0
    decay_mult: 0
  }
  convolution_param {
    num_output: 128
    pad: 1
    kernel_size: 3
    stride: 1
    weight_filler {
      type: "gaussian"
      std: 0.01
    }
    bias_filler {
      type: "constant"
      value: 0
    }
  }
}
layer {
  name: "relu3_4"
  type: "PReLU"
  bottom: "conv3_4"
  top: "conv3_4"
}
layer {
  name: "res3_4"
  type: "Eltwise"
  bottom: "res3_2"
  bottom: "conv3_4"
  top: "res3_4"
  eltwise_param {
    operation: SUM
  }
}
layer {
  name: "conv3"
  type: "Convolution"
  bottom: "res3_4"
  top: "conv3"
  param {
    lr_mult: 1
    decay_mult: 1
  }
  param {
    lr_mult: 2
    decay_mult: 0
  }
  convolution_param {
    num_output: 256
    kernel_size: 3
    stride: 1
    weight_filler {
      type: "xavier"
    }
    bias_filler {
      type: "constant"
      value: 0
    }
  }
}
layer {
  name: "relu3"
  type: "PReLU"
  bottom: "conv3"
  top: "conv3"
}
layer {
  name: "pool3"
  type: "Pooling"
  bottom: "conv3"
  top: "pool3"
  pooling_param {
    pool: MAX
    kernel_size: 2
    stride: 2
  }
}
layer {
  name: "conv4_1"
  type: "Convolution"
  bottom: "pool3"
  top: "conv4_1"
  param {
    lr_mult: 1
    decay_mult: 1
  }
  param {
    lr_mult: 0
    decay_mult: 0
  }
  convolution_param {
    num_output: 256
    pad: 1
    kernel_size: 3
    stride: 1
    weight_filler {
      type: "gaussian"
      std: 0.01
    }
    bias_filler {
      type: "constant"
      value: 0
    }
  }
}
layer {
  name: "relu4_1"
  type: "PReLU"
  bottom: "conv4_1"
  top: "conv4_1"
}
layer {
  name: "conv4_2"
  type: "Convolution"
  bottom: "conv4_1"
  top: "conv4_2"
  param {
    lr_mult: 1
    decay_mult: 1
  }
  param {
    lr_mult: 0
    decay_mult: 0
  }
  convolution_param {
    num_output: 256
    pad: 1
    kernel_size: 3
    stride: 1
    weight_filler {
      type: "gaussian"
      std: 0.01
    }
    bias_filler {
      type: "constant"
      value: 0
    }
  }
}
layer {
  name: "relu4_2"
  type: "PReLU"
  bottom: "conv4_2"
  top: "conv4_2"
}
layer {
  name: "res4_2"
  type: "Eltwise"
  bottom: "pool3"
  bottom: "conv4_2"
  top: "res4_2"
  eltwise_param {
    operation: SUM
  }
}
layer {
  name: "conv4_3"
  type: "Convolution"
  bottom: "res4_2"
  top: "conv4_3"
  param {
    lr_mult: 1
    decay_mult: 1
  }
  param {
    lr_mult: 0
    decay_mult: 0
  }
  convolution_param {
    num_output: 256
    pad: 1
    kernel_size: 3
    stride: 1
    weight_filler {
      type: "gaussian"
      std: 0.01
    }
    bias_filler {
      type: "constant"
      value: 0
    }
  }
}
layer {
  name: "relu4_3"
  type: "PReLU"
  bottom: "conv4_3"
  top: "conv4_3"
}
layer {
  name: "conv4_4"
  type: "Convolution"
  bottom: "conv4_3"
  top: "conv4_4"
  param {
    lr_mult: 1
    decay_mult: 1
  }
  param {
    lr_mult: 0
    decay_mult: 0
  }
  convolution_param {
    num_output: 256
    pad: 1
    kernel_size: 3
    stride: 1
    weight_filler {
      type: "gaussian"
      std: 0.01
    }
    bias_filler {
      type: "constant"
      value: 0
    }
  }
}
layer {
  name: "relu4_4"
  type: "PReLU"
  bottom: "conv4_4"
  top: "conv4_4"
}
layer {
  name: "res4_4"
  type: "Eltwise"
  bottom: "res4_2"
  bottom: "conv4_4"
  top: "res4_4"
  eltwise_param {
    operation: SUM
  }
}
layer {
  name: "conv4_5"
  type: "Convolution"
  bottom: "res4_4"
  top: "conv4_5"
  param {
    lr_mult: 1
    decay_mult: 1
  }
  param {
    lr_mult: 0
    decay_mult: 0
  }
  convolution_param {
    num_output: 256
    pad: 1
    kernel_size: 3
    stride: 1
    weight_filler {
      type: "gaussian"
      std: 0.01
    }
    bias_filler {
      type: "constant"
      value: 0
    }
  }
}
layer {
  name: "relu4_5"
  type: "PReLU"
  bottom: "conv4_5"
  top: "conv4_5"
}
layer {
  name: "conv4_6"
  type: "Convolution"
  bottom: "conv4_5"
  top: "conv4_6"
  param {
    lr_mult: 1
    decay_mult: 1
  }
  param {
    lr_mult: 0
    decay_mult: 0
  }
  convolution_param {
    num_output: 256
    pad: 1
    kernel_size: 3
    stride: 1
    weight_filler {
      type: "gaussian"
      std: 0.01
    }
    bias_filler {
      type: "constant"
      value: 0
    }
  }
}
layer {
  name: "relu4_6"
  type: "PReLU"
  bottom: "conv4_6"
  top: "conv4_6"
}
layer {
  name: "res4_6"
  type: "Eltwise"
  bottom: "res4_4"
  bottom: "conv4_6"
  top: "res4_6"
  eltwise_param {
    operation: SUM
  }
}
layer {
  name: "conv4_7"
  type: "Convolution"
  bottom: "res4_6"
  top: "conv4_7"
  param {
    lr_mult: 1
    decay_mult: 1
  }
  param {
    lr_mult: 0
    decay_mult: 0
  }
  convolution_param {
    num_output: 256
    pad: 1
    kernel_size: 3
    stride: 1
    weight_filler {
      type: "gaussian"
      std: 0.01
    }
    bias_filler {
      type: "constant"
      value: 0
    }
  }
}
layer {
  name: "relu4_7"
  type: "PReLU"
  bottom: "conv4_7"
  top: "conv4_7"
}
layer {
  name: "conv4_8"
  type: "Convolution"
  bottom: "conv4_7"
  top: "conv4_8"
  param {
    lr_mult: 1
    decay_mult: 1
  }
  param {
    lr_mult: 0
    decay_mult: 0
  }
  convolution_param {
    num_output: 256
    pad: 1
    kernel_size: 3
    stride: 1
    weight_filler {
      type: "gaussian"
      std: 0.01
    }
    bias_filler {
      type: "constant"
      value: 0
    }
  }
}
layer {
  name: "relu4_8"
  type: "PReLU"
  bottom: "conv4_8"
  top: "conv4_8"
}
layer {
  name: "res4_8"
  type: "Eltwise"
  bottom: "res4_6"
  bottom: "conv4_8"
  top: "res4_8"
  eltwise_param {
    operation: SUM
  }
}
layer {
  name: "conv4_9"
  type: "Convolution"
  bottom: "res4_8"
  top: "conv4_9"
  param {
    lr_mult: 1
    decay_mult: 1
  }
  param {
    lr_mult: 0
    decay_mult: 0
  }
  convolution_param {
    num_output: 256
    pad: 1
    kernel_size: 3
    stride: 1
    weight_filler {
      type: "gaussian"
      std: 0.01
    }
    bias_filler {
      type: "constant"
      value: 0
    }
  }
}
layer {
  name: "relu4_9"
  type: "PReLU"
  bottom: "conv4_9"
  top: "conv4_9"
}
layer {
  name: "conv4_10"
  type: "Convolution"
  bottom: "conv4_9"
  top: "conv4_10"
  param {
    lr_mult: 1
    decay_mult: 1
  }
  param {
    lr_mult: 0
    decay_mult: 0
  }
  convolution_param {
    num_output: 256
    pad: 1
    kernel_size: 3
    stride: 1
    weight_filler {
      type: "gaussian"
      std: 0.01
    }
    bias_filler {
      type: "constant"
      value: 0
    }
  }
}
layer {
  name: "relu4_10"
  type: "PReLU"
  bottom: "conv4_10"
  top: "conv4_10"
}
layer {
  name: "res4_10"
  type: "Eltwise"
  bottom: "res4_8"
  bottom: "conv4_10"
  top: "res4_10"
  eltwise_param {
    operation: SUM
  }
}
layer {
  name: "conv4"
  type: "Convolution"
  bottom: "res4_10"
  top: "conv4"
  param {
    lr_mult: 1
    decay_mult: 1
  }
  param {
    lr_mult: 2
    decay_mult: 0
  }
  convolution_param {
    num_output: 512
    kernel_size: 3
    stride: 1
    weight_filler {
      type: "xavier"
    }
    bias_filler {
      type: "constant"
      value: 0
    }
  }
}
layer {
  name: "relu4"
  type: "PReLU"
  bottom: "conv4"
  top: "conv4"
}
layer {
  name: "pool4"
  type: "Pooling"
  bottom: "conv4"
  top: "pool4"
  pooling_param {
    pool: MAX
    kernel_size: 2
    stride: 2
  }
}
layer {
  name: "conv5_1"
  type: "Convolution"
  bottom: "pool4"
  top: "conv5_1"
  param {
    lr_mult: 1
    decay_mult: 1
  }
  param {
    lr_mult: 0
    decay_mult: 0
  }
  convolution_param {
    num_output: 512
    pad: 1
    kernel_size: 3
    stride: 1
    weight_filler {
      type: "gaussian"
      std: 0.01
    }
    bias_filler {
      type: "constant"
      value: 0
    }
  }
}
layer {
  name: "relu5_1"
  type: "PReLU"
  bottom: "conv5_1"
  top: "conv5_1"
}
layer {
  name: "conv5_2"
  type: "Convolution"
  bottom: "conv5_1"
  top: "conv5_2"
  param {
    lr_mult: 1
    decay_mult: 1
  }
  param {
    lr_mult: 0
    decay_mult: 0
  }
  convolution_param {
    num_output: 512
    pad: 1
    kernel_size: 3
    stride: 1
    weight_filler {
      type: "gaussian"
      std: 0.01
    }
    bias_filler {
      type: "constant"
      value: 0
    }
  }
}
layer {
  name: "relu5_2"
  type: "PReLU"
  bottom: "conv5_2"
  top: "conv5_2"
}
layer {
  name: "res5_2"
  type: "Eltwise"
  bottom: "pool4"
  bottom: "conv5_2"
  top: "res5_2"
  eltwise_param {
    operation: SUM
  }
}
layer {
  name: "conv5_3"
  type: "Convolution"
  bottom: "res5_2"
  top: "conv5_3"
  param {
    lr_mult: 1
    decay_mult: 1
  }
  param {
    lr_mult: 0
    decay_mult: 0
  }
  convolution_param {
    num_output: 512
    pad: 1
    kernel_size: 3
    stride: 1
    weight_filler {
      type: "gaussian"
      std: 0.01
    }
    bias_filler {
      type: "constant"
      value: 0
    }
  }
}
layer {
  name: "relu5_3"
  type: "PReLU"
  bottom: "conv5_3"
  top: "conv5_3"
}
layer {
  name: "conv5_4"
  type: "Convolution"
  bottom: "conv5_3"
  top: "conv5_4"
  param {
    lr_mult: 1
    decay_mult: 1
  }
  param {
    lr_mult: 0
    decay_mult: 0
  }
  convolution_param {
    num_output: 512
    pad: 1
    kernel_size: 3
    stride: 1
    weight_filler {
      type: "gaussian"
      std: 0.01
    }
    bias_filler {
      type: "constant"
      value: 0
    }
  }
}
layer {
  name: "relu5_4"
  type: "PReLU"
  bottom: "conv5_4"
  top: "conv5_4"
}
layer {
  name: "res5_4"
  type: "Eltwise"
  bottom: "res5_2"
  bottom: "conv5_4"
  top: "res5_4"
  eltwise_param {
    operation: SUM
  }
}
layer {
  name: "conv5_5"
  type: "Convolution"
  bottom: "res5_4"
  top: "conv5_5"
  param {
    lr_mult: 1
    decay_mult: 1
  }
  param {
    lr_mult: 0
    decay_mult: 0
  }
  convolution_param {
    num_output: 512
    pad: 1
    kernel_size: 3
    stride: 1
    weight_filler {
      type: "gaussian"
      std: 0.01
    }
    bias_filler {
      type: "constant"
      value: 0
    }
  }
}
layer {
  name: "relu5_5"
  type: "PReLU"
  bottom: "conv5_5"
  top: "conv5_5"
}
layer {
  name: "conv5_6"
  type: "Convolution"
  bottom: "conv5_5"
  top: "conv5_6"
  param {
    lr_mult: 1
    decay_mult: 1
  }
  param {
    lr_mult: 0
    decay_mult: 0
  }
  convolution_param {
    num_output: 512
    pad: 1
    kernel_size: 3
    stride: 1
    weight_filler {
      type: "gaussian"
      std: 0.01
    }
    bias_filler {
      type: "constant"
      value: 0
    }
  }
}
layer {
  name: "relu5_6"
  type: "PReLU"
  bottom: "conv5_6"
  top: "conv5_6"
}
layer {
  name: "res5_6"
  type: "Eltwise"
  bottom: "res5_4"
  bottom: "conv5_6"
  top: "res5_6"
  eltwise_param {
    operation: SUM
  }
}
layer {
  name: "fc_5"
  type: "InnerProduct"
  bottom: "res5_6"
  top: "fc_5"
  param {
    lr_mult: 1
    decay_mult: 1
  }
  param {
    lr_mult: 2
    decay_mult: 0
  }
  inner_product_param {
    num_output: 512
    weight_filler {
      type: "xavier"
    }
    bias_filler {
      type: "constant"
      value: 0
    }
  }
}
layer {
  name: "fc_6"
  type: "InnerProduct"
  bottom: "fc_5"
  top: "fc_6"
  param {
    lr_mult: 1
    decay_mult: 1
  }
  param {
    lr_mult: 2
    decay_mult: 0
  }
  inner_product_param {
    num_output: 10177
    weight_filler {
      type: "xavier"
    }
    bias_filler {
      type: "constant"
      value: 0
    }
  }
}
layer {
  name: "softmax_loss"
  type: "SoftmaxWithLoss"
  bottom: "fc_6"
  bottom: "label"
  top: "softmax_loss"
}
layer {
  name: "center_loss"
  type: "CenterLoss"
  bottom: "fc_5"
  bottom: "label"
  top: "center_loss"
  loss_weight: 0.008
  param {
    lr_mult: 1
    decay_mult: 2
  }
  center_loss_param {
    num_output: 10177
    center_filler {
      type: "xavier"
    }
  }
}
I0826 17:13:27.493803 28156 layer_factory.hpp:77] Creating layer data
I0826 17:13:27.493947 28156 net.cpp:100] Creating Layer data
I0826 17:13:27.493953 28156 net.cpp:408] data -> data
I0826 17:13:27.493983 28156 net.cpp:408] data -> label
I0826 17:13:27.494638 28175 db_lmdb.cpp:35] Opened lmdb /media/ly/data/caffe-face/face_example/clean_data/lmdb
I0826 17:13:27.507143 28156 data_layer.cpp:41] output data size: 16,3,250,250
I0826 17:13:27.518419 28156 net.cpp:150] Setting up data
I0826 17:13:27.518455 28156 net.cpp:157] Top shape: 16 3 250 250 (3000000)
I0826 17:13:27.518463 28156 net.cpp:157] Top shape: 16 (16)
I0826 17:13:27.518466 28156 net.cpp:165] Memory required for data: 12000064
I0826 17:13:27.518473 28156 layer_factory.hpp:77] Creating layer label_data_1_split
I0826 17:13:27.518486 28156 net.cpp:100] Creating Layer label_data_1_split
I0826 17:13:27.518489 28156 net.cpp:434] label_data_1_split <- label
I0826 17:13:27.518501 28156 net.cpp:408] label_data_1_split -> label_data_1_split_0
I0826 17:13:27.518508 28156 net.cpp:408] label_data_1_split -> label_data_1_split_1
I0826 17:13:27.518545 28156 net.cpp:150] Setting up label_data_1_split
I0826 17:13:27.518549 28156 net.cpp:157] Top shape: 16 (16)
I0826 17:13:27.518553 28156 net.cpp:157] Top shape: 16 (16)
I0826 17:13:27.518554 28156 net.cpp:165] Memory required for data: 12000192
I0826 17:13:27.518558 28156 layer_factory.hpp:77] Creating layer conv1a
I0826 17:13:27.518569 28156 net.cpp:100] Creating Layer conv1a
I0826 17:13:27.518573 28156 net.cpp:434] conv1a <- data
I0826 17:13:27.518576 28156 net.cpp:408] conv1a -> conv1a
I0826 17:13:28.266173 28156 net.cpp:150] Setting up conv1a
I0826 17:13:28.266206 28156 net.cpp:157] Top shape: 16 32 248 248 (31490048)
I0826 17:13:28.266213 28156 net.cpp:165] Memory required for data: 137960384
I0826 17:13:28.266245 28156 layer_factory.hpp:77] Creating layer relu1a
I0826 17:13:28.266253 28156 net.cpp:100] Creating Layer relu1a
I0826 17:13:28.266257 28156 net.cpp:434] relu1a <- conv1a
I0826 17:13:28.266261 28156 net.cpp:395] relu1a -> conv1a (in-place)
I0826 17:13:28.268417 28156 net.cpp:150] Setting up relu1a
I0826 17:13:28.268429 28156 net.cpp:157] Top shape: 16 32 248 248 (31490048)
I0826 17:13:28.268450 28156 net.cpp:165] Memory required for data: 263920576
I0826 17:13:28.268457 28156 layer_factory.hpp:77] Creating layer conv1b
I0826 17:13:28.268483 28156 net.cpp:100] Creating Layer conv1b
I0826 17:13:28.268488 28156 net.cpp:434] conv1b <- conv1a
I0826 17:13:28.268492 28156 net.cpp:408] conv1b -> conv1b
I0826 17:13:28.270120 28156 net.cpp:150] Setting up conv1b
I0826 17:13:28.270130 28156 net.cpp:157] Top shape: 16 64 246 246 (61968384)
I0826 17:13:28.270149 28156 net.cpp:165] Memory required for data: 511794112
I0826 17:13:28.270155 28156 layer_factory.hpp:77] Creating layer relu1b
I0826 17:13:28.270160 28156 net.cpp:100] Creating Layer relu1b
I0826 17:13:28.270179 28156 net.cpp:434] relu1b <- conv1b
I0826 17:13:28.270182 28156 net.cpp:395] relu1b -> conv1b (in-place)
I0826 17:13:28.274653 28156 net.cpp:150] Setting up relu1b
I0826 17:13:28.274677 28156 net.cpp:157] Top shape: 16 64 246 246 (61968384)
I0826 17:13:28.274685 28156 net.cpp:165] Memory required for data: 759667648
I0826 17:13:28.274693 28156 layer_factory.hpp:77] Creating layer pool1b
I0826 17:13:28.274715 28156 net.cpp:100] Creating Layer pool1b
I0826 17:13:28.274734 28156 net.cpp:434] pool1b <- conv1b
I0826 17:13:28.274740 28156 net.cpp:408] pool1b -> pool1b
I0826 17:13:28.274824 28156 net.cpp:150] Setting up pool1b
I0826 17:13:28.274842 28156 net.cpp:157] Top shape: 16 64 123 123 (15492096)
I0826 17:13:28.274845 28156 net.cpp:165] Memory required for data: 821636032
I0826 17:13:28.274847 28156 layer_factory.hpp:77] Creating layer pool1b_pool1b_0_split
I0826 17:13:28.274868 28156 net.cpp:100] Creating Layer pool1b_pool1b_0_split
I0826 17:13:28.274870 28156 net.cpp:434] pool1b_pool1b_0_split <- pool1b
I0826 17:13:28.274873 28156 net.cpp:408] pool1b_pool1b_0_split -> pool1b_pool1b_0_split_0
I0826 17:13:28.274878 28156 net.cpp:408] pool1b_pool1b_0_split -> pool1b_pool1b_0_split_1
I0826 17:13:28.274907 28156 net.cpp:150] Setting up pool1b_pool1b_0_split
I0826 17:13:28.274911 28156 net.cpp:157] Top shape: 16 64 123 123 (15492096)
I0826 17:13:28.274914 28156 net.cpp:157] Top shape: 16 64 123 123 (15492096)
I0826 17:13:28.274917 28156 net.cpp:165] Memory required for data: 945572800
I0826 17:13:28.274920 28156 layer_factory.hpp:77] Creating layer conv2_1
I0826 17:13:28.274929 28156 net.cpp:100] Creating Layer conv2_1
I0826 17:13:28.274932 28156 net.cpp:434] conv2_1 <- pool1b_pool1b_0_split_0
I0826 17:13:28.274936 28156 net.cpp:408] conv2_1 -> conv2_1
I0826 17:13:28.277357 28156 net.cpp:150] Setting up conv2_1
I0826 17:13:28.277366 28156 net.cpp:157] Top shape: 16 64 123 123 (15492096)
I0826 17:13:28.277371 28156 net.cpp:165] Memory required for data: 1007541184
I0826 17:13:28.277376 28156 layer_factory.hpp:77] Creating layer relu2_1
I0826 17:13:28.277380 28156 net.cpp:100] Creating Layer relu2_1
I0826 17:13:28.277384 28156 net.cpp:434] relu2_1 <- conv2_1
I0826 17:13:28.277387 28156 net.cpp:395] relu2_1 -> conv2_1 (in-place)
I0826 17:13:28.278939 28156 net.cpp:150] Setting up relu2_1
I0826 17:13:28.278964 28156 net.cpp:157] Top shape: 16 64 123 123 (15492096)
I0826 17:13:28.278968 28156 net.cpp:165] Memory required for data: 1069509568
I0826 17:13:28.278990 28156 layer_factory.hpp:77] Creating layer conv2_2
I0826 17:13:28.279000 28156 net.cpp:100] Creating Layer conv2_2
I0826 17:13:28.279002 28156 net.cpp:434] conv2_2 <- conv2_1
I0826 17:13:28.279007 28156 net.cpp:408] conv2_2 -> conv2_2
I0826 17:13:28.281693 28156 net.cpp:150] Setting up conv2_2
I0826 17:13:28.281703 28156 net.cpp:157] Top shape: 16 64 123 123 (15492096)
I0826 17:13:28.281708 28156 net.cpp:165] Memory required for data: 1131477952
I0826 17:13:28.281728 28156 layer_factory.hpp:77] Creating layer relu2_2
I0826 17:13:28.281733 28156 net.cpp:100] Creating Layer relu2_2
I0826 17:13:28.281736 28156 net.cpp:434] relu2_2 <- conv2_2
I0826 17:13:28.281740 28156 net.cpp:395] relu2_2 -> conv2_2 (in-place)
I0826 17:13:28.282905 28156 net.cpp:150] Setting up relu2_2
I0826 17:13:28.282913 28156 net.cpp:157] Top shape: 16 64 123 123 (15492096)
I0826 17:13:28.282917 28156 net.cpp:165] Memory required for data: 1193446336
I0826 17:13:28.282936 28156 layer_factory.hpp:77] Creating layer res2_2
I0826 17:13:28.282941 28156 net.cpp:100] Creating Layer res2_2
I0826 17:13:28.282945 28156 net.cpp:434] res2_2 <- pool1b_pool1b_0_split_1
I0826 17:13:28.282948 28156 net.cpp:434] res2_2 <- conv2_2
I0826 17:13:28.282953 28156 net.cpp:408] res2_2 -> res2_2
I0826 17:13:28.282980 28156 net.cpp:150] Setting up res2_2
I0826 17:13:28.282984 28156 net.cpp:157] Top shape: 16 64 123 123 (15492096)
I0826 17:13:28.282987 28156 net.cpp:165] Memory required for data: 1255414720
I0826 17:13:28.282990 28156 layer_factory.hpp:77] Creating layer conv2
I0826 17:13:28.282996 28156 net.cpp:100] Creating Layer conv2
I0826 17:13:28.282999 28156 net.cpp:434] conv2 <- res2_2
I0826 17:13:28.283004 28156 net.cpp:408] conv2 -> conv2
I0826 17:13:28.285171 28156 net.cpp:150] Setting up conv2
I0826 17:13:28.285179 28156 net.cpp:157] Top shape: 16 128 121 121 (29984768)
I0826 17:13:28.285183 28156 net.cpp:165] Memory required for data: 1375353792
I0826 17:13:28.285204 28156 layer_factory.hpp:77] Creating layer relu2
I0826 17:13:28.285209 28156 net.cpp:100] Creating Layer relu2
I0826 17:13:28.285212 28156 net.cpp:434] relu2 <- conv2
I0826 17:13:28.285215 28156 net.cpp:395] relu2 -> conv2 (in-place)
I0826 17:13:28.287320 28156 net.cpp:150] Setting up relu2
I0826 17:13:28.287333 28156 net.cpp:157] Top shape: 16 128 121 121 (29984768)
I0826 17:13:28.287338 28156 net.cpp:165] Memory required for data: 1495292864
I0826 17:13:28.287343 28156 layer_factory.hpp:77] Creating layer pool2
I0826 17:13:28.287364 28156 net.cpp:100] Creating Layer pool2
I0826 17:13:28.287367 28156 net.cpp:434] pool2 <- conv2
I0826 17:13:28.287372 28156 net.cpp:408] pool2 -> pool2
I0826 17:13:28.287410 28156 net.cpp:150] Setting up pool2
I0826 17:13:28.287415 28156 net.cpp:157] Top shape: 16 128 61 61 (7620608)
I0826 17:13:28.287431 28156 net.cpp:165] Memory required for data: 1525775296
I0826 17:13:28.287432 28156 layer_factory.hpp:77] Creating layer pool2_pool2_0_split
I0826 17:13:28.287453 28156 net.cpp:100] Creating Layer pool2_pool2_0_split
I0826 17:13:28.287457 28156 net.cpp:434] pool2_pool2_0_split <- pool2
I0826 17:13:28.287461 28156 net.cpp:408] pool2_pool2_0_split -> pool2_pool2_0_split_0
I0826 17:13:28.287464 28156 net.cpp:408] pool2_pool2_0_split -> pool2_pool2_0_split_1
I0826 17:13:28.287493 28156 net.cpp:150] Setting up pool2_pool2_0_split
I0826 17:13:28.287497 28156 net.cpp:157] Top shape: 16 128 61 61 (7620608)
I0826 17:13:28.287499 28156 net.cpp:157] Top shape: 16 128 61 61 (7620608)
I0826 17:13:28.287515 28156 net.cpp:165] Memory required for data: 1586740160
I0826 17:13:28.287518 28156 layer_factory.hpp:77] Creating layer conv3_1
I0826 17:13:28.287524 28156 net.cpp:100] Creating Layer conv3_1
I0826 17:13:28.287542 28156 net.cpp:434] conv3_1 <- pool2_pool2_0_split_0
I0826 17:13:28.287546 28156 net.cpp:408] conv3_1 -> conv3_1
I0826 17:13:28.290609 28156 net.cpp:150] Setting up conv3_1
I0826 17:13:28.290618 28156 net.cpp:157] Top shape: 16 128 61 61 (7620608)
I0826 17:13:28.290623 28156 net.cpp:165] Memory required for data: 1617222592
I0826 17:13:28.290647 28156 layer_factory.hpp:77] Creating layer relu3_1
I0826 17:13:28.290652 28156 net.cpp:100] Creating Layer relu3_1
I0826 17:13:28.290657 28156 net.cpp:434] relu3_1 <- conv3_1
I0826 17:13:28.290660 28156 net.cpp:395] relu3_1 -> conv3_1 (in-place)
I0826 17:13:28.291378 28156 net.cpp:150] Setting up relu3_1
I0826 17:13:28.291385 28156 net.cpp:157] Top shape: 16 128 61 61 (7620608)
I0826 17:13:28.291389 28156 net.cpp:165] Memory required for data: 1647705024
I0826 17:13:28.291393 28156 layer_factory.hpp:77] Creating layer conv3_2
I0826 17:13:28.291415 28156 net.cpp:100] Creating Layer conv3_2
I0826 17:13:28.291419 28156 net.cpp:434] conv3_2 <- conv3_1
I0826 17:13:28.291424 28156 net.cpp:408] conv3_2 -> conv3_2
I0826 17:13:28.295202 28156 net.cpp:150] Setting up conv3_2
I0826 17:13:28.295210 28156 net.cpp:157] Top shape: 16 128 61 61 (7620608)
I0826 17:13:28.295215 28156 net.cpp:165] Memory required for data: 1678187456
I0826 17:13:28.295238 28156 layer_factory.hpp:77] Creating layer relu3_2
I0826 17:13:28.295243 28156 net.cpp:100] Creating Layer relu3_2
I0826 17:13:28.295262 28156 net.cpp:434] relu3_2 <- conv3_2
I0826 17:13:28.295266 28156 net.cpp:395] relu3_2 -> conv3_2 (in-place)
I0826 17:13:28.295991 28156 net.cpp:150] Setting up relu3_2
I0826 17:13:28.295998 28156 net.cpp:157] Top shape: 16 128 61 61 (7620608)
I0826 17:13:28.296002 28156 net.cpp:165] Memory required for data: 1708669888
I0826 17:13:28.296021 28156 layer_factory.hpp:77] Creating layer res3_2
I0826 17:13:28.296027 28156 net.cpp:100] Creating Layer res3_2
I0826 17:13:28.296046 28156 net.cpp:434] res3_2 <- pool2_pool2_0_split_1
I0826 17:13:28.296048 28156 net.cpp:434] res3_2 <- conv3_2
I0826 17:13:28.296052 28156 net.cpp:408] res3_2 -> res3_2
I0826 17:13:28.296075 28156 net.cpp:150] Setting up res3_2
I0826 17:13:28.296079 28156 net.cpp:157] Top shape: 16 128 61 61 (7620608)
I0826 17:13:28.296082 28156 net.cpp:165] Memory required for data: 1739152320
I0826 17:13:28.296084 28156 layer_factory.hpp:77] Creating layer res3_2_res3_2_0_split
I0826 17:13:28.296088 28156 net.cpp:100] Creating Layer res3_2_res3_2_0_split
I0826 17:13:28.296092 28156 net.cpp:434] res3_2_res3_2_0_split <- res3_2
I0826 17:13:28.296108 28156 net.cpp:408] res3_2_res3_2_0_split -> res3_2_res3_2_0_split_0
I0826 17:13:28.296113 28156 net.cpp:408] res3_2_res3_2_0_split -> res3_2_res3_2_0_split_1
I0826 17:13:28.296156 28156 net.cpp:150] Setting up res3_2_res3_2_0_split
I0826 17:13:28.296160 28156 net.cpp:157] Top shape: 16 128 61 61 (7620608)
I0826 17:13:28.296164 28156 net.cpp:157] Top shape: 16 128 61 61 (7620608)
I0826 17:13:28.296185 28156 net.cpp:165] Memory required for data: 1800117184
I0826 17:13:28.296187 28156 layer_factory.hpp:77] Creating layer conv3_3
I0826 17:13:28.296195 28156 net.cpp:100] Creating Layer conv3_3
I0826 17:13:28.296198 28156 net.cpp:434] conv3_3 <- res3_2_res3_2_0_split_0
I0826 17:13:28.296201 28156 net.cpp:408] conv3_3 -> conv3_3
I0826 17:13:28.299167 28156 net.cpp:150] Setting up conv3_3
I0826 17:13:28.299175 28156 net.cpp:157] Top shape: 16 128 61 61 (7620608)
I0826 17:13:28.299180 28156 net.cpp:165] Memory required for data: 1830599616
I0826 17:13:28.299199 28156 layer_factory.hpp:77] Creating layer relu3_3
I0826 17:13:28.299222 28156 net.cpp:100] Creating Layer relu3_3
I0826 17:13:28.299226 28156 net.cpp:434] relu3_3 <- conv3_3
I0826 17:13:28.299229 28156 net.cpp:395] relu3_3 -> conv3_3 (in-place)
I0826 17:13:28.300012 28156 net.cpp:150] Setting up relu3_3
I0826 17:13:28.300019 28156 net.cpp:157] Top shape: 16 128 61 61 (7620608)
I0826 17:13:28.300024 28156 net.cpp:165] Memory required for data: 1861082048
I0826 17:13:28.300043 28156 layer_factory.hpp:77] Creating layer conv3_4
I0826 17:13:28.300067 28156 net.cpp:100] Creating Layer conv3_4
I0826 17:13:28.300071 28156 net.cpp:434] conv3_4 <- conv3_3
I0826 17:13:28.300076 28156 net.cpp:408] conv3_4 -> conv3_4
I0826 17:13:28.303189 28156 net.cpp:150] Setting up conv3_4
I0826 17:13:28.303196 28156 net.cpp:157] Top shape: 16 128 61 61 (7620608)
I0826 17:13:28.303200 28156 net.cpp:165] Memory required for data: 1891564480
I0826 17:13:28.303221 28156 layer_factory.hpp:77] Creating layer relu3_4
I0826 17:13:28.303226 28156 net.cpp:100] Creating Layer relu3_4
I0826 17:13:28.303246 28156 net.cpp:434] relu3_4 <- conv3_4
I0826 17:13:28.303249 28156 net.cpp:395] relu3_4 -> conv3_4 (in-place)
I0826 17:13:28.304024 28156 net.cpp:150] Setting up relu3_4
I0826 17:13:28.304033 28156 net.cpp:157] Top shape: 16 128 61 61 (7620608)
I0826 17:13:28.304035 28156 net.cpp:165] Memory required for data: 1922046912
I0826 17:13:28.304054 28156 layer_factory.hpp:77] Creating layer res3_4
I0826 17:13:28.304061 28156 net.cpp:100] Creating Layer res3_4
I0826 17:13:28.304080 28156 net.cpp:434] res3_4 <- res3_2_res3_2_0_split_1
I0826 17:13:28.304083 28156 net.cpp:434] res3_4 <- conv3_4
I0826 17:13:28.304086 28156 net.cpp:408] res3_4 -> res3_4
I0826 17:13:28.304122 28156 net.cpp:150] Setting up res3_4
I0826 17:13:28.304126 28156 net.cpp:157] Top shape: 16 128 61 61 (7620608)
I0826 17:13:28.304129 28156 net.cpp:165] Memory required for data: 1952529344
I0826 17:13:28.304147 28156 layer_factory.hpp:77] Creating layer conv3
I0826 17:13:28.304153 28156 net.cpp:100] Creating Layer conv3
I0826 17:13:28.304157 28156 net.cpp:434] conv3 <- res3_4
I0826 17:13:28.304162 28156 net.cpp:408] conv3 -> conv3
I0826 17:13:28.307652 28156 net.cpp:150] Setting up conv3
I0826 17:13:28.307660 28156 net.cpp:157] Top shape: 16 256 59 59 (14258176)
I0826 17:13:28.307664 28156 net.cpp:165] Memory required for data: 2009562048
I0826 17:13:28.307670 28156 layer_factory.hpp:77] Creating layer relu3
I0826 17:13:28.307694 28156 net.cpp:100] Creating Layer relu3
I0826 17:13:28.307698 28156 net.cpp:434] relu3 <- conv3
I0826 17:13:28.307713 28156 net.cpp:395] relu3 -> conv3 (in-place)
I0826 17:13:28.308852 28156 net.cpp:150] Setting up relu3
I0826 17:13:28.308861 28156 net.cpp:157] Top shape: 16 256 59 59 (14258176)
I0826 17:13:28.308863 28156 net.cpp:165] Memory required for data: 2066594752
I0826 17:13:28.308867 28156 layer_factory.hpp:77] Creating layer pool3
I0826 17:13:28.308889 28156 net.cpp:100] Creating Layer pool3
I0826 17:13:28.308892 28156 net.cpp:434] pool3 <- conv3
I0826 17:13:28.308897 28156 net.cpp:408] pool3 -> pool3
I0826 17:13:28.308974 28156 net.cpp:150] Setting up pool3
I0826 17:13:28.308977 28156 net.cpp:157] Top shape: 16 256 30 30 (3686400)
I0826 17:13:28.308980 28156 net.cpp:165] Memory required for data: 2081340352
I0826 17:13:28.308984 28156 layer_factory.hpp:77] Creating layer pool3_pool3_0_split
I0826 17:13:28.309001 28156 net.cpp:100] Creating Layer pool3_pool3_0_split
I0826 17:13:28.309005 28156 net.cpp:434] pool3_pool3_0_split <- pool3
I0826 17:13:28.309007 28156 net.cpp:408] pool3_pool3_0_split -> pool3_pool3_0_split_0
I0826 17:13:28.309011 28156 net.cpp:408] pool3_pool3_0_split -> pool3_pool3_0_split_1
I0826 17:13:28.309058 28156 net.cpp:150] Setting up pool3_pool3_0_split
I0826 17:13:28.309062 28156 net.cpp:157] Top shape: 16 256 30 30 (3686400)
I0826 17:13:28.309065 28156 net.cpp:157] Top shape: 16 256 30 30 (3686400)
I0826 17:13:28.309068 28156 net.cpp:165] Memory required for data: 2110831552
I0826 17:13:28.309070 28156 layer_factory.hpp:77] Creating layer conv4_1
I0826 17:13:28.309090 28156 net.cpp:100] Creating Layer conv4_1
I0826 17:13:28.309094 28156 net.cpp:434] conv4_1 <- pool3_pool3_0_split_0
I0826 17:13:28.309114 28156 net.cpp:408] conv4_1 -> conv4_1
I0826 17:13:28.314852 28156 net.cpp:150] Setting up conv4_1
I0826 17:13:28.314862 28156 net.cpp:157] Top shape: 16 256 30 30 (3686400)
I0826 17:13:28.314865 28156 net.cpp:165] Memory required for data: 2125577152
I0826 17:13:28.314888 28156 layer_factory.hpp:77] Creating layer relu4_1
I0826 17:13:28.314894 28156 net.cpp:100] Creating Layer relu4_1
I0826 17:13:28.314898 28156 net.cpp:434] relu4_1 <- conv4_1
I0826 17:13:28.314903 28156 net.cpp:395] relu4_1 -> conv4_1 (in-place)
I0826 17:13:28.315546 28156 net.cpp:150] Setting up relu4_1
I0826 17:13:28.315552 28156 net.cpp:157] Top shape: 16 256 30 30 (3686400)
I0826 17:13:28.315557 28156 net.cpp:165] Memory required for data: 2140322752
I0826 17:13:28.315579 28156 layer_factory.hpp:77] Creating layer conv4_2
I0826 17:13:28.315587 28156 net.cpp:100] Creating Layer conv4_2
I0826 17:13:28.315591 28156 net.cpp:434] conv4_2 <- conv4_1
I0826 17:13:28.315595 28156 net.cpp:408] conv4_2 -> conv4_2
I0826 17:13:28.321220 28156 net.cpp:150] Setting up conv4_2
I0826 17:13:28.321229 28156 net.cpp:157] Top shape: 16 256 30 30 (3686400)
I0826 17:13:28.321233 28156 net.cpp:165] Memory required for data: 2155068352
I0826 17:13:28.321259 28156 layer_factory.hpp:77] Creating layer relu4_2
I0826 17:13:28.321264 28156 net.cpp:100] Creating Layer relu4_2
I0826 17:13:28.321266 28156 net.cpp:434] relu4_2 <- conv4_2
I0826 17:13:28.321270 28156 net.cpp:395] relu4_2 -> conv4_2 (in-place)
I0826 17:13:28.321451 28156 net.cpp:150] Setting up relu4_2
I0826 17:13:28.321455 28156 net.cpp:157] Top shape: 16 256 30 30 (3686400)
I0826 17:13:28.321458 28156 net.cpp:165] Memory required for data: 2169813952
I0826 17:13:28.321461 28156 layer_factory.hpp:77] Creating layer res4_2
I0826 17:13:28.321481 28156 net.cpp:100] Creating Layer res4_2
I0826 17:13:28.321485 28156 net.cpp:434] res4_2 <- pool3_pool3_0_split_1
I0826 17:13:28.321487 28156 net.cpp:434] res4_2 <- conv4_2
I0826 17:13:28.321491 28156 net.cpp:408] res4_2 -> res4_2
I0826 17:13:28.321513 28156 net.cpp:150] Setting up res4_2
I0826 17:13:28.321517 28156 net.cpp:157] Top shape: 16 256 30 30 (3686400)
I0826 17:13:28.321521 28156 net.cpp:165] Memory required for data: 2184559552
I0826 17:13:28.321522 28156 layer_factory.hpp:77] Creating layer res4_2_res4_2_0_split
I0826 17:13:28.321527 28156 net.cpp:100] Creating Layer res4_2_res4_2_0_split
I0826 17:13:28.321529 28156 net.cpp:434] res4_2_res4_2_0_split <- res4_2
I0826 17:13:28.321532 28156 net.cpp:408] res4_2_res4_2_0_split -> res4_2_res4_2_0_split_0
I0826 17:13:28.321537 28156 net.cpp:408] res4_2_res4_2_0_split -> res4_2_res4_2_0_split_1
I0826 17:13:28.321570 28156 net.cpp:150] Setting up res4_2_res4_2_0_split
I0826 17:13:28.321574 28156 net.cpp:157] Top shape: 16 256 30 30 (3686400)
I0826 17:13:28.321578 28156 net.cpp:157] Top shape: 16 256 30 30 (3686400)
I0826 17:13:28.321580 28156 net.cpp:165] Memory required for data: 2214050752
I0826 17:13:28.321594 28156 layer_factory.hpp:77] Creating layer conv4_3
I0826 17:13:28.321600 28156 net.cpp:100] Creating Layer conv4_3
I0826 17:13:28.321604 28156 net.cpp:434] conv4_3 <- res4_2_res4_2_0_split_0
I0826 17:13:28.321607 28156 net.cpp:408] conv4_3 -> conv4_3
I0826 17:13:28.328388 28156 net.cpp:150] Setting up conv4_3
I0826 17:13:28.328400 28156 net.cpp:157] Top shape: 16 256 30 30 (3686400)
I0826 17:13:28.328405 28156 net.cpp:165] Memory required for data: 2228796352
I0826 17:13:28.328429 28156 layer_factory.hpp:77] Creating layer relu4_3
I0826 17:13:28.328436 28156 net.cpp:100] Creating Layer relu4_3
I0826 17:13:28.328439 28156 net.cpp:434] relu4_3 <- conv4_3
I0826 17:13:28.328444 28156 net.cpp:395] relu4_3 -> conv4_3 (in-place)
I0826 17:13:28.329087 28156 net.cpp:150] Setting up relu4_3
I0826 17:13:28.329094 28156 net.cpp:157] Top shape: 16 256 30 30 (3686400)
I0826 17:13:28.329098 28156 net.cpp:165] Memory required for data: 2243541952
I0826 17:13:28.329118 28156 layer_factory.hpp:77] Creating layer conv4_4
I0826 17:13:28.329128 28156 net.cpp:100] Creating Layer conv4_4
I0826 17:13:28.329130 28156 net.cpp:434] conv4_4 <- conv4_3
I0826 17:13:28.329134 28156 net.cpp:408] conv4_4 -> conv4_4
I0826 17:13:28.335105 28156 net.cpp:150] Setting up conv4_4
I0826 17:13:28.335117 28156 net.cpp:157] Top shape: 16 256 30 30 (3686400)
I0826 17:13:28.335121 28156 net.cpp:165] Memory required for data: 2258287552
I0826 17:13:28.335142 28156 layer_factory.hpp:77] Creating layer relu4_4
I0826 17:13:28.335147 28156 net.cpp:100] Creating Layer relu4_4
I0826 17:13:28.335151 28156 net.cpp:434] relu4_4 <- conv4_4
I0826 17:13:28.335155 28156 net.cpp:395] relu4_4 -> conv4_4 (in-place)
I0826 17:13:28.335415 28156 net.cpp:150] Setting up relu4_4
I0826 17:13:28.335420 28156 net.cpp:157] Top shape: 16 256 30 30 (3686400)
I0826 17:13:28.335423 28156 net.cpp:165] Memory required for data: 2273033152
I0826 17:13:28.335441 28156 layer_factory.hpp:77] Creating layer res4_4
I0826 17:13:28.335446 28156 net.cpp:100] Creating Layer res4_4
I0826 17:13:28.335449 28156 net.cpp:434] res4_4 <- res4_2_res4_2_0_split_1
I0826 17:13:28.335469 28156 net.cpp:434] res4_4 <- conv4_4
I0826 17:13:28.335474 28156 net.cpp:408] res4_4 -> res4_4
I0826 17:13:28.335495 28156 net.cpp:150] Setting up res4_4
I0826 17:13:28.335499 28156 net.cpp:157] Top shape: 16 256 30 30 (3686400)
I0826 17:13:28.335517 28156 net.cpp:165] Memory required for data: 2287778752
I0826 17:13:28.335520 28156 layer_factory.hpp:77] Creating layer res4_4_res4_4_0_split
I0826 17:13:28.335523 28156 net.cpp:100] Creating Layer res4_4_res4_4_0_split
I0826 17:13:28.335539 28156 net.cpp:434] res4_4_res4_4_0_split <- res4_4
I0826 17:13:28.335543 28156 net.cpp:408] res4_4_res4_4_0_split -> res4_4_res4_4_0_split_0
I0826 17:13:28.335564 28156 net.cpp:408] res4_4_res4_4_0_split -> res4_4_res4_4_0_split_1
I0826 17:13:28.335626 28156 net.cpp:150] Setting up res4_4_res4_4_0_split
I0826 17:13:28.335630 28156 net.cpp:157] Top shape: 16 256 30 30 (3686400)
I0826 17:13:28.335633 28156 net.cpp:157] Top shape: 16 256 30 30 (3686400)
I0826 17:13:28.335636 28156 net.cpp:165] Memory required for data: 2317269952
I0826 17:13:28.335638 28156 layer_factory.hpp:77] Creating layer conv4_5
I0826 17:13:28.335645 28156 net.cpp:100] Creating Layer conv4_5
I0826 17:13:28.335661 28156 net.cpp:434] conv4_5 <- res4_4_res4_4_0_split_0
I0826 17:13:28.335664 28156 net.cpp:408] conv4_5 -> conv4_5
I0826 17:13:28.341320 28156 net.cpp:150] Setting up conv4_5
I0826 17:13:28.341331 28156 net.cpp:157] Top shape: 16 256 30 30 (3686400)
I0826 17:13:28.341334 28156 net.cpp:165] Memory required for data: 2332015552
I0826 17:13:28.341339 28156 layer_factory.hpp:77] Creating layer relu4_5
I0826 17:13:28.341344 28156 net.cpp:100] Creating Layer relu4_5
I0826 17:13:28.341348 28156 net.cpp:434] relu4_5 <- conv4_5
I0826 17:13:28.341352 28156 net.cpp:395] relu4_5 -> conv4_5 (in-place)
I0826 17:13:28.341990 28156 net.cpp:150] Setting up relu4_5
I0826 17:13:28.341998 28156 net.cpp:157] Top shape: 16 256 30 30 (3686400)
I0826 17:13:28.342002 28156 net.cpp:165] Memory required for data: 2346761152
I0826 17:13:28.342017 28156 layer_factory.hpp:77] Creating layer conv4_6
I0826 17:13:28.342026 28156 net.cpp:100] Creating Layer conv4_6
I0826 17:13:28.342031 28156 net.cpp:434] conv4_6 <- conv4_5
I0826 17:13:28.342034 28156 net.cpp:408] conv4_6 -> conv4_6
I0826 17:13:28.347790 28156 net.cpp:150] Setting up conv4_6
I0826 17:13:28.347800 28156 net.cpp:157] Top shape: 16 256 30 30 (3686400)
I0826 17:13:28.347805 28156 net.cpp:165] Memory required for data: 2361506752
I0826 17:13:28.347810 28156 layer_factory.hpp:77] Creating layer relu4_6
I0826 17:13:28.347815 28156 net.cpp:100] Creating Layer relu4_6
I0826 17:13:28.347818 28156 net.cpp:434] relu4_6 <- conv4_6
I0826 17:13:28.347822 28156 net.cpp:395] relu4_6 -> conv4_6 (in-place)
I0826 17:13:28.347996 28156 net.cpp:150] Setting up relu4_6
I0826 17:13:28.348001 28156 net.cpp:157] Top shape: 16 256 30 30 (3686400)
I0826 17:13:28.348004 28156 net.cpp:165] Memory required for data: 2376252352
I0826 17:13:28.348007 28156 layer_factory.hpp:77] Creating layer res4_6
I0826 17:13:28.348012 28156 net.cpp:100] Creating Layer res4_6
I0826 17:13:28.348016 28156 net.cpp:434] res4_6 <- res4_4_res4_4_0_split_1
I0826 17:13:28.348018 28156 net.cpp:434] res4_6 <- conv4_6
I0826 17:13:28.348022 28156 net.cpp:408] res4_6 -> res4_6
I0826 17:13:28.348044 28156 net.cpp:150] Setting up res4_6
I0826 17:13:28.348048 28156 net.cpp:157] Top shape: 16 256 30 30 (3686400)
I0826 17:13:28.348052 28156 net.cpp:165] Memory required for data: 2390997952
I0826 17:13:28.348054 28156 layer_factory.hpp:77] Creating layer res4_6_res4_6_0_split
I0826 17:13:28.348058 28156 net.cpp:100] Creating Layer res4_6_res4_6_0_split
I0826 17:13:28.348060 28156 net.cpp:434] res4_6_res4_6_0_split <- res4_6
I0826 17:13:28.348064 28156 net.cpp:408] res4_6_res4_6_0_split -> res4_6_res4_6_0_split_0
I0826 17:13:28.348068 28156 net.cpp:408] res4_6_res4_6_0_split -> res4_6_res4_6_0_split_1
I0826 17:13:28.348103 28156 net.cpp:150] Setting up res4_6_res4_6_0_split
I0826 17:13:28.348106 28156 net.cpp:157] Top shape: 16 256 30 30 (3686400)
I0826 17:13:28.348109 28156 net.cpp:157] Top shape: 16 256 30 30 (3686400)
I0826 17:13:28.348112 28156 net.cpp:165] Memory required for data: 2420489152
I0826 17:13:28.348114 28156 layer_factory.hpp:77] Creating layer conv4_7
I0826 17:13:28.348121 28156 net.cpp:100] Creating Layer conv4_7
I0826 17:13:28.348124 28156 net.cpp:434] conv4_7 <- res4_6_res4_6_0_split_0
I0826 17:13:28.348129 28156 net.cpp:408] conv4_7 -> conv4_7
I0826 17:13:28.354853 28156 net.cpp:150] Setting up conv4_7
I0826 17:13:28.354866 28156 net.cpp:157] Top shape: 16 256 30 30 (3686400)
I0826 17:13:28.354871 28156 net.cpp:165] Memory required for data: 2435234752
I0826 17:13:28.354876 28156 layer_factory.hpp:77] Creating layer relu4_7
I0826 17:13:28.354882 28156 net.cpp:100] Creating Layer relu4_7
I0826 17:13:28.354887 28156 net.cpp:434] relu4_7 <- conv4_7
I0826 17:13:28.354890 28156 net.cpp:395] relu4_7 -> conv4_7 (in-place)
I0826 17:13:28.355540 28156 net.cpp:150] Setting up relu4_7
I0826 17:13:28.355546 28156 net.cpp:157] Top shape: 16 256 30 30 (3686400)
I0826 17:13:28.355551 28156 net.cpp:165] Memory required for data: 2449980352
I0826 17:13:28.355554 28156 layer_factory.hpp:77] Creating layer conv4_8
I0826 17:13:28.355561 28156 net.cpp:100] Creating Layer conv4_8
I0826 17:13:28.355566 28156 net.cpp:434] conv4_8 <- conv4_7
I0826 17:13:28.355569 28156 net.cpp:408] conv4_8 -> conv4_8
I0826 17:13:28.361392 28156 net.cpp:150] Setting up conv4_8
I0826 17:13:28.361402 28156 net.cpp:157] Top shape: 16 256 30 30 (3686400)
I0826 17:13:28.361407 28156 net.cpp:165] Memory required for data: 2464725952
I0826 17:13:28.361413 28156 layer_factory.hpp:77] Creating layer relu4_8
I0826 17:13:28.361418 28156 net.cpp:100] Creating Layer relu4_8
I0826 17:13:28.361423 28156 net.cpp:434] relu4_8 <- conv4_8
I0826 17:13:28.361426 28156 net.cpp:395] relu4_8 -> conv4_8 (in-place)
I0826 17:13:28.361601 28156 net.cpp:150] Setting up relu4_8
I0826 17:13:28.361605 28156 net.cpp:157] Top shape: 16 256 30 30 (3686400)
I0826 17:13:28.361621 28156 net.cpp:165] Memory required for data: 2479471552
I0826 17:13:28.361625 28156 layer_factory.hpp:77] Creating layer res4_8
I0826 17:13:28.361631 28156 net.cpp:100] Creating Layer res4_8
I0826 17:13:28.361634 28156 net.cpp:434] res4_8 <- res4_6_res4_6_0_split_1
I0826 17:13:28.361639 28156 net.cpp:434] res4_8 <- conv4_8
I0826 17:13:28.361641 28156 net.cpp:408] res4_8 -> res4_8
I0826 17:13:28.361663 28156 net.cpp:150] Setting up res4_8
I0826 17:13:28.361666 28156 net.cpp:157] Top shape: 16 256 30 30 (3686400)
I0826 17:13:28.361670 28156 net.cpp:165] Memory required for data: 2494217152
I0826 17:13:28.361672 28156 layer_factory.hpp:77] Creating layer res4_8_res4_8_0_split
I0826 17:13:28.361678 28156 net.cpp:100] Creating Layer res4_8_res4_8_0_split
I0826 17:13:28.361680 28156 net.cpp:434] res4_8_res4_8_0_split <- res4_8
I0826 17:13:28.361685 28156 net.cpp:408] res4_8_res4_8_0_split -> res4_8_res4_8_0_split_0
I0826 17:13:28.361690 28156 net.cpp:408] res4_8_res4_8_0_split -> res4_8_res4_8_0_split_1
I0826 17:13:28.361722 28156 net.cpp:150] Setting up res4_8_res4_8_0_split
I0826 17:13:28.361726 28156 net.cpp:157] Top shape: 16 256 30 30 (3686400)
I0826 17:13:28.361729 28156 net.cpp:157] Top shape: 16 256 30 30 (3686400)
I0826 17:13:28.361732 28156 net.cpp:165] Memory required for data: 2523708352
I0826 17:13:28.361734 28156 layer_factory.hpp:77] Creating layer conv4_9
I0826 17:13:28.361740 28156 net.cpp:100] Creating Layer conv4_9
I0826 17:13:28.361743 28156 net.cpp:434] conv4_9 <- res4_8_res4_8_0_split_0
I0826 17:13:28.361747 28156 net.cpp:408] conv4_9 -> conv4_9
I0826 17:13:28.367692 28156 net.cpp:150] Setting up conv4_9
I0826 17:13:28.367702 28156 net.cpp:157] Top shape: 16 256 30 30 (3686400)
I0826 17:13:28.367707 28156 net.cpp:165] Memory required for data: 2538453952
I0826 17:13:28.367713 28156 layer_factory.hpp:77] Creating layer relu4_9
I0826 17:13:28.367719 28156 net.cpp:100] Creating Layer relu4_9
I0826 17:13:28.367723 28156 net.cpp:434] relu4_9 <- conv4_9
I0826 17:13:28.367727 28156 net.cpp:395] relu4_9 -> conv4_9 (in-place)
I0826 17:13:28.368378 28156 net.cpp:150] Setting up relu4_9
I0826 17:13:28.368386 28156 net.cpp:157] Top shape: 16 256 30 30 (3686400)
I0826 17:13:28.368391 28156 net.cpp:165] Memory required for data: 2553199552
I0826 17:13:28.368394 28156 layer_factory.hpp:77] Creating layer conv4_10
I0826 17:13:28.368403 28156 net.cpp:100] Creating Layer conv4_10
I0826 17:13:28.368407 28156 net.cpp:434] conv4_10 <- conv4_9
I0826 17:13:28.368412 28156 net.cpp:408] conv4_10 -> conv4_10
I0826 17:13:28.375157 28156 net.cpp:150] Setting up conv4_10
I0826 17:13:28.375169 28156 net.cpp:157] Top shape: 16 256 30 30 (3686400)
I0826 17:13:28.375174 28156 net.cpp:165] Memory required for data: 2567945152
I0826 17:13:28.375180 28156 layer_factory.hpp:77] Creating layer relu4_10
I0826 17:13:28.375187 28156 net.cpp:100] Creating Layer relu4_10
I0826 17:13:28.375191 28156 net.cpp:434] relu4_10 <- conv4_10
I0826 17:13:28.375195 28156 net.cpp:395] relu4_10 -> conv4_10 (in-place)
I0826 17:13:28.375381 28156 net.cpp:150] Setting up relu4_10
I0826 17:13:28.375385 28156 net.cpp:157] Top shape: 16 256 30 30 (3686400)
I0826 17:13:28.375388 28156 net.cpp:165] Memory required for data: 2582690752
I0826 17:13:28.375392 28156 layer_factory.hpp:77] Creating layer res4_10
I0826 17:13:28.375396 28156 net.cpp:100] Creating Layer res4_10
I0826 17:13:28.375401 28156 net.cpp:434] res4_10 <- res4_8_res4_8_0_split_1
I0826 17:13:28.375403 28156 net.cpp:434] res4_10 <- conv4_10
I0826 17:13:28.375407 28156 net.cpp:408] res4_10 -> res4_10
I0826 17:13:28.375432 28156 net.cpp:150] Setting up res4_10
I0826 17:13:28.375434 28156 net.cpp:157] Top shape: 16 256 30 30 (3686400)
I0826 17:13:28.375437 28156 net.cpp:165] Memory required for data: 2597436352
I0826 17:13:28.375440 28156 layer_factory.hpp:77] Creating layer conv4
I0826 17:13:28.375447 28156 net.cpp:100] Creating Layer conv4
I0826 17:13:28.375449 28156 net.cpp:434] conv4 <- res4_10
I0826 17:13:28.375453 28156 net.cpp:408] conv4 -> conv4
I0826 17:13:28.382189 28156 net.cpp:150] Setting up conv4
I0826 17:13:28.382215 28156 net.cpp:157] Top shape: 16 512 28 28 (6422528)
I0826 17:13:28.382220 28156 net.cpp:165] Memory required for data: 2623126464
I0826 17:13:28.382225 28156 layer_factory.hpp:77] Creating layer relu4
I0826 17:13:28.382232 28156 net.cpp:100] Creating Layer relu4
I0826 17:13:28.382236 28156 net.cpp:434] relu4 <- conv4
I0826 17:13:28.382241 28156 net.cpp:395] relu4 -> conv4 (in-place)
I0826 17:13:28.382972 28156 net.cpp:150] Setting up relu4
I0826 17:13:28.382979 28156 net.cpp:157] Top shape: 16 512 28 28 (6422528)
I0826 17:13:28.382983 28156 net.cpp:165] Memory required for data: 2648816576
I0826 17:13:28.382987 28156 layer_factory.hpp:77] Creating layer pool4
I0826 17:13:28.382994 28156 net.cpp:100] Creating Layer pool4
I0826 17:13:28.382998 28156 net.cpp:434] pool4 <- conv4
I0826 17:13:28.383002 28156 net.cpp:408] pool4 -> pool4
I0826 17:13:28.383044 28156 net.cpp:150] Setting up pool4
I0826 17:13:28.383047 28156 net.cpp:157] Top shape: 16 512 14 14 (1605632)
I0826 17:13:28.383050 28156 net.cpp:165] Memory required for data: 2655239104
I0826 17:13:28.383052 28156 layer_factory.hpp:77] Creating layer pool4_pool4_0_split
I0826 17:13:28.383060 28156 net.cpp:100] Creating Layer pool4_pool4_0_split
I0826 17:13:28.383064 28156 net.cpp:434] pool4_pool4_0_split <- pool4
I0826 17:13:28.383067 28156 net.cpp:408] pool4_pool4_0_split -> pool4_pool4_0_split_0
I0826 17:13:28.383072 28156 net.cpp:408] pool4_pool4_0_split -> pool4_pool4_0_split_1
I0826 17:13:28.383107 28156 net.cpp:150] Setting up pool4_pool4_0_split
I0826 17:13:28.383111 28156 net.cpp:157] Top shape: 16 512 14 14 (1605632)
I0826 17:13:28.383114 28156 net.cpp:157] Top shape: 16 512 14 14 (1605632)
I0826 17:13:28.383117 28156 net.cpp:165] Memory required for data: 2668084160
I0826 17:13:28.383119 28156 layer_factory.hpp:77] Creating layer conv5_1
I0826 17:13:28.383126 28156 net.cpp:100] Creating Layer conv5_1
I0826 17:13:28.383129 28156 net.cpp:434] conv5_1 <- pool4_pool4_0_split_0
I0826 17:13:28.383133 28156 net.cpp:408] conv5_1 -> conv5_1
I0826 17:13:28.400553 28156 net.cpp:150] Setting up conv5_1
I0826 17:13:28.400570 28156 net.cpp:157] Top shape: 16 512 14 14 (1605632)
I0826 17:13:28.400575 28156 net.cpp:165] Memory required for data: 2674506688
I0826 17:13:28.400588 28156 layer_factory.hpp:77] Creating layer relu5_1
I0826 17:13:28.400594 28156 net.cpp:100] Creating Layer relu5_1
I0826 17:13:28.400599 28156 net.cpp:434] relu5_1 <- conv5_1
I0826 17:13:28.400604 28156 net.cpp:395] relu5_1 -> conv5_1 (in-place)
I0826 17:13:28.400748 28156 net.cpp:150] Setting up relu5_1
I0826 17:13:28.400753 28156 net.cpp:157] Top shape: 16 512 14 14 (1605632)
I0826 17:13:28.400756 28156 net.cpp:165] Memory required for data: 2680929216
I0826 17:13:28.400760 28156 layer_factory.hpp:77] Creating layer conv5_2
I0826 17:13:28.400770 28156 net.cpp:100] Creating Layer conv5_2
I0826 17:13:28.400774 28156 net.cpp:434] conv5_2 <- conv5_1
I0826 17:13:28.400777 28156 net.cpp:408] conv5_2 -> conv5_2
I0826 17:13:28.418835 28156 net.cpp:150] Setting up conv5_2
I0826 17:13:28.418850 28156 net.cpp:157] Top shape: 16 512 14 14 (1605632)
I0826 17:13:28.418856 28156 net.cpp:165] Memory required for data: 2687351744
I0826 17:13:28.418864 28156 layer_factory.hpp:77] Creating layer relu5_2
I0826 17:13:28.418871 28156 net.cpp:100] Creating Layer relu5_2
I0826 17:13:28.418876 28156 net.cpp:434] relu5_2 <- conv5_2
I0826 17:13:28.418881 28156 net.cpp:395] relu5_2 -> conv5_2 (in-place)
I0826 17:13:28.419523 28156 net.cpp:150] Setting up relu5_2
I0826 17:13:28.419529 28156 net.cpp:157] Top shape: 16 512 14 14 (1605632)
I0826 17:13:28.419534 28156 net.cpp:165] Memory required for data: 2693774272
I0826 17:13:28.419538 28156 layer_factory.hpp:77] Creating layer res5_2
I0826 17:13:28.419545 28156 net.cpp:100] Creating Layer res5_2
I0826 17:13:28.419549 28156 net.cpp:434] res5_2 <- pool4_pool4_0_split_1
I0826 17:13:28.419553 28156 net.cpp:434] res5_2 <- conv5_2
I0826 17:13:28.419558 28156 net.cpp:408] res5_2 -> res5_2
I0826 17:13:28.419584 28156 net.cpp:150] Setting up res5_2
I0826 17:13:28.419602 28156 net.cpp:157] Top shape: 16 512 14 14 (1605632)
I0826 17:13:28.419606 28156 net.cpp:165] Memory required for data: 2700196800
I0826 17:13:28.419608 28156 layer_factory.hpp:77] Creating layer res5_2_res5_2_0_split
I0826 17:13:28.419613 28156 net.cpp:100] Creating Layer res5_2_res5_2_0_split
I0826 17:13:28.419616 28156 net.cpp:434] res5_2_res5_2_0_split <- res5_2
I0826 17:13:28.419621 28156 net.cpp:408] res5_2_res5_2_0_split -> res5_2_res5_2_0_split_0
I0826 17:13:28.419626 28156 net.cpp:408] res5_2_res5_2_0_split -> res5_2_res5_2_0_split_1
I0826 17:13:28.419662 28156 net.cpp:150] Setting up res5_2_res5_2_0_split
I0826 17:13:28.419667 28156 net.cpp:157] Top shape: 16 512 14 14 (1605632)
I0826 17:13:28.419669 28156 net.cpp:157] Top shape: 16 512 14 14 (1605632)
I0826 17:13:28.419672 28156 net.cpp:165] Memory required for data: 2713041856
I0826 17:13:28.419674 28156 layer_factory.hpp:77] Creating layer conv5_3
I0826 17:13:28.419682 28156 net.cpp:100] Creating Layer conv5_3
I0826 17:13:28.419685 28156 net.cpp:434] conv5_3 <- res5_2_res5_2_0_split_0
I0826 17:13:28.419689 28156 net.cpp:408] conv5_3 -> conv5_3
I0826 17:13:28.436872 28156 net.cpp:150] Setting up conv5_3
I0826 17:13:28.436889 28156 net.cpp:157] Top shape: 16 512 14 14 (1605632)
I0826 17:13:28.436895 28156 net.cpp:165] Memory required for data: 2719464384
I0826 17:13:28.436903 28156 layer_factory.hpp:77] Creating layer relu5_3
I0826 17:13:28.436910 28156 net.cpp:100] Creating Layer relu5_3
I0826 17:13:28.436914 28156 net.cpp:434] relu5_3 <- conv5_3
I0826 17:13:28.436919 28156 net.cpp:395] relu5_3 -> conv5_3 (in-place)
I0826 17:13:28.437063 28156 net.cpp:150] Setting up relu5_3
I0826 17:13:28.437068 28156 net.cpp:157] Top shape: 16 512 14 14 (1605632)
I0826 17:13:28.437072 28156 net.cpp:165] Memory required for data: 2725886912
I0826 17:13:28.437075 28156 layer_factory.hpp:77] Creating layer conv5_4
I0826 17:13:28.437083 28156 net.cpp:100] Creating Layer conv5_4
I0826 17:13:28.437086 28156 net.cpp:434] conv5_4 <- conv5_3
I0826 17:13:28.437090 28156 net.cpp:408] conv5_4 -> conv5_4
I0826 17:13:28.454283 28156 net.cpp:150] Setting up conv5_4
I0826 17:13:28.454299 28156 net.cpp:157] Top shape: 16 512 14 14 (1605632)
I0826 17:13:28.454305 28156 net.cpp:165] Memory required for data: 2732309440
I0826 17:13:28.454313 28156 layer_factory.hpp:77] Creating layer relu5_4
I0826 17:13:28.454320 28156 net.cpp:100] Creating Layer relu5_4
I0826 17:13:28.454325 28156 net.cpp:434] relu5_4 <- conv5_4
I0826 17:13:28.454330 28156 net.cpp:395] relu5_4 -> conv5_4 (in-place)
I0826 17:13:28.454476 28156 net.cpp:150] Setting up relu5_4
I0826 17:13:28.454481 28156 net.cpp:157] Top shape: 16 512 14 14 (1605632)
I0826 17:13:28.454485 28156 net.cpp:165] Memory required for data: 2738731968
I0826 17:13:28.454488 28156 layer_factory.hpp:77] Creating layer res5_4
I0826 17:13:28.454495 28156 net.cpp:100] Creating Layer res5_4
I0826 17:13:28.454499 28156 net.cpp:434] res5_4 <- res5_2_res5_2_0_split_1
I0826 17:13:28.454502 28156 net.cpp:434] res5_4 <- conv5_4
I0826 17:13:28.454505 28156 net.cpp:408] res5_4 -> res5_4
I0826 17:13:28.454529 28156 net.cpp:150] Setting up res5_4
I0826 17:13:28.454532 28156 net.cpp:157] Top shape: 16 512 14 14 (1605632)
I0826 17:13:28.454535 28156 net.cpp:165] Memory required for data: 2745154496
I0826 17:13:28.454537 28156 layer_factory.hpp:77] Creating layer res5_4_res5_4_0_split
I0826 17:13:28.454542 28156 net.cpp:100] Creating Layer res5_4_res5_4_0_split
I0826 17:13:28.454545 28156 net.cpp:434] res5_4_res5_4_0_split <- res5_4
I0826 17:13:28.454550 28156 net.cpp:408] res5_4_res5_4_0_split -> res5_4_res5_4_0_split_0
I0826 17:13:28.454553 28156 net.cpp:408] res5_4_res5_4_0_split -> res5_4_res5_4_0_split_1
I0826 17:13:28.454591 28156 net.cpp:150] Setting up res5_4_res5_4_0_split
I0826 17:13:28.454596 28156 net.cpp:157] Top shape: 16 512 14 14 (1605632)
I0826 17:13:28.454598 28156 net.cpp:157] Top shape: 16 512 14 14 (1605632)
I0826 17:13:28.454602 28156 net.cpp:165] Memory required for data: 2757999552
I0826 17:13:28.454603 28156 layer_factory.hpp:77] Creating layer conv5_5
I0826 17:13:28.454625 28156 net.cpp:100] Creating Layer conv5_5
I0826 17:13:28.454629 28156 net.cpp:434] conv5_5 <- res5_4_res5_4_0_split_0
I0826 17:13:28.454633 28156 net.cpp:408] conv5_5 -> conv5_5
I0826 17:13:28.471805 28156 net.cpp:150] Setting up conv5_5
I0826 17:13:28.471823 28156 net.cpp:157] Top shape: 16 512 14 14 (1605632)
I0826 17:13:28.471828 28156 net.cpp:165] Memory required for data: 2764422080
I0826 17:13:28.471837 28156 layer_factory.hpp:77] Creating layer relu5_5
I0826 17:13:28.471843 28156 net.cpp:100] Creating Layer relu5_5
I0826 17:13:28.471848 28156 net.cpp:434] relu5_5 <- conv5_5
I0826 17:13:28.471853 28156 net.cpp:395] relu5_5 -> conv5_5 (in-place)
I0826 17:13:28.471997 28156 net.cpp:150] Setting up relu5_5
I0826 17:13:28.472002 28156 net.cpp:157] Top shape: 16 512 14 14 (1605632)
I0826 17:13:28.472007 28156 net.cpp:165] Memory required for data: 2770844608
I0826 17:13:28.472009 28156 layer_factory.hpp:77] Creating layer conv5_6
I0826 17:13:28.472018 28156 net.cpp:100] Creating Layer conv5_6
I0826 17:13:28.472023 28156 net.cpp:434] conv5_6 <- conv5_5
I0826 17:13:28.472025 28156 net.cpp:408] conv5_6 -> conv5_6
I0826 17:13:28.490330 28156 net.cpp:150] Setting up conv5_6
I0826 17:13:28.490346 28156 net.cpp:157] Top shape: 16 512 14 14 (1605632)
I0826 17:13:28.490352 28156 net.cpp:165] Memory required for data: 2777267136
I0826 17:13:28.490360 28156 layer_factory.hpp:77] Creating layer relu5_6
I0826 17:13:28.490366 28156 net.cpp:100] Creating Layer relu5_6
I0826 17:13:28.490371 28156 net.cpp:434] relu5_6 <- conv5_6
I0826 17:13:28.490376 28156 net.cpp:395] relu5_6 -> conv5_6 (in-place)
I0826 17:13:28.490525 28156 net.cpp:150] Setting up relu5_6
I0826 17:13:28.490530 28156 net.cpp:157] Top shape: 16 512 14 14 (1605632)
I0826 17:13:28.490533 28156 net.cpp:165] Memory required for data: 2783689664
I0826 17:13:28.490536 28156 layer_factory.hpp:77] Creating layer res5_6
I0826 17:13:28.490542 28156 net.cpp:100] Creating Layer res5_6
I0826 17:13:28.490546 28156 net.cpp:434] res5_6 <- res5_4_res5_4_0_split_1
I0826 17:13:28.490550 28156 net.cpp:434] res5_6 <- conv5_6
I0826 17:13:28.490553 28156 net.cpp:408] res5_6 -> res5_6
I0826 17:13:28.490577 28156 net.cpp:150] Setting up res5_6
I0826 17:13:28.490581 28156 net.cpp:157] Top shape: 16 512 14 14 (1605632)
I0826 17:13:28.490584 28156 net.cpp:165] Memory required for data: 2790112192
I0826 17:13:28.490586 28156 layer_factory.hpp:77] Creating layer fc_5
I0826 17:13:28.490592 28156 net.cpp:100] Creating Layer fc_5
I0826 17:13:28.490594 28156 net.cpp:434] fc_5 <- res5_6
I0826 17:13:28.490598 28156 net.cpp:408] fc_5 -> fc_5
I0826 17:13:28.694432 28156 net.cpp:150] Setting up fc_5
I0826 17:13:28.694449 28156 net.cpp:157] Top shape: 16 512 (8192)
I0826 17:13:28.694454 28156 net.cpp:165] Memory required for data: 2790144960
I0826 17:13:28.694463 28156 layer_factory.hpp:77] Creating layer fc_5_fc_5_0_split
I0826 17:13:28.694487 28156 net.cpp:100] Creating Layer fc_5_fc_5_0_split
I0826 17:13:28.694491 28156 net.cpp:434] fc_5_fc_5_0_split <- fc_5
I0826 17:13:28.694497 28156 net.cpp:408] fc_5_fc_5_0_split -> fc_5_fc_5_0_split_0
I0826 17:13:28.694504 28156 net.cpp:408] fc_5_fc_5_0_split -> fc_5_fc_5_0_split_1
I0826 17:13:28.694550 28156 net.cpp:150] Setting up fc_5_fc_5_0_split
I0826 17:13:28.694555 28156 net.cpp:157] Top shape: 16 512 (8192)
I0826 17:13:28.694557 28156 net.cpp:157] Top shape: 16 512 (8192)
I0826 17:13:28.694559 28156 net.cpp:165] Memory required for data: 2790210496
I0826 17:13:28.694576 28156 layer_factory.hpp:77] Creating layer fc_6
I0826 17:13:28.694581 28156 net.cpp:100] Creating Layer fc_6
I0826 17:13:28.694598 28156 net.cpp:434] fc_6 <- fc_5_fc_5_0_split_0
I0826 17:13:28.694602 28156 net.cpp:408] fc_6 -> fc_6
I0826 17:13:28.715838 28156 net.cpp:150] Setting up fc_6
I0826 17:13:28.715857 28156 net.cpp:157] Top shape: 16 10177 (162832)
I0826 17:13:28.715862 28156 net.cpp:165] Memory required for data: 2790861824
I0826 17:13:28.715886 28156 layer_factory.hpp:77] Creating layer softmax_loss
I0826 17:13:28.715909 28156 net.cpp:100] Creating Layer softmax_loss
I0826 17:13:28.715929 28156 net.cpp:434] softmax_loss <- fc_6
I0826 17:13:28.715947 28156 net.cpp:434] softmax_loss <- label_data_1_split_0
I0826 17:13:28.715951 28156 net.cpp:408] softmax_loss -> softmax_loss
…
