…
      sampler {
        min_scale: 0.3
        max_scale: 1
        min_aspect_ratio: 0.5
        max_aspect_ratio: 2
      }
      sample_constraint {
        min_jaccard_overlap: 0.9
      }
      max_sample: 1
      max_trials: 50
    }
    batch_sampler {
      sampler {
        min_scale: 0.3
        max_scale: 1
        min_aspect_ratio: 0.5
        max_aspect_ratio: 2
      }
      sample_constraint {
        max_jaccard_overlap: 1
      }
      max_sample: 1
      max_trials: 50
    }
    label_map_file: "data/car352x288/labelmap_voc.prototxt"
  }
}
layer {
  name: "conv1_1"
  type: "Convolution"
  bottom: "data"
  top: "conv1_1"
  param {
    lr_mult: 1
    decay_mult: 1
  }
  param {
    lr_mult: 2
    decay_mult: 0
  }
  convolution_param {
    num_output: 64
    pad: 1
    kernel_size: 3
    weight_filler {
      type: "xavier"
    }
    bias_filler {
      type: "constant"
      value: 0
    }
  }
}
layer {
  name: "relu1_1"
  type: "ReLU"
  bottom: "conv1_1"
  top: "conv1_1"
}
layer {
  name: "conv1_2"
  type: "Convolution"
  bottom: "conv1_1"
  top: "conv1_2"
  param {
    lr_mult: 1
    decay_mult: 1
  }
  param {
    lr_mult: 2
    decay_mult: 0
  }
  convolution_param {
    num_output: 64
    pad: 1
    kernel_size: 3
    weight_filler {
      type: "xavier"
    }
    bias_filler {
      type: "constant"
      value: 0
    }
  }
}
layer {
  name: "relu1_2"
  type: "ReLU"
  bottom: "conv1_2"
  top: "conv1_2"
}
layer {
  name: "pool1"
  type: "Pooling"
  bottom: "conv1_2"
  top: "pool1"
  pooling_param {
    pool: MAX
    kernel_size: 2
    stride: 2
  }
}
layer {
  name: "conv2_1"
  type: "Convolution"
  bottom: "pool1"
  top: "conv2_1"
  param {
    lr_mult: 1
    decay_mult: 1
  }
  param {
    lr_mult: 2
    decay_mult: 0
  }
  convolution_param {
    num_output: 128
    pad: 1
    kernel_size: 3
    weight_filler {
      type: "xavier"
    }
    bias_filler {
      type: "constant"
      value: 0
    }
  }
}
layer {
  name: "relu2_1"
  type: "ReLU"
  bottom: "conv2_1"
  top: "conv2_1"
}
layer {
  name: "conv2_2"
  type: "Convolution"
  bottom: "conv2_1"
  top: "conv2_2"
  param {
    lr_mult: 1
    decay_mult: 1
  }
  param {
    lr_mult: 2
    decay_mult: 0
  }
  convolution_param {
    num_output: 128
    pad: 1
    kernel_size: 3
    weight_filler {
      type: "xavier"
    }
    bias_filler {
      type: "constant"
      value: 0
    }
  }
}
layer {
  name: "relu2_2"
  type: "ReLU"
  bottom: "conv2_2"
  top: "conv2_2"
}
layer {
  name: "pool2"
  type: "Pooling"
  bottom: "conv2_2"
  top: "pool2"
  pooling_param {
    pool: MAX
    kernel_size: 2
    stride: 2
  }
}
layer {
  name: "conv3_1"
  type: "Convolution"
  bottom: "pool2"
  top: "conv3_1"
  param {
    lr_mult: 1
    decay_mult: 1
  }
  param {
    lr_mult: 2
    decay_mult: 0
  }
  convolution_param {
    num_output: 256
    pad: 1
    kernel_size: 3
    weight_filler {
      type: "xavier"
    }
    bias_filler {
      type: "constant"
      value: 0
    }
  }
}
layer {
  name: "relu3_1"
  type: "ReLU"
  bottom: "conv3_1"
  top: "conv3_1"
}
layer {
  name: "conv3_2"
  type: "Convolution"
  bottom: "conv3_1"
  top: "conv3_2"
  param {
    lr_mult: 1
    decay_mult: 1
  }
  param {
    lr_mult: 2
    decay_mult: 0
  }
  convolution_param {
    num_output: 256
    pad: 1
    kernel_size: 3
    weight_filler {
      type: "xavier"
    }
    bias_filler {
      type: "constant"
      value: 0
    }
  }
}
layer {
  name: "relu3_2"
  type: "ReLU"
  bottom: "conv3_2"
  top: "conv3_2"
}
layer {
  name: "conv3_3"
  type: "Convolution"
  bottom: "conv3_2"
  top: "conv3_3"
  param {
    lr_mult: 1
    decay_mult: 1
  }
  param {
    lr_mult: 2
    decay_mult: 0
  }
  convolution_param {
    num_output: 256
    pad: 1
    kernel_size: 3
    weight_filler {
      type: "xavier"
    }
    bias_filler {
      type: "constant"
      value: 0
    }
  }
}
layer {
  name: "relu3_3"
  type: "ReLU"
  bottom: "conv3_3"
  top: "conv3_3"
}
layer {
  name: "pool3"
  type: "Pooling"
  bottom: "conv3_3"
  top: "pool3"
  pooling_param {
    pool: MAX
    kernel_size: 2
    stride: 2
  }
}
layer {
  name: "conv4_1"
  type: "Convolution"
  bottom: "pool3"
  top: "conv4_1"
  param {
    lr_mult: 1
    decay_mult: 1
  }
  param {
    lr_mult: 2
    decay_mult: 0
  }
  convolution_param {
    num_output: 512
    pad: 1
    kernel_size: 3
    weight_filler {
      type: "xavier"
    }
    bias_filler {
      type: "constant"
      value: 0
    }
  }
}
layer {
  name: "relu4_1"
  type: "ReLU"
  bottom: "conv4_1"
  top: "conv4_1"
}
layer {
  name: "conv4_2"
  type: "Convolution"
  bottom: "conv4_1"
  top: "conv4_2"
  param {
    lr_mult: 1
    decay_mult: 1
  }
  param {
    lr_mult: 2
    decay_mult: 0
  }
  convolution_param {
    num_output: 512
    pad: 1
    kernel_size: 3
    weight_filler {
      type: "xavier"
    }
    bias_filler {
      type: "constant"
      value: 0
    }
  }
}
layer {
  name: "relu4_2"
  type: "ReLU"
  bottom: "conv4_2"
  top: "conv4_2"
}
layer {
  name: "conv4_3"
  type: "Convolution"
  bottom: "conv4_2"
  top: "conv4_3"
  param {
    lr_mult: 1
    decay_mult: 1
  }
  param {
    lr_mult: 2
    decay_mult: 0
  }
  convolution_param {
    num_output: 512
    pad: 1
    kernel_size: 3
    weight_filler {
      type: "xavier"
    }
    bias_filler {
      type: "constant"
      value: 0
    }
  }
}
layer {
  name: "relu4_3"
  type: "ReLU"
  bottom: "conv4_3"
  top: "conv4_3"
}
layer {
  name: "pool4"
  type: "Pooling"
  bottom: "conv4_3"
  top: "pool4"
  pooling_param {
    pool: MAX
    kernel_size: 2
    stride: 2
  }
}
layer {
  name: "conv5_1"
  type: "Convolution"
  bottom: "pool4"
  top: "conv5_1"
  param {
    lr_mult: 1
    decay_mult: 1
  }
  param {
    lr_mult: 2
    decay_mult: 0
  }
  convolution_param {
    num_output: 512
    pad: 1
    kernel_size: 3
    weight_filler {
      type: "xavier"
    }
    bias_filler {
      type: "constant"
      value: 0
    }
    dilation: 1
  }
}
layer {
  name: "relu5_1"
  type: "ReLU"
  bottom: "conv5_1"
  top: "conv5_1"
}
layer {
  name: "conv5_2"
  type: "Convolution"
  bottom: "conv5_1"
  top: "conv5_2"
  param {
    lr_mult: 1
    decay_mult: 1
  }
  param {
    lr_mult: 2
    decay_mult: 0
  }
  convolution_param {
    num_output: 512
    pad: 1
    kernel_size: 3
    weight_filler {
      type: "xavier"
    }
    bias_filler {
      type: "constant"
      value: 0
    }
    dilation: 1
  }
}
layer {
  name: "relu5_2"
  type: "ReLU"
  bottom: "conv5_2"
  top: "conv5_2"
}
layer {
  name: "conv5_3"
  type: "Convolution"
  bottom: "conv5_2"
  top: "conv5_3"
  param {
    lr_mult: 1
    decay_mult: 1
  }
  param {
    lr_mult: 2
    decay_mult: 0
  }
  convolution_param {
    num_output: 512
    pad: 1
    kernel_size: 3
    weight_filler {
      type: "xavier"
    }
    bias_filler {
      type: "constant"
      value: 0
    }
    dilation: 1
  }
}
layer {
  name: "relu5_3"
  type: "ReLU"
  bottom: "conv5_3"
  top: "conv5_3"
}
layer {
  name: "pool5"
  type: "Pooling"
  bottom: "conv5_3"
  top: "pool5"
  pooling_param {
    pool: MAX
    kernel_size: 3
    stride: 1
    pad: 1
  }
}
layer {
  name: "fc6"
  type: "Convolution"
  bottom: "pool5"
  top: "fc6"
  param {
    lr_mult: 1
    decay_mult: 1
  }
  param {
    lr_mult: 2
    decay_mult: 0
  }
  convolution_param {
    num_output: 1024
    pad: 1
    kernel_size: 3
    weight_filler {
      type: "xavier"
    }
    bias_filler {
      type: "constant"
      value: 0
    }
    dilation: 1
  }
}
layer {
  name: "relu6"
  type: "ReLU"
  bottom: "fc6"
  top: "fc6"
}
layer {
  name: "fc7"
  type: "Convolution"
  bottom: "fc6"
  top: "fc7"
  param {
    lr_mult: 1
    decay_mult: 1
  }
  param {
    lr_mult: 2
    decay_mult: 0
  }
  convolution_param {
    num_output: 1024
    kernel_size: 1
    weight_filler {
      type: "xavier"
    }
    bias_filler {
      type: "constant"
      value: 0
    }
  }
}
layer {
  name: "relu7"
  type: "ReLU"
  bottom: "fc7"
  top: "fc7"
}
layer {
  name: "conv6_1"
  type: "Convolution"
  bottom: "fc7"
  top: "conv6_1"
  param {
    lr_mult: 1
    decay_mult: 1
  }
  param {
    lr_mult: 2
    decay_mult: 0
  }
  convolution_param {
    num_output: 256
    pad: 0
    kernel_size: 1
    stride: 1
    weight_filler {
      type: "xavier"
    }
    bias_filler {
      type: "constant"
      value: 0
    }
  }
}
layer {
  name: "conv6_1_relu"
  type: "ReLU"
  bottom: "conv6_1"
  top: "conv6_1"
}
layer {
  name: "conv6_2"
  type: "Convolution"
  bottom: "conv6_1"
  top: "conv6_2"
  param {
    lr_mult: 1
    decay_mult: 1
  }
  param {
    lr_mult: 2
    decay_mult: 0
  }
  convolution_param {
    num_output: 512
    pad: 1
    kernel_size: 3
    stride: 2
    weight_filler {
      type: "xavier"
    }
    bias_filler {
      type: "constant"
      value: 0
    }
  }
}
layer {
  name: "conv6_2_relu"
  type: "ReLU"
  bottom: "conv6_2"
  top: "conv6_2"
}
layer {
  name: "conv7_1"
  type: "Convolution"
  bottom: "conv6_2"
  top: "conv7_1"
  param {
    lr_mult: 1
    decay_mult: 1
  }
  param {
    lr_mult: 2
    decay_mult: 0
  }
  convolution_param {
    num_output: 128
    pad: 0
    kernel_size: 1
    stride: 1
    weight_filler {
      type: "xavier"
    }
    bias_filler {
      type: "constant"
      value: 0
    }
  }
}
layer {
  name: "conv7_1_relu"
  type: "ReLU"
  bottom: "conv7_1"
  top: "conv7_1"
}
layer {
  name: "conv7_2"
  type: "Convolution"
  bottom: "conv7_1"
  top: "conv7_2"
  param {
    lr_mult: 1
    decay_mult: 1
  }
  param {
    lr_mult: 2
    decay_mult: 0
  }
  convolution_param {
    num_output: 256
    pad: 1
    kernel_size: 3
    stride: 2
    weight_filler {
      type: "xavier"
    }
    bias_filler {
      type: "constant"
      value: 0
    }
  }
}
layer {
  name: "conv7_2_relu"
  type: "ReLU"
  bottom: "conv7_2"
  top: "conv7_2"
}
layer {
  name: "conv8_1"
  type: "Convolution"
  bottom: "conv7_2"
  top: "conv8_1"
  param {
    lr_mult: 1
    decay_mult: 1
  }
  param {
    lr_mult: 2
    decay_mult: 0
  }
  convolution_param {
    num_output: 128
    pad: 0
    kernel_size: 1
    stride: 1
    weight_filler {
      type: "xavier"
    }
    bias_filler {
      type: "constant"
      value: 0
    }
  }
}
layer {
  name: "conv8_1_relu"
  type: "ReLU"
  bottom: "conv8_1"
  top: "conv8_1"
}
layer {
  name: "conv8_2"
  type: "Convolution"
  bottom: "conv8_1"
  top: "conv8_2"
  param {
    lr_mult: 1
    decay_mult: 1
  }
  param {
    lr_mult: 2
    decay_mult: 0
  }
  convolution_param {
    num_output: 256
    pad: 0
    kernel_size: 3
    stride: 1
    weight_filler {
      type: "xavier"
    }
    bias_filler {
      type: "constant"
      value: 0
    }
  }
}
layer {
  name: "conv8_2_relu"
  type: "ReLU"
  bottom: "conv8_2"
  top: "conv8_2"
}
layer {
  name: "conv9_1"
  type: "Convolution"
  bottom: "conv8_2"
  top: "conv9_1"
  param {
    lr_mult: 1
    decay_mult: 1
  }
  param {
    lr_mult: 2
    decay_mult: 0
  }
  convolution_param {
    num_output: 128
    pad: 0
    kernel_size: 1
    stride: 1
    weight_filler {
      type: "xavier"
    }
    bias_filler {
      type: "constant"
      value: 0
    }
  }
}
layer {
  name: "conv9_1_relu"
  type: "ReLU"
  bottom: "conv9_1"
  top: "conv9_1"
}
layer {
  name: "conv9_2"
  type: "Convolution"
  bottom: "conv9_1"
  top: "conv9_2"
  param {
    lr_mult: 1
    decay_mult: 1
  }
  param {
    lr_mult: 2
    decay_mult: 0
  }
  convolution_param {
    num_output: 256
    pad: 0
    kernel_size: 3
    stride: 1
    weight_filler {
      type: "xavier"
    }
    bias_filler {
      type: "constant"
      value: 0
    }
  }
}
layer {
  name: "conv9_2_relu"
  type: "ReLU"
  bottom: "conv9_2"
  top: "conv9_2"
}
layer {
  name: "conv4_3_norm"
  type: "Normalize"
  bottom: "conv4_3"
  top: "conv4_3_norm"
  norm_param {
    across_spatial: false
    scale_filler {
      type: "constant"
      value: 20
    }
    channel_shared: false
  }
}
layer {
  name: "conv4_3_norm_mbox_loc"
  type: "Convolution"
  bottom: "conv4_3_norm"
  top: "conv4_3_norm_mbox_loc"
  param {
    lr_mult: 1
    decay_mult: 1
  }
  param {
    lr_mult: 2
    decay_mult: 0
  }
  convolution_param {
    num_output: 16
    pad: 1
    kernel_size: 3
    stride: 1
    weight_filler {
      type: "xavier"
    }
    bias_filler {
      type: "constant"
      value: 0
    }
  }
}
layer {
  name: "conv4_3_norm_mbox_loc_perm"
  type: "Permute"
  bottom: "conv4_3_norm_mbox_loc"
  top: "conv4_3_norm_mbox_loc_perm"
  permute_param {
    order: 0
    order: 2
    order: 3
    order: 1
  }
}
layer {
  name: "conv4_3_norm_mbox_loc_flat"
  type: "Flatten"
  bottom: "conv4_3_norm_mbox_loc_perm"
  top: "conv4_3_norm_mbox_loc_flat"
  flatten_param {
    axis: 1
  }
}
layer {
  name: "conv4_3_norm_mbox_conf"
  type: "Convolution"
  bottom: "conv4_3_norm"
  top: "conv4_3_norm_mbox_conf"
  param {
    lr_mult: 1
    decay_mult: 1
  }
  param {
    lr_mult: 2
    decay_mult: 0
  }
  convolution_param {
    num_output: 8
    pad: 1
    kernel_size: 3
    stride: 1
    weight_filler {
      type: "xavier"
    }
    bias_filler {
      type: "constant"
      value: 0
    }
  }
}
layer {
  name: "conv4_3_norm_mbox_conf_perm"
  type: "Permute"
  bottom: "conv4_3_norm_mbox_conf"
  top: "conv4_3_norm_mbox_conf_perm"
  permute_param {
    order: 0
    order: 2
    order: 3
    order: 1
  }
}
layer {
  name: "conv4_3_norm_mbox_conf_flat"
  type: "Flatten"
  bottom: "conv4_3_norm_mbox_conf_perm"
  top: "conv4_3_norm_mbox_conf_flat"
  flatten_param {
    axis: 1
  }
}
layer {
  name: "conv4_3_norm_mbox_priorbox"
  type: "PriorBox"
  bottom: "conv4_3_norm"
  bottom: "data"
  top: "conv4_3_norm_mbox_priorbox"
  prior_box_param {
    min_size: 30
    max_size: 60
    aspect_ratio: 2
    flip: true
    clip: false
    variance: 0.1
    variance: 0.1
    variance: 0.2
    variance: 0.2
    step: 8
    offset: 0.5
  }
}
layer {
  name: "fc7_mbox_loc"
  type: "Convolution"
  bottom: "fc7"
  top: "fc7_mbox_loc"
  param {
    lr_mult: 1
    decay_mult: 1
  }
  param {
    lr_mult: 2
    decay_mult: 0
  }
  convolution_param {
    num_output: 24
    pad: 1
    kernel_size: 3
    stride: 1
    weight_filler {
      type: "xavier"
    }
    bias_filler {
      type: "constant"
      value: 0
    }
  }
}
layer {
  name: "fc7_mbox_loc_perm"
  type: "Permute"
  bottom: "fc7_mbox_loc"
  top: "fc7_mbox_loc_perm"
  permute_param {
    order: 0
    order: 2
    order: 3
    order: 1
  }
}
layer {
  name: "fc7_mbox_loc_flat"
  type: "Flatten"
  bottom: "fc7_mbox_loc_perm"
  top: "fc7_mbox_loc_flat"
  flatten_param {
    axis: 1
  }
}
layer {
  name: "fc7_mbox_conf"
  type: "Convolution"
  bottom: "fc7"
  top: "fc7_mbox_conf"
  param {
    lr_mult: 1
    decay_mult: 1
  }
  param {
    lr_mult: 2
    decay_mult: 0
  }
  convolution_param {
    num_output: 12
    pad: 1
    kernel_size: 3
    stride: 1
    weight_filler {
      type: "xavier"
    }
    bias_filler {
      type: "constant"
      value: 0
    }
  }
}
layer {
  name: "fc7_mbox_conf_perm"
  type: "Permute"
  bottom: "fc7_mbox_conf"
  top: "fc7_mbox_conf_perm"
  permute_param {
    order: 0
    order: 2
    order: 3
    order: 1
  }
}
layer {
  name: "fc7_mbox_conf_flat"
  type: "Flatten"
  bottom: "fc7_mbox_conf_perm"
  top: "fc7_mbox_conf_flat"
  flatten_param {
    axis: 1
  }
}
layer {
  name: "fc7_mbox_priorbox"
  type: "PriorBox"
  bottom: "fc7"
  bottom: "data"
  top: "fc7_mbox_priorbox"
  prior_box_param {
    min_size: 60
    max_size: 111
    aspect_ratio: 2
    aspect_ratio: 3
    flip: true
    clip: false
    variance: 0.1
    variance: 0.1
    variance: 0.2
    variance: 0.2
    step: 16
    offset: 0.5
  }
}
layer {
  name: "conv6_2_mbox_loc"
  type: "Convolution"
  bottom: "conv6_2"
  top: "conv6_2_mbox_loc"
  param {
    lr_mult: 1
    decay_mult: 1
  }
  param {
    lr_mult: 2
    decay_mult: 0
  }
  convolution_param {
    num_output: 24
    pad: 1
    kernel_size: 3
    stride: 1
    weight_filler {
      type: "xavier"
    }
    bias_filler {
      type: "constant"
      value: 0
    }
  }
}
layer {
  name: "conv6_2_mbox_loc_perm"
  type: "Permute"
  bottom: "conv6_2_mbox_loc"
  top: "conv6_2_mbox_loc_perm"
  permute_param {
    order: 0
    order: 2
    order: 3
    order: 1
  }
}
layer {
  name: "conv6_2_mbox_loc_flat"
  type: "Flatten"
  bottom: "conv6_2_mbox_loc_perm"
  top: "conv6_2_mbox_loc_flat"
  flatten_param {
    axis: 1
  }
}
layer {
  name: "conv6_2_mbox_conf"
  type: "Convolution"
  bottom: "conv6_2"
  top: "conv6_2_mbox_conf"
  param {
    lr_mult: 1
    decay_mult: 1
  }
  param {
    lr_mult: 2
    decay_mult: 0
  }
  convolution_param {
    num_output: 12
    pad: 1
    kernel_size: 3
    stride: 1
    weight_filler {
      type: "xavier"
    }
    bias_filler {
      type: "constant"
      value: 0
    }
  }
}
layer {
  name: "conv6_2_mbox_conf_perm"
  type: "Permute"
  bottom: "conv6_2_mbox_conf"
  top: "conv6_2_mbox_conf_perm"
  permute_param {
    order: 0
    order: 2
    order: 3
    order: 1
  }
}
layer {
  name: "conv6_2_mbox_conf_flat"
  type: "Flatten"
  bottom: "conv6_2_mbox_conf_perm"
  top: "conv6_2_mbox_conf_flat"
  flatten_param {
    axis: 1
  }
}
layer {
  name: "conv6_2_mbox_priorbox"
  type: "PriorBox"
  bottom: "conv6_2"
  bottom: "data"
  top: "conv6_2_mbox_priorbox"
  prior_box_param {
    min_size: 111
    max_size: 162
    aspect_ratio: 2
    aspect_ratio: 3
    flip: true
    clip: false
    variance: 0.1
    variance: 0.1
    variance: 0.2
    variance: 0.2
    step: 32
    offset: 0.5
  }
}
layer {
  name: "conv7_2_mbox_loc"
  type: "Convolution"
  bottom: "conv7_2"
  top: "conv7_2_mbox_loc"
  param {
    lr_mult: 1
    decay_mult: 1
  }
  param {
    lr_mult: 2
    decay_mult: 0
  }
  convolution_param {
    num_output: 24
    pad: 1
    kernel_size: 3
    stride: 1
    weight_filler {
      type: "xavier"
    }
    bias_filler {
      type: "constant"
      value: 0
    }
  }
}
layer {
  name: "conv7_2_mbox_loc_perm"
  type: "Permute"
  bottom: "conv7_2_mbox_loc"
  top: "conv7_2_mbox_loc_perm"
  permute_param {
    order: 0
    order: 2
    order: 3
    order: 1
  }
}
layer {
  name: "conv7_2_mbox_loc_flat"
  type: "Flatten"
  bottom: "conv7_2_mbox_loc_perm"
  top: "conv7_2_mbox_loc_flat"
  flatten_param {
    axis: 1
  }
}
layer {
  name: "conv7_2_mbox_conf"
  type: "Convolution"
  bottom: "conv7_2"
  top: "conv7_2_mbox_conf"
  param {
    lr_mult: 1
    decay_mult: 1
  }
  param {
    lr_mult: 2
    decay_mult: 0
  }
  convolution_param {
    num_output: 12
    pad: 1
    kernel_size: 3
    stride: 1
    weight_filler {
      type: "xavier"
    }
    bias_filler {
      type: "constant"
      value: 0
    }
  }
}
layer {
  name: "conv7_2_mbox_conf_perm"
  type: "Permute"
  bottom: "conv7_2_mbox_conf"
  top: "conv7_2_mbox_conf_perm"
  permute_param {
    order: 0
    order: 2
    order: 3
    order: 1
  }
}
layer {
  name: "conv7_2_mbox_conf_flat"
  type: "Flatten"
  bottom: "conv7_2_mbox_conf_perm"
  top: "conv7_2_mbox_conf_flat"
  flatten_param {
    axis: 1
  }
}
layer {
  name: "conv7_2_mbox_priorbox"
  type: "PriorBox"
  bottom: "conv7_2"
  bottom: "data"
  top: "conv7_2_mbox_priorbox"
  prior_box_param {
    min_size: 162
    max_size: 213
    aspect_ratio: 2
    aspect_ratio: 3
    flip: true
    clip: false
    variance: 0.1
    variance: 0.1
    variance: 0.2
    variance: 0.2
    step: 64
    offset: 0.5
  }
}
layer {
  name: "conv8_2_mbox_loc"
  type: "Convolution"
  bottom: "conv8_2"
  top: "conv8_2_mbox_loc"
  param {
    lr_mult: 1
    decay_mult: 1
  }
  param {
    lr_mult: 2
    decay_mult: 0
  }
  convolution_param {
    num_output: 16
    pad: 1
    kernel_size: 3
    stride: 1
    weight_filler {
      type: "xavier"
    }
    bias_filler {
      type: "constant"
      value: 0
    }
  }
}
layer {
  name: "conv8_2_mbox_loc_perm"
  type: "Permute"
  bottom: "conv8_2_mbox_loc"
  top: "conv8_2_mbox_loc_perm"
  permute_param {
    order: 0
    order: 2
    order: 3
    order: 1
  }
}
layer {
  name: "conv8_2_mbox_loc_flat"
  type: "Flatten"
  bottom: "conv8_2_mbox_loc_perm"
  top: "conv8_2_mbox_loc_flat"
  flatten_param {
    axis: 1
  }
}
layer {
  name: "conv8_2_mbox_conf"
  type: "Convolution"
  bottom: "conv8_2"
  top: "conv8_2_mbox_conf"
  param {
    lr_mult: 1
    decay_mult: 1
  }
  param {
    lr_mult: 2
    decay_mult: 0
  }
  convolution_param {
    num_output: 8
    pad: 1
    kernel_size: 3
    stride: 1
    weight_filler {
      type: "xavier"
    }
    bias_filler {
      type: "constant"
      value: 0
    }
  }
}
layer {
  name: "conv8_2_mbox_conf_perm"
  type: "Permute"
  bottom: "conv8_2_mbox_conf"
  top: "conv8_2_mbox_conf_perm"
  permute_param {
    order: 0
    order: 2
    order: 3
    order: 1
  }
}
layer {
  name: "conv8_2_mbox_conf_flat"
  type: "Flatten"
  bottom: "conv8_2_mbox_conf_perm"
  top: "conv8_2_mbox_conf_flat"
  flatten_param {
    axis: 1
  }
}
layer {
  name: "conv8_2_mbox_priorbox"
  type: "PriorBox"
  bottom: "conv8_2"
  bottom: "data"
  top: "conv8_2_mbox_priorbox"
  prior_box_param {
    min_size: 213
    max_size: 264
    aspect_ratio: 2
    flip: true
    clip: false
    variance: 0.1
    variance: 0.1
    variance: 0.2
    variance: 0.2
    step: 100
    offset: 0.5
  }
}
layer {
  name: "conv9_2_mbox_loc"
  type: "Convolution"
  bottom: "conv9_2"
  top: "conv9_2_mbox_loc"
  param {
    lr_mult: 1
    decay_mult: 1
  }
  param {
    lr_mult: 2
    decay_mult: 0
  }
  convolution_param {
    num_output: 16
    pad: 1
    kernel_size: 3
    stride: 1
    weight_filler {
      type: "xavier"
    }
    bias_filler {
      type: "constant"
      value: 0
    }
  }
}
layer {
  name: "conv9_2_mbox_loc_perm"
  type: "Permute"
  bottom: "conv9_2_mbox_loc"
  top: "conv9_2_mbox_loc_perm"
  permute_param {
    order: 0
    order: 2
    order: 3
    order: 1
  }
}
layer {
  name: "conv9_2_mbox_loc_flat"
  type: "Flatten"
  bottom: "conv9_2_mbox_loc_perm"
  top: "conv9_2_mbox_loc_flat"
  flatten_param {
    axis: 1
  }
}
layer {
  name: "conv9_2_mbox_conf"
  type: "Convolution"
  bottom: "conv9_2"
  top: "conv9_2_mbox_conf"
  param {
    lr_mult: 1
    decay_mult: 1
  }
  param {
    lr_mult: 2
    decay_mult: 0
  }
  convolution_param {
    num_output: 8
    pad: 1
    kernel_size: 3
    stride: 1
    weight_filler {
      type: "xavier"
    }
    bias_filler {
      type: "constant"
      value: 0
    }
  }
}
layer {
  name: "conv9_2_mbox_conf_perm"
  type: "Permute"
  bottom: "conv9_2_mbox_conf"
  top: "conv9_2_mbox_conf_perm"
  permute_param {
    order: 0
    order: 2
    order: 3
    order: 1
  }
}
layer {
  name: "conv9_2_mbox_conf_flat"
  type: "Flatten"
  bottom: "conv9_2_mbox_conf_perm"
  top: "conv9_2_mbox_conf_flat"
  flatten_param {
    axis: 1
  }
}
layer {
  name: "conv9_2_mbox_priorbox"
  type: "PriorBox"
  bottom: "conv9_2"
  bottom: "data"
  top: "conv9_2_mbox_priorbox"
  prior_box_param {
    min_size: 264
    max_size: 315
    aspect_ratio: 2
    flip: true
    clip: false
    variance: 0.1
    variance: 0.1
    variance: 0.2
    variance: 0.2
    step: 300
    offset: 0.5
  }
}
layer {
  name: "mbox_loc"
  type: "Concat"
  bottom: "conv4_3_norm_mbox_loc_flat"
  bottom: "fc7_mbox_loc_flat"
  bottom: "conv6_2_mbox_loc_flat"
  bottom: "conv7_2_mbox_loc_flat"
  bottom: "conv8_2_mbox_loc_flat"
  bottom: "conv9_2_mbox_loc_flat"
  top: "mbox_loc"
  concat_param {
    axis: 1
  }
}
layer {
  name: "mbox_conf"
  type: "Concat"
  bottom: "conv4_3_norm_mbox_conf_flat"
  bottom: "fc7_mbox_conf_flat"
  bottom: "conv6_2_mbox_conf_flat"
  bottom: "conv7_2_mbox_conf_flat"
  bottom: "conv8_2_mbox_conf_flat"
  bottom: "conv9_2_mbox_conf_flat"
  top: "mbox_conf"
  concat_param {
    axis: 1
  }
}
layer {
  name: "mbox_priorbox"
  type: "Concat"
  bottom: "conv4_3_norm_mbox_priorbox"
  bottom: "fc7_mbox_priorbox"
  bottom: "conv6_2_mbox_priorbox"
  bottom: "conv7_2_mbox_priorbox"
  bottom: "conv8_2_mbox_priorbox"
  bottom: "conv9_2_mbox_priorbox"
  top: "mbox_priorbox"
  concat_param {
    axis: 2
  }
}
layer {
  name: "mbox_loss"
  type: "MultiBoxLoss"
  bottom: "mbox_loc"
  bottom: "mbox_conf"
  bottom: "mbox_priorbox"
  bottom: "label"
  top: "mbox_loss"
  include {
    phase: TRAIN
  }
  propagate_down: true
  propagate_down: true
  propagate_down: false
  propagate_down: false
  loss_param {
    normalization: VALID
  }
  multibox_loss_param {
    loc_loss_type: SMOOTH_L1
    conf_loss_type: SOFTMAX
    loc_weight: 1
    num_classes: 2
    share_location: true
    match_type: PER_PREDICTION
    overlap_threshold: 0.5
    use_prior_for_matching: true
    background_label_id: 0
    use_difficult_gt: true
    neg_pos_ratio: 3
    neg_overlap: 0.5
    code_type: CENTER_SIZE
    ignore_cross_boundary_bbox: false
    mining_type: MAX_NEGATIVE
  }
}
I0815 17:35:08.568097 13765 layer_factory.hpp:77] Creating layer data
I0815 17:35:08.568204 13765 net.cpp:100] Creating Layer data
I0815 17:35:08.568222 13765 net.cpp:408] data -> data
I0815 17:35:08.568248 13765 net.cpp:408] data -> label
I0815 17:35:08.568910 13784 db_lmdb.cpp:35] Opened lmdb examples/car352x288/car352x288_trainval_lmdb
I0815 17:35:08.616351 13765 annotated_data_layer.cpp:62] output data size: 16,3,288,352
I0815 17:35:08.634855 13765 net.cpp:150] Setting up data
I0815 17:35:08.634874 13765 net.cpp:157] Top shape: 16 3 288 352 (4866048)
I0815 17:35:08.634881 13765 net.cpp:157] Top shape: 1 1 16 8 (128)
I0815 17:35:08.634903 13765 net.cpp:165] Memory required for data: 19464704
I0815 17:35:08.634913 13765 layer_factory.hpp:77] Creating layer data_data_0_split
I0815 17:35:08.635267 13765 net.cpp:100] Creating Layer data_data_0_split
I0815 17:35:08.635274 13765 net.cpp:434] data_data_0_split <- data
I0815 17:35:08.635287 13765 net.cpp:408] data_data_0_split -> data_data_0_split_0
I0815 17:35:08.635294 13765 net.cpp:408] data_data_0_split -> data_data_0_split_1
I0815 17:35:08.635299 13765 net.cpp:408] data_data_0_split -> data_data_0_split_2
I0815 17:35:08.635303 13765 net.cpp:408] data_data_0_split -> data_data_0_split_3
I0815 17:35:08.635306 13765 net.cpp:408] data_data_0_split -> data_data_0_split_4
I0815 17:35:08.635310 13765 net.cpp:408] data_data_0_split -> data_data_0_split_5
I0815 17:35:08.635313 13765 net.cpp:408] data_data_0_split -> data_data_0_split_6
I0815 17:35:08.635367 13765 net.cpp:150] Setting up data_data_0_split
I0815 17:35:08.635372 13765 net.cpp:157] Top shape: 16 3 288 352 (4866048)
I0815 17:35:08.635376 13765 net.cpp:157] Top shape: 16 3 288 352 (4866048)
I0815 17:35:08.635380 13765 net.cpp:157] Top shape: 16 3 288 352 (4866048)
I0815 17:35:08.635381 13765 net.cpp:157] Top shape: 16 3 288 352 (4866048)
I0815 17:35:08.635385 13765 net.cpp:157] Top shape: 16 3 288 352 (4866048)
I0815 17:35:08.635386 13765 net.cpp:157] Top shape: 16 3 288 352 (4866048)
I0815 17:35:08.635390 13765 net.cpp:157] Top shape: 16 3 288 352 (4866048)
I0815 17:35:08.635392 13765 net.cpp:165] Memory required for data: 155714048
I0815 17:35:08.635394 13765 layer_factory.hpp:77] Creating layer conv1_1
I0815 17:35:08.635696 13765 net.cpp:100] Creating Layer conv1_1
I0815 17:35:08.635701 13765 net.cpp:434] conv1_1 <- data_data_0_split_0
I0815 17:35:08.635706 13765 net.cpp:408] conv1_1 -> conv1_1
I0815 17:35:09.764866 13765 net.cpp:150] Setting up conv1_1
I0815 17:35:09.764883 13765 net.cpp:157] Top shape: 16 64 288 352 (103809024)
I0815 17:35:09.764889 13765 net.cpp:165] Memory required for data: 570950144
I0815 17:35:09.764907 13765 layer_factory.hpp:77] Creating layer relu1_1
I0815 17:35:09.764914 13765 net.cpp:100] Creating Layer relu1_1
I0815 17:35:09.764917 13765 net.cpp:434] relu1_1 <- conv1_1
I0815 17:35:09.764922 13765 net.cpp:395] relu1_1 -> conv1_1 (in-place)
I0815 17:35:09.765838 13765 net.cpp:150] Setting up relu1_1
I0815 17:35:09.765846 13765 net.cpp:157] Top shape: 16 64 288 352 (103809024)
I0815 17:35:09.765864 13765 net.cpp:165] Memory required for data: 986186240
I0815 17:35:09.765867 13765 layer_factory.hpp:77] Creating layer conv1_2
I0815 17:35:09.765877 13765 net.cpp:100] Creating Layer conv1_2
I0815 17:35:09.765879 13765 net.cpp:434] conv1_2 <- conv1_1
I0815 17:35:09.765883 13765 net.cpp:408] conv1_2 -> conv1_2
I0815 17:35:09.768399 13765 net.cpp:150] Setting up conv1_2
I0815 17:35:09.768406 13765 net.cpp:157] Top shape: 16 64 288 352 (103809024)
I0815 17:35:09.768411 13765 net.cpp:165] Memory required for data: 1401422336
I0815 17:35:09.768416 13765 layer_factory.hpp:77] Creating layer relu1_2
I0815 17:35:09.768420 13765 net.cpp:100] Creating Layer relu1_2
I0815 17:35:09.768424 13765 net.cpp:434] relu1_2 <- conv1_2
I0815 17:35:09.768426 13765 net.cpp:395] relu1_2 -> conv1_2 (in-place)
I0815 17:35:09.768744 13765 net.cpp:150] Setting up relu1_2
I0815 17:35:09.768751 13765 net.cpp:157] Top shape: 16 64 288 352 (103809024)
I0815 17:35:09.768754 13765 net.cpp:165] Memory required for data: 1816658432
I0815 17:35:09.768757 13765 layer_factory.hpp:77] Creating layer pool1
I0815 17:35:09.768762 13765 net.cpp:100] Creating Layer pool1
I0815 17:35:09.768764 13765 net.cpp:434] pool1 <- conv1_2
I0815 17:35:09.768769 13765 net.cpp:408] pool1 -> pool1
I0815 17:35:09.769012 13765 net.cpp:150] Setting up pool1
I0815 17:35:09.769017 13765 net.cpp:157] Top shape: 16 64 144 176 (25952256)
I0815 17:35:09.769021 13765 net.cpp:165] Memory required for data: 1920467456
I0815 17:35:09.769023 13765 layer_factory.hpp:77] Creating layer conv2_1
I0815 17:35:09.769029 13765 net.cpp:100] Creating Layer conv2_1
I0815 17:35:09.769032 13765 net.cpp:434] conv2_1 <- pool1
I0815 17:35:09.769078 13765 net.cpp:408] conv2_1 -> conv2_1
I0815 17:35:09.771597 13765 net.cpp:150] Setting up conv2_1
I0815 17:35:09.771606 13765 net.cpp:157] Top shape: 16 128 144 176 (51904512)
I0815 17:35:09.771610 13765 net.cpp:165] Memory required for data: 2128085504
I0815 17:35:09.771616 13765 layer_factory.hpp:77] Creating layer relu2_1
I0815 17:35:09.771621 13765 net.cpp:100] Creating Layer relu2_1
I0815 17:35:09.771625 13765 net.cpp:434] relu2_1 <- conv2_1
I0815 17:35:09.771627 13765 net.cpp:395] relu2_1 -> conv2_1 (in-place)
I0815 17:35:09.772060 13765 net.cpp:150] Setting up relu2_1
I0815 17:35:09.772068 13765 net.cpp:157] Top shape: 16 128 144 176 (51904512)
I0815 17:35:09.772071 13765 net.cpp:165] Memory required for data: 2335703552
I0815 17:35:09.772074 13765 layer_factory.hpp:77] Creating layer conv2_2
I0815 17:35:09.772080 13765 net.cpp:100] Creating Layer conv2_2
I0815 17:35:09.772083 13765 net.cpp:434] conv2_2 <- conv2_1
I0815 17:35:09.772086 13765 net.cpp:408] conv2_2 -> conv2_2
I0815 17:35:09.773988 13765 net.cpp:150] Setting up conv2_2
I0815 17:35:09.773995 13765 net.cpp:157] Top shape: 16 128 144 176 (51904512)
I0815 17:35:09.773999 13765 net.cpp:165] Memory required for data: 2543321600
I0815 17:35:09.774004 13765 layer_factory.hpp:77] Creating layer relu2_2
I0815 17:35:09.774008 13765 net.cpp:100] Creating Layer relu2_2
I0815 17:35:09.774010 13765 net.cpp:434] relu2_2 <- conv2_2
I0815 17:35:09.774014 13765 net.cpp:395] relu2_2 -> conv2_2 (in-place)
I0815 17:35:09.774329 13765 net.cpp:150] Setting up relu2_2
I0815 17:35:09.774335 13765 net.cpp:157] Top shape: 16 128 144 176 (51904512)
I0815 17:35:09.774338 13765 net.cpp:165] Memory required for data: 2750939648
I0815 17:35:09.774341 13765 layer_factory.hpp:77] Creating layer pool2
I0815 17:35:09.774345 13765 net.cpp:100] Creating Layer pool2
I0815 17:35:09.774348 13765 net.cpp:434] pool2 <- conv2_2
I0815 17:35:09.774351 13765 net.cpp:408] pool2 -> pool2
I0815 17:35:09.774396 13765 net.cpp:150] Setting up pool2
I0815 17:35:09.774400 13765 net.cpp:157] Top shape: 16 128 72 88 (12976128)
I0815 17:35:09.774403 13765 net.cpp:165] Memory required for data: 2802844160
I0815 17:35:09.774406 13765 layer_factory.hpp:77] Creating layer conv3_1
I0815 17:35:09.774411 13765 net.cpp:100] Creating Layer conv3_1
I0815 17:35:09.774415 13765 net.cpp:434] conv3_1 <- pool2
I0815 17:35:09.774417 13765 net.cpp:408] conv3_1 -> conv3_1
I0815 17:35:09.778475 13765 net.cpp:150] Setting up conv3_1
I0815 17:35:09.778487 13765 net.cpp:157] Top shape: 16 256 72 88 (25952256)
I0815 17:35:09.778492 13765 net.cpp:165] Memory required for data: 2906653184
I0815 17:35:09.778501 13765 layer_factory.hpp:77] Creating layer relu3_1
I0815 17:35:09.778506 13765 net.cpp:100] Creating Layer relu3_1
I0815 17:35:09.778508 13765 net.cpp:434] relu3_1 <- conv3_1
I0815 17:35:09.778514 13765 net.cpp:395] relu3_1 -> conv3_1 (in-place)
I0815 17:35:09.779919 13765 net.cpp:150] Setting up relu3_1
I0815 17:35:09.779927 13765 net.cpp:157] Top shape: 16 256 72 88 (25952256)
I0815 17:35:09.779932 13765 net.cpp:165] Memory required for data: 3010462208
I0815 17:35:09.779934 13765 layer_factory.hpp:77] Creating layer conv3_2
I0815 17:35:09.779959 13765 net.cpp:100] Creating Layer conv3_2
I0815 17:35:09.779963 13765 net.cpp:434] conv3_2 <- conv3_1
I0815 17:35:09.779966 13765 net.cpp:408] conv3_2 -> conv3_2
I0815 17:35:09.784216 13765 net.cpp:150] Setting up conv3_2
I0815 17:35:09.784227 13765 net.cpp:157] Top shape: 16 256 72 88 (25952256)
I0815 17:35:09.784232 13765 net.cpp:165] Memory required for data: 3114271232
I0815 17:35:09.784238 13765 layer_factory.hpp:77] Creating layer relu3_2
I0815 17:35:09.784245 13765 net.cpp:100] Creating Layer relu3_2
I0815 17:35:09.784247 13765 net.cpp:434] relu3_2 <- conv3_2
I0815 17:35:09.784251 13765 net.cpp:395] relu3_2 -> conv3_2 (in-place)
I0815 17:35:09.784641 13765 net.cpp:150] Setting up relu3_2
I0815 17:35:09.784647 13765 net.cpp:157] Top shape: 16 256 72 88 (25952256)
I0815 17:35:09.784651 13765 net.cpp:165] Memory required for data: 3218080256
I0815 17:35:09.784669 13765 layer_factory.hpp:77] Creating layer conv3_3
I0815 17:35:09.784682 13765 net.cpp:100] Creating Layer conv3_3
I0815 17:35:09.784699 13765 net.cpp:434] conv3_3 <- conv3_2
I0815 17:35:09.784703 13765 net.cpp:408] conv3_3 -> conv3_3
I0815 17:35:09.788954 13765 net.cpp:150] Setting up conv3_3
I0815 17:35:09.788961 13765 net.cpp:157] Top shape: 16 256 72 88 (25952256)
I0815 17:35:09.788965 13765 net.cpp:165] Memory required for data: 3321889280
I0815 17:35:09.788971 13765 layer_factory.hpp:77] Creating layer relu3_3
I0815 17:35:09.788976 13765 net.cpp:100] Creating Layer relu3_3
I0815 17:35:09.788980 13765 net.cpp:434] relu3_3 <- conv3_3
I0815 17:35:09.788983 13765 net.cpp:395] relu3_3 -> conv3_3 (in-place)
I0815 17:35:09.789366 13765 net.cpp:150] Setting up relu3_3
I0815 17:35:09.789373 13765 net.cpp:157] Top shape: 16 256 72 88 (25952256)
I0815 17:35:09.789376 13765 net.cpp:165] Memory required for data: 3425698304
I0815 17:35:09.789379 13765 layer_factory.hpp:77] Creating layer pool3
I0815 17:35:09.789386 13765 net.cpp:100] Creating Layer pool3
I0815 17:35:09.789388 13765 net.cpp:434] pool3 <- conv3_3
I0815 17:35:09.789391 13765 net.cpp:408] pool3 -> pool3
I0815 17:35:09.789440 13765 net.cpp:150] Setting up pool3
I0815 17:35:09.789444 13765 net.cpp:157] Top shape: 16 256 36 44 (6488064)
I0815 17:35:09.789448 13765 net.cpp:165] Memory required for data: 3451650560
I0815 17:35:09.789450 13765 layer_factory.hpp:77] Creating layer conv4_1
I0815 17:35:09.789455 13765 net.cpp:100] Creating Layer conv4_1
I0815 17:35:09.789474 13765 net.cpp:434] conv4_1 <- pool3
I0815 17:35:09.789479 13765 net.cpp:408] conv4_1 -> conv4_1
I0815 17:35:09.797017 13765 net.cpp:150] Setting up conv4_1
I0815 17:35:09.797031 13765 net.cpp:157] Top shape: 16 512 36 44 (12976128)
I0815 17:35:09.797036 13765 net.cpp:165] Memory required for data: 3503555072
I0815 17:35:09.797042 13765 layer_factory.hpp:77] Creating layer relu4_1
I0815 17:35:09.797049 13765 net.cpp:100] Creating Layer relu4_1
I0815 17:35:09.797053 13765 net.cpp:434] relu4_1 <- conv4_1
I0815 17:35:09.797058 13765 net.cpp:395] relu4_1 -> conv4_1 (in-place)
I0815 17:35:09.797569 13765 net.cpp:150] Setting up relu4_1
I0815 17:35:09.797576 13765 net.cpp:157] Top shape: 16 512 36 44 (12976128)
I0815 17:35:09.797580 13765 net.cpp:165] Memory required for data: 3555459584
I0815 17:35:09.797583 13765 layer_factory.hpp:77] Creating layer conv4_2
I0815 17:35:09.797593 13765 net.cpp:100] Creating Layer conv4_2
I0815 17:35:09.797596 13765 net.cpp:434] conv4_2 <- conv4_1
I0815 17:35:09.797600 13765 net.cpp:408] conv4_2 -> conv4_2
I0815 17:35:09.809031 13765 net.cpp:150] Setting up conv4_2
I0815 17:35:09.809046 13765 net.cpp:157] Top shape: 16 512 36 44 (12976128)
I0815 17:35:09.809051 13765 net.cpp:165] Memory required for data: 3607364096
I0815 17:35:09.809062 13765 layer_factory.hpp:77] Creating layer relu4_2
I0815 17:35:09.809067 13765 net.cpp:100] Creating Layer relu4_2
I0815 17:35:09.809072 13765 net.cpp:434] relu4_2 <- conv4_2
I0815 17:35:09.809075 13765 net.cpp:395] relu4_2 -> conv4_2 (in-place)
I0815 17:35:09.809464 13765 net.cpp:150] Setting up relu4_2
I0815 17:35:09.809470 13765 net.cpp:157] Top shape: 16 512 36 44 (12976128)
I0815 17:35:09.809474 13765 net.cpp:165] Memory required for data: 3659268608
I0815 17:35:09.809478 13765 layer_factory.hpp:77] Creating layer conv4_3
I0815 17:35:09.809486 13765 net.cpp:100] Creating Layer conv4_3
I0815 17:35:09.809489 13765 net.cpp:434] conv4_3 <- conv4_2
I0815 17:35:09.809494 13765 net.cpp:408] conv4_3 -> conv4_3
I0815 17:35:09.820902 13765 net.cpp:150] Setting up conv4_3
I0815 17:35:09.820919 13765 net.cpp:157] Top shape: 16 512 36 44 (12976128)
I0815 17:35:09.820924 13765 net.cpp:165] Memory required for data: 3711173120
I0815 17:35:09.820931 13765 layer_factory.hpp:77] Creating layer relu4_3
I0815 17:35:09.820937 13765 net.cpp:100] Creating Layer relu4_3
I0815 17:35:09.820941 13765 net.cpp:434] relu4_3 <- conv4_3
I0815 17:35:09.820947 13765 net.cpp:395] relu4_3 -> conv4_3 (in-place)
I0815 17:35:09.822268 13765 net.cpp:150] Setting up relu4_3
I0815 17:35:09.822289 13765 net.cpp:157] Top shape: 16 512 36 44 (12976128)
I0815 17:35:09.822295 13765 net.cpp:165] Memory required for data: 3763077632
I0815 17:35:09.822299 13765 layer_factory.hpp:77] Creating layer conv4_3_relu4_3_0_split
I0815 17:35:09.822307 13765 net.cpp:100] Creating Layer conv4_3_relu4_3_0_split
I0815 17:35:09.822310 13765 net.cpp:434] conv4_3_relu4_3_0_split <- conv4_3
I0815 17:35:09.822314 13765 net.cpp:408] conv4_3_relu4_3_0_split -> conv4_3_relu4_3_0_split_0
I0815 17:35:09.822319 13765 net.cpp:408] conv4_3_relu4_3_0_split -> conv4_3_relu4_3_0_split_1
I0815 17:35:09.822355 13765 net.cpp:150] Setting up conv4_3_relu4_3_0_split
I0815 17:35:09.822358 13765 net.cpp:157] Top shape: 16 512 36 44 (12976128)
I0815 17:35:09.822362 13765 net.cpp:157] Top shape: 16 512 36 44 (12976128)
I0815 17:35:09.822365 13765 net.cpp:165] Memory required for data: 3866886656
I0815 17:35:09.822367 13765 layer_factory.hpp:77] Creating layer pool4
I0815 17:35:09.822372 13765 net.cpp:100] Creating Layer pool4
I0815 17:35:09.822376 13765 net.cpp:434] pool4 <- conv4_3_relu4_3_0_split_0
I0815 17:35:09.822379 13765 net.cpp:408] pool4 -> pool4
I0815 17:35:09.822408 13765 net.cpp:150] Setting up pool4
I0815 17:35:09.822412 13765 net.cpp:157] Top shape: 16 512 18 22 (3244032)
I0815 17:35:09.822415 13765 net.cpp:165] Memory required for data: 3879862784
I0815 17:35:09.822417 13765 layer_factory.hpp:77] Creating layer conv5_1
I0815 17:35:09.822424 13765 net.cpp:100] Creating Layer conv5_1
I0815 17:35:09.822427 13765 net.cpp:434] conv5_1 <- pool4
I0815 17:35:09.822432 13765 net.cpp:408] conv5_1 -> conv5_1
I0815 17:35:09.834354 13765 net.cpp:150] Setting up conv5_1
I0815 17:35:09.834370 13765 net.cpp:157] Top shape: 16 512 18 22 (3244032)
I0815 17:35:09.834375 13765 net.cpp:165] Memory required for data: 3892838912
I0815 17:35:09.834383 13765 layer_factory.hpp:77] Creating layer relu5_1
I0815 17:35:09.834389 13765 net.cpp:100] Creating Layer relu5_1
I0815 17:35:09.834393 13765 net.cpp:434] relu5_1 <- conv5_1
I0815 17:35:09.834398 13765 net.cpp:395] relu5_1 -> conv5_1 (in-place)
I0815 17:35:09.834775 13765 net.cpp:150] Setting up relu5_1
I0815 17:35:09.834782 13765 net.cpp:157] Top shape: 16 512 18 22 (3244032)
I0815 17:35:09.834786 13765 net.cpp:165] Memory required for data: 3905815040
I0815 17:35:09.834789 13765 layer_factory.hpp:77] Creating layer conv5_2
I0815 17:35:09.834798 13765 net.cpp:100] Creating Layer conv5_2
I0815 17:35:09.834801 13765 net.cpp:434] conv5_2 <- conv5_1
I0815 17:35:09.834807 13765 net.cpp:408] conv5_2 -> conv5_2
I0815 17:35:09.846253 13765 net.cpp:150] Setting up conv5_2
I0815 17:35:09.846271 13765 net.cpp:157] Top shape: 16 512 18 22 (3244032)
I0815 17:35:09.846276 13765 net.cpp:165] Memory required for data: 3918791168
I0815 17:35:09.846282 13765 layer_factory.hpp:77] Creating layer relu5_2
I0815 17:35:09.846288 13765 net.cpp:100] Creating Layer relu5_2
I0815 17:35:09.846292 13765 net.cpp:434] relu5_2 <- conv5_2
I0815 17:35:09.846298 13765 net.cpp:395] relu5_2 -> conv5_2 (in-place)
I0815 17:35:09.846663 13765 net.cpp:150] Setting up relu5_2
I0815 17:35:09.846670 13765 net.cpp:157] Top shape: 16 512 18 22 (3244032)
I0815 17:35:09.846674 13765 net.cpp:165] Memory required for data: 3931767296
I0815 17:35:09.846676 13765 layer_factory.hpp:77] Creating layer conv5_3
I0815 17:35:09.846686 13765 net.cpp:100] Creating Layer conv5_3
I0815 17:35:09.846689 13765 net.cpp:434] conv5_3 <- conv5_2
I0815 17:35:09.846693 13765 net.cpp:408] conv5_3 -> conv5_3
I0815 17:35:09.859663 13765 net.cpp:150] Setting up conv5_3
I0815 17:35:09.859679 13765 net.cpp:157] Top shape: 16 512 18 22 (3244032)
I0815 17:35:09.859685 13765 net.cpp:165] Memory required for data: 3944743424
I0815 17:35:09.859692 13765 layer_factory.hpp:77] Creating layer relu5_3
I0815 17:35:09.859701 13765 net.cpp:100] Creating Layer relu5_3
I0815 17:35:09.859705 13765 net.cpp:434] relu5_3 <- conv5_3
I0815 17:35:09.859710 13765 net.cpp:395] relu5_3 -> conv5_3 (in-place)
I0815 17:35:09.860205 13765 net.cpp:150] Setting up relu5_3
I0815 17:35:09.860224 13765 net.cpp:157] Top shape: 16 512 18 22 (3244032)
I0815 17:35:09.860229 13765 net.cpp:165] Memory required for data: 3957719552
I0815 17:35:09.860232 13765 layer_factory.hpp:77] Creating layer pool5
I0815 17:35:09.860239 13765 net.cpp:100] Creating Layer pool5
I0815 17:35:09.860242 13765 net.cpp:434] pool5 <- conv5_3
I0815 17:35:09.860246 13765 net.cpp:408] pool5 -> pool5
I0815 17:35:09.860285 13765 net.cpp:150] Setting up pool5
I0815 17:35:09.860288 13765 net.cpp:157] Top shape: 16 512 18 22 (3244032)
I0815 17:35:09.860291 13765 net.cpp:165] Memory required for data: 3970695680
I0815 17:35:09.860293 13765 layer_factory.hpp:77] Creating layer fc6
I0815 17:35:09.860302 13765 net.cpp:100] Creating Layer fc6
I0815 17:35:09.860306 13765 net.cpp:434] fc6 <- pool5
I0815 17:35:09.860309 13765 net.cpp:408] fc6 -> fc6
I0815 17:35:09.881620 13765 net.cpp:150] Setting up fc6
I0815 17:35:09.881639 13765 net.cpp:157] Top shape: 16 1024 18 22 (6488064)
I0815 17:35:09.881644 13765 net.cpp:165] Memory required for data: 3996647936
I0815 17:35:09.881650 13765 layer_factory.hpp:77] Creating layer relu6
I0815 17:35:09.881657 13765 net.cpp:100] Creating Layer relu6
I0815 17:35:09.881662 13765 net.cpp:434] relu6 <- fc6
I0815 17:35:09.881666 13765 net.cpp:395] relu6 -> fc6 (in-place)
I0815 17:35:09.882170 13765 net.cpp:150] Setting up relu6
I0815 17:35:09.882179 13765 net.cpp:157] Top shape: 16 1024 18 22 (6488064)
I0815 17:35:09.882182 13765 net.cpp:165] Memory required for data: 4022600192
I0815 17:35:09.882185 13765 layer_factory.hpp:77] Creating layer fc7
I0815 17:35:09.882194 13765 net.cpp:100] Creating Layer fc7
I0815 17:35:09.882197 13765 net.cpp:434] fc7 <- fc6
I0815 17:35:09.882201 13765 net.cpp:408] fc7 -> fc7
I0815 17:35:09.889685 13765 net.cpp:150] Setting up fc7
I0815 17:35:09.889698 13765 net.cpp:157] Top shape: 16 1024 18 22 (6488064)
I0815 17:35:09.889703 13765 net.cpp:165] Memory required for data: 4048552448
I0815 17:35:09.889708 13765 layer_factory.hpp:77] Creating layer relu7
I0815 17:35:09.889714 13765 net.cpp:100] Creating Layer relu7
I0815 17:35:09.889716 13765 net.cpp:434] relu7 <- fc7
I0815 17:35:09.889721 13765 net.cpp:395] relu7 -> fc7 (in-place)
I0815 17:35:09.891837 13765 net.cpp:150] Setting up relu7
I0815 17:35:09.891847 13765 net.cpp:157] Top shape: 16 1024 18 22 (6488064)
I0815 17:35:09.891851 13765 net.cpp:165] Memory required for data: 4074504704
I0815 17:35:09.891855 13765 layer_factory.hpp:77] Creating layer fc7_relu7_0_split
I0815 17:35:09.891863 13765 net.cpp:100] Creating Layer fc7_relu7_0_split
I0815 17:35:09.891867 13765 net.cpp:434] fc7_relu7_0_split <- fc7
I0815 17:35:09.891872 13765 net.cpp:408] fc7_relu7_0_split -> fc7_relu7_0_split_0
I0815 17:35:09.891878 13765 net.cpp:408] fc7_relu7_0_split -> fc7_relu7_0_split_1
I0815 17:35:09.891886 13765 net.cpp:408] fc7_relu7_0_split -> fc7_relu7_0_split_2
I0815 17:35:09.891891 13765 net.cpp:408] fc7_relu7_0_split -> fc7_relu7_0_split_3
I0815 17:35:09.891950 13765 net.cpp:150] Setting up fc7_relu7_0_split
I0815 17:35:09.891954 13765 net.cpp:157] Top shape: 16 1024 18 22 (6488064)
I0815 17:35:09.891958 13765 net.cpp:157] Top shape: 16 1024 18 22 (6488064)
I0815 17:35:09.891961 13765 net.cpp:157] Top shape: 16 1024 18 22 (6488064)
I0815 17:35:09.891963 13765 net.cpp:157] Top shape: 16 1024 18 22 (6488064)
I0815 17:35:09.891966 13765 net.cpp:165] Memory required for data: 4178313728
I0815 17:35:09.891968 13765 layer_factory.hpp:77] Creating layer conv6_1
I0815 17:35:09.891976 13765 net.cpp:100] Creating Layer conv6_1
I0815 17:35:09.891979 13765 net.cpp:434] conv6_1 <- fc7_relu7_0_split_0
I0815 17:35:09.891984 13765 net.cpp:408] conv6_1 -> conv6_1
I0815 17:35:09.894925 13765 net.cpp:150] Setting up conv6_1
I0815 17:35:09.894934 13765 net.cpp:157] Top shape: 16 256 18 22 (1622016)
I0815 17:35:09.894939 13765 net.cpp:165] Memory required for data: 4184801792
I0815 17:35:09.894944 13765 layer_factory.hpp:77] Creating layer conv6_1_relu
I0815 17:35:09.894951 13765 net.cpp:100] Creating Layer conv6_1_relu
I0815 17:35:09.894955 13765 net.cpp:434] conv6_1_relu <- conv6_1
I0815 17:35:09.894973 13765 net.cpp:395] conv6_1_relu -> conv6_1 (in-place)
I0815 17:35:09.895339 13765 net.cpp:150] Setting up conv6_1_relu
I0815 17:35:09.895344 13765 net.cpp:157] Top shape: 16 256 18 22 (1622016)
I0815 17:35:09.895349 13765 net.cpp:165] Memory required for data: 4191289856
I0815 17:35:09.895351 13765 layer_factory.hpp:77] Creating layer conv6_2
I0815 17:35:09.895359 13765 net.cpp:100] Creating Layer conv6_2
I0815 17:35:09.895364 13765 net.cpp:434] conv6_2 <- conv6_1
I0815 17:35:09.895367 13765 net.cpp:408] conv6_2 -> conv6_2
I0815 17:35:09.902411 13765 net.cpp:150] Setting up conv6_2
I0815 17:35:09.902426 13765 net.cpp:157] Top shape: 16 512 9 11 (811008)
I0815 17:35:09.902431 13765 net.cpp:165] Memory required for data: 4194533888
I0815 17:35:09.902441 13765 layer_factory.hpp:77] Creating layer conv6_2_relu
I0815 17:35:09.902447 13765 net.cpp:100] Creating Layer conv6_2_relu
I0815 17:35:09.902452 13765 net.cpp:434] conv6_2_relu <- conv6_2
I0815 17:35:09.902458 13765 net.cpp:395] conv6_2_relu -> conv6_2 (in-place)
I0815 17:35:09.902830 13765 net.cpp:150] Setting up conv6_2_relu
I0815 17:35:09.902837 13765 net.cpp:157] Top shape: 16 512 9 11 (811008)
I0815 17:35:09.902839 13765 net.cpp:165] Memory required for data: 4197777920
I0815 17:35:09.902842 13765 layer_factory.hpp:77] Creating layer conv6_2_conv6_2_relu_0_split
I0815 17:35:09.902848 13765 net.cpp:100] Creating Layer conv6_2_conv6_2_relu_0_split
I0815 17:35:09.902850 13765 net.cpp:434] conv6_2_conv6_2_relu_0_split <- conv6_2
I0815 17:35:09.902855 13765 net.cpp:408] conv6_2_conv6_2_relu_0_split -> conv6_2_conv6_2_relu_0_split_0
I0815 17:35:09.902860 13765 net.cpp:408] conv6_2_conv6_2_relu_0_split -> conv6_2_conv6_2_relu_0_split_1
I0815 17:35:09.902864 13765 net.cpp:408] conv6_2_conv6_2_relu_0_split -> conv6_2_conv6_2_relu_0_split_2
I0815 17:35:09.902868 13765 net.cpp:408] conv6_2_conv6_2_relu_0_split -> conv6_2_conv6_2_relu_0_split_3
I0815 17:35:09.902926 13765 net.cpp:150] Setting up conv6_2_conv6_2_relu_0_split
I0815 17:35:09.902930 13765 net.cpp:157] Top shape: 16 512 9 11 (811008)
I0815 17:35:09.902935 13765 net.cpp:157] Top shape: 16 512 9 11 (811008)
I0815 17:35:09.902936 13765 net.cpp:157] Top shape: 16 512 9 11 (811008)
I0815 17:35:09.902940 13765 net.cpp:157] Top shape: 16 512 9 11 (811008)
I0815 17:35:09.902942 13765 net.cpp:165] Memory required for data: 4210754048
I0815 17:35:09.902945 13765 layer_factory.hpp:77] Creating layer conv7_1
I0815 17:35:09.902951 13765 net.cpp:100] Creating Layer conv7_1
I0815 17:35:09.902953 13765 net.cpp:434] conv7_1 <- conv6_2_conv6_2_relu_0_split_0
I0815 17:35:09.902958 13765 net.cpp:408] conv7_1 -> conv7_1
I0815 17:35:09.906157 13765 net.cpp:150] Setting up conv7_1
I0815 17:35:09.906165 13765 net.cpp:157] Top shape: 16 128 9 11 (202752)
I0815 17:35:09.906169 13765 net.cpp:165] Memory required for data: 4211565056
I0815 17:35:09.906173 13765 layer_factory.hpp:77] Creating layer conv7_1_relu
I0815 17:35:09.906178 13765 net.cpp:100] Creating Layer conv7_1_relu
I0815 17:35:09.906181 13765 net.cpp:434] conv7_1_relu <- conv7_1
I0815 17:35:09.906184 13765 net.cpp:395] conv7_1_relu -> conv7_1 (in-place)
I0815 17:35:09.906548 13765 net.cpp:150] Setting up conv7_1_relu
I0815 17:35:09.906553 13765 net.cpp:157] Top shape: 16 128 9 11 (202752)
I0815 17:35:09.906556 13765 net.cpp:165] Memory required for data: 4212376064
I0815 17:35:09.906559 13765 layer_factory.hpp:77] Creating layer conv7_2
I0815 17:35:09.906569 13765 net.cpp:100] Creating Layer conv7_2
I0815 17:35:09.906571 13765 net.cpp:434] conv7_2 <- conv7_1
I0815 17:35:09.906575 13765 net.cpp:408] conv7_2 -> conv7_2
I0815 17:35:09.909720 13765 net.cpp:150] Setting up conv7_2
I0815 17:35:09.909731 13765 net.cpp:157] Top shape: 16 256 5 6 (122880)
I0815 17:35:09.909736 13765 net.cpp:165] Memory required for data: 4212867584
I0815 17:35:09.909740 13765 layer_factory.hpp:77] Creating layer conv7_2_relu
I0815 17:35:09.909745 13765 net.cpp:100] Creating Layer conv7_2_relu
I0815 17:35:09.909749 13765 net.cpp:434] conv7_2_relu <- conv7_2
I0815 17:35:09.909766 13765 net.cpp:395] conv7_2_relu -> conv7_2 (in-place)
I0815 17:35:09.910127 13765 net.cpp:150] Setting up conv7_2_relu
I0815 17:35:09.910133 13765 net.cpp:157] Top shape: 16 256 5 6 (122880)
I0815 17:35:09.910137 13765 net.cpp:165] Memory required for data: 4213359104
I0815 17:35:09.910140 13765 layer_factory.hpp:77] Creating layer conv7_2_conv7_2_relu_0_split
I0815 17:35:09.910146 13765 net.cpp:100] Creating Layer conv7_2_conv7_2_relu_0_split
I0815 17:35:09.910148 13765 net.cpp:434] conv7_2_conv7_2_relu_0_split <- conv7_2
I0815 17:35:09.910152 13765 net.cpp:408] conv7_2_conv7_2_relu_0_split -> conv7_2_conv7_2_relu_0_split_0
I0815 17:35:09.910157 13765 net.cpp:408] conv7_2_conv7_2_relu_0_split -> conv7_2_conv7_2_relu_0_split_1
I0815 17:35:09.910161 13765 net.cpp:408] conv7_2_conv7_2_relu_0_split -> conv7_2_conv7_2_relu_0_split_2
I0815 17:35:09.910164 13765 net.cpp:408] conv7_2_conv7_2_relu_0_split -> conv7_2_conv7_2_relu_0_split_3
I0815 17:35:09.910223 13765 net.cpp:150] Setting up conv7_2_conv7_2_relu_0_split
I0815 17:35:09.910228 13765 net.cpp:157] Top shape: 16 256 5 6 (122880)
I0815 17:35:09.910230 13765 net.cpp:157] Top shape: 16 256 5 6 (122880)
I0815 17:35:09.910233 13765 net.cpp:157] Top shape: 16 256 5 6 (122880)
I0815 17:35:09.910235 13765 net.cpp:157] Top shape: 16 256 5 6 (122880)
I0815 17:35:09.910238 13765 net.cpp:165] Memory required for data: 4215325184
I0815 17:35:09.910240 13765 layer_factory.hpp:77] Creating layer conv8_1
I0815 17:35:09.910248 13765 net.cpp:100] Creating Layer conv8_1
I0815 17:35:09.910250 13765 net.cpp:434] conv8_1 <- conv7_2_conv7_2_relu_0_split_0
I0815 17:35:09.910254 13765 net.cpp:408] conv8_1 -> conv8_1
I0815 17:35:09.911906 13765 net.cpp:150] Setting up conv8_1
I0815 17:35:09.911913 13765 net.cpp:157] Top shape: 16 128 5 6 (61440)
I0815 17:35:09.911917 13765 net.cpp:165] Memory required for data: 4215570944
I0815 17:35:09.911921 13765 layer_factory.hpp:77] Creating layer conv8_1_relu
I0815 17:35:09.911926 13765 net.cpp:100] Creating Layer conv8_1_relu
I0815 17:35:09.911929 13765 net.cpp:434] conv8_1_relu <- conv8_1
I0815 17:35:09.911932 13765 net.cpp:395] conv8_1_relu -> conv8_1 (in-place)
I0815 17:35:09.913225 13765 net.cpp:150] Setting up conv8_1_relu
I0815 17:35:09.913234 13765 net.cpp:157] Top shape: 16 128 5 6 (61440)
I0815 17:35:09.913239 13765 net.cpp:165] Memory required for data: 4215816704
I0815 17:35:09.913240 13765 layer_factory.hpp:77] Creating layer conv8_2
I0815 17:35:09.913249 13765 net.cpp:100] Creating Layer conv8_2
I0815 17:35:09.913252 13765 net.cpp:434] conv8_2 <- conv8_1
I0815 17:35:09.913257 13765 net.cpp:408] conv8_2 -> conv8_2
I0815 17:35:09.916683 13765 net.cpp:150] Setting up conv8_2
I0815 17:35:09.916694 13765 net.cpp:157] Top shape: 16 256 3 4 (49152)
I0815 17:35:09.916700 13765 net.cpp:165] Memory required for data: 4216013312
I0815 17:35:09.916707 13765 layer_factory.hpp:77] Creating layer conv8_2_relu
I0815 17:35:09.916714 13765 net.cpp:100] Creating Layer conv8_2_relu
I0815 17:35:09.916718 13765 net.cpp:434] conv8_2_relu <- conv8_2
I0815 17:35:09.916724 13765 net.cpp:395] conv8_2_relu -> conv8_2 (in-place)
I0815 17:35:09.917187 13765 net.cpp:150] Setting up conv8_2_relu
I0815 17:35:09.917196 13765 net.cpp:157] Top shape: 16 256 3 4 (49152)
I0815 17:35:09.917198 13765 net.cpp:165] Memory required for data: 4216209920
I0815 17:35:09.917201 13765 layer_factory.hpp:77] Creating layer conv8_2_conv8_2_relu_0_split
I0815 17:35:09.917207 13765 net.cpp:100] Creating Layer conv8_2_conv8_2_relu_0_split
I0815 17:35:09.917210 13765 net.cpp:434] conv8_2_conv8_2_relu_0_split <- conv8_2
I0815 17:35:09.917214 13765 net.cpp:408] conv8_2_conv8_2_relu_0_split -> conv8_2_conv8_2_relu_0_split_0
I0815 17:35:09.917219 13765 net.cpp:408] conv8_2_conv8_2_relu_0_split -> conv8_2_conv8_2_relu_0_split_1
I0815 17:35:09.917223 13765 net.cpp:408] conv8_2_conv8_2_relu_0_split -> conv8_2_conv8_2_relu_0_split_2
I0815 17:35:09.917227 13765 net.cpp:408] conv8_2_conv8_2_relu_0_split -> conv8_2_conv8_2_relu_0_split_3
I0815 17:35:09.917289 13765 net.cpp:150] Setting up conv8_2_conv8_2_relu_0_split
I0815 17:35:09.917304 13765 net.cpp:157] Top shape: 16 256 3 4 (49152)
I0815 17:35:09.917307 13765 net.cpp:157] Top shape: 16 256 3 4 (49152)
I0815 17:35:09.917310 13765 net.cpp:157] Top shape: 16 256 3 4 (49152)
I0815 17:35:09.917312 13765 net.cpp:157] Top shape: 16 256 3 4 (49152)
I0815 17:35:09.917315 13765 net.cpp:165] Memory required for data: 4216996352
I0815 17:35:09.917317 13765 layer_factory.hpp:77] Creating layer conv9_1
I0815 17:35:09.917325 13765 net.cpp:100] Creating Layer conv9_1
I0815 17:35:09.917328 13765 net.cpp:434] conv9_1 <- conv8_2_conv8_2_relu_0_split_0
I0815 17:35:09.917331 13765 net.cpp:408] conv9_1 -> conv9_1
I0815 17:35:09.919035 13765 net.cpp:150] Setting up conv9_1
I0815 17:35:09.919044 13765 net.cpp:157] Top shape: 16 128 3 4 (24576)
I0815 17:35:09.919047 13765 net.cpp:165] Memory required for data: 4217094656
I0815 17:35:09.919052 13765 layer_factory.hpp:77] Creating layer conv9_1_relu
I0815 17:35:09.919056 13765 net.cpp:100] Creating Layer conv9_1_relu
I0815 17:35:09.919059 13765 net.cpp:434] conv9_1_relu <- conv9_1
I0815 17:35:09.919062 13765 net.cpp:395] conv9_1_relu -> conv9_1 (in-place)
I0815 17:35:09.919550 13765 net.cpp:150] Setting up conv9_1_relu
I0815 17:35:09.919558 13765 net.cpp:157] Top shape: 16 128 3 4 (24576)
I0815 17:35:09.919561 13765 net.cpp:165] Memory required for data: 4217192960
I0815 17:35:09.919564 13765 layer_factory.hpp:77] Creating layer conv9_2
I0815 17:35:09.919571 13765 net.cpp:100] Creating Layer conv9_2
I0815 17:35:09.919574 13765 net.cpp:434] conv9_2 <- conv9_1
I0815 17:35:09.919579 13765 net.cpp:408] conv9_2 -> conv9_2
I0815 17:35:09.923523 13765 net.cpp:150] Setting up conv9_2
I0815 17:35:09.923535 13765 net.cpp:157] Top shape: 16 256 1 2 (8192)
I0815 17:35:09.923539 13765 net.cpp:165] Memory required for data: 4217225728
I0815 17:35:09.923544 13765 layer_factory.hpp:77] Creating layer conv9_2_relu
I0815 17:35:09.923550 13765 net.cpp:100] Creating Layer conv9_2_relu
I0815 17:35:09.923554 13765 net.cpp:434] conv9_2_relu <- conv9_2
I0815 17:35:09.923557 13765 net.cpp:395] conv9_2_relu -> conv9_2 (in-place)
I0815 17:35:09.923945 13765 net.cpp:150] Setting up conv9_2_relu
I0815 17:35:09.923952 13765 net.cpp:157] Top shape: 16 256 1 2 (8192)
I0815 17:35:09.923956 13765 net.cpp:165] Memory required for data: 4217258496
I0815 17:35:09.923959 13765 layer_factory.hpp:77] Creating layer conv9_2_conv9_2_relu_0_split
I0815 17:35:09.923966 13765 net.cpp:100] Creating Layer conv9_2_conv9_2_relu_0_split
I0815 17:35:09.923974 13765 net.cpp:434] conv9_2_conv9_2_relu_0_split <- conv9_2
I0815 17:35:09.923979 13765 net.cpp:408] conv9_2_conv9_2_relu_0_split -> conv9_2_conv9_2_relu_0_split_0
I0815 17:35:09.923987 13765 net.cpp:408] conv9_2_conv9_2_relu_0_split -> conv9_2_conv9_2_relu_0_split_1
I0815 17:35:09.923992 13765 net.cpp:408] conv9_2_conv9_2_relu_0_split -> conv9_2_conv9_2_relu_0_split_2
I0815 17:35:09.924046 13765 net.cpp:150] Setting up conv9_2_conv9_2_relu_0_split
I0815 17:35:09.924049 13765 net.cpp:157] Top shape: 16 256 1 2 (8192)
I0815 17:35:09.924052 13765 net.cpp:157] Top shape: 16 256 1 2 (8192)
I0815 17:35:09.924055 13765 net.cpp:157] Top shape: 16 256 1 2 (8192)
I0815 17:35:09.924058 13765 net.cpp:165] Memory required for data: 4217356800
I0815 17:35:09.924060 13765 layer_factory.hpp:77] Creating layer conv4_3_norm
I0815 17:35:09.924065 13765 net.cpp:100] Creating Layer conv4_3_norm
I0815 17:35:09.924068 13765 net.cpp:434] conv4_3_norm <- conv4_3_relu4_3_0_split_1
I0815 17:35:09.924074 13765 net.cpp:408] conv4_3_norm -> conv4_3_norm
I0815 17:35:09.924229 13765 net.cpp:150] Setting up conv4_3_norm
I0815 17:35:09.924233 13765 net.cpp:157] Top shape: 16 512 36 44 (12976128)
I0815 17:35:09.924237 13765 net.cpp:165] Memory required for data: 4269261312
I0815 17:35:09.924240 13765 layer_factory.hpp:77] Creating layer conv4_3_norm_conv4_3_norm_0_split
I0815 17:35:09.924245 13765 net.cpp:100] Creating Layer conv4_3_norm_conv4_3_norm_0_split
I0815 17:35:09.924247 13765 net.cpp:434] conv4_3_norm_conv4_3_norm_0_split <- conv4_3_norm
I0815 17:35:09.924264 13765 net.cpp:408] conv4_3_norm_conv4_3_norm_0_split -> conv4_3_norm_conv4_3_norm_0_split_0
I0815 17:35:09.924269 13765 net.cpp:408] conv4_3_norm_conv4_3_norm_0_split -> conv4_3_norm_conv4_3_norm_0_split_1
I0815 17:35:09.924274 13765 net.cpp:408] conv4_3_norm_conv4_3_norm_0_split -> conv4_3_norm_conv4_3_norm_0_split_2
I0815 17:35:09.924319 13765 net.cpp:150] Setting up conv4_3_norm_conv4_3_norm_0_split
I0815 17:35:09.924322 13765 net.cpp:157] Top shape: 16 512 36 44 (12976128)
I0815 17:35:09.924326 13765 net.cpp:157] Top shape: 16 512 36 44 (12976128)
I0815 17:35:09.924329 13765 net.cpp:157] Top shape: 16 512 36 44 (12976128)
I0815 17:35:09.924331 13765 net.cpp:165] Memory required for data: 4424974848
I0815 17:35:09.924333 13765 layer_factory.hpp:77] Creating layer conv4_3_norm_mbox_loc
I0815 17:35:09.924343 13765 net.cpp:100] Creating Layer conv4_3_norm_mbox_loc
I0815 17:35:09.924346 13765 net.cpp:434] conv4_3_norm_mbox_loc <- conv4_3_norm_conv4_3_norm_0_split_0
I0815 17:35:09.924350 13765 net.cpp:408] conv4_3_norm_mbox_loc -> conv4_3_norm_mbox_loc
I0815 17:35:09.926488 13765 net.cpp:150] Setting up conv4_3_norm_mbox_loc
I0815 17:35:09.926496 13765 net.cpp:157] Top shape: 16 16 36 44 (405504)
I0815 17:35:09.926501 13765 net.cpp:165] Memory required for data: 4426596864
I0815 17:35:09.926506 13765 layer_factory.hpp:77] Creating layer conv4_3_norm_mbox_loc_perm
I0815 17:35:09.926512 13765 net.cpp:100] Creating Layer conv4_3_norm_mbox_loc_perm
I0815 17:35:09.926515 13765 net.cpp:434] conv4_3_norm_mbox_loc_perm <- conv4_3_norm_mbox_loc
I0815 17:35:09.926519 13765 net.cpp:408] conv4_3_norm_mbox_loc_perm -> conv4_3_norm_mbox_loc_perm
I0815 17:35:09.926623 13765 net.cpp:150] Setting up conv4_3_norm_mbox_loc_perm
I0815 17:35:09.926628 13765 net.cpp:157] Top shape: 16 36 44 16 (405504)
I0815 17:35:09.926631 13765 net.cpp:165] Memory required for data: 4428218880
I0815 17:35:09.926633 13765 layer_factory.hpp:77] Creating layer conv4_3_norm_mbox_loc_flat
I0815 17:35:09.926637 13765 net.cpp:100] Creating Layer conv4_3_norm_mbox_loc_flat
I0815 17:35:09.926641 13765 net.cpp:434] conv4_3_norm_mbox_loc_flat <- conv4_3_norm_mbox_loc_perm
I0815 17:35:09.926645 13765 net.cpp:408] conv4_3_norm_mbox_loc_flat -> conv4_3_norm_mbox_loc_flat
I0815 17:35:09.926671 13765 net.cpp:150] Setting up conv4_3_norm_mbox_loc_flat
I0815 17:35:09.926674 13765 net.cpp:157] Top shape: 16 25344 (405504)
I0815 17:35:09.926677 13765 net.cpp:165] Memory required for data: 4429840896
I0815 17:35:09.926679 13765 layer_factory.hpp:77] Creating layer conv4_3_norm_mbox_conf
I0815 17:35:09.926690 13765 net.cpp:100] Creating Layer conv4_3_norm_mbox_conf
I0815 17:35:09.926693 13765 net.cpp:434] conv4_3_norm_mbox_conf <- conv4_3_norm_conv4_3_norm_0_split_1
I0815 17:35:09.926697 13765 net.cpp:408] conv4_3_norm_mbox_conf -> conv4_3_norm_mbox_conf
I0815 17:35:09.928531 13765 net.cpp:150] Setting up conv4_3_norm_mbox_conf
I0815 17:35:09.928539 13765 net.cpp:157] Top shape: 16 8 36 44 (202752)
I0815 17:35:09.928544 13765 net.cpp:165] Memory required for data: 4430651904
I0815 17:35:09.928550 13765 layer_factory.hpp:77] Creating layer conv4_3_norm_mbox_conf_perm
I0815 17:35:09.928555 13765 net.cpp:100] Creating Layer conv4_3_norm_mbox_conf_perm
I0815 17:35:09.928560 13765 net.cpp:434] conv4_3_norm_mbox_conf_perm <- conv4_3_norm_mbox_conf
I0815 17:35:09.928563 13765 net.cpp:408] conv4_3_norm_mbox_conf_perm -> conv4_3_norm_mbox_conf_perm
I0815 17:35:09.928661 13765 net.cpp:150] Setting up conv4_3_norm_mbox_conf_perm
I0815 17:35:09.928665 13765 net.cpp:157] Top shape: 16 36 44 8 (202752)
I0815 17:35:09.928669 13765 net.cpp:165] Memory required for data: 4431462912
I0815 17:35:09.928671 13765 layer_factory.hpp:77] Creating layer conv4_3_norm_mbox_conf_flat
I0815 17:35:09.928675 13765 net.cpp:100] Creating Layer conv4_3_norm_mbox_conf_flat
I0815 17:35:09.928678 13765 net.cpp:434] conv4_3_norm_mbox_conf_flat <- conv4_3_norm_mbox_conf_perm
I0815 17:35:09.928681 13765 net.cpp:408] conv4_3_norm_mbox_conf_flat -> conv4_3_norm_mbox_conf_flat
I0815 17:35:09.928701 13765 net.cpp:150] Setting up conv4_3_norm_mbox_conf_flat
I0815 17:35:09.928714 13765 net.cpp:157] Top shape: 16 12672 (202752)
I0815 17:35:09.928716 13765 net.cpp:165] Memory required for data: 4432273920
I0815 17:35:09.928719 13765 layer_factory.hpp:77] Creating layer conv4_3_norm_mbox_priorbox
I0815 17:35:09.928723 13765 net.cpp:100] Creating Layer conv4_3_norm_mbox_priorbox
I0815 17:35:09.928726 13765 net.cpp:434] conv4_3_norm_mbox_priorbox <- conv4_3_norm_conv4_3_norm_0_split_2
I0815 17:35:09.928730 13765 net.cpp:434] conv4_3_norm_mbox_priorbox <- data_data_0_split_1
I0815 17:35:09.928733 13765 net.cpp:408] conv4_3_norm_mbox_priorbox -> conv4_3_norm_mbox_priorbox
I0815 17:35:09.928758 13765 net.cpp:150] Setting up conv4_3_norm_mbox_priorbox
I0815 17:35:09.928762 13765 net.cpp:157] Top shape: 1 2 25344 (50688)
I0815 17:35:09.928766 13765 net.cpp:165] Memory required for data: 4432476672
I0815 17:35:09.928767 13765 layer_factory.hpp:77] Creating layer fc7_mbox_loc
I0815 17:35:09.928773 13765 net.cpp:100] Creating Layer fc7_mbox_loc
I0815 17:35:09.928776 13765 net.cpp:434] fc7_mbox_loc <- fc7_relu7_0_split_1
I0815 17:35:09.928781 13765 net.cpp:408] fc7_mbox_loc -> fc7_mbox_loc
I0815 17:35:09.932090 13765 net.cpp:150] Setting up fc7_mbox_loc
I0815 17:35:09.932101 13765 net.cpp:157] Top shape: 16 24 18 22 (152064)
I0815 17:35:09.932104 13765 net.cpp:165] Memory required for data: 4433084928
I0815 17:35:09.932111 13765 layer_factory.hpp:77] Creating layer fc7_mbox_loc_perm
I0815 17:35:09.932117 13765 net.cpp:100] Creating Layer fc7_mbox_loc_perm
I0815 17:35:09.932121 13765 net.cpp:434] fc7_mbox_loc_perm <- fc7_mbox_loc
I0815 17:35:09.932126 13765 net.cpp:408] fc7_mbox_loc_perm -> fc7_mbox_loc_perm
I0815 17:35:09.932226 13765 net.cpp:150] Setting up fc7_mbox_loc_perm
I0815 17:35:09.932230 13765 net.cpp:157] Top shape: 16 18 22 24 (152064)
I0815 17:35:09.932235 13765 net.cpp:165] Memory required for data: 4433693184
I0815 17:35:09.932236 13765 layer_factory.hpp:77] Creating layer fc7_mbox_loc_flat
I0815 17:35:09.932240 13765 net.cpp:100] Creating Layer fc7_mbox_loc_flat
I0815 17:35:09.932243 13765 net.cpp:434] fc7_mbox_loc_flat <- fc7_mbox_loc_perm
I0815 17:35:09.932247 13765 net.cpp:408] fc7_mbox_loc_flat -> fc7_mbox_loc_flat
I0815 17:35:09.932268 13765 net.cpp:150] Setting up fc7_mbox_loc_flat
I0815 17:35:09.932272 13765 net.cpp:157] Top shape: 16 9504 (152064)
I0815 17:35:09.932276 13765 net.cpp:165] Memory required for data: 4434301440
I0815 17:35:09.932277 13765 layer_factory.hpp:77] Creating layer fc7_mbox_conf
I0815 17:35:09.932283 13765 net.cpp:100] Creating Layer fc7_mbox_conf
I0815 17:35:09.932287 13765 net.cpp:434] fc7_mbox_conf <- fc7_relu7_0_split_2
I0815 17:35:09.932292 13765 net.cpp:408] fc7_mbox_conf -> fc7_mbox_conf
I0815 17:35:09.934396 13765 net.cpp:150] Setting up fc7_mbox_conf
I0815 17:35:09.934404 13765 net.cpp:157] Top shape: 16 12 18 22 (76032)
I0815 17:35:09.934408 13765 net.cpp:165] Memory required for data: 4434605568
I0815 17:35:09.934413 13765 layer_factory.hpp:77] Creating layer fc7_mbox_conf_perm
I0815 17:35:09.934419 13765 net.cpp:100] Creating Layer fc7_mbox_conf_perm
I0815 17:35:09.934422 13765 net.cpp:434] fc7_mbox_conf_perm <- fc7_mbox_conf
I0815 17:35:09.934427 13765 net.cpp:408] fc7_mbox_conf_perm -> fc7_mbox_conf_perm
I0815 17:35:09.934526 13765 net.cpp:150] Setting up fc7_mbox_conf_perm
I0815 17:35:09.934530 13765 net.cpp:157] Top shape: 16 18 22 12 (76032)
I0815 17:35:09.934533 13765 net.cpp:165] Memory required for data: 4434909696
I0815 17:35:09.934536 13765 layer_factory.hpp:77] Creating layer fc7_mbox_conf_flat
I0815 17:35:09.934540 13765 net.cpp:100] Creating Layer fc7_mbox_conf_flat
I0815 17:35:09.934543 13765 net.cpp:434] fc7_mbox_conf_flat <- fc7_mbox_conf_perm
I0815 17:35:09.934546 13765 net.cpp:408] fc7_mbox_conf_flat -> fc7_mbox_conf_flat
I0815 17:35:09.934567 13765 net.cpp:150] Setting up fc7_mbox_conf_flat
I0815 17:35:09.934571 13765 net.cpp:157] Top shape: 16 4752 (76032)
I0815 17:35:09.934574 13765 net.cpp:165] Memory required for data: 4435213824
I0815 17:35:09.934576 13765 layer_factory.hpp:77] Creating layer fc7_mbox_priorbox
I0815 17:35:09.934592 13765 net.cpp:100] Creating Layer fc7_mbox_priorbox
I0815 17:35:09.934595 13765 net.cpp:434] fc7_mbox_priorbox <- fc7_relu7_0_split_3
I0815 17:35:09.934598 13765 net.cpp:434] fc7_mbox_priorbox <- data_data_0_split_2
I0815 17:35:09.934603 13765 net.cpp:408] fc7_mbox_priorbox -> fc7_mbox_priorbox
I0815 17:35:09.934628 13765 net.cpp:150] Setting up fc7_mbox_priorbox
I0815 17:35:09.934631 13765 net.cpp:157] Top shape: 1 2 9504 (19008)
I0815 17:35:09.934634 13765 net.cpp:165] Memory required for data: 4435289856
I0815 17:35:09.934636 13765 layer_factory.hpp:77] Creating layer conv6_2_mbox_loc
I0815 17:35:09.934643 13765 net.cpp:100] Creating Layer conv6_2_mbox_loc
I0815 17:35:09.934645 13765 net.cpp:434] conv6_2_mbox_loc <- conv6_2_conv6_2_relu_0_split_1
I0815 17:35:09.934649 13765 net.cpp:408] conv6_2_mbox_loc -> conv6_2_mbox_loc
I0815 17:35:09.936738 13765 net.cpp:150] Setting up conv6_2_mbox_loc
I0815 17:35:09.936746 13765 net.cpp:157] Top shape: 16 24 9 11 (38016)
I0815 17:35:09.936751 13765 net.cpp:165] Memory required for data: 4435441920
I0815 17:35:09.936755 13765 layer_factory.hpp:77] Creating layer conv6_2_mbox_loc_perm
I0815 17:35:09.936761 13765 net.cpp:100] Creating Layer conv6_2_mbox_loc_perm
I0815 17:35:09.936765 13765 net.cpp:434] conv6_2_mbox_loc_perm <- conv6_2_mbox_loc
I0815 17:35:09.936769 13765 net.cpp:408] conv6_2_mbox_loc_perm -> conv6_2_mbox_loc_perm
I0815 17:35:09.936869 13765 net.cpp:150] Setting up conv6_2_mbox_loc_perm
I0815 17:35:09.936873 13765 net.cpp:157] Top shape: 16 9 11 24 (38016)
I0815 17:35:09.936877 13765 net.cpp:165] Memory required for data: 4435593984
I0815 17:35:09.936878 13765 layer_factory.hpp:77] Creating layer conv6_2_mbox_loc_flat
I0815 17:35:09.936882 13765 net.cpp:100] Creating Layer conv6_2_mbox_loc_flat
I0815 17:35:09.936885 13765 net.cpp:434] conv6_2_mbox_loc_flat <- conv6_2_mbox_loc_perm
I0815 17:35:09.936889 13765 net.cpp:408] conv6_2_mbox_loc_flat -> conv6_2_mbox_loc_flat
I0815 17:35:09.936909 13765 net.cpp:150] Setting up conv6_2_mbox_loc_flat
I0815 17:35:09.936913 13765 net.cpp:157] Top shape: 16 2376 (38016)
I0815 17:35:09.936915 13765 net.cpp:165] Memory required for data: 4435746048
I0815 17:35:09.936918 13765 layer_factory.hpp:77] Creating layer conv6_2_mbox_conf
I0815 17:35:09.936925 13765 net.cpp:100] Creating Layer conv6_2_mbox_conf
I0815 17:35:09.936928 13765 net.cpp:434] conv6_2_mbox_conf <- conv6_2_conv6_2_relu_0_split_2
I0815 17:35:09.936933 13765 net.cpp:408] conv6_2_mbox_conf -> conv6_2_mbox_conf
I0815 17:35:09.939712 13765 net.cpp:150] Setting up conv6_2_mbox_conf
I0815 17:35:09.939720 13765 net.cpp:157] Top shape: 16 12 9 11 (19008)
I0815 17:35:09.939724 13765 net.cpp:165] Memory required for data: 4435822080
I0815 17:35:09.939729 13765 layer_factory.hpp:77] Creating layer conv6_2_mbox_conf_perm
I0815 17:35:09.939733 13765 net.cpp:100] Creating Layer conv6_2_mbox_conf_perm
I0815 17:35:09.939736 13765 net.cpp:434] conv6_2_mbox_conf_perm <- conv6_2_mbox_conf
I0815 17:35:09.939741 13765 net.cpp:408] conv6_2_mbox_conf_perm -> conv6_2_mbox_conf_perm
I0815 17:35:09.939842 13765 net.cpp:150] Setting up conv6_2_mbox_conf_perm
I0815 17:35:09.939846 13765 net.cpp:157] Top shape: 16 9 11 12 (19008)
I0815 17:35:09.939849 13765 net.cpp:165] Memory required for data: 4435898112
I0815 17:35:09.939852 13765 layer_factory.hpp:77] Creating layer conv6_2_mbox_conf_flat
I0815 17:35:09.939855 13765 net.cpp:100] Creating Layer conv6_2_mbox_conf_flat
I0815 17:35:09.939858 13765 net.cpp:434] conv6_2_mbox_conf_flat <- conv6_2_mbox_conf_perm
I0815 17:35:09.939862 13765 net.cpp:408] conv6_2_mbox_conf_flat -> conv6_2_mbox_conf_flat
I0815 17:35:09.939882 13765 net.cpp:150] Setting up conv6_2_mbox_conf_flat
I0815 17:35:09.939887 13765 net.cpp:157] Top shape: 16 1188 (19008)
I0815 17:35:09.939889 13765 net.cpp:165] Memory required for data: 4435974144
I0815 17:35:09.939891 13765 layer_factory.hpp:77] Creating layer conv6_2_mbox_priorbox
I0815 17:35:09.939896 13765 net.cpp:100] Creating Layer conv6_2_mbox_priorbox
I0815 17:35:09.939910 13765 net.cpp:434] conv6_2_mbox_priorbox <- conv6_2_conv6_2_relu_0_split_3
I0815 17:35:09.939913 13765 net.cpp:434] conv6_2_mbox_priorbox <- data_data_0_split_3
I0815 17:35:09.939918 13765 net.cpp:408] conv6_2_mbox_priorbox -> conv6_2_mbox_priorbox
I0815 17:35:09.939941 13765 net.cpp:150] Setting up conv6_2_mbox_priorbox
I0815 17:35:09.939944 13765 net.cpp:157] Top shape: 1 2 2376 (4752)
I0815 17:35:09.939947 13765 net.cpp:165] Memory required for data: 4435993152
I0815 17:35:09.939949 13765 layer_factory.hpp:77] Creating layer conv7_2_mbox_loc
I0815 17:35:09.939957 13765 net.cpp:100] Creating Layer conv7_2_mbox_loc
I0815 17:35:09.939961 13765 net.cpp:434] conv7_2_mbox_loc <- conv7_2_conv7_2_relu_0_split_1
I0815 17:35:09.939965 13765 net.cpp:408] conv7_2_mbox_loc -> conv7_2_mbox_loc
I0815 17:35:09.941867 13765 net.cpp:150] Setting up conv7_2_mbox_loc
I0815 17:35:09.941874 13765 net.cpp:157] Top shape: 16 24 5 6 (11520)
I0815 17:35:09.941879 13765 net.cpp:165] Memory required for data: 4436039232
I0815 17:35:09.941884 13765 layer_factory.hpp:77] Creating layer conv7_2_mbox_loc_perm
I0815 17:35:09.941890 13765 net.cpp:100] Creating Layer conv7_2_mbox_loc_perm
I0815 17:35:09.941892 13765 net.cpp:434] conv7_2_mbox_loc_perm <- conv7_2_mbox_loc
I0815 17:35:09.941895 13765 net.cpp:408] conv7_2_mbox_loc_perm -> conv7_2_mbox_loc_perm
I0815 17:35:09.941996 13765 net.cpp:150] Setting up conv7_2_mbox_loc_perm
I0815 17:35:09.942000 13765 net.cpp:157] Top shape: 16 5 6 24 (11520)
I0815 17:35:09.942004 13765 net.cpp:165] Memory required for data: 4436085312
I0815 17:35:09.942006 13765 layer_factory.hpp:77] Creating layer conv7_2_mbox_loc_flat
I0815 17:35:09.942010 13765 net.cpp:100] Creating Layer conv7_2_mbox_loc_flat
I0815 17:35:09.942013 13765 net.cpp:434] conv7_2_mbox_loc_flat <- conv7_2_mbox_loc_perm
I0815 17:35:09.942018 13765 net.cpp:408] conv7_2_mbox_loc_flat -> conv7_2_mbox_loc_flat
I0815 17:35:09.942036 13765 net.cpp:150] Setting up conv7_2_mbox_loc_flat
I0815 17:35:09.942039 13765 net.cpp:157] Top shape: 16 720 (11520)
I0815 17:35:09.942042 13765 net.cpp:165] Memory required for data: 4436131392
I0815 17:35:09.942044 13765 layer_factory.hpp:77] Creating layer conv7_2_mbox_conf
I0815 17:35:09.942051 13765 net.cpp:100] Creating Layer conv7_2_mbox_conf
I0815 17:35:09.942055 13765 net.cpp:434] conv7_2_mbox_conf <- conv7_2_conv7_2_relu_0_split_2
I0815 17:35:09.942059 13765 net.cpp:408] conv7_2_mbox_conf -> conv7_2_mbox_conf
I0815 17:35:09.943747 13765 net.cpp:150] Setting up conv7_2_mbox_conf
I0815 17:35:09.943755 13765 net.cpp:157] Top shape: 16 12 5 6 (5760)
I0815 17:35:09.943759 13765 net.cpp:165] Memory required for data: 4436154432
I0815 17:35:09.943763 13765 layer_factory.hpp:77] Creating layer conv7_2_mbox_conf_perm
I0815 17:35:09.943768 13765 net.cpp:100] Creating Layer conv7_2_mbox_conf_perm
I0815 17:35:09.943771 13765 net.cpp:434] conv7_2_mbox_conf_perm <- conv7_2_mbox_conf
I0815 17:35:09.943775 13765 net.cpp:408] conv7_2_mbox_conf_perm -> conv7_2_mbox_conf_perm
I0815 17:35:09.943873 13765 net.cpp:150] Setting up conv7_2_mbox_conf_perm
I0815 17:35:09.943878 13765 net.cpp:157] Top shape: 16 5 6 12 (5760)
I0815 17:35:09.943881 13765 net.cpp:165] Memory required for data: 4436177472
I0815 17:35:09.943883 13765 layer_factory.hpp:77] Creating layer conv7_2_mbox_conf_flat
I0815 17:35:09.943888 13765 net.cpp:100] Creating Layer conv7_2_mbox_conf_flat
I0815 17:35:09.943890 13765 net.cpp:434] conv7_2_mbox_conf_flat <- conv7_2_mbox_conf_perm
I0815 17:35:09.943894 13765 net.cpp:408] conv7_2_mbox_conf_flat -> conv7_2_mbox_conf_flat
I0815 17:35:09.943915 13765 net.cpp:150] Setting up conv7_2_mbox_conf_flat
I0815 17:35:09.943918 13765 net.cpp:157] Top shape: 16 360 (5760)
I0815 17:35:09.943922 13765 net.cpp:165] Memory required for data: 4436200512
I0815 17:35:09.943923 13765 layer_factory.hpp:77] Creating layer conv7_2_mbox_priorbox
I0815 17:35:09.943928 13765 net.cpp:100] Creating Layer conv7_2_mbox_priorbox
I0815 17:35:09.943933 13765 net.cpp:434] conv7_2_mbox_priorbox <- conv7_2_conv7_2_relu_0_split_3
I0815 17:35:09.943945 13765 net.cpp:434] conv7_2_mbox_priorbox <- data_data_0_split_4
I0815 17:35:09.943949 13765 net.cpp:408] conv7_2_mbox_priorbox -> conv7_2_mbox_priorbox
I0815 17:35:09.943971 13765 net.cpp:150] Setting up conv7_2_mbox_priorbox
I0815 17:35:09.943974 13765 net.cpp:157] Top shape: 1 2 720 (1440)
I0815 17:35:09.943977 13765 net.cpp:165] Memory required for data: 4436206272
I0815 17:35:09.943980 13765 layer_factory.hpp:77] Creating layer conv8_2_mbox_loc
I0815 17:35:09.943987 13765 net.cpp:100] Creating Layer conv8_2_mbox_loc
I0815 17:35:09.943990 13765 net.cpp:434] conv8_2_mbox_loc <- conv8_2_conv8_2_relu_0_split_1
I0815 17:35:09.943994 13765 net.cpp:408] conv8_2_mbox_loc -> conv8_2_mbox_loc
I0815 17:35:09.945698 13765 net.cpp:150] Setting up conv8_2_mbox_loc
I0815 17:35:09.945704 13765 net.cpp:157] Top shape: 16 16 3 4 (3072)
I0815 17:35:09.945709 13765 net.cpp:165] Memory required for data: 4436218560
I0815 17:35:09.945719 13765 layer_factory.hpp:77] Creating layer conv8_2_mbox_loc_perm
I0815 17:35:09.945729 13765 net.cpp:100] Creating Layer conv8_2_mbox_loc_perm
I0815 17:35:09.945735 13765 net.cpp:434] conv8_2_mbox_loc_perm <- conv8_2_mbox_loc
I0815 17:35:09.945742 13765 net.cpp:408] conv8_2_mbox_loc_perm -> conv8_2_mbox_loc_perm
I0815 17:35:09.945842 13765 net.cpp:150] Setting up conv8_2_mbox_loc_perm
I0815 17:35:09.945847 13765 net.cpp:157] Top shape: 16 3 4 16 (3072)
I0815 17:35:09.945850 13765 net.cpp:165] Memory required for data: 4436230848
I0815 17:35:09.945852 13765 layer_factory.hpp:77] Creating layer conv8_2_mbox_loc_flat
I0815 17:35:09.945858 13765 net.cpp:100] Creating Layer conv8_2_mbox_loc_flat
I0815 17:35:09.945860 13765 net.cpp:434] conv8_2_mbox_loc_flat <- conv8_2_mbox_loc_perm
I0815 17:35:09.945863 13765 net.cpp:408] conv8_2_mbox_loc_flat -> conv8_2_mbox_loc_flat
I0815 17:35:09.945885 13765 net.cpp:150] Setting up conv8_2_mbox_loc_flat
I0815 17:35:09.945888 13765 net.cpp:157] Top shape: 16 192 (3072)
I0815 17:35:09.945891 13765 net.cpp:165] Memory required for data: 4436243136
I0815 17:35:09.945894 13765 layer_factory.hpp:77] Creating layer conv8_2_mbox_conf
I0815 17:35:09.945900 13765 net.cpp:100] Creating Layer conv8_2_mbox_conf
I0815 17:35:09.945904 13765 net.cpp:434] conv8_2_mbox_conf <- conv8_2_conv8_2_relu_0_split_2
I0815 17:35:09.945909 13765 net.cpp:408] conv8_2_mbox_conf -> conv8_2_mbox_conf
I0815 17:35:09.948709 13765 net.cpp:150] Setting up conv8_2_mbox_conf
I0815 17:35:09.948722 13765 net.cpp:157] Top shape: 16 8 3 4 (1536)
I0815 17:35:09.948729 13765 net.cpp:165] Memory required for data: 4436249280
I0815 17:35:09.948736 13765 layer_factory.hpp:77] Creating layer conv8_2_mbox_conf_perm
I0815 17:35:09.948745 13765 net.cpp:100] Creating Layer conv8_2_mbox_conf_perm
I0815 17:35:09.948750 13765 net.cpp:434] conv8_2_mbox_conf_perm <- conv8_2_mbox_conf
I0815 17:35:09.948758 13765 net.cpp:408] conv8_2_mbox_conf_perm -> conv8_2_mbox_conf_perm
I0815 17:35:09.948915 13765 net.cpp:150] Setting up conv8_2_mbox_conf_perm
I0815 17:35:09.948921 13765 net.cpp:157] Top shape: 16 3 4 8 (1536)
I0815 17:35:09.948926 13765 net.cpp:165] Memory required for data: 4436255424
I0815 17:35:09.948930 13765 layer_factory.hpp:77] Creating layer conv8_2_mbox_conf_flat
I0815 17:35:09.948936 13765 net.cpp:100] Creating Layer conv8_2_mbox_conf_flat
I0815 17:35:09.948941 13765 net.cpp:434] conv8_2_mbox_conf_flat <- conv8_2_mbox_conf_perm
I0815 17:35:09.948946 13765 net.cpp:408] conv8_2_mbox_conf_flat -> conv8_2_mbox_conf_flat
I0815 17:35:09.948977 13765 net.cpp:150] Setting up conv8_2_mbox_conf_flat
I0815 17:35:09.948982 13765 net.cpp:157] Top shape: 16 96 (1536)
I0815 17:35:09.948988 13765 net.cpp:165] Memory required for data: 4436261568
I0815 17:35:09.948992 13765 layer_factory.hpp:77] Creating layer conv8_2_mbox_priorbox
I0815 17:35:09.949000 13765 net.cpp:100] Creating Layer conv8_2_mbox_priorbox
I0815 17:35:09.949005 13765 net.cpp:434] conv8_2_mbox_priorbox <- conv8_2_conv8_2_relu_0_split_3
I0815 17:35:09.949010 13765 net.cpp:434] conv8_2_mbox_priorbox <- data_data_0_split_5
I0815 17:35:09.949018 13765 net.cpp:408] conv8_2_mbox_priorbox -> conv8_2_mbox_priorbox
I0815 17:35:09.949062 13765 net.cpp:150] Setting up conv8_2_mbox_priorbox
I0815 17:35:09.949069 13765 net.cpp:157] Top shape: 1 2 192 (384)
I0815 17:35:09.949074 13765 net.cpp:165] Memory required for data: 4436263104
I0815 17:35:09.949076 13765 layer_factory.hpp:77] Creating layer conv9_2_mbox_loc
I0815 17:35:09.949090 13765 net.cpp:100] Creating Layer conv9_2_mbox_loc
I0815 17:35:09.949095 13765 net.cpp:434] conv9_2_mbox_loc <- conv9_2_conv9_2_relu_0_split_0
I0815 17:35:09.949100 13765 net.cpp:408] conv9_2_mbox_loc -> conv9_2_mbox_loc
I0815 17:35:09.950971 13765 net.cpp:150] Setting up conv9_2_mbox_loc
I0815 17:35:09.950979 13765 net.cpp:157] Top shape: 16 16 1 2 (512)
I0815 17:35:09.950984 13765 net.cpp:165] Memory required for data: 4436265152
I0815 17:35:09.950987 13765 layer_factory.hpp:77] Creating layer conv9_2_mbox_loc_perm
I0815 17:35:09.950992 13765 net.cpp:100] Creating Layer conv9_2_mbox_loc_perm
I0815 17:35:09.950996 13765 net.cpp:434] conv9_2_mbox_loc_perm <- conv9_2_mbox_loc
I0815 17:35:09.951001 13765 net.cpp:408] conv9_2_mbox_loc_perm -> conv9_2_mbox_loc_perm
I0815 17:35:09.951103 13765 net.cpp:150] Setting up conv9_2_mbox_loc_perm
I0815 17:35:09.951107 13765 net.cpp:157] Top shape: 16 1 2 16 (512)
I0815 17:35:09.951110 13765 net.cpp:165] Memory required for data: 4436267200
I0815 17:35:09.951112 13765 layer_factory.hpp:77] Creating layer conv9_2_mbox_loc_flat
I0815 17:35:09.951117 13765 net.cpp:100] Creating Layer conv9_2_mbox_loc_flat
I0815 17:35:09.951119 13765 net.cpp:434] conv9_2_mbox_loc_flat <- conv9_2_mbox_loc_perm
I0815 17:35:09.951123 13765 net.cpp:408] conv9_2_mbox_loc_flat -> conv9_2_mbox_loc_flat
I0815 17:35:09.951143 13765 net.cpp:150] Setting up conv9_2_mbox_loc_flat
I0815 17:35:09.951146 13765 net.cpp:157] Top shape: 16 32 (512)
I0815 17:35:09.951149 13765 net.cpp:165] Memory required for data: 4436269248
I0815 17:35:09.951151 13765 layer_factory.hpp:77] Creating layer conv9_2_mbox_conf
I0815 17:35:09.951159 13765 net.cpp:100] Creating Layer conv9_2_mbox_conf
I0815 17:35:09.951162 13765 net.cpp:434] conv9_2_mbox_conf <- conv9_2_conv9_2_relu_0_split_1
I0815 17:35:09.951166 13765 net.cpp:408] conv9_2_mbox_conf -> conv9_2_mbox_conf
I0815 17:35:09.952841 13765 net.cpp:150] Setting up conv9_2_mbox_conf
I0815 17:35:09.952849 13765 net.cpp:157] Top shape: 16 8 1 2 (256)
I0815 17:35:09.952854 13765 net.cpp:165] Memory required for data: 4436270272
I0815 17:35:09.952858 13765 layer_factory.hpp:77] Creating layer conv9_2_mbox_conf_perm
I0815 17:35:09.952863 13765 net.cpp:100] Creating Layer conv9_2_mbox_conf_perm
I0815 17:35:09.952867 13765 net.cpp:434] conv9_2_mbox_conf_perm <- conv9_2_mbox_conf
I0815 17:35:09.952872 13765 net.cpp:408] conv9_2_mbox_conf_perm -> conv9_2_mbox_conf_perm
I0815 17:35:09.952975 13765 net.cpp:150] Setting up conv9_2_mbox_conf_perm
I0815 17:35:09.952980 13765 net.cpp:157] Top shape: 16 1 2 8 (256)
I0815 17:35:09.952982 13765 net.cpp:165] Memory required for data: 4436271296
I0815 17:35:09.952985 13765 layer_factory.hpp:77] Creating layer conv9_2_mbox_conf_flat
I0815 17:35:09.952988 13765 net.cpp:100] Creating Layer conv9_2_mbox_conf_flat
I0815 17:35:09.952991 13765 net.cpp:434] conv9_2_mbox_conf_flat <- conv9_2_mbox_conf_perm
I0815 17:35:09.952996 13765 net.cpp:408] conv9_2_mbox_conf_flat -> conv9_2_mbox_conf_flat
I0815 17:35:09.953014 13765 net.cpp:150] Setting up conv9_2_mbox_conf_flat
I0815 17:35:09.953017 13765 net.cpp:157] Top shape: 16 16 (256)
I0815 17:35:09.953020 13765 net.cpp:165] Memory required for data: 4436272320
I0815 17:35:09.953022 13765 layer_factory.hpp:77] Creating layer conv9_2_mbox_priorbox
I0815 17:35:09.953027 13765 net.cpp:100] Creating Layer conv9_2_mbox_priorbox
I0815 17:35:09.953032 13765 net.cpp:434] conv9_2_mbox_priorbox <- conv9_2_conv9_2_relu_0_split_2
I0815 17:35:09.953034 13765 net.cpp:434] conv9_2_mbox_priorbox <- data_data_0_split_6
I0815 17:35:09.953038 13765 net.cpp:408] conv9_2_mbox_priorbox -> conv9_2_mbox_priorbox
I0815 17:35:09.953060 13765 net.cpp:150] Setting up conv9_2_mbox_priorbox
I0815 17:35:09.953073 13765 net.cpp:157] Top shape: 1 2 32 (64)
I0815 17:35:09.953075 13765 net.cpp:165] Memory required for data: 4436272576
I0815 17:35:09.953078 13765 layer_factory.hpp:77] Creating layer mbox_loc
I0815 17:35:09.953083 13765 net.cpp:100] Creating Layer mbox_loc
I0815 17:35:09.953085 13765 net.cpp:434] mbox_loc <- conv4_3_norm_mbox_loc_flat
I0815 17:35:09.953089 13765 net.cpp:434] mbox_loc <- fc7_mbox_loc_flat
I0815 17:35:09.953092 13765 net.cpp:434] mbox_loc <- conv6_2_mbox_loc_flat
I0815 17:35:09.953095 13765 net.cpp:434] mbox_loc <- conv7_2_mbox_loc_flat
I0815 17:35:09.953099 13765 net.cpp:434] mbox_loc <- conv8_2_mbox_loc_flat
I0815 17:35:09.953101 13765 net.cpp:434] mbox_loc <- conv9_2_mbox_loc_flat
I0815 17:35:09.953104 13765 net.cpp:408] mbox_loc -> mbox_loc
I0815 17:35:09.953130 13765 net.cpp:150] Setting up mbox_loc
I0815 17:35:09.953133 13765 net.cpp:157] Top shape: 16 38168 (610688)
I0815 17:35:09.953136 13765 net.cpp:165] Memory required for data: 4438715328
I0815 17:35:09.953140 13765 layer_factory.hpp:77] Creating layer mbox_conf
I0815 17:35:09.953142 13765 net.cpp:100] Creating Layer mbox_conf
I0815 17:35:09.953145 13765 net.cpp:434] mbox_conf <- conv4_3_norm_mbox_conf_flat
I0815 17:35:09.953148 13765 net.cpp:434] mbox_conf <- fc7_mbox_conf_flat
I0815 17:35:09.953151 13765 net.cpp:434] mbox_conf <- conv6_2_mbox_conf_flat
I0815 17:35:09.953153 13765 net.cpp:434] mbox_conf <- conv7_2_mbox_conf_flat
I0815 17:35:09.953156 13765 net.cpp:434] mbox_conf <- conv8_2_mbox_conf_flat
I0815 17:35:09.953158 13765 net.cpp:434] mbox_conf <- conv9_2_mbox_conf_flat
I0815 17:35:09.953162 13765 net.cpp:408] mbox_conf -> mbox_conf
I0815 17:35:09.953182 13765 net.cpp:150] Setting up mbox_conf
I0815 17:35:09.953186 13765 net.cpp:157] Top shape: 16 19084 (305344)
I0815 17:35:09.953189 13765 net.cpp:165] Memory required for data: 4439936704
I0815 17:35:09.953191 13765 layer_factory.hpp:77] Creating layer mbox_priorbox
I0815 17:35:09.953195 13765 net.cpp:100] Creating Layer mbox_priorbox
I0815 17:35:09.953197 13765 net.cpp:434] mbox_priorbox <- conv4_3_norm_mbox_priorbox
I0815 17:35:09.953200 13765 net.cpp:434] mbox_priorbox <- fc7_mbox_priorbox
I0815 17:35:09.953203 13765 net.cpp:434] mbox_priorbox <- conv6_2_mbox_priorbox
I0815 17:35:09.953207 13765 net.cpp:434] mbox_priorbox <- conv7_2_mbox_priorbox
I0815 17:35:09.953208 13765 net.cpp:434] mbox_priorbox <- conv8_2_mbox_priorbox
I0815 17:35:09.953212 13765 net.cpp:434] mbox_priorbox <- conv9_2_mbox_priorbox
I0815 17:35:09.953214 13765 net.cpp:408] mbox_priorbox -> mbox_priorbox
I0815 17:35:09.953234 13765 net.cpp:150] Setting up mbox_priorbox
I0815 17:35:09.953238 13765 net.cpp:157] Top shape: 1 2 38168 (76336)
I0815 17:35:09.953241 13765 net.cpp:165] Memory required for data: 4440242048
I0815 17:35:09.953243 13765 layer_factory.hpp:77] Creating layer mbox_loss
I0815 17:35:09.953249 13765 net.cpp:100] Creating Layer mbox_loss
I0815 17:35:09.953253 13765 net.cpp:434] mbox_loss <- mbox_loc
I0815 17:35:09.953256 13765 net.cpp:434] mbox_loss <- mbox_conf
I0815 17:35:09.953258 13765 net.cpp:434] mbox_loss <- mbox_priorbox
…
  phase: TEST
}
layer {
  name: "data"
  type: "AnnotatedData"
  top: "data"
  top: "label"
  include {
    phase: TEST
  }
  transform_param {
    mean_value: 104
    mean_value: 117
    mean_value: 123
    resize_param {
      prob: 1
      resize_mode: WARP
      height: 288
      width: 352
      interp_mode: LINEAR
    }
  }
  data_param {
    source: "examples/car352x288/car352x288_test_lmdb"
    batch_size: 4
    backend: LMDB
  }
  annotated_data_param {
    batch_sampler {
    }
    label_map_file: "data/car352x288/labelmap_voc.prototxt"
  }
}
layer {
  name: "conv1_1"
  type: "Convolution"
  bottom: "data"
  top: "conv1_1"
  param {
    lr_mult: 1
    decay_mult: 1
  }
  param {
    lr_mult: 2
    decay_mult: 0
  }
  convolution_param {
    num_output: 64
    pad: 1
    kernel_size: 3
    weight_filler {
      type: "xavier"
    }
    bias_filler {
      type: "constant"
      value: 0
    }
  }
}
layer {
  name: "relu1_1"
  type: "ReLU"
  bottom: "conv1_1"
  top: "conv1_1"
}
layer {
  name: "conv1_2"
  type: "Convolution"
  bottom: "conv1_1"
  top: "conv1_2"
  param {
    lr_mult: 1
    decay_mult: 1
  }
  param {
    lr_mult: 2
    decay_mult: 0
  }
  convolution_param {
    num_output: 64
    pad: 1
    kernel_size: 3
    weight_filler {
      type: "xavier"
    }
    bias_filler {
      type: "constant"
      value: 0
    }
  }
}
layer {
  name: "relu1_2"
  type: "ReLU"
  bottom: "conv1_2"
  top: "conv1_2"
}
layer {
  name: "pool1"
  type: "Pooling"
  bottom: "conv1_2"
  top: "pool1"
  pooling_param {
    pool: MAX
    kernel_size: 2
    stride: 2
  }
}
layer {
  name: "conv2_1"
  type: "Convolution"
  bottom: "pool1"
  top: "conv2_1"
  param {
    lr_mult: 1
    decay_mult: 1
  }
  param {
    lr_mult: 2
    decay_mult: 0
  }
  convolution_param {
    num_output: 128
    pad: 1
    kernel_size: 3
    weight_filler {
      type: "xavier"
    }
    bias_filler {
      type: "constant"
      value: 0
    }
  }
}
layer {
  name: "relu2_1"
  type: "ReLU"
  bottom: "conv2_1"
  top: "conv2_1"
}
layer {
  name: "conv2_2"
  type: "Convolution"
  bottom: "conv2_1"
  top: "conv2_2"
  param {
    lr_mult: 1
    decay_mult: 1
  }
  param {
    lr_mult: 2
    decay_mult: 0
  }
  convolution_param {
    num_output: 128
    pad: 1
    kernel_size: 3
    weight_filler {
      type: "xavier"
    }
    bias_filler {
      type: "constant"
      value: 0
    }
  }
}
layer {
  name: "relu2_2"
  type: "ReLU"
  bottom: "conv2_2"
  top: "conv2_2"
}
layer {
  name: "pool2"
  type: "Pooling"
  bottom: "conv2_2"
  top: "pool2"
  pooling_param {
    pool: MAX
    kernel_size: 2
    stride: 2
  }
}
layer {
  name: "conv3_1"
  type: "Convolution"
  bottom: "pool2"
  top: "conv3_1"
  param {
    lr_mult: 1
    decay_mult: 1
  }
  param {
    lr_mult: 2
    decay_mult: 0
  }
  convolution_param {
    num_output: 256
    pad: 1
    kernel_size: 3
    weight_filler {
      type: "xavier"
    }
    bias_filler {
      type: "constant"
      value: 0
    }
  }
}
layer {
  name: "relu3_1"
  type: "ReLU"
  bottom: "conv3_1"
  top: "conv3_1"
}
layer {
  name: "conv3_2"
  type: "Convolution"
  bottom: "conv3_1"
  top: "conv3_2"
  param {
    lr_mult: 1
    decay_mult: 1
  }
  param {
    lr_mult: 2
    decay_mult: 0
  }
  convolution_param {
    num_output: 256
    pad: 1
    kernel_size: 3
    weight_filler {
      type: "xavier"
    }
    bias_filler {
      type: "constant"
      value: 0
    }
  }
}
layer {
  name: "relu3_2"
  type: "ReLU"
  bottom: "conv3_2"
  top: "conv3_2"
}
layer {
  name: "conv3_3"
  type: "Convolution"
  bottom: "conv3_2"
  top: "conv3_3"
  param {
    lr_mult: 1
    decay_mult: 1
  }
  param {
    lr_mult: 2
    decay_mult: 0
  }
  convolution_param {
    num_output: 256
    pad: 1
    kernel_size: 3
    weight_filler {
      type: "xavier"
    }
    bias_filler {
      type: "constant"
      value: 0
    }
  }
}
layer {
  name: "relu3_3"
  type: "ReLU"
  bottom: "conv3_3"
  top: "conv3_3"
}
layer {
  name: "pool3"
  type: "Pooling"
  bottom: "conv3_3"
  top: "pool3"
  pooling_param {
    pool: MAX
    kernel_size: 2
    stride: 2
  }
}
layer {
  name: "conv4_1"
  type: "Convolution"
  bottom: "pool3"
  top: "conv4_1"
  param {
    lr_mult: 1
    decay_mult: 1
  }
  param {
    lr_mult: 2
    decay_mult: 0
  }
  convolution_param {
    num_output: 512
    pad: 1
    kernel_size: 3
    weight_filler {
      type: "xavier"
    }
    bias_filler {
      type: "constant"
      value: 0
    }
  }
}
layer {
  name: "relu4_1"
  type: "ReLU"
  bottom: "conv4_1"
  top: "conv4_1"
}
layer {
  name: "conv4_2"
  type: "Convolution"
  bottom: "conv4_1"
  top: "conv4_2"
  param {
    lr_mult: 1
    decay_mult: 1
  }
  param {
    lr_mult: 2
    decay_mult: 0
  }
  convolution_param {
    num_output: 512
    pad: 1
    kernel_size: 3
    weight_filler {
      type: "xavier"
    }
    bias_filler {
      type: "constant"
      value: 0
    }
  }
}
layer {
  name: "relu4_2"
  type: "ReLU"
  bottom: "conv4_2"
  top: "conv4_2"
}
layer {
  name: "conv4_3"
  type: "Convolution"
  bottom: "conv4_2"
  top: "conv4_3"
  param {
    lr_mult: 1
    decay_mult: 1
  }
  param {
    lr_mult: 2
    decay_mult: 0
  }
  convolution_param {
    num_output: 512
    pad: 1
    kernel_size: 3
    weight_filler {
      type: "xavier"
    }
    bias_filler {
      type: "constant"
      value: 0
    }
  }
}
layer {
  name: "relu4_3"
  type: "ReLU"
  bottom: "conv4_3"
  top: "conv4_3"
}
layer {
  name: "pool4"
  type: "Pooling"
  bottom: "conv4_3"
  top: "pool4"
  pooling_param {
    pool: MAX
    kernel_size: 2
    stride: 2
  }
}
layer {
  name: "conv5_1"
  type: "Convolution"
  bottom: "pool4"
  top: "conv5_1"
  param {
    lr_mult: 1
    decay_mult: 1
  }
  param {
    lr_mult: 2
    decay_mult: 0
  }
  convolution_param {
    num_output: 512
    pad: 1
    kernel_size: 3
    weight_filler {
      type: "xavier"
    }
    bias_filler {
      type: "constant"
      value: 0
    }
    dilation: 1
  }
}
layer {
  name: "relu5_1"
  type: "ReLU"
  bottom: "conv5_1"
  top: "conv5_1"
}
layer {
  name: "conv5_2"
  type: "Convolution"
  bottom: "conv5_1"
  top: "conv5_2"
  param {
    lr_mult: 1
    decay_mult: 1
  }
  param {
    lr_mult: 2
    decay_mult: 0
  }
  convolution_param {
    num_output: 512
    pad: 1
    kernel_size: 3
    weight_filler {
      type: "xavier"
    }
    bias_filler {
      type: "constant"
      value: 0
    }
    dilation: 1
  }
}
layer {
  name: "relu5_2"
  type: "ReLU"
  bottom: "conv5_2"
  top: "conv5_2"
}
layer {
  name: "conv5_3"
  type: "Convolution"
  bottom: "conv5_2"
  top: "conv5_3"
  param {
    lr_mult: 1
    decay_mult: 1
  }
  param {
    lr_mult: 2
    decay_mult: 0
  }
  convolution_param {
    num_output: 512
    pad: 1
    kernel_size: 3
    weight_filler {
      type: "xavier"
    }
    bias_filler {
      type: "constant"
      value: 0
    }
    dilation: 1
  }
}
layer {
  name: "relu5_3"
  type: "ReLU"
  bottom: "conv5_3"
  top: "conv5_3"
}
layer {
  name: "pool5"
  type: "Pooling"
  bottom: "conv5_3"
  top: "pool5"
  pooling_param {
    pool: MAX
    kernel_size: 3
    stride: 1
    pad: 1
  }
}
layer {
  name: "fc6"
  type: "Convolution"
  bottom: "pool5"
  top: "fc6"
  param {
    lr_mult: 1
    decay_mult: 1
  }
  param {
    lr_mult: 2
    decay_mult: 0
  }
  convolution_param {
    num_output: 1024
    pad: 1
    kernel_size: 3
    weight_filler {
      type: "xavier"
    }
    bias_filler {
      type: "constant"
      value: 0
    }
    dilation: 1
  }
}
layer {
  name: "relu6"
  type: "ReLU"
  bottom: "fc6"
  top: "fc6"
}
layer {
  name: "fc7"
  type: "Convolution"
  bottom: "fc6"
  top: "fc7"
  param {
    lr_mult: 1
    decay_mult: 1
  }
  param {
    lr_mult: 2
    decay_mult: 0
  }
  convolution_param {
    num_output: 1024
    kernel_size: 1
    weight_filler {
      type: "xavier"
    }
    bias_filler {
      type: "constant"
      value: 0
    }
  }
}
layer {
  name: "relu7"
  type: "ReLU"
  bottom: "fc7"
  top: "fc7"
}
layer {
  name: "conv6_1"
  type: "Convolution"
  bottom: "fc7"
  top: "conv6_1"
  param {
    lr_mult: 1
    decay_mult: 1
  }
  param {
    lr_mult: 2
    decay_mult: 0
  }
  convolution_param {
    num_output: 256
    pad: 0
    kernel_size: 1
    stride: 1
    weight_filler {
      type: "xavier"
    }
    bias_filler {
      type: "constant"
      value: 0
    }
  }
}
layer {
  name: "conv6_1_relu"
  type: "ReLU"
  bottom: "conv6_1"
  top: "conv6_1"
}
layer {
  name: "conv6_2"
  type: "Convolution"
  bottom: "conv6_1"
  top: "conv6_2"
  param {
    lr_mult: 1
    decay_mult: 1
  }
  param {
    lr_mult: 2
    decay_mult: 0
  }
  convolution_param {
    num_output: 512
    pad: 1
    kernel_size: 3
    stride: 2
    weight_filler {
      type: "xavier"
    }
    bias_filler {
      type: "constant"
      value: 0
    }
  }
}
layer {
  name: "conv6_2_relu"
  type: "ReLU"
  bottom: "conv6_2"
  top: "conv6_2"
}
layer {
  name: "conv7_1"
  type: "Convolution"
  bottom: "conv6_2"
  top: "conv7_1"
  param {
    lr_mult: 1
    decay_mult: 1
  }
  param {
    lr_mult: 2
    decay_mult: 0
  }
  convolution_param {
    num_output: 128
    pad: 0
    kernel_size: 1
    stride: 1
    weight_filler {
      type: "xavier"
    }
    bias_filler {
      type: "constant"
      value: 0
    }
  }
}
layer {
  name: "conv7_1_relu"
  type: "ReLU"
  bottom: "conv7_1"
  top: "conv7_1"
}
layer {
  name: "conv7_2"
  type: "Convolution"
  bottom: "conv7_1"
  top: "conv7_2"
  param {
    lr_mult: 1
    decay_mult: 1
  }
  param {
    lr_mult: 2
    decay_mult: 0
  }
  convolution_param {
    num_output: 256
    pad: 1
    kernel_size: 3
    stride: 2
    weight_filler {
      type: "xavier"
    }
    bias_filler {
      type: "constant"
      value: 0
    }
  }
}
layer {
  name: "conv7_2_relu"
  type: "ReLU"
  bottom: "conv7_2"
  top: "conv7_2"
}
layer {
  name: "conv8_1"
  type: "Convolution"
  bottom: "conv7_2"
  top: "conv8_1"
  param {
    lr_mult: 1
    decay_mult: 1
  }
  param {
    lr_mult: 2
    decay_mult: 0
  }
  convolution_param {
    num_output: 128
    pad: 0
    kernel_size: 1
    stride: 1
    weight_filler {
      type: "xavier"
    }
    bias_filler {
      type: "constant"
      value: 0
    }
  }
}
layer {
  name: "conv8_1_relu"
  type: "ReLU"
  bottom: "conv8_1"
  top: "conv8_1"
}
layer {
  name: "conv8_2"
  type: "Convolution"
  bottom: "conv8_1"
  top: "conv8_2"
  param {
    lr_mult: 1
    decay_mult: 1
  }
  param {
    lr_mult: 2
    decay_mult: 0
  }
  convolution_param {
    num_output: 256
    pad: 0
    kernel_size: 3
    stride: 1
    weight_filler {
      type: "xavier"
    }
    bias_filler {
      type: "constant"
      value: 0
    }
  }
}
layer {
  name: "conv8_2_relu"
  type: "ReLU"
  bottom: "conv8_2"
  top: "conv8_2"
}
layer {
  name: "conv9_1"
  type: "Convolution"
  bottom: "conv8_2"
  top: "conv9_1"
  param {
    lr_mult: 1
    decay_mult: 1
  }
  param {
    lr_mult: 2
    decay_mult: 0
  }
  convolution_param {
    num_output: 128
    pad: 0
    kernel_size: 1
    stride: 1
    weight_filler {
      type: "xavier"
    }
    bias_filler {
      type: "constant"
      value: 0
    }
  }
}
layer {
  name: "conv9_1_relu"
  type: "ReLU"
  bottom: "conv9_1"
  top: "conv9_1"
}
layer {
  name: "conv9_2"
  type: "Convolution"
  bottom: "conv9_1"
  top: "conv9_2"
  param {
    lr_mult: 1
    decay_mult: 1
  }
  param {
    lr_mult: 2
    decay_mult: 0
  }
  convolution_param {
    num_output: 256
    pad: 0
    kernel_size: 3
    stride: 1
    weight_filler {
      type: "xavier"
    }
    bias_filler {
      type: "constant"
      value: 0
    }
  }
}
layer {
  name: "conv9_2_relu"
  type: "ReLU"
  bottom: "conv9_2"
  top: "conv9_2"
}
layer {
  name: "conv4_3_norm"
  type: "Normalize"
  bottom: "conv4_3"
  top: "conv4_3_norm"
  norm_param {
    across_spatial: false
    scale_filler {
      type: "constant"
      value: 20
    }
    channel_shared: false
  }
}
layer {
  name: "conv4_3_norm_mbox_loc"
  type: "Convolution"
  bottom: "conv4_3_norm"
  top: "conv4_3_norm_mbox_loc"
  param {
    lr_mult: 1
    decay_mult: 1
  }
  param {
    lr_mult: 2
    decay_mult: 0
  }
  convolution_param {
    num_output: 16
    pad: 1
    kernel_size: 3
    stride: 1
    weight_filler {
      type: "xavier"
    }
    bias_filler {
      type: "constant"
      value: 0
    }
  }
}
layer {
  name: "conv4_3_norm_mbox_loc_perm"
  type: "Permute"
  bottom: "conv4_3_norm_mbox_loc"
  top: "conv4_3_norm_mbox_loc_perm"
  permute_param {
    order: 0
    order: 2
    order: 3
    order: 1
  }
}
layer {
  name: "conv4_3_norm_mbox_loc_flat"
  type: "Flatten"
  bottom: "conv4_3_norm_mbox_loc_perm"
  top: "conv4_3_norm_mbox_loc_flat"
  flatten_param {
    axis: 1
  }
}
layer {
  name: "conv4_3_norm_mbox_conf"
  type: "Convolution"
  bottom: "conv4_3_norm"
  top: "conv4_3_norm_mbox_conf"
  param {
    lr_mult: 1
    decay_mult: 1
  }
  param {
    lr_mult: 2
    decay_mult: 0
  }
  convolution_param {
    num_output: 8
    pad: 1
    kernel_size: 3
    stride: 1
    weight_filler {
      type: "xavier"
    }
    bias_filler {
      type: "constant"
      value: 0
    }
  }
}
layer {
  name: "conv4_3_norm_mbox_conf_perm"
  type: "Permute"
  bottom: "conv4_3_norm_mbox_conf"
  top: "conv4_3_norm_mbox_conf_perm"
  permute_param {
    order: 0
    order: 2
    order: 3
    order: 1
  }
}
layer {
  name: "conv4_3_norm_mbox_conf_flat"
  type: "Flatten"
  bottom: "conv4_3_norm_mbox_conf_perm"
  top: "conv4_3_norm_mbox_conf_flat"
  flatten_param {
    axis: 1
  }
}
layer {
  name: "conv4_3_norm_mbox_priorbox"
  type: "PriorBox"
  bottom: "conv4_3_norm"
  bottom: "data"
  top: "conv4_3_norm_mbox_priorbox"
  prior_box_param {
    min_size: 30
    max_size: 60
    aspect_ratio: 2
    flip: true
    clip: false
    variance: 0.1
    variance: 0.1
    variance: 0.2
    variance: 0.2
    step: 8
    offset: 0.5
  }
}
layer {
  name: "fc7_mbox_loc"
  type: "Convolution"
  bottom: "fc7"
  top: "fc7_mbox_loc"
  param {
    lr_mult: 1
    decay_mult: 1
  }
  param {
    lr_mult: 2
    decay_mult: 0
  }
  convolution_param {
    num_output: 24
    pad: 1
    kernel_size: 3
    stride: 1
    weight_filler {
      type: "xavier"
    }
    bias_filler {
      type: "constant"
      value: 0
    }
  }
}
layer {
  name: "fc7_mbox_loc_perm"
  type: "Permute"
  bottom: "fc7_mbox_loc"
  top: "fc7_mbox_loc_perm"
  permute_param {
    order: 0
    order: 2
    order: 3
    order: 1
  }
}
layer {
  name: "fc7_mbox_loc_flat"
  type: "Flatten"
  bottom: "fc7_mbox_loc_perm"
  top: "fc7_mbox_loc_flat"
  flatten_param {
    axis: 1
  }
}
layer {
  name: "fc7_mbox_conf"
  type: "Convolution"
  bottom: "fc7"
  top: "fc7_mbox_conf"
  param {
    lr_mult: 1
    decay_mult: 1
  }
  param {
    lr_mult: 2
    decay_mult: 0
  }
  convolution_param {
    num_output: 12
    pad: 1
    kernel_size: 3
    stride: 1
    weight_filler {
      type: "xavier"
    }
    bias_filler {
      type: "constant"
      value: 0
    }
  }
}
layer {
  name: "fc7_mbox_conf_perm"
  type: "Permute"
  bottom: "fc7_mbox_conf"
  top: "fc7_mbox_conf_perm"
  permute_param {
    order: 0
    order: 2
    order: 3
    order: 1
  }
}
layer {
  name: "fc7_mbox_conf_flat"
  type: "Flatten"
  bottom: "fc7_mbox_conf_perm"
  top: "fc7_mbox_conf_flat"
  flatten_param {
    axis: 1
  }
}
layer {
  name: "fc7_mbox_priorbox"
  type: "PriorBox"
  bottom: "fc7"
  bottom: "data"
  top: "fc7_mbox_priorbox"
  prior_box_param {
    min_size: 60
    max_size: 111
    aspect_ratio: 2
    aspect_ratio: 3
    flip: true
    clip: false
    variance: 0.1
    variance: 0.1
    variance: 0.2
    variance: 0.2
    step: 16
    offset: 0.5
  }
}
layer {
  name: "conv6_2_mbox_loc"
  type: "Convolution"
  bottom: "conv6_2"
  top: "conv6_2_mbox_loc"
  param {
    lr_mult: 1
    decay_mult: 1
  }
  param {
    lr_mult: 2
    decay_mult: 0
  }
  convolution_param {
    num_output: 24
    pad: 1
    kernel_size: 3
    stride: 1
    weight_filler {
      type: "xavier"
    }
    bias_filler {
      type: "constant"
      value: 0
    }
  }
}
layer {
  name: "conv6_2_mbox_loc_perm"
  type: "Permute"
  bottom: "conv6_2_mbox_loc"
  top: "conv6_2_mbox_loc_perm"
  permute_param {
    order: 0
    order: 2
    order: 3
    order: 1
  }
}
layer {
  name: "conv6_2_mbox_loc_flat"
  type: "Flatten"
  bottom: "conv6_2_mbox_loc_perm"
  top: "conv6_2_mbox_loc_flat"
  flatten_param {
    axis: 1
  }
}
layer {
  name: "conv6_2_mbox_conf"
  type: "Convolution"
  bottom: "conv6_2"
  top: "conv6_2_mbox_conf"
  param {
    lr_mult: 1
    decay_mult: 1
  }
  param {
    lr_mult: 2
    decay_mult: 0
  }
  convolution_param {
    num_output: 12
    pad: 1
    kernel_size: 3
    stride: 1
    weight_filler {
      type: "xavier"
    }
    bias_filler {
      type: "constant"
      value: 0
    }
  }
}
layer {
  name: "conv6_2_mbox_conf_perm"
  type: "Permute"
  bottom: "conv6_2_mbox_conf"
  top: "conv6_2_mbox_conf_perm"
  permute_param {
    order: 0
    order: 2
    order: 3
    order: 1
  }
}
layer {
  name: "conv6_2_mbox_conf_flat"
  type: "Flatten"
  bottom: "conv6_2_mbox_conf_perm"
  top: "conv6_2_mbox_conf_flat"
  flatten_param {
    axis: 1
  }
}
layer {
  name: "conv6_2_mbox_priorbox"
  type: "PriorBox"
  bottom: "conv6_2"
  bottom: "data"
  top: "conv6_2_mbox_priorbox"
  prior_box_param {
    min_size: 111
    max_size: 162
    aspect_ratio: 2
    aspect_ratio: 3
    flip: true
    clip: false
    variance: 0.1
    variance: 0.1
    variance: 0.2
    variance: 0.2
    step: 32
    offset: 0.5
  }
}
layer {
  name: "conv7_2_mbox_loc"
  type: "Convolution"
  bottom: "conv7_2"
  top: "conv7_2_mbox_loc"
  param {
    lr_mult: 1
    decay_mult: 1
  }
  param {
    lr_mult: 2
    decay_mult: 0
  }
  convolution_param {
    num_output: 24
    pad: 1
    kernel_size: 3
    stride: 1
    weight_filler {
      type: "xavier"
    }
    bias_filler {
      type: "constant"
      value: 0
    }
  }
}
layer {
  name: "conv7_2_mbox_loc_perm"
  type: "Permute"
  bottom: "conv7_2_mbox_loc"
  top: "conv7_2_mbox_loc_perm"
  permute_param {
    order: 0
    order: 2
    order: 3
    order: 1
  }
}
layer {
  name: "conv7_2_mbox_loc_flat"
  type: "Flatten"
  bottom: "conv7_2_mbox_loc_perm"
  top: "conv7_2_mbox_loc_flat"
  flatten_param {
    axis: 1
  }
}
layer {
  name: "conv7_2_mbox_conf"
  type: "Convolution"
  bottom: "conv7_2"
  top: "conv7_2_mbox_conf"
  param {
    lr_mult: 1
    decay_mult: 1
  }
  param {
    lr_mult: 2
    decay_mult: 0
  }
  convolution_param {
    num_output: 12
    pad: 1
    kernel_size: 3
    stride: 1
    weight_filler {
      type: "xavier"
    }
    bias_filler {
      type: "constant"
      value: 0
    }
  }
}
layer {
  name: "conv7_2_mbox_conf_perm"
  type: "Permute"
  bottom: "conv7_2_mbox_conf"
  top: "conv7_2_mbox_conf_perm"
  permute_param {
    order: 0
    order: 2
    order: 3
    order: 1
  }
}
layer {
  name: "conv7_2_mbox_conf_flat"
  type: "Flatten"
  bottom: "conv7_2_mbox_conf_perm"
  top: "conv7_2_mbox_conf_flat"
  flatten_param {
    axis: 1
  }
}
layer {
  name: "conv7_2_mbox_priorbox"
  type: "PriorBox"
  bottom: "conv7_2"
  bottom: "data"
  top: "conv7_2_mbox_priorbox"
  prior_box_param {
    min_size: 162
    max_size: 213
    aspect_ratio: 2
    aspect_ratio: 3
    flip: true
    clip: false
    variance: 0.1
    variance: 0.1
    variance: 0.2
    variance: 0.2
    step: 64
    offset: 0.5
  }
}
layer {
  name: "conv8_2_mbox_loc"
  type: "Convolution"
  bottom: "conv8_2"
  top: "conv8_2_mbox_loc"
  param {
    lr_mult: 1
    decay_mult: 1
  }
  param {
    lr_mult: 2
    decay_mult: 0
  }
  convolution_param {
    num_output: 16
    pad: 1
    kernel_size: 3
    stride: 1
    weight_filler {
      type: "xavier"
    }
    bias_filler {
      type: "constant"
      value: 0
    }
  }
}
layer {
  name: "conv8_2_mbox_loc_perm"
  type: "Permute"
  bottom: "conv8_2_mbox_loc"
  top: "conv8_2_mbox_loc_perm"
  permute_param {
    order: 0
    order: 2
    order: 3
    order: 1
  }
}
layer {
  name: "conv8_2_mbox_loc_flat"
  type: "Flatten"
  bottom: "conv8_2_mbox_loc_perm"
  top: "conv8_2_mbox_loc_flat"
  flatten_param {
    axis: 1
  }
}
layer {
  name: "conv8_2_mbox_conf"
  type: "Convolution"
  bottom: "conv8_2"
  top: "conv8_2_mbox_conf"
  param {
    lr_mult: 1
    decay_mult: 1
  }
  param {
    lr_mult: 2
    decay_mult: 0
  }
  convolution_param {
    num_output: 8
    pad: 1
    kernel_size: 3
    stride: 1
    weight_filler {
      type: "xavier"
    }
    bias_filler {
      type: "constant"
      value: 0
    }
  }
}
layer {
  name: "conv8_2_mbox_conf_perm"
  type: "Permute"
  bottom: "conv8_2_mbox_conf"
  top: "conv8_2_mbox_conf_perm"
  permute_param {
    order: 0
    order: 2
    order: 3
    order: 1
  }
}
layer {
  name: "conv8_2_mbox_conf_flat"
  type: "Flatten"
  bottom: "conv8_2_mbox_conf_perm"
  top: "conv8_2_mbox_conf_flat"
  flatten_param {
    axis: 1
  }
}
layer {
  name: "conv8_2_mbox_priorbox"
  type: "PriorBox"
  bottom: "conv8_2"
  bottom: "data"
  top: "conv8_2_mbox_priorbox"
  prior_box_param {
    min_size: 213
    max_size: 264
    aspect_ratio: 2
    flip: true
    clip: false
    variance: 0.1
    variance: 0.1
    variance: 0.2
    variance: 0.2
    step: 100
    offset: 0.5
  }
}
layer {
  name: "conv9_2_mbox_loc"
  type: "Convolution"
  bottom: "conv9_2"
  top: "conv9_2_mbox_loc"
  param {
    lr_mult: 1
    decay_mult: 1
  }
  param {
    lr_mult: 2
    decay_mult: 0
  }
  convolution_param {
    num_output: 16
    pad: 1
    kernel_size: 3
    stride: 1
    weight_filler {
      type: "xavier"
    }
    bias_filler {
      type: "constant"
      value: 0
    }
  }
}
layer {
  name: "conv9_2_mbox_loc_perm"
  type: "Permute"
  bottom: "conv9_2_mbox_loc"
  top: "conv9_2_mbox_loc_perm"
  permute_param {
    order: 0
    order: 2
    order: 3
    order: 1
  }
}
layer {
  name: "conv9_2_mbox_loc_flat"
  type: "Flatten"
  bottom: "conv9_2_mbox_loc_perm"
  top: "conv9_2_mbox_loc_flat"
  flatten_param {
    axis: 1
  }
}
layer {
  name: "conv9_2_mbox_conf"
  type: "Convolution"
  bottom: "conv9_2"
  top: "conv9_2_mbox_conf"
  param {
    lr_mult: 1
    decay_mult: 1
  }
  param {
    lr_mult: 2
    decay_mult: 0
  }
  convolution_param {
    num_output: 8
    pad: 1
    kernel_size: 3
    stride: 1
    weight_filler {
      type: "xavier"
    }
    bias_filler {
      type: "constant"
      value: 0
    }
  }
}
layer {
  name: "conv9_2_mbox_conf_perm"
  type: "Permute"
  bottom: "conv9_2_mbox_conf"
  top: "conv9_2_mbox_conf_perm"
  permute_param {
    order: 0
    order: 2
    order: 3
    order: 1
  }
}
layer {
  name: "conv9_2_mbox_conf_flat"
  type: "Flatten"
  bottom: "conv9_2_mbox_conf_perm"
  top: "conv9_2_mbox_conf_flat"
  flatten_param {
    axis: 1
  }
}
layer {
  name: "conv9_2_mbox_priorbox"
  type: "PriorBox"
  bottom: "conv9_2"
  bottom: "data"
  top: "conv9_2_mbox_priorbox"
  prior_box_param {
    min_size: 264
    max_size: 315
    aspect_ratio: 2
    flip: true
    clip: false
    variance: 0.1
    variance: 0.1
    variance: 0.2
    variance: 0.2
    step: 300
    offset: 0.5
  }
}
layer {
  name: "mbox_loc"
  type: "Concat"
  bottom: "conv4_3_norm_mbox_loc_flat"
  bottom: "fc7_mbox_loc_flat"
  bottom: "conv6_2_mbox_loc_flat"
  bottom: "conv7_2_mbox_loc_flat"
  bottom: "conv8_2_mbox_loc_flat"
  bottom: "conv9_2_mbox_loc_flat"
  top: "mbox_loc"
  concat_param {
    axis: 1
  }
}
layer {
  name: "mbox_conf"
  type: "Concat"
  bottom: "conv4_3_norm_mbox_conf_flat"
  bottom: "fc7_mbox_conf_flat"
  bottom: "conv6_2_mbox_conf_flat"
  bottom: "conv7_2_mbox_conf_flat"
  bottom: "conv8_2_mbox_conf_flat"
  bottom: "conv9_2_mbox_conf_flat"
  top: "mbox_conf"
  concat_param {
    axis: 1
  }
}
layer {
  name: "mbox_priorbox"
  type: "Concat"
  bottom: "conv4_3_norm_mbox_priorbox"
  bottom: "fc7_mbox_priorbox"
  bottom: "conv6_2_mbox_priorbox"
  bottom: "conv7_2_mbox_priorbox"
  bottom: "conv8_2_mbox_priorbox"
  bottom: "conv9_2_mbox_priorbox"
  top: "mbox_priorbox"
  concat_param {
    axis: 2
  }
}
layer {
  name: "mbox_conf_reshape"
  type: "Reshape"
  bottom: "mbox_conf"
  top: "mbox_conf_reshape"
  reshape_param {
    shape {
      dim: 0
      dim: -1
      dim: 2
    }
  }
}
layer {
  name: "mbox_conf_softmax"
  type: "Softmax"
  bottom: "mbox_conf_reshape"
  top: "mbox_conf_softmax"
  softmax_param {
    axis: 2
  }
}
layer {
  name: "mbox_conf_flatten"
  type: "Flatten"
  bottom: "mbox_conf_softmax"
  top: "mbox_conf_flatten"
  flatten_param {
    axis: 1
  }
}
layer {
  name: "detection_out"
  type: "DetectionOutput"
  bottom: "mbox_loc"
  bottom: "mbox_conf_flatten"
  bottom: "mbox_priorbox"
  top: "detection_out"
  include {
    phase: TEST
  }
  detection_output_param {
    num_classes: 2
    share_location: true
    background_label_id: 0
    nms_param {
      nms_threshold: 0.45
      top_k: 400
    }
    save_output_param {
      output_directory: "/home/ly/data/VOCdevkit/results/car352x288/SSD_352x288/Main"
      output_name_prefix: "comp4_det_test_"
      output_format: "VOC"
      label_map_file: "data/car352x288/labelmap_voc.prototxt"
      name_size_file: "data/car352x288/test_name_size.txt"
      num_test_image: 2580
    }
    code_type: CENTER_SIZE
    keep_top_k: 200
    confidence_threshold: 0.01
  }
}
layer {
  name: "detection_eval"
  type: "DetectionEvaluate"
  bottom: "detection_out"
  bottom: "label"
  top: "detection_eval"
  include {
    phase: TEST
  }
  detection_evaluate_param {
    num_classes: 2
    background_label_id: 0
    overlap_threshold: 0.5
    evaluate_difficult_gt: false
    name_size_file: "data/car352x288/test_name_size.txt"
  }
}
I0815 17:35:09.955956 13765 layer_factory.hpp:77] Creating layer data
I0815 17:35:09.956086 13765 net.cpp:100] Creating Layer data
I0815 17:35:09.956092 13765 net.cpp:408] data -> data
I0815 17:35:09.956099 13765 net.cpp:408] data -> label
I0815 17:35:09.958670 13804 db_lmdb.cpp:35] Opened lmdb examples/car352x288/car352x288_test_lmdb
I0815 17:35:09.959635 13765 annotated_data_layer.cpp:62] output data size: 4,3,288,352
I0815 17:35:09.964846 13765 net.cpp:150] Setting up data
I0815 17:35:09.964864 13765 net.cpp:157] Top shape: 4 3 288 352 (1216512)
I0815 17:35:09.964869 13765 net.cpp:157] Top shape: 1 1 7 8 (56)
I0815 17:35:09.964872 13765 net.cpp:165] Memory required for data: 4866272
I0815 17:35:09.964876 13765 layer_factory.hpp:77] Creating layer data_data_0_split
I0815 17:35:09.964884 13765 net.cpp:100] Creating Layer data_data_0_split
I0815 17:35:09.964887 13765 net.cpp:434] data_data_0_split <- data
I0815 17:35:09.964895 13765 net.cpp:408] data_data_0_split -> data_data_0_split_0
I0815 17:35:09.964901 13765 net.cpp:408] data_data_0_split -> data_data_0_split_1
I0815 17:35:09.964905 13765 net.cpp:408] data_data_0_split -> data_data_0_split_2
I0815 17:35:09.964910 13765 net.cpp:408] data_data_0_split -> data_data_0_split_3
I0815 17:35:09.964913 13765 net.cpp:408] data_data_0_split -> data_data_0_split_4
I0815 17:35:09.964916 13765 net.cpp:408] data_data_0_split -> data_data_0_split_5
I0815 17:35:09.964920 13765 net.cpp:408] data_data_0_split -> data_data_0_split_6
I0815 17:35:09.965101 13765 net.cpp:150] Setting up data_data_0_split
I0815 17:35:09.965109 13765 net.cpp:157] Top shape: 4 3 288 352 (1216512)
I0815 17:35:09.965113 13765 net.cpp:157] Top shape: 4 3 288 352 (1216512)
I0815 17:35:09.965116 13765 net.cpp:157] Top shape: 4 3 288 352 (1216512)
I0815 17:35:09.965119 13765 net.cpp:157] Top shape: 4 3 288 352 (1216512)
I0815 17:35:09.965121 13765 net.cpp:157] Top shape: 4 3 288 352 (1216512)
I0815 17:35:09.965124 13765 net.cpp:157] Top shape: 4 3 288 352 (1216512)
I0815 17:35:09.965126 13765 net.cpp:157] Top shape: 4 3 288 352 (1216512)
I0815 17:35:09.965143 13765 net.cpp:165] Memory required for data: 38928608
I0815 17:35:09.965147 13765 layer_factory.hpp:77] Creating layer conv1_1
I0815 17:35:09.965155 13765 net.cpp:100] Creating Layer conv1_1
I0815 17:35:09.965159 13765 net.cpp:434] conv1_1 <- data_data_0_split_0
I0815 17:35:09.965163 13765 net.cpp:408] conv1_1 -> conv1_1
I0815 17:35:09.968315 13765 net.cpp:150] Setting up conv1_1
I0815 17:35:09.968324 13765 net.cpp:157] Top shape: 4 64 288 352 (25952256)
I0815 17:35:09.968329 13765 net.cpp:165] Memory required for data: 142737632
I0815 17:35:09.968338 13765 layer_factory.hpp:77] Creating layer relu1_1
I0815 17:35:09.968343 13765 net.cpp:100] Creating Layer relu1_1
I0815 17:35:09.968344 13765 net.cpp:434] relu1_1 <- conv1_1
I0815 17:35:09.968348 13765 net.cpp:395] relu1_1 -> conv1_1 (in-place)
I0815 17:35:09.968742 13765 net.cpp:150] Setting up relu1_1
I0815 17:35:09.968750 13765 net.cpp:157] Top shape: 4 64 288 352 (25952256)
I0815 17:35:09.968752 13765 net.cpp:165] Memory required for data: 246546656
I0815 17:35:09.968755 13765 layer_factory.hpp:77] Creating layer conv1_2
I0815 17:35:09.968763 13765 net.cpp:100] Creating Layer conv1_2
I0815 17:35:09.968765 13765 net.cpp:434] conv1_2 <- conv1_1
I0815 17:35:09.968770 13765 net.cpp:408] conv1_2 -> conv1_2
I0815 17:35:09.971094 13765 net.cpp:150] Setting up conv1_2
I0815 17:35:09.971102 13765 net.cpp:157] Top shape: 4 64 288 352 (25952256)
I0815 17:35:09.971107 13765 net.cpp:165] Memory required for data: 350355680
I0815 17:35:09.971112 13765 layer_factory.hpp:77] Creating layer relu1_2
I0815 17:35:09.971117 13765 net.cpp:100] Creating Layer relu1_2
I0815 17:35:09.971119 13765 net.cpp:434] relu1_2 <- conv1_2
I0815 17:35:09.971122 13765 net.cpp:395] relu1_2 -> conv1_2 (in-place)
I0815 17:35:09.971683 13765 net.cpp:150] Setting up relu1_2
I0815 17:35:09.971690 13765 net.cpp:157] Top shape: 4 64 288 352 (25952256)
I0815 17:35:09.971694 13765 net.cpp:165] Memory required for data: 454164704
I0815 17:35:09.971698 13765 layer_factory.hpp:77] Creating layer pool1
I0815 17:35:09.971704 13765 net.cpp:100] Creating Layer pool1
I0815 17:35:09.971706 13765 net.cpp:434] pool1 <- conv1_2
I0815 17:35:09.971711 13765 net.cpp:408] pool1 -> pool1
I0815 17:35:09.971761 13765 net.cpp:150] Setting up pool1
I0815 17:35:09.971765 13765 net.cpp:157] Top shape: 4 64 144 176 (6488064)
I0815 17:35:09.971768 13765 net.cpp:165] Memory required for data: 480116960
I0815 17:35:09.971771 13765 layer_factory.hpp:77] Creating layer conv2_1
I0815 17:35:09.971776 13765 net.cpp:100] Creating Layer conv2_1
I0815 17:35:09.971778 13765 net.cpp:434] conv2_1 <- pool1
I0815 17:35:09.971784 13765 net.cpp:408] conv2_1 -> conv2_1
I0815 17:35:09.974719 13765 net.cpp:150] Setting up conv2_1
I0815 17:35:09.974727 13765 net.cpp:157] Top shape: 4 128 144 176 (12976128)
I0815 17:35:09.974731 13765 net.cpp:165] Memory required for data: 532021472
I0815 17:35:09.974738 13765 layer_factory.hpp:77] Creating layer relu2_1
I0815 17:35:09.974745 13765 net.cpp:100] Creating Layer relu2_1
I0815 17:35:09.974748 13765 net.cpp:434] relu2_1 <- conv2_1
I0815 17:35:09.974751 13765 net.cpp:395] relu2_1 -> conv2_1 (in-place)
I0815 17:35:09.975131 13765 net.cpp:150] Setting up relu2_1
I0815 17:35:09.975138 13765 net.cpp:157] Top shape: 4 128 144 176 (12976128)
I0815 17:35:09.975142 13765 net.cpp:165] Memory required for data: 583925984
I0815 17:35:09.975144 13765 layer_factory.hpp:77] Creating layer conv2_2
I0815 17:35:09.975152 13765 net.cpp:100] Creating Layer conv2_2
I0815 17:35:09.975154 13765 net.cpp:434] conv2_2 <- conv2_1
I0815 17:35:09.975160 13765 net.cpp:408] conv2_2 -> conv2_2
I0815 17:35:09.977396 13765 net.cpp:150] Setting up conv2_2
I0815 17:35:09.977404 13765 net.cpp:157] Top shape: 4 128 144 176 (12976128)
I0815 17:35:09.977408 13765 net.cpp:165] Memory required for data: 635830496
I0815 17:35:09.977412 13765 layer_factory.hpp:77] Creating layer relu2_2
I0815 17:35:09.977416 13765 net.cpp:100] Creating Layer relu2_2
I0815 17:35:09.977419 13765 net.cpp:434] relu2_2 <- conv2_2
I0815 17:35:09.977437 13765 net.cpp:395] relu2_2 -> conv2_2 (in-place)
I0815 17:35:09.977949 13765 net.cpp:150] Setting up relu2_2
I0815 17:35:09.977957 13765 net.cpp:157] Top shape: 4 128 144 176 (12976128)
I0815 17:35:09.977960 13765 net.cpp:165] Memory required for data: 687735008
I0815 17:35:09.977963 13765 layer_factory.hpp:77] Creating layer pool2
I0815 17:35:09.977969 13765 net.cpp:100] Creating Layer pool2
I0815 17:35:09.977972 13765 net.cpp:434] pool2 <- conv2_2
I0815 17:35:09.977975 13765 net.cpp:408] pool2 -> pool2
I0815 17:35:09.978018 13765 net.cpp:150] Setting up pool2
I0815 17:35:09.978024 13765 net.cpp:157] Top shape: 4 128 72 88 (3244032)
I0815 17:35:09.978026 13765 net.cpp:165] Memory required for data: 700711136
I0815 17:35:09.978029 13765 layer_factory.hpp:77] Creating layer conv3_1
I0815 17:35:09.978035 13765 net.cpp:100] Creating Layer conv3_1
I0815 17:35:09.978039 13765 net.cpp:434] conv3_1 <- pool2
I0815 17:35:09.978041 13765 net.cpp:408] conv3_1 -> conv3_1
I0815 17:35:09.981518 13765 net.cpp:150] Setting up conv3_1
I0815 17:35:09.981526 13765 net.cpp:157] Top shape: 4 256 72 88 (6488064)
I0815 17:35:09.981531 13765 net.cpp:165] Memory required for data: 726663392
I0815 17:35:09.981539 13765 layer_factory.hpp:77] Creating layer relu3_1
I0815 17:35:09.981544 13765 net.cpp:100] Creating Layer relu3_1
I0815 17:35:09.981546 13765 net.cpp:434] relu3_1 <- conv3_1
I0815 17:35:09.981549 13765 net.cpp:395] relu3_1 -> conv3_1 (in-place)
I0815 17:35:09.981941 13765 net.cpp:150] Setting up relu3_1
I0815 17:35:09.981947 13765 net.cpp:157] Top shape: 4 256 72 88 (6488064)
I0815 17:35:09.981951 13765 net.cpp:165] Memory required for data: 752615648
I0815 17:35:09.981953 13765 layer_factory.hpp:77] Creating layer conv3_2
I0815 17:35:09.981961 13765 net.cpp:100] Creating Layer conv3_2
I0815 17:35:09.981963 13765 net.cpp:434] conv3_2 <- conv3_1
I0815 17:35:09.981967 13765 net.cpp:408] conv3_2 -> conv3_2
I0815 17:35:09.987552 13765 net.cpp:150] Setting up conv3_2
I0815 17:35:09.987566 13765 net.cpp:157] Top shape: 4 256 72 88 (6488064)
I0815 17:35:09.987571 13765 net.cpp:165] Memory required for data: 778567904
I0815 17:35:09.987579 13765 layer_factory.hpp:77] Creating layer relu3_2
I0815 17:35:09.987586 13765 net.cpp:100] Creating Layer relu3_2
I0815 17:35:09.987588 13765 net.cpp:434] relu3_2 <- conv3_2
I0815 17:35:09.987593 13765 net.cpp:395] relu3_2 -> conv3_2 (in-place)
I0815 17:35:09.987967 13765 net.cpp:150] Setting up relu3_2
I0815 17:35:09.987973 13765 net.cpp:157] Top shape: 4 256 72 88 (6488064)
I0815 17:35:09.987977 13765 net.cpp:165] Memory required for data: 804520160
I0815 17:35:09.987979 13765 layer_factory.hpp:77] Creating layer conv3_3
I0815 17:35:09.987989 13765 net.cpp:100] Creating Layer conv3_3
I0815 17:35:09.987993 13765 net.cpp:434] conv3_3 <- conv3_2
I0815 17:35:09.987996 13765 net.cpp:408] conv3_3 -> conv3_3
I0815 17:35:09.992707 13765 net.cpp:150] Setting up conv3_3
I0815 17:35:09.992719 13765 net.cpp:157] Top shape: 4 256 72 88 (6488064)
I0815 17:35:09.992723 13765 net.cpp:165] Memory required for data: 830472416
I0815 17:35:09.992732 13765 layer_factory.hpp:77] Creating layer relu3_3
I0815 17:35:09.992736 13765 net.cpp:100] Creating Layer relu3_3
I0815 17:35:09.992740 13765 net.cpp:434] relu3_3 <- conv3_3
I0815 17:35:09.992744 13765 net.cpp:395] relu3_3 -> conv3_3 (in-place)
I0815 17:35:09.993278 13765 net.cpp:150] Setting up relu3_3
I0815 17:35:09.993286 13765 net.cpp:157] Top shape: 4 256 72 88 (6488064)
I0815 17:35:09.993290 13765 net.cpp:165] Memory required for data: 856424672
I0815 17:35:09.993294 13765 layer_factory.hpp:77] Creating layer pool3
I0815 17:35:09.993299 13765 net.cpp:100] Creating Layer pool3
I0815 17:35:09.993301 13765 net.cpp:434] pool3 <- conv3_3
I0815 17:35:09.993305 13765 net.cpp:408] pool3 -> pool3
I0815 17:35:09.993350 13765 net.cpp:150] Setting up pool3
I0815 17:35:09.993355 13765 net.cpp:157] Top shape: 4 256 36 44 (1622016)
I0815 17:35:09.993358 13765 net.cpp:165] Memory required for data: 862912736
I0815 17:35:09.993360 13765 layer_factory.hpp:77] Creating layer conv4_1
I0815 17:35:09.993382 13765 net.cpp:100] Creating Layer conv4_1
I0815 17:35:09.993386 13765 net.cpp:434] conv4_1 <- pool3
I0815 17:35:09.993389 13765 net.cpp:408] conv4_1 -> conv4_1
I0815 17:35:10.000943 13765 net.cpp:150] Setting up conv4_1
I0815 17:35:10.000957 13765 net.cpp:157] Top shape: 4 512 36 44 (3244032)
I0815 17:35:10.000962 13765 net.cpp:165] Memory required for data: 875888864
I0815 17:35:10.000967 13765 layer_factory.hpp:77] Creating layer relu4_1
I0815 17:35:10.000973 13765 net.cpp:100] Creating Layer relu4_1
I0815 17:35:10.000977 13765 net.cpp:434] relu4_1 <- conv4_1
I0815 17:35:10.000982 13765 net.cpp:395] relu4_1 -> conv4_1 (in-place)
I0815 17:35:10.001368 13765 net.cpp:150] Setting up relu4_1
I0815 17:35:10.001374 13765 net.cpp:157] Top shape: 4 512 36 44 (3244032)
I0815 17:35:10.001379 13765 net.cpp:165] Memory required for data: 888864992
I0815 17:35:10.001381 13765 layer_factory.hpp:77] Creating layer conv4_2
I0815 17:35:10.001390 13765 net.cpp:100] Creating Layer conv4_2
I0815 17:35:10.001394 13765 net.cpp:434] conv4_2 <- conv4_1
I0815 17:35:10.001397 13765 net.cpp:408] conv4_2 -> conv4_2
I0815 17:35:10.013161 13765 net.cpp:150] Setting up conv4_2
I0815 17:35:10.013175 13765 net.cpp:157] Top shape: 4 512 36 44 (3244032)
I0815 17:35:10.013181 13765 net.cpp:165] Memory required for data: 901841120
I0815 17:35:10.013190 13765 layer_factory.hpp:77] Creating layer relu4_2
I0815 17:35:10.013196 13765 net.cpp:100] Creating Layer relu4_2
I0815 17:35:10.013200 13765 net.cpp:434] relu4_2 <- conv4_2
I0815 17:35:10.013204 13765 net.cpp:395] relu4_2 -> conv4_2 (in-place)
I0815 17:35:10.013738 13765 net.cpp:150] Setting up relu4_2
I0815 17:35:10.013746 13765 net.cpp:157] Top shape: 4 512 36 44 (3244032)
I0815 17:35:10.013751 13765 net.cpp:165] Memory required for data: 914817248
I0815 17:35:10.013753 13765 layer_factory.hpp:77] Creating layer conv4_3
I0815 17:35:10.013764 13765 net.cpp:100] Creating Layer conv4_3
I0815 17:35:10.013767 13765 net.cpp:434] conv4_3 <- conv4_2
I0815 17:35:10.013772 13765 net.cpp:408] conv4_3 -> conv4_3
I0815 17:35:10.025779 13765 net.cpp:150] Setting up conv4_3
I0815 17:35:10.025797 13765 net.cpp:157] Top shape: 4 512 36 44 (3244032)
I0815 17:35:10.025804 13765 net.cpp:165] Memory required for data: 927793376
I0815 17:35:10.025810 13765 layer_factory.hpp:77] Creating layer relu4_3
I0815 17:35:10.025817 13765 net.cpp:100] Creating Layer relu4_3
I0815 17:35:10.025820 13765 net.cpp:434] relu4_3 <- conv4_3
I0815 17:35:10.025825 13765 net.cpp:395] relu4_3 -> conv4_3 (in-place)
I0815 17:35:10.026238 13765 net.cpp:150] Setting up relu4_3
I0815 17:35:10.026245 13765 net.cpp:157] Top shape: 4 512 36 44 (3244032)
I0815 17:35:10.026249 13765 net.cpp:165] Memory required for data: 940769504
I0815 17:35:10.026252 13765 layer_factory.hpp:77] Creating layer conv4_3_relu4_3_0_split
I0815 17:35:10.026258 13765 net.cpp:100] Creating Layer conv4_3_relu4_3_0_split
I0815 17:35:10.026262 13765 net.cpp:434] conv4_3_relu4_3_0_split <- conv4_3
I0815 17:35:10.026265 13765 net.cpp:408] conv4_3_relu4_3_0_split -> conv4_3_relu4_3_0_split_0
I0815 17:35:10.026271 13765 net.cpp:408] conv4_3_relu4_3_0_split -> conv4_3_relu4_3_0_split_1
I0815 17:35:10.026314 13765 net.cpp:150] Setting up conv4_3_relu4_3_0_split
I0815 17:35:10.026317 13765 net.cpp:157] Top shape: 4 512 36 44 (3244032)
I0815 17:35:10.026321 13765 net.cpp:157] Top shape: 4 512 36 44 (3244032)
I0815 17:35:10.026324 13765 net.cpp:165] Memory required for data: 966721760
I0815 17:35:10.026326 13765 layer_factory.hpp:77] Creating layer pool4
I0815 17:35:10.026331 13765 net.cpp:100] Creating Layer pool4
I0815 17:35:10.026335 13765 net.cpp:434] pool4 <- conv4_3_relu4_3_0_split_0
I0815 17:35:10.026338 13765 net.cpp:408] pool4 -> pool4
I0815 17:35:10.026376 13765 net.cpp:150] Setting up pool4
I0815 17:35:10.026379 13765 net.cpp:157] Top shape: 4 512 18 22 (811008)
I0815 17:35:10.026382 13765 net.cpp:165] Memory required for data: 969965792
I0815 17:35:10.026384 13765 layer_factory.hpp:77] Creating layer conv5_1
I0815 17:35:10.026391 13765 net.cpp:100] Creating Layer conv5_1
I0815 17:35:10.026407 13765 net.cpp:434] conv5_1 <- pool4
I0815 17:35:10.026412 13765 net.cpp:408] conv5_1 -> conv5_1
I0815 17:35:10.038938 13765 net.cpp:150] Setting up conv5_1
I0815 17:35:10.038954 13765 net.cpp:157] Top shape: 4 512 18 22 (811008)
I0815 17:35:10.038959 13765 net.cpp:165] Memory required for data: 973209824
I0815 17:35:10.038965 13765 layer_factory.hpp:77] Creating layer relu5_1
I0815 17:35:10.038972 13765 net.cpp:100] Creating Layer relu5_1
I0815 17:35:10.038975 13765 net.cpp:434] relu5_1 <- conv5_1
I0815 17:35:10.038980 13765 net.cpp:395] relu5_1 -> conv5_1 (in-place)
I0815 17:35:10.039355 13765 net.cpp:150] Setting up relu5_1
I0815 17:35:10.039361 13765 net.cpp:157] Top shape: 4 512 18 22 (811008)
I0815 17:35:10.039364 13765 net.cpp:165] Memory required for data: 976453856
I0815 17:35:10.039366 13765 layer_factory.hpp:77] Creating layer conv5_2
I0815 17:35:10.039378 13765 net.cpp:100] Creating Layer conv5_2
I0815 17:35:10.039381 13765 net.cpp:434] conv5_2 <- conv5_1
I0815 17:35:10.039386 13765 net.cpp:408] conv5_2 -> conv5_2
I0815 17:35:10.051036 13765 net.cpp:150] Setting up conv5_2
I0815 17:35:10.051053 13765 net.cpp:157] Top shape: 4 512 18 22 (811008)
I0815 17:35:10.051059 13765 net.cpp:165] Memory required for data: 979697888
I0815 17:35:10.051064 13765 layer_factory.hpp:77] Creating layer relu5_2
I0815 17:35:10.051071 13765 net.cpp:100] Creating Layer relu5_2
I0815 17:35:10.051075 13765 net.cpp:434] relu5_2 <- conv5_2
I0815 17:35:10.051080 13765 net.cpp:395] relu5_2 -> conv5_2 (in-place)
I0815 17:35:10.051594 13765 net.cpp:150] Setting up relu5_2
I0815 17:35:10.051601 13765 net.cpp:157] Top shape: 4 512 18 22 (811008)
I0815 17:35:10.051605 13765 net.cpp:165] Memory required for data: 982941920
I0815 17:35:10.051609 13765 layer_factory.hpp:77] Creating layer conv5_3
I0815 17:35:10.051620 13765 net.cpp:100] Creating Layer conv5_3
I0815 17:35:10.051622 13765 net.cpp:434] conv5_3 <- conv5_2
I0815 17:35:10.051627 13765 net.cpp:408] conv5_3 -> conv5_3
I0815 17:35:10.064584 13765 net.cpp:150] Setting up conv5_3
I0815 17:35:10.064599 13765 net.cpp:157] Top shape: 4 512 18 22 (811008)
I0815 17:35:10.064604 13765 net.cpp:165] Memory required for data: 986185952
I0815 17:35:10.064610 13765 layer_factory.hpp:77] Creating layer relu5_3
I0815 17:35:10.064620 13765 net.cpp:100] Creating Layer relu5_3
I0815 17:35:10.064625 13765 net.cpp:434] relu5_3 <- conv5_3
I0815 17:35:10.064628 13765 net.cpp:395] relu5_3 -> conv5_3 (in-place)
I0815 17:35:10.065016 13765 net.cpp:150] Setting up relu5_3
I0815 17:35:10.065021 13765 net.cpp:157] Top shape: 4 512 18 22 (811008)
I0815 17:35:10.065026 13765 net.cpp:165] Memory required for data: 989429984
I0815 17:35:10.065027 13765 layer_factory.hpp:77] Creating layer pool5
I0815 17:35:10.065033 13765 net.cpp:100] Creating Layer pool5
I0815 17:35:10.065037 13765 net.cpp:434] pool5 <- conv5_3
I0815 17:35:10.065040 13765 net.cpp:408] pool5 -> pool5
I0815 17:35:10.065086 13765 net.cpp:150] Setting up pool5
I0815 17:35:10.065090 13765 net.cpp:157] Top shape: 4 512 18 22 (811008)
I0815 17:35:10.065093 13765 net.cpp:165] Memory required for data: 992674016
I0815 17:35:10.065099 13765 layer_factory.hpp:77] Creating layer fc6
I0815 17:35:10.065107 13765 net.cpp:100] Creating Layer fc6
I0815 17:35:10.065109 13765 net.cpp:434] fc6 <- pool5
I0815 17:35:10.065114 13765 net.cpp:408] fc6 -> fc6
I0815 17:35:10.086400 13765 net.cpp:150] Setting up fc6
I0815 17:35:10.086417 13765 net.cpp:157] Top shape: 4 1024 18 22 (1622016)
I0815 17:35:10.086422 13765 net.cpp:165] Memory required for data: 999162080
I0815 17:35:10.086429 13765 layer_factory.hpp:77] Creating layer relu6
I0815 17:35:10.086436 13765 net.cpp:100] Creating Layer relu6
I0815 17:35:10.086438 13765 net.cpp:434] relu6 <- fc6
I0815 17:35:10.086443 13765 net.cpp:395] relu6 -> fc6 (in-place)
I0815 17:35:10.086961 13765 net.cpp:150] Setting up relu6
I0815 17:35:10.086968 13765 net.cpp:157] Top shape: 4 1024 18 22 (1622016)
I0815 17:35:10.086973 13765 net.cpp:165] Memory required for data: 1005650144
I0815 17:35:10.086989 13765 layer_factory.hpp:77] Creating layer fc7
I0815 17:35:10.086999 13765 net.cpp:100] Creating Layer fc7
I0815 17:35:10.087003 13765 net.cpp:434] fc7 <- fc6
I0815 17:35:10.087007 13765 net.cpp:408] fc7 -> fc7
I0815 17:35:10.093444 13765 net.cpp:150] Setting up fc7
I0815 17:35:10.093456 13765 net.cpp:157] Top shape: 4 1024 18 22 (1622016)
I0815 17:35:10.093461 13765 net.cpp:165] Memory required for data: 1012138208
I0815 17:35:10.093466 13765 layer_factory.hpp:77] Creating layer relu7
I0815 17:35:10.093474 13765 net.cpp:100] Creating Layer relu7
I0815 17:35:10.093477 13765 net.cpp:434] relu7 <- fc7
I0815 17:35:10.093482 13765 net.cpp:395] relu7 -> fc7 (in-place)
I0815 17:35:10.093866 13765 net.cpp:150] Setting up relu7
I0815 17:35:10.093873 13765 net.cpp:157] Top shape: 4 1024 18 22 (1622016)
I0815 17:35:10.093876 13765 net.cpp:165] Memory required for data: 1018626272
I0815 17:35:10.093878 13765 layer_factory.hpp:77] Creating layer fc7_relu7_0_split
I0815 17:35:10.093884 13765 net.cpp:100] Creating Layer fc7_relu7_0_split
I0815 17:35:10.093888 13765 net.cpp:434] fc7_relu7_0_split <- fc7
I0815 17:35:10.093891 13765 net.cpp:408] fc7_relu7_0_split -> fc7_relu7_0_split_0
I0815 17:35:10.093897 13765 net.cpp:408] fc7_relu7_0_split -> fc7_relu7_0_split_1
I0815 17:35:10.093902 13765 net.cpp:408] fc7_relu7_0_split -> fc7_relu7_0_split_2
I0815 17:35:10.093906 13765 net.cpp:408] fc7_relu7_0_split -> fc7_relu7_0_split_3
I0815 17:35:10.093979 13765 net.cpp:150] Setting up fc7_relu7_0_split
I0815 17:35:10.093983 13765 net.cpp:157] Top shape: 4 1024 18 22 (1622016)
I0815 17:35:10.093986 13765 net.cpp:157] Top shape: 4 1024 18 22 (1622016)
I0815 17:35:10.093989 13765 net.cpp:157] Top shape: 4 1024 18 22 (1622016)
I0815 17:35:10.093992 13765 net.cpp:157] Top shape: 4 1024 18 22 (1622016)
I0815 17:35:10.093994 13765 net.cpp:165] Memory required for data: 1044578528
I0815 17:35:10.093997 13765 layer_factory.hpp:77] Creating layer conv6_1
I0815 17:35:10.094004 13765 net.cpp:100] Creating Layer conv6_1
I0815 17:35:10.094007 13765 net.cpp:434] conv6_1 <- fc7_relu7_0_split_0
I0815 17:35:10.094012 13765 net.cpp:408] conv6_1 -> conv6_1
I0815 17:35:10.098135 13765 net.cpp:150] Setting up conv6_1
I0815 17:35:10.098145 13765 net.cpp:157] Top shape: 4 256 18 22 (405504)
I0815 17:35:10.098150 13765 net.cpp:165] Memory required for data: 1046200544
I0815 17:35:10.098155 13765 layer_factory.hpp:77] Creating layer conv6_1_relu
I0815 17:35:10.098160 13765 net.cpp:100] Creating Layer conv6_1_relu
I0815 17:35:10.098163 13765 net.cpp:434] conv6_1_relu <- conv6_1
I0815 17:35:10.098167 13765 net.cpp:395] conv6_1_relu -> conv6_1 (in-place)
I0815 17:35:10.098546 13765 net.cpp:150] Setting up conv6_1_relu
I0815 17:35:10.098552 13765 net.cpp:157] Top shape: 4 256 18 22 (405504)
I0815 17:35:10.098556 13765 net.cpp:165] Memory required for data: 1047822560
I0815 17:35:10.098558 13765 layer_factory.hpp:77] Creating layer conv6_2
I0815 17:35:10.098568 13765 net.cpp:100] Creating Layer conv6_2
I0815 17:35:10.098572 13765 net.cpp:434] conv6_2 <- conv6_1
I0815 17:35:10.098575 13765 net.cpp:408] conv6_2 -> conv6_2
I0815 17:35:10.105330 13765 net.cpp:150] Setting up conv6_2
I0815 17:35:10.105342 13765 net.cpp:157] Top shape: 4 512 9 11 (202752)
I0815 17:35:10.105346 13765 net.cpp:165] Memory required for data: 1048633568
I0815 17:35:10.105355 13765 layer_factory.hpp:77] Creating layer conv6_2_relu
I0815 17:35:10.105362 13765 net.cpp:100] Creating Layer conv6_2_relu
I0815 17:35:10.105365 13765 net.cpp:434] conv6_2_relu <- conv6_2
I0815 17:35:10.105370 13765 net.cpp:395] conv6_2_relu -> conv6_2 (in-place)
I0815 17:35:10.105891 13765 net.cpp:150] Setting up conv6_2_relu
I0815 17:35:10.105898 13765 net.cpp:157] Top shape: 4 512 9 11 (202752)
I0815 17:35:10.105902 13765 net.cpp:165] Memory required for data: 1049444576
I0815 17:35:10.105906 13765 layer_factory.hpp:77] Creating layer conv6_2_conv6_2_relu_0_split
I0815 17:35:10.105912 13765 net.cpp:100] Creating Layer conv6_2_conv6_2_relu_0_split
I0815 17:35:10.105914 13765 net.cpp:434] conv6_2_conv6_2_relu_0_split <- conv6_2
I0815 17:35:10.105933 13765 net.cpp:408] conv6_2_conv6_2_relu_0_split -> conv6_2_conv6_2_relu_0_split_0
I0815 17:35:10.105939 13765 net.cpp:408] conv6_2_conv6_2_relu_0_split -> conv6_2_conv6_2_relu_0_split_1
I0815 17:35:10.105943 13765 net.cpp:408] conv6_2_conv6_2_relu_0_split -> conv6_2_conv6_2_relu_0_split_2
I0815 17:35:10.105948 13765 net.cpp:408] conv6_2_conv6_2_relu_0_split -> conv6_2_conv6_2_relu_0_split_3
I0815 17:35:10.106025 13765 net.cpp:150] Setting up conv6_2_conv6_2_relu_0_split
I0815 17:35:10.106029 13765 net.cpp:157] Top shape: 4 512 9 11 (202752)
I0815 17:35:10.106034 13765 net.cpp:157] Top shape: 4 512 9 11 (202752)
I0815 17:35:10.106035 13765 net.cpp:157] Top shape: 4 512 9 11 (202752)
I0815 17:35:10.106039 13765 net.cpp:157] Top shape: 4 512 9 11 (202752)
I0815 17:35:10.106040 13765 net.cpp:165] Memory required for data: 1052688608
I0815 17:35:10.106042 13765 layer_factory.hpp:77] Creating layer conv7_1
I0815 17:35:10.106050 13765 net.cpp:100] Creating Layer conv7_1
I0815 17:35:10.106052 13765 net.cpp:434] conv7_1 <- conv6_2_conv6_2_relu_0_split_0
I0815 17:35:10.106056 13765 net.cpp:408] conv7_1 -> conv7_1
I0815 17:35:10.109388 13765 net.cpp:150] Setting up conv7_1
I0815 17:35:10.109400 13765 net.cpp:157] Top shape: 4 128 9 11 (50688)
I0815 17:35:10.109405 13765 net.cpp:165] Memory required for data: 1052891360
I0815 17:35:10.109410 13765 layer_factory.hpp:77] Creating layer conv7_1_relu
I0815 17:35:10.109414 13765 net.cpp:100] Creating Layer conv7_1_relu
I0815 17:35:10.109418 13765 net.cpp:434] conv7_1_relu <- conv7_1
I0815 17:35:10.109421 13765 net.cpp:395] conv7_1_relu -> conv7_1 (in-place)
I0815 17:35:10.109848 13765 net.cpp:150] Setting up conv7_1_relu
I0815 17:35:10.109854 13765 net.cpp:157] Top shape: 4 128 9 11 (50688)
I0815 17:35:10.109858 13765 net.cpp:165] Memory required for data: 1053094112
I0815 17:35:10.109860 13765 layer_factory.hpp:77] Creating layer conv7_2
I0815 17:35:10.109869 13765 net.cpp:100] Creating Layer conv7_2
I0815 17:35:10.109872 13765 net.cpp:434] conv7_2 <- conv7_1
I0815 17:35:10.109876 13765 net.cpp:408] conv7_2 -> conv7_2
I0815 17:35:10.113078 13765 net.cpp:150] Setting up conv7_2
I0815 17:35:10.113086 13765 net.cpp:157] Top shape: 4 256 5 6 (30720)
I0815 17:35:10.113090 13765 net.cpp:165] Memory required for data: 1053216992
I0815 17:35:10.113095 13765 layer_factory.hpp:77] Creating layer conv7_2_relu
I0815 17:35:10.113101 13765 net.cpp:100] Creating Layer conv7_2_relu
I0815 17:35:10.113103 13765 net.cpp:434] conv7_2_relu <- conv7_2
I0815 17:35:10.113106 13765 net.cpp:395] conv7_2_relu -> conv7_2 (in-place)
I0815 17:35:10.113634 13765 net.cpp:150] Setting up conv7_2_relu
I0815 17:35:10.113641 13765 net.cpp:157] Top shape: 4 256 5 6 (30720)
I0815 17:35:10.113646 13765 net.cpp:165] Memory required for data: 1053339872
I0815 17:35:10.113648 13765 layer_factory.hpp:77] Creating layer conv7_2_conv7_2_relu_0_split
I0815 17:35:10.113653 13765 net.cpp:100] Creating Layer conv7_2_conv7_2_relu_0_split
I0815 17:35:10.113656 13765 net.cpp:434] conv7_2_conv7_2_relu_0_split <- conv7_2
I0815 17:35:10.113660 13765 net.cpp:408] conv7_2_conv7_2_relu_0_split -> conv7_2_conv7_2_relu_0_split_0
I0815 17:35:10.113665 13765 net.cpp:408] conv7_2_conv7_2_relu_0_split -> conv7_2_conv7_2_relu_0_split_1
I0815 17:35:10.113670 13765 net.cpp:408] conv7_2_conv7_2_relu_0_split -> conv7_2_conv7_2_relu_0_split_2
I0815 17:35:10.113674 13765 net.cpp:408] conv7_2_conv7_2_relu_0_split -> conv7_2_conv7_2_relu_0_split_3
I0815 17:35:10.113754 13765 net.cpp:150] Setting up conv7_2_conv7_2_relu_0_split
I0815 17:35:10.113759 13765 net.cpp:157] Top shape: 4 256 5 6 (30720)
I0815 17:35:10.113762 13765 net.cpp:157] Top shape: 4 256 5 6 (30720)
I0815 17:35:10.113765 13765 net.cpp:157] Top shape: 4 256 5 6 (30720)
I0815 17:35:10.113767 13765 net.cpp:157] Top shape: 4 256 5 6 (30720)
I0815 17:35:10.113770 13765 net.cpp:165] Memory required for data: 1053831392
I0815 17:35:10.113772 13765 layer_factory.hpp:77] Creating layer conv8_1
I0815 17:35:10.113778 13765 net.cpp:100] Creating Layer conv8_1
I0815 17:35:10.113795 13765 net.cpp:434] conv8_1 <- conv7_2_conv7_2_relu_0_split_0
I0815 17:35:10.113798 13765 net.cpp:408] conv8_1 -> conv8_1
I0815 17:35:10.115590 13765 net.cpp:150] Setting up conv8_1
I0815 17:35:10.115597 13765 net.cpp:157] Top shape: 4 128 5 6 (15360)
I0815 17:35:10.115602 13765 net.cpp:165] Memory required for data: 1053892832
I0815 17:35:10.115605 13765 layer_factory.hpp:77] Creating layer conv8_1_relu
I0815 17:35:10.115609 13765 net.cpp:100] Creating Layer conv8_1_relu
I0815 17:35:10.115613 13765 net.cpp:434] conv8_1_relu <- conv8_1
I0815 17:35:10.115617 13765 net.cpp:395] conv8_1_relu -> conv8_1 (in-place)
I0815 17:35:10.116000 13765 net.cpp:150] Setting up conv8_1_relu
I0815 17:35:10.116008 13765 net.cpp:157] Top shape: 4 128 5 6 (15360)
I0815 17:35:10.116011 13765 net.cpp:165] Memory required for data: 1053954272
I0815 17:35:10.116014 13765 layer_factory.hpp:77] Creating layer conv8_2
I0815 17:35:10.116020 13765 net.cpp:100] Creating Layer conv8_2
I0815 17:35:10.116024 13765 net.cpp:434] conv8_2 <- conv8_1
I0815 17:35:10.116027 13765 net.cpp:408] conv8_2 -> conv8_2
I0815 17:35:10.120414 13765 net.cpp:150] Setting up conv8_2
I0815 17:35:10.120424 13765 net.cpp:157] Top shape: 4 256 3 4 (12288)
I0815 17:35:10.120427 13765 net.cpp:165] Memory required for data: 1054003424
I0815 17:35:10.120435 13765 layer_factory.hpp:77] Creating layer conv8_2_relu
I0815 17:35:10.120440 13765 net.cpp:100] Creating Layer conv8_2_relu
I0815 17:35:10.120443 13765 net.cpp:434] conv8_2_relu <- conv8_2
I0815 17:35:10.120447 13765 net.cpp:395] conv8_2_relu -> conv8_2 (in-place)
I0815 17:35:10.120829 13765 net.cpp:150] Setting up conv8_2_relu
I0815 17:35:10.120836 13765 net.cpp:157] Top shape: 4 256 3 4 (12288)
I0815 17:35:10.120841 13765 net.cpp:165] Memory required for data: 1054052576
I0815 17:35:10.120843 13765 layer_factory.hpp:77] Creating layer conv8_2_conv8_2_relu_0_split
I0815 17:35:10.120849 13765 net.cpp:100] Creating Layer conv8_2_conv8_2_relu_0_split
I0815 17:35:10.120852 13765 net.cpp:434] conv8_2_conv8_2_relu_0_split <- conv8_2
I0815 17:35:10.120857 13765 net.cpp:408] conv8_2_conv8_2_relu_0_split -> conv8_2_conv8_2_relu_0_split_0
I0815 17:35:10.120862 13765 net.cpp:408] conv8_2_conv8_2_relu_0_split -> conv8_2_conv8_2_relu_0_split_1
I0815 17:35:10.120867 13765 net.cpp:408] conv8_2_conv8_2_relu_0_split -> conv8_2_conv8_2_relu_0_split_2
I0815 17:35:10.120870 13765 net.cpp:408] conv8_2_conv8_2_relu_0_split -> conv8_2_conv8_2_relu_0_split_3
I0815 17:35:10.120946 13765 net.cpp:150] Setting up conv8_2_conv8_2_relu_0_split
I0815 17:35:10.120950 13765 net.cpp:157] Top shape: 4 256 3 4 (12288)
I0815 17:35:10.120954 13765 net.cpp:157] Top shape: 4 256 3 4 (12288)
I0815 17:35:10.120956 13765 net.cpp:157] Top shape: 4 256 3 4 (12288)
I0815 17:35:10.120959 13765 net.cpp:157] Top shape: 4 256 3 4 (12288)
I0815 17:35:10.120961 13765 net.cpp:165] Memory required for data: 1054249184
I0815 17:35:10.120963 13765 layer_factory.hpp:77] Creating layer conv9_1
I0815 17:35:10.120971 13765 net.cpp:100] Creating Layer conv9_1
I0815 17:35:10.120975 13765 net.cpp:434] conv9_1 <- conv8_2_conv8_2_relu_0_split_0
I0815 17:35:10.120977 13765 net.cpp:408] conv9_1 -> conv9_1
I0815 17:35:10.122802 13765 net.cpp:150] Setting up conv9_1
I0815 17:35:10.122810 13765 net.cpp:157] Top shape: 4 128 3 4 (6144)
I0815 17:35:10.122814 13765 net.cpp:165] Memory required for data: 1054273760
I0815 17:35:10.122818 13765 layer_factory.hpp:77] Creating layer conv9_1_relu
I0815 17:35:10.122823 13765 net.cpp:100] Creating Layer conv9_1_relu
I0815 17:35:10.122826 13765 net.cpp:434] conv9_1_relu <- conv9_1
I0815 17:35:10.122829 13765 net.cpp:395] conv9_1_relu -> conv9_1 (in-place)
I0815 17:35:10.123334 13765 net.cpp:150] Setting up conv9_1_relu
I0815 17:35:10.123342 13765 net.cpp:157] Top shape: 4 128 3 4 (6144)
I0815 17:35:10.123347 13765 net.cpp:165] Memory required for data: 1054298336
I0815 17:35:10.123348 13765 layer_factory.hpp:77] Creating layer conv9_2
I0815 17:35:10.123356 13765 net.cpp:100] Creating Layer conv9_2
I0815 17:35:10.123359 13765 net.cpp:434] conv9_2 <- conv9_1
I0815 17:35:10.123376 13765 net.cpp:408] conv9_2 -> conv9_2
I0815 17:35:10.127847 13765 net.cpp:150] Setting up conv9_2
I0815 17:35:10.127863 13765 net.cpp:157] Top shape: 4 256 1 2 (2048)
I0815 17:35:10.127868 13765 net.cpp:165] Memory required for data: 1054306528
I0815 17:35:10.127876 13765 layer_factory.hpp:77] Creating layer conv9_2_relu
I0815 17:35:10.127883 13765 net.cpp:100] Creating Layer conv9_2_relu
I0815 17:35:10.127888 13765 net.cpp:434] conv9_2_relu <- conv9_2
I0815 17:35:10.127892 13765 net.cpp:395] conv9_2_relu -> conv9_2 (in-place)
I0815 17:35:10.128430 13765 net.cpp:150] Setting up conv9_2_relu
I0815 17:35:10.128437 13765 net.cpp:157] Top shape: 4 256 1 2 (2048)
I0815 17:35:10.128441 13765 net.cpp:165] Memory required for data: 1054314720
I0815 17:35:10.128444 13765 layer_factory.hpp:77] Creating layer conv9_2_conv9_2_relu_0_split
I0815 17:35:10.128451 13765 net.cpp:100] Creating Layer conv9_2_conv9_2_relu_0_split
I0815 17:35:10.128454 13765 net.cpp:434] conv9_2_conv9_2_relu_0_split <- conv9_2
I0815 17:35:10.128460 13765 net.cpp:408] conv9_2_conv9_2_relu_0_split -> conv9_2_conv9_2_relu_0_split_0
I0815 17:35:10.128468 13765 net.cpp:408] conv9_2_conv9_2_relu_0_split -> conv9_2_conv9_2_relu_0_split_1
I0815 17:35:10.128474 13765 net.cpp:408] conv9_2_conv9_2_relu_0_split -> conv9_2_conv9_2_relu_0_split_2
I0815 17:35:10.128545 13765 net.cpp:150] Setting up conv9_2_conv9_2_relu_0_split
I0815 17:35:10.128551 13765 net.cpp:157] Top shape: 4 256 1 2 (2048)
I0815 17:35:10.128553 13765 net.cpp:157] Top shape: 4 256 1 2 (2048)
I0815 17:35:10.128556 13765 net.cpp:157] Top shape: 4 256 1 2 (2048)
I0815 17:35:10.128558 13765 net.cpp:165] Memory required for data: 1054339296
I0815 17:35:10.128561 13765 layer_factory.hpp:77] Creating layer conv4_3_norm
I0815 17:35:10.128567 13765 net.cpp:100] Creating Layer conv4_3_norm
I0815 17:35:10.128571 13765 net.cpp:434] conv4_3_norm <- conv4_3_relu4_3_0_split_1
I0815 17:35:10.128574 13765 net.cpp:408] conv4_3_norm -> conv4_3_norm
I0815 17:35:10.128770 13765 net.cpp:150] Setting up conv4_3_norm
I0815 17:35:10.128774 13765 net.cpp:157] Top shape: 4 512 36 44 (3244032)
I0815 17:35:10.128778 13765 net.cpp:165] Memory required for data: 1067315424
I0815 17:35:10.128782 13765 layer_factory.hpp:77] Creating layer conv4_3_norm_conv4_3_norm_0_split
I0815 17:35:10.128785 13765 net.cpp:100] Creating Layer conv4_3_norm_conv4_3_norm_0_split
I0815 17:35:10.128787 13765 net.cpp:434] conv4_3_norm_conv4_3_norm_0_split <- conv4_3_norm
I0815 17:35:10.128793 13765 net.cpp:408] conv4_3_norm_conv4_3_norm_0_split -> conv4_3_norm_conv4_3_norm_0_split_0
I0815 17:35:10.128796 13765 net.cpp:408] conv4_3_norm_conv4_3_norm_0_split -> conv4_3_norm_conv4_3_norm_0_split_1
I0815 17:35:10.128800 13765 net.cpp:408] conv4_3_norm_conv4_3_norm_0_split -> conv4_3_norm_conv4_3_norm_0_split_2
I0815 17:35:10.128855 13765 net.cpp:150] Setting up conv4_3_norm_conv4_3_norm_0_split
I0815 17:35:10.128859 13765 net.cpp:157] Top shape: 4 512 36 44 (3244032)
I0815 17:35:10.128862 13765 net.cpp:157] Top shape: 4 512 36 44 (3244032)
I0815 17:35:10.128865 13765 net.cpp:157] Top shape: 4 512 36 44 (3244032)
I0815 17:35:10.128867 13765 net.cpp:165] Memory required for data: 1106243808
I0815 17:35:10.128870 13765 layer_factory.hpp:77] Creating layer conv4_3_norm_mbox_loc
I0815 17:35:10.128880 13765 net.cpp:100] Creating Layer conv4_3_norm_mbox_loc
I0815 17:35:10.128881 13765 net.cpp:434] conv4_3_norm_mbox_loc <- conv4_3_norm_conv4_3_norm_0_split_0
I0815 17:35:10.128886 13765 net.cpp:408] conv4_3_norm_mbox_loc -> conv4_3_norm_mbox_loc
I0815 17:35:10.130981 13765 net.cpp:150] Setting up conv4_3_norm_mbox_loc
I0815 17:35:10.130990 13765 net.cpp:157] Top shape: 4 16 36 44 (101376)
I0815 17:35:10.130993 13765 net.cpp:165] Memory required for data: 1106649312
I0815 17:35:10.130998 13765 layer_factory.hpp:77] Creating layer conv4_3_norm_mbox_loc_perm
I0815 17:35:10.131003 13765 net.cpp:100] Creating Layer conv4_3_norm_mbox_loc_perm
I0815 17:35:10.131006 13765 net.cpp:434] conv4_3_norm_mbox_loc_perm <- conv4_3_norm_mbox_loc
I0815 17:35:10.131023 13765 net.cpp:408] conv4_3_norm_mbox_loc_perm -> conv4_3_norm_mbox_loc_perm
I0815 17:35:10.131151 13765 net.cpp:150] Setting up conv4_3_norm_mbox_loc_perm
I0815 17:35:10.131155 13765 net.cpp:157] Top shape: 4 36 44 16 (101376)
I0815 17:35:10.131158 13765 net.cpp:165] Memory required for data: 1107054816
I0815 17:35:10.131161 13765 layer_factory.hpp:77] Creating layer conv4_3_norm_mbox_loc_flat
I0815 17:35:10.131166 13765 net.cpp:100] Creating Layer conv4_3_norm_mbox_loc_flat
I0815 17:35:10.131170 13765 net.cpp:434] conv4_3_norm_mbox_loc_flat <- conv4_3_norm_mbox_loc_perm
I0815 17:35:10.131172 13765 net.cpp:408] conv4_3_norm_mbox_loc_flat -> conv4_3_norm_mbox_loc_flat
I0815 17:35:10.131198 13765 net.cpp:150] Setting up conv4_3_norm_mbox_loc_flat
I0815 17:35:10.131202 13765 net.cpp:157] Top shape: 4 25344 (101376)
I0815 17:35:10.131206 13765 net.cpp:165] Memory required for data: 1107460320
I0815 17:35:10.131207 13765 layer_factory.hpp:77] Creating layer conv4_3_norm_mbox_conf
I0815 17:35:10.131220 13765 net.cpp:100] Creating Layer conv4_3_norm_mbox_conf
I0815 17:35:10.131223 13765 net.cpp:434] conv4_3_norm_mbox_conf <- conv4_3_norm_conv4_3_norm_0_split_1
I0815 17:35:10.131227 13765 net.cpp:408] conv4_3_norm_mbox_conf -> conv4_3_norm_mbox_conf
I0815 17:35:10.133325 13765 net.cpp:150] Setting up conv4_3_norm_mbox_conf
I0815 17:35:10.133333 13765 net.cpp:157] Top shape: 4 8 36 44 (50688)
I0815 17:35:10.133337 13765 net.cpp:165] Memory required for data: 1107663072
I0815 17:35:10.133342 13765 layer_factory.hpp:77] Creating layer conv4_3_norm_mbox_conf_perm
I0815 17:35:10.133348 13765 net.cpp:100] Creating Layer conv4_3_norm_mbox_conf_perm
I0815 17:35:10.133352 13765 net.cpp:434] conv4_3_norm_mbox_conf_perm <- conv4_3_norm_mbox_conf
I0815 17:35:10.133354 13765 net.cpp:408] conv4_3_norm_mbox_conf_perm -> conv4_3_norm_mbox_conf_perm
I0815 17:35:10.133482 13765 net.cpp:150] Setting up conv4_3_norm_mbox_conf_perm
I0815 17:35:10.133486 13765 net.cpp:157] Top shape: 4 36 44 8 (50688)
I0815 17:35:10.133491 13765 net.cpp:165] Memory required for data: 1107865824
I0815 17:35:10.133492 13765 layer_factory.hpp:77] Creating layer conv4_3_norm_mbox_conf_flat
I0815 17:35:10.133496 13765 net.cpp:100] Creating Layer conv4_3_norm_mbox_conf_flat
I0815 17:35:10.133498 13765 net.cpp:434] conv4_3_norm_mbox_conf_flat <- conv4_3_norm_mbox_conf_perm
I0815 17:35:10.133502 13765 net.cpp:408] conv4_3_norm_mbox_conf_flat -> conv4_3_norm_mbox_conf_flat
I0815 17:35:10.133527 13765 net.cpp:150] Setting up conv4_3_norm_mbox_conf_flat
I0815 17:35:10.133530 13765 net.cpp:157] Top shape: 4 12672 (50688)
I0815 17:35:10.133533 13765 net.cpp:165] Memory required for data: 1108068576
I0815 17:35:10.133535 13765 layer_factory.hpp:77] Creating layer conv4_3_norm_mbox_priorbox
I0815 17:35:10.133540 13765 net.cpp:100] Creating Layer conv4_3_norm_mbox_priorbox
I0815 17:35:10.133543 13765 net.cpp:434] conv4_3_norm_mbox_priorbox <- conv4_3_norm_conv4_3_norm_0_split_2
I0815 17:35:10.133545 13765 net.cpp:434] conv4_3_norm_mbox_priorbox <- data_data_0_split_1
I0815 17:35:10.133549 13765 net.cpp:408] conv4_3_norm_mbox_priorbox -> conv4_3_norm_mbox_priorbox
I0815 17:35:10.133576 13765 net.cpp:150] Setting up conv4_3_norm_mbox_priorbox
I0815 17:35:10.133580 13765 net.cpp:157] Top shape: 1 2 25344 (50688)
I0815 17:35:10.133584 13765 net.cpp:165] Memory required for data: 1108271328
I0815 17:35:10.133585 13765 layer_factory.hpp:77] Creating layer fc7_mbox_loc
I0815 17:35:10.133592 13765 net.cpp:100] Creating Layer fc7_mbox_loc
I0815 17:35:10.133596 13765 net.cpp:434] fc7_mbox_loc <- fc7_relu7_0_split_1
I0815 17:35:10.133600 13765 net.cpp:408] fc7_mbox_loc -> fc7_mbox_loc
I0815 17:35:10.137181 13765 net.cpp:150] Setting up fc7_mbox_loc
I0815 17:35:10.137189 13765 net.cpp:157] Top shape: 4 24 18 22 (38016)
I0815 17:35:10.137193 13765 net.cpp:165] Memory required for data: 1108423392
I0815 17:35:10.137199 13765 layer_factory.hpp:77] Creating layer fc7_mbox_loc_perm
I0815 17:35:10.137207 13765 net.cpp:100] Creating Layer fc7_mbox_loc_perm
I0815 17:35:10.137210 13765 net.cpp:434] fc7_mbox_loc_perm <- fc7_mbox_loc
I0815 17:35:10.137225 13765 net.cpp:408] fc7_mbox_loc_perm -> fc7_mbox_loc_perm
I0815 17:35:10.137356 13765 net.cpp:150] Setting up fc7_mbox_loc_perm
I0815 17:35:10.137362 13765 net.cpp:157] Top shape: 4 18 22 24 (38016)
I0815 17:35:10.137365 13765 net.cpp:165] Memory required for data: 1108575456
I0815 17:35:10.137368 13765 layer_factory.hpp:77] Creating layer fc7_mbox_loc_flat
I0815 17:35:10.137372 13765 net.cpp:100] Creating Layer fc7_mbox_loc_flat
I0815 17:35:10.137374 13765 net.cpp:434] fc7_mbox_loc_flat <- fc7_mbox_loc_perm
I0815 17:35:10.137377 13765 net.cpp:408] fc7_mbox_loc_flat -> fc7_mbox_loc_flat
I0815 17:35:10.137403 13765 net.cpp:150] Setting up fc7_mbox_loc_flat
I0815 17:35:10.137406 13765 net.cpp:157] Top shape: 4 9504 (38016)
I0815 17:35:10.137409 13765 net.cpp:165] Memory required for data: 1108727520
I0815 17:35:10.137411 13765 layer_factory.hpp:77] Creating layer fc7_mbox_conf
I0815 17:35:10.137418 13765 net.cpp:100] Creating Layer fc7_mbox_conf
I0815 17:35:10.137421 13765 net.cpp:434] fc7_mbox_conf <- fc7_relu7_0_split_2
I0815 17:35:10.137425 13765 net.cpp:408] fc7_mbox_conf -> fc7_mbox_conf
I0815 17:35:10.139672 13765 net.cpp:150] Setting up fc7_mbox_conf
I0815 17:35:10.139680 13765 net.cpp:157] Top shape: 4 12 18 22 (19008)
I0815 17:35:10.139684 13765 net.cpp:165] Memory required for data: 1108803552
I0815 17:35:10.139690 13765 layer_factory.hpp:77] Creating layer fc7_mbox_conf_perm
I0815 17:35:10.139695 13765 net.cpp:100] Creating Layer fc7_mbox_conf_perm
I0815 17:35:10.139698 13765 net.cpp:434] fc7_mbox_conf_perm <- fc7_mbox_conf
I0815 17:35:10.139704 13765 net.cpp:408] fc7_mbox_conf_perm -> fc7_mbox_conf_perm
I0815 17:35:10.139834 13765 net.cpp:150] Setting up fc7_mbox_conf_perm
I0815 17:35:10.139838 13765 net.cpp:157] Top shape: 4 18 22 12 (19008)
I0815 17:35:10.139842 13765 net.cpp:165] Memory required for data: 1108879584
I0815 17:35:10.139844 13765 layer_factory.hpp:77] Creating layer fc7_mbox_conf_flat
I0815 17:35:10.139848 13765 net.cpp:100] Creating Layer fc7_mbox_conf_flat
I0815 17:35:10.139852 13765 net.cpp:434] fc7_mbox_conf_flat <- fc7_mbox_conf_perm
I0815 17:35:10.139854 13765 net.cpp:408] fc7_mbox_conf_flat -> fc7_mbox_conf_flat
I0815 17:35:10.139879 13765 net.cpp:150] Setting up fc7_mbox_conf_flat
I0815 17:35:10.139883 13765 net.cpp:157] Top shape: 4 4752 (19008)
I0815 17:35:10.139885 13765 net.cpp:165] Memory required for data: 1108955616
I0815 17:35:10.139889 13765 layer_factory.hpp:77] Creating layer fc7_mbox_priorbox
I0815 17:35:10.139892 13765 net.cpp:100] Creating Layer fc7_mbox_priorbox
I0815 17:35:10.139895 13765 net.cpp:434] fc7_mbox_priorbox <- fc7_relu7_0_split_3
I0815 17:35:10.139899 13765 net.cpp:434] fc7_mbox_priorbox <- data_data_0_split_2
I0815 17:35:10.139902 13765 net.cpp:408] fc7_mbox_priorbox -> fc7_mbox_priorbox
I0815 17:35:10.139928 13765 net.cpp:150] Setting up fc7_mbox_priorbox
I0815 17:35:10.139932 13765 net.cpp:157] Top shape: 1 2 9504 (19008)
I0815 17:35:10.139935 13765 net.cpp:165] Memory required for data: 1109031648
I0815 17:35:10.139937 13765 layer_factory.hpp:77] Creating layer conv6_2_mbox_loc
I0815 17:35:10.139943 13765 net.cpp:100] Creating Layer conv6_2_mbox_loc
I0815 17:35:10.139947 13765 net.cpp:434] conv6_2_mbox_loc <- conv6_2_conv6_2_relu_0_split_1
I0815 17:35:10.139951 13765 net.cpp:408] conv6_2_mbox_loc -> conv6_2_mbox_loc
I0815 17:35:10.142185 13765 net.cpp:150] Setting up conv6_2_mbox_loc
I0815 17:35:10.142194 13765 net.cpp:157] Top shape: 4 24 9 11 (9504)
I0815 17:35:10.142197 13765 net.cpp:165] Memory required for data: 1109069664
I0815 17:35:10.142204 13765 layer_factory.hpp:77] Creating layer conv6_2_mbox_loc_perm
I0815 17:35:10.142208 13765 net.cpp:100] Creating Layer conv6_2_mbox_loc_perm
I0815 17:35:10.142212 13765 net.cpp:434] conv6_2_mbox_loc_perm <- conv6_2_mbox_loc
I0815 17:35:10.142216 13765 net.cpp:408] conv6_2_mbox_loc_perm -> conv6_2_mbox_loc_perm
I0815 17:35:10.142349 13765 net.cpp:150] Setting up conv6_2_mbox_loc_perm
I0815 17:35:10.142352 13765 net.cpp:157] Top shape: 4 9 11 24 (9504)
I0815 17:35:10.142367 13765 net.cpp:165] Memory required for data: 1109107680
I0815 17:35:10.142369 13765 layer_factory.hpp:77] Creating layer conv6_2_mbox_loc_flat
I0815 17:35:10.142375 13765 net.cpp:100] Creating Layer conv6_2_mbox_loc_flat
I0815 17:35:10.142377 13765 net.cpp:434] conv6_2_mbox_loc_flat <- conv6_2_mbox_loc_perm
I0815 17:35:10.142381 13765 net.cpp:408] conv6_2_mbox_loc_flat -> conv6_2_mbox_loc_flat
I0815 17:35:10.142405 13765 net.cpp:150] Setting up conv6_2_mbox_loc_flat
I0815 17:35:10.142410 13765 net.cpp:157] Top shape: 4 2376 (9504)
I0815 17:35:10.142412 13765 net.cpp:165] Memory required for data: 1109145696
I0815 17:35:10.142415 13765 layer_factory.hpp:77] Creating layer conv6_2_mbox_conf
I0815 17:35:10.142422 13765 net.cpp:100] Creating Layer conv6_2_mbox_conf
I0815 17:35:10.142426 13765 net.cpp:434] conv6_2_mbox_conf <- conv6_2_conv6_2_relu_0_split_2
I0815 17:35:10.142429 13765 net.cpp:408] conv6_2_mbox_conf -> conv6_2_mbox_conf
I0815 17:35:10.144472 13765 net.cpp:150] Setting up conv6_2_mbox_conf
I0815 17:35:10.144480 13765 net.cpp:157] Top shape: 4 12 9 11 (4752)
I0815 17:35:10.144484 13765 net.cpp:165] Memory required for data: 1109164704
I0815 17:35:10.144490 13765 layer_factory.hpp:77] Creating layer conv6_2_mbox_conf_perm
I0815 17:35:10.144495 13765 net.cpp:100] Creating Layer conv6_2_mbox_conf_perm
I0815 17:35:10.144500 13765 net.cpp:434] conv6_2_mbox_conf_perm <- conv6_2_mbox_conf
I0815 17:35:10.144503 13765 net.cpp:408] conv6_2_mbox_conf_perm -> conv6_2_mbox_conf_perm
I0815 17:35:10.144635 13765 net.cpp:150] Setting up conv6_2_mbox_conf_perm
I0815 17:35:10.144640 13765 net.cpp:157] Top shape: 4 9 11 12 (4752)
I0815 17:35:10.144644 13765 net.cpp:165] Memory required for data: 1109183712
I0815 17:35:10.144645 13765 layer_factory.hpp:77] Creating layer conv6_2_mbox_conf_flat
I0815 17:35:10.144649 13765 net.cpp:100] Creating Layer conv6_2_mbox_conf_flat
I0815 17:35:10.144651 13765 net.cpp:434] conv6_2_mbox_conf_flat <- conv6_2_mbox_conf_perm
I0815 17:35:10.144655 13765 net.cpp:408] conv6_2_mbox_conf_flat -> conv6_2_mbox_conf_flat
I0815 17:35:10.144680 13765 net.cpp:150] Setting up conv6_2_mbox_conf_flat
I0815 17:35:10.144683 13765 net.cpp:157] Top shape: 4 1188 (4752)
I0815 17:35:10.144686 13765 net.cpp:165] Memory required for data: 1109202720
I0815 17:35:10.144688 13765 layer_factory.hpp:77] Creating layer conv6_2_mbox_priorbox
I0815 17:35:10.144692 13765 net.cpp:100] Creating Layer conv6_2_mbox_priorbox
I0815 17:35:10.144695 13765 net.cpp:434] conv6_2_mbox_priorbox <- conv6_2_conv6_2_relu_0_split_3
I0815 17:35:10.144699 13765 net.cpp:434] conv6_2_mbox_priorbox <- data_data_0_split_3
I0815 17:35:10.144702 13765 net.cpp:408] conv6_2_mbox_priorbox -> conv6_2_mbox_priorbox
I0815 17:35:10.144729 13765 net.cpp:150] Setting up conv6_2_mbox_priorbox
I0815 17:35:10.144733 13765 net.cpp:157] Top shape: 1 2 2376 (4752)
I0815 17:35:10.144737 13765 net.cpp:165] Memory required for data: 1109221728
I0815 17:35:10.144738 13765 layer_factory.hpp:77] Creating layer conv7_2_mbox_loc
I0815 17:35:10.144745 13765 net.cpp:100] Creating Layer conv7_2_mbox_loc
I0815 17:35:10.144748 13765 net.cpp:434] conv7_2_mbox_loc <- conv7_2_conv7_2_relu_0_split_1
I0815 17:35:10.144752 13765 net.cpp:408] conv7_2_mbox_loc -> conv7_2_mbox_loc
I0815 17:35:10.147946 13765 net.cpp:150] Setting up conv7_2_mbox_loc
I0815 17:35:10.147955 13765 net.cpp:157] Top shape: 4 24 5 6 (2880)
I0815 17:35:10.147959 13765 net.cpp:165] Memory required for data: 1109233248
I0815 17:35:10.147964 13765 layer_factory.hpp:77] Creating layer conv7_2_mbox_loc_perm
I0815 17:35:10.147970 13765 net.cpp:100] Creating Layer conv7_2_mbox_loc_perm
I0815 17:35:10.147974 13765 net.cpp:434] conv7_2_mbox_loc_perm <- conv7_2_mbox_loc
I0815 17:35:10.147977 13765 net.cpp:408] conv7_2_mbox_loc_perm -> conv7_2_mbox_loc_perm
I0815 17:35:10.148110 13765 net.cpp:150] Setting up conv7_2_mbox_loc_perm
I0815 17:35:10.148115 13765 net.cpp:157] Top shape: 4 5 6 24 (2880)
I0815 17:35:10.148118 13765 net.cpp:165] Memory required for data: 1109244768
I0815 17:35:10.148120 13765 layer_factory.hpp:77] Creating layer conv7_2_mbox_loc_flat
I0815 17:35:10.148133 13765 net.cpp:100] Creating Layer conv7_2_mbox_loc_flat
I0815 17:35:10.148136 13765 net.cpp:434] conv7_2_mbox_loc_flat <- conv7_2_mbox_loc_perm
I0815 17:35:10.148140 13765 net.cpp:408] conv7_2_mbox_loc_flat -> conv7_2_mbox_loc_flat
I0815 17:35:10.148167 13765 net.cpp:150] Setting up conv7_2_mbox_loc_flat
I0815 17:35:10.148171 13765 net.cpp:157] Top shape: 4 720 (2880)
I0815 17:35:10.148174 13765 net.cpp:165] Memory required for data: 1109256288
I0815 17:35:10.148176 13765 layer_factory.hpp:77] Creating layer conv7_2_mbox_conf
I0815 17:35:10.148183 13765 net.cpp:100] Creating Layer conv7_2_mbox_conf
I0815 17:35:10.148186 13765 net.cpp:434] conv7_2_mbox_conf <- conv7_2_conv7_2_relu_0_split_2
I0815 17:35:10.148190 13765 net.cpp:408] conv7_2_mbox_conf -> conv7_2_mbox_conf
I0815 17:35:10.150189 13765 net.cpp:150] Setting up conv7_2_mbox_conf
I0815 17:35:10.150197 13765 net.cpp:157] Top shape: 4 12 5 6 (1440)
I0815 17:35:10.150200 13765 net.cpp:165] Memory required for data: 1109262048
I0815 17:35:10.150205 13765 layer_factory.hpp:77] Creating layer conv7_2_mbox_conf_perm
I0815 17:35:10.150210 13765 net.cpp:100] Creating Layer conv7_2_mbox_conf_perm
I0815 17:35:10.150213 13765 net.cpp:434] conv7_2_mbox_conf_perm <- conv7_2_mbox_conf
I0815 17:35:10.150218 13765 net.cpp:408] conv7_2_mbox_conf_perm -> conv7_2_mbox_conf_perm
I0815 17:35:10.150348 13765 net.cpp:150] Setting up conv7_2_mbox_conf_perm
I0815 17:35:10.150352 13765 net.cpp:157] Top shape: 4 5 6 12 (1440)
I0815 17:35:10.150355 13765 net.cpp:165] Memory required for data: 1109267808
I0815 17:35:10.150358 13765 layer_factory.hpp:77] Creating layer conv7_2_mbox_conf_flat
I0815 17:35:10.150362 13765 net.cpp:100] Creating Layer conv7_2_mbox_conf_flat
I0815 17:35:10.150365 13765 net.cpp:434] conv7_2_mbox_conf_flat <- conv7_2_mbox_conf_perm
I0815 17:35:10.150368 13765 net.cpp:408] conv7_2_mbox_conf_flat -> conv7_2_mbox_conf_flat
I0815 17:35:10.150393 13765 net.cpp:150] Setting up conv7_2_mbox_conf_flat
I0815 17:35:10.150398 13765 net.cpp:157] Top shape: 4 360 (1440)
I0815 17:35:10.150400 13765 net.cpp:165] Memory required for data: 1109273568
I0815 17:35:10.150403 13765 layer_factory.hpp:77] Creating layer conv7_2_mbox_priorbox
I0815 17:35:10.150408 13765 net.cpp:100] Creating Layer conv7_2_mbox_priorbox
I0815 17:35:10.150410 13765 net.cpp:434] conv7_2_mbox_priorbox <- conv7_2_conv7_2_relu_0_split_3
I0815 17:35:10.150413 13765 net.cpp:434] conv7_2_mbox_priorbox <- data_data_0_split_4
I0815 17:35:10.150418 13765 net.cpp:408] conv7_2_mbox_priorbox -> conv7_2_mbox_priorbox
I0815 17:35:10.150444 13765 net.cpp:150] Setting up conv7_2_mbox_priorbox
I0815 17:35:10.150447 13765 net.cpp:157] Top shape: 1 2 720 (1440)
I0815 17:35:10.150450 13765 net.cpp:165] Memory required for data: 1109279328
I0815 17:35:10.150454 13765 layer_factory.hpp:77] Creating layer conv8_2_mbox_loc
I0815 17:35:10.150460 13765 net.cpp:100] Creating Layer conv8_2_mbox_loc
I0815 17:35:10.150463 13765 net.cpp:434] conv8_2_mbox_loc <- conv8_2_conv8_2_relu_0_split_1
I0815 17:35:10.150466 13765 net.cpp:408] conv8_2_mbox_loc -> conv8_2_mbox_loc
I0815 17:35:10.152442 13765 net.cpp:150] Setting up conv8_2_mbox_loc
I0815 17:35:10.152449 13765 net.cpp:157] Top shape: 4 16 3 4 (768)
I0815 17:35:10.152453 13765 net.cpp:165] Memory required for data: 1109282400
I0815 17:35:10.152462 13765 layer_factory.hpp:77] Creating layer conv8_2_mbox_loc_perm
I0815 17:35:10.152467 13765 net.cpp:100] Creating Layer conv8_2_mbox_loc_perm
I0815 17:35:10.152470 13765 net.cpp:434] conv8_2_mbox_loc_perm <- conv8_2_mbox_loc
I0815 17:35:10.152475 13765 net.cpp:408] conv8_2_mbox_loc_perm -> conv8_2_mbox_loc_perm
I0815 17:35:10.152609 13765 net.cpp:150] Setting up conv8_2_mbox_loc_perm
I0815 17:35:10.152613 13765 net.cpp:157] Top shape: 4 3 4 16 (768)
I0815 17:35:10.152616 13765 net.cpp:165] Memory required for data: 1109285472
I0815 17:35:10.152619 13765 layer_factory.hpp:77] Creating layer conv8_2_mbox_loc_flat
I0815 17:35:10.152623 13765 net.cpp:100] Creating Layer conv8_2_mbox_loc_flat
I0815 17:35:10.152635 13765 net.cpp:434] conv8_2_mbox_loc_flat <- conv8_2_mbox_loc_perm
I0815 17:35:10.152639 13765 net.cpp:408] conv8_2_mbox_loc_flat -> conv8_2_mbox_loc_flat
I0815 17:35:10.152664 13765 net.cpp:150] Setting up conv8_2_mbox_loc_flat
I0815 17:35:10.152668 13765 net.cpp:157] Top shape: 4 192 (768)
I0815 17:35:10.152671 13765 net.cpp:165] Memory required for data: 1109288544
I0815 17:35:10.152673 13765 layer_factory.hpp:77] Creating layer conv8_2_mbox_conf
I0815 17:35:10.152681 13765 net.cpp:100] Creating Layer conv8_2_mbox_conf
I0815 17:35:10.152684 13765 net.cpp:434] conv8_2_mbox_conf <- conv8_2_conv8_2_relu_0_split_2
I0815 17:35:10.152688 13765 net.cpp:408] conv8_2_mbox_conf -> conv8_2_mbox_conf
I0815 17:35:10.155568 13765 net.cpp:150] Setting up conv8_2_mbox_conf
I0815 17:35:10.155577 13765 net.cpp:157] Top shape: 4 8 3 4 (384)
I0815 17:35:10.155581 13765 net.cpp:165] Memory required for data: 1109290080
I0815 17:35:10.155586 13765 layer_factory.hpp:77] Creating layer conv8_2_mbox_conf_perm
I0815 17:35:10.155593 13765 net.cpp:100] Creating Layer conv8_2_mbox_conf_perm
I0815 17:35:10.155597 13765 net.cpp:434] conv8_2_mbox_conf_perm <- conv8_2_mbox_conf
I0815 17:35:10.155601 13765 net.cpp:408] conv8_2_mbox_conf_perm -> conv8_2_mbox_conf_perm
I0815 17:35:10.155730 13765 net.cpp:150] Setting up conv8_2_mbox_conf_perm
I0815 17:35:10.155735 13765 net.cpp:157] Top shape: 4 3 4 8 (384)
I0815 17:35:10.155737 13765 net.cpp:165] Memory required for data: 1109291616
I0815 17:35:10.155740 13765 layer_factory.hpp:77] Creating layer conv8_2_mbox_conf_flat
I0815 17:35:10.155745 13765 net.cpp:100] Creating Layer conv8_2_mbox_conf_flat
I0815 17:35:10.155747 13765 net.cpp:434] conv8_2_mbox_conf_flat <- conv8_2_mbox_conf_perm
I0815 17:35:10.155751 13765 net.cpp:408] conv8_2_mbox_conf_flat -> conv8_2_mbox_conf_flat
I0815 17:35:10.155776 13765 net.cpp:150] Setting up conv8_2_mbox_conf_flat
I0815 17:35:10.155781 13765 net.cpp:157] Top shape: 4 96 (384)
I0815 17:35:10.155782 13765 net.cpp:165] Memory required for data: 1109293152
I0815 17:35:10.155786 13765 layer_factory.hpp:77] Creating layer conv8_2_mbox_priorbox
I0815 17:35:10.155791 13765 net.cpp:100] Creating Layer conv8_2_mbox_priorbox
I0815 17:35:10.155794 13765 net.cpp:434] conv8_2_mbox_priorbox <- conv8_2_conv8_2_relu_0_split_3
I0815 17:35:10.155797 13765 net.cpp:434] conv8_2_mbox_priorbox <- data_data_0_split_5
I0815 17:35:10.155802 13765 net.cpp:408] conv8_2_mbox_priorbox -> conv8_2_mbox_priorbox
I0815 17:35:10.155827 13765 net.cpp:150] Setting up conv8_2_mbox_priorbox
I0815 17:35:10.155831 13765 net.cpp:157] Top shape: 1 2 192 (384)
I0815 17:35:10.155834 13765 net.cpp:165] Memory required for data: 1109294688
I0815 17:35:10.155838 13765 layer_factory.hpp:77] Creating layer conv9_2_mbox_loc
I0815 17:35:10.155844 13765 net.cpp:100] Creating Layer conv9_2_mbox_loc
I0815 17:35:10.155848 13765 net.cpp:434] conv9_2_mbox_loc <- conv9_2_conv9_2_relu_0_split_0
I0815 17:35:10.155853 13765 net.cpp:408] conv9_2_mbox_loc -> conv9_2_mbox_loc
I0815 17:35:10.158021 13765 net.cpp:150] Setting up conv9_2_mbox_loc
I0815 17:35:10.158030 13765 net.cpp:157] Top shape: 4 16 1 2 (128)
I0815 17:35:10.158035 13765 net.cpp:165] Memory required for data: 1109295200
I0815 17:35:10.158038 13765 layer_factory.hpp:77] Creating layer conv9_2_mbox_loc_perm
I0815 17:35:10.158043 13765 net.cpp:100] Creating Layer conv9_2_mbox_loc_perm
I0815 17:35:10.158046 13765 net.cpp:434] conv9_2_mbox_loc_perm <- conv9_2_mbox_loc
I0815 17:35:10.158051 13765 net.cpp:408] conv9_2_mbox_loc_perm -> conv9_2_mbox_loc_perm
I0815 17:35:10.158186 13765 net.cpp:150] Setting up conv9_2_mbox_loc_perm
I0815 17:35:10.158190 13765 net.cpp:157] Top shape: 4 1 2 16 (128)
I0815 17:35:10.158193 13765 net.cpp:165] Memory required for data: 1109295712
I0815 17:35:10.158196 13765 layer_factory.hpp:77] Creating layer conv9_2_mbox_loc_flat
I0815 17:35:10.158200 13765 net.cpp:100] Creating Layer conv9_2_mbox_loc_flat
I0815 17:35:10.158202 13765 net.cpp:434] conv9_2_mbox_loc_flat <- conv9_2_mbox_loc_perm
I0815 17:35:10.158218 13765 net.cpp:408] conv9_2_mbox_loc_flat -> conv9_2_mbox_loc_flat
I0815 17:35:10.158247 13765 net.cpp:150] Setting up conv9_2_mbox_loc_flat
I0815 17:35:10.158252 13765 net.cpp:157] Top shape: 4 32 (128)
I0815 17:35:10.158254 13765 net.cpp:165] Memory required for data: 1109296224
I0815 17:35:10.158257 13765 layer_factory.hpp:77] Creating layer conv9_2_mbox_conf
I0815 17:35:10.158263 13765 net.cpp:100] Creating Layer conv9_2_mbox_conf
I0815 17:35:10.158267 13765 net.cpp:434] conv9_2_mbox_conf <- conv9_2_conv9_2_relu_0_split_1
I0815 17:35:10.158270 13765 net.cpp:408] conv9_2_mbox_conf -> conv9_2_mbox_conf
I0815 17:35:10.160217 13765 net.cpp:150] Setting up conv9_2_mbox_conf
I0815 17:35:10.160224 13765 net.cpp:157] Top shape: 4 8 1 2 (64)
I0815 17:35:10.160228 13765 net.cpp:165] Memory required for data: 1109296480
I0815 17:35:10.160233 13765 layer_factory.hpp:77] Creating layer conv9_2_mbox_conf_perm
I0815 17:35:10.160239 13765 net.cpp:100] Creating Layer conv9_2_mbox_conf_perm
I0815 17:35:10.160243 13765 net.cpp:434] conv9_2_mbox_conf_perm <- conv9_2_mbox_conf
I0815 17:35:10.160248 13765 net.cpp:408] conv9_2_mbox_conf_perm -> conv9_2_mbox_conf_perm
I0815 17:35:10.160377 13765 net.cpp:150] Setting up conv9_2_mbox_conf_perm
I0815 17:35:10.160380 13765 net.cpp:157] Top shape: 4 1 2 8 (64)
I0815 17:35:10.160383 13765 net.cpp:165] Memory required for data: 1109296736
I0815 17:35:10.160385 13765 layer_factory.hpp:77] Creating layer conv9_2_mbox_conf_flat
I0815 17:35:10.160390 13765 net.cpp:100] Creating Layer conv9_2_mbox_conf_flat
I0815 17:35:10.160393 13765 net.cpp:434] conv9_2_mbox_conf_flat <- conv9_2_mbox_conf_perm
I0815 17:35:10.160396 13765 net.cpp:408] conv9_2_mbox_conf_flat -> conv9_2_mbox_conf_flat
I0815 17:35:10.160421 13765 net.cpp:150] Setting up conv9_2_mbox_conf_flat
I0815 17:35:10.160425 13765 net.cpp:157] Top shape: 4 16 (64)
I0815 17:35:10.160429 13765 net.cpp:165] Memory required for data: 1109296992
I0815 17:35:10.160430 13765 layer_factory.hpp:77] Creating layer conv9_2_mbox_priorbox
I0815 17:35:10.160435 13765 net.cpp:100] Creating Layer conv9_2_mbox_priorbox
I0815 17:35:10.160439 13765 net.cpp:434] conv9_2_mbox_priorbox <- conv9_2_conv9_2_relu_0_split_2
I0815 17:35:10.160442 13765 net.cpp:434] conv9_2_mbox_priorbox <- data_data_0_split_6
I0815 17:35:10.160445 13765 net.cpp:408] conv9_2_mbox_priorbox -> conv9_2_mbox_priorbox
I0815 17:35:10.160471 13765 net.cpp:150] Setting up conv9_2_mbox_priorbox
I0815 17:35:10.160475 13765 net.cpp:157] Top shape: 1 2 32 (64)
I0815 17:35:10.160478 13765 net.cpp:165] Memory required for data: 1109297248
I0815 17:35:10.160480 13765 layer_factory.hpp:77] Creating layer mbox_loc
I0815 17:35:10.160487 13765 net.cpp:100] Creating Layer mbox_loc
I0815 17:35:10.160491 13765 net.cpp:434] mbox_loc <- conv4_3_norm_mbox_loc_flat
I0815 17:35:10.160495 13765 net.cpp:434] mbox_loc <- fc7_mbox_loc_flat
I0815 17:35:10.160498 13765 net.cpp:434] mbox_loc <- conv6_2_mbox_loc_flat
I0815 17:35:10.160502 13765 net.cpp:434] mbox_loc <- conv7_2_mbox_loc_flat
I0815 17:35:10.160506 13765 net.cpp:434] mbox_loc <- conv8_2_mbox_loc_flat
I0815 17:35:10.160507 13765 net.cpp:434] mbox_loc <- conv9_2_mbox_loc_flat
I0815 17:35:10.160511 13765 net.cpp:408] mbox_loc -> mbox_loc
I0815 17:35:10.160537 13765 net.cpp:150] Setting up mbox_loc
I0815 17:35:10.160542 13765 net.cpp:157] Top shape: 4 38168 (152672)
I0815 17:35:10.160544 13765 net.cpp:165] Memory required for data: 1109907936
I0815 17:35:10.160547 13765 layer_factory.hpp:77] Creating layer mbox_conf
I0815 17:35:10.160553 13765 net.cpp:100] Creating Layer mbox_conf
I0815 17:35:10.160557 13765 net.cpp:434] mbox_conf <- conv4_3_norm_mbox_conf_flat
I0815 17:35:10.160559 13765 net.cpp:434] mbox_conf <- fc7_mbox_conf_flat
I0815 17:35:10.160562 13765 net.cpp:434] mbox_conf <- conv6_2_mbox_conf_flat
I0815 17:35:10.160565 13765 net.cpp:434] mbox_conf <- conv7_2_mbox_conf_flat
I0815 17:35:10.160568 13765 net.cpp:434] mbox_conf <- conv8_2_mbox_conf_flat
I0815 17:35:10.160570 13765 net.cpp:434] mbox_conf <- conv9_2_mbox_conf_flat
I0815 17:35:10.160574 13765 net.cpp:408] mbox_conf -> mbox_conf
I0815 17:35:10.160609 13765 net.cpp:150] Setting up mbox_conf
I0815 17:35:10.160612 13765 net.cpp:157] Top shape: 4 19084 (76336)
I0815 17:35:10.160615 13765 net.cpp:165] Memory required for data: 1110213280
I0815 17:35:10.160617 13765 layer_factory.hpp:77] Creating layer mbox_priorbox
I0815 17:35:10.160621 13765 net.cpp:100] Creating Layer mbox_priorbox
I0815 17:35:10.160624 13765 net.cpp:434] mbox_priorbox <- conv4_3_norm_mbox_priorbox
I0815 17:35:10.160629 13765 net.cpp:434] mbox_priorbox <- fc7_mbox_priorbox
I0815 17:35:10.160630 13765 net.cpp:434] mbox_priorbox <- conv6_2_mbox_priorbox
I0815 17:35:10.160634 13765 net.cpp:434] mbox_priorbox <- conv7_2_mbox_priorbox
I0815 17:35:10.160636 13765 net.cpp:434] mbox_priorbox <- conv8_2_mbox_priorbox
I0815 17:35:10.160639 13765 net.cpp:434] mbox_priorbox <- conv9_2_mbox_priorbox
I0815 17:35:10.160641 13765 net.cpp:408] mbox_priorbox -> mbox_priorbox
I0815 17:35:10.160665 13765 net.cpp:150] Setting up mbox_priorbox
I0815 17:35:10.160670 13765 net.cpp:157] Top shape: 1 2 38168 (76336)
I0815 17:35:10.160672 13765 net.cpp:165] Memory required for data: 1110518624
I0815 17:35:10.160674 13765 layer_factory.hpp:77] Creating layer mbox_conf_reshape
I0815 17:35:10.160684 13765 net.cpp:100] Creating Layer mbox_conf_reshape
I0815 17:35:10.160687 13765 net.cpp:434] mbox_conf_reshape <- mbox_conf
I0815 17:35:10.160691 13765 net.cpp:408] mbox_conf_reshape -> mbox_conf_reshape
I0815 17:35:10.160723 13765 net.cpp:150] Setting up mbox_conf_reshape
I0815 17:35:10.160727 13765 net.cpp:157] Top shape: 4 9542 2 (76336)
I0815 17:35:10.160730 13765 net.cpp:165] Memory required for data: 1110823968
I0815 17:35:10.160733 13765 layer_factory.hpp:77] Creating layer mbox_conf_softmax
I0815 17:35:10.160737 13765 net.cpp:100] Creating Layer mbox_conf_softmax
I0815 17:35:10.160739 13765 net.cpp:434] mbox_conf_softmax <- mbox_conf_reshape
I0815 17:35:10.160743 13765 net.cpp:408] mbox_conf_softmax -> mbox_conf_softmax
I0815 17:35:10.161211 13765 net.cpp:150] Setting up mbox_conf_softmax
I0815 17:35:10.161217 13765 net.cpp:157] Top shape: 4 9542 2 (76336)
I0815 17:35:10.161221 13765 net.cpp:165] Memory required for data: 1111129312
I0815 17:35:10.161223 13765 layer_factory.hpp:77] Creating layer mbox_conf_flatten
I0815 17:35:10.161228 13765 net.cpp:100] Creating Layer mbox_conf_flatten
I0815 17:35:10.161231 13765 net.cpp:434] mbox_conf_flatten <- mbox_conf_softmax
I0815 17:35:10.161236 13765 net.cpp:408] mbox_conf_flatten -> mbox_conf_flatten
I0815 17:35:10.161262 13765 net.cpp:150] Setting up mbox_conf_flatten
I0815 17:35:10.161265 13765 net.cpp:157] Top shape: 4 19084 (76336)
I0815 17:35:10.161268 13765 net.cpp:165] Memory required for data: 1111434656
I0815 17:35:10.161270 13765 layer_factory.hpp:77] Creating layer detection_out
I0815 17:35:10.161279 13765 net.cpp:100] Creating Layer detection_out
I0815 17:35:10.161283 13765 net.cpp:434] detection_out <- mbox_loc
I0815 17:35:10.161286 13765 net.cpp:434] detection_out <- mbox_conf_flatten
I0815 17:35:10.161288 13765 net.cpp:434] detection_out <- mbox_priorbox
I0815 17:35:10.161294 13765 net.cpp:408] detection_out -> detection_out
I0815 17:35:10.162602 13765 net.cpp:150] Setting up detection_out
I0815 17:35:10.162609 13765 net.cpp:157] Top shape: 1 1 1 7 (7)
I0815 17:35:10.162613 13765 net.cpp:165] Memory required for data: 1111434684
I0815 17:35:10.162616 13765 layer_factory.hpp:77] Creating layer detection_eval
I0815 17:35:10.162624 13765 net.cpp:100] Creating Layer detection_eval
I0815 17:35:10.162628 13765 net.cpp:434] detection_eval <- detection_out
I0815 17:35:10.162631 13765 net.cpp:434] detection_eval <- label
I0815 17:35:10.162636 13765 net.cpp:408] detection_eval -> detection_eval
I0815 17:35:10.163177 13765 net.cpp:150] Setting up detection_eval
I0815 17:35:10.163182 13765 net.cpp:157] Top shape: 1 1 2 5 (10)
I0815 17:35:10.163184 13765 net.cpp:165] Memory required for data: 1111434724
I0815 17:35:10.163187 13765 net.cpp:228] detection_eval does not need backward computation.
I0815 17:35:10.163190 13765 net.cpp:228] detection_out does not need backward computation.
I0815 17:35:10.163200 13765 net.cpp:228] mbox_conf_flatten does not need backward computation.
I0815 17:35:10.163203 13765 net.cpp:228] mbox_conf_softmax does not need backward computation.
…
