…
        min_scale: 0.3
        max_scale: 1
        min_aspect_ratio: 0.5
        max_aspect_ratio: 2
      }
      sample_constraint {
        min_jaccard_overlap: 0.9
      }
      max_sample: 1
      max_trials: 50
    }
    batch_sampler {
      sampler {
        min_scale: 0.3
        max_scale: 1
        min_aspect_ratio: 0.5
        max_aspect_ratio: 2
      }
      sample_constraint {
        max_jaccard_overlap: 1
      }
      max_sample: 1
      max_trials: 50
    }
    label_map_file: "data/car352x288_split_KITTI/labelmap_voc.prototxt"
  }
}
layer {
  name: "conv1_1"
  type: "Convolution"
  bottom: "data"
  top: "conv1_1"
  param {
    lr_mult: 1
    decay_mult: 1
  }
  param {
    lr_mult: 2
    decay_mult: 0
  }
  convolution_param {
    num_output: 64
    pad: 1
    kernel_size: 3
    weight_filler {
      type: "xavier"
    }
    bias_filler {
      type: "constant"
      value: 0
    }
  }
}
layer {
  name: "relu1_1"
  type: "ReLU"
  bottom: "conv1_1"
  top: "conv1_1"
}
layer {
  name: "conv1_2"
  type: "Convolution"
  bottom: "conv1_1"
  top: "conv1_2"
  param {
    lr_mult: 1
    decay_mult: 1
  }
  param {
    lr_mult: 2
    decay_mult: 0
  }
  convolution_param {
    num_output: 64
    pad: 1
    kernel_size: 3
    weight_filler {
      type: "xavier"
    }
    bias_filler {
      type: "constant"
      value: 0
    }
  }
}
layer {
  name: "relu1_2"
  type: "ReLU"
  bottom: "conv1_2"
  top: "conv1_2"
}
layer {
  name: "pool1"
  type: "Pooling"
  bottom: "conv1_2"
  top: "pool1"
  pooling_param {
    pool: MAX
    kernel_size: 2
    stride: 2
  }
}
layer {
  name: "conv2_1"
  type: "Convolution"
  bottom: "pool1"
  top: "conv2_1"
  param {
    lr_mult: 1
    decay_mult: 1
  }
  param {
    lr_mult: 2
    decay_mult: 0
  }
  convolution_param {
    num_output: 128
    pad: 1
    kernel_size: 3
    weight_filler {
      type: "xavier"
    }
    bias_filler {
      type: "constant"
      value: 0
    }
  }
}
layer {
  name: "relu2_1"
  type: "ReLU"
  bottom: "conv2_1"
  top: "conv2_1"
}
layer {
  name: "conv2_2"
  type: "Convolution"
  bottom: "conv2_1"
  top: "conv2_2"
  param {
    lr_mult: 1
    decay_mult: 1
  }
  param {
    lr_mult: 2
    decay_mult: 0
  }
  convolution_param {
    num_output: 128
    pad: 1
    kernel_size: 3
    weight_filler {
      type: "xavier"
    }
    bias_filler {
      type: "constant"
      value: 0
    }
  }
}
layer {
  name: "relu2_2"
  type: "ReLU"
  bottom: "conv2_2"
  top: "conv2_2"
}
layer {
  name: "pool2"
  type: "Pooling"
  bottom: "conv2_2"
  top: "pool2"
  pooling_param {
    pool: MAX
    kernel_size: 2
    stride: 2
  }
}
layer {
  name: "conv3_1"
  type: "Convolution"
  bottom: "pool2"
  top: "conv3_1"
  param {
    lr_mult: 1
    decay_mult: 1
  }
  param {
    lr_mult: 2
    decay_mult: 0
  }
  convolution_param {
    num_output: 256
    pad: 1
    kernel_size: 3
    weight_filler {
      type: "xavier"
    }
    bias_filler {
      type: "constant"
      value: 0
    }
  }
}
layer {
  name: "relu3_1"
  type: "ReLU"
  bottom: "conv3_1"
  top: "conv3_1"
}
layer {
  name: "conv3_2"
  type: "Convolution"
  bottom: "conv3_1"
  top: "conv3_2"
  param {
    lr_mult: 1
    decay_mult: 1
  }
  param {
    lr_mult: 2
    decay_mult: 0
  }
  convolution_param {
    num_output: 256
    pad: 1
    kernel_size: 3
    weight_filler {
      type: "xavier"
    }
    bias_filler {
      type: "constant"
      value: 0
    }
  }
}
layer {
  name: "relu3_2"
  type: "ReLU"
  bottom: "conv3_2"
  top: "conv3_2"
}
layer {
  name: "conv3_3"
  type: "Convolution"
  bottom: "conv3_2"
  top: "conv3_3"
  param {
    lr_mult: 1
    decay_mult: 1
  }
  param {
    lr_mult: 2
    decay_mult: 0
  }
  convolution_param {
    num_output: 256
    pad: 1
    kernel_size: 3
    weight_filler {
      type: "xavier"
    }
    bias_filler {
      type: "constant"
      value: 0
    }
  }
}
layer {
  name: "relu3_3"
  type: "ReLU"
  bottom: "conv3_3"
  top: "conv3_3"
}
layer {
  name: "pool3"
  type: "Pooling"
  bottom: "conv3_3"
  top: "pool3"
  pooling_param {
    pool: MAX
    kernel_size: 2
    stride: 2
  }
}
layer {
  name: "conv4_1"
  type: "Convolution"
  bottom: "pool3"
  top: "conv4_1"
  param {
    lr_mult: 1
    decay_mult: 1
  }
  param {
    lr_mult: 2
    decay_mult: 0
  }
  convolution_param {
    num_output: 512
    pad: 1
    kernel_size: 3
    weight_filler {
      type: "xavier"
    }
    bias_filler {
      type: "constant"
      value: 0
    }
  }
}
layer {
  name: "relu4_1"
  type: "ReLU"
  bottom: "conv4_1"
  top: "conv4_1"
}
layer {
  name: "conv4_2"
  type: "Convolution"
  bottom: "conv4_1"
  top: "conv4_2"
  param {
    lr_mult: 1
    decay_mult: 1
  }
  param {
    lr_mult: 2
    decay_mult: 0
  }
  convolution_param {
    num_output: 512
    pad: 1
    kernel_size: 3
    weight_filler {
      type: "xavier"
    }
    bias_filler {
      type: "constant"
      value: 0
    }
  }
}
layer {
  name: "relu4_2"
  type: "ReLU"
  bottom: "conv4_2"
  top: "conv4_2"
}
layer {
  name: "conv4_3"
  type: "Convolution"
  bottom: "conv4_2"
  top: "conv4_3"
  param {
    lr_mult: 1
    decay_mult: 1
  }
  param {
    lr_mult: 2
    decay_mult: 0
  }
  convolution_param {
    num_output: 512
    pad: 1
    kernel_size: 3
    weight_filler {
      type: "xavier"
    }
    bias_filler {
      type: "constant"
      value: 0
    }
  }
}
layer {
  name: "relu4_3"
  type: "ReLU"
  bottom: "conv4_3"
  top: "conv4_3"
}
layer {
  name: "pool4"
  type: "Pooling"
  bottom: "conv4_3"
  top: "pool4"
  pooling_param {
    pool: MAX
    kernel_size: 2
    stride: 2
  }
}
layer {
  name: "conv5_1"
  type: "Convolution"
  bottom: "pool4"
  top: "conv5_1"
  param {
    lr_mult: 1
    decay_mult: 1
  }
  param {
    lr_mult: 2
    decay_mult: 0
  }
  convolution_param {
    num_output: 512
    pad: 1
    kernel_size: 3
    weight_filler {
      type: "xavier"
    }
    bias_filler {
      type: "constant"
      value: 0
    }
    dilation: 1
  }
}
layer {
  name: "relu5_1"
  type: "ReLU"
  bottom: "conv5_1"
  top: "conv5_1"
}
layer {
  name: "conv5_2"
  type: "Convolution"
  bottom: "conv5_1"
  top: "conv5_2"
  param {
    lr_mult: 1
    decay_mult: 1
  }
  param {
    lr_mult: 2
    decay_mult: 0
  }
  convolution_param {
    num_output: 512
    pad: 1
    kernel_size: 3
    weight_filler {
      type: "xavier"
    }
    bias_filler {
      type: "constant"
      value: 0
    }
    dilation: 1
  }
}
layer {
  name: "relu5_2"
  type: "ReLU"
  bottom: "conv5_2"
  top: "conv5_2"
}
layer {
  name: "conv5_3"
  type: "Convolution"
  bottom: "conv5_2"
  top: "conv5_3"
  param {
    lr_mult: 1
    decay_mult: 1
  }
  param {
    lr_mult: 2
    decay_mult: 0
  }
  convolution_param {
    num_output: 512
    pad: 1
    kernel_size: 3
    weight_filler {
      type: "xavier"
    }
    bias_filler {
      type: "constant"
      value: 0
    }
    dilation: 1
  }
}
layer {
  name: "relu5_3"
  type: "ReLU"
  bottom: "conv5_3"
  top: "conv5_3"
}
layer {
  name: "pool5"
  type: "Pooling"
  bottom: "conv5_3"
  top: "pool5"
  pooling_param {
    pool: MAX
    kernel_size: 3
    stride: 1
    pad: 1
  }
}
layer {
  name: "fc6"
  type: "Convolution"
  bottom: "pool5"
  top: "fc6"
  param {
    lr_mult: 1
    decay_mult: 1
  }
  param {
    lr_mult: 2
    decay_mult: 0
  }
  convolution_param {
    num_output: 1024
    pad: 1
    kernel_size: 3
    weight_filler {
      type: "xavier"
    }
    bias_filler {
      type: "constant"
      value: 0
    }
    dilation: 1
  }
}
layer {
  name: "relu6"
  type: "ReLU"
  bottom: "fc6"
  top: "fc6"
}
layer {
  name: "fc7"
  type: "Convolution"
  bottom: "fc6"
  top: "fc7"
  param {
    lr_mult: 1
    decay_mult: 1
  }
  param {
    lr_mult: 2
    decay_mult: 0
  }
  convolution_param {
    num_output: 1024
    kernel_size: 1
    weight_filler {
      type: "xavier"
    }
    bias_filler {
      type: "constant"
      value: 0
    }
  }
}
layer {
  name: "relu7"
  type: "ReLU"
  bottom: "fc7"
  top: "fc7"
}
layer {
  name: "conv6_1"
  type: "Convolution"
  bottom: "fc7"
  top: "conv6_1"
  param {
    lr_mult: 1
    decay_mult: 1
  }
  param {
    lr_mult: 2
    decay_mult: 0
  }
  convolution_param {
    num_output: 256
    pad: 0
    kernel_size: 1
    stride: 1
    weight_filler {
      type: "xavier"
    }
    bias_filler {
      type: "constant"
      value: 0
    }
  }
}
layer {
  name: "conv6_1_relu"
  type: "ReLU"
  bottom: "conv6_1"
  top: "conv6_1"
}
layer {
  name: "conv6_2"
  type: "Convolution"
  bottom: "conv6_1"
  top: "conv6_2"
  param {
    lr_mult: 1
    decay_mult: 1
  }
  param {
    lr_mult: 2
    decay_mult: 0
  }
  convolution_param {
    num_output: 512
    pad: 1
    kernel_size: 3
    stride: 2
    weight_filler {
      type: "xavier"
    }
    bias_filler {
      type: "constant"
      value: 0
    }
  }
}
layer {
  name: "conv6_2_relu"
  type: "ReLU"
  bottom: "conv6_2"
  top: "conv6_2"
}
layer {
  name: "conv7_1"
  type: "Convolution"
  bottom: "conv6_2"
  top: "conv7_1"
  param {
    lr_mult: 1
    decay_mult: 1
  }
  param {
    lr_mult: 2
    decay_mult: 0
  }
  convolution_param {
    num_output: 128
    pad: 0
    kernel_size: 1
    stride: 1
    weight_filler {
      type: "xavier"
    }
    bias_filler {
      type: "constant"
      value: 0
    }
  }
}
layer {
  name: "conv7_1_relu"
  type: "ReLU"
  bottom: "conv7_1"
  top: "conv7_1"
}
layer {
  name: "conv7_2"
  type: "Convolution"
  bottom: "conv7_1"
  top: "conv7_2"
  param {
    lr_mult: 1
    decay_mult: 1
  }
  param {
    lr_mult: 2
    decay_mult: 0
  }
  convolution_param {
    num_output: 256
    pad: 1
    kernel_size: 3
    stride: 2
    weight_filler {
      type: "xavier"
    }
    bias_filler {
      type: "constant"
      value: 0
    }
  }
}
layer {
  name: "conv7_2_relu"
  type: "ReLU"
  bottom: "conv7_2"
  top: "conv7_2"
}
layer {
  name: "conv8_1"
  type: "Convolution"
  bottom: "conv7_2"
  top: "conv8_1"
  param {
    lr_mult: 1
    decay_mult: 1
  }
  param {
    lr_mult: 2
    decay_mult: 0
  }
  convolution_param {
    num_output: 128
    pad: 0
    kernel_size: 1
    stride: 1
    weight_filler {
      type: "xavier"
    }
    bias_filler {
      type: "constant"
      value: 0
    }
  }
}
layer {
  name: "conv8_1_relu"
  type: "ReLU"
  bottom: "conv8_1"
  top: "conv8_1"
}
layer {
  name: "conv8_2"
  type: "Convolution"
  bottom: "conv8_1"
  top: "conv8_2"
  param {
    lr_mult: 1
    decay_mult: 1
  }
  param {
    lr_mult: 2
    decay_mult: 0
  }
  convolution_param {
    num_output: 256
    pad: 0
    kernel_size: 3
    stride: 1
    weight_filler {
      type: "xavier"
    }
    bias_filler {
      type: "constant"
      value: 0
    }
  }
}
layer {
  name: "conv8_2_relu"
  type: "ReLU"
  bottom: "conv8_2"
  top: "conv8_2"
}
layer {
  name: "conv9_1"
  type: "Convolution"
  bottom: "conv8_2"
  top: "conv9_1"
  param {
    lr_mult: 1
    decay_mult: 1
  }
  param {
    lr_mult: 2
    decay_mult: 0
  }
  convolution_param {
    num_output: 128
    pad: 0
    kernel_size: 1
    stride: 1
    weight_filler {
      type: "xavier"
    }
    bias_filler {
      type: "constant"
      value: 0
    }
  }
}
layer {
  name: "conv9_1_relu"
  type: "ReLU"
  bottom: "conv9_1"
  top: "conv9_1"
}
layer {
  name: "conv9_2"
  type: "Convolution"
  bottom: "conv9_1"
  top: "conv9_2"
  param {
    lr_mult: 1
    decay_mult: 1
  }
  param {
    lr_mult: 2
    decay_mult: 0
  }
  convolution_param {
    num_output: 256
    pad: 0
    kernel_size: 3
    stride: 1
    weight_filler {
      type: "xavier"
    }
    bias_filler {
      type: "constant"
      value: 0
    }
  }
}
layer {
  name: "conv9_2_relu"
  type: "ReLU"
  bottom: "conv9_2"
  top: "conv9_2"
}
layer {
  name: "conv4_3_norm"
  type: "Normalize"
  bottom: "conv4_3"
  top: "conv4_3_norm"
  norm_param {
    across_spatial: false
    scale_filler {
      type: "constant"
      value: 20
    }
    channel_shared: false
  }
}
layer {
  name: "conv4_3_norm_mbox_loc"
  type: "Convolution"
  bottom: "conv4_3_norm"
  top: "conv4_3_norm_mbox_loc"
  param {
    lr_mult: 1
    decay_mult: 1
  }
  param {
    lr_mult: 2
    decay_mult: 0
  }
  convolution_param {
    num_output: 16
    pad: 1
    kernel_size: 3
    stride: 1
    weight_filler {
      type: "xavier"
    }
    bias_filler {
      type: "constant"
      value: 0
    }
  }
}
layer {
  name: "conv4_3_norm_mbox_loc_perm"
  type: "Permute"
  bottom: "conv4_3_norm_mbox_loc"
  top: "conv4_3_norm_mbox_loc_perm"
  permute_param {
    order: 0
    order: 2
    order: 3
    order: 1
  }
}
layer {
  name: "conv4_3_norm_mbox_loc_flat"
  type: "Flatten"
  bottom: "conv4_3_norm_mbox_loc_perm"
  top: "conv4_3_norm_mbox_loc_flat"
  flatten_param {
    axis: 1
  }
}
layer {
  name: "conv4_3_norm_mbox_conf"
  type: "Convolution"
  bottom: "conv4_3_norm"
  top: "conv4_3_norm_mbox_conf"
  param {
    lr_mult: 1
    decay_mult: 1
  }
  param {
    lr_mult: 2
    decay_mult: 0
  }
  convolution_param {
    num_output: 8
    pad: 1
    kernel_size: 3
    stride: 1
    weight_filler {
      type: "xavier"
    }
    bias_filler {
      type: "constant"
      value: 0
    }
  }
}
layer {
  name: "conv4_3_norm_mbox_conf_perm"
  type: "Permute"
  bottom: "conv4_3_norm_mbox_conf"
  top: "conv4_3_norm_mbox_conf_perm"
  permute_param {
    order: 0
    order: 2
    order: 3
    order: 1
  }
}
layer {
  name: "conv4_3_norm_mbox_conf_flat"
  type: "Flatten"
  bottom: "conv4_3_norm_mbox_conf_perm"
  top: "conv4_3_norm_mbox_conf_flat"
  flatten_param {
    axis: 1
  }
}
layer {
  name: "conv4_3_norm_mbox_priorbox"
  type: "PriorBox"
  bottom: "conv4_3_norm"
  bottom: "data"
  top: "conv4_3_norm_mbox_priorbox"
  prior_box_param {
    min_size: 30
    max_size: 60
    aspect_ratio: 2
    flip: true
    clip: false
    variance: 0.1
    variance: 0.1
    variance: 0.2
    variance: 0.2
    step: 8
    offset: 0.5
  }
}
layer {
  name: "fc7_mbox_loc"
  type: "Convolution"
  bottom: "fc7"
  top: "fc7_mbox_loc"
  param {
    lr_mult: 1
    decay_mult: 1
  }
  param {
    lr_mult: 2
    decay_mult: 0
  }
  convolution_param {
    num_output: 24
    pad: 1
    kernel_size: 3
    stride: 1
    weight_filler {
      type: "xavier"
    }
    bias_filler {
      type: "constant"
      value: 0
    }
  }
}
layer {
  name: "fc7_mbox_loc_perm"
  type: "Permute"
  bottom: "fc7_mbox_loc"
  top: "fc7_mbox_loc_perm"
  permute_param {
    order: 0
    order: 2
    order: 3
    order: 1
  }
}
layer {
  name: "fc7_mbox_loc_flat"
  type: "Flatten"
  bottom: "fc7_mbox_loc_perm"
  top: "fc7_mbox_loc_flat"
  flatten_param {
    axis: 1
  }
}
layer {
  name: "fc7_mbox_conf"
  type: "Convolution"
  bottom: "fc7"
  top: "fc7_mbox_conf"
  param {
    lr_mult: 1
    decay_mult: 1
  }
  param {
    lr_mult: 2
    decay_mult: 0
  }
  convolution_param {
    num_output: 12
    pad: 1
    kernel_size: 3
    stride: 1
    weight_filler {
      type: "xavier"
    }
    bias_filler {
      type: "constant"
      value: 0
    }
  }
}
layer {
  name: "fc7_mbox_conf_perm"
  type: "Permute"
  bottom: "fc7_mbox_conf"
  top: "fc7_mbox_conf_perm"
  permute_param {
    order: 0
    order: 2
    order: 3
    order: 1
  }
}
layer {
  name: "fc7_mbox_conf_flat"
  type: "Flatten"
  bottom: "fc7_mbox_conf_perm"
  top: "fc7_mbox_conf_flat"
  flatten_param {
    axis: 1
  }
}
layer {
  name: "fc7_mbox_priorbox"
  type: "PriorBox"
  bottom: "fc7"
  bottom: "data"
  top: "fc7_mbox_priorbox"
  prior_box_param {
    min_size: 60
    max_size: 111
    aspect_ratio: 2
    aspect_ratio: 3
    flip: true
    clip: false
    variance: 0.1
    variance: 0.1
    variance: 0.2
    variance: 0.2
    step: 16
    offset: 0.5
  }
}
layer {
  name: "conv6_2_mbox_loc"
  type: "Convolution"
  bottom: "conv6_2"
  top: "conv6_2_mbox_loc"
  param {
    lr_mult: 1
    decay_mult: 1
  }
  param {
    lr_mult: 2
    decay_mult: 0
  }
  convolution_param {
    num_output: 24
    pad: 1
    kernel_size: 3
    stride: 1
    weight_filler {
      type: "xavier"
    }
    bias_filler {
      type: "constant"
      value: 0
    }
  }
}
layer {
  name: "conv6_2_mbox_loc_perm"
  type: "Permute"
  bottom: "conv6_2_mbox_loc"
  top: "conv6_2_mbox_loc_perm"
  permute_param {
    order: 0
    order: 2
    order: 3
    order: 1
  }
}
layer {
  name: "conv6_2_mbox_loc_flat"
  type: "Flatten"
  bottom: "conv6_2_mbox_loc_perm"
  top: "conv6_2_mbox_loc_flat"
  flatten_param {
    axis: 1
  }
}
layer {
  name: "conv6_2_mbox_conf"
  type: "Convolution"
  bottom: "conv6_2"
  top: "conv6_2_mbox_conf"
  param {
    lr_mult: 1
    decay_mult: 1
  }
  param {
    lr_mult: 2
    decay_mult: 0
  }
  convolution_param {
    num_output: 12
    pad: 1
    kernel_size: 3
    stride: 1
    weight_filler {
      type: "xavier"
    }
    bias_filler {
      type: "constant"
      value: 0
    }
  }
}
layer {
  name: "conv6_2_mbox_conf_perm"
  type: "Permute"
  bottom: "conv6_2_mbox_conf"
  top: "conv6_2_mbox_conf_perm"
  permute_param {
    order: 0
    order: 2
    order: 3
    order: 1
  }
}
layer {
  name: "conv6_2_mbox_conf_flat"
  type: "Flatten"
  bottom: "conv6_2_mbox_conf_perm"
  top: "conv6_2_mbox_conf_flat"
  flatten_param {
    axis: 1
  }
}
layer {
  name: "conv6_2_mbox_priorbox"
  type: "PriorBox"
  bottom: "conv6_2"
  bottom: "data"
  top: "conv6_2_mbox_priorbox"
  prior_box_param {
    min_size: 111
    max_size: 162
    aspect_ratio: 2
    aspect_ratio: 3
    flip: true
    clip: false
    variance: 0.1
    variance: 0.1
    variance: 0.2
    variance: 0.2
    step: 32
    offset: 0.5
  }
}
layer {
  name: "conv7_2_mbox_loc"
  type: "Convolution"
  bottom: "conv7_2"
  top: "conv7_2_mbox_loc"
  param {
    lr_mult: 1
    decay_mult: 1
  }
  param {
    lr_mult: 2
    decay_mult: 0
  }
  convolution_param {
    num_output: 24
    pad: 1
    kernel_size: 3
    stride: 1
    weight_filler {
      type: "xavier"
    }
    bias_filler {
      type: "constant"
      value: 0
    }
  }
}
layer {
  name: "conv7_2_mbox_loc_perm"
  type: "Permute"
  bottom: "conv7_2_mbox_loc"
  top: "conv7_2_mbox_loc_perm"
  permute_param {
    order: 0
    order: 2
    order: 3
    order: 1
  }
}
layer {
  name: "conv7_2_mbox_loc_flat"
  type: "Flatten"
  bottom: "conv7_2_mbox_loc_perm"
  top: "conv7_2_mbox_loc_flat"
  flatten_param {
    axis: 1
  }
}
layer {
  name: "conv7_2_mbox_conf"
  type: "Convolution"
  bottom: "conv7_2"
  top: "conv7_2_mbox_conf"
  param {
    lr_mult: 1
    decay_mult: 1
  }
  param {
    lr_mult: 2
    decay_mult: 0
  }
  convolution_param {
    num_output: 12
    pad: 1
    kernel_size: 3
    stride: 1
    weight_filler {
      type: "xavier"
    }
    bias_filler {
      type: "constant"
      value: 0
    }
  }
}
layer {
  name: "conv7_2_mbox_conf_perm"
  type: "Permute"
  bottom: "conv7_2_mbox_conf"
  top: "conv7_2_mbox_conf_perm"
  permute_param {
    order: 0
    order: 2
    order: 3
    order: 1
  }
}
layer {
  name: "conv7_2_mbox_conf_flat"
  type: "Flatten"
  bottom: "conv7_2_mbox_conf_perm"
  top: "conv7_2_mbox_conf_flat"
  flatten_param {
    axis: 1
  }
}
layer {
  name: "conv7_2_mbox_priorbox"
  type: "PriorBox"
  bottom: "conv7_2"
  bottom: "data"
  top: "conv7_2_mbox_priorbox"
  prior_box_param {
    min_size: 162
    max_size: 213
    aspect_ratio: 2
    aspect_ratio: 3
    flip: true
    clip: false
    variance: 0.1
    variance: 0.1
    variance: 0.2
    variance: 0.2
    step: 64
    offset: 0.5
  }
}
layer {
  name: "conv8_2_mbox_loc"
  type: "Convolution"
  bottom: "conv8_2"
  top: "conv8_2_mbox_loc"
  param {
    lr_mult: 1
    decay_mult: 1
  }
  param {
    lr_mult: 2
    decay_mult: 0
  }
  convolution_param {
    num_output: 16
    pad: 1
    kernel_size: 3
    stride: 1
    weight_filler {
      type: "xavier"
    }
    bias_filler {
      type: "constant"
      value: 0
    }
  }
}
layer {
  name: "conv8_2_mbox_loc_perm"
  type: "Permute"
  bottom: "conv8_2_mbox_loc"
  top: "conv8_2_mbox_loc_perm"
  permute_param {
    order: 0
    order: 2
    order: 3
    order: 1
  }
}
layer {
  name: "conv8_2_mbox_loc_flat"
  type: "Flatten"
  bottom: "conv8_2_mbox_loc_perm"
  top: "conv8_2_mbox_loc_flat"
  flatten_param {
    axis: 1
  }
}
layer {
  name: "conv8_2_mbox_conf"
  type: "Convolution"
  bottom: "conv8_2"
  top: "conv8_2_mbox_conf"
  param {
    lr_mult: 1
    decay_mult: 1
  }
  param {
    lr_mult: 2
    decay_mult: 0
  }
  convolution_param {
    num_output: 8
    pad: 1
    kernel_size: 3
    stride: 1
    weight_filler {
      type: "xavier"
    }
    bias_filler {
      type: "constant"
      value: 0
    }
  }
}
layer {
  name: "conv8_2_mbox_conf_perm"
  type: "Permute"
  bottom: "conv8_2_mbox_conf"
  top: "conv8_2_mbox_conf_perm"
  permute_param {
    order: 0
    order: 2
    order: 3
    order: 1
  }
}
layer {
  name: "conv8_2_mbox_conf_flat"
  type: "Flatten"
  bottom: "conv8_2_mbox_conf_perm"
  top: "conv8_2_mbox_conf_flat"
  flatten_param {
    axis: 1
  }
}
layer {
  name: "conv8_2_mbox_priorbox"
  type: "PriorBox"
  bottom: "conv8_2"
  bottom: "data"
  top: "conv8_2_mbox_priorbox"
  prior_box_param {
    min_size: 213
    max_size: 264
    aspect_ratio: 2
    flip: true
    clip: false
    variance: 0.1
    variance: 0.1
    variance: 0.2
    variance: 0.2
    step: 100
    offset: 0.5
  }
}
layer {
  name: "conv9_2_mbox_loc"
  type: "Convolution"
  bottom: "conv9_2"
  top: "conv9_2_mbox_loc"
  param {
    lr_mult: 1
    decay_mult: 1
  }
  param {
    lr_mult: 2
    decay_mult: 0
  }
  convolution_param {
    num_output: 16
    pad: 1
    kernel_size: 3
    stride: 1
    weight_filler {
      type: "xavier"
    }
    bias_filler {
      type: "constant"
      value: 0
    }
  }
}
layer {
  name: "conv9_2_mbox_loc_perm"
  type: "Permute"
  bottom: "conv9_2_mbox_loc"
  top: "conv9_2_mbox_loc_perm"
  permute_param {
    order: 0
    order: 2
    order: 3
    order: 1
  }
}
layer {
  name: "conv9_2_mbox_loc_flat"
  type: "Flatten"
  bottom: "conv9_2_mbox_loc_perm"
  top: "conv9_2_mbox_loc_flat"
  flatten_param {
    axis: 1
  }
}
layer {
  name: "conv9_2_mbox_conf"
  type: "Convolution"
  bottom: "conv9_2"
  top: "conv9_2_mbox_conf"
  param {
    lr_mult: 1
    decay_mult: 1
  }
  param {
    lr_mult: 2
    decay_mult: 0
  }
  convolution_param {
    num_output: 8
    pad: 1
    kernel_size: 3
    stride: 1
    weight_filler {
      type: "xavier"
    }
    bias_filler {
      type: "constant"
      value: 0
    }
  }
}
layer {
  name: "conv9_2_mbox_conf_perm"
  type: "Permute"
  bottom: "conv9_2_mbox_conf"
  top: "conv9_2_mbox_conf_perm"
  permute_param {
    order: 0
    order: 2
    order: 3
    order: 1
  }
}
layer {
  name: "conv9_2_mbox_conf_flat"
  type: "Flatten"
  bottom: "conv9_2_mbox_conf_perm"
  top: "conv9_2_mbox_conf_flat"
  flatten_param {
    axis: 1
  }
}
layer {
  name: "conv9_2_mbox_priorbox"
  type: "PriorBox"
  bottom: "conv9_2"
  bottom: "data"
  top: "conv9_2_mbox_priorbox"
  prior_box_param {
    min_size: 264
    max_size: 315
    aspect_ratio: 2
    flip: true
    clip: false
    variance: 0.1
    variance: 0.1
    variance: 0.2
    variance: 0.2
    step: 300
    offset: 0.5
  }
}
layer {
  name: "mbox_loc"
  type: "Concat"
  bottom: "conv4_3_norm_mbox_loc_flat"
  bottom: "fc7_mbox_loc_flat"
  bottom: "conv6_2_mbox_loc_flat"
  bottom: "conv7_2_mbox_loc_flat"
  bottom: "conv8_2_mbox_loc_flat"
  bottom: "conv9_2_mbox_loc_flat"
  top: "mbox_loc"
  concat_param {
    axis: 1
  }
}
layer {
  name: "mbox_conf"
  type: "Concat"
  bottom: "conv4_3_norm_mbox_conf_flat"
  bottom: "fc7_mbox_conf_flat"
  bottom: "conv6_2_mbox_conf_flat"
  bottom: "conv7_2_mbox_conf_flat"
  bottom: "conv8_2_mbox_conf_flat"
  bottom: "conv9_2_mbox_conf_flat"
  top: "mbox_conf"
  concat_param {
    axis: 1
  }
}
layer {
  name: "mbox_priorbox"
  type: "Concat"
  bottom: "conv4_3_norm_mbox_priorbox"
  bottom: "fc7_mbox_priorbox"
  bottom: "conv6_2_mbox_priorbox"
  bottom: "conv7_2_mbox_priorbox"
  bottom: "conv8_2_mbox_priorbox"
  bottom: "conv9_2_mbox_priorbox"
  top: "mbox_priorbox"
  concat_param {
    axis: 2
  }
}
layer {
  name: "mbox_loss"
  type: "MultiBoxLoss"
  bottom: "mbox_loc"
  bottom: "mbox_conf"
  bottom: "mbox_priorbox"
  bottom: "label"
  top: "mbox_loss"
  include {
    phase: TRAIN
  }
  propagate_down: true
  propagate_down: true
  propagate_down: false
  propagate_down: false
  loss_param {
    normalization: VALID
  }
  multibox_loss_param {
    loc_loss_type: SMOOTH_L1
    conf_loss_type: SOFTMAX
    loc_weight: 1
    num_classes: 2
    share_location: true
    match_type: PER_PREDICTION
    overlap_threshold: 0.5
    use_prior_for_matching: true
    background_label_id: 0
    use_difficult_gt: true
    neg_pos_ratio: 3
    neg_overlap: 0.5
    code_type: CENTER_SIZE
    ignore_cross_boundary_bbox: false
    mining_type: MAX_NEGATIVE
  }
}
I0917 17:29:47.834627 19620 layer_factory.hpp:77] Creating layer data
I0917 17:29:47.834730 19620 net.cpp:100] Creating Layer data
I0917 17:29:47.834741 19620 net.cpp:408] data -> data
I0917 17:29:47.834769 19620 net.cpp:408] data -> label
I0917 17:29:47.835383 19640 db_lmdb.cpp:35] Opened lmdb /home/ly/caffe-weiliu/caffe/examples/car352x288_split_KITTI/car352x288_split_KITTI_trainval_lmdb
I0917 17:29:47.847719 19620 annotated_data_layer.cpp:62] output data size: 16,3,288,352
I0917 17:29:47.866150 19620 net.cpp:150] Setting up data
I0917 17:29:47.866187 19620 net.cpp:157] Top shape: 16 3 288 352 (4866048)
I0917 17:29:47.866194 19620 net.cpp:157] Top shape: 1 1 1 8 (8)
I0917 17:29:47.866197 19620 net.cpp:165] Memory required for data: 19464224
I0917 17:29:47.866205 19620 layer_factory.hpp:77] Creating layer data_data_0_split
I0917 17:29:47.866219 19620 net.cpp:100] Creating Layer data_data_0_split
I0917 17:29:47.866223 19620 net.cpp:434] data_data_0_split <- data
I0917 17:29:47.866235 19620 net.cpp:408] data_data_0_split -> data_data_0_split_0
I0917 17:29:47.866241 19620 net.cpp:408] data_data_0_split -> data_data_0_split_1
I0917 17:29:47.866246 19620 net.cpp:408] data_data_0_split -> data_data_0_split_2
I0917 17:29:47.866252 19620 net.cpp:408] data_data_0_split -> data_data_0_split_3
I0917 17:29:47.866256 19620 net.cpp:408] data_data_0_split -> data_data_0_split_4
I0917 17:29:47.866261 19620 net.cpp:408] data_data_0_split -> data_data_0_split_5
I0917 17:29:47.866264 19620 net.cpp:408] data_data_0_split -> data_data_0_split_6
I0917 17:29:47.866324 19620 net.cpp:150] Setting up data_data_0_split
I0917 17:29:47.866328 19620 net.cpp:157] Top shape: 16 3 288 352 (4866048)
I0917 17:29:47.866333 19620 net.cpp:157] Top shape: 16 3 288 352 (4866048)
I0917 17:29:47.866336 19620 net.cpp:157] Top shape: 16 3 288 352 (4866048)
I0917 17:29:47.866339 19620 net.cpp:157] Top shape: 16 3 288 352 (4866048)
I0917 17:29:47.866341 19620 net.cpp:157] Top shape: 16 3 288 352 (4866048)
I0917 17:29:47.866344 19620 net.cpp:157] Top shape: 16 3 288 352 (4866048)
I0917 17:29:47.866346 19620 net.cpp:157] Top shape: 16 3 288 352 (4866048)
I0917 17:29:47.866349 19620 net.cpp:165] Memory required for data: 155713568
I0917 17:29:47.866353 19620 layer_factory.hpp:77] Creating layer conv1_1
I0917 17:29:47.866364 19620 net.cpp:100] Creating Layer conv1_1
I0917 17:29:47.866367 19620 net.cpp:434] conv1_1 <- data_data_0_split_0
I0917 17:29:47.866371 19620 net.cpp:408] conv1_1 -> conv1_1
I0917 17:29:48.660698 19620 net.cpp:150] Setting up conv1_1
I0917 17:29:48.660714 19620 net.cpp:157] Top shape: 16 64 288 352 (103809024)
I0917 17:29:48.660720 19620 net.cpp:165] Memory required for data: 570949664
I0917 17:29:48.660737 19620 layer_factory.hpp:77] Creating layer relu1_1
I0917 17:29:48.660748 19620 net.cpp:100] Creating Layer relu1_1
I0917 17:29:48.660751 19620 net.cpp:434] relu1_1 <- conv1_1
I0917 17:29:48.660755 19620 net.cpp:395] relu1_1 -> conv1_1 (in-place)
I0917 17:29:48.661054 19620 net.cpp:150] Setting up relu1_1
I0917 17:29:48.661060 19620 net.cpp:157] Top shape: 16 64 288 352 (103809024)
I0917 17:29:48.661064 19620 net.cpp:165] Memory required for data: 986185760
I0917 17:29:48.661067 19620 layer_factory.hpp:77] Creating layer conv1_2
I0917 17:29:48.661075 19620 net.cpp:100] Creating Layer conv1_2
I0917 17:29:48.661078 19620 net.cpp:434] conv1_2 <- conv1_1
I0917 17:29:48.661082 19620 net.cpp:408] conv1_2 -> conv1_2
I0917 17:29:48.663094 19620 net.cpp:150] Setting up conv1_2
I0917 17:29:48.663102 19620 net.cpp:157] Top shape: 16 64 288 352 (103809024)
I0917 17:29:48.663106 19620 net.cpp:165] Memory required for data: 1401421856
I0917 17:29:48.663111 19620 layer_factory.hpp:77] Creating layer relu1_2
I0917 17:29:48.663115 19620 net.cpp:100] Creating Layer relu1_2
I0917 17:29:48.663117 19620 net.cpp:434] relu1_2 <- conv1_2
I0917 17:29:48.663121 19620 net.cpp:395] relu1_2 -> conv1_2 (in-place)
I0917 17:29:48.663393 19620 net.cpp:150] Setting up relu1_2
I0917 17:29:48.663398 19620 net.cpp:157] Top shape: 16 64 288 352 (103809024)
I0917 17:29:48.663403 19620 net.cpp:165] Memory required for data: 1816657952
I0917 17:29:48.663404 19620 layer_factory.hpp:77] Creating layer pool1
I0917 17:29:48.663409 19620 net.cpp:100] Creating Layer pool1
I0917 17:29:48.663411 19620 net.cpp:434] pool1 <- conv1_2
I0917 17:29:48.663415 19620 net.cpp:408] pool1 -> pool1
I0917 17:29:48.663451 19620 net.cpp:150] Setting up pool1
I0917 17:29:48.663455 19620 net.cpp:157] Top shape: 16 64 144 176 (25952256)
I0917 17:29:48.663458 19620 net.cpp:165] Memory required for data: 1920466976
I0917 17:29:48.663478 19620 layer_factory.hpp:77] Creating layer conv2_1
I0917 17:29:48.663486 19620 net.cpp:100] Creating Layer conv2_1
I0917 17:29:48.663491 19620 net.cpp:434] conv2_1 <- pool1
I0917 17:29:48.663517 19620 net.cpp:408] conv2_1 -> conv2_1
I0917 17:29:48.665812 19620 net.cpp:150] Setting up conv2_1
I0917 17:29:48.665819 19620 net.cpp:157] Top shape: 16 128 144 176 (51904512)
I0917 17:29:48.665823 19620 net.cpp:165] Memory required for data: 2128085024
I0917 17:29:48.665828 19620 layer_factory.hpp:77] Creating layer relu2_1
I0917 17:29:48.665833 19620 net.cpp:100] Creating Layer relu2_1
I0917 17:29:48.665835 19620 net.cpp:434] relu2_1 <- conv2_1
I0917 17:29:48.665844 19620 net.cpp:395] relu2_1 -> conv2_1 (in-place)
I0917 17:29:48.666244 19620 net.cpp:150] Setting up relu2_1
I0917 17:29:48.666250 19620 net.cpp:157] Top shape: 16 128 144 176 (51904512)
I0917 17:29:48.666275 19620 net.cpp:165] Memory required for data: 2335703072
I0917 17:29:48.666277 19620 layer_factory.hpp:77] Creating layer conv2_2
I0917 17:29:48.666282 19620 net.cpp:100] Creating Layer conv2_2
I0917 17:29:48.666285 19620 net.cpp:434] conv2_2 <- conv2_1
I0917 17:29:48.666290 19620 net.cpp:408] conv2_2 -> conv2_2
I0917 17:29:48.668146 19620 net.cpp:150] Setting up conv2_2
I0917 17:29:48.668154 19620 net.cpp:157] Top shape: 16 128 144 176 (51904512)
I0917 17:29:48.668157 19620 net.cpp:165] Memory required for data: 2543321120
I0917 17:29:48.668162 19620 layer_factory.hpp:77] Creating layer relu2_2
I0917 17:29:48.668165 19620 net.cpp:100] Creating Layer relu2_2
I0917 17:29:48.668169 19620 net.cpp:434] relu2_2 <- conv2_2
I0917 17:29:48.668171 19620 net.cpp:395] relu2_2 -> conv2_2 (in-place)
I0917 17:29:48.668452 19620 net.cpp:150] Setting up relu2_2
I0917 17:29:48.668457 19620 net.cpp:157] Top shape: 16 128 144 176 (51904512)
I0917 17:29:48.668462 19620 net.cpp:165] Memory required for data: 2750939168
I0917 17:29:48.668463 19620 layer_factory.hpp:77] Creating layer pool2
I0917 17:29:48.668467 19620 net.cpp:100] Creating Layer pool2
I0917 17:29:48.668470 19620 net.cpp:434] pool2 <- conv2_2
I0917 17:29:48.668473 19620 net.cpp:408] pool2 -> pool2
I0917 17:29:48.668529 19620 net.cpp:150] Setting up pool2
I0917 17:29:48.668532 19620 net.cpp:157] Top shape: 16 128 72 88 (12976128)
I0917 17:29:48.668535 19620 net.cpp:165] Memory required for data: 2802843680
I0917 17:29:48.668537 19620 layer_factory.hpp:77] Creating layer conv3_1
I0917 17:29:48.668543 19620 net.cpp:100] Creating Layer conv3_1
I0917 17:29:48.668558 19620 net.cpp:434] conv3_1 <- pool2
I0917 17:29:48.668562 19620 net.cpp:408] conv3_1 -> conv3_1
I0917 17:29:48.671797 19620 net.cpp:150] Setting up conv3_1
I0917 17:29:48.671805 19620 net.cpp:157] Top shape: 16 256 72 88 (25952256)
I0917 17:29:48.671810 19620 net.cpp:165] Memory required for data: 2906652704
I0917 17:29:48.671816 19620 layer_factory.hpp:77] Creating layer relu3_1
I0917 17:29:48.671820 19620 net.cpp:100] Creating Layer relu3_1
I0917 17:29:48.671823 19620 net.cpp:434] relu3_1 <- conv3_1
I0917 17:29:48.671826 19620 net.cpp:395] relu3_1 -> conv3_1 (in-place)
I0917 17:29:48.673121 19620 net.cpp:150] Setting up relu3_1
I0917 17:29:48.673128 19620 net.cpp:157] Top shape: 16 256 72 88 (25952256)
I0917 17:29:48.673132 19620 net.cpp:165] Memory required for data: 3010461728
I0917 17:29:48.673135 19620 layer_factory.hpp:77] Creating layer conv3_2
I0917 17:29:48.673143 19620 net.cpp:100] Creating Layer conv3_2
I0917 17:29:48.673146 19620 net.cpp:434] conv3_2 <- conv3_1
I0917 17:29:48.673151 19620 net.cpp:408] conv3_2 -> conv3_2
I0917 17:29:48.677384 19620 net.cpp:150] Setting up conv3_2
I0917 17:29:48.677393 19620 net.cpp:157] Top shape: 16 256 72 88 (25952256)
I0917 17:29:48.677397 19620 net.cpp:165] Memory required for data: 3114270752
I0917 17:29:48.677404 19620 layer_factory.hpp:77] Creating layer relu3_2
I0917 17:29:48.677409 19620 net.cpp:100] Creating Layer relu3_2
I0917 17:29:48.677412 19620 net.cpp:434] relu3_2 <- conv3_2
I0917 17:29:48.677417 19620 net.cpp:395] relu3_2 -> conv3_2 (in-place)
I0917 17:29:48.677772 19620 net.cpp:150] Setting up relu3_2
I0917 17:29:48.677790 19620 net.cpp:157] Top shape: 16 256 72 88 (25952256)
I0917 17:29:48.677796 19620 net.cpp:165] Memory required for data: 3218079776
I0917 17:29:48.677798 19620 layer_factory.hpp:77] Creating layer conv3_3
I0917 17:29:48.677809 19620 net.cpp:100] Creating Layer conv3_3
I0917 17:29:48.677811 19620 net.cpp:434] conv3_3 <- conv3_2
I0917 17:29:48.677814 19620 net.cpp:408] conv3_3 -> conv3_3
I0917 17:29:48.682253 19620 net.cpp:150] Setting up conv3_3
I0917 17:29:48.682269 19620 net.cpp:157] Top shape: 16 256 72 88 (25952256)
I0917 17:29:48.682289 19620 net.cpp:165] Memory required for data: 3321888800
I0917 17:29:48.682297 19620 layer_factory.hpp:77] Creating layer relu3_3
I0917 17:29:48.682303 19620 net.cpp:100] Creating Layer relu3_3
I0917 17:29:48.682307 19620 net.cpp:434] relu3_3 <- conv3_3
I0917 17:29:48.682310 19620 net.cpp:395] relu3_3 -> conv3_3 (in-place)
I0917 17:29:48.682682 19620 net.cpp:150] Setting up relu3_3
I0917 17:29:48.682689 19620 net.cpp:157] Top shape: 16 256 72 88 (25952256)
I0917 17:29:48.682693 19620 net.cpp:165] Memory required for data: 3425697824
I0917 17:29:48.682695 19620 layer_factory.hpp:77] Creating layer pool3
I0917 17:29:48.682701 19620 net.cpp:100] Creating Layer pool3
I0917 17:29:48.682704 19620 net.cpp:434] pool3 <- conv3_3
I0917 17:29:48.682708 19620 net.cpp:408] pool3 -> pool3
I0917 17:29:48.682760 19620 net.cpp:150] Setting up pool3
I0917 17:29:48.682763 19620 net.cpp:157] Top shape: 16 256 36 44 (6488064)
I0917 17:29:48.682766 19620 net.cpp:165] Memory required for data: 3451650080
I0917 17:29:48.682787 19620 layer_factory.hpp:77] Creating layer conv4_1
I0917 17:29:48.682793 19620 net.cpp:100] Creating Layer conv4_1
I0917 17:29:48.682811 19620 net.cpp:434] conv4_1 <- pool3
I0917 17:29:48.682816 19620 net.cpp:408] conv4_1 -> conv4_1
I0917 17:29:48.690034 19620 net.cpp:150] Setting up conv4_1
I0917 17:29:48.690047 19620 net.cpp:157] Top shape: 16 512 36 44 (12976128)
I0917 17:29:48.690052 19620 net.cpp:165] Memory required for data: 3503554592
I0917 17:29:48.690058 19620 layer_factory.hpp:77] Creating layer relu4_1
I0917 17:29:48.690064 19620 net.cpp:100] Creating Layer relu4_1
I0917 17:29:48.690068 19620 net.cpp:434] relu4_1 <- conv4_1
I0917 17:29:48.690071 19620 net.cpp:395] relu4_1 -> conv4_1 (in-place)
I0917 17:29:48.690582 19620 net.cpp:150] Setting up relu4_1
I0917 17:29:48.690589 19620 net.cpp:157] Top shape: 16 512 36 44 (12976128)
I0917 17:29:48.690593 19620 net.cpp:165] Memory required for data: 3555459104
I0917 17:29:48.690595 19620 layer_factory.hpp:77] Creating layer conv4_2
I0917 17:29:48.690605 19620 net.cpp:100] Creating Layer conv4_2
I0917 17:29:48.690608 19620 net.cpp:434] conv4_2 <- conv4_1
I0917 17:29:48.690613 19620 net.cpp:408] conv4_2 -> conv4_2
I0917 17:29:48.701964 19620 net.cpp:150] Setting up conv4_2
I0917 17:29:48.701982 19620 net.cpp:157] Top shape: 16 512 36 44 (12976128)
I0917 17:29:48.701987 19620 net.cpp:165] Memory required for data: 3607363616
I0917 17:29:48.701995 19620 layer_factory.hpp:77] Creating layer relu4_2
I0917 17:29:48.702001 19620 net.cpp:100] Creating Layer relu4_2
I0917 17:29:48.702004 19620 net.cpp:434] relu4_2 <- conv4_2
I0917 17:29:48.702010 19620 net.cpp:395] relu4_2 -> conv4_2 (in-place)
I0917 17:29:48.702374 19620 net.cpp:150] Setting up relu4_2
I0917 17:29:48.702380 19620 net.cpp:157] Top shape: 16 512 36 44 (12976128)
I0917 17:29:48.702383 19620 net.cpp:165] Memory required for data: 3659268128
I0917 17:29:48.702386 19620 layer_factory.hpp:77] Creating layer conv4_3
I0917 17:29:48.702394 19620 net.cpp:100] Creating Layer conv4_3
I0917 17:29:48.702397 19620 net.cpp:434] conv4_3 <- conv4_2
I0917 17:29:48.702402 19620 net.cpp:408] conv4_3 -> conv4_3
I0917 17:29:48.713441 19620 net.cpp:150] Setting up conv4_3
I0917 17:29:48.713459 19620 net.cpp:157] Top shape: 16 512 36 44 (12976128)
I0917 17:29:48.713464 19620 net.cpp:165] Memory required for data: 3711172640
I0917 17:29:48.713471 19620 layer_factory.hpp:77] Creating layer relu4_3
I0917 17:29:48.713479 19620 net.cpp:100] Creating Layer relu4_3
I0917 17:29:48.713518 19620 net.cpp:434] relu4_3 <- conv4_3
I0917 17:29:48.713524 19620 net.cpp:395] relu4_3 -> conv4_3 (in-place)
I0917 17:29:48.715219 19620 net.cpp:150] Setting up relu4_3
I0917 17:29:48.715227 19620 net.cpp:157] Top shape: 16 512 36 44 (12976128)
I0917 17:29:48.715232 19620 net.cpp:165] Memory required for data: 3763077152
I0917 17:29:48.715234 19620 layer_factory.hpp:77] Creating layer conv4_3_relu4_3_0_split
I0917 17:29:48.715241 19620 net.cpp:100] Creating Layer conv4_3_relu4_3_0_split
I0917 17:29:48.715245 19620 net.cpp:434] conv4_3_relu4_3_0_split <- conv4_3
I0917 17:29:48.715248 19620 net.cpp:408] conv4_3_relu4_3_0_split -> conv4_3_relu4_3_0_split_0
I0917 17:29:48.715255 19620 net.cpp:408] conv4_3_relu4_3_0_split -> conv4_3_relu4_3_0_split_1
I0917 17:29:48.715307 19620 net.cpp:150] Setting up conv4_3_relu4_3_0_split
I0917 17:29:48.715312 19620 net.cpp:157] Top shape: 16 512 36 44 (12976128)
I0917 17:29:48.715314 19620 net.cpp:157] Top shape: 16 512 36 44 (12976128)
I0917 17:29:48.715317 19620 net.cpp:165] Memory required for data: 3866886176
I0917 17:29:48.715320 19620 layer_factory.hpp:77] Creating layer pool4
I0917 17:29:48.715325 19620 net.cpp:100] Creating Layer pool4
I0917 17:29:48.715328 19620 net.cpp:434] pool4 <- conv4_3_relu4_3_0_split_0
I0917 17:29:48.715332 19620 net.cpp:408] pool4 -> pool4
I0917 17:29:48.715363 19620 net.cpp:150] Setting up pool4
I0917 17:29:48.715366 19620 net.cpp:157] Top shape: 16 512 18 22 (3244032)
I0917 17:29:48.715389 19620 net.cpp:165] Memory required for data: 3879862304
I0917 17:29:48.715390 19620 layer_factory.hpp:77] Creating layer conv5_1
I0917 17:29:48.715416 19620 net.cpp:100] Creating Layer conv5_1
I0917 17:29:48.715420 19620 net.cpp:434] conv5_1 <- pool4
I0917 17:29:48.715422 19620 net.cpp:408] conv5_1 -> conv5_1
I0917 17:29:48.726723 19620 net.cpp:150] Setting up conv5_1
I0917 17:29:48.726742 19620 net.cpp:157] Top shape: 16 512 18 22 (3244032)
I0917 17:29:48.726747 19620 net.cpp:165] Memory required for data: 3892838432
I0917 17:29:48.726753 19620 layer_factory.hpp:77] Creating layer relu5_1
I0917 17:29:48.726760 19620 net.cpp:100] Creating Layer relu5_1
I0917 17:29:48.726764 19620 net.cpp:434] relu5_1 <- conv5_1
I0917 17:29:48.726769 19620 net.cpp:395] relu5_1 -> conv5_1 (in-place)
I0917 17:29:48.727159 19620 net.cpp:150] Setting up relu5_1
I0917 17:29:48.727165 19620 net.cpp:157] Top shape: 16 512 18 22 (3244032)
I0917 17:29:48.727169 19620 net.cpp:165] Memory required for data: 3905814560
I0917 17:29:48.727171 19620 layer_factory.hpp:77] Creating layer conv5_2
I0917 17:29:48.727182 19620 net.cpp:100] Creating Layer conv5_2
I0917 17:29:48.727185 19620 net.cpp:434] conv5_2 <- conv5_1
I0917 17:29:48.727190 19620 net.cpp:408] conv5_2 -> conv5_2
I0917 17:29:48.738688 19620 net.cpp:150] Setting up conv5_2
I0917 17:29:48.738704 19620 net.cpp:157] Top shape: 16 512 18 22 (3244032)
I0917 17:29:48.738709 19620 net.cpp:165] Memory required for data: 3918790688
I0917 17:29:48.738715 19620 layer_factory.hpp:77] Creating layer relu5_2
I0917 17:29:48.738723 19620 net.cpp:100] Creating Layer relu5_2
I0917 17:29:48.738728 19620 net.cpp:434] relu5_2 <- conv5_2
I0917 17:29:48.738732 19620 net.cpp:395] relu5_2 -> conv5_2 (in-place)
I0917 17:29:48.739092 19620 net.cpp:150] Setting up relu5_2
I0917 17:29:48.739099 19620 net.cpp:157] Top shape: 16 512 18 22 (3244032)
I0917 17:29:48.739101 19620 net.cpp:165] Memory required for data: 3931766816
I0917 17:29:48.739104 19620 layer_factory.hpp:77] Creating layer conv5_3
I0917 17:29:48.739112 19620 net.cpp:100] Creating Layer conv5_3
I0917 17:29:48.739115 19620 net.cpp:434] conv5_3 <- conv5_2
I0917 17:29:48.739120 19620 net.cpp:408] conv5_3 -> conv5_3
I0917 17:29:48.751257 19620 net.cpp:150] Setting up conv5_3
I0917 17:29:48.751271 19620 net.cpp:157] Top shape: 16 512 18 22 (3244032)
I0917 17:29:48.751277 19620 net.cpp:165] Memory required for data: 3944742944
I0917 17:29:48.751283 19620 layer_factory.hpp:77] Creating layer relu5_3
I0917 17:29:48.751293 19620 net.cpp:100] Creating Layer relu5_3
I0917 17:29:48.751297 19620 net.cpp:434] relu5_3 <- conv5_3
I0917 17:29:48.751322 19620 net.cpp:395] relu5_3 -> conv5_3 (in-place)
I0917 17:29:48.751804 19620 net.cpp:150] Setting up relu5_3
I0917 17:29:48.751811 19620 net.cpp:157] Top shape: 16 512 18 22 (3244032)
I0917 17:29:48.751816 19620 net.cpp:165] Memory required for data: 3957719072
I0917 17:29:48.751818 19620 layer_factory.hpp:77] Creating layer pool5
I0917 17:29:48.751824 19620 net.cpp:100] Creating Layer pool5
I0917 17:29:48.751827 19620 net.cpp:434] pool5 <- conv5_3
I0917 17:29:48.751832 19620 net.cpp:408] pool5 -> pool5
I0917 17:29:48.751869 19620 net.cpp:150] Setting up pool5
I0917 17:29:48.751873 19620 net.cpp:157] Top shape: 16 512 18 22 (3244032)
I0917 17:29:48.751876 19620 net.cpp:165] Memory required for data: 3970695200
I0917 17:29:48.751878 19620 layer_factory.hpp:77] Creating layer fc6
I0917 17:29:48.751886 19620 net.cpp:100] Creating Layer fc6
I0917 17:29:48.751889 19620 net.cpp:434] fc6 <- pool5
I0917 17:29:48.751893 19620 net.cpp:408] fc6 -> fc6
I0917 17:29:48.772584 19620 net.cpp:150] Setting up fc6
I0917 17:29:48.772601 19620 net.cpp:157] Top shape: 16 1024 18 22 (6488064)
I0917 17:29:48.772606 19620 net.cpp:165] Memory required for data: 3996647456
I0917 17:29:48.772614 19620 layer_factory.hpp:77] Creating layer relu6
I0917 17:29:48.772620 19620 net.cpp:100] Creating Layer relu6
I0917 17:29:48.772624 19620 net.cpp:434] relu6 <- fc6
I0917 17:29:48.772629 19620 net.cpp:395] relu6 -> fc6 (in-place)
I0917 17:29:48.773118 19620 net.cpp:150] Setting up relu6
I0917 17:29:48.773125 19620 net.cpp:157] Top shape: 16 1024 18 22 (6488064)
I0917 17:29:48.773129 19620 net.cpp:165] Memory required for data: 4022599712
I0917 17:29:48.773133 19620 layer_factory.hpp:77] Creating layer fc7
I0917 17:29:48.773141 19620 net.cpp:100] Creating Layer fc7
I0917 17:29:48.773144 19620 net.cpp:434] fc7 <- fc6
I0917 17:29:48.773149 19620 net.cpp:408] fc7 -> fc7
I0917 17:29:48.779029 19620 net.cpp:150] Setting up fc7
I0917 17:29:48.779039 19620 net.cpp:157] Top shape: 16 1024 18 22 (6488064)
I0917 17:29:48.779043 19620 net.cpp:165] Memory required for data: 4048551968
I0917 17:29:48.779048 19620 layer_factory.hpp:77] Creating layer relu7
I0917 17:29:48.779054 19620 net.cpp:100] Creating Layer relu7
I0917 17:29:48.779057 19620 net.cpp:434] relu7 <- fc7
I0917 17:29:48.779062 19620 net.cpp:395] relu7 -> fc7 (in-place)
I0917 17:29:48.780350 19620 net.cpp:150] Setting up relu7
I0917 17:29:48.780359 19620 net.cpp:157] Top shape: 16 1024 18 22 (6488064)
I0917 17:29:48.780364 19620 net.cpp:165] Memory required for data: 4074504224
I0917 17:29:48.780367 19620 layer_factory.hpp:77] Creating layer fc7_relu7_0_split
I0917 17:29:48.780390 19620 net.cpp:100] Creating Layer fc7_relu7_0_split
I0917 17:29:48.780393 19620 net.cpp:434] fc7_relu7_0_split <- fc7
I0917 17:29:48.780397 19620 net.cpp:408] fc7_relu7_0_split -> fc7_relu7_0_split_0
I0917 17:29:48.780403 19620 net.cpp:408] fc7_relu7_0_split -> fc7_relu7_0_split_1
I0917 17:29:48.780411 19620 net.cpp:408] fc7_relu7_0_split -> fc7_relu7_0_split_2
I0917 17:29:48.780416 19620 net.cpp:408] fc7_relu7_0_split -> fc7_relu7_0_split_3
I0917 17:29:48.780491 19620 net.cpp:150] Setting up fc7_relu7_0_split
I0917 17:29:48.780495 19620 net.cpp:157] Top shape: 16 1024 18 22 (6488064)
I0917 17:29:48.780498 19620 net.cpp:157] Top shape: 16 1024 18 22 (6488064)
I0917 17:29:48.780516 19620 net.cpp:157] Top shape: 16 1024 18 22 (6488064)
I0917 17:29:48.780519 19620 net.cpp:157] Top shape: 16 1024 18 22 (6488064)
I0917 17:29:48.780521 19620 net.cpp:165] Memory required for data: 4178313248
I0917 17:29:48.780524 19620 layer_factory.hpp:77] Creating layer conv6_1
I0917 17:29:48.780532 19620 net.cpp:100] Creating Layer conv6_1
I0917 17:29:48.780535 19620 net.cpp:434] conv6_1 <- fc7_relu7_0_split_0
I0917 17:29:48.780540 19620 net.cpp:408] conv6_1 -> conv6_1
I0917 17:29:48.783529 19620 net.cpp:150] Setting up conv6_1
I0917 17:29:48.783536 19620 net.cpp:157] Top shape: 16 256 18 22 (1622016)
I0917 17:29:48.783540 19620 net.cpp:165] Memory required for data: 4184801312
I0917 17:29:48.783562 19620 layer_factory.hpp:77] Creating layer conv6_1_relu
I0917 17:29:48.783569 19620 net.cpp:100] Creating Layer conv6_1_relu
I0917 17:29:48.783573 19620 net.cpp:434] conv6_1_relu <- conv6_1
I0917 17:29:48.783576 19620 net.cpp:395] conv6_1_relu -> conv6_1 (in-place)
I0917 17:29:48.783928 19620 net.cpp:150] Setting up conv6_1_relu
I0917 17:29:48.783934 19620 net.cpp:157] Top shape: 16 256 18 22 (1622016)
I0917 17:29:48.783937 19620 net.cpp:165] Memory required for data: 4191289376
I0917 17:29:48.783941 19620 layer_factory.hpp:77] Creating layer conv6_2
I0917 17:29:48.783949 19620 net.cpp:100] Creating Layer conv6_2
I0917 17:29:48.783952 19620 net.cpp:434] conv6_2 <- conv6_1
I0917 17:29:48.783957 19620 net.cpp:408] conv6_2 -> conv6_2
I0917 17:29:48.790448 19620 net.cpp:150] Setting up conv6_2
I0917 17:29:48.790458 19620 net.cpp:157] Top shape: 16 512 9 11 (811008)
I0917 17:29:48.790463 19620 net.cpp:165] Memory required for data: 4194533408
I0917 17:29:48.790472 19620 layer_factory.hpp:77] Creating layer conv6_2_relu
I0917 17:29:48.790477 19620 net.cpp:100] Creating Layer conv6_2_relu
I0917 17:29:48.790480 19620 net.cpp:434] conv6_2_relu <- conv6_2
I0917 17:29:48.790484 19620 net.cpp:395] conv6_2_relu -> conv6_2 (in-place)
I0917 17:29:48.790838 19620 net.cpp:150] Setting up conv6_2_relu
I0917 17:29:48.790844 19620 net.cpp:157] Top shape: 16 512 9 11 (811008)
I0917 17:29:48.790848 19620 net.cpp:165] Memory required for data: 4197777440
I0917 17:29:48.790851 19620 layer_factory.hpp:77] Creating layer conv6_2_conv6_2_relu_0_split
I0917 17:29:48.790858 19620 net.cpp:100] Creating Layer conv6_2_conv6_2_relu_0_split
I0917 17:29:48.790859 19620 net.cpp:434] conv6_2_conv6_2_relu_0_split <- conv6_2
I0917 17:29:48.790863 19620 net.cpp:408] conv6_2_conv6_2_relu_0_split -> conv6_2_conv6_2_relu_0_split_0
I0917 17:29:48.790868 19620 net.cpp:408] conv6_2_conv6_2_relu_0_split -> conv6_2_conv6_2_relu_0_split_1
I0917 17:29:48.790871 19620 net.cpp:408] conv6_2_conv6_2_relu_0_split -> conv6_2_conv6_2_relu_0_split_2
I0917 17:29:48.790875 19620 net.cpp:408] conv6_2_conv6_2_relu_0_split -> conv6_2_conv6_2_relu_0_split_3
I0917 17:29:48.790935 19620 net.cpp:150] Setting up conv6_2_conv6_2_relu_0_split
I0917 17:29:48.790938 19620 net.cpp:157] Top shape: 16 512 9 11 (811008)
I0917 17:29:48.790941 19620 net.cpp:157] Top shape: 16 512 9 11 (811008)
I0917 17:29:48.790944 19620 net.cpp:157] Top shape: 16 512 9 11 (811008)
I0917 17:29:48.790946 19620 net.cpp:157] Top shape: 16 512 9 11 (811008)
I0917 17:29:48.790949 19620 net.cpp:165] Memory required for data: 4210753568
I0917 17:29:48.790951 19620 layer_factory.hpp:77] Creating layer conv7_1
I0917 17:29:48.790959 19620 net.cpp:100] Creating Layer conv7_1
I0917 17:29:48.790961 19620 net.cpp:434] conv7_1 <- conv6_2_conv6_2_relu_0_split_0
I0917 17:29:48.790966 19620 net.cpp:408] conv7_1 -> conv7_1
I0917 17:29:48.793532 19620 net.cpp:150] Setting up conv7_1
I0917 17:29:48.793540 19620 net.cpp:157] Top shape: 16 128 9 11 (202752)
I0917 17:29:48.793545 19620 net.cpp:165] Memory required for data: 4211564576
I0917 17:29:48.793548 19620 layer_factory.hpp:77] Creating layer conv7_1_relu
I0917 17:29:48.793553 19620 net.cpp:100] Creating Layer conv7_1_relu
I0917 17:29:48.793556 19620 net.cpp:434] conv7_1_relu <- conv7_1
I0917 17:29:48.793560 19620 net.cpp:395] conv7_1_relu -> conv7_1 (in-place)
I0917 17:29:48.793923 19620 net.cpp:150] Setting up conv7_1_relu
I0917 17:29:48.793931 19620 net.cpp:157] Top shape: 16 128 9 11 (202752)
I0917 17:29:48.793934 19620 net.cpp:165] Memory required for data: 4212375584
I0917 17:29:48.793936 19620 layer_factory.hpp:77] Creating layer conv7_2
I0917 17:29:48.793946 19620 net.cpp:100] Creating Layer conv7_2
I0917 17:29:48.793948 19620 net.cpp:434] conv7_2 <- conv7_1
I0917 17:29:48.793951 19620 net.cpp:408] conv7_2 -> conv7_2
I0917 17:29:48.797065 19620 net.cpp:150] Setting up conv7_2
I0917 17:29:48.797073 19620 net.cpp:157] Top shape: 16 256 5 6 (122880)
I0917 17:29:48.797076 19620 net.cpp:165] Memory required for data: 4212867104
I0917 17:29:48.797081 19620 layer_factory.hpp:77] Creating layer conv7_2_relu
I0917 17:29:48.797101 19620 net.cpp:100] Creating Layer conv7_2_relu
I0917 17:29:48.797104 19620 net.cpp:434] conv7_2_relu <- conv7_2
I0917 17:29:48.797107 19620 net.cpp:395] conv7_2_relu -> conv7_2 (in-place)
I0917 17:29:48.797494 19620 net.cpp:150] Setting up conv7_2_relu
I0917 17:29:48.797500 19620 net.cpp:157] Top shape: 16 256 5 6 (122880)
I0917 17:29:48.797503 19620 net.cpp:165] Memory required for data: 4213358624
I0917 17:29:48.797507 19620 layer_factory.hpp:77] Creating layer conv7_2_conv7_2_relu_0_split
I0917 17:29:48.797511 19620 net.cpp:100] Creating Layer conv7_2_conv7_2_relu_0_split
I0917 17:29:48.797514 19620 net.cpp:434] conv7_2_conv7_2_relu_0_split <- conv7_2
I0917 17:29:48.797518 19620 net.cpp:408] conv7_2_conv7_2_relu_0_split -> conv7_2_conv7_2_relu_0_split_0
I0917 17:29:48.797523 19620 net.cpp:408] conv7_2_conv7_2_relu_0_split -> conv7_2_conv7_2_relu_0_split_1
I0917 17:29:48.797542 19620 net.cpp:408] conv7_2_conv7_2_relu_0_split -> conv7_2_conv7_2_relu_0_split_2
I0917 17:29:48.797546 19620 net.cpp:408] conv7_2_conv7_2_relu_0_split -> conv7_2_conv7_2_relu_0_split_3
I0917 17:29:48.797622 19620 net.cpp:150] Setting up conv7_2_conv7_2_relu_0_split
I0917 17:29:48.797627 19620 net.cpp:157] Top shape: 16 256 5 6 (122880)
I0917 17:29:48.797631 19620 net.cpp:157] Top shape: 16 256 5 6 (122880)
I0917 17:29:48.797633 19620 net.cpp:157] Top shape: 16 256 5 6 (122880)
I0917 17:29:48.797636 19620 net.cpp:157] Top shape: 16 256 5 6 (122880)
I0917 17:29:48.797638 19620 net.cpp:165] Memory required for data: 4215324704
I0917 17:29:48.797641 19620 layer_factory.hpp:77] Creating layer conv8_1
I0917 17:29:48.797647 19620 net.cpp:100] Creating Layer conv8_1
I0917 17:29:48.797650 19620 net.cpp:434] conv8_1 <- conv7_2_conv7_2_relu_0_split_0
I0917 17:29:48.797654 19620 net.cpp:408] conv8_1 -> conv8_1
I0917 17:29:48.799633 19620 net.cpp:150] Setting up conv8_1
I0917 17:29:48.799641 19620 net.cpp:157] Top shape: 16 128 5 6 (61440)
I0917 17:29:48.799645 19620 net.cpp:165] Memory required for data: 4215570464
I0917 17:29:48.799649 19620 layer_factory.hpp:77] Creating layer conv8_1_relu
I0917 17:29:48.799654 19620 net.cpp:100] Creating Layer conv8_1_relu
I0917 17:29:48.799656 19620 net.cpp:434] conv8_1_relu <- conv8_1
I0917 17:29:48.799660 19620 net.cpp:395] conv8_1_relu -> conv8_1 (in-place)
I0917 17:29:48.800951 19620 net.cpp:150] Setting up conv8_1_relu
I0917 17:29:48.800958 19620 net.cpp:157] Top shape: 16 128 5 6 (61440)
I0917 17:29:48.800962 19620 net.cpp:165] Memory required for data: 4215816224
I0917 17:29:48.800966 19620 layer_factory.hpp:77] Creating layer conv8_2
I0917 17:29:48.800973 19620 net.cpp:100] Creating Layer conv8_2
I0917 17:29:48.800976 19620 net.cpp:434] conv8_2 <- conv8_1
I0917 17:29:48.800981 19620 net.cpp:408] conv8_2 -> conv8_2
I0917 17:29:48.803995 19620 net.cpp:150] Setting up conv8_2
I0917 17:29:48.804003 19620 net.cpp:157] Top shape: 16 256 3 4 (49152)
I0917 17:29:48.804008 19620 net.cpp:165] Memory required for data: 4216012832
I0917 17:29:48.804013 19620 layer_factory.hpp:77] Creating layer conv8_2_relu
I0917 17:29:48.804016 19620 net.cpp:100] Creating Layer conv8_2_relu
I0917 17:29:48.804019 19620 net.cpp:434] conv8_2_relu <- conv8_2
I0917 17:29:48.804023 19620 net.cpp:395] conv8_2_relu -> conv8_2 (in-place)
I0917 17:29:48.804378 19620 net.cpp:150] Setting up conv8_2_relu
I0917 17:29:48.804383 19620 net.cpp:157] Top shape: 16 256 3 4 (49152)
I0917 17:29:48.804386 19620 net.cpp:165] Memory required for data: 4216209440
I0917 17:29:48.804389 19620 layer_factory.hpp:77] Creating layer conv8_2_conv8_2_relu_0_split
I0917 17:29:48.804394 19620 net.cpp:100] Creating Layer conv8_2_conv8_2_relu_0_split
I0917 17:29:48.804397 19620 net.cpp:434] conv8_2_conv8_2_relu_0_split <- conv8_2
I0917 17:29:48.804401 19620 net.cpp:408] conv8_2_conv8_2_relu_0_split -> conv8_2_conv8_2_relu_0_split_0
I0917 17:29:48.804406 19620 net.cpp:408] conv8_2_conv8_2_relu_0_split -> conv8_2_conv8_2_relu_0_split_1
I0917 17:29:48.804410 19620 net.cpp:408] conv8_2_conv8_2_relu_0_split -> conv8_2_conv8_2_relu_0_split_2
I0917 17:29:48.804427 19620 net.cpp:408] conv8_2_conv8_2_relu_0_split -> conv8_2_conv8_2_relu_0_split_3
I0917 17:29:48.804491 19620 net.cpp:150] Setting up conv8_2_conv8_2_relu_0_split
I0917 17:29:48.804493 19620 net.cpp:157] Top shape: 16 256 3 4 (49152)
I0917 17:29:48.804497 19620 net.cpp:157] Top shape: 16 256 3 4 (49152)
I0917 17:29:48.804499 19620 net.cpp:157] Top shape: 16 256 3 4 (49152)
I0917 17:29:48.804502 19620 net.cpp:157] Top shape: 16 256 3 4 (49152)
I0917 17:29:48.804504 19620 net.cpp:165] Memory required for data: 4216995872
I0917 17:29:48.804507 19620 layer_factory.hpp:77] Creating layer conv9_1
I0917 17:29:48.804512 19620 net.cpp:100] Creating Layer conv9_1
I0917 17:29:48.804514 19620 net.cpp:434] conv9_1 <- conv8_2_conv8_2_relu_0_split_0
I0917 17:29:48.804518 19620 net.cpp:408] conv9_1 -> conv9_1
I0917 17:29:48.806193 19620 net.cpp:150] Setting up conv9_1
I0917 17:29:48.806201 19620 net.cpp:157] Top shape: 16 128 3 4 (24576)
I0917 17:29:48.806205 19620 net.cpp:165] Memory required for data: 4217094176
I0917 17:29:48.806208 19620 layer_factory.hpp:77] Creating layer conv9_1_relu
I0917 17:29:48.806212 19620 net.cpp:100] Creating Layer conv9_1_relu
I0917 17:29:48.806241 19620 net.cpp:434] conv9_1_relu <- conv9_1
I0917 17:29:48.806246 19620 net.cpp:395] conv9_1_relu -> conv9_1 (in-place)
I0917 17:29:48.806742 19620 net.cpp:150] Setting up conv9_1_relu
I0917 17:29:48.806749 19620 net.cpp:157] Top shape: 16 128 3 4 (24576)
I0917 17:29:48.806753 19620 net.cpp:165] Memory required for data: 4217192480
I0917 17:29:48.806756 19620 layer_factory.hpp:77] Creating layer conv9_2
I0917 17:29:48.806763 19620 net.cpp:100] Creating Layer conv9_2
I0917 17:29:48.806766 19620 net.cpp:434] conv9_2 <- conv9_1
I0917 17:29:48.806769 19620 net.cpp:408] conv9_2 -> conv9_2
I0917 17:29:48.810578 19620 net.cpp:150] Setting up conv9_2
I0917 17:29:48.810586 19620 net.cpp:157] Top shape: 16 256 1 2 (8192)
I0917 17:29:48.810591 19620 net.cpp:165] Memory required for data: 4217225248
I0917 17:29:48.810595 19620 layer_factory.hpp:77] Creating layer conv9_2_relu
I0917 17:29:48.810601 19620 net.cpp:100] Creating Layer conv9_2_relu
I0917 17:29:48.810604 19620 net.cpp:434] conv9_2_relu <- conv9_2
I0917 17:29:48.810607 19620 net.cpp:395] conv9_2_relu -> conv9_2 (in-place)
I0917 17:29:48.811024 19620 net.cpp:150] Setting up conv9_2_relu
I0917 17:29:48.811030 19620 net.cpp:157] Top shape: 16 256 1 2 (8192)
I0917 17:29:48.811034 19620 net.cpp:165] Memory required for data: 4217258016
I0917 17:29:48.811036 19620 layer_factory.hpp:77] Creating layer conv9_2_conv9_2_relu_0_split
I0917 17:29:48.811043 19620 net.cpp:100] Creating Layer conv9_2_conv9_2_relu_0_split
I0917 17:29:48.811046 19620 net.cpp:434] conv9_2_conv9_2_relu_0_split <- conv9_2
I0917 17:29:48.811051 19620 net.cpp:408] conv9_2_conv9_2_relu_0_split -> conv9_2_conv9_2_relu_0_split_0
I0917 17:29:48.811056 19620 net.cpp:408] conv9_2_conv9_2_relu_0_split -> conv9_2_conv9_2_relu_0_split_1
I0917 17:29:48.811060 19620 net.cpp:408] conv9_2_conv9_2_relu_0_split -> conv9_2_conv9_2_relu_0_split_2
I0917 17:29:48.811146 19620 net.cpp:150] Setting up conv9_2_conv9_2_relu_0_split
I0917 17:29:48.811149 19620 net.cpp:157] Top shape: 16 256 1 2 (8192)
I0917 17:29:48.811153 19620 net.cpp:157] Top shape: 16 256 1 2 (8192)
I0917 17:29:48.811156 19620 net.cpp:157] Top shape: 16 256 1 2 (8192)
I0917 17:29:48.811173 19620 net.cpp:165] Memory required for data: 4217356320
I0917 17:29:48.811175 19620 layer_factory.hpp:77] Creating layer conv4_3_norm
I0917 17:29:48.811194 19620 net.cpp:100] Creating Layer conv4_3_norm
I0917 17:29:48.811197 19620 net.cpp:434] conv4_3_norm <- conv4_3_relu4_3_0_split_1
I0917 17:29:48.811201 19620 net.cpp:408] conv4_3_norm -> conv4_3_norm
I0917 17:29:48.811391 19620 net.cpp:150] Setting up conv4_3_norm
I0917 17:29:48.811395 19620 net.cpp:157] Top shape: 16 512 36 44 (12976128)
I0917 17:29:48.811399 19620 net.cpp:165] Memory required for data: 4269260832
I0917 17:29:48.811403 19620 layer_factory.hpp:77] Creating layer conv4_3_norm_conv4_3_norm_0_split
I0917 17:29:48.811419 19620 net.cpp:100] Creating Layer conv4_3_norm_conv4_3_norm_0_split
I0917 17:29:48.811421 19620 net.cpp:434] conv4_3_norm_conv4_3_norm_0_split <- conv4_3_norm
I0917 17:29:48.811425 19620 net.cpp:408] conv4_3_norm_conv4_3_norm_0_split -> conv4_3_norm_conv4_3_norm_0_split_0
I0917 17:29:48.811429 19620 net.cpp:408] conv4_3_norm_conv4_3_norm_0_split -> conv4_3_norm_conv4_3_norm_0_split_1
I0917 17:29:48.811450 19620 net.cpp:408] conv4_3_norm_conv4_3_norm_0_split -> conv4_3_norm_conv4_3_norm_0_split_2
I0917 17:29:48.811509 19620 net.cpp:150] Setting up conv4_3_norm_conv4_3_norm_0_split
I0917 17:29:48.811512 19620 net.cpp:157] Top shape: 16 512 36 44 (12976128)
I0917 17:29:48.811532 19620 net.cpp:157] Top shape: 16 512 36 44 (12976128)
I0917 17:29:48.811534 19620 net.cpp:157] Top shape: 16 512 36 44 (12976128)
I0917 17:29:48.811537 19620 net.cpp:165] Memory required for data: 4424974368
I0917 17:29:48.811539 19620 layer_factory.hpp:77] Creating layer conv4_3_norm_mbox_loc
I0917 17:29:48.811559 19620 net.cpp:100] Creating Layer conv4_3_norm_mbox_loc
I0917 17:29:48.811578 19620 net.cpp:434] conv4_3_norm_mbox_loc <- conv4_3_norm_conv4_3_norm_0_split_0
I0917 17:29:48.811583 19620 net.cpp:408] conv4_3_norm_mbox_loc -> conv4_3_norm_mbox_loc
I0917 17:29:48.813665 19620 net.cpp:150] Setting up conv4_3_norm_mbox_loc
I0917 17:29:48.813673 19620 net.cpp:157] Top shape: 16 16 36 44 (405504)
I0917 17:29:48.813676 19620 net.cpp:165] Memory required for data: 4426596384
I0917 17:29:48.813683 19620 layer_factory.hpp:77] Creating layer conv4_3_norm_mbox_loc_perm
I0917 17:29:48.813688 19620 net.cpp:100] Creating Layer conv4_3_norm_mbox_loc_perm
I0917 17:29:48.813689 19620 net.cpp:434] conv4_3_norm_mbox_loc_perm <- conv4_3_norm_mbox_loc
I0917 17:29:48.813694 19620 net.cpp:408] conv4_3_norm_mbox_loc_perm -> conv4_3_norm_mbox_loc_perm
I0917 17:29:48.813825 19620 net.cpp:150] Setting up conv4_3_norm_mbox_loc_perm
I0917 17:29:48.813829 19620 net.cpp:157] Top shape: 16 36 44 16 (405504)
I0917 17:29:48.813832 19620 net.cpp:165] Memory required for data: 4428218400
I0917 17:29:48.813834 19620 layer_factory.hpp:77] Creating layer conv4_3_norm_mbox_loc_flat
I0917 17:29:48.813848 19620 net.cpp:100] Creating Layer conv4_3_norm_mbox_loc_flat
I0917 17:29:48.813851 19620 net.cpp:434] conv4_3_norm_mbox_loc_flat <- conv4_3_norm_mbox_loc_perm
I0917 17:29:48.813854 19620 net.cpp:408] conv4_3_norm_mbox_loc_flat -> conv4_3_norm_mbox_loc_flat
I0917 17:29:48.813904 19620 net.cpp:150] Setting up conv4_3_norm_mbox_loc_flat
I0917 17:29:48.813907 19620 net.cpp:157] Top shape: 16 25344 (405504)
I0917 17:29:48.813910 19620 net.cpp:165] Memory required for data: 4429840416
I0917 17:29:48.813912 19620 layer_factory.hpp:77] Creating layer conv4_3_norm_mbox_conf
I0917 17:29:48.813922 19620 net.cpp:100] Creating Layer conv4_3_norm_mbox_conf
I0917 17:29:48.813925 19620 net.cpp:434] conv4_3_norm_mbox_conf <- conv4_3_norm_conv4_3_norm_0_split_1
I0917 17:29:48.813930 19620 net.cpp:408] conv4_3_norm_mbox_conf -> conv4_3_norm_mbox_conf
I0917 17:29:48.815750 19620 net.cpp:150] Setting up conv4_3_norm_mbox_conf
I0917 17:29:48.815757 19620 net.cpp:157] Top shape: 16 8 36 44 (202752)
I0917 17:29:48.815762 19620 net.cpp:165] Memory required for data: 4430651424
I0917 17:29:48.815768 19620 layer_factory.hpp:77] Creating layer conv4_3_norm_mbox_conf_perm
I0917 17:29:48.815771 19620 net.cpp:100] Creating Layer conv4_3_norm_mbox_conf_perm
I0917 17:29:48.815774 19620 net.cpp:434] conv4_3_norm_mbox_conf_perm <- conv4_3_norm_mbox_conf
I0917 17:29:48.815778 19620 net.cpp:408] conv4_3_norm_mbox_conf_perm -> conv4_3_norm_mbox_conf_perm
I0917 17:29:48.815876 19620 net.cpp:150] Setting up conv4_3_norm_mbox_conf_perm
I0917 17:29:48.815879 19620 net.cpp:157] Top shape: 16 36 44 8 (202752)
I0917 17:29:48.815882 19620 net.cpp:165] Memory required for data: 4431462432
I0917 17:29:48.815886 19620 layer_factory.hpp:77] Creating layer conv4_3_norm_mbox_conf_flat
I0917 17:29:48.815888 19620 net.cpp:100] Creating Layer conv4_3_norm_mbox_conf_flat
I0917 17:29:48.815891 19620 net.cpp:434] conv4_3_norm_mbox_conf_flat <- conv4_3_norm_mbox_conf_perm
I0917 17:29:48.815904 19620 net.cpp:408] conv4_3_norm_mbox_conf_flat -> conv4_3_norm_mbox_conf_flat
I0917 17:29:48.815925 19620 net.cpp:150] Setting up conv4_3_norm_mbox_conf_flat
I0917 17:29:48.815929 19620 net.cpp:157] Top shape: 16 12672 (202752)
I0917 17:29:48.815932 19620 net.cpp:165] Memory required for data: 4432273440
I0917 17:29:48.815934 19620 layer_factory.hpp:77] Creating layer conv4_3_norm_mbox_priorbox
I0917 17:29:48.815939 19620 net.cpp:100] Creating Layer conv4_3_norm_mbox_priorbox
I0917 17:29:48.815943 19620 net.cpp:434] conv4_3_norm_mbox_priorbox <- conv4_3_norm_conv4_3_norm_0_split_2
I0917 17:29:48.815946 19620 net.cpp:434] conv4_3_norm_mbox_priorbox <- data_data_0_split_1
I0917 17:29:48.815950 19620 net.cpp:408] conv4_3_norm_mbox_priorbox -> conv4_3_norm_mbox_priorbox
I0917 17:29:48.815989 19620 net.cpp:150] Setting up conv4_3_norm_mbox_priorbox
I0917 17:29:48.816005 19620 net.cpp:157] Top shape: 1 2 25344 (50688)
I0917 17:29:48.816009 19620 net.cpp:165] Memory required for data: 4432476192
I0917 17:29:48.816010 19620 layer_factory.hpp:77] Creating layer fc7_mbox_loc
I0917 17:29:48.816015 19620 net.cpp:100] Creating Layer fc7_mbox_loc
I0917 17:29:48.816018 19620 net.cpp:434] fc7_mbox_loc <- fc7_relu7_0_split_1
I0917 17:29:48.816022 19620 net.cpp:408] fc7_mbox_loc -> fc7_mbox_loc
I0917 17:29:48.819300 19620 net.cpp:150] Setting up fc7_mbox_loc
I0917 17:29:48.819308 19620 net.cpp:157] Top shape: 16 24 18 22 (152064)
I0917 17:29:48.819314 19620 net.cpp:165] Memory required for data: 4433084448
I0917 17:29:48.819319 19620 layer_factory.hpp:77] Creating layer fc7_mbox_loc_perm
I0917 17:29:48.819325 19620 net.cpp:100] Creating Layer fc7_mbox_loc_perm
I0917 17:29:48.819329 19620 net.cpp:434] fc7_mbox_loc_perm <- fc7_mbox_loc
I0917 17:29:48.819332 19620 net.cpp:408] fc7_mbox_loc_perm -> fc7_mbox_loc_perm
I0917 17:29:48.819461 19620 net.cpp:150] Setting up fc7_mbox_loc_perm
I0917 17:29:48.819466 19620 net.cpp:157] Top shape: 16 18 22 24 (152064)
I0917 17:29:48.819469 19620 net.cpp:165] Memory required for data: 4433692704
I0917 17:29:48.819471 19620 layer_factory.hpp:77] Creating layer fc7_mbox_loc_flat
I0917 17:29:48.819475 19620 net.cpp:100] Creating Layer fc7_mbox_loc_flat
I0917 17:29:48.819478 19620 net.cpp:434] fc7_mbox_loc_flat <- fc7_mbox_loc_perm
I0917 17:29:48.819481 19620 net.cpp:408] fc7_mbox_loc_flat -> fc7_mbox_loc_flat
I0917 17:29:48.819501 19620 net.cpp:150] Setting up fc7_mbox_loc_flat
I0917 17:29:48.819506 19620 net.cpp:157] Top shape: 16 9504 (152064)
I0917 17:29:48.819509 19620 net.cpp:165] Memory required for data: 4434300960
I0917 17:29:48.819512 19620 layer_factory.hpp:77] Creating layer fc7_mbox_conf
I0917 17:29:48.819517 19620 net.cpp:100] Creating Layer fc7_mbox_conf
I0917 17:29:48.819520 19620 net.cpp:434] fc7_mbox_conf <- fc7_relu7_0_split_2
I0917 17:29:48.819525 19620 net.cpp:408] fc7_mbox_conf -> fc7_mbox_conf
I0917 17:29:48.821611 19620 net.cpp:150] Setting up fc7_mbox_conf
I0917 17:29:48.821619 19620 net.cpp:157] Top shape: 16 12 18 22 (76032)
I0917 17:29:48.821622 19620 net.cpp:165] Memory required for data: 4434605088
I0917 17:29:48.821627 19620 layer_factory.hpp:77] Creating layer fc7_mbox_conf_perm
I0917 17:29:48.821632 19620 net.cpp:100] Creating Layer fc7_mbox_conf_perm
I0917 17:29:48.821635 19620 net.cpp:434] fc7_mbox_conf_perm <- fc7_mbox_conf
I0917 17:29:48.821638 19620 net.cpp:408] fc7_mbox_conf_perm -> fc7_mbox_conf_perm
I0917 17:29:48.821739 19620 net.cpp:150] Setting up fc7_mbox_conf_perm
I0917 17:29:48.821743 19620 net.cpp:157] Top shape: 16 18 22 12 (76032)
I0917 17:29:48.821746 19620 net.cpp:165] Memory required for data: 4434909216
I0917 17:29:48.821748 19620 layer_factory.hpp:77] Creating layer fc7_mbox_conf_flat
I0917 17:29:48.821753 19620 net.cpp:100] Creating Layer fc7_mbox_conf_flat
I0917 17:29:48.821756 19620 net.cpp:434] fc7_mbox_conf_flat <- fc7_mbox_conf_perm
I0917 17:29:48.821759 19620 net.cpp:408] fc7_mbox_conf_flat -> fc7_mbox_conf_flat
I0917 17:29:48.821779 19620 net.cpp:150] Setting up fc7_mbox_conf_flat
I0917 17:29:48.821792 19620 net.cpp:157] Top shape: 16 4752 (76032)
I0917 17:29:48.821795 19620 net.cpp:165] Memory required for data: 4435213344
I0917 17:29:48.821797 19620 layer_factory.hpp:77] Creating layer fc7_mbox_priorbox
I0917 17:29:48.821804 19620 net.cpp:100] Creating Layer fc7_mbox_priorbox
I0917 17:29:48.821806 19620 net.cpp:434] fc7_mbox_priorbox <- fc7_relu7_0_split_3
I0917 17:29:48.821810 19620 net.cpp:434] fc7_mbox_priorbox <- data_data_0_split_2
I0917 17:29:48.821813 19620 net.cpp:408] fc7_mbox_priorbox -> fc7_mbox_priorbox
I0917 17:29:48.821833 19620 net.cpp:150] Setting up fc7_mbox_priorbox
I0917 17:29:48.821836 19620 net.cpp:157] Top shape: 1 2 9504 (19008)
I0917 17:29:48.821869 19620 net.cpp:165] Memory required for data: 4435289376
I0917 17:29:48.821872 19620 layer_factory.hpp:77] Creating layer conv6_2_mbox_loc
I0917 17:29:48.821879 19620 net.cpp:100] Creating Layer conv6_2_mbox_loc
I0917 17:29:48.821882 19620 net.cpp:434] conv6_2_mbox_loc <- conv6_2_conv6_2_relu_0_split_1
I0917 17:29:48.821887 19620 net.cpp:408] conv6_2_mbox_loc -> conv6_2_mbox_loc
I0917 17:29:48.823963 19620 net.cpp:150] Setting up conv6_2_mbox_loc
I0917 17:29:48.823971 19620 net.cpp:157] Top shape: 16 24 9 11 (38016)
I0917 17:29:48.823976 19620 net.cpp:165] Memory required for data: 4435441440
I0917 17:29:48.823979 19620 layer_factory.hpp:77] Creating layer conv6_2_mbox_loc_perm
I0917 17:29:48.823984 19620 net.cpp:100] Creating Layer conv6_2_mbox_loc_perm
I0917 17:29:48.823987 19620 net.cpp:434] conv6_2_mbox_loc_perm <- conv6_2_mbox_loc
I0917 17:29:48.823992 19620 net.cpp:408] conv6_2_mbox_loc_perm -> conv6_2_mbox_loc_perm
I0917 17:29:48.824090 19620 net.cpp:150] Setting up conv6_2_mbox_loc_perm
I0917 17:29:48.824095 19620 net.cpp:157] Top shape: 16 9 11 24 (38016)
I0917 17:29:48.824097 19620 net.cpp:165] Memory required for data: 4435593504
I0917 17:29:48.824100 19620 layer_factory.hpp:77] Creating layer conv6_2_mbox_loc_flat
I0917 17:29:48.824105 19620 net.cpp:100] Creating Layer conv6_2_mbox_loc_flat
I0917 17:29:48.824106 19620 net.cpp:434] conv6_2_mbox_loc_flat <- conv6_2_mbox_loc_perm
I0917 17:29:48.824110 19620 net.cpp:408] conv6_2_mbox_loc_flat -> conv6_2_mbox_loc_flat
I0917 17:29:48.824129 19620 net.cpp:150] Setting up conv6_2_mbox_loc_flat
I0917 17:29:48.824132 19620 net.cpp:157] Top shape: 16 2376 (38016)
I0917 17:29:48.824136 19620 net.cpp:165] Memory required for data: 4435745568
I0917 17:29:48.824137 19620 layer_factory.hpp:77] Creating layer conv6_2_mbox_conf
I0917 17:29:48.824143 19620 net.cpp:100] Creating Layer conv6_2_mbox_conf
I0917 17:29:48.824147 19620 net.cpp:434] conv6_2_mbox_conf <- conv6_2_conv6_2_relu_0_split_2
I0917 17:29:48.824152 19620 net.cpp:408] conv6_2_mbox_conf -> conv6_2_mbox_conf
I0917 17:29:48.826890 19620 net.cpp:150] Setting up conv6_2_mbox_conf
I0917 17:29:48.826898 19620 net.cpp:157] Top shape: 16 12 9 11 (19008)
I0917 17:29:48.826902 19620 net.cpp:165] Memory required for data: 4435821600
I0917 17:29:48.826906 19620 layer_factory.hpp:77] Creating layer conv6_2_mbox_conf_perm
I0917 17:29:48.826910 19620 net.cpp:100] Creating Layer conv6_2_mbox_conf_perm
I0917 17:29:48.826913 19620 net.cpp:434] conv6_2_mbox_conf_perm <- conv6_2_mbox_conf
I0917 17:29:48.826918 19620 net.cpp:408] conv6_2_mbox_conf_perm -> conv6_2_mbox_conf_perm
I0917 17:29:48.827020 19620 net.cpp:150] Setting up conv6_2_mbox_conf_perm
I0917 17:29:48.827023 19620 net.cpp:157] Top shape: 16 9 11 12 (19008)
I0917 17:29:48.827028 19620 net.cpp:165] Memory required for data: 4435897632
I0917 17:29:48.827029 19620 layer_factory.hpp:77] Creating layer conv6_2_mbox_conf_flat
I0917 17:29:48.827033 19620 net.cpp:100] Creating Layer conv6_2_mbox_conf_flat
I0917 17:29:48.827035 19620 net.cpp:434] conv6_2_mbox_conf_flat <- conv6_2_mbox_conf_perm
I0917 17:29:48.827039 19620 net.cpp:408] conv6_2_mbox_conf_flat -> conv6_2_mbox_conf_flat
I0917 17:29:48.827060 19620 net.cpp:150] Setting up conv6_2_mbox_conf_flat
I0917 17:29:48.827064 19620 net.cpp:157] Top shape: 16 1188 (19008)
I0917 17:29:48.827065 19620 net.cpp:165] Memory required for data: 4435973664
I0917 17:29:48.827078 19620 layer_factory.hpp:77] Creating layer conv6_2_mbox_priorbox
I0917 17:29:48.827083 19620 net.cpp:100] Creating Layer conv6_2_mbox_priorbox
I0917 17:29:48.827087 19620 net.cpp:434] conv6_2_mbox_priorbox <- conv6_2_conv6_2_relu_0_split_3
I0917 17:29:48.827090 19620 net.cpp:434] conv6_2_mbox_priorbox <- data_data_0_split_3
I0917 17:29:48.827111 19620 net.cpp:408] conv6_2_mbox_priorbox -> conv6_2_mbox_priorbox
I0917 17:29:48.827134 19620 net.cpp:150] Setting up conv6_2_mbox_priorbox
I0917 17:29:48.827137 19620 net.cpp:157] Top shape: 1 2 2376 (4752)
I0917 17:29:48.827141 19620 net.cpp:165] Memory required for data: 4435992672
I0917 17:29:48.827143 19620 layer_factory.hpp:77] Creating layer conv7_2_mbox_loc
I0917 17:29:48.827149 19620 net.cpp:100] Creating Layer conv7_2_mbox_loc
I0917 17:29:48.827152 19620 net.cpp:434] conv7_2_mbox_loc <- conv7_2_conv7_2_relu_0_split_1
I0917 17:29:48.827157 19620 net.cpp:408] conv7_2_mbox_loc -> conv7_2_mbox_loc
I0917 17:29:48.829160 19620 net.cpp:150] Setting up conv7_2_mbox_loc
I0917 17:29:48.829169 19620 net.cpp:157] Top shape: 16 24 5 6 (11520)
I0917 17:29:48.829172 19620 net.cpp:165] Memory required for data: 4436038752
I0917 17:29:48.829178 19620 layer_factory.hpp:77] Creating layer conv7_2_mbox_loc_perm
I0917 17:29:48.829183 19620 net.cpp:100] Creating Layer conv7_2_mbox_loc_perm
I0917 17:29:48.829187 19620 net.cpp:434] conv7_2_mbox_loc_perm <- conv7_2_mbox_loc
I0917 17:29:48.829191 19620 net.cpp:408] conv7_2_mbox_loc_perm -> conv7_2_mbox_loc_perm
I0917 17:29:48.829320 19620 net.cpp:150] Setting up conv7_2_mbox_loc_perm
I0917 17:29:48.829324 19620 net.cpp:157] Top shape: 16 5 6 24 (11520)
I0917 17:29:48.829327 19620 net.cpp:165] Memory required for data: 4436084832
I0917 17:29:48.829330 19620 layer_factory.hpp:77] Creating layer conv7_2_mbox_loc_flat
I0917 17:29:48.829334 19620 net.cpp:100] Creating Layer conv7_2_mbox_loc_flat
I0917 17:29:48.829337 19620 net.cpp:434] conv7_2_mbox_loc_flat <- conv7_2_mbox_loc_perm
I0917 17:29:48.829340 19620 net.cpp:408] conv7_2_mbox_loc_flat -> conv7_2_mbox_loc_flat
I0917 17:29:48.829360 19620 net.cpp:150] Setting up conv7_2_mbox_loc_flat
I0917 17:29:48.829378 19620 net.cpp:157] Top shape: 16 720 (11520)
I0917 17:29:48.829381 19620 net.cpp:165] Memory required for data: 4436130912
I0917 17:29:48.829383 19620 layer_factory.hpp:77] Creating layer conv7_2_mbox_conf
I0917 17:29:48.829389 19620 net.cpp:100] Creating Layer conv7_2_mbox_conf
I0917 17:29:48.829392 19620 net.cpp:434] conv7_2_mbox_conf <- conv7_2_conv7_2_relu_0_split_2
I0917 17:29:48.829411 19620 net.cpp:408] conv7_2_mbox_conf -> conv7_2_mbox_conf
I0917 17:29:48.831116 19620 net.cpp:150] Setting up conv7_2_mbox_conf
I0917 17:29:48.831123 19620 net.cpp:157] Top shape: 16 12 5 6 (5760)
I0917 17:29:48.831127 19620 net.cpp:165] Memory required for data: 4436153952
I0917 17:29:48.831131 19620 layer_factory.hpp:77] Creating layer conv7_2_mbox_conf_perm
I0917 17:29:48.831136 19620 net.cpp:100] Creating Layer conv7_2_mbox_conf_perm
I0917 17:29:48.831140 19620 net.cpp:434] conv7_2_mbox_conf_perm <- conv7_2_mbox_conf
I0917 17:29:48.831145 19620 net.cpp:408] conv7_2_mbox_conf_perm -> conv7_2_mbox_conf_perm
I0917 17:29:48.831274 19620 net.cpp:150] Setting up conv7_2_mbox_conf_perm
I0917 17:29:48.831277 19620 net.cpp:157] Top shape: 16 5 6 12 (5760)
I0917 17:29:48.831280 19620 net.cpp:165] Memory required for data: 4436176992
I0917 17:29:48.831284 19620 layer_factory.hpp:77] Creating layer conv7_2_mbox_conf_flat
I0917 17:29:48.831288 19620 net.cpp:100] Creating Layer conv7_2_mbox_conf_flat
I0917 17:29:48.831291 19620 net.cpp:434] conv7_2_mbox_conf_flat <- conv7_2_mbox_conf_perm
I0917 17:29:48.831295 19620 net.cpp:408] conv7_2_mbox_conf_flat -> conv7_2_mbox_conf_flat
I0917 17:29:48.831329 19620 net.cpp:150] Setting up conv7_2_mbox_conf_flat
I0917 17:29:48.831333 19620 net.cpp:157] Top shape: 16 360 (5760)
I0917 17:29:48.831336 19620 net.cpp:165] Memory required for data: 4436200032
I0917 17:29:48.831338 19620 layer_factory.hpp:77] Creating layer conv7_2_mbox_priorbox
I0917 17:29:48.831365 19620 net.cpp:100] Creating Layer conv7_2_mbox_priorbox
I0917 17:29:48.831369 19620 net.cpp:434] conv7_2_mbox_priorbox <- conv7_2_conv7_2_relu_0_split_3
I0917 17:29:48.831372 19620 net.cpp:434] conv7_2_mbox_priorbox <- data_data_0_split_4
I0917 17:29:48.831377 19620 net.cpp:408] conv7_2_mbox_priorbox -> conv7_2_mbox_priorbox
I0917 17:29:48.831414 19620 net.cpp:150] Setting up conv7_2_mbox_priorbox
I0917 17:29:48.831418 19620 net.cpp:157] Top shape: 1 2 720 (1440)
I0917 17:29:48.831420 19620 net.cpp:165] Memory required for data: 4436205792
I0917 17:29:48.831423 19620 layer_factory.hpp:77] Creating layer conv8_2_mbox_loc
I0917 17:29:48.831444 19620 net.cpp:100] Creating Layer conv8_2_mbox_loc
I0917 17:29:48.831447 19620 net.cpp:434] conv8_2_mbox_loc <- conv8_2_conv8_2_relu_0_split_1
I0917 17:29:48.831451 19620 net.cpp:408] conv8_2_mbox_loc -> conv8_2_mbox_loc
I0917 17:29:48.833151 19620 net.cpp:150] Setting up conv8_2_mbox_loc
I0917 17:29:48.833159 19620 net.cpp:157] Top shape: 16 16 3 4 (3072)
I0917 17:29:48.833163 19620 net.cpp:165] Memory required for data: 4436218080
I0917 17:29:48.833171 19620 layer_factory.hpp:77] Creating layer conv8_2_mbox_loc_perm
I0917 17:29:48.833176 19620 net.cpp:100] Creating Layer conv8_2_mbox_loc_perm
I0917 17:29:48.833180 19620 net.cpp:434] conv8_2_mbox_loc_perm <- conv8_2_mbox_loc
I0917 17:29:48.833186 19620 net.cpp:408] conv8_2_mbox_loc_perm -> conv8_2_mbox_loc_perm
I0917 17:29:48.833317 19620 net.cpp:150] Setting up conv8_2_mbox_loc_perm
I0917 17:29:48.833322 19620 net.cpp:157] Top shape: 16 3 4 16 (3072)
I0917 17:29:48.833324 19620 net.cpp:165] Memory required for data: 4436230368
I0917 17:29:48.833328 19620 layer_factory.hpp:77] Creating layer conv8_2_mbox_loc_flat
I0917 17:29:48.833331 19620 net.cpp:100] Creating Layer conv8_2_mbox_loc_flat
I0917 17:29:48.833334 19620 net.cpp:434] conv8_2_mbox_loc_flat <- conv8_2_mbox_loc_perm
I0917 17:29:48.833338 19620 net.cpp:408] conv8_2_mbox_loc_flat -> conv8_2_mbox_loc_flat
I0917 17:29:48.833374 19620 net.cpp:150] Setting up conv8_2_mbox_loc_flat
I0917 17:29:48.833377 19620 net.cpp:157] Top shape: 16 192 (3072)
I0917 17:29:48.833380 19620 net.cpp:165] Memory required for data: 4436242656
I0917 17:29:48.833384 19620 layer_factory.hpp:77] Creating layer conv8_2_mbox_conf
I0917 17:29:48.833389 19620 net.cpp:100] Creating Layer conv8_2_mbox_conf
I0917 17:29:48.833392 19620 net.cpp:434] conv8_2_mbox_conf <- conv8_2_conv8_2_relu_0_split_2
I0917 17:29:48.833410 19620 net.cpp:408] conv8_2_mbox_conf -> conv8_2_mbox_conf
I0917 17:29:48.836124 19620 net.cpp:150] Setting up conv8_2_mbox_conf
I0917 17:29:48.836133 19620 net.cpp:157] Top shape: 16 8 3 4 (1536)
I0917 17:29:48.836136 19620 net.cpp:165] Memory required for data: 4436248800
I0917 17:29:48.836140 19620 layer_factory.hpp:77] Creating layer conv8_2_mbox_conf_perm
I0917 17:29:48.836161 19620 net.cpp:100] Creating Layer conv8_2_mbox_conf_perm
I0917 17:29:48.836164 19620 net.cpp:434] conv8_2_mbox_conf_perm <- conv8_2_mbox_conf
I0917 17:29:48.836169 19620 net.cpp:408] conv8_2_mbox_conf_perm -> conv8_2_mbox_conf_perm
I0917 17:29:48.836284 19620 net.cpp:150] Setting up conv8_2_mbox_conf_perm
I0917 17:29:48.836288 19620 net.cpp:157] Top shape: 16 3 4 8 (1536)
I0917 17:29:48.836292 19620 net.cpp:165] Memory required for data: 4436254944
I0917 17:29:48.836293 19620 layer_factory.hpp:77] Creating layer conv8_2_mbox_conf_flat
I0917 17:29:48.836297 19620 net.cpp:100] Creating Layer conv8_2_mbox_conf_flat
I0917 17:29:48.836300 19620 net.cpp:434] conv8_2_mbox_conf_flat <- conv8_2_mbox_conf_perm
I0917 17:29:48.836303 19620 net.cpp:408] conv8_2_mbox_conf_flat -> conv8_2_mbox_conf_flat
I0917 17:29:48.836323 19620 net.cpp:150] Setting up conv8_2_mbox_conf_flat
I0917 17:29:48.836328 19620 net.cpp:157] Top shape: 16 96 (1536)
I0917 17:29:48.836330 19620 net.cpp:165] Memory required for data: 4436261088
I0917 17:29:48.836333 19620 layer_factory.hpp:77] Creating layer conv8_2_mbox_priorbox
I0917 17:29:48.836359 19620 net.cpp:100] Creating Layer conv8_2_mbox_priorbox
I0917 17:29:48.836362 19620 net.cpp:434] conv8_2_mbox_priorbox <- conv8_2_conv8_2_relu_0_split_3
I0917 17:29:48.836375 19620 net.cpp:434] conv8_2_mbox_priorbox <- data_data_0_split_5
I0917 17:29:48.836380 19620 net.cpp:408] conv8_2_mbox_priorbox -> conv8_2_mbox_priorbox
I0917 17:29:48.836403 19620 net.cpp:150] Setting up conv8_2_mbox_priorbox
I0917 17:29:48.836407 19620 net.cpp:157] Top shape: 1 2 192 (384)
I0917 17:29:48.836429 19620 net.cpp:165] Memory required for data: 4436262624
I0917 17:29:48.836431 19620 layer_factory.hpp:77] Creating layer conv9_2_mbox_loc
I0917 17:29:48.836455 19620 net.cpp:100] Creating Layer conv9_2_mbox_loc
I0917 17:29:48.836457 19620 net.cpp:434] conv9_2_mbox_loc <- conv9_2_conv9_2_relu_0_split_0
I0917 17:29:48.836462 19620 net.cpp:408] conv9_2_mbox_loc -> conv9_2_mbox_loc
I0917 17:29:48.838219 19620 net.cpp:150] Setting up conv9_2_mbox_loc
I0917 17:29:48.838227 19620 net.cpp:157] Top shape: 16 16 1 2 (512)
I0917 17:29:48.838230 19620 net.cpp:165] Memory required for data: 4436264672
I0917 17:29:48.838234 19620 layer_factory.hpp:77] Creating layer conv9_2_mbox_loc_perm
I0917 17:29:48.838240 19620 net.cpp:100] Creating Layer conv9_2_mbox_loc_perm
I0917 17:29:48.838243 19620 net.cpp:434] conv9_2_mbox_loc_perm <- conv9_2_mbox_loc
I0917 17:29:48.838246 19620 net.cpp:408] conv9_2_mbox_loc_perm -> conv9_2_mbox_loc_perm
I0917 17:29:48.838349 19620 net.cpp:150] Setting up conv9_2_mbox_loc_perm
I0917 17:29:48.838353 19620 net.cpp:157] Top shape: 16 1 2 16 (512)
I0917 17:29:48.838356 19620 net.cpp:165] Memory required for data: 4436266720
I0917 17:29:48.838358 19620 layer_factory.hpp:77] Creating layer conv9_2_mbox_loc_flat
I0917 17:29:48.838362 19620 net.cpp:100] Creating Layer conv9_2_mbox_loc_flat
I0917 17:29:48.838366 19620 net.cpp:434] conv9_2_mbox_loc_flat <- conv9_2_mbox_loc_perm
I0917 17:29:48.838368 19620 net.cpp:408] conv9_2_mbox_loc_flat -> conv9_2_mbox_loc_flat
I0917 17:29:48.838388 19620 net.cpp:150] Setting up conv9_2_mbox_loc_flat
I0917 17:29:48.838392 19620 net.cpp:157] Top shape: 16 32 (512)
I0917 17:29:48.838394 19620 net.cpp:165] Memory required for data: 4436268768
I0917 17:29:48.838397 19620 layer_factory.hpp:77] Creating layer conv9_2_mbox_conf
I0917 17:29:48.838402 19620 net.cpp:100] Creating Layer conv9_2_mbox_conf
I0917 17:29:48.838407 19620 net.cpp:434] conv9_2_mbox_conf <- conv9_2_conv9_2_relu_0_split_1
I0917 17:29:48.838410 19620 net.cpp:408] conv9_2_mbox_conf -> conv9_2_mbox_conf
I0917 17:29:48.840076 19620 net.cpp:150] Setting up conv9_2_mbox_conf
I0917 17:29:48.840083 19620 net.cpp:157] Top shape: 16 8 1 2 (256)
I0917 17:29:48.840087 19620 net.cpp:165] Memory required for data: 4436269792
I0917 17:29:48.840091 19620 layer_factory.hpp:77] Creating layer conv9_2_mbox_conf_perm
I0917 17:29:48.840096 19620 net.cpp:100] Creating Layer conv9_2_mbox_conf_perm
I0917 17:29:48.840099 19620 net.cpp:434] conv9_2_mbox_conf_perm <- conv9_2_mbox_conf
I0917 17:29:48.840102 19620 net.cpp:408] conv9_2_mbox_conf_perm -> conv9_2_mbox_conf_perm
I0917 17:29:48.840204 19620 net.cpp:150] Setting up conv9_2_mbox_conf_perm
I0917 17:29:48.840209 19620 net.cpp:157] Top shape: 16 1 2 8 (256)
I0917 17:29:48.840211 19620 net.cpp:165] Memory required for data: 4436270816
I0917 17:29:48.840214 19620 layer_factory.hpp:77] Creating layer conv9_2_mbox_conf_flat
I0917 17:29:48.840217 19620 net.cpp:100] Creating Layer conv9_2_mbox_conf_flat
I0917 17:29:48.840220 19620 net.cpp:434] conv9_2_mbox_conf_flat <- conv9_2_mbox_conf_perm
I0917 17:29:48.840224 19620 net.cpp:408] conv9_2_mbox_conf_flat -> conv9_2_mbox_conf_flat
I0917 17:29:48.840245 19620 net.cpp:150] Setting up conv9_2_mbox_conf_flat
I0917 17:29:48.840247 19620 net.cpp:157] Top shape: 16 16 (256)
I0917 17:29:48.840250 19620 net.cpp:165] Memory required for data: 4436271840
I0917 17:29:48.840252 19620 layer_factory.hpp:77] Creating layer conv9_2_mbox_priorbox
I0917 17:29:48.840257 19620 net.cpp:100] Creating Layer conv9_2_mbox_priorbox
I0917 17:29:48.840261 19620 net.cpp:434] conv9_2_mbox_priorbox <- conv9_2_conv9_2_relu_0_split_2
I0917 17:29:48.840263 19620 net.cpp:434] conv9_2_mbox_priorbox <- data_data_0_split_6
I0917 17:29:48.840276 19620 net.cpp:408] conv9_2_mbox_priorbox -> conv9_2_mbox_priorbox
I0917 17:29:48.840327 19620 net.cpp:150] Setting up conv9_2_mbox_priorbox
I0917 17:29:48.840330 19620 net.cpp:157] Top shape: 1 2 32 (64)
I0917 17:29:48.840333 19620 net.cpp:165] Memory required for data: 4436272096
I0917 17:29:48.840335 19620 layer_factory.hpp:77] Creating layer mbox_loc
I0917 17:29:48.840340 19620 net.cpp:100] Creating Layer mbox_loc
I0917 17:29:48.840343 19620 net.cpp:434] mbox_loc <- conv4_3_norm_mbox_loc_flat
I0917 17:29:48.840348 19620 net.cpp:434] mbox_loc <- fc7_mbox_loc_flat
I0917 17:29:48.840350 19620 net.cpp:434] mbox_loc <- conv6_2_mbox_loc_flat
I0917 17:29:48.840353 19620 net.cpp:434] mbox_loc <- conv7_2_mbox_loc_flat
I0917 17:29:48.840356 19620 net.cpp:434] mbox_loc <- conv8_2_mbox_loc_flat
I0917 17:29:48.840358 19620 net.cpp:434] mbox_loc <- conv9_2_mbox_loc_flat
I0917 17:29:48.840363 19620 net.cpp:408] mbox_loc -> mbox_loc
I0917 17:29:48.840405 19620 net.cpp:150] Setting up mbox_loc
I0917 17:29:48.840409 19620 net.cpp:157] Top shape: 16 38168 (610688)
I0917 17:29:48.840412 19620 net.cpp:165] Memory required for data: 4438714848
I0917 17:29:48.840427 19620 layer_factory.hpp:77] Creating layer mbox_conf
I0917 17:29:48.840432 19620 net.cpp:100] Creating Layer mbox_conf
I0917 17:29:48.840435 19620 net.cpp:434] mbox_conf <- conv4_3_norm_mbox_conf_flat
I0917 17:29:48.840461 19620 net.cpp:434] mbox_conf <- fc7_mbox_conf_flat
I0917 17:29:48.840464 19620 net.cpp:434] mbox_conf <- conv6_2_mbox_conf_flat
I0917 17:29:48.840467 19620 net.cpp:434] mbox_conf <- conv7_2_mbox_conf_flat
I0917 17:29:48.840469 19620 net.cpp:434] mbox_conf <- conv8_2_mbox_conf_flat
I0917 17:29:48.840472 19620 net.cpp:434] mbox_conf <- conv9_2_mbox_conf_flat
I0917 17:29:48.840476 19620 net.cpp:408] mbox_conf -> mbox_conf
I0917 17:29:48.840495 19620 net.cpp:150] Setting up mbox_conf
I0917 17:29:48.840499 19620 net.cpp:157] Top shape: 16 19084 (305344)
I0917 17:29:48.840520 19620 net.cpp:165] Memory required for data: 4439936224
I0917 17:29:48.840523 19620 layer_factory.hpp:77] Creating layer mbox_priorbox
I0917 17:29:48.840525 19620 net.cpp:100] Creating Layer mbox_priorbox
I0917 17:29:48.840528 19620 net.cpp:434] mbox_priorbox <- conv4_3_norm_mbox_priorbox
I0917 17:29:48.840531 19620 net.cpp:434] mbox_priorbox <- fc7_mbox_priorbox
I0917 17:29:48.840533 19620 net.cpp:434] mbox_priorbox <- conv6_2_mbox_priorbox
I0917 17:29:48.840536 19620 net.cpp:434] mbox_priorbox <- conv7_2_mbox_priorbox
I0917 17:29:48.840538 19620 net.cpp:434] mbox_priorbox <- conv8_2_mbox_priorbox
I0917 17:29:48.840541 19620 net.cpp:434] mbox_priorbox <- conv9_2_mbox_priorbox
I0917 17:29:48.840560 19620 net.cpp:408] mbox_priorbox -> mbox_priorbox
I0917 17:29:48.840581 19620 net.cpp:150] Setting up mbox_priorbox
I0917 17:29:48.840585 19620 net.cpp:157] Top shape: 1 2 38168 (76336)
I0917 17:29:48.840589 19620 net.cpp:165] Memory required for data: 4440241568
I0917 17:29:48.840590 19620 layer_factory.hpp:77] Creating layer mbox_loss
I0917 17:29:48.840597 19620 net.cpp:100] Creating Layer mbox_loss
I0917 17:29:48.840600 19620 net.cpp:434] mbox_loss <- mbox_loc
I0917 17:29:48.840603 19620 net.cpp:434] mbox_loss <- mbox_conf
I0917 17:29:48.840605 19620 net.cpp:434] mbox_loss <- mbox_priorbox
…
  top: "data"
  top: "label"
  include {
    phase: TEST
  }
  transform_param {
    mean_value: 104
    mean_value: 117
    mean_value: 123
    resize_param {
      prob: 1
      resize_mode: WARP
      height: 288
      width: 352
      interp_mode: LINEAR
    }
  }
  data_param {
    source: "/home/ly/caffe-weiliu/caffe/examples/car352x288_split_KITTI/car352x288_split_KITTI_test_lmdb"
    batch_size: 4
    backend: LMDB
  }
  annotated_data_param {
    batch_sampler {
    }
    label_map_file: "data/car352x288_split_KITTI/labelmap_voc.prototxt"
  }
}
layer {
  name: "conv1_1"
  type: "Convolution"
  bottom: "data"
  top: "conv1_1"
  param {
    lr_mult: 1
    decay_mult: 1
  }
  param {
    lr_mult: 2
    decay_mult: 0
  }
  convolution_param {
    num_output: 64
    pad: 1
    kernel_size: 3
    weight_filler {
      type: "xavier"
    }
    bias_filler {
      type: "constant"
      value: 0
    }
  }
}
layer {
  name: "relu1_1"
  type: "ReLU"
  bottom: "conv1_1"
  top: "conv1_1"
}
layer {
  name: "conv1_2"
  type: "Convolution"
  bottom: "conv1_1"
  top: "conv1_2"
  param {
    lr_mult: 1
    decay_mult: 1
  }
  param {
    lr_mult: 2
    decay_mult: 0
  }
  convolution_param {
    num_output: 64
    pad: 1
    kernel_size: 3
    weight_filler {
      type: "xavier"
    }
    bias_filler {
      type: "constant"
      value: 0
    }
  }
}
layer {
  name: "relu1_2"
  type: "ReLU"
  bottom: "conv1_2"
  top: "conv1_2"
}
layer {
  name: "pool1"
  type: "Pooling"
  bottom: "conv1_2"
  top: "pool1"
  pooling_param {
    pool: MAX
    kernel_size: 2
    stride: 2
  }
}
layer {
  name: "conv2_1"
  type: "Convolution"
  bottom: "pool1"
  top: "conv2_1"
  param {
    lr_mult: 1
    decay_mult: 1
  }
  param {
    lr_mult: 2
    decay_mult: 0
  }
  convolution_param {
    num_output: 128
    pad: 1
    kernel_size: 3
    weight_filler {
      type: "xavier"
    }
    bias_filler {
      type: "constant"
      value: 0
    }
  }
}
layer {
  name: "relu2_1"
  type: "ReLU"
  bottom: "conv2_1"
  top: "conv2_1"
}
layer {
  name: "conv2_2"
  type: "Convolution"
  bottom: "conv2_1"
  top: "conv2_2"
  param {
    lr_mult: 1
    decay_mult: 1
  }
  param {
    lr_mult: 2
    decay_mult: 0
  }
  convolution_param {
    num_output: 128
    pad: 1
    kernel_size: 3
    weight_filler {
      type: "xavier"
    }
    bias_filler {
      type: "constant"
      value: 0
    }
  }
}
layer {
  name: "relu2_2"
  type: "ReLU"
  bottom: "conv2_2"
  top: "conv2_2"
}
layer {
  name: "pool2"
  type: "Pooling"
  bottom: "conv2_2"
  top: "pool2"
  pooling_param {
    pool: MAX
    kernel_size: 2
    stride: 2
  }
}
layer {
  name: "conv3_1"
  type: "Convolution"
  bottom: "pool2"
  top: "conv3_1"
  param {
    lr_mult: 1
    decay_mult: 1
  }
  param {
    lr_mult: 2
    decay_mult: 0
  }
  convolution_param {
    num_output: 256
    pad: 1
    kernel_size: 3
    weight_filler {
      type: "xavier"
    }
    bias_filler {
      type: "constant"
      value: 0
    }
  }
}
layer {
  name: "relu3_1"
  type: "ReLU"
  bottom: "conv3_1"
  top: "conv3_1"
}
layer {
  name: "conv3_2"
  type: "Convolution"
  bottom: "conv3_1"
  top: "conv3_2"
  param {
    lr_mult: 1
    decay_mult: 1
  }
  param {
    lr_mult: 2
    decay_mult: 0
  }
  convolution_param {
    num_output: 256
    pad: 1
    kernel_size: 3
    weight_filler {
      type: "xavier"
    }
    bias_filler {
      type: "constant"
      value: 0
    }
  }
}
layer {
  name: "relu3_2"
  type: "ReLU"
  bottom: "conv3_2"
  top: "conv3_2"
}
layer {
  name: "conv3_3"
  type: "Convolution"
  bottom: "conv3_2"
  top: "conv3_3"
  param {
    lr_mult: 1
    decay_mult: 1
  }
  param {
    lr_mult: 2
    decay_mult: 0
  }
  convolution_param {
    num_output: 256
    pad: 1
    kernel_size: 3
    weight_filler {
      type: "xavier"
    }
    bias_filler {
      type: "constant"
      value: 0
    }
  }
}
layer {
  name: "relu3_3"
  type: "ReLU"
  bottom: "conv3_3"
  top: "conv3_3"
}
layer {
  name: "pool3"
  type: "Pooling"
  bottom: "conv3_3"
  top: "pool3"
  pooling_param {
    pool: MAX
    kernel_size: 2
    stride: 2
  }
}
layer {
  name: "conv4_1"
  type: "Convolution"
  bottom: "pool3"
  top: "conv4_1"
  param {
    lr_mult: 1
    decay_mult: 1
  }
  param {
    lr_mult: 2
    decay_mult: 0
  }
  convolution_param {
    num_output: 512
    pad: 1
    kernel_size: 3
    weight_filler {
      type: "xavier"
    }
    bias_filler {
      type: "constant"
      value: 0
    }
  }
}
layer {
  name: "relu4_1"
  type: "ReLU"
  bottom: "conv4_1"
  top: "conv4_1"
}
layer {
  name: "conv4_2"
  type: "Convolution"
  bottom: "conv4_1"
  top: "conv4_2"
  param {
    lr_mult: 1
    decay_mult: 1
  }
  param {
    lr_mult: 2
    decay_mult: 0
  }
  convolution_param {
    num_output: 512
    pad: 1
    kernel_size: 3
    weight_filler {
      type: "xavier"
    }
    bias_filler {
      type: "constant"
      value: 0
    }
  }
}
layer {
  name: "relu4_2"
  type: "ReLU"
  bottom: "conv4_2"
  top: "conv4_2"
}
layer {
  name: "conv4_3"
  type: "Convolution"
  bottom: "conv4_2"
  top: "conv4_3"
  param {
    lr_mult: 1
    decay_mult: 1
  }
  param {
    lr_mult: 2
    decay_mult: 0
  }
  convolution_param {
    num_output: 512
    pad: 1
    kernel_size: 3
    weight_filler {
      type: "xavier"
    }
    bias_filler {
      type: "constant"
      value: 0
    }
  }
}
layer {
  name: "relu4_3"
  type: "ReLU"
  bottom: "conv4_3"
  top: "conv4_3"
}
layer {
  name: "pool4"
  type: "Pooling"
  bottom: "conv4_3"
  top: "pool4"
  pooling_param {
    pool: MAX
    kernel_size: 2
    stride: 2
  }
}
layer {
  name: "conv5_1"
  type: "Convolution"
  bottom: "pool4"
  top: "conv5_1"
  param {
    lr_mult: 1
    decay_mult: 1
  }
  param {
    lr_mult: 2
    decay_mult: 0
  }
  convolution_param {
    num_output: 512
    pad: 1
    kernel_size: 3
    weight_filler {
      type: "xavier"
    }
    bias_filler {
      type: "constant"
      value: 0
    }
    dilation: 1
  }
}
layer {
  name: "relu5_1"
  type: "ReLU"
  bottom: "conv5_1"
  top: "conv5_1"
}
layer {
  name: "conv5_2"
  type: "Convolution"
  bottom: "conv5_1"
  top: "conv5_2"
  param {
    lr_mult: 1
    decay_mult: 1
  }
  param {
    lr_mult: 2
    decay_mult: 0
  }
  convolution_param {
    num_output: 512
    pad: 1
    kernel_size: 3
    weight_filler {
      type: "xavier"
    }
    bias_filler {
      type: "constant"
      value: 0
    }
    dilation: 1
  }
}
layer {
  name: "relu5_2"
  type: "ReLU"
  bottom: "conv5_2"
  top: "conv5_2"
}
layer {
  name: "conv5_3"
  type: "Convolution"
  bottom: "conv5_2"
  top: "conv5_3"
  param {
    lr_mult: 1
    decay_mult: 1
  }
  param {
    lr_mult: 2
    decay_mult: 0
  }
  convolution_param {
    num_output: 512
    pad: 1
    kernel_size: 3
    weight_filler {
      type: "xavier"
    }
    bias_filler {
      type: "constant"
      value: 0
    }
    dilation: 1
  }
}
layer {
  name: "relu5_3"
  type: "ReLU"
  bottom: "conv5_3"
  top: "conv5_3"
}
layer {
  name: "pool5"
  type: "Pooling"
  bottom: "conv5_3"
  top: "pool5"
  pooling_param {
    pool: MAX
    kernel_size: 3
    stride: 1
    pad: 1
  }
}
layer {
  name: "fc6"
  type: "Convolution"
  bottom: "pool5"
  top: "fc6"
  param {
    lr_mult: 1
    decay_mult: 1
  }
  param {
    lr_mult: 2
    decay_mult: 0
  }
  convolution_param {
    num_output: 1024
    pad: 1
    kernel_size: 3
    weight_filler {
      type: "xavier"
    }
    bias_filler {
      type: "constant"
      value: 0
    }
    dilation: 1
  }
}
layer {
  name: "relu6"
  type: "ReLU"
  bottom: "fc6"
  top: "fc6"
}
layer {
  name: "fc7"
  type: "Convolution"
  bottom: "fc6"
  top: "fc7"
  param {
    lr_mult: 1
    decay_mult: 1
  }
  param {
    lr_mult: 2
    decay_mult: 0
  }
  convolution_param {
    num_output: 1024
    kernel_size: 1
    weight_filler {
      type: "xavier"
    }
    bias_filler {
      type: "constant"
      value: 0
    }
  }
}
layer {
  name: "relu7"
  type: "ReLU"
  bottom: "fc7"
  top: "fc7"
}
layer {
  name: "conv6_1"
  type: "Convolution"
  bottom: "fc7"
  top: "conv6_1"
  param {
    lr_mult: 1
    decay_mult: 1
  }
  param {
    lr_mult: 2
    decay_mult: 0
  }
  convolution_param {
    num_output: 256
    pad: 0
    kernel_size: 1
    stride: 1
    weight_filler {
      type: "xavier"
    }
    bias_filler {
      type: "constant"
      value: 0
    }
  }
}
layer {
  name: "conv6_1_relu"
  type: "ReLU"
  bottom: "conv6_1"
  top: "conv6_1"
}
layer {
  name: "conv6_2"
  type: "Convolution"
  bottom: "conv6_1"
  top: "conv6_2"
  param {
    lr_mult: 1
    decay_mult: 1
  }
  param {
    lr_mult: 2
    decay_mult: 0
  }
  convolution_param {
    num_output: 512
    pad: 1
    kernel_size: 3
    stride: 2
    weight_filler {
      type: "xavier"
    }
    bias_filler {
      type: "constant"
      value: 0
    }
  }
}
layer {
  name: "conv6_2_relu"
  type: "ReLU"
  bottom: "conv6_2"
  top: "conv6_2"
}
layer {
  name: "conv7_1"
  type: "Convolution"
  bottom: "conv6_2"
  top: "conv7_1"
  param {
    lr_mult: 1
    decay_mult: 1
  }
  param {
    lr_mult: 2
    decay_mult: 0
  }
  convolution_param {
    num_output: 128
    pad: 0
    kernel_size: 1
    stride: 1
    weight_filler {
      type: "xavier"
    }
    bias_filler {
      type: "constant"
      value: 0
    }
  }
}
layer {
  name: "conv7_1_relu"
  type: "ReLU"
  bottom: "conv7_1"
  top: "conv7_1"
}
layer {
  name: "conv7_2"
  type: "Convolution"
  bottom: "conv7_1"
  top: "conv7_2"
  param {
    lr_mult: 1
    decay_mult: 1
  }
  param {
    lr_mult: 2
    decay_mult: 0
  }
  convolution_param {
    num_output: 256
    pad: 1
    kernel_size: 3
    stride: 2
    weight_filler {
      type: "xavier"
    }
    bias_filler {
      type: "constant"
      value: 0
    }
  }
}
layer {
  name: "conv7_2_relu"
  type: "ReLU"
  bottom: "conv7_2"
  top: "conv7_2"
}
layer {
  name: "conv8_1"
  type: "Convolution"
  bottom: "conv7_2"
  top: "conv8_1"
  param {
    lr_mult: 1
    decay_mult: 1
  }
  param {
    lr_mult: 2
    decay_mult: 0
  }
  convolution_param {
    num_output: 128
    pad: 0
    kernel_size: 1
    stride: 1
    weight_filler {
      type: "xavier"
    }
    bias_filler {
      type: "constant"
      value: 0
    }
  }
}
layer {
  name: "conv8_1_relu"
  type: "ReLU"
  bottom: "conv8_1"
  top: "conv8_1"
}
layer {
  name: "conv8_2"
  type: "Convolution"
  bottom: "conv8_1"
  top: "conv8_2"
  param {
    lr_mult: 1
    decay_mult: 1
  }
  param {
    lr_mult: 2
    decay_mult: 0
  }
  convolution_param {
    num_output: 256
    pad: 0
    kernel_size: 3
    stride: 1
    weight_filler {
      type: "xavier"
    }
    bias_filler {
      type: "constant"
      value: 0
    }
  }
}
layer {
  name: "conv8_2_relu"
  type: "ReLU"
  bottom: "conv8_2"
  top: "conv8_2"
}
layer {
  name: "conv9_1"
  type: "Convolution"
  bottom: "conv8_2"
  top: "conv9_1"
  param {
    lr_mult: 1
    decay_mult: 1
  }
  param {
    lr_mult: 2
    decay_mult: 0
  }
  convolution_param {
    num_output: 128
    pad: 0
    kernel_size: 1
    stride: 1
    weight_filler {
      type: "xavier"
    }
    bias_filler {
      type: "constant"
      value: 0
    }
  }
}
layer {
  name: "conv9_1_relu"
  type: "ReLU"
  bottom: "conv9_1"
  top: "conv9_1"
}
layer {
  name: "conv9_2"
  type: "Convolution"
  bottom: "conv9_1"
  top: "conv9_2"
  param {
    lr_mult: 1
    decay_mult: 1
  }
  param {
    lr_mult: 2
    decay_mult: 0
  }
  convolution_param {
    num_output: 256
    pad: 0
    kernel_size: 3
    stride: 1
    weight_filler {
      type: "xavier"
    }
    bias_filler {
      type: "constant"
      value: 0
    }
  }
}
layer {
  name: "conv9_2_relu"
  type: "ReLU"
  bottom: "conv9_2"
  top: "conv9_2"
}
layer {
  name: "conv4_3_norm"
  type: "Normalize"
  bottom: "conv4_3"
  top: "conv4_3_norm"
  norm_param {
    across_spatial: false
    scale_filler {
      type: "constant"
      value: 20
    }
    channel_shared: false
  }
}
layer {
  name: "conv4_3_norm_mbox_loc"
  type: "Convolution"
  bottom: "conv4_3_norm"
  top: "conv4_3_norm_mbox_loc"
  param {
    lr_mult: 1
    decay_mult: 1
  }
  param {
    lr_mult: 2
    decay_mult: 0
  }
  convolution_param {
    num_output: 16
    pad: 1
    kernel_size: 3
    stride: 1
    weight_filler {
      type: "xavier"
    }
    bias_filler {
      type: "constant"
      value: 0
    }
  }
}
layer {
  name: "conv4_3_norm_mbox_loc_perm"
  type: "Permute"
  bottom: "conv4_3_norm_mbox_loc"
  top: "conv4_3_norm_mbox_loc_perm"
  permute_param {
    order: 0
    order: 2
    order: 3
    order: 1
  }
}
layer {
  name: "conv4_3_norm_mbox_loc_flat"
  type: "Flatten"
  bottom: "conv4_3_norm_mbox_loc_perm"
  top: "conv4_3_norm_mbox_loc_flat"
  flatten_param {
    axis: 1
  }
}
layer {
  name: "conv4_3_norm_mbox_conf"
  type: "Convolution"
  bottom: "conv4_3_norm"
  top: "conv4_3_norm_mbox_conf"
  param {
    lr_mult: 1
    decay_mult: 1
  }
  param {
    lr_mult: 2
    decay_mult: 0
  }
  convolution_param {
    num_output: 8
    pad: 1
    kernel_size: 3
    stride: 1
    weight_filler {
      type: "xavier"
    }
    bias_filler {
      type: "constant"
      value: 0
    }
  }
}
layer {
  name: "conv4_3_norm_mbox_conf_perm"
  type: "Permute"
  bottom: "conv4_3_norm_mbox_conf"
  top: "conv4_3_norm_mbox_conf_perm"
  permute_param {
    order: 0
    order: 2
    order: 3
    order: 1
  }
}
layer {
  name: "conv4_3_norm_mbox_conf_flat"
  type: "Flatten"
  bottom: "conv4_3_norm_mbox_conf_perm"
  top: "conv4_3_norm_mbox_conf_flat"
  flatten_param {
    axis: 1
  }
}
layer {
  name: "conv4_3_norm_mbox_priorbox"
  type: "PriorBox"
  bottom: "conv4_3_norm"
  bottom: "data"
  top: "conv4_3_norm_mbox_priorbox"
  prior_box_param {
    min_size: 30
    max_size: 60
    aspect_ratio: 2
    flip: true
    clip: false
    variance: 0.1
    variance: 0.1
    variance: 0.2
    variance: 0.2
    step: 8
    offset: 0.5
  }
}
layer {
  name: "fc7_mbox_loc"
  type: "Convolution"
  bottom: "fc7"
  top: "fc7_mbox_loc"
  param {
    lr_mult: 1
    decay_mult: 1
  }
  param {
    lr_mult: 2
    decay_mult: 0
  }
  convolution_param {
    num_output: 24
    pad: 1
    kernel_size: 3
    stride: 1
    weight_filler {
      type: "xavier"
    }
    bias_filler {
      type: "constant"
      value: 0
    }
  }
}
layer {
  name: "fc7_mbox_loc_perm"
  type: "Permute"
  bottom: "fc7_mbox_loc"
  top: "fc7_mbox_loc_perm"
  permute_param {
    order: 0
    order: 2
    order: 3
    order: 1
  }
}
layer {
  name: "fc7_mbox_loc_flat"
  type: "Flatten"
  bottom: "fc7_mbox_loc_perm"
  top: "fc7_mbox_loc_flat"
  flatten_param {
    axis: 1
  }
}
layer {
  name: "fc7_mbox_conf"
  type: "Convolution"
  bottom: "fc7"
  top: "fc7_mbox_conf"
  param {
    lr_mult: 1
    decay_mult: 1
  }
  param {
    lr_mult: 2
    decay_mult: 0
  }
  convolution_param {
    num_output: 12
    pad: 1
    kernel_size: 3
    stride: 1
    weight_filler {
      type: "xavier"
    }
    bias_filler {
      type: "constant"
      value: 0
    }
  }
}
layer {
  name: "fc7_mbox_conf_perm"
  type: "Permute"
  bottom: "fc7_mbox_conf"
  top: "fc7_mbox_conf_perm"
  permute_param {
    order: 0
    order: 2
    order: 3
    order: 1
  }
}
layer {
  name: "fc7_mbox_conf_flat"
  type: "Flatten"
  bottom: "fc7_mbox_conf_perm"
  top: "fc7_mbox_conf_flat"
  flatten_param {
    axis: 1
  }
}
layer {
  name: "fc7_mbox_priorbox"
  type: "PriorBox"
  bottom: "fc7"
  bottom: "data"
  top: "fc7_mbox_priorbox"
  prior_box_param {
    min_size: 60
    max_size: 111
    aspect_ratio: 2
    aspect_ratio: 3
    flip: true
    clip: false
    variance: 0.1
    variance: 0.1
    variance: 0.2
    variance: 0.2
    step: 16
    offset: 0.5
  }
}
layer {
  name: "conv6_2_mbox_loc"
  type: "Convolution"
  bottom: "conv6_2"
  top: "conv6_2_mbox_loc"
  param {
    lr_mult: 1
    decay_mult: 1
  }
  param {
    lr_mult: 2
    decay_mult: 0
  }
  convolution_param {
    num_output: 24
    pad: 1
    kernel_size: 3
    stride: 1
    weight_filler {
      type: "xavier"
    }
    bias_filler {
      type: "constant"
      value: 0
    }
  }
}
layer {
  name: "conv6_2_mbox_loc_perm"
  type: "Permute"
  bottom: "conv6_2_mbox_loc"
  top: "conv6_2_mbox_loc_perm"
  permute_param {
    order: 0
    order: 2
    order: 3
    order: 1
  }
}
layer {
  name: "conv6_2_mbox_loc_flat"
  type: "Flatten"
  bottom: "conv6_2_mbox_loc_perm"
  top: "conv6_2_mbox_loc_flat"
  flatten_param {
    axis: 1
  }
}
layer {
  name: "conv6_2_mbox_conf"
  type: "Convolution"
  bottom: "conv6_2"
  top: "conv6_2_mbox_conf"
  param {
    lr_mult: 1
    decay_mult: 1
  }
  param {
    lr_mult: 2
    decay_mult: 0
  }
  convolution_param {
    num_output: 12
    pad: 1
    kernel_size: 3
    stride: 1
    weight_filler {
      type: "xavier"
    }
    bias_filler {
      type: "constant"
      value: 0
    }
  }
}
layer {
  name: "conv6_2_mbox_conf_perm"
  type: "Permute"
  bottom: "conv6_2_mbox_conf"
  top: "conv6_2_mbox_conf_perm"
  permute_param {
    order: 0
    order: 2
    order: 3
    order: 1
  }
}
layer {
  name: "conv6_2_mbox_conf_flat"
  type: "Flatten"
  bottom: "conv6_2_mbox_conf_perm"
  top: "conv6_2_mbox_conf_flat"
  flatten_param {
    axis: 1
  }
}
layer {
  name: "conv6_2_mbox_priorbox"
  type: "PriorBox"
  bottom: "conv6_2"
  bottom: "data"
  top: "conv6_2_mbox_priorbox"
  prior_box_param {
    min_size: 111
    max_size: 162
    aspect_ratio: 2
    aspect_ratio: 3
    flip: true
    clip: false
    variance: 0.1
    variance: 0.1
    variance: 0.2
    variance: 0.2
    step: 32
    offset: 0.5
  }
}
layer {
  name: "conv7_2_mbox_loc"
  type: "Convolution"
  bottom: "conv7_2"
  top: "conv7_2_mbox_loc"
  param {
    lr_mult: 1
    decay_mult: 1
  }
  param {
    lr_mult: 2
    decay_mult: 0
  }
  convolution_param {
    num_output: 24
    pad: 1
    kernel_size: 3
    stride: 1
    weight_filler {
      type: "xavier"
    }
    bias_filler {
      type: "constant"
      value: 0
    }
  }
}
layer {
  name: "conv7_2_mbox_loc_perm"
  type: "Permute"
  bottom: "conv7_2_mbox_loc"
  top: "conv7_2_mbox_loc_perm"
  permute_param {
    order: 0
    order: 2
    order: 3
    order: 1
  }
}
layer {
  name: "conv7_2_mbox_loc_flat"
  type: "Flatten"
  bottom: "conv7_2_mbox_loc_perm"
  top: "conv7_2_mbox_loc_flat"
  flatten_param {
    axis: 1
  }
}
layer {
  name: "conv7_2_mbox_conf"
  type: "Convolution"
  bottom: "conv7_2"
  top: "conv7_2_mbox_conf"
  param {
    lr_mult: 1
    decay_mult: 1
  }
  param {
    lr_mult: 2
    decay_mult: 0
  }
  convolution_param {
    num_output: 12
    pad: 1
    kernel_size: 3
    stride: 1
    weight_filler {
      type: "xavier"
    }
    bias_filler {
      type: "constant"
      value: 0
    }
  }
}
layer {
  name: "conv7_2_mbox_conf_perm"
  type: "Permute"
  bottom: "conv7_2_mbox_conf"
  top: "conv7_2_mbox_conf_perm"
  permute_param {
    order: 0
    order: 2
    order: 3
    order: 1
  }
}
layer {
  name: "conv7_2_mbox_conf_flat"
  type: "Flatten"
  bottom: "conv7_2_mbox_conf_perm"
  top: "conv7_2_mbox_conf_flat"
  flatten_param {
    axis: 1
  }
}
layer {
  name: "conv7_2_mbox_priorbox"
  type: "PriorBox"
  bottom: "conv7_2"
  bottom: "data"
  top: "conv7_2_mbox_priorbox"
  prior_box_param {
    min_size: 162
    max_size: 213
    aspect_ratio: 2
    aspect_ratio: 3
    flip: true
    clip: false
    variance: 0.1
    variance: 0.1
    variance: 0.2
    variance: 0.2
    step: 64
    offset: 0.5
  }
}
layer {
  name: "conv8_2_mbox_loc"
  type: "Convolution"
  bottom: "conv8_2"
  top: "conv8_2_mbox_loc"
  param {
    lr_mult: 1
    decay_mult: 1
  }
  param {
    lr_mult: 2
    decay_mult: 0
  }
  convolution_param {
    num_output: 16
    pad: 1
    kernel_size: 3
    stride: 1
    weight_filler {
      type: "xavier"
    }
    bias_filler {
      type: "constant"
      value: 0
    }
  }
}
layer {
  name: "conv8_2_mbox_loc_perm"
  type: "Permute"
  bottom: "conv8_2_mbox_loc"
  top: "conv8_2_mbox_loc_perm"
  permute_param {
    order: 0
    order: 2
    order: 3
    order: 1
  }
}
layer {
  name: "conv8_2_mbox_loc_flat"
  type: "Flatten"
  bottom: "conv8_2_mbox_loc_perm"
  top: "conv8_2_mbox_loc_flat"
  flatten_param {
    axis: 1
  }
}
layer {
  name: "conv8_2_mbox_conf"
  type: "Convolution"
  bottom: "conv8_2"
  top: "conv8_2_mbox_conf"
  param {
    lr_mult: 1
    decay_mult: 1
  }
  param {
    lr_mult: 2
    decay_mult: 0
  }
  convolution_param {
    num_output: 8
    pad: 1
    kernel_size: 3
    stride: 1
    weight_filler {
      type: "xavier"
    }
    bias_filler {
      type: "constant"
      value: 0
    }
  }
}
layer {
  name: "conv8_2_mbox_conf_perm"
  type: "Permute"
  bottom: "conv8_2_mbox_conf"
  top: "conv8_2_mbox_conf_perm"
  permute_param {
    order: 0
    order: 2
    order: 3
    order: 1
  }
}
layer {
  name: "conv8_2_mbox_conf_flat"
  type: "Flatten"
  bottom: "conv8_2_mbox_conf_perm"
  top: "conv8_2_mbox_conf_flat"
  flatten_param {
    axis: 1
  }
}
layer {
  name: "conv8_2_mbox_priorbox"
  type: "PriorBox"
  bottom: "conv8_2"
  bottom: "data"
  top: "conv8_2_mbox_priorbox"
  prior_box_param {
    min_size: 213
    max_size: 264
    aspect_ratio: 2
    flip: true
    clip: false
    variance: 0.1
    variance: 0.1
    variance: 0.2
    variance: 0.2
    step: 100
    offset: 0.5
  }
}
layer {
  name: "conv9_2_mbox_loc"
  type: "Convolution"
  bottom: "conv9_2"
  top: "conv9_2_mbox_loc"
  param {
    lr_mult: 1
    decay_mult: 1
  }
  param {
    lr_mult: 2
    decay_mult: 0
  }
  convolution_param {
    num_output: 16
    pad: 1
    kernel_size: 3
    stride: 1
    weight_filler {
      type: "xavier"
    }
    bias_filler {
      type: "constant"
      value: 0
    }
  }
}
layer {
  name: "conv9_2_mbox_loc_perm"
  type: "Permute"
  bottom: "conv9_2_mbox_loc"
  top: "conv9_2_mbox_loc_perm"
  permute_param {
    order: 0
    order: 2
    order: 3
    order: 1
  }
}
layer {
  name: "conv9_2_mbox_loc_flat"
  type: "Flatten"
  bottom: "conv9_2_mbox_loc_perm"
  top: "conv9_2_mbox_loc_flat"
  flatten_param {
    axis: 1
  }
}
layer {
  name: "conv9_2_mbox_conf"
  type: "Convolution"
  bottom: "conv9_2"
  top: "conv9_2_mbox_conf"
  param {
    lr_mult: 1
    decay_mult: 1
  }
  param {
    lr_mult: 2
    decay_mult: 0
  }
  convolution_param {
    num_output: 8
    pad: 1
    kernel_size: 3
    stride: 1
    weight_filler {
      type: "xavier"
    }
    bias_filler {
      type: "constant"
      value: 0
    }
  }
}
layer {
  name: "conv9_2_mbox_conf_perm"
  type: "Permute"
  bottom: "conv9_2_mbox_conf"
  top: "conv9_2_mbox_conf_perm"
  permute_param {
    order: 0
    order: 2
    order: 3
    order: 1
  }
}
layer {
  name: "conv9_2_mbox_conf_flat"
  type: "Flatten"
  bottom: "conv9_2_mbox_conf_perm"
  top: "conv9_2_mbox_conf_flat"
  flatten_param {
    axis: 1
  }
}
layer {
  name: "conv9_2_mbox_priorbox"
  type: "PriorBox"
  bottom: "conv9_2"
  bottom: "data"
  top: "conv9_2_mbox_priorbox"
  prior_box_param {
    min_size: 264
    max_size: 315
    aspect_ratio: 2
    flip: true
    clip: false
    variance: 0.1
    variance: 0.1
    variance: 0.2
    variance: 0.2
    step: 300
    offset: 0.5
  }
}
layer {
  name: "mbox_loc"
  type: "Concat"
  bottom: "conv4_3_norm_mbox_loc_flat"
  bottom: "fc7_mbox_loc_flat"
  bottom: "conv6_2_mbox_loc_flat"
  bottom: "conv7_2_mbox_loc_flat"
  bottom: "conv8_2_mbox_loc_flat"
  bottom: "conv9_2_mbox_loc_flat"
  top: "mbox_loc"
  concat_param {
    axis: 1
  }
}
layer {
  name: "mbox_conf"
  type: "Concat"
  bottom: "conv4_3_norm_mbox_conf_flat"
  bottom: "fc7_mbox_conf_flat"
  bottom: "conv6_2_mbox_conf_flat"
  bottom: "conv7_2_mbox_conf_flat"
  bottom: "conv8_2_mbox_conf_flat"
  bottom: "conv9_2_mbox_conf_flat"
  top: "mbox_conf"
  concat_param {
    axis: 1
  }
}
layer {
  name: "mbox_priorbox"
  type: "Concat"
  bottom: "conv4_3_norm_mbox_priorbox"
  bottom: "fc7_mbox_priorbox"
  bottom: "conv6_2_mbox_priorbox"
  bottom: "conv7_2_mbox_priorbox"
  bottom: "conv8_2_mbox_priorbox"
  bottom: "conv9_2_mbox_priorbox"
  top: "mbox_priorbox"
  concat_param {
    axis: 2
  }
}
layer {
  name: "mbox_conf_reshape"
  type: "Reshape"
  bottom: "mbox_conf"
  top: "mbox_conf_reshape"
  reshape_param {
    shape {
      dim: 0
      dim: -1
      dim: 2
    }
  }
}
layer {
  name: "mbox_conf_softmax"
  type: "Softmax"
  bottom: "mbox_conf_reshape"
  top: "mbox_conf_softmax"
  softmax_param {
    axis: 2
  }
}
layer {
  name: "mbox_conf_flatten"
  type: "Flatten"
  bottom: "mbox_conf_softmax"
  top: "mbox_conf_flatten"
  flatten_param {
    axis: 1
  }
}
layer {
  name: "detection_out"
  type: "DetectionOutput"
  bottom: "mbox_loc"
  bottom: "mbox_conf_flatten"
  bottom: "mbox_priorbox"
  top: "detection_out"
  include {
    phase: TEST
  }
  detection_output_param {
    num_classes: 2
    share_location: true
    background_label_id: 0
    nms_param {
      nms_threshold: 0.45
      top_k: 400
    }
    save_output_param {
      output_directory: "/home/ly/data/VOCdevkit/results/car352x288_split_KITTI/SSD_352x288/Main"
      output_name_prefix: "comp4_det_test_"
      output_format: "VOC"
      label_map_file: "data/car352x288_split_KITTI/labelmap_voc.prototxt"
      name_size_file: "data/car352x288_split_KITTI/test_name_size.txt"
      num_test_image: 2563
    }
    code_type: CENTER_SIZE
    keep_top_k: 200
    confidence_threshold: 0.01
  }
}
layer {
  name: "detection_eval"
  type: "DetectionEvaluate"
  bottom: "detection_out"
  bottom: "label"
  top: "detection_eval"
  include {
    phase: TEST
  }
  detection_evaluate_param {
    num_classes: 2
    background_label_id: 0
    overlap_threshold: 0.5
    evaluate_difficult_gt: false
    name_size_file: "data/car352x288_split_KITTI/test_name_size.txt"
  }
}
I0917 17:29:48.842826 19620 layer_factory.hpp:77] Creating layer data
I0917 17:29:48.842870 19620 net.cpp:100] Creating Layer data
I0917 17:29:48.842876 19620 net.cpp:408] data -> data
I0917 17:29:48.842883 19620 net.cpp:408] data -> label
I0917 17:29:48.843765 19654 db_lmdb.cpp:35] Opened lmdb /home/ly/caffe-weiliu/caffe/examples/car352x288_split_KITTI/car352x288_split_KITTI_test_lmdb
I0917 17:29:48.844882 19620 annotated_data_layer.cpp:62] output data size: 4,3,288,352
I0917 17:29:48.850327 19620 net.cpp:150] Setting up data
I0917 17:29:48.850342 19620 net.cpp:157] Top shape: 4 3 288 352 (1216512)
I0917 17:29:48.850373 19620 net.cpp:157] Top shape: 1 1 1 8 (8)
I0917 17:29:48.850375 19620 net.cpp:165] Memory required for data: 4866080
I0917 17:29:48.850379 19620 layer_factory.hpp:77] Creating layer data_data_0_split
I0917 17:29:48.850389 19620 net.cpp:100] Creating Layer data_data_0_split
I0917 17:29:48.850391 19620 net.cpp:434] data_data_0_split <- data
I0917 17:29:48.850399 19620 net.cpp:408] data_data_0_split -> data_data_0_split_0
I0917 17:29:48.850407 19620 net.cpp:408] data_data_0_split -> data_data_0_split_1
I0917 17:29:48.850411 19620 net.cpp:408] data_data_0_split -> data_data_0_split_2
I0917 17:29:48.850416 19620 net.cpp:408] data_data_0_split -> data_data_0_split_3
I0917 17:29:48.850419 19620 net.cpp:408] data_data_0_split -> data_data_0_split_4
I0917 17:29:48.850423 19620 net.cpp:408] data_data_0_split -> data_data_0_split_5
I0917 17:29:48.850426 19620 net.cpp:408] data_data_0_split -> data_data_0_split_6
I0917 17:29:48.850595 19620 net.cpp:150] Setting up data_data_0_split
I0917 17:29:48.850600 19620 net.cpp:157] Top shape: 4 3 288 352 (1216512)
I0917 17:29:48.850602 19620 net.cpp:157] Top shape: 4 3 288 352 (1216512)
I0917 17:29:48.850617 19620 net.cpp:157] Top shape: 4 3 288 352 (1216512)
I0917 17:29:48.850620 19620 net.cpp:157] Top shape: 4 3 288 352 (1216512)
I0917 17:29:48.850646 19620 net.cpp:157] Top shape: 4 3 288 352 (1216512)
I0917 17:29:48.850649 19620 net.cpp:157] Top shape: 4 3 288 352 (1216512)
I0917 17:29:48.850651 19620 net.cpp:157] Top shape: 4 3 288 352 (1216512)
I0917 17:29:48.850654 19620 net.cpp:165] Memory required for data: 38928416
I0917 17:29:48.850657 19620 layer_factory.hpp:77] Creating layer conv1_1
I0917 17:29:48.850666 19620 net.cpp:100] Creating Layer conv1_1
I0917 17:29:48.850668 19620 net.cpp:434] conv1_1 <- data_data_0_split_0
I0917 17:29:48.850672 19620 net.cpp:408] conv1_1 -> conv1_1
I0917 17:29:48.853863 19620 net.cpp:150] Setting up conv1_1
I0917 17:29:48.853895 19620 net.cpp:157] Top shape: 4 64 288 352 (25952256)
I0917 17:29:48.853900 19620 net.cpp:165] Memory required for data: 142737440
I0917 17:29:48.853909 19620 layer_factory.hpp:77] Creating layer relu1_1
I0917 17:29:48.853915 19620 net.cpp:100] Creating Layer relu1_1
I0917 17:29:48.853917 19620 net.cpp:434] relu1_1 <- conv1_1
I0917 17:29:48.853921 19620 net.cpp:395] relu1_1 -> conv1_1 (in-place)
I0917 17:29:48.854315 19620 net.cpp:150] Setting up relu1_1
I0917 17:29:48.854321 19620 net.cpp:157] Top shape: 4 64 288 352 (25952256)
I0917 17:29:48.854324 19620 net.cpp:165] Memory required for data: 246546464
I0917 17:29:48.854326 19620 layer_factory.hpp:77] Creating layer conv1_2
I0917 17:29:48.854336 19620 net.cpp:100] Creating Layer conv1_2
I0917 17:29:48.854338 19620 net.cpp:434] conv1_2 <- conv1_1
I0917 17:29:48.854341 19620 net.cpp:408] conv1_2 -> conv1_2
I0917 17:29:48.856671 19620 net.cpp:150] Setting up conv1_2
I0917 17:29:48.856679 19620 net.cpp:157] Top shape: 4 64 288 352 (25952256)
I0917 17:29:48.856683 19620 net.cpp:165] Memory required for data: 350355488
I0917 17:29:48.856688 19620 layer_factory.hpp:77] Creating layer relu1_2
I0917 17:29:48.856693 19620 net.cpp:100] Creating Layer relu1_2
I0917 17:29:48.856696 19620 net.cpp:434] relu1_2 <- conv1_2
I0917 17:29:48.856699 19620 net.cpp:395] relu1_2 -> conv1_2 (in-place)
I0917 17:29:48.857226 19620 net.cpp:150] Setting up relu1_2
I0917 17:29:48.857234 19620 net.cpp:157] Top shape: 4 64 288 352 (25952256)
I0917 17:29:48.857237 19620 net.cpp:165] Memory required for data: 454164512
I0917 17:29:48.857239 19620 layer_factory.hpp:77] Creating layer pool1
I0917 17:29:48.857245 19620 net.cpp:100] Creating Layer pool1
I0917 17:29:48.857249 19620 net.cpp:434] pool1 <- conv1_2
I0917 17:29:48.857252 19620 net.cpp:408] pool1 -> pool1
I0917 17:29:48.857311 19620 net.cpp:150] Setting up pool1
I0917 17:29:48.857336 19620 net.cpp:157] Top shape: 4 64 144 176 (6488064)
I0917 17:29:48.857338 19620 net.cpp:165] Memory required for data: 480116768
I0917 17:29:48.857342 19620 layer_factory.hpp:77] Creating layer conv2_1
I0917 17:29:48.857362 19620 net.cpp:100] Creating Layer conv2_1
I0917 17:29:48.857364 19620 net.cpp:434] conv2_1 <- pool1
I0917 17:29:48.857368 19620 net.cpp:408] conv2_1 -> conv2_1
I0917 17:29:48.860410 19620 net.cpp:150] Setting up conv2_1
I0917 17:29:48.860419 19620 net.cpp:157] Top shape: 4 128 144 176 (12976128)
I0917 17:29:48.860424 19620 net.cpp:165] Memory required for data: 532021280
I0917 17:29:48.860430 19620 layer_factory.hpp:77] Creating layer relu2_1
I0917 17:29:48.860435 19620 net.cpp:100] Creating Layer relu2_1
I0917 17:29:48.860438 19620 net.cpp:434] relu2_1 <- conv2_1
I0917 17:29:48.860441 19620 net.cpp:395] relu2_1 -> conv2_1 (in-place)
I0917 17:29:48.860874 19620 net.cpp:150] Setting up relu2_1
I0917 17:29:48.860880 19620 net.cpp:157] Top shape: 4 128 144 176 (12976128)
I0917 17:29:48.860899 19620 net.cpp:165] Memory required for data: 583925792
I0917 17:29:48.860901 19620 layer_factory.hpp:77] Creating layer conv2_2
I0917 17:29:48.860910 19620 net.cpp:100] Creating Layer conv2_2
I0917 17:29:48.860913 19620 net.cpp:434] conv2_2 <- conv2_1
I0917 17:29:48.860918 19620 net.cpp:408] conv2_2 -> conv2_2
I0917 17:29:48.863209 19620 net.cpp:150] Setting up conv2_2
I0917 17:29:48.863229 19620 net.cpp:157] Top shape: 4 128 144 176 (12976128)
I0917 17:29:48.863247 19620 net.cpp:165] Memory required for data: 635830304
I0917 17:29:48.863252 19620 layer_factory.hpp:77] Creating layer relu2_2
I0917 17:29:48.863257 19620 net.cpp:100] Creating Layer relu2_2
I0917 17:29:48.863260 19620 net.cpp:434] relu2_2 <- conv2_2
I0917 17:29:48.863263 19620 net.cpp:395] relu2_2 -> conv2_2 (in-place)
I0917 17:29:48.863770 19620 net.cpp:150] Setting up relu2_2
I0917 17:29:48.863778 19620 net.cpp:157] Top shape: 4 128 144 176 (12976128)
I0917 17:29:48.863782 19620 net.cpp:165] Memory required for data: 687734816
I0917 17:29:48.863785 19620 layer_factory.hpp:77] Creating layer pool2
I0917 17:29:48.863792 19620 net.cpp:100] Creating Layer pool2
I0917 17:29:48.863795 19620 net.cpp:434] pool2 <- conv2_2
I0917 17:29:48.863798 19620 net.cpp:408] pool2 -> pool2
I0917 17:29:48.863859 19620 net.cpp:150] Setting up pool2
I0917 17:29:48.863883 19620 net.cpp:157] Top shape: 4 128 72 88 (3244032)
I0917 17:29:48.863886 19620 net.cpp:165] Memory required for data: 700710944
I0917 17:29:48.863889 19620 layer_factory.hpp:77] Creating layer conv3_1
I0917 17:29:48.863909 19620 net.cpp:100] Creating Layer conv3_1
I0917 17:29:48.863912 19620 net.cpp:434] conv3_1 <- pool2
I0917 17:29:48.863917 19620 net.cpp:408] conv3_1 -> conv3_1
I0917 17:29:48.867331 19620 net.cpp:150] Setting up conv3_1
I0917 17:29:48.867341 19620 net.cpp:157] Top shape: 4 256 72 88 (6488064)
I0917 17:29:48.867344 19620 net.cpp:165] Memory required for data: 726663200
I0917 17:29:48.867368 19620 layer_factory.hpp:77] Creating layer relu3_1
I0917 17:29:48.867373 19620 net.cpp:100] Creating Layer relu3_1
I0917 17:29:48.867384 19620 net.cpp:434] relu3_1 <- conv3_1
I0917 17:29:48.867388 19620 net.cpp:395] relu3_1 -> conv3_1 (in-place)
I0917 17:29:48.867892 19620 net.cpp:150] Setting up relu3_1
I0917 17:29:48.867897 19620 net.cpp:157] Top shape: 4 256 72 88 (6488064)
I0917 17:29:48.867902 19620 net.cpp:165] Memory required for data: 752615456
I0917 17:29:48.867904 19620 layer_factory.hpp:77] Creating layer conv3_2
I0917 17:29:48.867911 19620 net.cpp:100] Creating Layer conv3_2
I0917 17:29:48.867914 19620 net.cpp:434] conv3_2 <- conv3_1
I0917 17:29:48.867918 19620 net.cpp:408] conv3_2 -> conv3_2
I0917 17:29:48.873255 19620 net.cpp:150] Setting up conv3_2
I0917 17:29:48.873267 19620 net.cpp:157] Top shape: 4 256 72 88 (6488064)
I0917 17:29:48.873287 19620 net.cpp:165] Memory required for data: 778567712
I0917 17:29:48.873296 19620 layer_factory.hpp:77] Creating layer relu3_2
I0917 17:29:48.873301 19620 net.cpp:100] Creating Layer relu3_2
I0917 17:29:48.873304 19620 net.cpp:434] relu3_2 <- conv3_2
I0917 17:29:48.873308 19620 net.cpp:395] relu3_2 -> conv3_2 (in-place)
I0917 17:29:48.873695 19620 net.cpp:150] Setting up relu3_2
I0917 17:29:48.873703 19620 net.cpp:157] Top shape: 4 256 72 88 (6488064)
I0917 17:29:48.873720 19620 net.cpp:165] Memory required for data: 804519968
I0917 17:29:48.873723 19620 layer_factory.hpp:77] Creating layer conv3_3
I0917 17:29:48.873733 19620 net.cpp:100] Creating Layer conv3_3
I0917 17:29:48.873735 19620 net.cpp:434] conv3_3 <- conv3_2
I0917 17:29:48.873739 19620 net.cpp:408] conv3_3 -> conv3_3
I0917 17:29:48.878319 19620 net.cpp:150] Setting up conv3_3
I0917 17:29:48.878330 19620 net.cpp:157] Top shape: 4 256 72 88 (6488064)
I0917 17:29:48.878351 19620 net.cpp:165] Memory required for data: 830472224
I0917 17:29:48.878358 19620 layer_factory.hpp:77] Creating layer relu3_3
I0917 17:29:48.878363 19620 net.cpp:100] Creating Layer relu3_3
I0917 17:29:48.878367 19620 net.cpp:434] relu3_3 <- conv3_3
I0917 17:29:48.878371 19620 net.cpp:395] relu3_3 -> conv3_3 (in-place)
I0917 17:29:48.878895 19620 net.cpp:150] Setting up relu3_3
I0917 17:29:48.878901 19620 net.cpp:157] Top shape: 4 256 72 88 (6488064)
I0917 17:29:48.878906 19620 net.cpp:165] Memory required for data: 856424480
I0917 17:29:48.878908 19620 layer_factory.hpp:77] Creating layer pool3
I0917 17:29:48.878913 19620 net.cpp:100] Creating Layer pool3
I0917 17:29:48.878916 19620 net.cpp:434] pool3 <- conv3_3
I0917 17:29:48.878937 19620 net.cpp:408] pool3 -> pool3
I0917 17:29:48.879020 19620 net.cpp:150] Setting up pool3
I0917 17:29:48.879025 19620 net.cpp:157] Top shape: 4 256 36 44 (1622016)
I0917 17:29:48.879029 19620 net.cpp:165] Memory required for data: 862912544
I0917 17:29:48.879031 19620 layer_factory.hpp:77] Creating layer conv4_1
I0917 17:29:48.879038 19620 net.cpp:100] Creating Layer conv4_1
I0917 17:29:48.879041 19620 net.cpp:434] conv4_1 <- pool3
I0917 17:29:48.879045 19620 net.cpp:408] conv4_1 -> conv4_1
I0917 17:29:48.886960 19620 net.cpp:150] Setting up conv4_1
I0917 17:29:48.886972 19620 net.cpp:157] Top shape: 4 512 36 44 (3244032)
I0917 17:29:48.886977 19620 net.cpp:165] Memory required for data: 875888672
I0917 17:29:48.886984 19620 layer_factory.hpp:77] Creating layer relu4_1
I0917 17:29:48.886991 19620 net.cpp:100] Creating Layer relu4_1
I0917 17:29:48.886994 19620 net.cpp:434] relu4_1 <- conv4_1
I0917 17:29:48.886998 19620 net.cpp:395] relu4_1 -> conv4_1 (in-place)
I0917 17:29:48.887414 19620 net.cpp:150] Setting up relu4_1
I0917 17:29:48.887420 19620 net.cpp:157] Top shape: 4 512 36 44 (3244032)
I0917 17:29:48.887446 19620 net.cpp:165] Memory required for data: 888864800
I0917 17:29:48.887449 19620 layer_factory.hpp:77] Creating layer conv4_2
I0917 17:29:48.887465 19620 net.cpp:100] Creating Layer conv4_2
I0917 17:29:48.887468 19620 net.cpp:434] conv4_2 <- conv4_1
I0917 17:29:48.887472 19620 net.cpp:408] conv4_2 -> conv4_2
I0917 17:29:48.899214 19620 net.cpp:150] Setting up conv4_2
I0917 17:29:48.899228 19620 net.cpp:157] Top shape: 4 512 36 44 (3244032)
I0917 17:29:48.899232 19620 net.cpp:165] Memory required for data: 901840928
I0917 17:29:48.899241 19620 layer_factory.hpp:77] Creating layer relu4_2
I0917 17:29:48.899248 19620 net.cpp:100] Creating Layer relu4_2
I0917 17:29:48.899251 19620 net.cpp:434] relu4_2 <- conv4_2
I0917 17:29:48.899255 19620 net.cpp:395] relu4_2 -> conv4_2 (in-place)
I0917 17:29:48.899832 19620 net.cpp:150] Setting up relu4_2
I0917 17:29:48.899840 19620 net.cpp:157] Top shape: 4 512 36 44 (3244032)
I0917 17:29:48.899844 19620 net.cpp:165] Memory required for data: 914817056
I0917 17:29:48.899847 19620 layer_factory.hpp:77] Creating layer conv4_3
I0917 17:29:48.899855 19620 net.cpp:100] Creating Layer conv4_3
I0917 17:29:48.899858 19620 net.cpp:434] conv4_3 <- conv4_2
I0917 17:29:48.899863 19620 net.cpp:408] conv4_3 -> conv4_3
I0917 17:29:48.911504 19620 net.cpp:150] Setting up conv4_3
I0917 17:29:48.911520 19620 net.cpp:157] Top shape: 4 512 36 44 (3244032)
I0917 17:29:48.911526 19620 net.cpp:165] Memory required for data: 927793184
I0917 17:29:48.911532 19620 layer_factory.hpp:77] Creating layer relu4_3
I0917 17:29:48.911540 19620 net.cpp:100] Creating Layer relu4_3
I0917 17:29:48.911542 19620 net.cpp:434] relu4_3 <- conv4_3
I0917 17:29:48.911547 19620 net.cpp:395] relu4_3 -> conv4_3 (in-place)
I0917 17:29:48.911934 19620 net.cpp:150] Setting up relu4_3
I0917 17:29:48.911940 19620 net.cpp:157] Top shape: 4 512 36 44 (3244032)
I0917 17:29:48.911944 19620 net.cpp:165] Memory required for data: 940769312
I0917 17:29:48.911947 19620 layer_factory.hpp:77] Creating layer conv4_3_relu4_3_0_split
I0917 17:29:48.911953 19620 net.cpp:100] Creating Layer conv4_3_relu4_3_0_split
I0917 17:29:48.911955 19620 net.cpp:434] conv4_3_relu4_3_0_split <- conv4_3
I0917 17:29:48.911959 19620 net.cpp:408] conv4_3_relu4_3_0_split -> conv4_3_relu4_3_0_split_0
I0917 17:29:48.911964 19620 net.cpp:408] conv4_3_relu4_3_0_split -> conv4_3_relu4_3_0_split_1
I0917 17:29:48.912009 19620 net.cpp:150] Setting up conv4_3_relu4_3_0_split
I0917 17:29:48.912014 19620 net.cpp:157] Top shape: 4 512 36 44 (3244032)
I0917 17:29:48.912016 19620 net.cpp:157] Top shape: 4 512 36 44 (3244032)
I0917 17:29:48.912019 19620 net.cpp:165] Memory required for data: 966721568
I0917 17:29:48.912021 19620 layer_factory.hpp:77] Creating layer pool4
I0917 17:29:48.912026 19620 net.cpp:100] Creating Layer pool4
I0917 17:29:48.912029 19620 net.cpp:434] pool4 <- conv4_3_relu4_3_0_split_0
I0917 17:29:48.912032 19620 net.cpp:408] pool4 -> pool4
I0917 17:29:48.912087 19620 net.cpp:150] Setting up pool4
I0917 17:29:48.912091 19620 net.cpp:157] Top shape: 4 512 18 22 (811008)
I0917 17:29:48.912094 19620 net.cpp:165] Memory required for data: 969965600
I0917 17:29:48.912097 19620 layer_factory.hpp:77] Creating layer conv5_1
I0917 17:29:48.912106 19620 net.cpp:100] Creating Layer conv5_1
I0917 17:29:48.912108 19620 net.cpp:434] conv5_1 <- pool4
I0917 17:29:48.912111 19620 net.cpp:408] conv5_1 -> conv5_1
I0917 17:29:48.924811 19620 net.cpp:150] Setting up conv5_1
I0917 17:29:48.924827 19620 net.cpp:157] Top shape: 4 512 18 22 (811008)
I0917 17:29:48.924832 19620 net.cpp:165] Memory required for data: 973209632
I0917 17:29:48.924839 19620 layer_factory.hpp:77] Creating layer relu5_1
I0917 17:29:48.924846 19620 net.cpp:100] Creating Layer relu5_1
I0917 17:29:48.924850 19620 net.cpp:434] relu5_1 <- conv5_1
I0917 17:29:48.924855 19620 net.cpp:395] relu5_1 -> conv5_1 (in-place)
I0917 17:29:48.925232 19620 net.cpp:150] Setting up relu5_1
I0917 17:29:48.925240 19620 net.cpp:157] Top shape: 4 512 18 22 (811008)
I0917 17:29:48.925243 19620 net.cpp:165] Memory required for data: 976453664
I0917 17:29:48.925246 19620 layer_factory.hpp:77] Creating layer conv5_2
I0917 17:29:48.925256 19620 net.cpp:100] Creating Layer conv5_2
I0917 17:29:48.925259 19620 net.cpp:434] conv5_2 <- conv5_1
I0917 17:29:48.925263 19620 net.cpp:408] conv5_2 -> conv5_2
I0917 17:29:48.936866 19620 net.cpp:150] Setting up conv5_2
I0917 17:29:48.936885 19620 net.cpp:157] Top shape: 4 512 18 22 (811008)
I0917 17:29:48.936892 19620 net.cpp:165] Memory required for data: 979697696
I0917 17:29:48.936898 19620 layer_factory.hpp:77] Creating layer relu5_2
I0917 17:29:48.936904 19620 net.cpp:100] Creating Layer relu5_2
I0917 17:29:48.936908 19620 net.cpp:434] relu5_2 <- conv5_2
I0917 17:29:48.936913 19620 net.cpp:395] relu5_2 -> conv5_2 (in-place)
I0917 17:29:48.937438 19620 net.cpp:150] Setting up relu5_2
I0917 17:29:48.937446 19620 net.cpp:157] Top shape: 4 512 18 22 (811008)
I0917 17:29:48.937450 19620 net.cpp:165] Memory required for data: 982941728
I0917 17:29:48.937453 19620 layer_factory.hpp:77] Creating layer conv5_3
I0917 17:29:48.937463 19620 net.cpp:100] Creating Layer conv5_3
I0917 17:29:48.937465 19620 net.cpp:434] conv5_3 <- conv5_2
I0917 17:29:48.937469 19620 net.cpp:408] conv5_3 -> conv5_3
I0917 17:29:48.950618 19620 net.cpp:150] Setting up conv5_3
I0917 17:29:48.950634 19620 net.cpp:157] Top shape: 4 512 18 22 (811008)
I0917 17:29:48.950639 19620 net.cpp:165] Memory required for data: 986185760
I0917 17:29:48.950645 19620 layer_factory.hpp:77] Creating layer relu5_3
I0917 17:29:48.950654 19620 net.cpp:100] Creating Layer relu5_3
I0917 17:29:48.950657 19620 net.cpp:434] relu5_3 <- conv5_3
I0917 17:29:48.950662 19620 net.cpp:395] relu5_3 -> conv5_3 (in-place)
I0917 17:29:48.951050 19620 net.cpp:150] Setting up relu5_3
I0917 17:29:48.951057 19620 net.cpp:157] Top shape: 4 512 18 22 (811008)
I0917 17:29:48.951061 19620 net.cpp:165] Memory required for data: 989429792
I0917 17:29:48.951063 19620 layer_factory.hpp:77] Creating layer pool5
I0917 17:29:48.951071 19620 net.cpp:100] Creating Layer pool5
I0917 17:29:48.951073 19620 net.cpp:434] pool5 <- conv5_3
I0917 17:29:48.951076 19620 net.cpp:408] pool5 -> pool5
I0917 17:29:48.951124 19620 net.cpp:150] Setting up pool5
I0917 17:29:48.951128 19620 net.cpp:157] Top shape: 4 512 18 22 (811008)
I0917 17:29:48.951131 19620 net.cpp:165] Memory required for data: 992673824
I0917 17:29:48.951134 19620 layer_factory.hpp:77] Creating layer fc6
I0917 17:29:48.951141 19620 net.cpp:100] Creating Layer fc6
I0917 17:29:48.951143 19620 net.cpp:434] fc6 <- pool5
I0917 17:29:48.951148 19620 net.cpp:408] fc6 -> fc6
I0917 17:29:48.972218 19620 net.cpp:150] Setting up fc6
I0917 17:29:48.972235 19620 net.cpp:157] Top shape: 4 1024 18 22 (1622016)
I0917 17:29:48.972241 19620 net.cpp:165] Memory required for data: 999161888
I0917 17:29:48.972249 19620 layer_factory.hpp:77] Creating layer relu6
I0917 17:29:48.972255 19620 net.cpp:100] Creating Layer relu6
I0917 17:29:48.972280 19620 net.cpp:434] relu6 <- fc6
I0917 17:29:48.972285 19620 net.cpp:395] relu6 -> fc6 (in-place)
I0917 17:29:48.972808 19620 net.cpp:150] Setting up relu6
I0917 17:29:48.972815 19620 net.cpp:157] Top shape: 4 1024 18 22 (1622016)
I0917 17:29:48.972820 19620 net.cpp:165] Memory required for data: 1005649952
I0917 17:29:48.972822 19620 layer_factory.hpp:77] Creating layer fc7
I0917 17:29:48.972831 19620 net.cpp:100] Creating Layer fc7
I0917 17:29:48.972834 19620 net.cpp:434] fc7 <- fc6
I0917 17:29:48.972838 19620 net.cpp:408] fc7 -> fc7
I0917 17:29:48.978891 19620 net.cpp:150] Setting up fc7
I0917 17:29:48.978901 19620 net.cpp:157] Top shape: 4 1024 18 22 (1622016)
I0917 17:29:48.978905 19620 net.cpp:165] Memory required for data: 1012138016
I0917 17:29:48.978910 19620 layer_factory.hpp:77] Creating layer relu7
I0917 17:29:48.978915 19620 net.cpp:100] Creating Layer relu7
I0917 17:29:48.978919 19620 net.cpp:434] relu7 <- fc7
I0917 17:29:48.978922 19620 net.cpp:395] relu7 -> fc7 (in-place)
I0917 17:29:48.979305 19620 net.cpp:150] Setting up relu7
I0917 17:29:48.979311 19620 net.cpp:157] Top shape: 4 1024 18 22 (1622016)
I0917 17:29:48.979315 19620 net.cpp:165] Memory required for data: 1018626080
I0917 17:29:48.979317 19620 layer_factory.hpp:77] Creating layer fc7_relu7_0_split
I0917 17:29:48.979324 19620 net.cpp:100] Creating Layer fc7_relu7_0_split
I0917 17:29:48.979327 19620 net.cpp:434] fc7_relu7_0_split <- fc7
I0917 17:29:48.979331 19620 net.cpp:408] fc7_relu7_0_split -> fc7_relu7_0_split_0
I0917 17:29:48.979336 19620 net.cpp:408] fc7_relu7_0_split -> fc7_relu7_0_split_1
I0917 17:29:48.979341 19620 net.cpp:408] fc7_relu7_0_split -> fc7_relu7_0_split_2
I0917 17:29:48.979346 19620 net.cpp:408] fc7_relu7_0_split -> fc7_relu7_0_split_3
I0917 17:29:48.979420 19620 net.cpp:150] Setting up fc7_relu7_0_split
I0917 17:29:48.979424 19620 net.cpp:157] Top shape: 4 1024 18 22 (1622016)
I0917 17:29:48.979429 19620 net.cpp:157] Top shape: 4 1024 18 22 (1622016)
I0917 17:29:48.979431 19620 net.cpp:157] Top shape: 4 1024 18 22 (1622016)
I0917 17:29:48.979434 19620 net.cpp:157] Top shape: 4 1024 18 22 (1622016)
I0917 17:29:48.979436 19620 net.cpp:165] Memory required for data: 1044578336
I0917 17:29:48.979439 19620 layer_factory.hpp:77] Creating layer conv6_1
I0917 17:29:48.979445 19620 net.cpp:100] Creating Layer conv6_1
I0917 17:29:48.979449 19620 net.cpp:434] conv6_1 <- fc7_relu7_0_split_0
I0917 17:29:48.979452 19620 net.cpp:408] conv6_1 -> conv6_1
I0917 17:29:48.984167 19620 net.cpp:150] Setting up conv6_1
I0917 17:29:48.984179 19620 net.cpp:157] Top shape: 4 256 18 22 (405504)
I0917 17:29:48.984185 19620 net.cpp:165] Memory required for data: 1046200352
I0917 17:29:48.984191 19620 layer_factory.hpp:77] Creating layer conv6_1_relu
I0917 17:29:48.984197 19620 net.cpp:100] Creating Layer conv6_1_relu
I0917 17:29:48.984201 19620 net.cpp:434] conv6_1_relu <- conv6_1
I0917 17:29:48.984206 19620 net.cpp:395] conv6_1_relu -> conv6_1 (in-place)
I0917 17:29:48.984591 19620 net.cpp:150] Setting up conv6_1_relu
I0917 17:29:48.984598 19620 net.cpp:157] Top shape: 4 256 18 22 (405504)
I0917 17:29:48.984601 19620 net.cpp:165] Memory required for data: 1047822368
I0917 17:29:48.984604 19620 layer_factory.hpp:77] Creating layer conv6_2
I0917 17:29:48.984616 19620 net.cpp:100] Creating Layer conv6_2
I0917 17:29:48.984619 19620 net.cpp:434] conv6_2 <- conv6_1
I0917 17:29:48.984624 19620 net.cpp:408] conv6_2 -> conv6_2
I0917 17:29:48.991225 19620 net.cpp:150] Setting up conv6_2
I0917 17:29:48.991235 19620 net.cpp:157] Top shape: 4 512 9 11 (202752)
I0917 17:29:48.991240 19620 net.cpp:165] Memory required for data: 1048633376
I0917 17:29:48.991248 19620 layer_factory.hpp:77] Creating layer conv6_2_relu
I0917 17:29:48.991253 19620 net.cpp:100] Creating Layer conv6_2_relu
I0917 17:29:48.991256 19620 net.cpp:434] conv6_2_relu <- conv6_2
I0917 17:29:48.991259 19620 net.cpp:395] conv6_2_relu -> conv6_2 (in-place)
I0917 17:29:48.991780 19620 net.cpp:150] Setting up conv6_2_relu
I0917 17:29:48.991787 19620 net.cpp:157] Top shape: 4 512 9 11 (202752)
I0917 17:29:48.991806 19620 net.cpp:165] Memory required for data: 1049444384
I0917 17:29:48.991808 19620 layer_factory.hpp:77] Creating layer conv6_2_conv6_2_relu_0_split
I0917 17:29:48.991814 19620 net.cpp:100] Creating Layer conv6_2_conv6_2_relu_0_split
I0917 17:29:48.991817 19620 net.cpp:434] conv6_2_conv6_2_relu_0_split <- conv6_2
I0917 17:29:48.991822 19620 net.cpp:408] conv6_2_conv6_2_relu_0_split -> conv6_2_conv6_2_relu_0_split_0
I0917 17:29:48.991827 19620 net.cpp:408] conv6_2_conv6_2_relu_0_split -> conv6_2_conv6_2_relu_0_split_1
I0917 17:29:48.991832 19620 net.cpp:408] conv6_2_conv6_2_relu_0_split -> conv6_2_conv6_2_relu_0_split_2
I0917 17:29:48.991835 19620 net.cpp:408] conv6_2_conv6_2_relu_0_split -> conv6_2_conv6_2_relu_0_split_3
I0917 17:29:48.991917 19620 net.cpp:150] Setting up conv6_2_conv6_2_relu_0_split
I0917 17:29:48.991921 19620 net.cpp:157] Top shape: 4 512 9 11 (202752)
I0917 17:29:48.991925 19620 net.cpp:157] Top shape: 4 512 9 11 (202752)
I0917 17:29:48.991927 19620 net.cpp:157] Top shape: 4 512 9 11 (202752)
I0917 17:29:48.991930 19620 net.cpp:157] Top shape: 4 512 9 11 (202752)
I0917 17:29:48.991932 19620 net.cpp:165] Memory required for data: 1052688416
I0917 17:29:48.991935 19620 layer_factory.hpp:77] Creating layer conv7_1
I0917 17:29:48.991940 19620 net.cpp:100] Creating Layer conv7_1
I0917 17:29:48.991943 19620 net.cpp:434] conv7_1 <- conv6_2_conv6_2_relu_0_split_0
I0917 17:29:48.991947 19620 net.cpp:408] conv7_1 -> conv7_1
I0917 17:29:48.995012 19620 net.cpp:150] Setting up conv7_1
I0917 17:29:48.995019 19620 net.cpp:157] Top shape: 4 128 9 11 (50688)
I0917 17:29:48.995023 19620 net.cpp:165] Memory required for data: 1052891168
I0917 17:29:48.995028 19620 layer_factory.hpp:77] Creating layer conv7_1_relu
I0917 17:29:48.995033 19620 net.cpp:100] Creating Layer conv7_1_relu
I0917 17:29:48.995036 19620 net.cpp:434] conv7_1_relu <- conv7_1
I0917 17:29:48.995040 19620 net.cpp:395] conv7_1_relu -> conv7_1 (in-place)
I0917 17:29:48.995429 19620 net.cpp:150] Setting up conv7_1_relu
I0917 17:29:48.995435 19620 net.cpp:157] Top shape: 4 128 9 11 (50688)
I0917 17:29:48.995438 19620 net.cpp:165] Memory required for data: 1053093920
I0917 17:29:48.995441 19620 layer_factory.hpp:77] Creating layer conv7_2
I0917 17:29:48.995450 19620 net.cpp:100] Creating Layer conv7_2
I0917 17:29:48.995452 19620 net.cpp:434] conv7_2 <- conv7_1
I0917 17:29:48.995456 19620 net.cpp:408] conv7_2 -> conv7_2
I0917 17:29:48.998675 19620 net.cpp:150] Setting up conv7_2
I0917 17:29:48.998683 19620 net.cpp:157] Top shape: 4 256 5 6 (30720)
I0917 17:29:48.998687 19620 net.cpp:165] Memory required for data: 1053216800
I0917 17:29:48.998692 19620 layer_factory.hpp:77] Creating layer conv7_2_relu
I0917 17:29:48.998695 19620 net.cpp:100] Creating Layer conv7_2_relu
I0917 17:29:48.998698 19620 net.cpp:434] conv7_2_relu <- conv7_2
I0917 17:29:48.998703 19620 net.cpp:395] conv7_2_relu -> conv7_2 (in-place)
I0917 17:29:48.999217 19620 net.cpp:150] Setting up conv7_2_relu
I0917 17:29:48.999225 19620 net.cpp:157] Top shape: 4 256 5 6 (30720)
I0917 17:29:48.999228 19620 net.cpp:165] Memory required for data: 1053339680
I0917 17:29:48.999231 19620 layer_factory.hpp:77] Creating layer conv7_2_conv7_2_relu_0_split
I0917 17:29:48.999238 19620 net.cpp:100] Creating Layer conv7_2_conv7_2_relu_0_split
I0917 17:29:48.999240 19620 net.cpp:434] conv7_2_conv7_2_relu_0_split <- conv7_2
I0917 17:29:48.999245 19620 net.cpp:408] conv7_2_conv7_2_relu_0_split -> conv7_2_conv7_2_relu_0_split_0
I0917 17:29:48.999250 19620 net.cpp:408] conv7_2_conv7_2_relu_0_split -> conv7_2_conv7_2_relu_0_split_1
I0917 17:29:48.999254 19620 net.cpp:408] conv7_2_conv7_2_relu_0_split -> conv7_2_conv7_2_relu_0_split_2
I0917 17:29:48.999258 19620 net.cpp:408] conv7_2_conv7_2_relu_0_split -> conv7_2_conv7_2_relu_0_split_3
I0917 17:29:48.999337 19620 net.cpp:150] Setting up conv7_2_conv7_2_relu_0_split
I0917 17:29:48.999341 19620 net.cpp:157] Top shape: 4 256 5 6 (30720)
I0917 17:29:48.999344 19620 net.cpp:157] Top shape: 4 256 5 6 (30720)
I0917 17:29:48.999361 19620 net.cpp:157] Top shape: 4 256 5 6 (30720)
I0917 17:29:48.999363 19620 net.cpp:157] Top shape: 4 256 5 6 (30720)
I0917 17:29:48.999366 19620 net.cpp:165] Memory required for data: 1053831200
I0917 17:29:48.999368 19620 layer_factory.hpp:77] Creating layer conv8_1
I0917 17:29:48.999373 19620 net.cpp:100] Creating Layer conv8_1
I0917 17:29:48.999377 19620 net.cpp:434] conv8_1 <- conv7_2_conv7_2_relu_0_split_0
I0917 17:29:48.999382 19620 net.cpp:408] conv8_1 -> conv8_1
I0917 17:29:49.001214 19620 net.cpp:150] Setting up conv8_1
I0917 17:29:49.001222 19620 net.cpp:157] Top shape: 4 128 5 6 (15360)
I0917 17:29:49.001226 19620 net.cpp:165] Memory required for data: 1053892640
I0917 17:29:49.001231 19620 layer_factory.hpp:77] Creating layer conv8_1_relu
I0917 17:29:49.001235 19620 net.cpp:100] Creating Layer conv8_1_relu
I0917 17:29:49.001237 19620 net.cpp:434] conv8_1_relu <- conv8_1
I0917 17:29:49.001241 19620 net.cpp:395] conv8_1_relu -> conv8_1 (in-place)
I0917 17:29:49.001626 19620 net.cpp:150] Setting up conv8_1_relu
I0917 17:29:49.001633 19620 net.cpp:157] Top shape: 4 128 5 6 (15360)
I0917 17:29:49.001636 19620 net.cpp:165] Memory required for data: 1053954080
I0917 17:29:49.001639 19620 layer_factory.hpp:77] Creating layer conv8_2
I0917 17:29:49.001647 19620 net.cpp:100] Creating Layer conv8_2
I0917 17:29:49.001649 19620 net.cpp:434] conv8_2 <- conv8_1
I0917 17:29:49.001653 19620 net.cpp:408] conv8_2 -> conv8_2
I0917 17:29:49.006074 19620 net.cpp:150] Setting up conv8_2
I0917 17:29:49.006084 19620 net.cpp:157] Top shape: 4 256 3 4 (12288)
I0917 17:29:49.006088 19620 net.cpp:165] Memory required for data: 1054003232
I0917 17:29:49.006095 19620 layer_factory.hpp:77] Creating layer conv8_2_relu
I0917 17:29:49.006099 19620 net.cpp:100] Creating Layer conv8_2_relu
I0917 17:29:49.006103 19620 net.cpp:434] conv8_2_relu <- conv8_2
I0917 17:29:49.006106 19620 net.cpp:395] conv8_2_relu -> conv8_2 (in-place)
I0917 17:29:49.006498 19620 net.cpp:150] Setting up conv8_2_relu
I0917 17:29:49.006505 19620 net.cpp:157] Top shape: 4 256 3 4 (12288)
I0917 17:29:49.006508 19620 net.cpp:165] Memory required for data: 1054052384
I0917 17:29:49.006510 19620 layer_factory.hpp:77] Creating layer conv8_2_conv8_2_relu_0_split
I0917 17:29:49.006517 19620 net.cpp:100] Creating Layer conv8_2_conv8_2_relu_0_split
I0917 17:29:49.006520 19620 net.cpp:434] conv8_2_conv8_2_relu_0_split <- conv8_2
I0917 17:29:49.006525 19620 net.cpp:408] conv8_2_conv8_2_relu_0_split -> conv8_2_conv8_2_relu_0_split_0
I0917 17:29:49.006531 19620 net.cpp:408] conv8_2_conv8_2_relu_0_split -> conv8_2_conv8_2_relu_0_split_1
I0917 17:29:49.006534 19620 net.cpp:408] conv8_2_conv8_2_relu_0_split -> conv8_2_conv8_2_relu_0_split_2
I0917 17:29:49.006538 19620 net.cpp:408] conv8_2_conv8_2_relu_0_split -> conv8_2_conv8_2_relu_0_split_3
I0917 17:29:49.006618 19620 net.cpp:150] Setting up conv8_2_conv8_2_relu_0_split
I0917 17:29:49.006623 19620 net.cpp:157] Top shape: 4 256 3 4 (12288)
I0917 17:29:49.006625 19620 net.cpp:157] Top shape: 4 256 3 4 (12288)
I0917 17:29:49.006628 19620 net.cpp:157] Top shape: 4 256 3 4 (12288)
I0917 17:29:49.006630 19620 net.cpp:157] Top shape: 4 256 3 4 (12288)
I0917 17:29:49.006633 19620 net.cpp:165] Memory required for data: 1054248992
I0917 17:29:49.006635 19620 layer_factory.hpp:77] Creating layer conv9_1
I0917 17:29:49.006641 19620 net.cpp:100] Creating Layer conv9_1
I0917 17:29:49.006644 19620 net.cpp:434] conv9_1 <- conv8_2_conv8_2_relu_0_split_0
I0917 17:29:49.006649 19620 net.cpp:408] conv9_1 -> conv9_1
I0917 17:29:49.008479 19620 net.cpp:150] Setting up conv9_1
I0917 17:29:49.008487 19620 net.cpp:157] Top shape: 4 128 3 4 (6144)
I0917 17:29:49.008491 19620 net.cpp:165] Memory required for data: 1054273568
I0917 17:29:49.008496 19620 layer_factory.hpp:77] Creating layer conv9_1_relu
I0917 17:29:49.008499 19620 net.cpp:100] Creating Layer conv9_1_relu
I0917 17:29:49.008502 19620 net.cpp:434] conv9_1_relu <- conv9_1
I0917 17:29:49.008505 19620 net.cpp:395] conv9_1_relu -> conv9_1 (in-place)
I0917 17:29:49.009022 19620 net.cpp:150] Setting up conv9_1_relu
I0917 17:29:49.009040 19620 net.cpp:157] Top shape: 4 128 3 4 (6144)
I0917 17:29:49.009044 19620 net.cpp:165] Memory required for data: 1054298144
I0917 17:29:49.009047 19620 layer_factory.hpp:77] Creating layer conv9_2
I0917 17:29:49.009054 19620 net.cpp:100] Creating Layer conv9_2
I0917 17:29:49.009057 19620 net.cpp:434] conv9_2 <- conv9_1
I0917 17:29:49.009063 19620 net.cpp:408] conv9_2 -> conv9_2
I0917 17:29:49.013358 19620 net.cpp:150] Setting up conv9_2
I0917 17:29:49.013367 19620 net.cpp:157] Top shape: 4 256 1 2 (2048)
I0917 17:29:49.013372 19620 net.cpp:165] Memory required for data: 1054306336
I0917 17:29:49.013378 19620 layer_factory.hpp:77] Creating layer conv9_2_relu
I0917 17:29:49.013383 19620 net.cpp:100] Creating Layer conv9_2_relu
I0917 17:29:49.013387 19620 net.cpp:434] conv9_2_relu <- conv9_2
I0917 17:29:49.013391 19620 net.cpp:395] conv9_2_relu -> conv9_2 (in-place)
I0917 17:29:49.013924 19620 net.cpp:150] Setting up conv9_2_relu
I0917 17:29:49.013931 19620 net.cpp:157] Top shape: 4 256 1 2 (2048)
I0917 17:29:49.013936 19620 net.cpp:165] Memory required for data: 1054314528
I0917 17:29:49.013938 19620 layer_factory.hpp:77] Creating layer conv9_2_conv9_2_relu_0_split
I0917 17:29:49.013944 19620 net.cpp:100] Creating Layer conv9_2_conv9_2_relu_0_split
I0917 17:29:49.013947 19620 net.cpp:434] conv9_2_conv9_2_relu_0_split <- conv9_2
I0917 17:29:49.013952 19620 net.cpp:408] conv9_2_conv9_2_relu_0_split -> conv9_2_conv9_2_relu_0_split_0
I0917 17:29:49.013957 19620 net.cpp:408] conv9_2_conv9_2_relu_0_split -> conv9_2_conv9_2_relu_0_split_1
I0917 17:29:49.013960 19620 net.cpp:408] conv9_2_conv9_2_relu_0_split -> conv9_2_conv9_2_relu_0_split_2
I0917 17:29:49.014030 19620 net.cpp:150] Setting up conv9_2_conv9_2_relu_0_split
I0917 17:29:49.014034 19620 net.cpp:157] Top shape: 4 256 1 2 (2048)
I0917 17:29:49.014039 19620 net.cpp:157] Top shape: 4 256 1 2 (2048)
I0917 17:29:49.014040 19620 net.cpp:157] Top shape: 4 256 1 2 (2048)
I0917 17:29:49.014044 19620 net.cpp:165] Memory required for data: 1054339104
I0917 17:29:49.014045 19620 layer_factory.hpp:77] Creating layer conv4_3_norm
I0917 17:29:49.014050 19620 net.cpp:100] Creating Layer conv4_3_norm
I0917 17:29:49.014053 19620 net.cpp:434] conv4_3_norm <- conv4_3_relu4_3_0_split_1
I0917 17:29:49.014056 19620 net.cpp:408] conv4_3_norm -> conv4_3_norm
I0917 17:29:49.014257 19620 net.cpp:150] Setting up conv4_3_norm
I0917 17:29:49.014261 19620 net.cpp:157] Top shape: 4 512 36 44 (3244032)
I0917 17:29:49.014264 19620 net.cpp:165] Memory required for data: 1067315232
I0917 17:29:49.014268 19620 layer_factory.hpp:77] Creating layer conv4_3_norm_conv4_3_norm_0_split
I0917 17:29:49.014273 19620 net.cpp:100] Creating Layer conv4_3_norm_conv4_3_norm_0_split
I0917 17:29:49.014276 19620 net.cpp:434] conv4_3_norm_conv4_3_norm_0_split <- conv4_3_norm
I0917 17:29:49.014279 19620 net.cpp:408] conv4_3_norm_conv4_3_norm_0_split -> conv4_3_norm_conv4_3_norm_0_split_0
I0917 17:29:49.014283 19620 net.cpp:408] conv4_3_norm_conv4_3_norm_0_split -> conv4_3_norm_conv4_3_norm_0_split_1
I0917 17:29:49.014288 19620 net.cpp:408] conv4_3_norm_conv4_3_norm_0_split -> conv4_3_norm_conv4_3_norm_0_split_2
I0917 17:29:49.014346 19620 net.cpp:150] Setting up conv4_3_norm_conv4_3_norm_0_split
I0917 17:29:49.014350 19620 net.cpp:157] Top shape: 4 512 36 44 (3244032)
I0917 17:29:49.014353 19620 net.cpp:157] Top shape: 4 512 36 44 (3244032)
I0917 17:29:49.014356 19620 net.cpp:157] Top shape: 4 512 36 44 (3244032)
I0917 17:29:49.014359 19620 net.cpp:165] Memory required for data: 1106243616
I0917 17:29:49.014361 19620 layer_factory.hpp:77] Creating layer conv4_3_norm_mbox_loc
I0917 17:29:49.014369 19620 net.cpp:100] Creating Layer conv4_3_norm_mbox_loc
I0917 17:29:49.014372 19620 net.cpp:434] conv4_3_norm_mbox_loc <- conv4_3_norm_conv4_3_norm_0_split_0
I0917 17:29:49.014376 19620 net.cpp:408] conv4_3_norm_mbox_loc -> conv4_3_norm_mbox_loc
I0917 17:29:49.016607 19620 net.cpp:150] Setting up conv4_3_norm_mbox_loc
I0917 17:29:49.016613 19620 net.cpp:157] Top shape: 4 16 36 44 (101376)
I0917 17:29:49.016630 19620 net.cpp:165] Memory required for data: 1106649120
I0917 17:29:49.016636 19620 layer_factory.hpp:77] Creating layer conv4_3_norm_mbox_loc_perm
I0917 17:29:49.016641 19620 net.cpp:100] Creating Layer conv4_3_norm_mbox_loc_perm
I0917 17:29:49.016644 19620 net.cpp:434] conv4_3_norm_mbox_loc_perm <- conv4_3_norm_mbox_loc
I0917 17:29:49.016649 19620 net.cpp:408] conv4_3_norm_mbox_loc_perm -> conv4_3_norm_mbox_loc_perm
I0917 17:29:49.016779 19620 net.cpp:150] Setting up conv4_3_norm_mbox_loc_perm
I0917 17:29:49.016783 19620 net.cpp:157] Top shape: 4 36 44 16 (101376)
I0917 17:29:49.016788 19620 net.cpp:165] Memory required for data: 1107054624
I0917 17:29:49.016789 19620 layer_factory.hpp:77] Creating layer conv4_3_norm_mbox_loc_flat
I0917 17:29:49.016794 19620 net.cpp:100] Creating Layer conv4_3_norm_mbox_loc_flat
I0917 17:29:49.016796 19620 net.cpp:434] conv4_3_norm_mbox_loc_flat <- conv4_3_norm_mbox_loc_perm
I0917 17:29:49.016800 19620 net.cpp:408] conv4_3_norm_mbox_loc_flat -> conv4_3_norm_mbox_loc_flat
I0917 17:29:49.016827 19620 net.cpp:150] Setting up conv4_3_norm_mbox_loc_flat
I0917 17:29:49.016831 19620 net.cpp:157] Top shape: 4 25344 (101376)
I0917 17:29:49.016834 19620 net.cpp:165] Memory required for data: 1107460128
I0917 17:29:49.016837 19620 layer_factory.hpp:77] Creating layer conv4_3_norm_mbox_conf
I0917 17:29:49.016847 19620 net.cpp:100] Creating Layer conv4_3_norm_mbox_conf
I0917 17:29:49.016850 19620 net.cpp:434] conv4_3_norm_mbox_conf <- conv4_3_norm_conv4_3_norm_0_split_1
I0917 17:29:49.016855 19620 net.cpp:408] conv4_3_norm_mbox_conf -> conv4_3_norm_mbox_conf
I0917 17:29:49.019726 19620 net.cpp:150] Setting up conv4_3_norm_mbox_conf
I0917 17:29:49.019738 19620 net.cpp:157] Top shape: 4 8 36 44 (50688)
I0917 17:29:49.019743 19620 net.cpp:165] Memory required for data: 1107662880
I0917 17:29:49.019750 19620 layer_factory.hpp:77] Creating layer conv4_3_norm_mbox_conf_perm
I0917 17:29:49.019757 19620 net.cpp:100] Creating Layer conv4_3_norm_mbox_conf_perm
I0917 17:29:49.019762 19620 net.cpp:434] conv4_3_norm_mbox_conf_perm <- conv4_3_norm_mbox_conf
I0917 17:29:49.019767 19620 net.cpp:408] conv4_3_norm_mbox_conf_perm -> conv4_3_norm_mbox_conf_perm
I0917 17:29:49.019901 19620 net.cpp:150] Setting up conv4_3_norm_mbox_conf_perm
I0917 17:29:49.019904 19620 net.cpp:157] Top shape: 4 36 44 8 (50688)
I0917 17:29:49.019908 19620 net.cpp:165] Memory required for data: 1107865632
I0917 17:29:49.019910 19620 layer_factory.hpp:77] Creating layer conv4_3_norm_mbox_conf_flat
I0917 17:29:49.019915 19620 net.cpp:100] Creating Layer conv4_3_norm_mbox_conf_flat
I0917 17:29:49.019919 19620 net.cpp:434] conv4_3_norm_mbox_conf_flat <- conv4_3_norm_mbox_conf_perm
I0917 17:29:49.019922 19620 net.cpp:408] conv4_3_norm_mbox_conf_flat -> conv4_3_norm_mbox_conf_flat
I0917 17:29:49.019946 19620 net.cpp:150] Setting up conv4_3_norm_mbox_conf_flat
I0917 17:29:49.019950 19620 net.cpp:157] Top shape: 4 12672 (50688)
I0917 17:29:49.019953 19620 net.cpp:165] Memory required for data: 1108068384
I0917 17:29:49.019955 19620 layer_factory.hpp:77] Creating layer conv4_3_norm_mbox_priorbox
I0917 17:29:49.019963 19620 net.cpp:100] Creating Layer conv4_3_norm_mbox_priorbox
I0917 17:29:49.019965 19620 net.cpp:434] conv4_3_norm_mbox_priorbox <- conv4_3_norm_conv4_3_norm_0_split_2
I0917 17:29:49.019970 19620 net.cpp:434] conv4_3_norm_mbox_priorbox <- data_data_0_split_1
I0917 17:29:49.019974 19620 net.cpp:408] conv4_3_norm_mbox_priorbox -> conv4_3_norm_mbox_priorbox
I0917 17:29:49.020000 19620 net.cpp:150] Setting up conv4_3_norm_mbox_priorbox
I0917 17:29:49.020004 19620 net.cpp:157] Top shape: 1 2 25344 (50688)
I0917 17:29:49.020007 19620 net.cpp:165] Memory required for data: 1108271136
I0917 17:29:49.020009 19620 layer_factory.hpp:77] Creating layer fc7_mbox_loc
I0917 17:29:49.020017 19620 net.cpp:100] Creating Layer fc7_mbox_loc
I0917 17:29:49.020021 19620 net.cpp:434] fc7_mbox_loc <- fc7_relu7_0_split_1
I0917 17:29:49.020025 19620 net.cpp:408] fc7_mbox_loc -> fc7_mbox_loc
I0917 17:29:49.023842 19620 net.cpp:150] Setting up fc7_mbox_loc
I0917 17:29:49.023874 19620 net.cpp:157] Top shape: 4 24 18 22 (38016)
I0917 17:29:49.023880 19620 net.cpp:165] Memory required for data: 1108423200
I0917 17:29:49.023887 19620 layer_factory.hpp:77] Creating layer fc7_mbox_loc_perm
I0917 17:29:49.023895 19620 net.cpp:100] Creating Layer fc7_mbox_loc_perm
I0917 17:29:49.023900 19620 net.cpp:434] fc7_mbox_loc_perm <- fc7_mbox_loc
I0917 17:29:49.023905 19620 net.cpp:408] fc7_mbox_loc_perm -> fc7_mbox_loc_perm
I0917 17:29:49.024040 19620 net.cpp:150] Setting up fc7_mbox_loc_perm
I0917 17:29:49.024044 19620 net.cpp:157] Top shape: 4 18 22 24 (38016)
I0917 17:29:49.024047 19620 net.cpp:165] Memory required for data: 1108575264
I0917 17:29:49.024050 19620 layer_factory.hpp:77] Creating layer fc7_mbox_loc_flat
I0917 17:29:49.024056 19620 net.cpp:100] Creating Layer fc7_mbox_loc_flat
I0917 17:29:49.024060 19620 net.cpp:434] fc7_mbox_loc_flat <- fc7_mbox_loc_perm
I0917 17:29:49.024063 19620 net.cpp:408] fc7_mbox_loc_flat -> fc7_mbox_loc_flat
I0917 17:29:49.024088 19620 net.cpp:150] Setting up fc7_mbox_loc_flat
I0917 17:29:49.024091 19620 net.cpp:157] Top shape: 4 9504 (38016)
I0917 17:29:49.024094 19620 net.cpp:165] Memory required for data: 1108727328
I0917 17:29:49.024097 19620 layer_factory.hpp:77] Creating layer fc7_mbox_conf
I0917 17:29:49.024106 19620 net.cpp:100] Creating Layer fc7_mbox_conf
I0917 17:29:49.024109 19620 net.cpp:434] fc7_mbox_conf <- fc7_relu7_0_split_2
I0917 17:29:49.024113 19620 net.cpp:408] fc7_mbox_conf -> fc7_mbox_conf
I0917 17:29:49.026405 19620 net.cpp:150] Setting up fc7_mbox_conf
I0917 17:29:49.026413 19620 net.cpp:157] Top shape: 4 12 18 22 (19008)
I0917 17:29:49.026417 19620 net.cpp:165] Memory required for data: 1108803360
I0917 17:29:49.026423 19620 layer_factory.hpp:77] Creating layer fc7_mbox_conf_perm
I0917 17:29:49.026429 19620 net.cpp:100] Creating Layer fc7_mbox_conf_perm
I0917 17:29:49.026432 19620 net.cpp:434] fc7_mbox_conf_perm <- fc7_mbox_conf
I0917 17:29:49.026437 19620 net.cpp:408] fc7_mbox_conf_perm -> fc7_mbox_conf_perm
I0917 17:29:49.026568 19620 net.cpp:150] Setting up fc7_mbox_conf_perm
I0917 17:29:49.026573 19620 net.cpp:157] Top shape: 4 18 22 12 (19008)
I0917 17:29:49.026576 19620 net.cpp:165] Memory required for data: 1108879392
I0917 17:29:49.026578 19620 layer_factory.hpp:77] Creating layer fc7_mbox_conf_flat
I0917 17:29:49.026582 19620 net.cpp:100] Creating Layer fc7_mbox_conf_flat
I0917 17:29:49.026585 19620 net.cpp:434] fc7_mbox_conf_flat <- fc7_mbox_conf_perm
I0917 17:29:49.026589 19620 net.cpp:408] fc7_mbox_conf_flat -> fc7_mbox_conf_flat
I0917 17:29:49.026614 19620 net.cpp:150] Setting up fc7_mbox_conf_flat
I0917 17:29:49.026618 19620 net.cpp:157] Top shape: 4 4752 (19008)
I0917 17:29:49.026621 19620 net.cpp:165] Memory required for data: 1108955424
I0917 17:29:49.026623 19620 layer_factory.hpp:77] Creating layer fc7_mbox_priorbox
I0917 17:29:49.026628 19620 net.cpp:100] Creating Layer fc7_mbox_priorbox
I0917 17:29:49.026631 19620 net.cpp:434] fc7_mbox_priorbox <- fc7_relu7_0_split_3
I0917 17:29:49.026635 19620 net.cpp:434] fc7_mbox_priorbox <- data_data_0_split_2
I0917 17:29:49.026639 19620 net.cpp:408] fc7_mbox_priorbox -> fc7_mbox_priorbox
I0917 17:29:49.026666 19620 net.cpp:150] Setting up fc7_mbox_priorbox
I0917 17:29:49.026670 19620 net.cpp:157] Top shape: 1 2 9504 (19008)
I0917 17:29:49.026674 19620 net.cpp:165] Memory required for data: 1109031456
I0917 17:29:49.026676 19620 layer_factory.hpp:77] Creating layer conv6_2_mbox_loc
I0917 17:29:49.026682 19620 net.cpp:100] Creating Layer conv6_2_mbox_loc
I0917 17:29:49.026686 19620 net.cpp:434] conv6_2_mbox_loc <- conv6_2_conv6_2_relu_0_split_1
I0917 17:29:49.026690 19620 net.cpp:408] conv6_2_mbox_loc -> conv6_2_mbox_loc
I0917 17:29:49.028940 19620 net.cpp:150] Setting up conv6_2_mbox_loc
I0917 17:29:49.028949 19620 net.cpp:157] Top shape: 4 24 9 11 (9504)
I0917 17:29:49.028952 19620 net.cpp:165] Memory required for data: 1109069472
I0917 17:29:49.028957 19620 layer_factory.hpp:77] Creating layer conv6_2_mbox_loc_perm
I0917 17:29:49.028964 19620 net.cpp:100] Creating Layer conv6_2_mbox_loc_perm
I0917 17:29:49.028978 19620 net.cpp:434] conv6_2_mbox_loc_perm <- conv6_2_mbox_loc
I0917 17:29:49.028983 19620 net.cpp:408] conv6_2_mbox_loc_perm -> conv6_2_mbox_loc_perm
I0917 17:29:49.029119 19620 net.cpp:150] Setting up conv6_2_mbox_loc_perm
I0917 17:29:49.029122 19620 net.cpp:157] Top shape: 4 9 11 24 (9504)
I0917 17:29:49.029126 19620 net.cpp:165] Memory required for data: 1109107488
I0917 17:29:49.029129 19620 layer_factory.hpp:77] Creating layer conv6_2_mbox_loc_flat
I0917 17:29:49.029132 19620 net.cpp:100] Creating Layer conv6_2_mbox_loc_flat
I0917 17:29:49.029135 19620 net.cpp:434] conv6_2_mbox_loc_flat <- conv6_2_mbox_loc_perm
I0917 17:29:49.029139 19620 net.cpp:408] conv6_2_mbox_loc_flat -> conv6_2_mbox_loc_flat
I0917 17:29:49.029163 19620 net.cpp:150] Setting up conv6_2_mbox_loc_flat
I0917 17:29:49.029166 19620 net.cpp:157] Top shape: 4 2376 (9504)
I0917 17:29:49.029170 19620 net.cpp:165] Memory required for data: 1109145504
I0917 17:29:49.029172 19620 layer_factory.hpp:77] Creating layer conv6_2_mbox_conf
I0917 17:29:49.029177 19620 net.cpp:100] Creating Layer conv6_2_mbox_conf
I0917 17:29:49.029181 19620 net.cpp:434] conv6_2_mbox_conf <- conv6_2_conv6_2_relu_0_split_2
I0917 17:29:49.029183 19620 net.cpp:408] conv6_2_mbox_conf -> conv6_2_mbox_conf
I0917 17:29:49.031298 19620 net.cpp:150] Setting up conv6_2_mbox_conf
I0917 17:29:49.031307 19620 net.cpp:157] Top shape: 4 12 9 11 (4752)
I0917 17:29:49.031311 19620 net.cpp:165] Memory required for data: 1109164512
I0917 17:29:49.031317 19620 layer_factory.hpp:77] Creating layer conv6_2_mbox_conf_perm
I0917 17:29:49.031323 19620 net.cpp:100] Creating Layer conv6_2_mbox_conf_perm
I0917 17:29:49.031327 19620 net.cpp:434] conv6_2_mbox_conf_perm <- conv6_2_mbox_conf
I0917 17:29:49.031332 19620 net.cpp:408] conv6_2_mbox_conf_perm -> conv6_2_mbox_conf_perm
I0917 17:29:49.031469 19620 net.cpp:150] Setting up conv6_2_mbox_conf_perm
I0917 17:29:49.031476 19620 net.cpp:157] Top shape: 4 9 11 12 (4752)
I0917 17:29:49.031478 19620 net.cpp:165] Memory required for data: 1109183520
I0917 17:29:49.031481 19620 layer_factory.hpp:77] Creating layer conv6_2_mbox_conf_flat
I0917 17:29:49.031486 19620 net.cpp:100] Creating Layer conv6_2_mbox_conf_flat
I0917 17:29:49.031489 19620 net.cpp:434] conv6_2_mbox_conf_flat <- conv6_2_mbox_conf_perm
I0917 17:29:49.031492 19620 net.cpp:408] conv6_2_mbox_conf_flat -> conv6_2_mbox_conf_flat
I0917 17:29:49.031517 19620 net.cpp:150] Setting up conv6_2_mbox_conf_flat
I0917 17:29:49.031519 19620 net.cpp:157] Top shape: 4 1188 (4752)
I0917 17:29:49.031522 19620 net.cpp:165] Memory required for data: 1109202528
I0917 17:29:49.031524 19620 layer_factory.hpp:77] Creating layer conv6_2_mbox_priorbox
I0917 17:29:49.031530 19620 net.cpp:100] Creating Layer conv6_2_mbox_priorbox
I0917 17:29:49.031533 19620 net.cpp:434] conv6_2_mbox_priorbox <- conv6_2_conv6_2_relu_0_split_3
I0917 17:29:49.031538 19620 net.cpp:434] conv6_2_mbox_priorbox <- data_data_0_split_3
I0917 17:29:49.031541 19620 net.cpp:408] conv6_2_mbox_priorbox -> conv6_2_mbox_priorbox
I0917 17:29:49.031567 19620 net.cpp:150] Setting up conv6_2_mbox_priorbox
I0917 17:29:49.031571 19620 net.cpp:157] Top shape: 1 2 2376 (4752)
I0917 17:29:49.031574 19620 net.cpp:165] Memory required for data: 1109221536
I0917 17:29:49.031577 19620 layer_factory.hpp:77] Creating layer conv7_2_mbox_loc
I0917 17:29:49.031584 19620 net.cpp:100] Creating Layer conv7_2_mbox_loc
I0917 17:29:49.031587 19620 net.cpp:434] conv7_2_mbox_loc <- conv7_2_conv7_2_relu_0_split_1
I0917 17:29:49.031591 19620 net.cpp:408] conv7_2_mbox_loc -> conv7_2_mbox_loc
I0917 17:29:49.035161 19620 net.cpp:150] Setting up conv7_2_mbox_loc
I0917 17:29:49.035171 19620 net.cpp:157] Top shape: 4 24 5 6 (2880)
I0917 17:29:49.035176 19620 net.cpp:165] Memory required for data: 1109233056
I0917 17:29:49.035181 19620 layer_factory.hpp:77] Creating layer conv7_2_mbox_loc_perm
I0917 17:29:49.035187 19620 net.cpp:100] Creating Layer conv7_2_mbox_loc_perm
I0917 17:29:49.035190 19620 net.cpp:434] conv7_2_mbox_loc_perm <- conv7_2_mbox_loc
I0917 17:29:49.035210 19620 net.cpp:408] conv7_2_mbox_loc_perm -> conv7_2_mbox_loc_perm
I0917 17:29:49.035354 19620 net.cpp:150] Setting up conv7_2_mbox_loc_perm
I0917 17:29:49.035358 19620 net.cpp:157] Top shape: 4 5 6 24 (2880)
I0917 17:29:49.035362 19620 net.cpp:165] Memory required for data: 1109244576
I0917 17:29:49.035364 19620 layer_factory.hpp:77] Creating layer conv7_2_mbox_loc_flat
I0917 17:29:49.035368 19620 net.cpp:100] Creating Layer conv7_2_mbox_loc_flat
I0917 17:29:49.035372 19620 net.cpp:434] conv7_2_mbox_loc_flat <- conv7_2_mbox_loc_perm
I0917 17:29:49.035375 19620 net.cpp:408] conv7_2_mbox_loc_flat -> conv7_2_mbox_loc_flat
I0917 17:29:49.035399 19620 net.cpp:150] Setting up conv7_2_mbox_loc_flat
I0917 17:29:49.035403 19620 net.cpp:157] Top shape: 4 720 (2880)
I0917 17:29:49.035406 19620 net.cpp:165] Memory required for data: 1109256096
I0917 17:29:49.035408 19620 layer_factory.hpp:77] Creating layer conv7_2_mbox_conf
I0917 17:29:49.035418 19620 net.cpp:100] Creating Layer conv7_2_mbox_conf
I0917 17:29:49.035420 19620 net.cpp:434] conv7_2_mbox_conf <- conv7_2_conv7_2_relu_0_split_2
I0917 17:29:49.035424 19620 net.cpp:408] conv7_2_mbox_conf -> conv7_2_mbox_conf
I0917 17:29:49.037403 19620 net.cpp:150] Setting up conv7_2_mbox_conf
I0917 17:29:49.037410 19620 net.cpp:157] Top shape: 4 12 5 6 (1440)
I0917 17:29:49.037415 19620 net.cpp:165] Memory required for data: 1109261856
I0917 17:29:49.037418 19620 layer_factory.hpp:77] Creating layer conv7_2_mbox_conf_perm
I0917 17:29:49.037425 19620 net.cpp:100] Creating Layer conv7_2_mbox_conf_perm
I0917 17:29:49.037427 19620 net.cpp:434] conv7_2_mbox_conf_perm <- conv7_2_mbox_conf
I0917 17:29:49.037431 19620 net.cpp:408] conv7_2_mbox_conf_perm -> conv7_2_mbox_conf_perm
I0917 17:29:49.037562 19620 net.cpp:150] Setting up conv7_2_mbox_conf_perm
I0917 17:29:49.037567 19620 net.cpp:157] Top shape: 4 5 6 12 (1440)
I0917 17:29:49.037570 19620 net.cpp:165] Memory required for data: 1109267616
I0917 17:29:49.037572 19620 layer_factory.hpp:77] Creating layer conv7_2_mbox_conf_flat
I0917 17:29:49.037577 19620 net.cpp:100] Creating Layer conv7_2_mbox_conf_flat
I0917 17:29:49.037580 19620 net.cpp:434] conv7_2_mbox_conf_flat <- conv7_2_mbox_conf_perm
I0917 17:29:49.037583 19620 net.cpp:408] conv7_2_mbox_conf_flat -> conv7_2_mbox_conf_flat
I0917 17:29:49.037608 19620 net.cpp:150] Setting up conv7_2_mbox_conf_flat
I0917 17:29:49.037611 19620 net.cpp:157] Top shape: 4 360 (1440)
I0917 17:29:49.037614 19620 net.cpp:165] Memory required for data: 1109273376
I0917 17:29:49.037617 19620 layer_factory.hpp:77] Creating layer conv7_2_mbox_priorbox
I0917 17:29:49.037622 19620 net.cpp:100] Creating Layer conv7_2_mbox_priorbox
I0917 17:29:49.037626 19620 net.cpp:434] conv7_2_mbox_priorbox <- conv7_2_conv7_2_relu_0_split_3
I0917 17:29:49.037628 19620 net.cpp:434] conv7_2_mbox_priorbox <- data_data_0_split_4
I0917 17:29:49.037632 19620 net.cpp:408] conv7_2_mbox_priorbox -> conv7_2_mbox_priorbox
I0917 17:29:49.037658 19620 net.cpp:150] Setting up conv7_2_mbox_priorbox
I0917 17:29:49.037662 19620 net.cpp:157] Top shape: 1 2 720 (1440)
I0917 17:29:49.037665 19620 net.cpp:165] Memory required for data: 1109279136
I0917 17:29:49.037667 19620 layer_factory.hpp:77] Creating layer conv8_2_mbox_loc
I0917 17:29:49.037675 19620 net.cpp:100] Creating Layer conv8_2_mbox_loc
I0917 17:29:49.037679 19620 net.cpp:434] conv8_2_mbox_loc <- conv8_2_conv8_2_relu_0_split_1
I0917 17:29:49.037683 19620 net.cpp:408] conv8_2_mbox_loc -> conv8_2_mbox_loc
I0917 17:29:49.039714 19620 net.cpp:150] Setting up conv8_2_mbox_loc
I0917 17:29:49.039722 19620 net.cpp:157] Top shape: 4 16 3 4 (768)
I0917 17:29:49.039726 19620 net.cpp:165] Memory required for data: 1109282208
I0917 17:29:49.039736 19620 layer_factory.hpp:77] Creating layer conv8_2_mbox_loc_perm
I0917 17:29:49.039742 19620 net.cpp:100] Creating Layer conv8_2_mbox_loc_perm
I0917 17:29:49.039746 19620 net.cpp:434] conv8_2_mbox_loc_perm <- conv8_2_mbox_loc
I0917 17:29:49.039749 19620 net.cpp:408] conv8_2_mbox_loc_perm -> conv8_2_mbox_loc_perm
I0917 17:29:49.039894 19620 net.cpp:150] Setting up conv8_2_mbox_loc_perm
I0917 17:29:49.039899 19620 net.cpp:157] Top shape: 4 3 4 16 (768)
I0917 17:29:49.039902 19620 net.cpp:165] Memory required for data: 1109285280
I0917 17:29:49.039904 19620 layer_factory.hpp:77] Creating layer conv8_2_mbox_loc_flat
I0917 17:29:49.039909 19620 net.cpp:100] Creating Layer conv8_2_mbox_loc_flat
I0917 17:29:49.039912 19620 net.cpp:434] conv8_2_mbox_loc_flat <- conv8_2_mbox_loc_perm
I0917 17:29:49.039916 19620 net.cpp:408] conv8_2_mbox_loc_flat -> conv8_2_mbox_loc_flat
I0917 17:29:49.039940 19620 net.cpp:150] Setting up conv8_2_mbox_loc_flat
I0917 17:29:49.039944 19620 net.cpp:157] Top shape: 4 192 (768)
I0917 17:29:49.039947 19620 net.cpp:165] Memory required for data: 1109288352
I0917 17:29:49.039949 19620 layer_factory.hpp:77] Creating layer conv8_2_mbox_conf
I0917 17:29:49.039955 19620 net.cpp:100] Creating Layer conv8_2_mbox_conf
I0917 17:29:49.039958 19620 net.cpp:434] conv8_2_mbox_conf <- conv8_2_conv8_2_relu_0_split_2
I0917 17:29:49.039963 19620 net.cpp:408] conv8_2_mbox_conf -> conv8_2_mbox_conf
I0917 17:29:49.042742 19620 net.cpp:150] Setting up conv8_2_mbox_conf
I0917 17:29:49.042750 19620 net.cpp:157] Top shape: 4 8 3 4 (384)
I0917 17:29:49.042754 19620 net.cpp:165] Memory required for data: 1109289888
I0917 17:29:49.042758 19620 layer_factory.hpp:77] Creating layer conv8_2_mbox_conf_perm
I0917 17:29:49.042767 19620 net.cpp:100] Creating Layer conv8_2_mbox_conf_perm
I0917 17:29:49.042770 19620 net.cpp:434] conv8_2_mbox_conf_perm <- conv8_2_mbox_conf
I0917 17:29:49.042774 19620 net.cpp:408] conv8_2_mbox_conf_perm -> conv8_2_mbox_conf_perm
I0917 17:29:49.042906 19620 net.cpp:150] Setting up conv8_2_mbox_conf_perm
I0917 17:29:49.042910 19620 net.cpp:157] Top shape: 4 3 4 8 (384)
I0917 17:29:49.042913 19620 net.cpp:165] Memory required for data: 1109291424
I0917 17:29:49.042917 19620 layer_factory.hpp:77] Creating layer conv8_2_mbox_conf_flat
I0917 17:29:49.042922 19620 net.cpp:100] Creating Layer conv8_2_mbox_conf_flat
I0917 17:29:49.042925 19620 net.cpp:434] conv8_2_mbox_conf_flat <- conv8_2_mbox_conf_perm
I0917 17:29:49.042928 19620 net.cpp:408] conv8_2_mbox_conf_flat -> conv8_2_mbox_conf_flat
I0917 17:29:49.042954 19620 net.cpp:150] Setting up conv8_2_mbox_conf_flat
I0917 17:29:49.042958 19620 net.cpp:157] Top shape: 4 96 (384)
I0917 17:29:49.042960 19620 net.cpp:165] Memory required for data: 1109292960
I0917 17:29:49.042963 19620 layer_factory.hpp:77] Creating layer conv8_2_mbox_priorbox
I0917 17:29:49.042968 19620 net.cpp:100] Creating Layer conv8_2_mbox_priorbox
I0917 17:29:49.042970 19620 net.cpp:434] conv8_2_mbox_priorbox <- conv8_2_conv8_2_relu_0_split_3
I0917 17:29:49.042973 19620 net.cpp:434] conv8_2_mbox_priorbox <- data_data_0_split_5
I0917 17:29:49.042977 19620 net.cpp:408] conv8_2_mbox_priorbox -> conv8_2_mbox_priorbox
I0917 17:29:49.043004 19620 net.cpp:150] Setting up conv8_2_mbox_priorbox
I0917 17:29:49.043007 19620 net.cpp:157] Top shape: 1 2 192 (384)
I0917 17:29:49.043010 19620 net.cpp:165] Memory required for data: 1109294496
I0917 17:29:49.043012 19620 layer_factory.hpp:77] Creating layer conv9_2_mbox_loc
I0917 17:29:49.043020 19620 net.cpp:100] Creating Layer conv9_2_mbox_loc
I0917 17:29:49.043023 19620 net.cpp:434] conv9_2_mbox_loc <- conv9_2_conv9_2_relu_0_split_0
I0917 17:29:49.043027 19620 net.cpp:408] conv9_2_mbox_loc -> conv9_2_mbox_loc
I0917 17:29:49.045145 19620 net.cpp:150] Setting up conv9_2_mbox_loc
I0917 17:29:49.045153 19620 net.cpp:157] Top shape: 4 16 1 2 (128)
I0917 17:29:49.045156 19620 net.cpp:165] Memory required for data: 1109295008
I0917 17:29:49.045161 19620 layer_factory.hpp:77] Creating layer conv9_2_mbox_loc_perm
I0917 17:29:49.045166 19620 net.cpp:100] Creating Layer conv9_2_mbox_loc_perm
I0917 17:29:49.045168 19620 net.cpp:434] conv9_2_mbox_loc_perm <- conv9_2_mbox_loc
I0917 17:29:49.045173 19620 net.cpp:408] conv9_2_mbox_loc_perm -> conv9_2_mbox_loc_perm
I0917 17:29:49.045308 19620 net.cpp:150] Setting up conv9_2_mbox_loc_perm
I0917 17:29:49.045312 19620 net.cpp:157] Top shape: 4 1 2 16 (128)
I0917 17:29:49.045325 19620 net.cpp:165] Memory required for data: 1109295520
I0917 17:29:49.045327 19620 layer_factory.hpp:77] Creating layer conv9_2_mbox_loc_flat
I0917 17:29:49.045332 19620 net.cpp:100] Creating Layer conv9_2_mbox_loc_flat
I0917 17:29:49.045336 19620 net.cpp:434] conv9_2_mbox_loc_flat <- conv9_2_mbox_loc_perm
I0917 17:29:49.045341 19620 net.cpp:408] conv9_2_mbox_loc_flat -> conv9_2_mbox_loc_flat
I0917 17:29:49.045365 19620 net.cpp:150] Setting up conv9_2_mbox_loc_flat
I0917 17:29:49.045369 19620 net.cpp:157] Top shape: 4 32 (128)
I0917 17:29:49.045372 19620 net.cpp:165] Memory required for data: 1109296032
I0917 17:29:49.045374 19620 layer_factory.hpp:77] Creating layer conv9_2_mbox_conf
I0917 17:29:49.045382 19620 net.cpp:100] Creating Layer conv9_2_mbox_conf
I0917 17:29:49.045385 19620 net.cpp:434] conv9_2_mbox_conf <- conv9_2_conv9_2_relu_0_split_1
I0917 17:29:49.045389 19620 net.cpp:408] conv9_2_mbox_conf -> conv9_2_mbox_conf
I0917 17:29:49.047422 19620 net.cpp:150] Setting up conv9_2_mbox_conf
I0917 17:29:49.047430 19620 net.cpp:157] Top shape: 4 8 1 2 (64)
I0917 17:29:49.047433 19620 net.cpp:165] Memory required for data: 1109296288
I0917 17:29:49.047438 19620 layer_factory.hpp:77] Creating layer conv9_2_mbox_conf_perm
I0917 17:29:49.047444 19620 net.cpp:100] Creating Layer conv9_2_mbox_conf_perm
I0917 17:29:49.047448 19620 net.cpp:434] conv9_2_mbox_conf_perm <- conv9_2_mbox_conf
I0917 17:29:49.047452 19620 net.cpp:408] conv9_2_mbox_conf_perm -> conv9_2_mbox_conf_perm
I0917 17:29:49.047591 19620 net.cpp:150] Setting up conv9_2_mbox_conf_perm
I0917 17:29:49.047595 19620 net.cpp:157] Top shape: 4 1 2 8 (64)
I0917 17:29:49.047598 19620 net.cpp:165] Memory required for data: 1109296544
I0917 17:29:49.047601 19620 layer_factory.hpp:77] Creating layer conv9_2_mbox_conf_flat
I0917 17:29:49.047605 19620 net.cpp:100] Creating Layer conv9_2_mbox_conf_flat
I0917 17:29:49.047607 19620 net.cpp:434] conv9_2_mbox_conf_flat <- conv9_2_mbox_conf_perm
I0917 17:29:49.047612 19620 net.cpp:408] conv9_2_mbox_conf_flat -> conv9_2_mbox_conf_flat
I0917 17:29:49.047637 19620 net.cpp:150] Setting up conv9_2_mbox_conf_flat
I0917 17:29:49.047641 19620 net.cpp:157] Top shape: 4 16 (64)
I0917 17:29:49.047644 19620 net.cpp:165] Memory required for data: 1109296800
I0917 17:29:49.047647 19620 layer_factory.hpp:77] Creating layer conv9_2_mbox_priorbox
I0917 17:29:49.047652 19620 net.cpp:100] Creating Layer conv9_2_mbox_priorbox
I0917 17:29:49.047655 19620 net.cpp:434] conv9_2_mbox_priorbox <- conv9_2_conv9_2_relu_0_split_2
I0917 17:29:49.047659 19620 net.cpp:434] conv9_2_mbox_priorbox <- data_data_0_split_6
I0917 17:29:49.047662 19620 net.cpp:408] conv9_2_mbox_priorbox -> conv9_2_mbox_priorbox
I0917 17:29:49.047689 19620 net.cpp:150] Setting up conv9_2_mbox_priorbox
I0917 17:29:49.047693 19620 net.cpp:157] Top shape: 1 2 32 (64)
I0917 17:29:49.047696 19620 net.cpp:165] Memory required for data: 1109297056
I0917 17:29:49.047698 19620 layer_factory.hpp:77] Creating layer mbox_loc
I0917 17:29:49.047703 19620 net.cpp:100] Creating Layer mbox_loc
I0917 17:29:49.047708 19620 net.cpp:434] mbox_loc <- conv4_3_norm_mbox_loc_flat
I0917 17:29:49.047710 19620 net.cpp:434] mbox_loc <- fc7_mbox_loc_flat
I0917 17:29:49.047714 19620 net.cpp:434] mbox_loc <- conv6_2_mbox_loc_flat
I0917 17:29:49.047718 19620 net.cpp:434] mbox_loc <- conv7_2_mbox_loc_flat
I0917 17:29:49.047720 19620 net.cpp:434] mbox_loc <- conv8_2_mbox_loc_flat
I0917 17:29:49.047722 19620 net.cpp:434] mbox_loc <- conv9_2_mbox_loc_flat
I0917 17:29:49.047726 19620 net.cpp:408] mbox_loc -> mbox_loc
I0917 17:29:49.047755 19620 net.cpp:150] Setting up mbox_loc
I0917 17:29:49.047760 19620 net.cpp:157] Top shape: 4 38168 (152672)
I0917 17:29:49.047762 19620 net.cpp:165] Memory required for data: 1109907744
I0917 17:29:49.047765 19620 layer_factory.hpp:77] Creating layer mbox_conf
I0917 17:29:49.047770 19620 net.cpp:100] Creating Layer mbox_conf
I0917 17:29:49.047773 19620 net.cpp:434] mbox_conf <- conv4_3_norm_mbox_conf_flat
I0917 17:29:49.047776 19620 net.cpp:434] mbox_conf <- fc7_mbox_conf_flat
I0917 17:29:49.047789 19620 net.cpp:434] mbox_conf <- conv6_2_mbox_conf_flat
I0917 17:29:49.047793 19620 net.cpp:434] mbox_conf <- conv7_2_mbox_conf_flat
I0917 17:29:49.047796 19620 net.cpp:434] mbox_conf <- conv8_2_mbox_conf_flat
I0917 17:29:49.047798 19620 net.cpp:434] mbox_conf <- conv9_2_mbox_conf_flat
I0917 17:29:49.047802 19620 net.cpp:408] mbox_conf -> mbox_conf
I0917 17:29:49.047828 19620 net.cpp:150] Setting up mbox_conf
I0917 17:29:49.047832 19620 net.cpp:157] Top shape: 4 19084 (76336)
I0917 17:29:49.047834 19620 net.cpp:165] Memory required for data: 1110213088
I0917 17:29:49.047837 19620 layer_factory.hpp:77] Creating layer mbox_priorbox
I0917 17:29:49.047840 19620 net.cpp:100] Creating Layer mbox_priorbox
I0917 17:29:49.047843 19620 net.cpp:434] mbox_priorbox <- conv4_3_norm_mbox_priorbox
I0917 17:29:49.047847 19620 net.cpp:434] mbox_priorbox <- fc7_mbox_priorbox
I0917 17:29:49.047849 19620 net.cpp:434] mbox_priorbox <- conv6_2_mbox_priorbox
I0917 17:29:49.047852 19620 net.cpp:434] mbox_priorbox <- conv7_2_mbox_priorbox
I0917 17:29:49.047854 19620 net.cpp:434] mbox_priorbox <- conv8_2_mbox_priorbox
I0917 17:29:49.047857 19620 net.cpp:434] mbox_priorbox <- conv9_2_mbox_priorbox
I0917 17:29:49.047860 19620 net.cpp:408] mbox_priorbox -> mbox_priorbox
I0917 17:29:49.047886 19620 net.cpp:150] Setting up mbox_priorbox
I0917 17:29:49.047889 19620 net.cpp:157] Top shape: 1 2 38168 (76336)
I0917 17:29:49.047893 19620 net.cpp:165] Memory required for data: 1110518432
I0917 17:29:49.047895 19620 layer_factory.hpp:77] Creating layer mbox_conf_reshape
I0917 17:29:49.047904 19620 net.cpp:100] Creating Layer mbox_conf_reshape
I0917 17:29:49.047907 19620 net.cpp:434] mbox_conf_reshape <- mbox_conf
I0917 17:29:49.047911 19620 net.cpp:408] mbox_conf_reshape -> mbox_conf_reshape
I0917 17:29:49.047942 19620 net.cpp:150] Setting up mbox_conf_reshape
I0917 17:29:49.047945 19620 net.cpp:157] Top shape: 4 9542 2 (76336)
I0917 17:29:49.047948 19620 net.cpp:165] Memory required for data: 1110823776
I0917 17:29:49.047951 19620 layer_factory.hpp:77] Creating layer mbox_conf_softmax
I0917 17:29:49.047955 19620 net.cpp:100] Creating Layer mbox_conf_softmax
I0917 17:29:49.047957 19620 net.cpp:434] mbox_conf_softmax <- mbox_conf_reshape
I0917 17:29:49.047962 19620 net.cpp:408] mbox_conf_softmax -> mbox_conf_softmax
I0917 17:29:49.048440 19620 net.cpp:150] Setting up mbox_conf_softmax
I0917 17:29:49.048446 19620 net.cpp:157] Top shape: 4 9542 2 (76336)
I0917 17:29:49.048449 19620 net.cpp:165] Memory required for data: 1111129120
I0917 17:29:49.048452 19620 layer_factory.hpp:77] Creating layer mbox_conf_flatten
I0917 17:29:49.048456 19620 net.cpp:100] Creating Layer mbox_conf_flatten
I0917 17:29:49.048460 19620 net.cpp:434] mbox_conf_flatten <- mbox_conf_softmax
I0917 17:29:49.048462 19620 net.cpp:408] mbox_conf_flatten -> mbox_conf_flatten
I0917 17:29:49.048491 19620 net.cpp:150] Setting up mbox_conf_flatten
I0917 17:29:49.048494 19620 net.cpp:157] Top shape: 4 19084 (76336)
I0917 17:29:49.048497 19620 net.cpp:165] Memory required for data: 1111434464
I0917 17:29:49.048499 19620 layer_factory.hpp:77] Creating layer detection_out
I0917 17:29:49.048509 19620 net.cpp:100] Creating Layer detection_out
I0917 17:29:49.048512 19620 net.cpp:434] detection_out <- mbox_loc
I0917 17:29:49.048516 19620 net.cpp:434] detection_out <- mbox_conf_flatten
I0917 17:29:49.048518 19620 net.cpp:434] detection_out <- mbox_priorbox
I0917 17:29:49.048522 19620 net.cpp:408] detection_out -> detection_out
I0917 17:29:49.049139 19620 net.cpp:150] Setting up detection_out
I0917 17:29:49.049145 19620 net.cpp:157] Top shape: 1 1 1 7 (7)
I0917 17:29:49.049149 19620 net.cpp:165] Memory required for data: 1111434492
I0917 17:29:49.049150 19620 layer_factory.hpp:77] Creating layer detection_eval
I0917 17:29:49.049155 19620 net.cpp:100] Creating Layer detection_eval
I0917 17:29:49.049158 19620 net.cpp:434] detection_eval <- detection_out
I0917 17:29:49.049161 19620 net.cpp:434] detection_eval <- label
I0917 17:29:49.049165 19620 net.cpp:408] detection_eval -> detection_eval
I0917 17:29:49.049530 19620 net.cpp:150] Setting up detection_eval
I0917 17:29:49.049535 19620 net.cpp:157] Top shape: 1 1 2 5 (10)
I0917 17:29:49.049538 19620 net.cpp:165] Memory required for data: 1111434532
I0917 17:29:49.049540 19620 net.cpp:228] detection_eval does not need backward computation.
I0917 17:29:49.049543 19620 net.cpp:228] detection_out does not need backward computation.
I0917 17:29:49.049546 19620 net.cpp:228] mbox_conf_flatten does not need backward computation.
I0917 17:29:49.049549 19620 net.cpp:228] mbox_conf_softmax does not need backward computation.
…
