…
      sampler {
        min_scale: 0.3
        max_scale: 1
        min_aspect_ratio: 0.5
        max_aspect_ratio: 2
      }
      sample_constraint {
        min_jaccard_overlap: 0.9
      }
      max_sample: 1
      max_trials: 50
    }
    batch_sampler {
      sampler {
        min_scale: 0.3
        max_scale: 1
        min_aspect_ratio: 0.5
        max_aspect_ratio: 2
      }
      sample_constraint {
        max_jaccard_overlap: 1
      }
      max_sample: 1
      max_trials: 50
    }
    label_map_file: "data/KITTI/labelmap_KITTI.prototxt"
  }
}
layer {
  name: "conv1_1"
  type: "Convolution"
  bottom: "data"
  top: "conv1_1"
  param {
    lr_mult: 1
    decay_mult: 1
  }
  param {
    lr_mult: 2
    decay_mult: 0
  }
  convolution_param {
    num_output: 64
    pad: 1
    kernel_size: 3
    weight_filler {
      type: "xavier"
    }
    bias_filler {
      type: "constant"
      value: 0
    }
  }
}
layer {
  name: "relu1_1"
  type: "ReLU"
  bottom: "conv1_1"
  top: "conv1_1"
}
layer {
  name: "conv1_2"
  type: "Convolution"
  bottom: "conv1_1"
  top: "conv1_2"
  param {
    lr_mult: 1
    decay_mult: 1
  }
  param {
    lr_mult: 2
    decay_mult: 0
  }
  convolution_param {
    num_output: 64
    pad: 1
    kernel_size: 3
    weight_filler {
      type: "xavier"
    }
    bias_filler {
      type: "constant"
      value: 0
    }
  }
}
layer {
  name: "relu1_2"
  type: "ReLU"
  bottom: "conv1_2"
  top: "conv1_2"
}
layer {
  name: "pool1"
  type: "Pooling"
  bottom: "conv1_2"
  top: "pool1"
  pooling_param {
    pool: MAX
    kernel_size: 2
    stride: 2
  }
}
layer {
  name: "conv2_1"
  type: "Convolution"
  bottom: "pool1"
  top: "conv2_1"
  param {
    lr_mult: 1
    decay_mult: 1
  }
  param {
    lr_mult: 2
    decay_mult: 0
  }
  convolution_param {
    num_output: 128
    pad: 1
    kernel_size: 3
    weight_filler {
      type: "xavier"
    }
    bias_filler {
      type: "constant"
      value: 0
    }
  }
}
layer {
  name: "relu2_1"
  type: "ReLU"
  bottom: "conv2_1"
  top: "conv2_1"
}
layer {
  name: "conv2_2"
  type: "Convolution"
  bottom: "conv2_1"
  top: "conv2_2"
  param {
    lr_mult: 1
    decay_mult: 1
  }
  param {
    lr_mult: 2
    decay_mult: 0
  }
  convolution_param {
    num_output: 128
    pad: 1
    kernel_size: 3
    weight_filler {
      type: "xavier"
    }
    bias_filler {
      type: "constant"
      value: 0
    }
  }
}
layer {
  name: "relu2_2"
  type: "ReLU"
  bottom: "conv2_2"
  top: "conv2_2"
}
layer {
  name: "pool2"
  type: "Pooling"
  bottom: "conv2_2"
  top: "pool2"
  pooling_param {
    pool: MAX
    kernel_size: 2
    stride: 2
  }
}
layer {
  name: "conv3_1"
  type: "Convolution"
  bottom: "pool2"
  top: "conv3_1"
  param {
    lr_mult: 1
    decay_mult: 1
  }
  param {
    lr_mult: 2
    decay_mult: 0
  }
  convolution_param {
    num_output: 256
    pad: 1
    kernel_size: 3
    weight_filler {
      type: "xavier"
    }
    bias_filler {
      type: "constant"
      value: 0
    }
  }
}
layer {
  name: "relu3_1"
  type: "ReLU"
  bottom: "conv3_1"
  top: "conv3_1"
}
layer {
  name: "conv3_2"
  type: "Convolution"
  bottom: "conv3_1"
  top: "conv3_2"
  param {
    lr_mult: 1
    decay_mult: 1
  }
  param {
    lr_mult: 2
    decay_mult: 0
  }
  convolution_param {
    num_output: 256
    pad: 1
    kernel_size: 3
    weight_filler {
      type: "xavier"
    }
    bias_filler {
      type: "constant"
      value: 0
    }
  }
}
layer {
  name: "relu3_2"
  type: "ReLU"
  bottom: "conv3_2"
  top: "conv3_2"
}
layer {
  name: "conv3_3"
  type: "Convolution"
  bottom: "conv3_2"
  top: "conv3_3"
  param {
    lr_mult: 1
    decay_mult: 1
  }
  param {
    lr_mult: 2
    decay_mult: 0
  }
  convolution_param {
    num_output: 256
    pad: 1
    kernel_size: 3
    weight_filler {
      type: "xavier"
    }
    bias_filler {
      type: "constant"
      value: 0
    }
  }
}
layer {
  name: "relu3_3"
  type: "ReLU"
  bottom: "conv3_3"
  top: "conv3_3"
}
layer {
  name: "pool3"
  type: "Pooling"
  bottom: "conv3_3"
  top: "pool3"
  pooling_param {
    pool: MAX
    kernel_size: 2
    stride: 2
  }
}
layer {
  name: "conv4_1"
  type: "Convolution"
  bottom: "pool3"
  top: "conv4_1"
  param {
    lr_mult: 1
    decay_mult: 1
  }
  param {
    lr_mult: 2
    decay_mult: 0
  }
  convolution_param {
    num_output: 512
    pad: 1
    kernel_size: 3
    weight_filler {
      type: "xavier"
    }
    bias_filler {
      type: "constant"
      value: 0
    }
  }
}
layer {
  name: "relu4_1"
  type: "ReLU"
  bottom: "conv4_1"
  top: "conv4_1"
}
layer {
  name: "conv4_2"
  type: "Convolution"
  bottom: "conv4_1"
  top: "conv4_2"
  param {
    lr_mult: 1
    decay_mult: 1
  }
  param {
    lr_mult: 2
    decay_mult: 0
  }
  convolution_param {
    num_output: 512
    pad: 1
    kernel_size: 3
    weight_filler {
      type: "xavier"
    }
    bias_filler {
      type: "constant"
      value: 0
    }
  }
}
layer {
  name: "relu4_2"
  type: "ReLU"
  bottom: "conv4_2"
  top: "conv4_2"
}
layer {
  name: "conv4_3"
  type: "Convolution"
  bottom: "conv4_2"
  top: "conv4_3"
  param {
    lr_mult: 1
    decay_mult: 1
  }
  param {
    lr_mult: 2
    decay_mult: 0
  }
  convolution_param {
    num_output: 512
    pad: 1
    kernel_size: 3
    weight_filler {
      type: "xavier"
    }
    bias_filler {
      type: "constant"
      value: 0
    }
  }
}
layer {
  name: "relu4_3"
  type: "ReLU"
  bottom: "conv4_3"
  top: "conv4_3"
}
layer {
  name: "pool4"
  type: "Pooling"
  bottom: "conv4_3"
  top: "pool4"
  pooling_param {
    pool: MAX
    kernel_size: 2
    stride: 2
  }
}
layer {
  name: "conv5_1"
  type: "Convolution"
  bottom: "pool4"
  top: "conv5_1"
  param {
    lr_mult: 1
    decay_mult: 1
  }
  param {
    lr_mult: 2
    decay_mult: 0
  }
  convolution_param {
    num_output: 512
    pad: 1
    kernel_size: 3
    weight_filler {
      type: "xavier"
    }
    bias_filler {
      type: "constant"
      value: 0
    }
    dilation: 1
  }
}
layer {
  name: "relu5_1"
  type: "ReLU"
  bottom: "conv5_1"
  top: "conv5_1"
}
layer {
  name: "conv5_2"
  type: "Convolution"
  bottom: "conv5_1"
  top: "conv5_2"
  param {
    lr_mult: 1
    decay_mult: 1
  }
  param {
    lr_mult: 2
    decay_mult: 0
  }
  convolution_param {
    num_output: 512
    pad: 1
    kernel_size: 3
    weight_filler {
      type: "xavier"
    }
    bias_filler {
      type: "constant"
      value: 0
    }
    dilation: 1
  }
}
layer {
  name: "relu5_2"
  type: "ReLU"
  bottom: "conv5_2"
  top: "conv5_2"
}
layer {
  name: "conv5_3"
  type: "Convolution"
  bottom: "conv5_2"
  top: "conv5_3"
  param {
    lr_mult: 1
    decay_mult: 1
  }
  param {
    lr_mult: 2
    decay_mult: 0
  }
  convolution_param {
    num_output: 512
    pad: 1
    kernel_size: 3
    weight_filler {
      type: "xavier"
    }
    bias_filler {
      type: "constant"
      value: 0
    }
    dilation: 1
  }
}
layer {
  name: "relu5_3"
  type: "ReLU"
  bottom: "conv5_3"
  top: "conv5_3"
}
layer {
  name: "pool5"
  type: "Pooling"
  bottom: "conv5_3"
  top: "pool5"
  pooling_param {
    pool: MAX
    kernel_size: 3
    stride: 1
    pad: 1
  }
}
layer {
  name: "fc6"
  type: "Convolution"
  bottom: "pool5"
  top: "fc6"
  param {
    lr_mult: 1
    decay_mult: 1
  }
  param {
    lr_mult: 2
    decay_mult: 0
  }
  convolution_param {
    num_output: 1024
    pad: 1
    kernel_size: 3
    weight_filler {
      type: "xavier"
    }
    bias_filler {
      type: "constant"
      value: 0
    }
    dilation: 1
  }
}
layer {
  name: "relu6"
  type: "ReLU"
  bottom: "fc6"
  top: "fc6"
}
layer {
  name: "fc7"
  type: "Convolution"
  bottom: "fc6"
  top: "fc7"
  param {
    lr_mult: 1
    decay_mult: 1
  }
  param {
    lr_mult: 2
    decay_mult: 0
  }
  convolution_param {
    num_output: 1024
    kernel_size: 1
    weight_filler {
      type: "xavier"
    }
    bias_filler {
      type: "constant"
      value: 0
    }
  }
}
layer {
  name: "relu7"
  type: "ReLU"
  bottom: "fc7"
  top: "fc7"
}
layer {
  name: "conv6_1"
  type: "Convolution"
  bottom: "fc7"
  top: "conv6_1"
  param {
    lr_mult: 1
    decay_mult: 1
  }
  param {
    lr_mult: 2
    decay_mult: 0
  }
  convolution_param {
    num_output: 256
    pad: 0
    kernel_size: 1
    stride: 1
    weight_filler {
      type: "xavier"
    }
    bias_filler {
      type: "constant"
      value: 0
    }
  }
}
layer {
  name: "conv6_1_relu"
  type: "ReLU"
  bottom: "conv6_1"
  top: "conv6_1"
}
layer {
  name: "conv6_2"
  type: "Convolution"
  bottom: "conv6_1"
  top: "conv6_2"
  param {
    lr_mult: 1
    decay_mult: 1
  }
  param {
    lr_mult: 2
    decay_mult: 0
  }
  convolution_param {
    num_output: 512
    pad: 1
    kernel_size: 3
    stride: 2
    weight_filler {
      type: "xavier"
    }
    bias_filler {
      type: "constant"
      value: 0
    }
  }
}
layer {
  name: "conv6_2_relu"
  type: "ReLU"
  bottom: "conv6_2"
  top: "conv6_2"
}
layer {
  name: "conv7_1"
  type: "Convolution"
  bottom: "conv6_2"
  top: "conv7_1"
  param {
    lr_mult: 1
    decay_mult: 1
  }
  param {
    lr_mult: 2
    decay_mult: 0
  }
  convolution_param {
    num_output: 128
    pad: 0
    kernel_size: 1
    stride: 1
    weight_filler {
      type: "xavier"
    }
    bias_filler {
      type: "constant"
      value: 0
    }
  }
}
layer {
  name: "conv7_1_relu"
  type: "ReLU"
  bottom: "conv7_1"
  top: "conv7_1"
}
layer {
  name: "conv7_2"
  type: "Convolution"
  bottom: "conv7_1"
  top: "conv7_2"
  param {
    lr_mult: 1
    decay_mult: 1
  }
  param {
    lr_mult: 2
    decay_mult: 0
  }
  convolution_param {
    num_output: 256
    pad: 1
    kernel_size: 3
    stride: 2
    weight_filler {
      type: "xavier"
    }
    bias_filler {
      type: "constant"
      value: 0
    }
  }
}
layer {
  name: "conv7_2_relu"
  type: "ReLU"
  bottom: "conv7_2"
  top: "conv7_2"
}
layer {
  name: "conv8_1"
  type: "Convolution"
  bottom: "conv7_2"
  top: "conv8_1"
  param {
    lr_mult: 1
    decay_mult: 1
  }
  param {
    lr_mult: 2
    decay_mult: 0
  }
  convolution_param {
    num_output: 128
    pad: 0
    kernel_size: 1
    stride: 1
    weight_filler {
      type: "xavier"
    }
    bias_filler {
      type: "constant"
      value: 0
    }
  }
}
layer {
  name: "conv8_1_relu"
  type: "ReLU"
  bottom: "conv8_1"
  top: "conv8_1"
}
layer {
  name: "conv8_2"
  type: "Convolution"
  bottom: "conv8_1"
  top: "conv8_2"
  param {
    lr_mult: 1
    decay_mult: 1
  }
  param {
    lr_mult: 2
    decay_mult: 0
  }
  convolution_param {
    num_output: 256
    pad: 0
    kernel_size: 3
    stride: 1
    weight_filler {
      type: "xavier"
    }
    bias_filler {
      type: "constant"
      value: 0
    }
  }
}
layer {
  name: "conv8_2_relu"
  type: "ReLU"
  bottom: "conv8_2"
  top: "conv8_2"
}
layer {
  name: "conv9_1"
  type: "Convolution"
  bottom: "conv8_2"
  top: "conv9_1"
  param {
    lr_mult: 1
    decay_mult: 1
  }
  param {
    lr_mult: 2
    decay_mult: 0
  }
  convolution_param {
    num_output: 128
    pad: 0
    kernel_size: 1
    stride: 1
    weight_filler {
      type: "xavier"
    }
    bias_filler {
      type: "constant"
      value: 0
    }
  }
}
layer {
  name: "conv9_1_relu"
  type: "ReLU"
  bottom: "conv9_1"
  top: "conv9_1"
}
layer {
  name: "conv9_2"
  type: "Convolution"
  bottom: "conv9_1"
  top: "conv9_2"
  param {
    lr_mult: 1
    decay_mult: 1
  }
  param {
    lr_mult: 2
    decay_mult: 0
  }
  convolution_param {
    num_output: 256
    pad: 0
    kernel_size: 3
    stride: 1
    weight_filler {
      type: "xavier"
    }
    bias_filler {
      type: "constant"
      value: 0
    }
  }
}
layer {
  name: "conv9_2_relu"
  type: "ReLU"
  bottom: "conv9_2"
  top: "conv9_2"
}
layer {
  name: "conv4_3_norm"
  type: "Normalize"
  bottom: "conv4_3"
  top: "conv4_3_norm"
  norm_param {
    across_spatial: false
    scale_filler {
      type: "constant"
      value: 20
    }
    channel_shared: false
  }
}
layer {
  name: "conv4_3_norm_mbox_loc"
  type: "Convolution"
  bottom: "conv4_3_norm"
  top: "conv4_3_norm_mbox_loc"
  param {
    lr_mult: 1
    decay_mult: 1
  }
  param {
    lr_mult: 2
    decay_mult: 0
  }
  convolution_param {
    num_output: 16
    pad: 1
    kernel_size: 3
    stride: 1
    weight_filler {
      type: "xavier"
    }
    bias_filler {
      type: "constant"
      value: 0
    }
  }
}
layer {
  name: "conv4_3_norm_mbox_loc_perm"
  type: "Permute"
  bottom: "conv4_3_norm_mbox_loc"
  top: "conv4_3_norm_mbox_loc_perm"
  permute_param {
    order: 0
    order: 2
    order: 3
    order: 1
  }
}
layer {
  name: "conv4_3_norm_mbox_loc_flat"
  type: "Flatten"
  bottom: "conv4_3_norm_mbox_loc_perm"
  top: "conv4_3_norm_mbox_loc_flat"
  flatten_param {
    axis: 1
  }
}
layer {
  name: "conv4_3_norm_mbox_conf"
  type: "Convolution"
  bottom: "conv4_3_norm"
  top: "conv4_3_norm_mbox_conf"
  param {
    lr_mult: 1
    decay_mult: 1
  }
  param {
    lr_mult: 2
    decay_mult: 0
  }
  convolution_param {
    num_output: 8
    pad: 1
    kernel_size: 3
    stride: 1
    weight_filler {
      type: "xavier"
    }
    bias_filler {
      type: "constant"
      value: 0
    }
  }
}
layer {
  name: "conv4_3_norm_mbox_conf_perm"
  type: "Permute"
  bottom: "conv4_3_norm_mbox_conf"
  top: "conv4_3_norm_mbox_conf_perm"
  permute_param {
    order: 0
    order: 2
    order: 3
    order: 1
  }
}
layer {
  name: "conv4_3_norm_mbox_conf_flat"
  type: "Flatten"
  bottom: "conv4_3_norm_mbox_conf_perm"
  top: "conv4_3_norm_mbox_conf_flat"
  flatten_param {
    axis: 1
  }
}
layer {
  name: "conv4_3_norm_mbox_priorbox"
  type: "PriorBox"
  bottom: "conv4_3_norm"
  bottom: "data"
  top: "conv4_3_norm_mbox_priorbox"
  prior_box_param {
    min_size: 30
    max_size: 60
    aspect_ratio: 2
    flip: true
    clip: true
    variance: 0.1
    variance: 0.1
    variance: 0.2
    variance: 0.2
    step: 8
    offset: 0.5
  }
}
layer {
  name: "fc7_mbox_loc"
  type: "Convolution"
  bottom: "fc7"
  top: "fc7_mbox_loc"
  param {
    lr_mult: 1
    decay_mult: 1
  }
  param {
    lr_mult: 2
    decay_mult: 0
  }
  convolution_param {
    num_output: 24
    pad: 1
    kernel_size: 3
    stride: 1
    weight_filler {
      type: "xavier"
    }
    bias_filler {
      type: "constant"
      value: 0
    }
  }
}
layer {
  name: "fc7_mbox_loc_perm"
  type: "Permute"
  bottom: "fc7_mbox_loc"
  top: "fc7_mbox_loc_perm"
  permute_param {
    order: 0
    order: 2
    order: 3
    order: 1
  }
}
layer {
  name: "fc7_mbox_loc_flat"
  type: "Flatten"
  bottom: "fc7_mbox_loc_perm"
  top: "fc7_mbox_loc_flat"
  flatten_param {
    axis: 1
  }
}
layer {
  name: "fc7_mbox_conf"
  type: "Convolution"
  bottom: "fc7"
  top: "fc7_mbox_conf"
  param {
    lr_mult: 1
    decay_mult: 1
  }
  param {
    lr_mult: 2
    decay_mult: 0
  }
  convolution_param {
    num_output: 12
    pad: 1
    kernel_size: 3
    stride: 1
    weight_filler {
      type: "xavier"
    }
    bias_filler {
      type: "constant"
      value: 0
    }
  }
}
layer {
  name: "fc7_mbox_conf_perm"
  type: "Permute"
  bottom: "fc7_mbox_conf"
  top: "fc7_mbox_conf_perm"
  permute_param {
    order: 0
    order: 2
    order: 3
    order: 1
  }
}
layer {
  name: "fc7_mbox_conf_flat"
  type: "Flatten"
  bottom: "fc7_mbox_conf_perm"
  top: "fc7_mbox_conf_flat"
  flatten_param {
    axis: 1
  }
}
layer {
  name: "fc7_mbox_priorbox"
  type: "PriorBox"
  bottom: "fc7"
  bottom: "data"
  top: "fc7_mbox_priorbox"
  prior_box_param {
    min_size: 60
    max_size: 111
    aspect_ratio: 2
    aspect_ratio: 3
    flip: true
    clip: true
    variance: 0.1
    variance: 0.1
    variance: 0.2
    variance: 0.2
    step: 16
    offset: 0.5
  }
}
layer {
  name: "conv6_2_mbox_loc"
  type: "Convolution"
  bottom: "conv6_2"
  top: "conv6_2_mbox_loc"
  param {
    lr_mult: 1
    decay_mult: 1
  }
  param {
    lr_mult: 2
    decay_mult: 0
  }
  convolution_param {
    num_output: 24
    pad: 1
    kernel_size: 3
    stride: 1
    weight_filler {
      type: "xavier"
    }
    bias_filler {
      type: "constant"
      value: 0
    }
  }
}
layer {
  name: "conv6_2_mbox_loc_perm"
  type: "Permute"
  bottom: "conv6_2_mbox_loc"
  top: "conv6_2_mbox_loc_perm"
  permute_param {
    order: 0
    order: 2
    order: 3
    order: 1
  }
}
layer {
  name: "conv6_2_mbox_loc_flat"
  type: "Flatten"
  bottom: "conv6_2_mbox_loc_perm"
  top: "conv6_2_mbox_loc_flat"
  flatten_param {
    axis: 1
  }
}
layer {
  name: "conv6_2_mbox_conf"
  type: "Convolution"
  bottom: "conv6_2"
  top: "conv6_2_mbox_conf"
  param {
    lr_mult: 1
    decay_mult: 1
  }
  param {
    lr_mult: 2
    decay_mult: 0
  }
  convolution_param {
    num_output: 12
    pad: 1
    kernel_size: 3
    stride: 1
    weight_filler {
      type: "xavier"
    }
    bias_filler {
      type: "constant"
      value: 0
    }
  }
}
layer {
  name: "conv6_2_mbox_conf_perm"
  type: "Permute"
  bottom: "conv6_2_mbox_conf"
  top: "conv6_2_mbox_conf_perm"
  permute_param {
    order: 0
    order: 2
    order: 3
    order: 1
  }
}
layer {
  name: "conv6_2_mbox_conf_flat"
  type: "Flatten"
  bottom: "conv6_2_mbox_conf_perm"
  top: "conv6_2_mbox_conf_flat"
  flatten_param {
    axis: 1
  }
}
layer {
  name: "conv6_2_mbox_priorbox"
  type: "PriorBox"
  bottom: "conv6_2"
  bottom: "data"
  top: "conv6_2_mbox_priorbox"
  prior_box_param {
    min_size: 111
    max_size: 162
    aspect_ratio: 2
    aspect_ratio: 3
    flip: true
    clip: true
    variance: 0.1
    variance: 0.1
    variance: 0.2
    variance: 0.2
    step: 32
    offset: 0.5
  }
}
layer {
  name: "conv7_2_mbox_loc"
  type: "Convolution"
  bottom: "conv7_2"
  top: "conv7_2_mbox_loc"
  param {
    lr_mult: 1
    decay_mult: 1
  }
  param {
    lr_mult: 2
    decay_mult: 0
  }
  convolution_param {
    num_output: 24
    pad: 1
    kernel_size: 3
    stride: 1
    weight_filler {
      type: "xavier"
    }
    bias_filler {
      type: "constant"
      value: 0
    }
  }
}
layer {
  name: "conv7_2_mbox_loc_perm"
  type: "Permute"
  bottom: "conv7_2_mbox_loc"
  top: "conv7_2_mbox_loc_perm"
  permute_param {
    order: 0
    order: 2
    order: 3
    order: 1
  }
}
layer {
  name: "conv7_2_mbox_loc_flat"
  type: "Flatten"
  bottom: "conv7_2_mbox_loc_perm"
  top: "conv7_2_mbox_loc_flat"
  flatten_param {
    axis: 1
  }
}
layer {
  name: "conv7_2_mbox_conf"
  type: "Convolution"
  bottom: "conv7_2"
  top: "conv7_2_mbox_conf"
  param {
    lr_mult: 1
    decay_mult: 1
  }
  param {
    lr_mult: 2
    decay_mult: 0
  }
  convolution_param {
    num_output: 12
    pad: 1
    kernel_size: 3
    stride: 1
    weight_filler {
      type: "xavier"
    }
    bias_filler {
      type: "constant"
      value: 0
    }
  }
}
layer {
  name: "conv7_2_mbox_conf_perm"
  type: "Permute"
  bottom: "conv7_2_mbox_conf"
  top: "conv7_2_mbox_conf_perm"
  permute_param {
    order: 0
    order: 2
    order: 3
    order: 1
  }
}
layer {
  name: "conv7_2_mbox_conf_flat"
  type: "Flatten"
  bottom: "conv7_2_mbox_conf_perm"
  top: "conv7_2_mbox_conf_flat"
  flatten_param {
    axis: 1
  }
}
layer {
  name: "conv7_2_mbox_priorbox"
  type: "PriorBox"
  bottom: "conv7_2"
  bottom: "data"
  top: "conv7_2_mbox_priorbox"
  prior_box_param {
    min_size: 162
    max_size: 213
    aspect_ratio: 2
    aspect_ratio: 3
    flip: true
    clip: true
    variance: 0.1
    variance: 0.1
    variance: 0.2
    variance: 0.2
    step: 64
    offset: 0.5
  }
}
layer {
  name: "conv8_2_mbox_loc"
  type: "Convolution"
  bottom: "conv8_2"
  top: "conv8_2_mbox_loc"
  param {
    lr_mult: 1
    decay_mult: 1
  }
  param {
    lr_mult: 2
    decay_mult: 0
  }
  convolution_param {
    num_output: 16
    pad: 1
    kernel_size: 3
    stride: 1
    weight_filler {
      type: "xavier"
    }
    bias_filler {
      type: "constant"
      value: 0
    }
  }
}
layer {
  name: "conv8_2_mbox_loc_perm"
  type: "Permute"
  bottom: "conv8_2_mbox_loc"
  top: "conv8_2_mbox_loc_perm"
  permute_param {
    order: 0
    order: 2
    order: 3
    order: 1
  }
}
layer {
  name: "conv8_2_mbox_loc_flat"
  type: "Flatten"
  bottom: "conv8_2_mbox_loc_perm"
  top: "conv8_2_mbox_loc_flat"
  flatten_param {
    axis: 1
  }
}
layer {
  name: "conv8_2_mbox_conf"
  type: "Convolution"
  bottom: "conv8_2"
  top: "conv8_2_mbox_conf"
  param {
    lr_mult: 1
    decay_mult: 1
  }
  param {
    lr_mult: 2
    decay_mult: 0
  }
  convolution_param {
    num_output: 8
    pad: 1
    kernel_size: 3
    stride: 1
    weight_filler {
      type: "xavier"
    }
    bias_filler {
      type: "constant"
      value: 0
    }
  }
}
layer {
  name: "conv8_2_mbox_conf_perm"
  type: "Permute"
  bottom: "conv8_2_mbox_conf"
  top: "conv8_2_mbox_conf_perm"
  permute_param {
    order: 0
    order: 2
    order: 3
    order: 1
  }
}
layer {
  name: "conv8_2_mbox_conf_flat"
  type: "Flatten"
  bottom: "conv8_2_mbox_conf_perm"
  top: "conv8_2_mbox_conf_flat"
  flatten_param {
    axis: 1
  }
}
layer {
  name: "conv8_2_mbox_priorbox"
  type: "PriorBox"
  bottom: "conv8_2"
  bottom: "data"
  top: "conv8_2_mbox_priorbox"
  prior_box_param {
    min_size: 213
    max_size: 264
    aspect_ratio: 2
    flip: true
    clip: true
    variance: 0.1
    variance: 0.1
    variance: 0.2
    variance: 0.2
    step: 100
    offset: 0.5
  }
}
layer {
  name: "conv9_2_mbox_loc"
  type: "Convolution"
  bottom: "conv9_2"
  top: "conv9_2_mbox_loc"
  param {
    lr_mult: 1
    decay_mult: 1
  }
  param {
    lr_mult: 2
    decay_mult: 0
  }
  convolution_param {
    num_output: 16
    pad: 1
    kernel_size: 3
    stride: 1
    weight_filler {
      type: "xavier"
    }
    bias_filler {
      type: "constant"
      value: 0
    }
  }
}
layer {
  name: "conv9_2_mbox_loc_perm"
  type: "Permute"
  bottom: "conv9_2_mbox_loc"
  top: "conv9_2_mbox_loc_perm"
  permute_param {
    order: 0
    order: 2
    order: 3
    order: 1
  }
}
layer {
  name: "conv9_2_mbox_loc_flat"
  type: "Flatten"
  bottom: "conv9_2_mbox_loc_perm"
  top: "conv9_2_mbox_loc_flat"
  flatten_param {
    axis: 1
  }
}
layer {
  name: "conv9_2_mbox_conf"
  type: "Convolution"
  bottom: "conv9_2"
  top: "conv9_2_mbox_conf"
  param {
    lr_mult: 1
    decay_mult: 1
  }
  param {
    lr_mult: 2
    decay_mult: 0
  }
  convolution_param {
    num_output: 8
    pad: 1
    kernel_size: 3
    stride: 1
    weight_filler {
      type: "xavier"
    }
    bias_filler {
      type: "constant"
      value: 0
    }
  }
}
layer {
  name: "conv9_2_mbox_conf_perm"
  type: "Permute"
  bottom: "conv9_2_mbox_conf"
  top: "conv9_2_mbox_conf_perm"
  permute_param {
    order: 0
    order: 2
    order: 3
    order: 1
  }
}
layer {
  name: "conv9_2_mbox_conf_flat"
  type: "Flatten"
  bottom: "conv9_2_mbox_conf_perm"
  top: "conv9_2_mbox_conf_flat"
  flatten_param {
    axis: 1
  }
}
layer {
  name: "conv9_2_mbox_priorbox"
  type: "PriorBox"
  bottom: "conv9_2"
  bottom: "data"
  top: "conv9_2_mbox_priorbox"
  prior_box_param {
    min_size: 264
    max_size: 315
    aspect_ratio: 2
    flip: true
    clip: true
    variance: 0.1
    variance: 0.1
    variance: 0.2
    variance: 0.2
    step: 300
    offset: 0.5
  }
}
layer {
  name: "mbox_loc"
  type: "Concat"
  bottom: "conv4_3_norm_mbox_loc_flat"
  bottom: "fc7_mbox_loc_flat"
  bottom: "conv6_2_mbox_loc_flat"
  bottom: "conv7_2_mbox_loc_flat"
  bottom: "conv8_2_mbox_loc_flat"
  bottom: "conv9_2_mbox_loc_flat"
  top: "mbox_loc"
  concat_param {
    axis: 1
  }
}
layer {
  name: "mbox_conf"
  type: "Concat"
  bottom: "conv4_3_norm_mbox_conf_flat"
  bottom: "fc7_mbox_conf_flat"
  bottom: "conv6_2_mbox_conf_flat"
  bottom: "conv7_2_mbox_conf_flat"
  bottom: "conv8_2_mbox_conf_flat"
  bottom: "conv9_2_mbox_conf_flat"
  top: "mbox_conf"
  concat_param {
    axis: 1
  }
}
layer {
  name: "mbox_priorbox"
  type: "Concat"
  bottom: "conv4_3_norm_mbox_priorbox"
  bottom: "fc7_mbox_priorbox"
  bottom: "conv6_2_mbox_priorbox"
  bottom: "conv7_2_mbox_priorbox"
  bottom: "conv8_2_mbox_priorbox"
  bottom: "conv9_2_mbox_priorbox"
  top: "mbox_priorbox"
  concat_param {
    axis: 2
  }
}
layer {
  name: "mbox_loss"
  type: "MultiBoxLoss"
  bottom: "mbox_loc"
  bottom: "mbox_conf"
  bottom: "mbox_priorbox"
  bottom: "label"
  top: "mbox_loss"
  include {
    phase: TRAIN
  }
  propagate_down: true
  propagate_down: true
  propagate_down: false
  propagate_down: false
  loss_param {
    normalization: VALID
  }
  multibox_loss_param {
    loc_loss_type: SMOOTH_L1
    conf_loss_type: SOFTMAX
    loc_weight: 1
    num_classes: 2
    share_location: true
    match_type: PER_PREDICTION
    overlap_threshold: 0.5
    use_prior_for_matching: true
    background_label_id: 0
    use_difficult_gt: true
    neg_pos_ratio: 3
    neg_overlap: 0.5
    code_type: CENTER_SIZE
    ignore_cross_boundary_bbox: false
    mining_type: MAX_NEGATIVE
  }
}
I0906 15:59:23.206149 13560 layer_factory.hpp:77] Creating layer data
I0906 15:59:23.206287 13560 net.cpp:100] Creating Layer data
I0906 15:59:23.206297 13560 net.cpp:408] data -> data
I0906 15:59:23.206329 13560 net.cpp:408] data -> label
I0906 15:59:23.206961 13579 db_lmdb.cpp:35] Opened lmdb /media/ly/data/baidunetdiskdownload/KITTI/ssd/lmdb/KITTI_train_lmdb
I0906 15:59:23.222000 13560 annotated_data_layer.cpp:62] output data size: 16,3,288,352
I0906 15:59:23.240535 13560 net.cpp:150] Setting up data
I0906 15:59:23.240553 13560 net.cpp:157] Top shape: 16 3 288 352 (4866048)
I0906 15:59:23.240561 13560 net.cpp:157] Top shape: 1 1 5 8 (40)
I0906 15:59:23.240597 13560 net.cpp:165] Memory required for data: 19464352
I0906 15:59:23.240607 13560 layer_factory.hpp:77] Creating layer data_data_0_split
I0906 15:59:23.240618 13560 net.cpp:100] Creating Layer data_data_0_split
I0906 15:59:23.240629 13560 net.cpp:434] data_data_0_split <- data
I0906 15:59:23.240640 13560 net.cpp:408] data_data_0_split -> data_data_0_split_0
I0906 15:59:23.240648 13560 net.cpp:408] data_data_0_split -> data_data_0_split_1
I0906 15:59:23.240653 13560 net.cpp:408] data_data_0_split -> data_data_0_split_2
I0906 15:59:23.240658 13560 net.cpp:408] data_data_0_split -> data_data_0_split_3
I0906 15:59:23.240662 13560 net.cpp:408] data_data_0_split -> data_data_0_split_4
I0906 15:59:23.240666 13560 net.cpp:408] data_data_0_split -> data_data_0_split_5
I0906 15:59:23.240670 13560 net.cpp:408] data_data_0_split -> data_data_0_split_6
I0906 15:59:23.240727 13560 net.cpp:150] Setting up data_data_0_split
I0906 15:59:23.240731 13560 net.cpp:157] Top shape: 16 3 288 352 (4866048)
I0906 15:59:23.240734 13560 net.cpp:157] Top shape: 16 3 288 352 (4866048)
I0906 15:59:23.240737 13560 net.cpp:157] Top shape: 16 3 288 352 (4866048)
I0906 15:59:23.240741 13560 net.cpp:157] Top shape: 16 3 288 352 (4866048)
I0906 15:59:23.240743 13560 net.cpp:157] Top shape: 16 3 288 352 (4866048)
I0906 15:59:23.240746 13560 net.cpp:157] Top shape: 16 3 288 352 (4866048)
I0906 15:59:23.240748 13560 net.cpp:157] Top shape: 16 3 288 352 (4866048)
I0906 15:59:23.240752 13560 net.cpp:165] Memory required for data: 155713696
I0906 15:59:23.240754 13560 layer_factory.hpp:77] Creating layer conv1_1
I0906 15:59:23.240765 13560 net.cpp:100] Creating Layer conv1_1
I0906 15:59:23.240768 13560 net.cpp:434] conv1_1 <- data_data_0_split_0
I0906 15:59:23.240772 13560 net.cpp:408] conv1_1 -> conv1_1
I0906 15:59:24.034271 13560 net.cpp:150] Setting up conv1_1
I0906 15:59:24.034318 13560 net.cpp:157] Top shape: 16 64 288 352 (103809024)
I0906 15:59:24.034335 13560 net.cpp:165] Memory required for data: 570949792
I0906 15:59:24.034363 13560 layer_factory.hpp:77] Creating layer relu1_1
I0906 15:59:24.034380 13560 net.cpp:100] Creating Layer relu1_1
I0906 15:59:24.034394 13560 net.cpp:434] relu1_1 <- conv1_1
I0906 15:59:24.034406 13560 net.cpp:395] relu1_1 -> conv1_1 (in-place)
I0906 15:59:24.034850 13560 net.cpp:150] Setting up relu1_1
I0906 15:59:24.034871 13560 net.cpp:157] Top shape: 16 64 288 352 (103809024)
I0906 15:59:24.034884 13560 net.cpp:165] Memory required for data: 986185888
I0906 15:59:24.034895 13560 layer_factory.hpp:77] Creating layer conv1_2
I0906 15:59:24.034915 13560 net.cpp:100] Creating Layer conv1_2
I0906 15:59:24.034927 13560 net.cpp:434] conv1_2 <- conv1_1
I0906 15:59:24.034941 13560 net.cpp:408] conv1_2 -> conv1_2
I0906 15:59:24.037597 13560 net.cpp:150] Setting up conv1_2
I0906 15:59:24.037607 13560 net.cpp:157] Top shape: 16 64 288 352 (103809024)
I0906 15:59:24.037627 13560 net.cpp:165] Memory required for data: 1401421984
I0906 15:59:24.037633 13560 layer_factory.hpp:77] Creating layer relu1_2
I0906 15:59:24.037639 13560 net.cpp:100] Creating Layer relu1_2
I0906 15:59:24.037642 13560 net.cpp:434] relu1_2 <- conv1_2
I0906 15:59:24.037645 13560 net.cpp:395] relu1_2 -> conv1_2 (in-place)
I0906 15:59:24.037947 13560 net.cpp:150] Setting up relu1_2
I0906 15:59:24.037953 13560 net.cpp:157] Top shape: 16 64 288 352 (103809024)
I0906 15:59:24.037972 13560 net.cpp:165] Memory required for data: 1816658080
I0906 15:59:24.037974 13560 layer_factory.hpp:77] Creating layer pool1
I0906 15:59:24.037979 13560 net.cpp:100] Creating Layer pool1
I0906 15:59:24.037981 13560 net.cpp:434] pool1 <- conv1_2
I0906 15:59:24.038000 13560 net.cpp:408] pool1 -> pool1
I0906 15:59:24.038059 13560 net.cpp:150] Setting up pool1
I0906 15:59:24.038064 13560 net.cpp:157] Top shape: 16 64 144 176 (25952256)
I0906 15:59:24.038081 13560 net.cpp:165] Memory required for data: 1920467104
I0906 15:59:24.038084 13560 layer_factory.hpp:77] Creating layer conv2_1
I0906 15:59:24.038103 13560 net.cpp:100] Creating Layer conv2_1
I0906 15:59:24.038106 13560 net.cpp:434] conv2_1 <- pool1
I0906 15:59:24.038141 13560 net.cpp:408] conv2_1 -> conv2_1
I0906 15:59:24.041297 13560 net.cpp:150] Setting up conv2_1
I0906 15:59:24.041306 13560 net.cpp:157] Top shape: 16 128 144 176 (51904512)
I0906 15:59:24.041326 13560 net.cpp:165] Memory required for data: 2128085152
I0906 15:59:24.041332 13560 layer_factory.hpp:77] Creating layer relu2_1
I0906 15:59:24.041369 13560 net.cpp:100] Creating Layer relu2_1
I0906 15:59:24.041373 13560 net.cpp:434] relu2_1 <- conv2_1
I0906 15:59:24.041376 13560 net.cpp:395] relu2_1 -> conv2_1 (in-place)
I0906 15:59:24.041848 13560 net.cpp:150] Setting up relu2_1
I0906 15:59:24.041855 13560 net.cpp:157] Top shape: 16 128 144 176 (51904512)
I0906 15:59:24.041874 13560 net.cpp:165] Memory required for data: 2335703200
I0906 15:59:24.041877 13560 layer_factory.hpp:77] Creating layer conv2_2
I0906 15:59:24.041903 13560 net.cpp:100] Creating Layer conv2_2
I0906 15:59:24.041906 13560 net.cpp:434] conv2_2 <- conv2_1
I0906 15:59:24.041910 13560 net.cpp:408] conv2_2 -> conv2_2
I0906 15:59:24.044154 13560 net.cpp:150] Setting up conv2_2
I0906 15:59:24.044162 13560 net.cpp:157] Top shape: 16 128 144 176 (51904512)
I0906 15:59:24.044181 13560 net.cpp:165] Memory required for data: 2543321248
I0906 15:59:24.044186 13560 layer_factory.hpp:77] Creating layer relu2_2
I0906 15:59:24.044190 13560 net.cpp:100] Creating Layer relu2_2
I0906 15:59:24.044209 13560 net.cpp:434] relu2_2 <- conv2_2
I0906 15:59:24.044211 13560 net.cpp:395] relu2_2 -> conv2_2 (in-place)
I0906 15:59:24.044591 13560 net.cpp:150] Setting up relu2_2
I0906 15:59:24.044597 13560 net.cpp:157] Top shape: 16 128 144 176 (51904512)
I0906 15:59:24.044615 13560 net.cpp:165] Memory required for data: 2750939296
I0906 15:59:24.044618 13560 layer_factory.hpp:77] Creating layer pool2
I0906 15:59:24.044625 13560 net.cpp:100] Creating Layer pool2
I0906 15:59:24.044626 13560 net.cpp:434] pool2 <- conv2_2
I0906 15:59:24.044646 13560 net.cpp:408] pool2 -> pool2
I0906 15:59:24.044692 13560 net.cpp:150] Setting up pool2
I0906 15:59:24.044697 13560 net.cpp:157] Top shape: 16 128 72 88 (12976128)
I0906 15:59:24.044713 13560 net.cpp:165] Memory required for data: 2802843808
I0906 15:59:24.044714 13560 layer_factory.hpp:77] Creating layer conv3_1
I0906 15:59:24.044736 13560 net.cpp:100] Creating Layer conv3_1
I0906 15:59:24.044739 13560 net.cpp:434] conv3_1 <- pool2
I0906 15:59:24.044742 13560 net.cpp:408] conv3_1 -> conv3_1
I0906 15:59:24.048452 13560 net.cpp:150] Setting up conv3_1
I0906 15:59:24.048463 13560 net.cpp:157] Top shape: 16 256 72 88 (25952256)
I0906 15:59:24.048482 13560 net.cpp:165] Memory required for data: 2906652832
I0906 15:59:24.048491 13560 layer_factory.hpp:77] Creating layer relu3_1
I0906 15:59:24.048496 13560 net.cpp:100] Creating Layer relu3_1
I0906 15:59:24.048499 13560 net.cpp:434] relu3_1 <- conv3_1
I0906 15:59:24.048504 13560 net.cpp:395] relu3_1 -> conv3_1 (in-place)
I0906 15:59:24.049803 13560 net.cpp:150] Setting up relu3_1
I0906 15:59:24.049811 13560 net.cpp:157] Top shape: 16 256 72 88 (25952256)
I0906 15:59:24.049831 13560 net.cpp:165] Memory required for data: 3010461856
I0906 15:59:24.049834 13560 layer_factory.hpp:77] Creating layer conv3_2
I0906 15:59:24.049845 13560 net.cpp:100] Creating Layer conv3_2
I0906 15:59:24.049849 13560 net.cpp:434] conv3_2 <- conv3_1
I0906 15:59:24.049852 13560 net.cpp:408] conv3_2 -> conv3_2
I0906 15:59:24.055218 13560 net.cpp:150] Setting up conv3_2
I0906 15:59:24.055229 13560 net.cpp:157] Top shape: 16 256 72 88 (25952256)
I0906 15:59:24.055249 13560 net.cpp:165] Memory required for data: 3114270880
I0906 15:59:24.055256 13560 layer_factory.hpp:77] Creating layer relu3_2
I0906 15:59:24.055263 13560 net.cpp:100] Creating Layer relu3_2
I0906 15:59:24.055280 13560 net.cpp:434] relu3_2 <- conv3_2
I0906 15:59:24.055284 13560 net.cpp:395] relu3_2 -> conv3_2 (in-place)
I0906 15:59:24.055655 13560 net.cpp:150] Setting up relu3_2
I0906 15:59:24.055662 13560 net.cpp:157] Top shape: 16 256 72 88 (25952256)
I0906 15:59:24.055680 13560 net.cpp:165] Memory required for data: 3218079904
I0906 15:59:24.055701 13560 layer_factory.hpp:77] Creating layer conv3_3
I0906 15:59:24.055711 13560 net.cpp:100] Creating Layer conv3_3
I0906 15:59:24.055714 13560 net.cpp:434] conv3_3 <- conv3_2
I0906 15:59:24.055718 13560 net.cpp:408] conv3_3 -> conv3_3
I0906 15:59:24.061169 13560 net.cpp:150] Setting up conv3_3
I0906 15:59:24.061218 13560 net.cpp:157] Top shape: 16 256 72 88 (25952256)
I0906 15:59:24.061233 13560 net.cpp:165] Memory required for data: 3321888928
I0906 15:59:24.061254 13560 layer_factory.hpp:77] Creating layer relu3_3
I0906 15:59:24.061271 13560 net.cpp:100] Creating Layer relu3_3
I0906 15:59:24.061285 13560 net.cpp:434] relu3_3 <- conv3_3
I0906 15:59:24.061298 13560 net.cpp:395] relu3_3 -> conv3_3 (in-place)
I0906 15:59:24.061758 13560 net.cpp:150] Setting up relu3_3
I0906 15:59:24.061765 13560 net.cpp:157] Top shape: 16 256 72 88 (25952256)
I0906 15:59:24.061769 13560 net.cpp:165] Memory required for data: 3425697952
I0906 15:59:24.061772 13560 layer_factory.hpp:77] Creating layer pool3
I0906 15:59:24.061779 13560 net.cpp:100] Creating Layer pool3
I0906 15:59:24.061781 13560 net.cpp:434] pool3 <- conv3_3
I0906 15:59:24.061786 13560 net.cpp:408] pool3 -> pool3
I0906 15:59:24.061825 13560 net.cpp:150] Setting up pool3
I0906 15:59:24.061828 13560 net.cpp:157] Top shape: 16 256 36 44 (6488064)
I0906 15:59:24.061831 13560 net.cpp:165] Memory required for data: 3451650208
I0906 15:59:24.061834 13560 layer_factory.hpp:77] Creating layer conv4_1
I0906 15:59:24.061841 13560 net.cpp:100] Creating Layer conv4_1
I0906 15:59:24.061843 13560 net.cpp:434] conv4_1 <- pool3
I0906 15:59:24.061848 13560 net.cpp:408] conv4_1 -> conv4_1
I0906 15:59:24.069692 13560 net.cpp:150] Setting up conv4_1
I0906 15:59:24.069706 13560 net.cpp:157] Top shape: 16 512 36 44 (12976128)
I0906 15:59:24.069726 13560 net.cpp:165] Memory required for data: 3503554720
I0906 15:59:24.069734 13560 layer_factory.hpp:77] Creating layer relu4_1
I0906 15:59:24.069756 13560 net.cpp:100] Creating Layer relu4_1
I0906 15:59:24.069761 13560 net.cpp:434] relu4_1 <- conv4_1
I0906 15:59:24.069766 13560 net.cpp:395] relu4_1 -> conv4_1 (in-place)
I0906 15:59:24.070288 13560 net.cpp:150] Setting up relu4_1
I0906 15:59:24.070312 13560 net.cpp:157] Top shape: 16 512 36 44 (12976128)
I0906 15:59:24.070315 13560 net.cpp:165] Memory required for data: 3555459232
I0906 15:59:24.070318 13560 layer_factory.hpp:77] Creating layer conv4_2
I0906 15:59:24.070328 13560 net.cpp:100] Creating Layer conv4_2
I0906 15:59:24.070333 13560 net.cpp:434] conv4_2 <- conv4_1
I0906 15:59:24.070338 13560 net.cpp:408] conv4_2 -> conv4_2
I0906 15:59:24.081910 13560 net.cpp:150] Setting up conv4_2
I0906 15:59:24.081926 13560 net.cpp:157] Top shape: 16 512 36 44 (12976128)
I0906 15:59:24.081948 13560 net.cpp:165] Memory required for data: 3607363744
I0906 15:59:24.081955 13560 layer_factory.hpp:77] Creating layer relu4_2
I0906 15:59:24.081964 13560 net.cpp:100] Creating Layer relu4_2
I0906 15:59:24.081969 13560 net.cpp:434] relu4_2 <- conv4_2
I0906 15:59:24.081972 13560 net.cpp:395] relu4_2 -> conv4_2 (in-place)
I0906 15:59:24.082437 13560 net.cpp:150] Setting up relu4_2
I0906 15:59:24.082443 13560 net.cpp:157] Top shape: 16 512 36 44 (12976128)
I0906 15:59:24.082448 13560 net.cpp:165] Memory required for data: 3659268256
I0906 15:59:24.082449 13560 layer_factory.hpp:77] Creating layer conv4_3
I0906 15:59:24.082460 13560 net.cpp:100] Creating Layer conv4_3
I0906 15:59:24.082463 13560 net.cpp:434] conv4_3 <- conv4_2
I0906 15:59:24.082468 13560 net.cpp:408] conv4_3 -> conv4_3
I0906 15:59:24.094552 13560 net.cpp:150] Setting up conv4_3
I0906 15:59:24.094568 13560 net.cpp:157] Top shape: 16 512 36 44 (12976128)
I0906 15:59:24.094588 13560 net.cpp:165] Memory required for data: 3711172768
I0906 15:59:24.094594 13560 layer_factory.hpp:77] Creating layer relu4_3
I0906 15:59:24.094602 13560 net.cpp:100] Creating Layer relu4_3
I0906 15:59:24.094606 13560 net.cpp:434] relu4_3 <- conv4_3
I0906 15:59:24.094611 13560 net.cpp:395] relu4_3 -> conv4_3 (in-place)
I0906 15:59:24.095882 13560 net.cpp:150] Setting up relu4_3
I0906 15:59:24.095902 13560 net.cpp:157] Top shape: 16 512 36 44 (12976128)
I0906 15:59:24.095922 13560 net.cpp:165] Memory required for data: 3763077280
I0906 15:59:24.095926 13560 layer_factory.hpp:77] Creating layer conv4_3_relu4_3_0_split
I0906 15:59:24.095933 13560 net.cpp:100] Creating Layer conv4_3_relu4_3_0_split
I0906 15:59:24.095937 13560 net.cpp:434] conv4_3_relu4_3_0_split <- conv4_3
I0906 15:59:24.095942 13560 net.cpp:408] conv4_3_relu4_3_0_split -> conv4_3_relu4_3_0_split_0
I0906 15:59:24.095947 13560 net.cpp:408] conv4_3_relu4_3_0_split -> conv4_3_relu4_3_0_split_1
I0906 15:59:24.095984 13560 net.cpp:150] Setting up conv4_3_relu4_3_0_split
I0906 15:59:24.096001 13560 net.cpp:157] Top shape: 16 512 36 44 (12976128)
I0906 15:59:24.096004 13560 net.cpp:157] Top shape: 16 512 36 44 (12976128)
I0906 15:59:24.096022 13560 net.cpp:165] Memory required for data: 3866886304
I0906 15:59:24.096024 13560 layer_factory.hpp:77] Creating layer pool4
I0906 15:59:24.096029 13560 net.cpp:100] Creating Layer pool4
I0906 15:59:24.096031 13560 net.cpp:434] pool4 <- conv4_3_relu4_3_0_split_0
I0906 15:59:24.096035 13560 net.cpp:408] pool4 -> pool4
I0906 15:59:24.096065 13560 net.cpp:150] Setting up pool4
I0906 15:59:24.096069 13560 net.cpp:157] Top shape: 16 512 18 22 (3244032)
I0906 15:59:24.096072 13560 net.cpp:165] Memory required for data: 3879862432
I0906 15:59:24.096074 13560 layer_factory.hpp:77] Creating layer conv5_1
I0906 15:59:24.096094 13560 net.cpp:100] Creating Layer conv5_1
I0906 15:59:24.096097 13560 net.cpp:434] conv5_1 <- pool4
I0906 15:59:24.096115 13560 net.cpp:408] conv5_1 -> conv5_1
I0906 15:59:24.107681 13560 net.cpp:150] Setting up conv5_1
I0906 15:59:24.107697 13560 net.cpp:157] Top shape: 16 512 18 22 (3244032)
I0906 15:59:24.107717 13560 net.cpp:165] Memory required for data: 3892838560
I0906 15:59:24.107723 13560 layer_factory.hpp:77] Creating layer relu5_1
I0906 15:59:24.107730 13560 net.cpp:100] Creating Layer relu5_1
I0906 15:59:24.107734 13560 net.cpp:434] relu5_1 <- conv5_1
I0906 15:59:24.107740 13560 net.cpp:395] relu5_1 -> conv5_1 (in-place)
I0906 15:59:24.108209 13560 net.cpp:150] Setting up relu5_1
I0906 15:59:24.108217 13560 net.cpp:157] Top shape: 16 512 18 22 (3244032)
I0906 15:59:24.108234 13560 net.cpp:165] Memory required for data: 3905814688
I0906 15:59:24.108237 13560 layer_factory.hpp:77] Creating layer conv5_2
I0906 15:59:24.108248 13560 net.cpp:100] Creating Layer conv5_2
I0906 15:59:24.108251 13560 net.cpp:434] conv5_2 <- conv5_1
I0906 15:59:24.108255 13560 net.cpp:408] conv5_2 -> conv5_2
I0906 15:59:24.119915 13560 net.cpp:150] Setting up conv5_2
I0906 15:59:24.119932 13560 net.cpp:157] Top shape: 16 512 18 22 (3244032)
I0906 15:59:24.119938 13560 net.cpp:165] Memory required for data: 3918790816
I0906 15:59:24.119944 13560 layer_factory.hpp:77] Creating layer relu5_2
I0906 15:59:24.119951 13560 net.cpp:100] Creating Layer relu5_2
I0906 15:59:24.119954 13560 net.cpp:434] relu5_2 <- conv5_2
I0906 15:59:24.119958 13560 net.cpp:395] relu5_2 -> conv5_2 (in-place)
I0906 15:59:24.120326 13560 net.cpp:150] Setting up relu5_2
I0906 15:59:24.120333 13560 net.cpp:157] Top shape: 16 512 18 22 (3244032)
I0906 15:59:24.120337 13560 net.cpp:165] Memory required for data: 3931766944
I0906 15:59:24.120339 13560 layer_factory.hpp:77] Creating layer conv5_3
I0906 15:59:24.120348 13560 net.cpp:100] Creating Layer conv5_3
I0906 15:59:24.120352 13560 net.cpp:434] conv5_3 <- conv5_2
I0906 15:59:24.120355 13560 net.cpp:408] conv5_3 -> conv5_3
I0906 15:59:24.132527 13560 net.cpp:150] Setting up conv5_3
I0906 15:59:24.132541 13560 net.cpp:157] Top shape: 16 512 18 22 (3244032)
I0906 15:59:24.132546 13560 net.cpp:165] Memory required for data: 3944743072
I0906 15:59:24.132553 13560 layer_factory.hpp:77] Creating layer relu5_3
I0906 15:59:24.132563 13560 net.cpp:100] Creating Layer relu5_3
I0906 15:59:24.132567 13560 net.cpp:434] relu5_3 <- conv5_3
I0906 15:59:24.132573 13560 net.cpp:395] relu5_3 -> conv5_3 (in-place)
I0906 15:59:24.133060 13560 net.cpp:150] Setting up relu5_3
I0906 15:59:24.133078 13560 net.cpp:157] Top shape: 16 512 18 22 (3244032)
I0906 15:59:24.133083 13560 net.cpp:165] Memory required for data: 3957719200
I0906 15:59:24.133085 13560 layer_factory.hpp:77] Creating layer pool5
I0906 15:59:24.133093 13560 net.cpp:100] Creating Layer pool5
I0906 15:59:24.133097 13560 net.cpp:434] pool5 <- conv5_3
I0906 15:59:24.133101 13560 net.cpp:408] pool5 -> pool5
I0906 15:59:24.133141 13560 net.cpp:150] Setting up pool5
I0906 15:59:24.133144 13560 net.cpp:157] Top shape: 16 512 18 22 (3244032)
I0906 15:59:24.133147 13560 net.cpp:165] Memory required for data: 3970695328
I0906 15:59:24.133150 13560 layer_factory.hpp:77] Creating layer fc6
I0906 15:59:24.133157 13560 net.cpp:100] Creating Layer fc6
I0906 15:59:24.133159 13560 net.cpp:434] fc6 <- pool5
I0906 15:59:24.133164 13560 net.cpp:408] fc6 -> fc6
I0906 15:59:24.154453 13560 net.cpp:150] Setting up fc6
I0906 15:59:24.154469 13560 net.cpp:157] Top shape: 16 1024 18 22 (6488064)
I0906 15:59:24.154475 13560 net.cpp:165] Memory required for data: 3996647584
I0906 15:59:24.154482 13560 layer_factory.hpp:77] Creating layer relu6
I0906 15:59:24.154491 13560 net.cpp:100] Creating Layer relu6
I0906 15:59:24.154495 13560 net.cpp:434] relu6 <- fc6
I0906 15:59:24.154500 13560 net.cpp:395] relu6 -> fc6 (in-place)
I0906 15:59:24.155001 13560 net.cpp:150] Setting up relu6
I0906 15:59:24.155009 13560 net.cpp:157] Top shape: 16 1024 18 22 (6488064)
I0906 15:59:24.155012 13560 net.cpp:165] Memory required for data: 4022599840
I0906 15:59:24.155015 13560 layer_factory.hpp:77] Creating layer fc7
I0906 15:59:24.155025 13560 net.cpp:100] Creating Layer fc7
I0906 15:59:24.155028 13560 net.cpp:434] fc7 <- fc6
I0906 15:59:24.155032 13560 net.cpp:408] fc7 -> fc7
I0906 15:59:24.161572 13560 net.cpp:150] Setting up fc7
I0906 15:59:24.161586 13560 net.cpp:157] Top shape: 16 1024 18 22 (6488064)
I0906 15:59:24.161592 13560 net.cpp:165] Memory required for data: 4048552096
I0906 15:59:24.161598 13560 layer_factory.hpp:77] Creating layer relu7
I0906 15:59:24.161604 13560 net.cpp:100] Creating Layer relu7
I0906 15:59:24.161607 13560 net.cpp:434] relu7 <- fc7
I0906 15:59:24.161612 13560 net.cpp:395] relu7 -> fc7 (in-place)
I0906 15:59:24.162910 13560 net.cpp:150] Setting up relu7
I0906 15:59:24.162919 13560 net.cpp:157] Top shape: 16 1024 18 22 (6488064)
I0906 15:59:24.162922 13560 net.cpp:165] Memory required for data: 4074504352
I0906 15:59:24.162925 13560 layer_factory.hpp:77] Creating layer fc7_relu7_0_split
I0906 15:59:24.162933 13560 net.cpp:100] Creating Layer fc7_relu7_0_split
I0906 15:59:24.162936 13560 net.cpp:434] fc7_relu7_0_split <- fc7
I0906 15:59:24.162941 13560 net.cpp:408] fc7_relu7_0_split -> fc7_relu7_0_split_0
I0906 15:59:24.162946 13560 net.cpp:408] fc7_relu7_0_split -> fc7_relu7_0_split_1
I0906 15:59:24.162952 13560 net.cpp:408] fc7_relu7_0_split -> fc7_relu7_0_split_2
I0906 15:59:24.162956 13560 net.cpp:408] fc7_relu7_0_split -> fc7_relu7_0_split_3
I0906 15:59:24.163017 13560 net.cpp:150] Setting up fc7_relu7_0_split
I0906 15:59:24.163022 13560 net.cpp:157] Top shape: 16 1024 18 22 (6488064)
I0906 15:59:24.163024 13560 net.cpp:157] Top shape: 16 1024 18 22 (6488064)
I0906 15:59:24.163028 13560 net.cpp:157] Top shape: 16 1024 18 22 (6488064)
I0906 15:59:24.163030 13560 net.cpp:157] Top shape: 16 1024 18 22 (6488064)
I0906 15:59:24.163033 13560 net.cpp:165] Memory required for data: 4178313376
I0906 15:59:24.163034 13560 layer_factory.hpp:77] Creating layer conv6_1
I0906 15:59:24.163043 13560 net.cpp:100] Creating Layer conv6_1
I0906 15:59:24.163045 13560 net.cpp:434] conv6_1 <- fc7_relu7_0_split_0
I0906 15:59:24.163049 13560 net.cpp:408] conv6_1 -> conv6_1
I0906 15:59:24.166955 13560 net.cpp:150] Setting up conv6_1
I0906 15:59:24.166968 13560 net.cpp:157] Top shape: 16 256 18 22 (1622016)
I0906 15:59:24.166973 13560 net.cpp:165] Memory required for data: 4184801440
I0906 15:59:24.166978 13560 layer_factory.hpp:77] Creating layer conv6_1_relu
I0906 15:59:24.166985 13560 net.cpp:100] Creating Layer conv6_1_relu
I0906 15:59:24.166988 13560 net.cpp:434] conv6_1_relu <- conv6_1
I0906 15:59:24.167009 13560 net.cpp:395] conv6_1_relu -> conv6_1 (in-place)
I0906 15:59:24.167371 13560 net.cpp:150] Setting up conv6_1_relu
I0906 15:59:24.167377 13560 net.cpp:157] Top shape: 16 256 18 22 (1622016)
I0906 15:59:24.167382 13560 net.cpp:165] Memory required for data: 4191289504
I0906 15:59:24.167383 13560 layer_factory.hpp:77] Creating layer conv6_2
I0906 15:59:24.167393 13560 net.cpp:100] Creating Layer conv6_2
I0906 15:59:24.167397 13560 net.cpp:434] conv6_2 <- conv6_1
I0906 15:59:24.167402 13560 net.cpp:408] conv6_2 -> conv6_2
I0906 15:59:24.174145 13560 net.cpp:150] Setting up conv6_2
I0906 15:59:24.174162 13560 net.cpp:157] Top shape: 16 512 9 11 (811008)
I0906 15:59:24.174167 13560 net.cpp:165] Memory required for data: 4194533536
I0906 15:59:24.174177 13560 layer_factory.hpp:77] Creating layer conv6_2_relu
I0906 15:59:24.174185 13560 net.cpp:100] Creating Layer conv6_2_relu
I0906 15:59:24.174188 13560 net.cpp:434] conv6_2_relu <- conv6_2
I0906 15:59:24.174193 13560 net.cpp:395] conv6_2_relu -> conv6_2 (in-place)
I0906 15:59:24.174563 13560 net.cpp:150] Setting up conv6_2_relu
I0906 15:59:24.174569 13560 net.cpp:157] Top shape: 16 512 9 11 (811008)
I0906 15:59:24.174572 13560 net.cpp:165] Memory required for data: 4197777568
I0906 15:59:24.174576 13560 layer_factory.hpp:77] Creating layer conv6_2_conv6_2_relu_0_split
I0906 15:59:24.174580 13560 net.cpp:100] Creating Layer conv6_2_conv6_2_relu_0_split
I0906 15:59:24.174583 13560 net.cpp:434] conv6_2_conv6_2_relu_0_split <- conv6_2
I0906 15:59:24.174587 13560 net.cpp:408] conv6_2_conv6_2_relu_0_split -> conv6_2_conv6_2_relu_0_split_0
I0906 15:59:24.174592 13560 net.cpp:408] conv6_2_conv6_2_relu_0_split -> conv6_2_conv6_2_relu_0_split_1
I0906 15:59:24.174597 13560 net.cpp:408] conv6_2_conv6_2_relu_0_split -> conv6_2_conv6_2_relu_0_split_2
I0906 15:59:24.174600 13560 net.cpp:408] conv6_2_conv6_2_relu_0_split -> conv6_2_conv6_2_relu_0_split_3
I0906 15:59:24.174662 13560 net.cpp:150] Setting up conv6_2_conv6_2_relu_0_split
I0906 15:59:24.174666 13560 net.cpp:157] Top shape: 16 512 9 11 (811008)
I0906 15:59:24.174669 13560 net.cpp:157] Top shape: 16 512 9 11 (811008)
I0906 15:59:24.174671 13560 net.cpp:157] Top shape: 16 512 9 11 (811008)
I0906 15:59:24.174674 13560 net.cpp:157] Top shape: 16 512 9 11 (811008)
I0906 15:59:24.174677 13560 net.cpp:165] Memory required for data: 4210753696
I0906 15:59:24.174679 13560 layer_factory.hpp:77] Creating layer conv7_1
I0906 15:59:24.174688 13560 net.cpp:100] Creating Layer conv7_1
I0906 15:59:24.174691 13560 net.cpp:434] conv7_1 <- conv6_2_conv6_2_relu_0_split_0
I0906 15:59:24.174695 13560 net.cpp:408] conv7_1 -> conv7_1
I0906 15:59:24.177403 13560 net.cpp:150] Setting up conv7_1
I0906 15:59:24.177414 13560 net.cpp:157] Top shape: 16 128 9 11 (202752)
I0906 15:59:24.177419 13560 net.cpp:165] Memory required for data: 4211564704
I0906 15:59:24.177424 13560 layer_factory.hpp:77] Creating layer conv7_1_relu
I0906 15:59:24.177431 13560 net.cpp:100] Creating Layer conv7_1_relu
I0906 15:59:24.177434 13560 net.cpp:434] conv7_1_relu <- conv7_1
I0906 15:59:24.177438 13560 net.cpp:395] conv7_1_relu -> conv7_1 (in-place)
I0906 15:59:24.177795 13560 net.cpp:150] Setting up conv7_1_relu
I0906 15:59:24.177801 13560 net.cpp:157] Top shape: 16 128 9 11 (202752)
I0906 15:59:24.177805 13560 net.cpp:165] Memory required for data: 4212375712
I0906 15:59:24.177808 13560 layer_factory.hpp:77] Creating layer conv7_2
I0906 15:59:24.177817 13560 net.cpp:100] Creating Layer conv7_2
I0906 15:59:24.177820 13560 net.cpp:434] conv7_2 <- conv7_1
I0906 15:59:24.177824 13560 net.cpp:408] conv7_2 -> conv7_2
I0906 15:59:24.181051 13560 net.cpp:150] Setting up conv7_2
I0906 15:59:24.181061 13560 net.cpp:157] Top shape: 16 256 5 6 (122880)
I0906 15:59:24.181066 13560 net.cpp:165] Memory required for data: 4212867232
I0906 15:59:24.181072 13560 layer_factory.hpp:77] Creating layer conv7_2_relu
I0906 15:59:24.181077 13560 net.cpp:100] Creating Layer conv7_2_relu
I0906 15:59:24.181082 13560 net.cpp:434] conv7_2_relu <- conv7_2
I0906 15:59:24.181102 13560 net.cpp:395] conv7_2_relu -> conv7_2 (in-place)
I0906 15:59:24.181478 13560 net.cpp:150] Setting up conv7_2_relu
I0906 15:59:24.181483 13560 net.cpp:157] Top shape: 16 256 5 6 (122880)
I0906 15:59:24.181488 13560 net.cpp:165] Memory required for data: 4213358752
I0906 15:59:24.181489 13560 layer_factory.hpp:77] Creating layer conv7_2_conv7_2_relu_0_split
I0906 15:59:24.181496 13560 net.cpp:100] Creating Layer conv7_2_conv7_2_relu_0_split
I0906 15:59:24.181499 13560 net.cpp:434] conv7_2_conv7_2_relu_0_split <- conv7_2
I0906 15:59:24.181504 13560 net.cpp:408] conv7_2_conv7_2_relu_0_split -> conv7_2_conv7_2_relu_0_split_0
I0906 15:59:24.181507 13560 net.cpp:408] conv7_2_conv7_2_relu_0_split -> conv7_2_conv7_2_relu_0_split_1
I0906 15:59:24.181511 13560 net.cpp:408] conv7_2_conv7_2_relu_0_split -> conv7_2_conv7_2_relu_0_split_2
I0906 15:59:24.181515 13560 net.cpp:408] conv7_2_conv7_2_relu_0_split -> conv7_2_conv7_2_relu_0_split_3
I0906 15:59:24.181576 13560 net.cpp:150] Setting up conv7_2_conv7_2_relu_0_split
I0906 15:59:24.181581 13560 net.cpp:157] Top shape: 16 256 5 6 (122880)
I0906 15:59:24.181583 13560 net.cpp:157] Top shape: 16 256 5 6 (122880)
I0906 15:59:24.181586 13560 net.cpp:157] Top shape: 16 256 5 6 (122880)
I0906 15:59:24.181588 13560 net.cpp:157] Top shape: 16 256 5 6 (122880)
I0906 15:59:24.181591 13560 net.cpp:165] Memory required for data: 4215324832
I0906 15:59:24.181593 13560 layer_factory.hpp:77] Creating layer conv8_1
I0906 15:59:24.181602 13560 net.cpp:100] Creating Layer conv8_1
I0906 15:59:24.181605 13560 net.cpp:434] conv8_1 <- conv7_2_conv7_2_relu_0_split_0
I0906 15:59:24.181608 13560 net.cpp:408] conv8_1 -> conv8_1
I0906 15:59:24.183684 13560 net.cpp:150] Setting up conv8_1
I0906 15:59:24.183692 13560 net.cpp:157] Top shape: 16 128 5 6 (61440)
I0906 15:59:24.183696 13560 net.cpp:165] Memory required for data: 4215570592
I0906 15:59:24.183701 13560 layer_factory.hpp:77] Creating layer conv8_1_relu
I0906 15:59:24.183706 13560 net.cpp:100] Creating Layer conv8_1_relu
I0906 15:59:24.183709 13560 net.cpp:434] conv8_1_relu <- conv8_1
I0906 15:59:24.183714 13560 net.cpp:395] conv8_1_relu -> conv8_1 (in-place)
I0906 15:59:24.185066 13560 net.cpp:150] Setting up conv8_1_relu
I0906 15:59:24.185075 13560 net.cpp:157] Top shape: 16 128 5 6 (61440)
I0906 15:59:24.185079 13560 net.cpp:165] Memory required for data: 4215816352
I0906 15:59:24.185082 13560 layer_factory.hpp:77] Creating layer conv8_2
I0906 15:59:24.185092 13560 net.cpp:100] Creating Layer conv8_2
I0906 15:59:24.185096 13560 net.cpp:434] conv8_2 <- conv8_1
I0906 15:59:24.185101 13560 net.cpp:408] conv8_2 -> conv8_2
I0906 15:59:24.189724 13560 net.cpp:150] Setting up conv8_2
I0906 15:59:24.189774 13560 net.cpp:157] Top shape: 16 256 3 4 (49152)
I0906 15:59:24.189790 13560 net.cpp:165] Memory required for data: 4216012960
I0906 15:59:24.189807 13560 layer_factory.hpp:77] Creating layer conv8_2_relu
I0906 15:59:24.189823 13560 net.cpp:100] Creating Layer conv8_2_relu
I0906 15:59:24.189836 13560 net.cpp:434] conv8_2_relu <- conv8_2
I0906 15:59:24.189853 13560 net.cpp:395] conv8_2_relu -> conv8_2 (in-place)
I0906 15:59:24.190366 13560 net.cpp:150] Setting up conv8_2_relu
I0906 15:59:24.190385 13560 net.cpp:157] Top shape: 16 256 3 4 (49152)
I0906 15:59:24.190398 13560 net.cpp:165] Memory required for data: 4216209568
I0906 15:59:24.190410 13560 layer_factory.hpp:77] Creating layer conv8_2_conv8_2_relu_0_split
I0906 15:59:24.190421 13560 net.cpp:100] Creating Layer conv8_2_conv8_2_relu_0_split
I0906 15:59:24.190426 13560 net.cpp:434] conv8_2_conv8_2_relu_0_split <- conv8_2
I0906 15:59:24.190431 13560 net.cpp:408] conv8_2_conv8_2_relu_0_split -> conv8_2_conv8_2_relu_0_split_0
I0906 15:59:24.190438 13560 net.cpp:408] conv8_2_conv8_2_relu_0_split -> conv8_2_conv8_2_relu_0_split_1
I0906 15:59:24.190444 13560 net.cpp:408] conv8_2_conv8_2_relu_0_split -> conv8_2_conv8_2_relu_0_split_2
I0906 15:59:24.190449 13560 net.cpp:408] conv8_2_conv8_2_relu_0_split -> conv8_2_conv8_2_relu_0_split_3
I0906 15:59:24.190529 13560 net.cpp:150] Setting up conv8_2_conv8_2_relu_0_split
I0906 15:59:24.190546 13560 net.cpp:157] Top shape: 16 256 3 4 (49152)
I0906 15:59:24.190549 13560 net.cpp:157] Top shape: 16 256 3 4 (49152)
I0906 15:59:24.190552 13560 net.cpp:157] Top shape: 16 256 3 4 (49152)
I0906 15:59:24.190554 13560 net.cpp:157] Top shape: 16 256 3 4 (49152)
I0906 15:59:24.190557 13560 net.cpp:165] Memory required for data: 4216996000
I0906 15:59:24.190559 13560 layer_factory.hpp:77] Creating layer conv9_1
I0906 15:59:24.190568 13560 net.cpp:100] Creating Layer conv9_1
I0906 15:59:24.190572 13560 net.cpp:434] conv9_1 <- conv8_2_conv8_2_relu_0_split_0
I0906 15:59:24.190574 13560 net.cpp:408] conv9_1 -> conv9_1
I0906 15:59:24.192301 13560 net.cpp:150] Setting up conv9_1
I0906 15:59:24.192307 13560 net.cpp:157] Top shape: 16 128 3 4 (24576)
I0906 15:59:24.192312 13560 net.cpp:165] Memory required for data: 4217094304
I0906 15:59:24.192317 13560 layer_factory.hpp:77] Creating layer conv9_1_relu
I0906 15:59:24.192320 13560 net.cpp:100] Creating Layer conv9_1_relu
I0906 15:59:24.192323 13560 net.cpp:434] conv9_1_relu <- conv9_1
I0906 15:59:24.192327 13560 net.cpp:395] conv9_1_relu -> conv9_1 (in-place)
I0906 15:59:24.192812 13560 net.cpp:150] Setting up conv9_1_relu
I0906 15:59:24.192819 13560 net.cpp:157] Top shape: 16 128 3 4 (24576)
I0906 15:59:24.192822 13560 net.cpp:165] Memory required for data: 4217192608
I0906 15:59:24.192826 13560 layer_factory.hpp:77] Creating layer conv9_2
I0906 15:59:24.192833 13560 net.cpp:100] Creating Layer conv9_2
I0906 15:59:24.192836 13560 net.cpp:434] conv9_2 <- conv9_1
I0906 15:59:24.192839 13560 net.cpp:408] conv9_2 -> conv9_2
I0906 15:59:24.196795 13560 net.cpp:150] Setting up conv9_2
I0906 15:59:24.196806 13560 net.cpp:157] Top shape: 16 256 1 2 (8192)
I0906 15:59:24.196811 13560 net.cpp:165] Memory required for data: 4217225376
I0906 15:59:24.196817 13560 layer_factory.hpp:77] Creating layer conv9_2_relu
I0906 15:59:24.196823 13560 net.cpp:100] Creating Layer conv9_2_relu
I0906 15:59:24.196827 13560 net.cpp:434] conv9_2_relu <- conv9_2
I0906 15:59:24.196831 13560 net.cpp:395] conv9_2_relu -> conv9_2 (in-place)
I0906 15:59:24.197196 13560 net.cpp:150] Setting up conv9_2_relu
I0906 15:59:24.197202 13560 net.cpp:157] Top shape: 16 256 1 2 (8192)
I0906 15:59:24.197206 13560 net.cpp:165] Memory required for data: 4217258144
I0906 15:59:24.197208 13560 layer_factory.hpp:77] Creating layer conv9_2_conv9_2_relu_0_split
I0906 15:59:24.197216 13560 net.cpp:100] Creating Layer conv9_2_conv9_2_relu_0_split
I0906 15:59:24.197218 13560 net.cpp:434] conv9_2_conv9_2_relu_0_split <- conv9_2
I0906 15:59:24.197222 13560 net.cpp:408] conv9_2_conv9_2_relu_0_split -> conv9_2_conv9_2_relu_0_split_0
I0906 15:59:24.197227 13560 net.cpp:408] conv9_2_conv9_2_relu_0_split -> conv9_2_conv9_2_relu_0_split_1
I0906 15:59:24.197230 13560 net.cpp:408] conv9_2_conv9_2_relu_0_split -> conv9_2_conv9_2_relu_0_split_2
I0906 15:59:24.197283 13560 net.cpp:150] Setting up conv9_2_conv9_2_relu_0_split
I0906 15:59:24.197288 13560 net.cpp:157] Top shape: 16 256 1 2 (8192)
I0906 15:59:24.197290 13560 net.cpp:157] Top shape: 16 256 1 2 (8192)
I0906 15:59:24.197293 13560 net.cpp:157] Top shape: 16 256 1 2 (8192)
I0906 15:59:24.197295 13560 net.cpp:165] Memory required for data: 4217356448
I0906 15:59:24.197299 13560 layer_factory.hpp:77] Creating layer conv4_3_norm
I0906 15:59:24.197304 13560 net.cpp:100] Creating Layer conv4_3_norm
I0906 15:59:24.197305 13560 net.cpp:434] conv4_3_norm <- conv4_3_relu4_3_0_split_1
I0906 15:59:24.197309 13560 net.cpp:408] conv4_3_norm -> conv4_3_norm
I0906 15:59:24.197486 13560 net.cpp:150] Setting up conv4_3_norm
I0906 15:59:24.197491 13560 net.cpp:157] Top shape: 16 512 36 44 (12976128)
I0906 15:59:24.197494 13560 net.cpp:165] Memory required for data: 4269260960
I0906 15:59:24.197497 13560 layer_factory.hpp:77] Creating layer conv4_3_norm_conv4_3_norm_0_split
I0906 15:59:24.197502 13560 net.cpp:100] Creating Layer conv4_3_norm_conv4_3_norm_0_split
I0906 15:59:24.197505 13560 net.cpp:434] conv4_3_norm_conv4_3_norm_0_split <- conv4_3_norm
I0906 15:59:24.197525 13560 net.cpp:408] conv4_3_norm_conv4_3_norm_0_split -> conv4_3_norm_conv4_3_norm_0_split_0
I0906 15:59:24.197530 13560 net.cpp:408] conv4_3_norm_conv4_3_norm_0_split -> conv4_3_norm_conv4_3_norm_0_split_1
I0906 15:59:24.197533 13560 net.cpp:408] conv4_3_norm_conv4_3_norm_0_split -> conv4_3_norm_conv4_3_norm_0_split_2
I0906 15:59:24.197579 13560 net.cpp:150] Setting up conv4_3_norm_conv4_3_norm_0_split
I0906 15:59:24.197582 13560 net.cpp:157] Top shape: 16 512 36 44 (12976128)
I0906 15:59:24.197585 13560 net.cpp:157] Top shape: 16 512 36 44 (12976128)
I0906 15:59:24.197589 13560 net.cpp:157] Top shape: 16 512 36 44 (12976128)
I0906 15:59:24.197592 13560 net.cpp:165] Memory required for data: 4424974496
I0906 15:59:24.197594 13560 layer_factory.hpp:77] Creating layer conv4_3_norm_mbox_loc
I0906 15:59:24.197602 13560 net.cpp:100] Creating Layer conv4_3_norm_mbox_loc
I0906 15:59:24.197605 13560 net.cpp:434] conv4_3_norm_mbox_loc <- conv4_3_norm_conv4_3_norm_0_split_0
I0906 15:59:24.197609 13560 net.cpp:408] conv4_3_norm_mbox_loc -> conv4_3_norm_mbox_loc
I0906 15:59:24.199717 13560 net.cpp:150] Setting up conv4_3_norm_mbox_loc
I0906 15:59:24.199724 13560 net.cpp:157] Top shape: 16 16 36 44 (405504)
I0906 15:59:24.199728 13560 net.cpp:165] Memory required for data: 4426596512
I0906 15:59:24.199733 13560 layer_factory.hpp:77] Creating layer conv4_3_norm_mbox_loc_perm
I0906 15:59:24.199739 13560 net.cpp:100] Creating Layer conv4_3_norm_mbox_loc_perm
I0906 15:59:24.199743 13560 net.cpp:434] conv4_3_norm_mbox_loc_perm <- conv4_3_norm_mbox_loc
I0906 15:59:24.199745 13560 net.cpp:408] conv4_3_norm_mbox_loc_perm -> conv4_3_norm_mbox_loc_perm
I0906 15:59:24.199852 13560 net.cpp:150] Setting up conv4_3_norm_mbox_loc_perm
I0906 15:59:24.199857 13560 net.cpp:157] Top shape: 16 36 44 16 (405504)
I0906 15:59:24.199860 13560 net.cpp:165] Memory required for data: 4428218528
I0906 15:59:24.199862 13560 layer_factory.hpp:77] Creating layer conv4_3_norm_mbox_loc_flat
I0906 15:59:24.199867 13560 net.cpp:100] Creating Layer conv4_3_norm_mbox_loc_flat
I0906 15:59:24.199869 13560 net.cpp:434] conv4_3_norm_mbox_loc_flat <- conv4_3_norm_mbox_loc_perm
I0906 15:59:24.199872 13560 net.cpp:408] conv4_3_norm_mbox_loc_flat -> conv4_3_norm_mbox_loc_flat
I0906 15:59:24.199898 13560 net.cpp:150] Setting up conv4_3_norm_mbox_loc_flat
I0906 15:59:24.199901 13560 net.cpp:157] Top shape: 16 25344 (405504)
I0906 15:59:24.199904 13560 net.cpp:165] Memory required for data: 4429840544
I0906 15:59:24.199906 13560 layer_factory.hpp:77] Creating layer conv4_3_norm_mbox_conf
I0906 15:59:24.199916 13560 net.cpp:100] Creating Layer conv4_3_norm_mbox_conf
I0906 15:59:24.199919 13560 net.cpp:434] conv4_3_norm_mbox_conf <- conv4_3_norm_conv4_3_norm_0_split_1
I0906 15:59:24.199923 13560 net.cpp:408] conv4_3_norm_mbox_conf -> conv4_3_norm_mbox_conf
I0906 15:59:24.201756 13560 net.cpp:150] Setting up conv4_3_norm_mbox_conf
I0906 15:59:24.201762 13560 net.cpp:157] Top shape: 16 8 36 44 (202752)
I0906 15:59:24.201766 13560 net.cpp:165] Memory required for data: 4430651552
I0906 15:59:24.201772 13560 layer_factory.hpp:77] Creating layer conv4_3_norm_mbox_conf_perm
I0906 15:59:24.201777 13560 net.cpp:100] Creating Layer conv4_3_norm_mbox_conf_perm
I0906 15:59:24.201779 13560 net.cpp:434] conv4_3_norm_mbox_conf_perm <- conv4_3_norm_mbox_conf
I0906 15:59:24.201783 13560 net.cpp:408] conv4_3_norm_mbox_conf_perm -> conv4_3_norm_mbox_conf_perm
I0906 15:59:24.201882 13560 net.cpp:150] Setting up conv4_3_norm_mbox_conf_perm
I0906 15:59:24.201886 13560 net.cpp:157] Top shape: 16 36 44 8 (202752)
I0906 15:59:24.201889 13560 net.cpp:165] Memory required for data: 4431462560
I0906 15:59:24.201891 13560 layer_factory.hpp:77] Creating layer conv4_3_norm_mbox_conf_flat
I0906 15:59:24.201896 13560 net.cpp:100] Creating Layer conv4_3_norm_mbox_conf_flat
I0906 15:59:24.201900 13560 net.cpp:434] conv4_3_norm_mbox_conf_flat <- conv4_3_norm_mbox_conf_perm
I0906 15:59:24.201902 13560 net.cpp:408] conv4_3_norm_mbox_conf_flat -> conv4_3_norm_mbox_conf_flat
I0906 15:59:24.201921 13560 net.cpp:150] Setting up conv4_3_norm_mbox_conf_flat
I0906 15:59:24.201933 13560 net.cpp:157] Top shape: 16 12672 (202752)
I0906 15:59:24.201936 13560 net.cpp:165] Memory required for data: 4432273568
I0906 15:59:24.201939 13560 layer_factory.hpp:77] Creating layer conv4_3_norm_mbox_priorbox
I0906 15:59:24.201944 13560 net.cpp:100] Creating Layer conv4_3_norm_mbox_priorbox
I0906 15:59:24.201947 13560 net.cpp:434] conv4_3_norm_mbox_priorbox <- conv4_3_norm_conv4_3_norm_0_split_2
I0906 15:59:24.201951 13560 net.cpp:434] conv4_3_norm_mbox_priorbox <- data_data_0_split_1
I0906 15:59:24.201956 13560 net.cpp:408] conv4_3_norm_mbox_priorbox -> conv4_3_norm_mbox_priorbox
I0906 15:59:24.201979 13560 net.cpp:150] Setting up conv4_3_norm_mbox_priorbox
I0906 15:59:24.201982 13560 net.cpp:157] Top shape: 1 2 25344 (50688)
I0906 15:59:24.201985 13560 net.cpp:165] Memory required for data: 4432476320
I0906 15:59:24.201987 13560 layer_factory.hpp:77] Creating layer fc7_mbox_loc
I0906 15:59:24.201994 13560 net.cpp:100] Creating Layer fc7_mbox_loc
I0906 15:59:24.201997 13560 net.cpp:434] fc7_mbox_loc <- fc7_relu7_0_split_1
I0906 15:59:24.202001 13560 net.cpp:408] fc7_mbox_loc -> fc7_mbox_loc
I0906 15:59:24.205637 13560 net.cpp:150] Setting up fc7_mbox_loc
I0906 15:59:24.205647 13560 net.cpp:157] Top shape: 16 24 18 22 (152064)
I0906 15:59:24.205651 13560 net.cpp:165] Memory required for data: 4433084576
I0906 15:59:24.205659 13560 layer_factory.hpp:77] Creating layer fc7_mbox_loc_perm
I0906 15:59:24.205665 13560 net.cpp:100] Creating Layer fc7_mbox_loc_perm
I0906 15:59:24.205669 13560 net.cpp:434] fc7_mbox_loc_perm <- fc7_mbox_loc
I0906 15:59:24.205673 13560 net.cpp:408] fc7_mbox_loc_perm -> fc7_mbox_loc_perm
I0906 15:59:24.205775 13560 net.cpp:150] Setting up fc7_mbox_loc_perm
I0906 15:59:24.205780 13560 net.cpp:157] Top shape: 16 18 22 24 (152064)
I0906 15:59:24.205782 13560 net.cpp:165] Memory required for data: 4433692832
I0906 15:59:24.205785 13560 layer_factory.hpp:77] Creating layer fc7_mbox_loc_flat
I0906 15:59:24.205790 13560 net.cpp:100] Creating Layer fc7_mbox_loc_flat
I0906 15:59:24.205792 13560 net.cpp:434] fc7_mbox_loc_flat <- fc7_mbox_loc_perm
I0906 15:59:24.205796 13560 net.cpp:408] fc7_mbox_loc_flat -> fc7_mbox_loc_flat
I0906 15:59:24.205818 13560 net.cpp:150] Setting up fc7_mbox_loc_flat
I0906 15:59:24.205821 13560 net.cpp:157] Top shape: 16 9504 (152064)
I0906 15:59:24.205824 13560 net.cpp:165] Memory required for data: 4434301088
I0906 15:59:24.205826 13560 layer_factory.hpp:77] Creating layer fc7_mbox_conf
I0906 15:59:24.205835 13560 net.cpp:100] Creating Layer fc7_mbox_conf
I0906 15:59:24.205855 13560 net.cpp:434] fc7_mbox_conf <- fc7_relu7_0_split_2
I0906 15:59:24.205869 13560 net.cpp:408] fc7_mbox_conf -> fc7_mbox_conf
I0906 15:59:24.208730 13560 net.cpp:150] Setting up fc7_mbox_conf
I0906 15:59:24.208741 13560 net.cpp:157] Top shape: 16 12 18 22 (76032)
I0906 15:59:24.208746 13560 net.cpp:165] Memory required for data: 4434605216
I0906 15:59:24.208752 13560 layer_factory.hpp:77] Creating layer fc7_mbox_conf_perm
I0906 15:59:24.208760 13560 net.cpp:100] Creating Layer fc7_mbox_conf_perm
I0906 15:59:24.208763 13560 net.cpp:434] fc7_mbox_conf_perm <- fc7_mbox_conf
I0906 15:59:24.208767 13560 net.cpp:408] fc7_mbox_conf_perm -> fc7_mbox_conf_perm
I0906 15:59:24.208870 13560 net.cpp:150] Setting up fc7_mbox_conf_perm
I0906 15:59:24.208874 13560 net.cpp:157] Top shape: 16 18 22 12 (76032)
I0906 15:59:24.208878 13560 net.cpp:165] Memory required for data: 4434909344
I0906 15:59:24.208880 13560 layer_factory.hpp:77] Creating layer fc7_mbox_conf_flat
I0906 15:59:24.208884 13560 net.cpp:100] Creating Layer fc7_mbox_conf_flat
I0906 15:59:24.208887 13560 net.cpp:434] fc7_mbox_conf_flat <- fc7_mbox_conf_perm
I0906 15:59:24.208890 13560 net.cpp:408] fc7_mbox_conf_flat -> fc7_mbox_conf_flat
I0906 15:59:24.208911 13560 net.cpp:150] Setting up fc7_mbox_conf_flat
I0906 15:59:24.208914 13560 net.cpp:157] Top shape: 16 4752 (76032)
I0906 15:59:24.208917 13560 net.cpp:165] Memory required for data: 4435213472
I0906 15:59:24.208920 13560 layer_factory.hpp:77] Creating layer fc7_mbox_priorbox
I0906 15:59:24.208936 13560 net.cpp:100] Creating Layer fc7_mbox_priorbox
I0906 15:59:24.208940 13560 net.cpp:434] fc7_mbox_priorbox <- fc7_relu7_0_split_3
I0906 15:59:24.208945 13560 net.cpp:434] fc7_mbox_priorbox <- data_data_0_split_2
I0906 15:59:24.208948 13560 net.cpp:408] fc7_mbox_priorbox -> fc7_mbox_priorbox
I0906 15:59:24.208972 13560 net.cpp:150] Setting up fc7_mbox_priorbox
I0906 15:59:24.208976 13560 net.cpp:157] Top shape: 1 2 9504 (19008)
I0906 15:59:24.208979 13560 net.cpp:165] Memory required for data: 4435289504
I0906 15:59:24.208981 13560 layer_factory.hpp:77] Creating layer conv6_2_mbox_loc
I0906 15:59:24.208987 13560 net.cpp:100] Creating Layer conv6_2_mbox_loc
I0906 15:59:24.208990 13560 net.cpp:434] conv6_2_mbox_loc <- conv6_2_conv6_2_relu_0_split_1
I0906 15:59:24.208994 13560 net.cpp:408] conv6_2_mbox_loc -> conv6_2_mbox_loc
I0906 15:59:24.211176 13560 net.cpp:150] Setting up conv6_2_mbox_loc
I0906 15:59:24.211211 13560 net.cpp:157] Top shape: 16 24 9 11 (38016)
I0906 15:59:24.211225 13560 net.cpp:165] Memory required for data: 4435441568
I0906 15:59:24.211238 13560 layer_factory.hpp:77] Creating layer conv6_2_mbox_loc_perm
I0906 15:59:24.211253 13560 net.cpp:100] Creating Layer conv6_2_mbox_loc_perm
I0906 15:59:24.211264 13560 net.cpp:434] conv6_2_mbox_loc_perm <- conv6_2_mbox_loc
I0906 15:59:24.211279 13560 net.cpp:408] conv6_2_mbox_loc_perm -> conv6_2_mbox_loc_perm
I0906 15:59:24.211432 13560 net.cpp:150] Setting up conv6_2_mbox_loc_perm
I0906 15:59:24.211444 13560 net.cpp:157] Top shape: 16 9 11 24 (38016)
I0906 15:59:24.211455 13560 net.cpp:165] Memory required for data: 4435593632
I0906 15:59:24.211465 13560 layer_factory.hpp:77] Creating layer conv6_2_mbox_loc_flat
I0906 15:59:24.211477 13560 net.cpp:100] Creating Layer conv6_2_mbox_loc_flat
I0906 15:59:24.211488 13560 net.cpp:434] conv6_2_mbox_loc_flat <- conv6_2_mbox_loc_perm
I0906 15:59:24.211499 13560 net.cpp:408] conv6_2_mbox_loc_flat -> conv6_2_mbox_loc_flat
I0906 15:59:24.211535 13560 net.cpp:150] Setting up conv6_2_mbox_loc_flat
I0906 15:59:24.211547 13560 net.cpp:157] Top shape: 16 2376 (38016)
I0906 15:59:24.211557 13560 net.cpp:165] Memory required for data: 4435745696
I0906 15:59:24.211566 13560 layer_factory.hpp:77] Creating layer conv6_2_mbox_conf
I0906 15:59:24.211585 13560 net.cpp:100] Creating Layer conv6_2_mbox_conf
I0906 15:59:24.211594 13560 net.cpp:434] conv6_2_mbox_conf <- conv6_2_conv6_2_relu_0_split_2
I0906 15:59:24.211606 13560 net.cpp:408] conv6_2_mbox_conf -> conv6_2_mbox_conf
I0906 15:59:24.216228 13560 net.cpp:150] Setting up conv6_2_mbox_conf
I0906 15:59:24.216243 13560 net.cpp:157] Top shape: 16 12 9 11 (19008)
I0906 15:59:24.216248 13560 net.cpp:165] Memory required for data: 4435821728
I0906 15:59:24.216254 13560 layer_factory.hpp:77] Creating layer conv6_2_mbox_conf_perm
I0906 15:59:24.216262 13560 net.cpp:100] Creating Layer conv6_2_mbox_conf_perm
I0906 15:59:24.216266 13560 net.cpp:434] conv6_2_mbox_conf_perm <- conv6_2_mbox_conf
I0906 15:59:24.216272 13560 net.cpp:408] conv6_2_mbox_conf_perm -> conv6_2_mbox_conf_perm
I0906 15:59:24.216377 13560 net.cpp:150] Setting up conv6_2_mbox_conf_perm
I0906 15:59:24.216384 13560 net.cpp:157] Top shape: 16 9 11 12 (19008)
I0906 15:59:24.216387 13560 net.cpp:165] Memory required for data: 4435897760
I0906 15:59:24.216389 13560 layer_factory.hpp:77] Creating layer conv6_2_mbox_conf_flat
I0906 15:59:24.216394 13560 net.cpp:100] Creating Layer conv6_2_mbox_conf_flat
I0906 15:59:24.216397 13560 net.cpp:434] conv6_2_mbox_conf_flat <- conv6_2_mbox_conf_perm
I0906 15:59:24.216400 13560 net.cpp:408] conv6_2_mbox_conf_flat -> conv6_2_mbox_conf_flat
I0906 15:59:24.216423 13560 net.cpp:150] Setting up conv6_2_mbox_conf_flat
I0906 15:59:24.216434 13560 net.cpp:157] Top shape: 16 1188 (19008)
I0906 15:59:24.216439 13560 net.cpp:165] Memory required for data: 4435973792
I0906 15:59:24.216441 13560 layer_factory.hpp:77] Creating layer conv6_2_mbox_priorbox
I0906 15:59:24.216450 13560 net.cpp:100] Creating Layer conv6_2_mbox_priorbox
I0906 15:59:24.216468 13560 net.cpp:434] conv6_2_mbox_priorbox <- conv6_2_conv6_2_relu_0_split_3
I0906 15:59:24.216472 13560 net.cpp:434] conv6_2_mbox_priorbox <- data_data_0_split_3
I0906 15:59:24.216477 13560 net.cpp:408] conv6_2_mbox_priorbox -> conv6_2_mbox_priorbox
I0906 15:59:24.216509 13560 net.cpp:150] Setting up conv6_2_mbox_priorbox
I0906 15:59:24.216514 13560 net.cpp:157] Top shape: 1 2 2376 (4752)
I0906 15:59:24.216517 13560 net.cpp:165] Memory required for data: 4435992800
I0906 15:59:24.216519 13560 layer_factory.hpp:77] Creating layer conv7_2_mbox_loc
I0906 15:59:24.216528 13560 net.cpp:100] Creating Layer conv7_2_mbox_loc
I0906 15:59:24.216531 13560 net.cpp:434] conv7_2_mbox_loc <- conv7_2_conv7_2_relu_0_split_1
I0906 15:59:24.216536 13560 net.cpp:408] conv7_2_mbox_loc -> conv7_2_mbox_loc
I0906 15:59:24.218605 13560 net.cpp:150] Setting up conv7_2_mbox_loc
I0906 15:59:24.218612 13560 net.cpp:157] Top shape: 16 24 5 6 (11520)
I0906 15:59:24.218616 13560 net.cpp:165] Memory required for data: 4436038880
I0906 15:59:24.218622 13560 layer_factory.hpp:77] Creating layer conv7_2_mbox_loc_perm
I0906 15:59:24.218627 13560 net.cpp:100] Creating Layer conv7_2_mbox_loc_perm
I0906 15:59:24.218631 13560 net.cpp:434] conv7_2_mbox_loc_perm <- conv7_2_mbox_loc
I0906 15:59:24.218633 13560 net.cpp:408] conv7_2_mbox_loc_perm -> conv7_2_mbox_loc_perm
I0906 15:59:24.218742 13560 net.cpp:150] Setting up conv7_2_mbox_loc_perm
I0906 15:59:24.218746 13560 net.cpp:157] Top shape: 16 5 6 24 (11520)
I0906 15:59:24.218750 13560 net.cpp:165] Memory required for data: 4436084960
I0906 15:59:24.218752 13560 layer_factory.hpp:77] Creating layer conv7_2_mbox_loc_flat
I0906 15:59:24.218755 13560 net.cpp:100] Creating Layer conv7_2_mbox_loc_flat
I0906 15:59:24.218758 13560 net.cpp:434] conv7_2_mbox_loc_flat <- conv7_2_mbox_loc_perm
I0906 15:59:24.218762 13560 net.cpp:408] conv7_2_mbox_loc_flat -> conv7_2_mbox_loc_flat
I0906 15:59:24.218783 13560 net.cpp:150] Setting up conv7_2_mbox_loc_flat
I0906 15:59:24.218788 13560 net.cpp:157] Top shape: 16 720 (11520)
I0906 15:59:24.218792 13560 net.cpp:165] Memory required for data: 4436131040
I0906 15:59:24.218796 13560 layer_factory.hpp:77] Creating layer conv7_2_mbox_conf
I0906 15:59:24.218806 13560 net.cpp:100] Creating Layer conv7_2_mbox_conf
I0906 15:59:24.218809 13560 net.cpp:434] conv7_2_mbox_conf <- conv7_2_conv7_2_relu_0_split_2
I0906 15:59:24.218813 13560 net.cpp:408] conv7_2_mbox_conf -> conv7_2_mbox_conf
I0906 15:59:24.220540 13560 net.cpp:150] Setting up conv7_2_mbox_conf
I0906 15:59:24.220547 13560 net.cpp:157] Top shape: 16 12 5 6 (5760)
I0906 15:59:24.220551 13560 net.cpp:165] Memory required for data: 4436154080
I0906 15:59:24.220556 13560 layer_factory.hpp:77] Creating layer conv7_2_mbox_conf_perm
I0906 15:59:24.220561 13560 net.cpp:100] Creating Layer conv7_2_mbox_conf_perm
I0906 15:59:24.220563 13560 net.cpp:434] conv7_2_mbox_conf_perm <- conv7_2_mbox_conf
I0906 15:59:24.220567 13560 net.cpp:408] conv7_2_mbox_conf_perm -> conv7_2_mbox_conf_perm
I0906 15:59:24.220674 13560 net.cpp:150] Setting up conv7_2_mbox_conf_perm
I0906 15:59:24.220677 13560 net.cpp:157] Top shape: 16 5 6 12 (5760)
I0906 15:59:24.220680 13560 net.cpp:165] Memory required for data: 4436177120
I0906 15:59:24.220683 13560 layer_factory.hpp:77] Creating layer conv7_2_mbox_conf_flat
I0906 15:59:24.220687 13560 net.cpp:100] Creating Layer conv7_2_mbox_conf_flat
I0906 15:59:24.220690 13560 net.cpp:434] conv7_2_mbox_conf_flat <- conv7_2_mbox_conf_perm
I0906 15:59:24.220693 13560 net.cpp:408] conv7_2_mbox_conf_flat -> conv7_2_mbox_conf_flat
I0906 15:59:24.220715 13560 net.cpp:150] Setting up conv7_2_mbox_conf_flat
I0906 15:59:24.220719 13560 net.cpp:157] Top shape: 16 360 (5760)
I0906 15:59:24.220726 13560 net.cpp:165] Memory required for data: 4436200160
I0906 15:59:24.220729 13560 layer_factory.hpp:77] Creating layer conv7_2_mbox_priorbox
I0906 15:59:24.220736 13560 net.cpp:100] Creating Layer conv7_2_mbox_priorbox
I0906 15:59:24.220741 13560 net.cpp:434] conv7_2_mbox_priorbox <- conv7_2_conv7_2_relu_0_split_3
I0906 15:59:24.220755 13560 net.cpp:434] conv7_2_mbox_priorbox <- data_data_0_split_4
I0906 15:59:24.220760 13560 net.cpp:408] conv7_2_mbox_priorbox -> conv7_2_mbox_priorbox
I0906 15:59:24.220786 13560 net.cpp:150] Setting up conv7_2_mbox_priorbox
I0906 15:59:24.220790 13560 net.cpp:157] Top shape: 1 2 720 (1440)
I0906 15:59:24.220793 13560 net.cpp:165] Memory required for data: 4436205920
I0906 15:59:24.220795 13560 layer_factory.hpp:77] Creating layer conv8_2_mbox_loc
I0906 15:59:24.220803 13560 net.cpp:100] Creating Layer conv8_2_mbox_loc
I0906 15:59:24.220805 13560 net.cpp:434] conv8_2_mbox_loc <- conv8_2_conv8_2_relu_0_split_1
I0906 15:59:24.220809 13560 net.cpp:408] conv8_2_mbox_loc -> conv8_2_mbox_loc
I0906 15:59:24.222549 13560 net.cpp:150] Setting up conv8_2_mbox_loc
I0906 15:59:24.222558 13560 net.cpp:157] Top shape: 16 16 3 4 (3072)
I0906 15:59:24.222560 13560 net.cpp:165] Memory required for data: 4436218208
I0906 15:59:24.222569 13560 layer_factory.hpp:77] Creating layer conv8_2_mbox_loc_perm
I0906 15:59:24.222576 13560 net.cpp:100] Creating Layer conv8_2_mbox_loc_perm
I0906 15:59:24.222579 13560 net.cpp:434] conv8_2_mbox_loc_perm <- conv8_2_mbox_loc
I0906 15:59:24.222584 13560 net.cpp:408] conv8_2_mbox_loc_perm -> conv8_2_mbox_loc_perm
I0906 15:59:24.222685 13560 net.cpp:150] Setting up conv8_2_mbox_loc_perm
I0906 15:59:24.222689 13560 net.cpp:157] Top shape: 16 3 4 16 (3072)
I0906 15:59:24.222692 13560 net.cpp:165] Memory required for data: 4436230496
I0906 15:59:24.222694 13560 layer_factory.hpp:77] Creating layer conv8_2_mbox_loc_flat
I0906 15:59:24.222700 13560 net.cpp:100] Creating Layer conv8_2_mbox_loc_flat
I0906 15:59:24.222702 13560 net.cpp:434] conv8_2_mbox_loc_flat <- conv8_2_mbox_loc_perm
I0906 15:59:24.222707 13560 net.cpp:408] conv8_2_mbox_loc_flat -> conv8_2_mbox_loc_flat
I0906 15:59:24.222726 13560 net.cpp:150] Setting up conv8_2_mbox_loc_flat
I0906 15:59:24.222730 13560 net.cpp:157] Top shape: 16 192 (3072)
I0906 15:59:24.222733 13560 net.cpp:165] Memory required for data: 4436242784
I0906 15:59:24.222736 13560 layer_factory.hpp:77] Creating layer conv8_2_mbox_conf
I0906 15:59:24.222743 13560 net.cpp:100] Creating Layer conv8_2_mbox_conf
I0906 15:59:24.222746 13560 net.cpp:434] conv8_2_mbox_conf <- conv8_2_conv8_2_relu_0_split_2
I0906 15:59:24.222749 13560 net.cpp:408] conv8_2_mbox_conf -> conv8_2_mbox_conf
I0906 15:59:24.225602 13560 net.cpp:150] Setting up conv8_2_mbox_conf
I0906 15:59:24.225615 13560 net.cpp:157] Top shape: 16 8 3 4 (1536)
I0906 15:59:24.225620 13560 net.cpp:165] Memory required for data: 4436248928
I0906 15:59:24.225625 13560 layer_factory.hpp:77] Creating layer conv8_2_mbox_conf_perm
I0906 15:59:24.225632 13560 net.cpp:100] Creating Layer conv8_2_mbox_conf_perm
I0906 15:59:24.225636 13560 net.cpp:434] conv8_2_mbox_conf_perm <- conv8_2_mbox_conf
I0906 15:59:24.225641 13560 net.cpp:408] conv8_2_mbox_conf_perm -> conv8_2_mbox_conf_perm
I0906 15:59:24.225750 13560 net.cpp:150] Setting up conv8_2_mbox_conf_perm
I0906 15:59:24.225755 13560 net.cpp:157] Top shape: 16 3 4 8 (1536)
I0906 15:59:24.225759 13560 net.cpp:165] Memory required for data: 4436255072
I0906 15:59:24.225760 13560 layer_factory.hpp:77] Creating layer conv8_2_mbox_conf_flat
I0906 15:59:24.225765 13560 net.cpp:100] Creating Layer conv8_2_mbox_conf_flat
I0906 15:59:24.225769 13560 net.cpp:434] conv8_2_mbox_conf_flat <- conv8_2_mbox_conf_perm
I0906 15:59:24.225771 13560 net.cpp:408] conv8_2_mbox_conf_flat -> conv8_2_mbox_conf_flat
I0906 15:59:24.225795 13560 net.cpp:150] Setting up conv8_2_mbox_conf_flat
I0906 15:59:24.225798 13560 net.cpp:157] Top shape: 16 96 (1536)
I0906 15:59:24.225801 13560 net.cpp:165] Memory required for data: 4436261216
I0906 15:59:24.225805 13560 layer_factory.hpp:77] Creating layer conv8_2_mbox_priorbox
I0906 15:59:24.225813 13560 net.cpp:100] Creating Layer conv8_2_mbox_priorbox
I0906 15:59:24.225817 13560 net.cpp:434] conv8_2_mbox_priorbox <- conv8_2_conv8_2_relu_0_split_3
I0906 15:59:24.225821 13560 net.cpp:434] conv8_2_mbox_priorbox <- data_data_0_split_5
I0906 15:59:24.225824 13560 net.cpp:408] conv8_2_mbox_priorbox -> conv8_2_mbox_priorbox
I0906 15:59:24.225865 13560 net.cpp:150] Setting up conv8_2_mbox_priorbox
I0906 15:59:24.225869 13560 net.cpp:157] Top shape: 1 2 192 (384)
I0906 15:59:24.225872 13560 net.cpp:165] Memory required for data: 4436262752
I0906 15:59:24.225874 13560 layer_factory.hpp:77] Creating layer conv9_2_mbox_loc
I0906 15:59:24.225883 13560 net.cpp:100] Creating Layer conv9_2_mbox_loc
I0906 15:59:24.225886 13560 net.cpp:434] conv9_2_mbox_loc <- conv9_2_conv9_2_relu_0_split_0
I0906 15:59:24.225891 13560 net.cpp:408] conv9_2_mbox_loc -> conv9_2_mbox_loc
I0906 15:59:24.227653 13560 net.cpp:150] Setting up conv9_2_mbox_loc
I0906 15:59:24.227659 13560 net.cpp:157] Top shape: 16 16 1 2 (512)
I0906 15:59:24.227663 13560 net.cpp:165] Memory required for data: 4436264800
I0906 15:59:24.227668 13560 layer_factory.hpp:77] Creating layer conv9_2_mbox_loc_perm
I0906 15:59:24.227672 13560 net.cpp:100] Creating Layer conv9_2_mbox_loc_perm
I0906 15:59:24.227675 13560 net.cpp:434] conv9_2_mbox_loc_perm <- conv9_2_mbox_loc
I0906 15:59:24.227679 13560 net.cpp:408] conv9_2_mbox_loc_perm -> conv9_2_mbox_loc_perm
I0906 15:59:24.227782 13560 net.cpp:150] Setting up conv9_2_mbox_loc_perm
I0906 15:59:24.227787 13560 net.cpp:157] Top shape: 16 1 2 16 (512)
I0906 15:59:24.227789 13560 net.cpp:165] Memory required for data: 4436266848
I0906 15:59:24.227792 13560 layer_factory.hpp:77] Creating layer conv9_2_mbox_loc_flat
I0906 15:59:24.227797 13560 net.cpp:100] Creating Layer conv9_2_mbox_loc_flat
I0906 15:59:24.227799 13560 net.cpp:434] conv9_2_mbox_loc_flat <- conv9_2_mbox_loc_perm
I0906 15:59:24.227802 13560 net.cpp:408] conv9_2_mbox_loc_flat -> conv9_2_mbox_loc_flat
I0906 15:59:24.227823 13560 net.cpp:150] Setting up conv9_2_mbox_loc_flat
I0906 15:59:24.227828 13560 net.cpp:157] Top shape: 16 32 (512)
I0906 15:59:24.227830 13560 net.cpp:165] Memory required for data: 4436268896
I0906 15:59:24.227833 13560 layer_factory.hpp:77] Creating layer conv9_2_mbox_conf
I0906 15:59:24.227838 13560 net.cpp:100] Creating Layer conv9_2_mbox_conf
I0906 15:59:24.227841 13560 net.cpp:434] conv9_2_mbox_conf <- conv9_2_conv9_2_relu_0_split_1
I0906 15:59:24.227846 13560 net.cpp:408] conv9_2_mbox_conf -> conv9_2_mbox_conf
I0906 15:59:24.229526 13560 net.cpp:150] Setting up conv9_2_mbox_conf
I0906 15:59:24.229532 13560 net.cpp:157] Top shape: 16 8 1 2 (256)
I0906 15:59:24.229537 13560 net.cpp:165] Memory required for data: 4436269920
I0906 15:59:24.229543 13560 layer_factory.hpp:77] Creating layer conv9_2_mbox_conf_perm
I0906 15:59:24.229550 13560 net.cpp:100] Creating Layer conv9_2_mbox_conf_perm
I0906 15:59:24.229555 13560 net.cpp:434] conv9_2_mbox_conf_perm <- conv9_2_mbox_conf
I0906 15:59:24.229562 13560 net.cpp:408] conv9_2_mbox_conf_perm -> conv9_2_mbox_conf_perm
I0906 15:59:24.229667 13560 net.cpp:150] Setting up conv9_2_mbox_conf_perm
I0906 15:59:24.229671 13560 net.cpp:157] Top shape: 16 1 2 8 (256)
I0906 15:59:24.229674 13560 net.cpp:165] Memory required for data: 4436270944
I0906 15:59:24.229676 13560 layer_factory.hpp:77] Creating layer conv9_2_mbox_conf_flat
I0906 15:59:24.229681 13560 net.cpp:100] Creating Layer conv9_2_mbox_conf_flat
I0906 15:59:24.229683 13560 net.cpp:434] conv9_2_mbox_conf_flat <- conv9_2_mbox_conf_perm
I0906 15:59:24.229687 13560 net.cpp:408] conv9_2_mbox_conf_flat -> conv9_2_mbox_conf_flat
I0906 15:59:24.229708 13560 net.cpp:150] Setting up conv9_2_mbox_conf_flat
I0906 15:59:24.229712 13560 net.cpp:157] Top shape: 16 16 (256)
I0906 15:59:24.229714 13560 net.cpp:165] Memory required for data: 4436271968
I0906 15:59:24.229717 13560 layer_factory.hpp:77] Creating layer conv9_2_mbox_priorbox
I0906 15:59:24.229722 13560 net.cpp:100] Creating Layer conv9_2_mbox_priorbox
I0906 15:59:24.229725 13560 net.cpp:434] conv9_2_mbox_priorbox <- conv9_2_conv9_2_relu_0_split_2
I0906 15:59:24.229728 13560 net.cpp:434] conv9_2_mbox_priorbox <- data_data_0_split_6
I0906 15:59:24.229732 13560 net.cpp:408] conv9_2_mbox_priorbox -> conv9_2_mbox_priorbox
I0906 15:59:24.229754 13560 net.cpp:150] Setting up conv9_2_mbox_priorbox
I0906 15:59:24.229766 13560 net.cpp:157] Top shape: 1 2 32 (64)
I0906 15:59:24.229769 13560 net.cpp:165] Memory required for data: 4436272224
I0906 15:59:24.229773 13560 layer_factory.hpp:77] Creating layer mbox_loc
I0906 15:59:24.229777 13560 net.cpp:100] Creating Layer mbox_loc
I0906 15:59:24.229781 13560 net.cpp:434] mbox_loc <- conv4_3_norm_mbox_loc_flat
I0906 15:59:24.229784 13560 net.cpp:434] mbox_loc <- fc7_mbox_loc_flat
I0906 15:59:24.229789 13560 net.cpp:434] mbox_loc <- conv6_2_mbox_loc_flat
I0906 15:59:24.229791 13560 net.cpp:434] mbox_loc <- conv7_2_mbox_loc_flat
I0906 15:59:24.229795 13560 net.cpp:434] mbox_loc <- conv8_2_mbox_loc_flat
I0906 15:59:24.229797 13560 net.cpp:434] mbox_loc <- conv9_2_mbox_loc_flat
I0906 15:59:24.229801 13560 net.cpp:408] mbox_loc -> mbox_loc
I0906 15:59:24.229827 13560 net.cpp:150] Setting up mbox_loc
I0906 15:59:24.229831 13560 net.cpp:157] Top shape: 16 38168 (610688)
I0906 15:59:24.229835 13560 net.cpp:165] Memory required for data: 4438714976
I0906 15:59:24.229836 13560 layer_factory.hpp:77] Creating layer mbox_conf
I0906 15:59:24.229840 13560 net.cpp:100] Creating Layer mbox_conf
I0906 15:59:24.229845 13560 net.cpp:434] mbox_conf <- conv4_3_norm_mbox_conf_flat
I0906 15:59:24.229847 13560 net.cpp:434] mbox_conf <- fc7_mbox_conf_flat
I0906 15:59:24.229849 13560 net.cpp:434] mbox_conf <- conv6_2_mbox_conf_flat
I0906 15:59:24.229853 13560 net.cpp:434] mbox_conf <- conv7_2_mbox_conf_flat
I0906 15:59:24.229856 13560 net.cpp:434] mbox_conf <- conv8_2_mbox_conf_flat
I0906 15:59:24.229858 13560 net.cpp:434] mbox_conf <- conv9_2_mbox_conf_flat
I0906 15:59:24.229863 13560 net.cpp:408] mbox_conf -> mbox_conf
I0906 15:59:24.229889 13560 net.cpp:150] Setting up mbox_conf
I0906 15:59:24.229893 13560 net.cpp:157] Top shape: 16 19084 (305344)
I0906 15:59:24.229897 13560 net.cpp:165] Memory required for data: 4439936352
I0906 15:59:24.229900 13560 layer_factory.hpp:77] Creating layer mbox_priorbox
I0906 15:59:24.229904 13560 net.cpp:100] Creating Layer mbox_priorbox
I0906 15:59:24.229908 13560 net.cpp:434] mbox_priorbox <- conv4_3_norm_mbox_priorbox
I0906 15:59:24.229912 13560 net.cpp:434] mbox_priorbox <- fc7_mbox_priorbox
I0906 15:59:24.229913 13560 net.cpp:434] mbox_priorbox <- conv6_2_mbox_priorbox
I0906 15:59:24.229916 13560 net.cpp:434] mbox_priorbox <- conv7_2_mbox_priorbox
I0906 15:59:24.229919 13560 net.cpp:434] mbox_priorbox <- conv8_2_mbox_priorbox
I0906 15:59:24.229924 13560 net.cpp:434] mbox_priorbox <- conv9_2_mbox_priorbox
I0906 15:59:24.229928 13560 net.cpp:408] mbox_priorbox -> mbox_priorbox
I0906 15:59:24.229950 13560 net.cpp:150] Setting up mbox_priorbox
I0906 15:59:24.229954 13560 net.cpp:157] Top shape: 1 2 38168 (76336)
I0906 15:59:24.229959 13560 net.cpp:165] Memory required for data: 4440241696
I0906 15:59:24.229961 13560 layer_factory.hpp:77] Creating layer mbox_loss
I0906 15:59:24.229969 13560 net.cpp:100] Creating Layer mbox_loss
I0906 15:59:24.229972 13560 net.cpp:434] mbox_loss <- mbox_loc
I0906 15:59:24.229975 13560 net.cpp:434] mbox_loss <- mbox_conf
I0906 15:59:24.229979 13560 net.cpp:434] mbox_loss <- mbox_priorbox
…
  name: "data"
  type: "AnnotatedData"
  top: "data"
  top: "label"
  include {
    phase: TEST
  }
  transform_param {
    mean_value: 104
    mean_value: 117
    mean_value: 123
    resize_param {
      prob: 1
      resize_mode: WARP
      height: 288
      width: 352
      interp_mode: LINEAR
    }
  }
  data_param {
    source: "/media/ly/data/baidunetdiskdownload/KITTI/ssd/lmdb/KITTI_test_lmdb"
    batch_size: 1
    backend: LMDB
  }
  annotated_data_param {
    batch_sampler {
    }
    label_map_file: "data/KITTI/labelmap_KITTI.prototxt"
  }
}
layer {
  name: "conv1_1"
  type: "Convolution"
  bottom: "data"
  top: "conv1_1"
  param {
    lr_mult: 1
    decay_mult: 1
  }
  param {
    lr_mult: 2
    decay_mult: 0
  }
  convolution_param {
    num_output: 64
    pad: 1
    kernel_size: 3
    weight_filler {
      type: "xavier"
    }
    bias_filler {
      type: "constant"
      value: 0
    }
  }
}
layer {
  name: "relu1_1"
  type: "ReLU"
  bottom: "conv1_1"
  top: "conv1_1"
}
layer {
  name: "conv1_2"
  type: "Convolution"
  bottom: "conv1_1"
  top: "conv1_2"
  param {
    lr_mult: 1
    decay_mult: 1
  }
  param {
    lr_mult: 2
    decay_mult: 0
  }
  convolution_param {
    num_output: 64
    pad: 1
    kernel_size: 3
    weight_filler {
      type: "xavier"
    }
    bias_filler {
      type: "constant"
      value: 0
    }
  }
}
layer {
  name: "relu1_2"
  type: "ReLU"
  bottom: "conv1_2"
  top: "conv1_2"
}
layer {
  name: "pool1"
  type: "Pooling"
  bottom: "conv1_2"
  top: "pool1"
  pooling_param {
    pool: MAX
    kernel_size: 2
    stride: 2
  }
}
layer {
  name: "conv2_1"
  type: "Convolution"
  bottom: "pool1"
  top: "conv2_1"
  param {
    lr_mult: 1
    decay_mult: 1
  }
  param {
    lr_mult: 2
    decay_mult: 0
  }
  convolution_param {
    num_output: 128
    pad: 1
    kernel_size: 3
    weight_filler {
      type: "xavier"
    }
    bias_filler {
      type: "constant"
      value: 0
    }
  }
}
layer {
  name: "relu2_1"
  type: "ReLU"
  bottom: "conv2_1"
  top: "conv2_1"
}
layer {
  name: "conv2_2"
  type: "Convolution"
  bottom: "conv2_1"
  top: "conv2_2"
  param {
    lr_mult: 1
    decay_mult: 1
  }
  param {
    lr_mult: 2
    decay_mult: 0
  }
  convolution_param {
    num_output: 128
    pad: 1
    kernel_size: 3
    weight_filler {
      type: "xavier"
    }
    bias_filler {
      type: "constant"
      value: 0
    }
  }
}
layer {
  name: "relu2_2"
  type: "ReLU"
  bottom: "conv2_2"
  top: "conv2_2"
}
layer {
  name: "pool2"
  type: "Pooling"
  bottom: "conv2_2"
  top: "pool2"
  pooling_param {
    pool: MAX
    kernel_size: 2
    stride: 2
  }
}
layer {
  name: "conv3_1"
  type: "Convolution"
  bottom: "pool2"
  top: "conv3_1"
  param {
    lr_mult: 1
    decay_mult: 1
  }
  param {
    lr_mult: 2
    decay_mult: 0
  }
  convolution_param {
    num_output: 256
    pad: 1
    kernel_size: 3
    weight_filler {
      type: "xavier"
    }
    bias_filler {
      type: "constant"
      value: 0
    }
  }
}
layer {
  name: "relu3_1"
  type: "ReLU"
  bottom: "conv3_1"
  top: "conv3_1"
}
layer {
  name: "conv3_2"
  type: "Convolution"
  bottom: "conv3_1"
  top: "conv3_2"
  param {
    lr_mult: 1
    decay_mult: 1
  }
  param {
    lr_mult: 2
    decay_mult: 0
  }
  convolution_param {
    num_output: 256
    pad: 1
    kernel_size: 3
    weight_filler {
      type: "xavier"
    }
    bias_filler {
      type: "constant"
      value: 0
    }
  }
}
layer {
  name: "relu3_2"
  type: "ReLU"
  bottom: "conv3_2"
  top: "conv3_2"
}
layer {
  name: "conv3_3"
  type: "Convolution"
  bottom: "conv3_2"
  top: "conv3_3"
  param {
    lr_mult: 1
    decay_mult: 1
  }
  param {
    lr_mult: 2
    decay_mult: 0
  }
  convolution_param {
    num_output: 256
    pad: 1
    kernel_size: 3
    weight_filler {
      type: "xavier"
    }
    bias_filler {
      type: "constant"
      value: 0
    }
  }
}
layer {
  name: "relu3_3"
  type: "ReLU"
  bottom: "conv3_3"
  top: "conv3_3"
}
layer {
  name: "pool3"
  type: "Pooling"
  bottom: "conv3_3"
  top: "pool3"
  pooling_param {
    pool: MAX
    kernel_size: 2
    stride: 2
  }
}
layer {
  name: "conv4_1"
  type: "Convolution"
  bottom: "pool3"
  top: "conv4_1"
  param {
    lr_mult: 1
    decay_mult: 1
  }
  param {
    lr_mult: 2
    decay_mult: 0
  }
  convolution_param {
    num_output: 512
    pad: 1
    kernel_size: 3
    weight_filler {
      type: "xavier"
    }
    bias_filler {
      type: "constant"
      value: 0
    }
  }
}
layer {
  name: "relu4_1"
  type: "ReLU"
  bottom: "conv4_1"
  top: "conv4_1"
}
layer {
  name: "conv4_2"
  type: "Convolution"
  bottom: "conv4_1"
  top: "conv4_2"
  param {
    lr_mult: 1
    decay_mult: 1
  }
  param {
    lr_mult: 2
    decay_mult: 0
  }
  convolution_param {
    num_output: 512
    pad: 1
    kernel_size: 3
    weight_filler {
      type: "xavier"
    }
    bias_filler {
      type: "constant"
      value: 0
    }
  }
}
layer {
  name: "relu4_2"
  type: "ReLU"
  bottom: "conv4_2"
  top: "conv4_2"
}
layer {
  name: "conv4_3"
  type: "Convolution"
  bottom: "conv4_2"
  top: "conv4_3"
  param {
    lr_mult: 1
    decay_mult: 1
  }
  param {
    lr_mult: 2
    decay_mult: 0
  }
  convolution_param {
    num_output: 512
    pad: 1
    kernel_size: 3
    weight_filler {
      type: "xavier"
    }
    bias_filler {
      type: "constant"
      value: 0
    }
  }
}
layer {
  name: "relu4_3"
  type: "ReLU"
  bottom: "conv4_3"
  top: "conv4_3"
}
layer {
  name: "pool4"
  type: "Pooling"
  bottom: "conv4_3"
  top: "pool4"
  pooling_param {
    pool: MAX
    kernel_size: 2
    stride: 2
  }
}
layer {
  name: "conv5_1"
  type: "Convolution"
  bottom: "pool4"
  top: "conv5_1"
  param {
    lr_mult: 1
    decay_mult: 1
  }
  param {
    lr_mult: 2
    decay_mult: 0
  }
  convolution_param {
    num_output: 512
    pad: 1
    kernel_size: 3
    weight_filler {
      type: "xavier"
    }
    bias_filler {
      type: "constant"
      value: 0
    }
    dilation: 1
  }
}
layer {
  name: "relu5_1"
  type: "ReLU"
  bottom: "conv5_1"
  top: "conv5_1"
}
layer {
  name: "conv5_2"
  type: "Convolution"
  bottom: "conv5_1"
  top: "conv5_2"
  param {
    lr_mult: 1
    decay_mult: 1
  }
  param {
    lr_mult: 2
    decay_mult: 0
  }
  convolution_param {
    num_output: 512
    pad: 1
    kernel_size: 3
    weight_filler {
      type: "xavier"
    }
    bias_filler {
      type: "constant"
      value: 0
    }
    dilation: 1
  }
}
layer {
  name: "relu5_2"
  type: "ReLU"
  bottom: "conv5_2"
  top: "conv5_2"
}
layer {
  name: "conv5_3"
  type: "Convolution"
  bottom: "conv5_2"
  top: "conv5_3"
  param {
    lr_mult: 1
    decay_mult: 1
  }
  param {
    lr_mult: 2
    decay_mult: 0
  }
  convolution_param {
    num_output: 512
    pad: 1
    kernel_size: 3
    weight_filler {
      type: "xavier"
    }
    bias_filler {
      type: "constant"
      value: 0
    }
    dilation: 1
  }
}
layer {
  name: "relu5_3"
  type: "ReLU"
  bottom: "conv5_3"
  top: "conv5_3"
}
layer {
  name: "pool5"
  type: "Pooling"
  bottom: "conv5_3"
  top: "pool5"
  pooling_param {
    pool: MAX
    kernel_size: 3
    stride: 1
    pad: 1
  }
}
layer {
  name: "fc6"
  type: "Convolution"
  bottom: "pool5"
  top: "fc6"
  param {
    lr_mult: 1
    decay_mult: 1
  }
  param {
    lr_mult: 2
    decay_mult: 0
  }
  convolution_param {
    num_output: 1024
    pad: 1
    kernel_size: 3
    weight_filler {
      type: "xavier"
    }
    bias_filler {
      type: "constant"
      value: 0
    }
    dilation: 1
  }
}
layer {
  name: "relu6"
  type: "ReLU"
  bottom: "fc6"
  top: "fc6"
}
layer {
  name: "fc7"
  type: "Convolution"
  bottom: "fc6"
  top: "fc7"
  param {
    lr_mult: 1
    decay_mult: 1
  }
  param {
    lr_mult: 2
    decay_mult: 0
  }
  convolution_param {
    num_output: 1024
    kernel_size: 1
    weight_filler {
      type: "xavier"
    }
    bias_filler {
      type: "constant"
      value: 0
    }
  }
}
layer {
  name: "relu7"
  type: "ReLU"
  bottom: "fc7"
  top: "fc7"
}
layer {
  name: "conv6_1"
  type: "Convolution"
  bottom: "fc7"
  top: "conv6_1"
  param {
    lr_mult: 1
    decay_mult: 1
  }
  param {
    lr_mult: 2
    decay_mult: 0
  }
  convolution_param {
    num_output: 256
    pad: 0
    kernel_size: 1
    stride: 1
    weight_filler {
      type: "xavier"
    }
    bias_filler {
      type: "constant"
      value: 0
    }
  }
}
layer {
  name: "conv6_1_relu"
  type: "ReLU"
  bottom: "conv6_1"
  top: "conv6_1"
}
layer {
  name: "conv6_2"
  type: "Convolution"
  bottom: "conv6_1"
  top: "conv6_2"
  param {
    lr_mult: 1
    decay_mult: 1
  }
  param {
    lr_mult: 2
    decay_mult: 0
  }
  convolution_param {
    num_output: 512
    pad: 1
    kernel_size: 3
    stride: 2
    weight_filler {
      type: "xavier"
    }
    bias_filler {
      type: "constant"
      value: 0
    }
  }
}
layer {
  name: "conv6_2_relu"
  type: "ReLU"
  bottom: "conv6_2"
  top: "conv6_2"
}
layer {
  name: "conv7_1"
  type: "Convolution"
  bottom: "conv6_2"
  top: "conv7_1"
  param {
    lr_mult: 1
    decay_mult: 1
  }
  param {
    lr_mult: 2
    decay_mult: 0
  }
  convolution_param {
    num_output: 128
    pad: 0
    kernel_size: 1
    stride: 1
    weight_filler {
      type: "xavier"
    }
    bias_filler {
      type: "constant"
      value: 0
    }
  }
}
layer {
  name: "conv7_1_relu"
  type: "ReLU"
  bottom: "conv7_1"
  top: "conv7_1"
}
layer {
  name: "conv7_2"
  type: "Convolution"
  bottom: "conv7_1"
  top: "conv7_2"
  param {
    lr_mult: 1
    decay_mult: 1
  }
  param {
    lr_mult: 2
    decay_mult: 0
  }
  convolution_param {
    num_output: 256
    pad: 1
    kernel_size: 3
    stride: 2
    weight_filler {
      type: "xavier"
    }
    bias_filler {
      type: "constant"
      value: 0
    }
  }
}
layer {
  name: "conv7_2_relu"
  type: "ReLU"
  bottom: "conv7_2"
  top: "conv7_2"
}
layer {
  name: "conv8_1"
  type: "Convolution"
  bottom: "conv7_2"
  top: "conv8_1"
  param {
    lr_mult: 1
    decay_mult: 1
  }
  param {
    lr_mult: 2
    decay_mult: 0
  }
  convolution_param {
    num_output: 128
    pad: 0
    kernel_size: 1
    stride: 1
    weight_filler {
      type: "xavier"
    }
    bias_filler {
      type: "constant"
      value: 0
    }
  }
}
layer {
  name: "conv8_1_relu"
  type: "ReLU"
  bottom: "conv8_1"
  top: "conv8_1"
}
layer {
  name: "conv8_2"
  type: "Convolution"
  bottom: "conv8_1"
  top: "conv8_2"
  param {
    lr_mult: 1
    decay_mult: 1
  }
  param {
    lr_mult: 2
    decay_mult: 0
  }
  convolution_param {
    num_output: 256
    pad: 0
    kernel_size: 3
    stride: 1
    weight_filler {
      type: "xavier"
    }
    bias_filler {
      type: "constant"
      value: 0
    }
  }
}
layer {
  name: "conv8_2_relu"
  type: "ReLU"
  bottom: "conv8_2"
  top: "conv8_2"
}
layer {
  name: "conv9_1"
  type: "Convolution"
  bottom: "conv8_2"
  top: "conv9_1"
  param {
    lr_mult: 1
    decay_mult: 1
  }
  param {
    lr_mult: 2
    decay_mult: 0
  }
  convolution_param {
    num_output: 128
    pad: 0
    kernel_size: 1
    stride: 1
    weight_filler {
      type: "xavier"
    }
    bias_filler {
      type: "constant"
      value: 0
    }
  }
}
layer {
  name: "conv9_1_relu"
  type: "ReLU"
  bottom: "conv9_1"
  top: "conv9_1"
}
layer {
  name: "conv9_2"
  type: "Convolution"
  bottom: "conv9_1"
  top: "conv9_2"
  param {
    lr_mult: 1
    decay_mult: 1
  }
  param {
    lr_mult: 2
    decay_mult: 0
  }
  convolution_param {
    num_output: 256
    pad: 0
    kernel_size: 3
    stride: 1
    weight_filler {
      type: "xavier"
    }
    bias_filler {
      type: "constant"
      value: 0
    }
  }
}
layer {
  name: "conv9_2_relu"
  type: "ReLU"
  bottom: "conv9_2"
  top: "conv9_2"
}
layer {
  name: "conv4_3_norm"
  type: "Normalize"
  bottom: "conv4_3"
  top: "conv4_3_norm"
  norm_param {
    across_spatial: false
    scale_filler {
      type: "constant"
      value: 20
    }
    channel_shared: false
  }
}
layer {
  name: "conv4_3_norm_mbox_loc"
  type: "Convolution"
  bottom: "conv4_3_norm"
  top: "conv4_3_norm_mbox_loc"
  param {
    lr_mult: 1
    decay_mult: 1
  }
  param {
    lr_mult: 2
    decay_mult: 0
  }
  convolution_param {
    num_output: 16
    pad: 1
    kernel_size: 3
    stride: 1
    weight_filler {
      type: "xavier"
    }
    bias_filler {
      type: "constant"
      value: 0
    }
  }
}
layer {
  name: "conv4_3_norm_mbox_loc_perm"
  type: "Permute"
  bottom: "conv4_3_norm_mbox_loc"
  top: "conv4_3_norm_mbox_loc_perm"
  permute_param {
    order: 0
    order: 2
    order: 3
    order: 1
  }
}
layer {
  name: "conv4_3_norm_mbox_loc_flat"
  type: "Flatten"
  bottom: "conv4_3_norm_mbox_loc_perm"
  top: "conv4_3_norm_mbox_loc_flat"
  flatten_param {
    axis: 1
  }
}
layer {
  name: "conv4_3_norm_mbox_conf"
  type: "Convolution"
  bottom: "conv4_3_norm"
  top: "conv4_3_norm_mbox_conf"
  param {
    lr_mult: 1
    decay_mult: 1
  }
  param {
    lr_mult: 2
    decay_mult: 0
  }
  convolution_param {
    num_output: 8
    pad: 1
    kernel_size: 3
    stride: 1
    weight_filler {
      type: "xavier"
    }
    bias_filler {
      type: "constant"
      value: 0
    }
  }
}
layer {
  name: "conv4_3_norm_mbox_conf_perm"
  type: "Permute"
  bottom: "conv4_3_norm_mbox_conf"
  top: "conv4_3_norm_mbox_conf_perm"
  permute_param {
    order: 0
    order: 2
    order: 3
    order: 1
  }
}
layer {
  name: "conv4_3_norm_mbox_conf_flat"
  type: "Flatten"
  bottom: "conv4_3_norm_mbox_conf_perm"
  top: "conv4_3_norm_mbox_conf_flat"
  flatten_param {
    axis: 1
  }
}
layer {
  name: "conv4_3_norm_mbox_priorbox"
  type: "PriorBox"
  bottom: "conv4_3_norm"
  bottom: "data"
  top: "conv4_3_norm_mbox_priorbox"
  prior_box_param {
    min_size: 30
    max_size: 60
    aspect_ratio: 2
    flip: true
    clip: true
    variance: 0.1
    variance: 0.1
    variance: 0.2
    variance: 0.2
    step: 8
    offset: 0.5
  }
}
layer {
  name: "fc7_mbox_loc"
  type: "Convolution"
  bottom: "fc7"
  top: "fc7_mbox_loc"
  param {
    lr_mult: 1
    decay_mult: 1
  }
  param {
    lr_mult: 2
    decay_mult: 0
  }
  convolution_param {
    num_output: 24
    pad: 1
    kernel_size: 3
    stride: 1
    weight_filler {
      type: "xavier"
    }
    bias_filler {
      type: "constant"
      value: 0
    }
  }
}
layer {
  name: "fc7_mbox_loc_perm"
  type: "Permute"
  bottom: "fc7_mbox_loc"
  top: "fc7_mbox_loc_perm"
  permute_param {
    order: 0
    order: 2
    order: 3
    order: 1
  }
}
layer {
  name: "fc7_mbox_loc_flat"
  type: "Flatten"
  bottom: "fc7_mbox_loc_perm"
  top: "fc7_mbox_loc_flat"
  flatten_param {
    axis: 1
  }
}
layer {
  name: "fc7_mbox_conf"
  type: "Convolution"
  bottom: "fc7"
  top: "fc7_mbox_conf"
  param {
    lr_mult: 1
    decay_mult: 1
  }
  param {
    lr_mult: 2
    decay_mult: 0
  }
  convolution_param {
    num_output: 12
    pad: 1
    kernel_size: 3
    stride: 1
    weight_filler {
      type: "xavier"
    }
    bias_filler {
      type: "constant"
      value: 0
    }
  }
}
layer {
  name: "fc7_mbox_conf_perm"
  type: "Permute"
  bottom: "fc7_mbox_conf"
  top: "fc7_mbox_conf_perm"
  permute_param {
    order: 0
    order: 2
    order: 3
    order: 1
  }
}
layer {
  name: "fc7_mbox_conf_flat"
  type: "Flatten"
  bottom: "fc7_mbox_conf_perm"
  top: "fc7_mbox_conf_flat"
  flatten_param {
    axis: 1
  }
}
layer {
  name: "fc7_mbox_priorbox"
  type: "PriorBox"
  bottom: "fc7"
  bottom: "data"
  top: "fc7_mbox_priorbox"
  prior_box_param {
    min_size: 60
    max_size: 111
    aspect_ratio: 2
    aspect_ratio: 3
    flip: true
    clip: true
    variance: 0.1
    variance: 0.1
    variance: 0.2
    variance: 0.2
    step: 16
    offset: 0.5
  }
}
layer {
  name: "conv6_2_mbox_loc"
  type: "Convolution"
  bottom: "conv6_2"
  top: "conv6_2_mbox_loc"
  param {
    lr_mult: 1
    decay_mult: 1
  }
  param {
    lr_mult: 2
    decay_mult: 0
  }
  convolution_param {
    num_output: 24
    pad: 1
    kernel_size: 3
    stride: 1
    weight_filler {
      type: "xavier"
    }
    bias_filler {
      type: "constant"
      value: 0
    }
  }
}
layer {
  name: "conv6_2_mbox_loc_perm"
  type: "Permute"
  bottom: "conv6_2_mbox_loc"
  top: "conv6_2_mbox_loc_perm"
  permute_param {
    order: 0
    order: 2
    order: 3
    order: 1
  }
}
layer {
  name: "conv6_2_mbox_loc_flat"
  type: "Flatten"
  bottom: "conv6_2_mbox_loc_perm"
  top: "conv6_2_mbox_loc_flat"
  flatten_param {
    axis: 1
  }
}
layer {
  name: "conv6_2_mbox_conf"
  type: "Convolution"
  bottom: "conv6_2"
  top: "conv6_2_mbox_conf"
  param {
    lr_mult: 1
    decay_mult: 1
  }
  param {
    lr_mult: 2
    decay_mult: 0
  }
  convolution_param {
    num_output: 12
    pad: 1
    kernel_size: 3
    stride: 1
    weight_filler {
      type: "xavier"
    }
    bias_filler {
      type: "constant"
      value: 0
    }
  }
}
layer {
  name: "conv6_2_mbox_conf_perm"
  type: "Permute"
  bottom: "conv6_2_mbox_conf"
  top: "conv6_2_mbox_conf_perm"
  permute_param {
    order: 0
    order: 2
    order: 3
    order: 1
  }
}
layer {
  name: "conv6_2_mbox_conf_flat"
  type: "Flatten"
  bottom: "conv6_2_mbox_conf_perm"
  top: "conv6_2_mbox_conf_flat"
  flatten_param {
    axis: 1
  }
}
layer {
  name: "conv6_2_mbox_priorbox"
  type: "PriorBox"
  bottom: "conv6_2"
  bottom: "data"
  top: "conv6_2_mbox_priorbox"
  prior_box_param {
    min_size: 111
    max_size: 162
    aspect_ratio: 2
    aspect_ratio: 3
    flip: true
    clip: true
    variance: 0.1
    variance: 0.1
    variance: 0.2
    variance: 0.2
    step: 32
    offset: 0.5
  }
}
layer {
  name: "conv7_2_mbox_loc"
  type: "Convolution"
  bottom: "conv7_2"
  top: "conv7_2_mbox_loc"
  param {
    lr_mult: 1
    decay_mult: 1
  }
  param {
    lr_mult: 2
    decay_mult: 0
  }
  convolution_param {
    num_output: 24
    pad: 1
    kernel_size: 3
    stride: 1
    weight_filler {
      type: "xavier"
    }
    bias_filler {
      type: "constant"
      value: 0
    }
  }
}
layer {
  name: "conv7_2_mbox_loc_perm"
  type: "Permute"
  bottom: "conv7_2_mbox_loc"
  top: "conv7_2_mbox_loc_perm"
  permute_param {
    order: 0
    order: 2
    order: 3
    order: 1
  }
}
layer {
  name: "conv7_2_mbox_loc_flat"
  type: "Flatten"
  bottom: "conv7_2_mbox_loc_perm"
  top: "conv7_2_mbox_loc_flat"
  flatten_param {
    axis: 1
  }
}
layer {
  name: "conv7_2_mbox_conf"
  type: "Convolution"
  bottom: "conv7_2"
  top: "conv7_2_mbox_conf"
  param {
    lr_mult: 1
    decay_mult: 1
  }
  param {
    lr_mult: 2
    decay_mult: 0
  }
  convolution_param {
    num_output: 12
    pad: 1
    kernel_size: 3
    stride: 1
    weight_filler {
      type: "xavier"
    }
    bias_filler {
      type: "constant"
      value: 0
    }
  }
}
layer {
  name: "conv7_2_mbox_conf_perm"
  type: "Permute"
  bottom: "conv7_2_mbox_conf"
  top: "conv7_2_mbox_conf_perm"
  permute_param {
    order: 0
    order: 2
    order: 3
    order: 1
  }
}
layer {
  name: "conv7_2_mbox_conf_flat"
  type: "Flatten"
  bottom: "conv7_2_mbox_conf_perm"
  top: "conv7_2_mbox_conf_flat"
  flatten_param {
    axis: 1
  }
}
layer {
  name: "conv7_2_mbox_priorbox"
  type: "PriorBox"
  bottom: "conv7_2"
  bottom: "data"
  top: "conv7_2_mbox_priorbox"
  prior_box_param {
    min_size: 162
    max_size: 213
    aspect_ratio: 2
    aspect_ratio: 3
    flip: true
    clip: true
    variance: 0.1
    variance: 0.1
    variance: 0.2
    variance: 0.2
    step: 64
    offset: 0.5
  }
}
layer {
  name: "conv8_2_mbox_loc"
  type: "Convolution"
  bottom: "conv8_2"
  top: "conv8_2_mbox_loc"
  param {
    lr_mult: 1
    decay_mult: 1
  }
  param {
    lr_mult: 2
    decay_mult: 0
  }
  convolution_param {
    num_output: 16
    pad: 1
    kernel_size: 3
    stride: 1
    weight_filler {
      type: "xavier"
    }
    bias_filler {
      type: "constant"
      value: 0
    }
  }
}
layer {
  name: "conv8_2_mbox_loc_perm"
  type: "Permute"
  bottom: "conv8_2_mbox_loc"
  top: "conv8_2_mbox_loc_perm"
  permute_param {
    order: 0
    order: 2
    order: 3
    order: 1
  }
}
layer {
  name: "conv8_2_mbox_loc_flat"
  type: "Flatten"
  bottom: "conv8_2_mbox_loc_perm"
  top: "conv8_2_mbox_loc_flat"
  flatten_param {
    axis: 1
  }
}
layer {
  name: "conv8_2_mbox_conf"
  type: "Convolution"
  bottom: "conv8_2"
  top: "conv8_2_mbox_conf"
  param {
    lr_mult: 1
    decay_mult: 1
  }
  param {
    lr_mult: 2
    decay_mult: 0
  }
  convolution_param {
    num_output: 8
    pad: 1
    kernel_size: 3
    stride: 1
    weight_filler {
      type: "xavier"
    }
    bias_filler {
      type: "constant"
      value: 0
    }
  }
}
layer {
  name: "conv8_2_mbox_conf_perm"
  type: "Permute"
  bottom: "conv8_2_mbox_conf"
  top: "conv8_2_mbox_conf_perm"
  permute_param {
    order: 0
    order: 2
    order: 3
    order: 1
  }
}
layer {
  name: "conv8_2_mbox_conf_flat"
  type: "Flatten"
  bottom: "conv8_2_mbox_conf_perm"
  top: "conv8_2_mbox_conf_flat"
  flatten_param {
    axis: 1
  }
}
layer {
  name: "conv8_2_mbox_priorbox"
  type: "PriorBox"
  bottom: "conv8_2"
  bottom: "data"
  top: "conv8_2_mbox_priorbox"
  prior_box_param {
    min_size: 213
    max_size: 264
    aspect_ratio: 2
    flip: true
    clip: true
    variance: 0.1
    variance: 0.1
    variance: 0.2
    variance: 0.2
    step: 100
    offset: 0.5
  }
}
layer {
  name: "conv9_2_mbox_loc"
  type: "Convolution"
  bottom: "conv9_2"
  top: "conv9_2_mbox_loc"
  param {
    lr_mult: 1
    decay_mult: 1
  }
  param {
    lr_mult: 2
    decay_mult: 0
  }
  convolution_param {
    num_output: 16
    pad: 1
    kernel_size: 3
    stride: 1
    weight_filler {
      type: "xavier"
    }
    bias_filler {
      type: "constant"
      value: 0
    }
  }
}
layer {
  name: "conv9_2_mbox_loc_perm"
  type: "Permute"
  bottom: "conv9_2_mbox_loc"
  top: "conv9_2_mbox_loc_perm"
  permute_param {
    order: 0
    order: 2
    order: 3
    order: 1
  }
}
layer {
  name: "conv9_2_mbox_loc_flat"
  type: "Flatten"
  bottom: "conv9_2_mbox_loc_perm"
  top: "conv9_2_mbox_loc_flat"
  flatten_param {
    axis: 1
  }
}
layer {
  name: "conv9_2_mbox_conf"
  type: "Convolution"
  bottom: "conv9_2"
  top: "conv9_2_mbox_conf"
  param {
    lr_mult: 1
    decay_mult: 1
  }
  param {
    lr_mult: 2
    decay_mult: 0
  }
  convolution_param {
    num_output: 8
    pad: 1
    kernel_size: 3
    stride: 1
    weight_filler {
      type: "xavier"
    }
    bias_filler {
      type: "constant"
      value: 0
    }
  }
}
layer {
  name: "conv9_2_mbox_conf_perm"
  type: "Permute"
  bottom: "conv9_2_mbox_conf"
  top: "conv9_2_mbox_conf_perm"
  permute_param {
    order: 0
    order: 2
    order: 3
    order: 1
  }
}
layer {
  name: "conv9_2_mbox_conf_flat"
  type: "Flatten"
  bottom: "conv9_2_mbox_conf_perm"
  top: "conv9_2_mbox_conf_flat"
  flatten_param {
    axis: 1
  }
}
layer {
  name: "conv9_2_mbox_priorbox"
  type: "PriorBox"
  bottom: "conv9_2"
  bottom: "data"
  top: "conv9_2_mbox_priorbox"
  prior_box_param {
    min_size: 264
    max_size: 315
    aspect_ratio: 2
    flip: true
    clip: true
    variance: 0.1
    variance: 0.1
    variance: 0.2
    variance: 0.2
    step: 300
    offset: 0.5
  }
}
layer {
  name: "mbox_loc"
  type: "Concat"
  bottom: "conv4_3_norm_mbox_loc_flat"
  bottom: "fc7_mbox_loc_flat"
  bottom: "conv6_2_mbox_loc_flat"
  bottom: "conv7_2_mbox_loc_flat"
  bottom: "conv8_2_mbox_loc_flat"
  bottom: "conv9_2_mbox_loc_flat"
  top: "mbox_loc"
  concat_param {
    axis: 1
  }
}
layer {
  name: "mbox_conf"
  type: "Concat"
  bottom: "conv4_3_norm_mbox_conf_flat"
  bottom: "fc7_mbox_conf_flat"
  bottom: "conv6_2_mbox_conf_flat"
  bottom: "conv7_2_mbox_conf_flat"
  bottom: "conv8_2_mbox_conf_flat"
  bottom: "conv9_2_mbox_conf_flat"
  top: "mbox_conf"
  concat_param {
    axis: 1
  }
}
layer {
  name: "mbox_priorbox"
  type: "Concat"
  bottom: "conv4_3_norm_mbox_priorbox"
  bottom: "fc7_mbox_priorbox"
  bottom: "conv6_2_mbox_priorbox"
  bottom: "conv7_2_mbox_priorbox"
  bottom: "conv8_2_mbox_priorbox"
  bottom: "conv9_2_mbox_priorbox"
  top: "mbox_priorbox"
  concat_param {
    axis: 2
  }
}
layer {
  name: "mbox_conf_reshape"
  type: "Reshape"
  bottom: "mbox_conf"
  top: "mbox_conf_reshape"
  reshape_param {
    shape {
      dim: 0
      dim: -1
      dim: 2
    }
  }
}
layer {
  name: "mbox_conf_softmax"
  type: "Softmax"
  bottom: "mbox_conf_reshape"
  top: "mbox_conf_softmax"
  softmax_param {
    axis: 2
  }
}
layer {
  name: "mbox_conf_flatten"
  type: "Flatten"
  bottom: "mbox_conf_softmax"
  top: "mbox_conf_flatten"
  flatten_param {
    axis: 1
  }
}
layer {
  name: "detection_out"
  type: "DetectionOutput"
  bottom: "mbox_loc"
  bottom: "mbox_conf_flatten"
  bottom: "mbox_priorbox"
  top: "detection_out"
  include {
    phase: TEST
  }
  detection_output_param {
    num_classes: 2
    share_location: true
    background_label_id: 0
    nms_param {
      nms_threshold: 0.45
      top_k: 400
    }
    save_output_param {
      output_directory: "/home/ly/data/KITTI/results/KITTI/SSD_352x288/Main"
      output_name_prefix: "comp4_det_test_"
      output_format: "VOC"
      label_map_file: "data/KITTI/labelmap_KITTI.prototxt"
      name_size_file: "data/KITTI/test_name_size.txt"
      num_test_image: 1000
    }
    code_type: CENTER_SIZE
    keep_top_k: 200
    confidence_threshold: 0.01
  }
}
layer {
  name: "detection_eval"
  type: "DetectionEvaluate"
  bottom: "detection_out"
  bottom: "label"
  top: "detection_eval"
  include {
    phase: TEST
  }
  detection_evaluate_param {
    num_classes: 2
    background_label_id: 0
    overlap_threshold: 0.5
    evaluate_difficult_gt: false
    name_size_file: "data/KITTI/test_name_size.txt"
  }
}
I0906 15:59:24.232903 13560 layer_factory.hpp:77] Creating layer data
I0906 15:59:24.232946 13560 net.cpp:100] Creating Layer data
I0906 15:59:24.232954 13560 net.cpp:408] data -> data
I0906 15:59:24.232964 13560 net.cpp:408] data -> label
I0906 15:59:24.233636 13593 db_lmdb.cpp:35] Opened lmdb /media/ly/data/baidunetdiskdownload/KITTI/ssd/lmdb/KITTI_test_lmdb
I0906 15:59:24.237035 13560 annotated_data_layer.cpp:62] output data size: 1,3,288,352
I0906 15:59:24.239976 13560 net.cpp:150] Setting up data
I0906 15:59:24.240021 13560 net.cpp:157] Top shape: 1 3 288 352 (304128)
I0906 15:59:24.240041 13560 net.cpp:157] Top shape: 1 1 1 8 (8)
I0906 15:59:24.240052 13560 net.cpp:165] Memory required for data: 1216544
I0906 15:59:24.240067 13560 layer_factory.hpp:77] Creating layer data_data_0_split
I0906 15:59:24.240087 13560 net.cpp:100] Creating Layer data_data_0_split
I0906 15:59:24.240099 13560 net.cpp:434] data_data_0_split <- data
I0906 15:59:24.240116 13560 net.cpp:408] data_data_0_split -> data_data_0_split_0
I0906 15:59:24.240134 13560 net.cpp:408] data_data_0_split -> data_data_0_split_1
I0906 15:59:24.240149 13560 net.cpp:408] data_data_0_split -> data_data_0_split_2
I0906 15:59:24.240164 13560 net.cpp:408] data_data_0_split -> data_data_0_split_3
I0906 15:59:24.240178 13560 net.cpp:408] data_data_0_split -> data_data_0_split_4
I0906 15:59:24.240192 13560 net.cpp:408] data_data_0_split -> data_data_0_split_5
I0906 15:59:24.240206 13560 net.cpp:408] data_data_0_split -> data_data_0_split_6
I0906 15:59:24.240357 13560 net.cpp:150] Setting up data_data_0_split
I0906 15:59:24.240372 13560 net.cpp:157] Top shape: 1 3 288 352 (304128)
I0906 15:59:24.240386 13560 net.cpp:157] Top shape: 1 3 288 352 (304128)
I0906 15:59:24.240398 13560 net.cpp:157] Top shape: 1 3 288 352 (304128)
I0906 15:59:24.240409 13560 net.cpp:157] Top shape: 1 3 288 352 (304128)
I0906 15:59:24.240422 13560 net.cpp:157] Top shape: 1 3 288 352 (304128)
I0906 15:59:24.240433 13560 net.cpp:157] Top shape: 1 3 288 352 (304128)
I0906 15:59:24.240451 13560 net.cpp:157] Top shape: 1 3 288 352 (304128)
I0906 15:59:24.240484 13560 net.cpp:165] Memory required for data: 9732128
I0906 15:59:24.240496 13560 layer_factory.hpp:77] Creating layer conv1_1
I0906 15:59:24.240515 13560 net.cpp:100] Creating Layer conv1_1
I0906 15:59:24.240527 13560 net.cpp:434] conv1_1 <- data_data_0_split_0
I0906 15:59:24.240541 13560 net.cpp:408] conv1_1 -> conv1_1
I0906 15:59:24.243647 13560 net.cpp:150] Setting up conv1_1
I0906 15:59:24.243659 13560 net.cpp:157] Top shape: 1 64 288 352 (6488064)
I0906 15:59:24.243664 13560 net.cpp:165] Memory required for data: 35684384
I0906 15:59:24.243674 13560 layer_factory.hpp:77] Creating layer relu1_1
I0906 15:59:24.243680 13560 net.cpp:100] Creating Layer relu1_1
I0906 15:59:24.243682 13560 net.cpp:434] relu1_1 <- conv1_1
I0906 15:59:24.243685 13560 net.cpp:395] relu1_1 -> conv1_1 (in-place)
I0906 15:59:24.243997 13560 net.cpp:150] Setting up relu1_1
I0906 15:59:24.244004 13560 net.cpp:157] Top shape: 1 64 288 352 (6488064)
I0906 15:59:24.244007 13560 net.cpp:165] Memory required for data: 61636640
I0906 15:59:24.244009 13560 layer_factory.hpp:77] Creating layer conv1_2
I0906 15:59:24.244019 13560 net.cpp:100] Creating Layer conv1_2
I0906 15:59:24.244020 13560 net.cpp:434] conv1_2 <- conv1_1
I0906 15:59:24.244024 13560 net.cpp:408] conv1_2 -> conv1_2
I0906 15:59:24.246381 13560 net.cpp:150] Setting up conv1_2
I0906 15:59:24.246392 13560 net.cpp:157] Top shape: 1 64 288 352 (6488064)
I0906 15:59:24.246395 13560 net.cpp:165] Memory required for data: 87588896
I0906 15:59:24.246402 13560 layer_factory.hpp:77] Creating layer relu1_2
I0906 15:59:24.246408 13560 net.cpp:100] Creating Layer relu1_2
I0906 15:59:24.246412 13560 net.cpp:434] relu1_2 <- conv1_2
I0906 15:59:24.246415 13560 net.cpp:395] relu1_2 -> conv1_2 (in-place)
I0906 15:59:24.246933 13560 net.cpp:150] Setting up relu1_2
I0906 15:59:24.246940 13560 net.cpp:157] Top shape: 1 64 288 352 (6488064)
I0906 15:59:24.246945 13560 net.cpp:165] Memory required for data: 113541152
I0906 15:59:24.246948 13560 layer_factory.hpp:77] Creating layer pool1
I0906 15:59:24.246956 13560 net.cpp:100] Creating Layer pool1
I0906 15:59:24.246959 13560 net.cpp:434] pool1 <- conv1_2
I0906 15:59:24.246963 13560 net.cpp:408] pool1 -> pool1
I0906 15:59:24.247009 13560 net.cpp:150] Setting up pool1
I0906 15:59:24.247012 13560 net.cpp:157] Top shape: 1 64 144 176 (1622016)
I0906 15:59:24.247016 13560 net.cpp:165] Memory required for data: 120029216
I0906 15:59:24.247018 13560 layer_factory.hpp:77] Creating layer conv2_1
I0906 15:59:24.247026 13560 net.cpp:100] Creating Layer conv2_1
I0906 15:59:24.247028 13560 net.cpp:434] conv2_1 <- pool1
I0906 15:59:24.247032 13560 net.cpp:408] conv2_1 -> conv2_1
I0906 15:59:24.250676 13560 net.cpp:150] Setting up conv2_1
I0906 15:59:24.250689 13560 net.cpp:157] Top shape: 1 128 144 176 (3244032)
I0906 15:59:24.250692 13560 net.cpp:165] Memory required for data: 133005344
I0906 15:59:24.250702 13560 layer_factory.hpp:77] Creating layer relu2_1
I0906 15:59:24.250710 13560 net.cpp:100] Creating Layer relu2_1
I0906 15:59:24.250713 13560 net.cpp:434] relu2_1 <- conv2_1
I0906 15:59:24.250717 13560 net.cpp:395] relu2_1 -> conv2_1 (in-place)
I0906 15:59:24.251102 13560 net.cpp:150] Setting up relu2_1
I0906 15:59:24.251108 13560 net.cpp:157] Top shape: 1 128 144 176 (3244032)
I0906 15:59:24.251112 13560 net.cpp:165] Memory required for data: 145981472
I0906 15:59:24.251114 13560 layer_factory.hpp:77] Creating layer conv2_2
I0906 15:59:24.251123 13560 net.cpp:100] Creating Layer conv2_2
I0906 15:59:24.251127 13560 net.cpp:434] conv2_2 <- conv2_1
I0906 15:59:24.251130 13560 net.cpp:408] conv2_2 -> conv2_2
I0906 15:59:24.253420 13560 net.cpp:150] Setting up conv2_2
I0906 15:59:24.253429 13560 net.cpp:157] Top shape: 1 128 144 176 (3244032)
I0906 15:59:24.253434 13560 net.cpp:165] Memory required for data: 158957600
I0906 15:59:24.253443 13560 layer_factory.hpp:77] Creating layer relu2_2
I0906 15:59:24.253449 13560 net.cpp:100] Creating Layer relu2_2
I0906 15:59:24.253453 13560 net.cpp:434] relu2_2 <- conv2_2
I0906 15:59:24.253474 13560 net.cpp:395] relu2_2 -> conv2_2 (in-place)
I0906 15:59:24.253969 13560 net.cpp:150] Setting up relu2_2
I0906 15:59:24.253976 13560 net.cpp:157] Top shape: 1 128 144 176 (3244032)
I0906 15:59:24.253979 13560 net.cpp:165] Memory required for data: 171933728
I0906 15:59:24.253983 13560 layer_factory.hpp:77] Creating layer pool2
I0906 15:59:24.253989 13560 net.cpp:100] Creating Layer pool2
I0906 15:59:24.253993 13560 net.cpp:434] pool2 <- conv2_2
I0906 15:59:24.253995 13560 net.cpp:408] pool2 -> pool2
I0906 15:59:24.254040 13560 net.cpp:150] Setting up pool2
I0906 15:59:24.254045 13560 net.cpp:157] Top shape: 1 128 72 88 (811008)
I0906 15:59:24.254047 13560 net.cpp:165] Memory required for data: 175177760
I0906 15:59:24.254050 13560 layer_factory.hpp:77] Creating layer conv3_1
I0906 15:59:24.254055 13560 net.cpp:100] Creating Layer conv3_1
I0906 15:59:24.254058 13560 net.cpp:434] conv3_1 <- pool2
I0906 15:59:24.254062 13560 net.cpp:408] conv3_1 -> conv3_1
I0906 15:59:24.257383 13560 net.cpp:150] Setting up conv3_1
I0906 15:59:24.257403 13560 net.cpp:157] Top shape: 1 256 72 88 (1622016)
I0906 15:59:24.257411 13560 net.cpp:165] Memory required for data: 181665824
I0906 15:59:24.257426 13560 layer_factory.hpp:77] Creating layer relu3_1
I0906 15:59:24.257436 13560 net.cpp:100] Creating Layer relu3_1
I0906 15:59:24.257441 13560 net.cpp:434] relu3_1 <- conv3_1
I0906 15:59:24.257447 13560 net.cpp:395] relu3_1 -> conv3_1 (in-place)
I0906 15:59:24.257843 13560 net.cpp:150] Setting up relu3_1
I0906 15:59:24.257850 13560 net.cpp:157] Top shape: 1 256 72 88 (1622016)
I0906 15:59:24.257854 13560 net.cpp:165] Memory required for data: 188153888
I0906 15:59:24.257856 13560 layer_factory.hpp:77] Creating layer conv3_2
I0906 15:59:24.257866 13560 net.cpp:100] Creating Layer conv3_2
I0906 15:59:24.257869 13560 net.cpp:434] conv3_2 <- conv3_1
I0906 15:59:24.257874 13560 net.cpp:408] conv3_2 -> conv3_2
I0906 15:59:24.263948 13560 net.cpp:150] Setting up conv3_2
I0906 15:59:24.263962 13560 net.cpp:157] Top shape: 1 256 72 88 (1622016)
I0906 15:59:24.263967 13560 net.cpp:165] Memory required for data: 194641952
I0906 15:59:24.263973 13560 layer_factory.hpp:77] Creating layer relu3_2
I0906 15:59:24.263979 13560 net.cpp:100] Creating Layer relu3_2
I0906 15:59:24.263983 13560 net.cpp:434] relu3_2 <- conv3_2
I0906 15:59:24.263988 13560 net.cpp:395] relu3_2 -> conv3_2 (in-place)
I0906 15:59:24.264364 13560 net.cpp:150] Setting up relu3_2
I0906 15:59:24.264369 13560 net.cpp:157] Top shape: 1 256 72 88 (1622016)
I0906 15:59:24.264374 13560 net.cpp:165] Memory required for data: 201130016
I0906 15:59:24.264376 13560 layer_factory.hpp:77] Creating layer conv3_3
I0906 15:59:24.264386 13560 net.cpp:100] Creating Layer conv3_3
I0906 15:59:24.264389 13560 net.cpp:434] conv3_3 <- conv3_2
I0906 15:59:24.264394 13560 net.cpp:408] conv3_3 -> conv3_3
I0906 15:59:24.268890 13560 net.cpp:150] Setting up conv3_3
I0906 15:59:24.268900 13560 net.cpp:157] Top shape: 1 256 72 88 (1622016)
I0906 15:59:24.268905 13560 net.cpp:165] Memory required for data: 207618080
I0906 15:59:24.268911 13560 layer_factory.hpp:77] Creating layer relu3_3
I0906 15:59:24.268916 13560 net.cpp:100] Creating Layer relu3_3
I0906 15:59:24.268919 13560 net.cpp:434] relu3_3 <- conv3_3
I0906 15:59:24.268923 13560 net.cpp:395] relu3_3 -> conv3_3 (in-place)
I0906 15:59:24.269461 13560 net.cpp:150] Setting up relu3_3
I0906 15:59:24.269469 13560 net.cpp:157] Top shape: 1 256 72 88 (1622016)
I0906 15:59:24.269472 13560 net.cpp:165] Memory required for data: 214106144
I0906 15:59:24.269474 13560 layer_factory.hpp:77] Creating layer pool3
I0906 15:59:24.269481 13560 net.cpp:100] Creating Layer pool3
I0906 15:59:24.269484 13560 net.cpp:434] pool3 <- conv3_3
I0906 15:59:24.269488 13560 net.cpp:408] pool3 -> pool3
I0906 15:59:24.269536 13560 net.cpp:150] Setting up pool3
I0906 15:59:24.269539 13560 net.cpp:157] Top shape: 1 256 36 44 (405504)
I0906 15:59:24.269542 13560 net.cpp:165] Memory required for data: 215728160
I0906 15:59:24.269546 13560 layer_factory.hpp:77] Creating layer conv4_1
I0906 15:59:24.269565 13560 net.cpp:100] Creating Layer conv4_1
I0906 15:59:24.269568 13560 net.cpp:434] conv4_1 <- pool3
I0906 15:59:24.269573 13560 net.cpp:408] conv4_1 -> conv4_1
I0906 15:59:24.277966 13560 net.cpp:150] Setting up conv4_1
I0906 15:59:24.277981 13560 net.cpp:157] Top shape: 1 512 36 44 (811008)
I0906 15:59:24.277985 13560 net.cpp:165] Memory required for data: 218972192
I0906 15:59:24.277992 13560 layer_factory.hpp:77] Creating layer relu4_1
I0906 15:59:24.277999 13560 net.cpp:100] Creating Layer relu4_1
I0906 15:59:24.278003 13560 net.cpp:434] relu4_1 <- conv4_1
I0906 15:59:24.278007 13560 net.cpp:395] relu4_1 -> conv4_1 (in-place)
I0906 15:59:24.278395 13560 net.cpp:150] Setting up relu4_1
I0906 15:59:24.278401 13560 net.cpp:157] Top shape: 1 512 36 44 (811008)
I0906 15:59:24.278404 13560 net.cpp:165] Memory required for data: 222216224
I0906 15:59:24.278406 13560 layer_factory.hpp:77] Creating layer conv4_2
I0906 15:59:24.278416 13560 net.cpp:100] Creating Layer conv4_2
I0906 15:59:24.278419 13560 net.cpp:434] conv4_2 <- conv4_1
I0906 15:59:24.278424 13560 net.cpp:408] conv4_2 -> conv4_2
I0906 15:59:24.290401 13560 net.cpp:150] Setting up conv4_2
I0906 15:59:24.290452 13560 net.cpp:157] Top shape: 1 512 36 44 (811008)
I0906 15:59:24.290468 13560 net.cpp:165] Memory required for data: 225460256
I0906 15:59:24.290488 13560 layer_factory.hpp:77] Creating layer relu4_2
I0906 15:59:24.290508 13560 net.cpp:100] Creating Layer relu4_2
I0906 15:59:24.290519 13560 net.cpp:434] relu4_2 <- conv4_2
I0906 15:59:24.290534 13560 net.cpp:395] relu4_2 -> conv4_2 (in-place)
I0906 15:59:24.291195 13560 net.cpp:150] Setting up relu4_2
I0906 15:59:24.291203 13560 net.cpp:157] Top shape: 1 512 36 44 (811008)
I0906 15:59:24.291208 13560 net.cpp:165] Memory required for data: 228704288
I0906 15:59:24.291210 13560 layer_factory.hpp:77] Creating layer conv4_3
I0906 15:59:24.291220 13560 net.cpp:100] Creating Layer conv4_3
I0906 15:59:24.291224 13560 net.cpp:434] conv4_3 <- conv4_2
I0906 15:59:24.291227 13560 net.cpp:408] conv4_3 -> conv4_3
I0906 15:59:24.303076 13560 net.cpp:150] Setting up conv4_3
I0906 15:59:24.303093 13560 net.cpp:157] Top shape: 1 512 36 44 (811008)
I0906 15:59:24.303098 13560 net.cpp:165] Memory required for data: 231948320
I0906 15:59:24.303105 13560 layer_factory.hpp:77] Creating layer relu4_3
I0906 15:59:24.303112 13560 net.cpp:100] Creating Layer relu4_3
I0906 15:59:24.303117 13560 net.cpp:434] relu4_3 <- conv4_3
I0906 15:59:24.303122 13560 net.cpp:395] relu4_3 -> conv4_3 (in-place)
I0906 15:59:24.303504 13560 net.cpp:150] Setting up relu4_3
I0906 15:59:24.303510 13560 net.cpp:157] Top shape: 1 512 36 44 (811008)
I0906 15:59:24.303514 13560 net.cpp:165] Memory required for data: 235192352
I0906 15:59:24.303517 13560 layer_factory.hpp:77] Creating layer conv4_3_relu4_3_0_split
I0906 15:59:24.303524 13560 net.cpp:100] Creating Layer conv4_3_relu4_3_0_split
I0906 15:59:24.303526 13560 net.cpp:434] conv4_3_relu4_3_0_split <- conv4_3
I0906 15:59:24.303530 13560 net.cpp:408] conv4_3_relu4_3_0_split -> conv4_3_relu4_3_0_split_0
I0906 15:59:24.303534 13560 net.cpp:408] conv4_3_relu4_3_0_split -> conv4_3_relu4_3_0_split_1
I0906 15:59:24.303583 13560 net.cpp:150] Setting up conv4_3_relu4_3_0_split
I0906 15:59:24.303587 13560 net.cpp:157] Top shape: 1 512 36 44 (811008)
I0906 15:59:24.303591 13560 net.cpp:157] Top shape: 1 512 36 44 (811008)
I0906 15:59:24.303594 13560 net.cpp:165] Memory required for data: 241680416
I0906 15:59:24.303596 13560 layer_factory.hpp:77] Creating layer pool4
I0906 15:59:24.303601 13560 net.cpp:100] Creating Layer pool4
I0906 15:59:24.303603 13560 net.cpp:434] pool4 <- conv4_3_relu4_3_0_split_0
I0906 15:59:24.303607 13560 net.cpp:408] pool4 -> pool4
I0906 15:59:24.303648 13560 net.cpp:150] Setting up pool4
I0906 15:59:24.303653 13560 net.cpp:157] Top shape: 1 512 18 22 (202752)
I0906 15:59:24.303655 13560 net.cpp:165] Memory required for data: 242491424
I0906 15:59:24.303658 13560 layer_factory.hpp:77] Creating layer conv5_1
I0906 15:59:24.303665 13560 net.cpp:100] Creating Layer conv5_1
I0906 15:59:24.303683 13560 net.cpp:434] conv5_1 <- pool4
I0906 15:59:24.303687 13560 net.cpp:408] conv5_1 -> conv5_1
I0906 15:59:24.317001 13560 net.cpp:150] Setting up conv5_1
I0906 15:59:24.317016 13560 net.cpp:157] Top shape: 1 512 18 22 (202752)
I0906 15:59:24.317023 13560 net.cpp:165] Memory required for data: 243302432
I0906 15:59:24.317029 13560 layer_factory.hpp:77] Creating layer relu5_1
I0906 15:59:24.317036 13560 net.cpp:100] Creating Layer relu5_1
I0906 15:59:24.317040 13560 net.cpp:434] relu5_1 <- conv5_1
I0906 15:59:24.317044 13560 net.cpp:395] relu5_1 -> conv5_1 (in-place)
I0906 15:59:24.317433 13560 net.cpp:150] Setting up relu5_1
I0906 15:59:24.317445 13560 net.cpp:157] Top shape: 1 512 18 22 (202752)
I0906 15:59:24.317448 13560 net.cpp:165] Memory required for data: 244113440
I0906 15:59:24.317451 13560 layer_factory.hpp:77] Creating layer conv5_2
I0906 15:59:24.317462 13560 net.cpp:100] Creating Layer conv5_2
I0906 15:59:24.317466 13560 net.cpp:434] conv5_2 <- conv5_1
I0906 15:59:24.317469 13560 net.cpp:408] conv5_2 -> conv5_2
I0906 15:59:24.328941 13560 net.cpp:150] Setting up conv5_2
I0906 15:59:24.328956 13560 net.cpp:157] Top shape: 1 512 18 22 (202752)
I0906 15:59:24.328963 13560 net.cpp:165] Memory required for data: 244924448
I0906 15:59:24.328969 13560 layer_factory.hpp:77] Creating layer relu5_2
I0906 15:59:24.328974 13560 net.cpp:100] Creating Layer relu5_2
I0906 15:59:24.328977 13560 net.cpp:434] relu5_2 <- conv5_2
I0906 15:59:24.328982 13560 net.cpp:395] relu5_2 -> conv5_2 (in-place)
I0906 15:59:24.329506 13560 net.cpp:150] Setting up relu5_2
I0906 15:59:24.329514 13560 net.cpp:157] Top shape: 1 512 18 22 (202752)
I0906 15:59:24.329519 13560 net.cpp:165] Memory required for data: 245735456
I0906 15:59:24.329520 13560 layer_factory.hpp:77] Creating layer conv5_3
I0906 15:59:24.329530 13560 net.cpp:100] Creating Layer conv5_3
I0906 15:59:24.329533 13560 net.cpp:434] conv5_3 <- conv5_2
I0906 15:59:24.329537 13560 net.cpp:408] conv5_3 -> conv5_3
I0906 15:59:24.342669 13560 net.cpp:150] Setting up conv5_3
I0906 15:59:24.342685 13560 net.cpp:157] Top shape: 1 512 18 22 (202752)
I0906 15:59:24.342691 13560 net.cpp:165] Memory required for data: 246546464
I0906 15:59:24.342698 13560 layer_factory.hpp:77] Creating layer relu5_3
I0906 15:59:24.342708 13560 net.cpp:100] Creating Layer relu5_3
I0906 15:59:24.342712 13560 net.cpp:434] relu5_3 <- conv5_3
I0906 15:59:24.342716 13560 net.cpp:395] relu5_3 -> conv5_3 (in-place)
I0906 15:59:24.343127 13560 net.cpp:150] Setting up relu5_3
I0906 15:59:24.343132 13560 net.cpp:157] Top shape: 1 512 18 22 (202752)
I0906 15:59:24.343137 13560 net.cpp:165] Memory required for data: 247357472
I0906 15:59:24.343138 13560 layer_factory.hpp:77] Creating layer pool5
I0906 15:59:24.343144 13560 net.cpp:100] Creating Layer pool5
I0906 15:59:24.343147 13560 net.cpp:434] pool5 <- conv5_3
I0906 15:59:24.343152 13560 net.cpp:408] pool5 -> pool5
I0906 15:59:24.343202 13560 net.cpp:150] Setting up pool5
I0906 15:59:24.343206 13560 net.cpp:157] Top shape: 1 512 18 22 (202752)
I0906 15:59:24.343210 13560 net.cpp:165] Memory required for data: 248168480
I0906 15:59:24.343212 13560 layer_factory.hpp:77] Creating layer fc6
I0906 15:59:24.343220 13560 net.cpp:100] Creating Layer fc6
I0906 15:59:24.343223 13560 net.cpp:434] fc6 <- pool5
I0906 15:59:24.343227 13560 net.cpp:408] fc6 -> fc6
I0906 15:59:24.364504 13560 net.cpp:150] Setting up fc6
I0906 15:59:24.364521 13560 net.cpp:157] Top shape: 1 1024 18 22 (405504)
I0906 15:59:24.364526 13560 net.cpp:165] Memory required for data: 249790496
I0906 15:59:24.364532 13560 layer_factory.hpp:77] Creating layer relu6
I0906 15:59:24.364539 13560 net.cpp:100] Creating Layer relu6
I0906 15:59:24.364543 13560 net.cpp:434] relu6 <- fc6
I0906 15:59:24.364547 13560 net.cpp:395] relu6 -> fc6 (in-place)
I0906 15:59:24.365063 13560 net.cpp:150] Setting up relu6
I0906 15:59:24.365072 13560 net.cpp:157] Top shape: 1 1024 18 22 (405504)
I0906 15:59:24.365074 13560 net.cpp:165] Memory required for data: 251412512
I0906 15:59:24.365077 13560 layer_factory.hpp:77] Creating layer fc7
I0906 15:59:24.365104 13560 net.cpp:100] Creating Layer fc7
I0906 15:59:24.365109 13560 net.cpp:434] fc7 <- fc6
I0906 15:59:24.365114 13560 net.cpp:408] fc7 -> fc7
I0906 15:59:24.371217 13560 net.cpp:150] Setting up fc7
I0906 15:59:24.371230 13560 net.cpp:157] Top shape: 1 1024 18 22 (405504)
I0906 15:59:24.371235 13560 net.cpp:165] Memory required for data: 253034528
I0906 15:59:24.371242 13560 layer_factory.hpp:77] Creating layer relu7
I0906 15:59:24.371248 13560 net.cpp:100] Creating Layer relu7
I0906 15:59:24.371250 13560 net.cpp:434] relu7 <- fc7
I0906 15:59:24.371254 13560 net.cpp:395] relu7 -> fc7 (in-place)
I0906 15:59:24.371634 13560 net.cpp:150] Setting up relu7
I0906 15:59:24.371640 13560 net.cpp:157] Top shape: 1 1024 18 22 (405504)
I0906 15:59:24.371644 13560 net.cpp:165] Memory required for data: 254656544
I0906 15:59:24.371646 13560 layer_factory.hpp:77] Creating layer fc7_relu7_0_split
I0906 15:59:24.371654 13560 net.cpp:100] Creating Layer fc7_relu7_0_split
I0906 15:59:24.371656 13560 net.cpp:434] fc7_relu7_0_split <- fc7
I0906 15:59:24.371659 13560 net.cpp:408] fc7_relu7_0_split -> fc7_relu7_0_split_0
I0906 15:59:24.371665 13560 net.cpp:408] fc7_relu7_0_split -> fc7_relu7_0_split_1
I0906 15:59:24.371670 13560 net.cpp:408] fc7_relu7_0_split -> fc7_relu7_0_split_2
I0906 15:59:24.371675 13560 net.cpp:408] fc7_relu7_0_split -> fc7_relu7_0_split_3
I0906 15:59:24.371752 13560 net.cpp:150] Setting up fc7_relu7_0_split
I0906 15:59:24.371757 13560 net.cpp:157] Top shape: 1 1024 18 22 (405504)
I0906 15:59:24.371759 13560 net.cpp:157] Top shape: 1 1024 18 22 (405504)
I0906 15:59:24.371762 13560 net.cpp:157] Top shape: 1 1024 18 22 (405504)
I0906 15:59:24.371765 13560 net.cpp:157] Top shape: 1 1024 18 22 (405504)
I0906 15:59:24.371767 13560 net.cpp:165] Memory required for data: 261144608
I0906 15:59:24.371769 13560 layer_factory.hpp:77] Creating layer conv6_1
I0906 15:59:24.371778 13560 net.cpp:100] Creating Layer conv6_1
I0906 15:59:24.371780 13560 net.cpp:434] conv6_1 <- fc7_relu7_0_split_0
I0906 15:59:24.371784 13560 net.cpp:408] conv6_1 -> conv6_1
I0906 15:59:24.376045 13560 net.cpp:150] Setting up conv6_1
I0906 15:59:24.376057 13560 net.cpp:157] Top shape: 1 256 18 22 (101376)
I0906 15:59:24.376062 13560 net.cpp:165] Memory required for data: 261550112
I0906 15:59:24.376070 13560 layer_factory.hpp:77] Creating layer conv6_1_relu
I0906 15:59:24.376076 13560 net.cpp:100] Creating Layer conv6_1_relu
I0906 15:59:24.376080 13560 net.cpp:434] conv6_1_relu <- conv6_1
I0906 15:59:24.376085 13560 net.cpp:395] conv6_1_relu -> conv6_1 (in-place)
I0906 15:59:24.376477 13560 net.cpp:150] Setting up conv6_1_relu
I0906 15:59:24.376483 13560 net.cpp:157] Top shape: 1 256 18 22 (101376)
I0906 15:59:24.376487 13560 net.cpp:165] Memory required for data: 261955616
I0906 15:59:24.376489 13560 layer_factory.hpp:77] Creating layer conv6_2
I0906 15:59:24.376500 13560 net.cpp:100] Creating Layer conv6_2
I0906 15:59:24.376504 13560 net.cpp:434] conv6_2 <- conv6_1
I0906 15:59:24.376508 13560 net.cpp:408] conv6_2 -> conv6_2
I0906 15:59:24.383200 13560 net.cpp:150] Setting up conv6_2
I0906 15:59:24.383215 13560 net.cpp:157] Top shape: 1 512 9 11 (50688)
I0906 15:59:24.383220 13560 net.cpp:165] Memory required for data: 262158368
I0906 15:59:24.383229 13560 layer_factory.hpp:77] Creating layer conv6_2_relu
I0906 15:59:24.383235 13560 net.cpp:100] Creating Layer conv6_2_relu
I0906 15:59:24.383239 13560 net.cpp:434] conv6_2_relu <- conv6_2
I0906 15:59:24.383242 13560 net.cpp:395] conv6_2_relu -> conv6_2 (in-place)
I0906 15:59:24.383761 13560 net.cpp:150] Setting up conv6_2_relu
I0906 15:59:24.383769 13560 net.cpp:157] Top shape: 1 512 9 11 (50688)
I0906 15:59:24.383774 13560 net.cpp:165] Memory required for data: 262361120
I0906 15:59:24.383775 13560 layer_factory.hpp:77] Creating layer conv6_2_conv6_2_relu_0_split
I0906 15:59:24.383781 13560 net.cpp:100] Creating Layer conv6_2_conv6_2_relu_0_split
I0906 15:59:24.383785 13560 net.cpp:434] conv6_2_conv6_2_relu_0_split <- conv6_2
I0906 15:59:24.383788 13560 net.cpp:408] conv6_2_conv6_2_relu_0_split -> conv6_2_conv6_2_relu_0_split_0
I0906 15:59:24.383810 13560 net.cpp:408] conv6_2_conv6_2_relu_0_split -> conv6_2_conv6_2_relu_0_split_1
I0906 15:59:24.383817 13560 net.cpp:408] conv6_2_conv6_2_relu_0_split -> conv6_2_conv6_2_relu_0_split_2
I0906 15:59:24.383823 13560 net.cpp:408] conv6_2_conv6_2_relu_0_split -> conv6_2_conv6_2_relu_0_split_3
I0906 15:59:24.383905 13560 net.cpp:150] Setting up conv6_2_conv6_2_relu_0_split
I0906 15:59:24.383909 13560 net.cpp:157] Top shape: 1 512 9 11 (50688)
I0906 15:59:24.383913 13560 net.cpp:157] Top shape: 1 512 9 11 (50688)
I0906 15:59:24.383916 13560 net.cpp:157] Top shape: 1 512 9 11 (50688)
I0906 15:59:24.383919 13560 net.cpp:157] Top shape: 1 512 9 11 (50688)
I0906 15:59:24.383921 13560 net.cpp:165] Memory required for data: 263172128
I0906 15:59:24.383924 13560 layer_factory.hpp:77] Creating layer conv7_1
I0906 15:59:24.383930 13560 net.cpp:100] Creating Layer conv7_1
I0906 15:59:24.383932 13560 net.cpp:434] conv7_1 <- conv6_2_conv6_2_relu_0_split_0
I0906 15:59:24.383936 13560 net.cpp:408] conv7_1 -> conv7_1
I0906 15:59:24.386848 13560 net.cpp:150] Setting up conv7_1
I0906 15:59:24.386857 13560 net.cpp:157] Top shape: 1 128 9 11 (12672)
I0906 15:59:24.386860 13560 net.cpp:165] Memory required for data: 263222816
I0906 15:59:24.386865 13560 layer_factory.hpp:77] Creating layer conv7_1_relu
I0906 15:59:24.386870 13560 net.cpp:100] Creating Layer conv7_1_relu
I0906 15:59:24.386873 13560 net.cpp:434] conv7_1_relu <- conv7_1
I0906 15:59:24.386878 13560 net.cpp:395] conv7_1_relu -> conv7_1 (in-place)
I0906 15:59:24.387257 13560 net.cpp:150] Setting up conv7_1_relu
I0906 15:59:24.387264 13560 net.cpp:157] Top shape: 1 128 9 11 (12672)
I0906 15:59:24.387267 13560 net.cpp:165] Memory required for data: 263273504
I0906 15:59:24.387269 13560 layer_factory.hpp:77] Creating layer conv7_2
I0906 15:59:24.387279 13560 net.cpp:100] Creating Layer conv7_2
I0906 15:59:24.387281 13560 net.cpp:434] conv7_2 <- conv7_1
I0906 15:59:24.387285 13560 net.cpp:408] conv7_2 -> conv7_2
I0906 15:59:24.391561 13560 net.cpp:150] Setting up conv7_2
I0906 15:59:24.391575 13560 net.cpp:157] Top shape: 1 256 5 6 (7680)
I0906 15:59:24.391580 13560 net.cpp:165] Memory required for data: 263304224
I0906 15:59:24.391585 13560 layer_factory.hpp:77] Creating layer conv7_2_relu
I0906 15:59:24.391593 13560 net.cpp:100] Creating Layer conv7_2_relu
I0906 15:59:24.391597 13560 net.cpp:434] conv7_2_relu <- conv7_2
I0906 15:59:24.391602 13560 net.cpp:395] conv7_2_relu -> conv7_2 (in-place)
I0906 15:59:24.392156 13560 net.cpp:150] Setting up conv7_2_relu
I0906 15:59:24.392180 13560 net.cpp:157] Top shape: 1 256 5 6 (7680)
I0906 15:59:24.392194 13560 net.cpp:165] Memory required for data: 263334944
I0906 15:59:24.392205 13560 layer_factory.hpp:77] Creating layer conv7_2_conv7_2_relu_0_split
I0906 15:59:24.392220 13560 net.cpp:100] Creating Layer conv7_2_conv7_2_relu_0_split
I0906 15:59:24.392232 13560 net.cpp:434] conv7_2_conv7_2_relu_0_split <- conv7_2
I0906 15:59:24.392246 13560 net.cpp:408] conv7_2_conv7_2_relu_0_split -> conv7_2_conv7_2_relu_0_split_0
I0906 15:59:24.392261 13560 net.cpp:408] conv7_2_conv7_2_relu_0_split -> conv7_2_conv7_2_relu_0_split_1
I0906 15:59:24.392274 13560 net.cpp:408] conv7_2_conv7_2_relu_0_split -> conv7_2_conv7_2_relu_0_split_2
I0906 15:59:24.392287 13560 net.cpp:408] conv7_2_conv7_2_relu_0_split -> conv7_2_conv7_2_relu_0_split_3
I0906 15:59:24.392400 13560 net.cpp:150] Setting up conv7_2_conv7_2_relu_0_split
I0906 15:59:24.392413 13560 net.cpp:157] Top shape: 1 256 5 6 (7680)
I0906 15:59:24.392426 13560 net.cpp:157] Top shape: 1 256 5 6 (7680)
I0906 15:59:24.392437 13560 net.cpp:157] Top shape: 1 256 5 6 (7680)
I0906 15:59:24.392449 13560 net.cpp:157] Top shape: 1 256 5 6 (7680)
I0906 15:59:24.392460 13560 net.cpp:165] Memory required for data: 263457824
I0906 15:59:24.392470 13560 layer_factory.hpp:77] Creating layer conv8_1
I0906 15:59:24.392489 13560 net.cpp:100] Creating Layer conv8_1
I0906 15:59:24.392508 13560 net.cpp:434] conv8_1 <- conv7_2_conv7_2_relu_0_split_0
I0906 15:59:24.392534 13560 net.cpp:408] conv8_1 -> conv8_1
I0906 15:59:24.395169 13560 net.cpp:150] Setting up conv8_1
I0906 15:59:24.395180 13560 net.cpp:157] Top shape: 1 128 5 6 (3840)
I0906 15:59:24.395186 13560 net.cpp:165] Memory required for data: 263473184
I0906 15:59:24.395193 13560 layer_factory.hpp:77] Creating layer conv8_1_relu
I0906 15:59:24.395200 13560 net.cpp:100] Creating Layer conv8_1_relu
I0906 15:59:24.395205 13560 net.cpp:434] conv8_1_relu <- conv8_1
I0906 15:59:24.395213 13560 net.cpp:395] conv8_1_relu -> conv8_1 (in-place)
I0906 15:59:24.395707 13560 net.cpp:150] Setting up conv8_1_relu
I0906 15:59:24.395727 13560 net.cpp:157] Top shape: 1 128 5 6 (3840)
I0906 15:59:24.395741 13560 net.cpp:165] Memory required for data: 263488544
I0906 15:59:24.395752 13560 layer_factory.hpp:77] Creating layer conv8_2
I0906 15:59:24.395771 13560 net.cpp:100] Creating Layer conv8_2
I0906 15:59:24.395783 13560 net.cpp:434] conv8_2 <- conv8_1
I0906 15:59:24.395797 13560 net.cpp:408] conv8_2 -> conv8_2
I0906 15:59:24.400447 13560 net.cpp:150] Setting up conv8_2
I0906 15:59:24.400460 13560 net.cpp:157] Top shape: 1 256 3 4 (3072)
I0906 15:59:24.400465 13560 net.cpp:165] Memory required for data: 263500832
I0906 15:59:24.400471 13560 layer_factory.hpp:77] Creating layer conv8_2_relu
I0906 15:59:24.400477 13560 net.cpp:100] Creating Layer conv8_2_relu
I0906 15:59:24.400481 13560 net.cpp:434] conv8_2_relu <- conv8_2
I0906 15:59:24.400486 13560 net.cpp:395] conv8_2_relu -> conv8_2 (in-place)
I0906 15:59:24.400868 13560 net.cpp:150] Setting up conv8_2_relu
I0906 15:59:24.400874 13560 net.cpp:157] Top shape: 1 256 3 4 (3072)
I0906 15:59:24.400878 13560 net.cpp:165] Memory required for data: 263513120
I0906 15:59:24.400880 13560 layer_factory.hpp:77] Creating layer conv8_2_conv8_2_relu_0_split
I0906 15:59:24.400888 13560 net.cpp:100] Creating Layer conv8_2_conv8_2_relu_0_split
I0906 15:59:24.400892 13560 net.cpp:434] conv8_2_conv8_2_relu_0_split <- conv8_2
I0906 15:59:24.400895 13560 net.cpp:408] conv8_2_conv8_2_relu_0_split -> conv8_2_conv8_2_relu_0_split_0
I0906 15:59:24.400900 13560 net.cpp:408] conv8_2_conv8_2_relu_0_split -> conv8_2_conv8_2_relu_0_split_1
I0906 15:59:24.400904 13560 net.cpp:408] conv8_2_conv8_2_relu_0_split -> conv8_2_conv8_2_relu_0_split_2
I0906 15:59:24.400908 13560 net.cpp:408] conv8_2_conv8_2_relu_0_split -> conv8_2_conv8_2_relu_0_split_3
I0906 15:59:24.400986 13560 net.cpp:150] Setting up conv8_2_conv8_2_relu_0_split
I0906 15:59:24.400990 13560 net.cpp:157] Top shape: 1 256 3 4 (3072)
I0906 15:59:24.400993 13560 net.cpp:157] Top shape: 1 256 3 4 (3072)
I0906 15:59:24.400996 13560 net.cpp:157] Top shape: 1 256 3 4 (3072)
I0906 15:59:24.401000 13560 net.cpp:157] Top shape: 1 256 3 4 (3072)
I0906 15:59:24.401001 13560 net.cpp:165] Memory required for data: 263562272
I0906 15:59:24.401005 13560 layer_factory.hpp:77] Creating layer conv9_1
I0906 15:59:24.401012 13560 net.cpp:100] Creating Layer conv9_1
I0906 15:59:24.401015 13560 net.cpp:434] conv9_1 <- conv8_2_conv8_2_relu_0_split_0
I0906 15:59:24.401019 13560 net.cpp:408] conv9_1 -> conv9_1
I0906 15:59:24.402860 13560 net.cpp:150] Setting up conv9_1
I0906 15:59:24.402868 13560 net.cpp:157] Top shape: 1 128 3 4 (1536)
I0906 15:59:24.402873 13560 net.cpp:165] Memory required for data: 263568416
I0906 15:59:24.402876 13560 layer_factory.hpp:77] Creating layer conv9_1_relu
I0906 15:59:24.402881 13560 net.cpp:100] Creating Layer conv9_1_relu
I0906 15:59:24.402884 13560 net.cpp:434] conv9_1_relu <- conv9_1
I0906 15:59:24.402889 13560 net.cpp:395] conv9_1_relu -> conv9_1 (in-place)
I0906 15:59:24.403398 13560 net.cpp:150] Setting up conv9_1_relu
I0906 15:59:24.403404 13560 net.cpp:157] Top shape: 1 128 3 4 (1536)
I0906 15:59:24.403409 13560 net.cpp:165] Memory required for data: 263574560
I0906 15:59:24.403410 13560 layer_factory.hpp:77] Creating layer conv9_2
I0906 15:59:24.403419 13560 net.cpp:100] Creating Layer conv9_2
I0906 15:59:24.403421 13560 net.cpp:434] conv9_2 <- conv9_1
I0906 15:59:24.403425 13560 net.cpp:408] conv9_2 -> conv9_2
I0906 15:59:24.408224 13560 net.cpp:150] Setting up conv9_2
I0906 15:59:24.408238 13560 net.cpp:157] Top shape: 1 256 1 2 (512)
I0906 15:59:24.408243 13560 net.cpp:165] Memory required for data: 263576608
I0906 15:59:24.408251 13560 layer_factory.hpp:77] Creating layer conv9_2_relu
I0906 15:59:24.408258 13560 net.cpp:100] Creating Layer conv9_2_relu
I0906 15:59:24.408262 13560 net.cpp:434] conv9_2_relu <- conv9_2
I0906 15:59:24.408267 13560 net.cpp:395] conv9_2_relu -> conv9_2 (in-place)
I0906 15:59:24.408675 13560 net.cpp:150] Setting up conv9_2_relu
I0906 15:59:24.408681 13560 net.cpp:157] Top shape: 1 256 1 2 (512)
I0906 15:59:24.408684 13560 net.cpp:165] Memory required for data: 263578656
I0906 15:59:24.408687 13560 layer_factory.hpp:77] Creating layer conv9_2_conv9_2_relu_0_split
I0906 15:59:24.408694 13560 net.cpp:100] Creating Layer conv9_2_conv9_2_relu_0_split
I0906 15:59:24.408697 13560 net.cpp:434] conv9_2_conv9_2_relu_0_split <- conv9_2
I0906 15:59:24.408700 13560 net.cpp:408] conv9_2_conv9_2_relu_0_split -> conv9_2_conv9_2_relu_0_split_0
I0906 15:59:24.408705 13560 net.cpp:408] conv9_2_conv9_2_relu_0_split -> conv9_2_conv9_2_relu_0_split_1
I0906 15:59:24.408710 13560 net.cpp:408] conv9_2_conv9_2_relu_0_split -> conv9_2_conv9_2_relu_0_split_2
I0906 15:59:24.408780 13560 net.cpp:150] Setting up conv9_2_conv9_2_relu_0_split
I0906 15:59:24.408785 13560 net.cpp:157] Top shape: 1 256 1 2 (512)
I0906 15:59:24.408788 13560 net.cpp:157] Top shape: 1 256 1 2 (512)
I0906 15:59:24.408792 13560 net.cpp:157] Top shape: 1 256 1 2 (512)
I0906 15:59:24.408793 13560 net.cpp:165] Memory required for data: 263584800
I0906 15:59:24.408795 13560 layer_factory.hpp:77] Creating layer conv4_3_norm
I0906 15:59:24.408800 13560 net.cpp:100] Creating Layer conv4_3_norm
I0906 15:59:24.408803 13560 net.cpp:434] conv4_3_norm <- conv4_3_relu4_3_0_split_1
I0906 15:59:24.408807 13560 net.cpp:408] conv4_3_norm -> conv4_3_norm
I0906 15:59:24.409004 13560 net.cpp:150] Setting up conv4_3_norm
I0906 15:59:24.409008 13560 net.cpp:157] Top shape: 1 512 36 44 (811008)
I0906 15:59:24.409011 13560 net.cpp:165] Memory required for data: 266828832
I0906 15:59:24.409014 13560 layer_factory.hpp:77] Creating layer conv4_3_norm_conv4_3_norm_0_split
I0906 15:59:24.409018 13560 net.cpp:100] Creating Layer conv4_3_norm_conv4_3_norm_0_split
I0906 15:59:24.409020 13560 net.cpp:434] conv4_3_norm_conv4_3_norm_0_split <- conv4_3_norm
I0906 15:59:24.409025 13560 net.cpp:408] conv4_3_norm_conv4_3_norm_0_split -> conv4_3_norm_conv4_3_norm_0_split_0
I0906 15:59:24.409029 13560 net.cpp:408] conv4_3_norm_conv4_3_norm_0_split -> conv4_3_norm_conv4_3_norm_0_split_1
I0906 15:59:24.409032 13560 net.cpp:408] conv4_3_norm_conv4_3_norm_0_split -> conv4_3_norm_conv4_3_norm_0_split_2
I0906 15:59:24.409085 13560 net.cpp:150] Setting up conv4_3_norm_conv4_3_norm_0_split
I0906 15:59:24.409090 13560 net.cpp:157] Top shape: 1 512 36 44 (811008)
I0906 15:59:24.409092 13560 net.cpp:157] Top shape: 1 512 36 44 (811008)
I0906 15:59:24.409096 13560 net.cpp:157] Top shape: 1 512 36 44 (811008)
I0906 15:59:24.409097 13560 net.cpp:165] Memory required for data: 276560928
I0906 15:59:24.409101 13560 layer_factory.hpp:77] Creating layer conv4_3_norm_mbox_loc
I0906 15:59:24.409107 13560 net.cpp:100] Creating Layer conv4_3_norm_mbox_loc
I0906 15:59:24.409111 13560 net.cpp:434] conv4_3_norm_mbox_loc <- conv4_3_norm_conv4_3_norm_0_split_0
I0906 15:59:24.409116 13560 net.cpp:408] conv4_3_norm_mbox_loc -> conv4_3_norm_mbox_loc
I0906 15:59:24.411666 13560 net.cpp:150] Setting up conv4_3_norm_mbox_loc
I0906 15:59:24.411675 13560 net.cpp:157] Top shape: 1 16 36 44 (25344)
I0906 15:59:24.411679 13560 net.cpp:165] Memory required for data: 276662304
I0906 15:59:24.411685 13560 layer_factory.hpp:77] Creating layer conv4_3_norm_mbox_loc_perm
I0906 15:59:24.411691 13560 net.cpp:100] Creating Layer conv4_3_norm_mbox_loc_perm
I0906 15:59:24.411695 13560 net.cpp:434] conv4_3_norm_mbox_loc_perm <- conv4_3_norm_mbox_loc
I0906 15:59:24.411700 13560 net.cpp:408] conv4_3_norm_mbox_loc_perm -> conv4_3_norm_mbox_loc_perm
I0906 15:59:24.411844 13560 net.cpp:150] Setting up conv4_3_norm_mbox_loc_perm
I0906 15:59:24.411849 13560 net.cpp:157] Top shape: 1 36 44 16 (25344)
I0906 15:59:24.411852 13560 net.cpp:165] Memory required for data: 276763680
I0906 15:59:24.411854 13560 layer_factory.hpp:77] Creating layer conv4_3_norm_mbox_loc_flat
I0906 15:59:24.411859 13560 net.cpp:100] Creating Layer conv4_3_norm_mbox_loc_flat
I0906 15:59:24.411861 13560 net.cpp:434] conv4_3_norm_mbox_loc_flat <- conv4_3_norm_mbox_loc_perm
I0906 15:59:24.411865 13560 net.cpp:408] conv4_3_norm_mbox_loc_flat -> conv4_3_norm_mbox_loc_flat
I0906 15:59:24.411893 13560 net.cpp:150] Setting up conv4_3_norm_mbox_loc_flat
I0906 15:59:24.411897 13560 net.cpp:157] Top shape: 1 25344 (25344)
I0906 15:59:24.411900 13560 net.cpp:165] Memory required for data: 276865056
I0906 15:59:24.411902 13560 layer_factory.hpp:77] Creating layer conv4_3_norm_mbox_conf
I0906 15:59:24.411913 13560 net.cpp:100] Creating Layer conv4_3_norm_mbox_conf
I0906 15:59:24.411916 13560 net.cpp:434] conv4_3_norm_mbox_conf <- conv4_3_norm_conv4_3_norm_0_split_1
I0906 15:59:24.411919 13560 net.cpp:408] conv4_3_norm_mbox_conf -> conv4_3_norm_mbox_conf
I0906 15:59:24.414034 13560 net.cpp:150] Setting up conv4_3_norm_mbox_conf
I0906 15:59:24.414042 13560 net.cpp:157] Top shape: 1 8 36 44 (12672)
I0906 15:59:24.414047 13560 net.cpp:165] Memory required for data: 276915744
I0906 15:59:24.414052 13560 layer_factory.hpp:77] Creating layer conv4_3_norm_mbox_conf_perm
I0906 15:59:24.414057 13560 net.cpp:100] Creating Layer conv4_3_norm_mbox_conf_perm
I0906 15:59:24.414060 13560 net.cpp:434] conv4_3_norm_mbox_conf_perm <- conv4_3_norm_mbox_conf
I0906 15:59:24.414064 13560 net.cpp:408] conv4_3_norm_mbox_conf_perm -> conv4_3_norm_mbox_conf_perm
I0906 15:59:24.414194 13560 net.cpp:150] Setting up conv4_3_norm_mbox_conf_perm
I0906 15:59:24.414198 13560 net.cpp:157] Top shape: 1 36 44 8 (12672)
I0906 15:59:24.414201 13560 net.cpp:165] Memory required for data: 276966432
I0906 15:59:24.414203 13560 layer_factory.hpp:77] Creating layer conv4_3_norm_mbox_conf_flat
I0906 15:59:24.414207 13560 net.cpp:100] Creating Layer conv4_3_norm_mbox_conf_flat
I0906 15:59:24.414211 13560 net.cpp:434] conv4_3_norm_mbox_conf_flat <- conv4_3_norm_mbox_conf_perm
I0906 15:59:24.414213 13560 net.cpp:408] conv4_3_norm_mbox_conf_flat -> conv4_3_norm_mbox_conf_flat
I0906 15:59:24.414237 13560 net.cpp:150] Setting up conv4_3_norm_mbox_conf_flat
I0906 15:59:24.414242 13560 net.cpp:157] Top shape: 1 12672 (12672)
I0906 15:59:24.414243 13560 net.cpp:165] Memory required for data: 277017120
I0906 15:59:24.414247 13560 layer_factory.hpp:77] Creating layer conv4_3_norm_mbox_priorbox
I0906 15:59:24.414250 13560 net.cpp:100] Creating Layer conv4_3_norm_mbox_priorbox
I0906 15:59:24.414253 13560 net.cpp:434] conv4_3_norm_mbox_priorbox <- conv4_3_norm_conv4_3_norm_0_split_2
I0906 15:59:24.414258 13560 net.cpp:434] conv4_3_norm_mbox_priorbox <- data_data_0_split_1
I0906 15:59:24.414260 13560 net.cpp:408] conv4_3_norm_mbox_priorbox -> conv4_3_norm_mbox_priorbox
I0906 15:59:24.414288 13560 net.cpp:150] Setting up conv4_3_norm_mbox_priorbox
I0906 15:59:24.414290 13560 net.cpp:157] Top shape: 1 2 25344 (50688)
I0906 15:59:24.414294 13560 net.cpp:165] Memory required for data: 277219872
I0906 15:59:24.414296 13560 layer_factory.hpp:77] Creating layer fc7_mbox_loc
I0906 15:59:24.414301 13560 net.cpp:100] Creating Layer fc7_mbox_loc
I0906 15:59:24.414304 13560 net.cpp:434] fc7_mbox_loc <- fc7_relu7_0_split_1
I0906 15:59:24.414309 13560 net.cpp:408] fc7_mbox_loc -> fc7_mbox_loc
I0906 15:59:24.417979 13560 net.cpp:150] Setting up fc7_mbox_loc
I0906 15:59:24.418009 13560 net.cpp:157] Top shape: 1 24 18 22 (9504)
I0906 15:59:24.418025 13560 net.cpp:165] Memory required for data: 277257888
I0906 15:59:24.418042 13560 layer_factory.hpp:77] Creating layer fc7_mbox_loc_perm
I0906 15:59:24.418058 13560 net.cpp:100] Creating Layer fc7_mbox_loc_perm
I0906 15:59:24.418071 13560 net.cpp:434] fc7_mbox_loc_perm <- fc7_mbox_loc
I0906 15:59:24.418092 13560 net.cpp:408] fc7_mbox_loc_perm -> fc7_mbox_loc_perm
I0906 15:59:24.418289 13560 net.cpp:150] Setting up fc7_mbox_loc_perm
I0906 15:59:24.418304 13560 net.cpp:157] Top shape: 1 18 22 24 (9504)
I0906 15:59:24.418316 13560 net.cpp:165] Memory required for data: 277295904
I0906 15:59:24.418326 13560 layer_factory.hpp:77] Creating layer fc7_mbox_loc_flat
I0906 15:59:24.418339 13560 net.cpp:100] Creating Layer fc7_mbox_loc_flat
I0906 15:59:24.418351 13560 net.cpp:434] fc7_mbox_loc_flat <- fc7_mbox_loc_perm
I0906 15:59:24.418364 13560 net.cpp:408] fc7_mbox_loc_flat -> fc7_mbox_loc_flat
I0906 15:59:24.418406 13560 net.cpp:150] Setting up fc7_mbox_loc_flat
I0906 15:59:24.418419 13560 net.cpp:157] Top shape: 1 9504 (9504)
I0906 15:59:24.418431 13560 net.cpp:165] Memory required for data: 277333920
I0906 15:59:24.418442 13560 layer_factory.hpp:77] Creating layer fc7_mbox_conf
I0906 15:59:24.418458 13560 net.cpp:100] Creating Layer fc7_mbox_conf
I0906 15:59:24.418469 13560 net.cpp:434] fc7_mbox_conf <- fc7_relu7_0_split_2
I0906 15:59:24.418483 13560 net.cpp:408] fc7_mbox_conf -> fc7_mbox_conf
I0906 15:59:24.420833 13560 net.cpp:150] Setting up fc7_mbox_conf
I0906 15:59:24.420841 13560 net.cpp:157] Top shape: 1 12 18 22 (4752)
I0906 15:59:24.420845 13560 net.cpp:165] Memory required for data: 277352928
I0906 15:59:24.420851 13560 layer_factory.hpp:77] Creating layer fc7_mbox_conf_perm
I0906 15:59:24.420855 13560 net.cpp:100] Creating Layer fc7_mbox_conf_perm
I0906 15:59:24.420858 13560 net.cpp:434] fc7_mbox_conf_perm <- fc7_mbox_conf
I0906 15:59:24.420862 13560 net.cpp:408] fc7_mbox_conf_perm -> fc7_mbox_conf_perm
I0906 15:59:24.420992 13560 net.cpp:150] Setting up fc7_mbox_conf_perm
I0906 15:59:24.420996 13560 net.cpp:157] Top shape: 1 18 22 12 (4752)
I0906 15:59:24.421000 13560 net.cpp:165] Memory required for data: 277371936
I0906 15:59:24.421001 13560 layer_factory.hpp:77] Creating layer fc7_mbox_conf_flat
I0906 15:59:24.421006 13560 net.cpp:100] Creating Layer fc7_mbox_conf_flat
I0906 15:59:24.421010 13560 net.cpp:434] fc7_mbox_conf_flat <- fc7_mbox_conf_perm
I0906 15:59:24.421012 13560 net.cpp:408] fc7_mbox_conf_flat -> fc7_mbox_conf_flat
I0906 15:59:24.421036 13560 net.cpp:150] Setting up fc7_mbox_conf_flat
I0906 15:59:24.421038 13560 net.cpp:157] Top shape: 1 4752 (4752)
I0906 15:59:24.421041 13560 net.cpp:165] Memory required for data: 277390944
I0906 15:59:24.421043 13560 layer_factory.hpp:77] Creating layer fc7_mbox_priorbox
I0906 15:59:24.421049 13560 net.cpp:100] Creating Layer fc7_mbox_priorbox
I0906 15:59:24.421051 13560 net.cpp:434] fc7_mbox_priorbox <- fc7_relu7_0_split_3
I0906 15:59:24.421056 13560 net.cpp:434] fc7_mbox_priorbox <- data_data_0_split_2
I0906 15:59:24.421058 13560 net.cpp:408] fc7_mbox_priorbox -> fc7_mbox_priorbox
I0906 15:59:24.421083 13560 net.cpp:150] Setting up fc7_mbox_priorbox
I0906 15:59:24.421087 13560 net.cpp:157] Top shape: 1 2 9504 (19008)
I0906 15:59:24.421090 13560 net.cpp:165] Memory required for data: 277466976
I0906 15:59:24.421092 13560 layer_factory.hpp:77] Creating layer conv6_2_mbox_loc
I0906 15:59:24.421098 13560 net.cpp:100] Creating Layer conv6_2_mbox_loc
I0906 15:59:24.421103 13560 net.cpp:434] conv6_2_mbox_loc <- conv6_2_conv6_2_relu_0_split_1
I0906 15:59:24.421106 13560 net.cpp:408] conv6_2_mbox_loc -> conv6_2_mbox_loc
I0906 15:59:24.423372 13560 net.cpp:150] Setting up conv6_2_mbox_loc
I0906 15:59:24.423379 13560 net.cpp:157] Top shape: 1 24 9 11 (2376)
I0906 15:59:24.423383 13560 net.cpp:165] Memory required for data: 277476480
I0906 15:59:24.423389 13560 layer_factory.hpp:77] Creating layer conv6_2_mbox_loc_perm
I0906 15:59:24.423394 13560 net.cpp:100] Creating Layer conv6_2_mbox_loc_perm
I0906 15:59:24.423398 13560 net.cpp:434] conv6_2_mbox_loc_perm <- conv6_2_mbox_loc
I0906 15:59:24.423403 13560 net.cpp:408] conv6_2_mbox_loc_perm -> conv6_2_mbox_loc_perm
I0906 15:59:24.423537 13560 net.cpp:150] Setting up conv6_2_mbox_loc_perm
I0906 15:59:24.423540 13560 net.cpp:157] Top shape: 1 9 11 24 (2376)
I0906 15:59:24.423543 13560 net.cpp:165] Memory required for data: 277485984
I0906 15:59:24.423547 13560 layer_factory.hpp:77] Creating layer conv6_2_mbox_loc_flat
I0906 15:59:24.423563 13560 net.cpp:100] Creating Layer conv6_2_mbox_loc_flat
I0906 15:59:24.423566 13560 net.cpp:434] conv6_2_mbox_loc_flat <- conv6_2_mbox_loc_perm
I0906 15:59:24.423569 13560 net.cpp:408] conv6_2_mbox_loc_flat -> conv6_2_mbox_loc_flat
I0906 15:59:24.423595 13560 net.cpp:150] Setting up conv6_2_mbox_loc_flat
I0906 15:59:24.423599 13560 net.cpp:157] Top shape: 1 2376 (2376)
I0906 15:59:24.423602 13560 net.cpp:165] Memory required for data: 277495488
I0906 15:59:24.423604 13560 layer_factory.hpp:77] Creating layer conv6_2_mbox_conf
I0906 15:59:24.423611 13560 net.cpp:100] Creating Layer conv6_2_mbox_conf
I0906 15:59:24.423615 13560 net.cpp:434] conv6_2_mbox_conf <- conv6_2_conv6_2_relu_0_split_2
I0906 15:59:24.423619 13560 net.cpp:408] conv6_2_mbox_conf -> conv6_2_mbox_conf
I0906 15:59:24.425724 13560 net.cpp:150] Setting up conv6_2_mbox_conf
I0906 15:59:24.425734 13560 net.cpp:157] Top shape: 1 12 9 11 (1188)
I0906 15:59:24.425737 13560 net.cpp:165] Memory required for data: 277500240
I0906 15:59:24.425743 13560 layer_factory.hpp:77] Creating layer conv6_2_mbox_conf_perm
I0906 15:59:24.425748 13560 net.cpp:100] Creating Layer conv6_2_mbox_conf_perm
I0906 15:59:24.425751 13560 net.cpp:434] conv6_2_mbox_conf_perm <- conv6_2_mbox_conf
I0906 15:59:24.425755 13560 net.cpp:408] conv6_2_mbox_conf_perm -> conv6_2_mbox_conf_perm
I0906 15:59:24.425889 13560 net.cpp:150] Setting up conv6_2_mbox_conf_perm
I0906 15:59:24.425894 13560 net.cpp:157] Top shape: 1 9 11 12 (1188)
I0906 15:59:24.425896 13560 net.cpp:165] Memory required for data: 277504992
I0906 15:59:24.425899 13560 layer_factory.hpp:77] Creating layer conv6_2_mbox_conf_flat
I0906 15:59:24.425904 13560 net.cpp:100] Creating Layer conv6_2_mbox_conf_flat
I0906 15:59:24.425906 13560 net.cpp:434] conv6_2_mbox_conf_flat <- conv6_2_mbox_conf_perm
I0906 15:59:24.425910 13560 net.cpp:408] conv6_2_mbox_conf_flat -> conv6_2_mbox_conf_flat
I0906 15:59:24.425933 13560 net.cpp:150] Setting up conv6_2_mbox_conf_flat
I0906 15:59:24.425937 13560 net.cpp:157] Top shape: 1 1188 (1188)
I0906 15:59:24.425940 13560 net.cpp:165] Memory required for data: 277509744
I0906 15:59:24.425942 13560 layer_factory.hpp:77] Creating layer conv6_2_mbox_priorbox
I0906 15:59:24.425948 13560 net.cpp:100] Creating Layer conv6_2_mbox_priorbox
I0906 15:59:24.425951 13560 net.cpp:434] conv6_2_mbox_priorbox <- conv6_2_conv6_2_relu_0_split_3
I0906 15:59:24.425954 13560 net.cpp:434] conv6_2_mbox_priorbox <- data_data_0_split_3
I0906 15:59:24.425959 13560 net.cpp:408] conv6_2_mbox_priorbox -> conv6_2_mbox_priorbox
I0906 15:59:24.425984 13560 net.cpp:150] Setting up conv6_2_mbox_priorbox
I0906 15:59:24.425988 13560 net.cpp:157] Top shape: 1 2 2376 (4752)
I0906 15:59:24.425992 13560 net.cpp:165] Memory required for data: 277528752
I0906 15:59:24.425993 13560 layer_factory.hpp:77] Creating layer conv7_2_mbox_loc
I0906 15:59:24.426000 13560 net.cpp:100] Creating Layer conv7_2_mbox_loc
I0906 15:59:24.426004 13560 net.cpp:434] conv7_2_mbox_loc <- conv7_2_conv7_2_relu_0_split_1
I0906 15:59:24.426008 13560 net.cpp:408] conv7_2_mbox_loc -> conv7_2_mbox_loc
I0906 15:59:24.429312 13560 net.cpp:150] Setting up conv7_2_mbox_loc
I0906 15:59:24.429322 13560 net.cpp:157] Top shape: 1 24 5 6 (720)
I0906 15:59:24.429325 13560 net.cpp:165] Memory required for data: 277531632
I0906 15:59:24.429330 13560 layer_factory.hpp:77] Creating layer conv7_2_mbox_loc_perm
I0906 15:59:24.429335 13560 net.cpp:100] Creating Layer conv7_2_mbox_loc_perm
I0906 15:59:24.429339 13560 net.cpp:434] conv7_2_mbox_loc_perm <- conv7_2_mbox_loc
I0906 15:59:24.429344 13560 net.cpp:408] conv7_2_mbox_loc_perm -> conv7_2_mbox_loc_perm
I0906 15:59:24.429486 13560 net.cpp:150] Setting up conv7_2_mbox_loc_perm
I0906 15:59:24.429489 13560 net.cpp:157] Top shape: 1 5 6 24 (720)
I0906 15:59:24.429492 13560 net.cpp:165] Memory required for data: 277534512
I0906 15:59:24.429495 13560 layer_factory.hpp:77] Creating layer conv7_2_mbox_loc_flat
I0906 15:59:24.429499 13560 net.cpp:100] Creating Layer conv7_2_mbox_loc_flat
I0906 15:59:24.429514 13560 net.cpp:434] conv7_2_mbox_loc_flat <- conv7_2_mbox_loc_perm
I0906 15:59:24.429518 13560 net.cpp:408] conv7_2_mbox_loc_flat -> conv7_2_mbox_loc_flat
I0906 15:59:24.429544 13560 net.cpp:150] Setting up conv7_2_mbox_loc_flat
I0906 15:59:24.429548 13560 net.cpp:157] Top shape: 1 720 (720)
I0906 15:59:24.429550 13560 net.cpp:165] Memory required for data: 277537392
I0906 15:59:24.429553 13560 layer_factory.hpp:77] Creating layer conv7_2_mbox_conf
I0906 15:59:24.429560 13560 net.cpp:100] Creating Layer conv7_2_mbox_conf
I0906 15:59:24.429564 13560 net.cpp:434] conv7_2_mbox_conf <- conv7_2_conv7_2_relu_0_split_2
I0906 15:59:24.429569 13560 net.cpp:408] conv7_2_mbox_conf -> conv7_2_mbox_conf
I0906 15:59:24.431512 13560 net.cpp:150] Setting up conv7_2_mbox_conf
I0906 15:59:24.431519 13560 net.cpp:157] Top shape: 1 12 5 6 (360)
I0906 15:59:24.431524 13560 net.cpp:165] Memory required for data: 277538832
I0906 15:59:24.431527 13560 layer_factory.hpp:77] Creating layer conv7_2_mbox_conf_perm
I0906 15:59:24.431533 13560 net.cpp:100] Creating Layer conv7_2_mbox_conf_perm
I0906 15:59:24.431537 13560 net.cpp:434] conv7_2_mbox_conf_perm <- conv7_2_mbox_conf
I0906 15:59:24.431541 13560 net.cpp:408] conv7_2_mbox_conf_perm -> conv7_2_mbox_conf_perm
I0906 15:59:24.431672 13560 net.cpp:150] Setting up conv7_2_mbox_conf_perm
I0906 15:59:24.431676 13560 net.cpp:157] Top shape: 1 5 6 12 (360)
I0906 15:59:24.431679 13560 net.cpp:165] Memory required for data: 277540272
I0906 15:59:24.431681 13560 layer_factory.hpp:77] Creating layer conv7_2_mbox_conf_flat
I0906 15:59:24.431686 13560 net.cpp:100] Creating Layer conv7_2_mbox_conf_flat
I0906 15:59:24.431689 13560 net.cpp:434] conv7_2_mbox_conf_flat <- conv7_2_mbox_conf_perm
I0906 15:59:24.431694 13560 net.cpp:408] conv7_2_mbox_conf_flat -> conv7_2_mbox_conf_flat
I0906 15:59:24.431718 13560 net.cpp:150] Setting up conv7_2_mbox_conf_flat
I0906 15:59:24.431722 13560 net.cpp:157] Top shape: 1 360 (360)
I0906 15:59:24.431725 13560 net.cpp:165] Memory required for data: 277541712
I0906 15:59:24.431728 13560 layer_factory.hpp:77] Creating layer conv7_2_mbox_priorbox
I0906 15:59:24.431733 13560 net.cpp:100] Creating Layer conv7_2_mbox_priorbox
I0906 15:59:24.431737 13560 net.cpp:434] conv7_2_mbox_priorbox <- conv7_2_conv7_2_relu_0_split_3
I0906 15:59:24.431740 13560 net.cpp:434] conv7_2_mbox_priorbox <- data_data_0_split_4
I0906 15:59:24.431743 13560 net.cpp:408] conv7_2_mbox_priorbox -> conv7_2_mbox_priorbox
I0906 15:59:24.431771 13560 net.cpp:150] Setting up conv7_2_mbox_priorbox
I0906 15:59:24.431776 13560 net.cpp:157] Top shape: 1 2 720 (1440)
I0906 15:59:24.431778 13560 net.cpp:165] Memory required for data: 277547472
I0906 15:59:24.431780 13560 layer_factory.hpp:77] Creating layer conv8_2_mbox_loc
I0906 15:59:24.431787 13560 net.cpp:100] Creating Layer conv8_2_mbox_loc
I0906 15:59:24.431790 13560 net.cpp:434] conv8_2_mbox_loc <- conv8_2_conv8_2_relu_0_split_1
I0906 15:59:24.431795 13560 net.cpp:408] conv8_2_mbox_loc -> conv8_2_mbox_loc
I0906 15:59:24.433769 13560 net.cpp:150] Setting up conv8_2_mbox_loc
I0906 15:59:24.433778 13560 net.cpp:157] Top shape: 1 16 3 4 (192)
I0906 15:59:24.433781 13560 net.cpp:165] Memory required for data: 277548240
I0906 15:59:24.433789 13560 layer_factory.hpp:77] Creating layer conv8_2_mbox_loc_perm
I0906 15:59:24.433795 13560 net.cpp:100] Creating Layer conv8_2_mbox_loc_perm
I0906 15:59:24.433799 13560 net.cpp:434] conv8_2_mbox_loc_perm <- conv8_2_mbox_loc
I0906 15:59:24.433804 13560 net.cpp:408] conv8_2_mbox_loc_perm -> conv8_2_mbox_loc_perm
I0906 15:59:24.433940 13560 net.cpp:150] Setting up conv8_2_mbox_loc_perm
I0906 15:59:24.433944 13560 net.cpp:157] Top shape: 1 3 4 16 (192)
I0906 15:59:24.433948 13560 net.cpp:165] Memory required for data: 277549008
I0906 15:59:24.433949 13560 layer_factory.hpp:77] Creating layer conv8_2_mbox_loc_flat
I0906 15:59:24.433954 13560 net.cpp:100] Creating Layer conv8_2_mbox_loc_flat
I0906 15:59:24.433956 13560 net.cpp:434] conv8_2_mbox_loc_flat <- conv8_2_mbox_loc_perm
I0906 15:59:24.433969 13560 net.cpp:408] conv8_2_mbox_loc_flat -> conv8_2_mbox_loc_flat
I0906 15:59:24.433996 13560 net.cpp:150] Setting up conv8_2_mbox_loc_flat
I0906 15:59:24.434000 13560 net.cpp:157] Top shape: 1 192 (192)
I0906 15:59:24.434002 13560 net.cpp:165] Memory required for data: 277549776
I0906 15:59:24.434005 13560 layer_factory.hpp:77] Creating layer conv8_2_mbox_conf
I0906 15:59:24.434011 13560 net.cpp:100] Creating Layer conv8_2_mbox_conf
I0906 15:59:24.434015 13560 net.cpp:434] conv8_2_mbox_conf <- conv8_2_conv8_2_relu_0_split_2
I0906 15:59:24.434020 13560 net.cpp:408] conv8_2_mbox_conf -> conv8_2_mbox_conf
I0906 15:59:24.437569 13560 net.cpp:150] Setting up conv8_2_mbox_conf
I0906 15:59:24.437583 13560 net.cpp:157] Top shape: 1 8 3 4 (96)
I0906 15:59:24.437588 13560 net.cpp:165] Memory required for data: 277550160
I0906 15:59:24.437595 13560 layer_factory.hpp:77] Creating layer conv8_2_mbox_conf_perm
I0906 15:59:24.437606 13560 net.cpp:100] Creating Layer conv8_2_mbox_conf_perm
I0906 15:59:24.437611 13560 net.cpp:434] conv8_2_mbox_conf_perm <- conv8_2_mbox_conf
I0906 15:59:24.437618 13560 net.cpp:408] conv8_2_mbox_conf_perm -> conv8_2_mbox_conf_perm
I0906 15:59:24.437809 13560 net.cpp:150] Setting up conv8_2_mbox_conf_perm
I0906 15:59:24.437814 13560 net.cpp:157] Top shape: 1 3 4 8 (96)
I0906 15:59:24.437819 13560 net.cpp:165] Memory required for data: 277550544
I0906 15:59:24.437822 13560 layer_factory.hpp:77] Creating layer conv8_2_mbox_conf_flat
I0906 15:59:24.437829 13560 net.cpp:100] Creating Layer conv8_2_mbox_conf_flat
I0906 15:59:24.437831 13560 net.cpp:434] conv8_2_mbox_conf_flat <- conv8_2_mbox_conf_perm
I0906 15:59:24.437837 13560 net.cpp:408] conv8_2_mbox_conf_flat -> conv8_2_mbox_conf_flat
I0906 15:59:24.437872 13560 net.cpp:150] Setting up conv8_2_mbox_conf_flat
I0906 15:59:24.437877 13560 net.cpp:157] Top shape: 1 96 (96)
I0906 15:59:24.437881 13560 net.cpp:165] Memory required for data: 277550928
I0906 15:59:24.437885 13560 layer_factory.hpp:77] Creating layer conv8_2_mbox_priorbox
I0906 15:59:24.437891 13560 net.cpp:100] Creating Layer conv8_2_mbox_priorbox
I0906 15:59:24.437894 13560 net.cpp:434] conv8_2_mbox_priorbox <- conv8_2_conv8_2_relu_0_split_3
I0906 15:59:24.437901 13560 net.cpp:434] conv8_2_mbox_priorbox <- data_data_0_split_5
I0906 15:59:24.437906 13560 net.cpp:408] conv8_2_mbox_priorbox -> conv8_2_mbox_priorbox
I0906 15:59:24.437944 13560 net.cpp:150] Setting up conv8_2_mbox_priorbox
I0906 15:59:24.437950 13560 net.cpp:157] Top shape: 1 2 192 (384)
I0906 15:59:24.437954 13560 net.cpp:165] Memory required for data: 277552464
I0906 15:59:24.437958 13560 layer_factory.hpp:77] Creating layer conv9_2_mbox_loc
I0906 15:59:24.437968 13560 net.cpp:100] Creating Layer conv9_2_mbox_loc
I0906 15:59:24.437971 13560 net.cpp:434] conv9_2_mbox_loc <- conv9_2_conv9_2_relu_0_split_0
I0906 15:59:24.437978 13560 net.cpp:408] conv9_2_mbox_loc -> conv9_2_mbox_loc
I0906 15:59:24.440560 13560 net.cpp:150] Setting up conv9_2_mbox_loc
I0906 15:59:24.440568 13560 net.cpp:157] Top shape: 1 16 1 2 (32)
I0906 15:59:24.440572 13560 net.cpp:165] Memory required for data: 277552592
I0906 15:59:24.440577 13560 layer_factory.hpp:77] Creating layer conv9_2_mbox_loc_perm
I0906 15:59:24.440582 13560 net.cpp:100] Creating Layer conv9_2_mbox_loc_perm
I0906 15:59:24.440585 13560 net.cpp:434] conv9_2_mbox_loc_perm <- conv9_2_mbox_loc
I0906 15:59:24.440589 13560 net.cpp:408] conv9_2_mbox_loc_perm -> conv9_2_mbox_loc_perm
I0906 15:59:24.440724 13560 net.cpp:150] Setting up conv9_2_mbox_loc_perm
I0906 15:59:24.440728 13560 net.cpp:157] Top shape: 1 1 2 16 (32)
I0906 15:59:24.440732 13560 net.cpp:165] Memory required for data: 277552720
I0906 15:59:24.440733 13560 layer_factory.hpp:77] Creating layer conv9_2_mbox_loc_flat
I0906 15:59:24.440739 13560 net.cpp:100] Creating Layer conv9_2_mbox_loc_flat
I0906 15:59:24.440742 13560 net.cpp:434] conv9_2_mbox_loc_flat <- conv9_2_mbox_loc_perm
I0906 15:59:24.440745 13560 net.cpp:408] conv9_2_mbox_loc_flat -> conv9_2_mbox_loc_flat
I0906 15:59:24.440770 13560 net.cpp:150] Setting up conv9_2_mbox_loc_flat
I0906 15:59:24.440785 13560 net.cpp:157] Top shape: 1 32 (32)
I0906 15:59:24.440788 13560 net.cpp:165] Memory required for data: 277552848
I0906 15:59:24.440791 13560 layer_factory.hpp:77] Creating layer conv9_2_mbox_conf
I0906 15:59:24.440798 13560 net.cpp:100] Creating Layer conv9_2_mbox_conf
I0906 15:59:24.440801 13560 net.cpp:434] conv9_2_mbox_conf <- conv9_2_conv9_2_relu_0_split_1
I0906 15:59:24.440806 13560 net.cpp:408] conv9_2_mbox_conf -> conv9_2_mbox_conf
I0906 15:59:24.442804 13560 net.cpp:150] Setting up conv9_2_mbox_conf
I0906 15:59:24.442813 13560 net.cpp:157] Top shape: 1 8 1 2 (16)
I0906 15:59:24.442817 13560 net.cpp:165] Memory required for data: 277552912
I0906 15:59:24.442822 13560 layer_factory.hpp:77] Creating layer conv9_2_mbox_conf_perm
I0906 15:59:24.442826 13560 net.cpp:100] Creating Layer conv9_2_mbox_conf_perm
I0906 15:59:24.442829 13560 net.cpp:434] conv9_2_mbox_conf_perm <- conv9_2_mbox_conf
I0906 15:59:24.442834 13560 net.cpp:408] conv9_2_mbox_conf_perm -> conv9_2_mbox_conf_perm
I0906 15:59:24.442970 13560 net.cpp:150] Setting up conv9_2_mbox_conf_perm
I0906 15:59:24.442975 13560 net.cpp:157] Top shape: 1 1 2 8 (16)
I0906 15:59:24.442977 13560 net.cpp:165] Memory required for data: 277552976
I0906 15:59:24.442979 13560 layer_factory.hpp:77] Creating layer conv9_2_mbox_conf_flat
I0906 15:59:24.442984 13560 net.cpp:100] Creating Layer conv9_2_mbox_conf_flat
I0906 15:59:24.442987 13560 net.cpp:434] conv9_2_mbox_conf_flat <- conv9_2_mbox_conf_perm
I0906 15:59:24.442991 13560 net.cpp:408] conv9_2_mbox_conf_flat -> conv9_2_mbox_conf_flat
I0906 15:59:24.443015 13560 net.cpp:150] Setting up conv9_2_mbox_conf_flat
I0906 15:59:24.443018 13560 net.cpp:157] Top shape: 1 16 (16)
I0906 15:59:24.443022 13560 net.cpp:165] Memory required for data: 277553040
I0906 15:59:24.443023 13560 layer_factory.hpp:77] Creating layer conv9_2_mbox_priorbox
I0906 15:59:24.443029 13560 net.cpp:100] Creating Layer conv9_2_mbox_priorbox
I0906 15:59:24.443032 13560 net.cpp:434] conv9_2_mbox_priorbox <- conv9_2_conv9_2_relu_0_split_2
I0906 15:59:24.443035 13560 net.cpp:434] conv9_2_mbox_priorbox <- data_data_0_split_6
I0906 15:59:24.443040 13560 net.cpp:408] conv9_2_mbox_priorbox -> conv9_2_mbox_priorbox
I0906 15:59:24.443068 13560 net.cpp:150] Setting up conv9_2_mbox_priorbox
I0906 15:59:24.443073 13560 net.cpp:157] Top shape: 1 2 32 (64)
I0906 15:59:24.443075 13560 net.cpp:165] Memory required for data: 277553296
I0906 15:59:24.443078 13560 layer_factory.hpp:77] Creating layer mbox_loc
I0906 15:59:24.443083 13560 net.cpp:100] Creating Layer mbox_loc
I0906 15:59:24.443086 13560 net.cpp:434] mbox_loc <- conv4_3_norm_mbox_loc_flat
I0906 15:59:24.443089 13560 net.cpp:434] mbox_loc <- fc7_mbox_loc_flat
I0906 15:59:24.443094 13560 net.cpp:434] mbox_loc <- conv6_2_mbox_loc_flat
I0906 15:59:24.443096 13560 net.cpp:434] mbox_loc <- conv7_2_mbox_loc_flat
I0906 15:59:24.443099 13560 net.cpp:434] mbox_loc <- conv8_2_mbox_loc_flat
I0906 15:59:24.443102 13560 net.cpp:434] mbox_loc <- conv9_2_mbox_loc_flat
I0906 15:59:24.443106 13560 net.cpp:408] mbox_loc -> mbox_loc
I0906 15:59:24.443133 13560 net.cpp:150] Setting up mbox_loc
I0906 15:59:24.443137 13560 net.cpp:157] Top shape: 1 38168 (38168)
I0906 15:59:24.443140 13560 net.cpp:165] Memory required for data: 277705968
I0906 15:59:24.443142 13560 layer_factory.hpp:77] Creating layer mbox_conf
I0906 15:59:24.443145 13560 net.cpp:100] Creating Layer mbox_conf
I0906 15:59:24.443148 13560 net.cpp:434] mbox_conf <- conv4_3_norm_mbox_conf_flat
I0906 15:59:24.443151 13560 net.cpp:434] mbox_conf <- fc7_mbox_conf_flat
I0906 15:59:24.443153 13560 net.cpp:434] mbox_conf <- conv6_2_mbox_conf_flat
I0906 15:59:24.443156 13560 net.cpp:434] mbox_conf <- conv7_2_mbox_conf_flat
I0906 15:59:24.443159 13560 net.cpp:434] mbox_conf <- conv8_2_mbox_conf_flat
I0906 15:59:24.443161 13560 net.cpp:434] mbox_conf <- conv9_2_mbox_conf_flat
I0906 15:59:24.443164 13560 net.cpp:408] mbox_conf -> mbox_conf
I0906 15:59:24.443188 13560 net.cpp:150] Setting up mbox_conf
I0906 15:59:24.443192 13560 net.cpp:157] Top shape: 1 19084 (19084)
I0906 15:59:24.443203 13560 net.cpp:165] Memory required for data: 277782304
I0906 15:59:24.443207 13560 layer_factory.hpp:77] Creating layer mbox_priorbox
I0906 15:59:24.443210 13560 net.cpp:100] Creating Layer mbox_priorbox
I0906 15:59:24.443213 13560 net.cpp:434] mbox_priorbox <- conv4_3_norm_mbox_priorbox
I0906 15:59:24.443217 13560 net.cpp:434] mbox_priorbox <- fc7_mbox_priorbox
I0906 15:59:24.443219 13560 net.cpp:434] mbox_priorbox <- conv6_2_mbox_priorbox
I0906 15:59:24.443222 13560 net.cpp:434] mbox_priorbox <- conv7_2_mbox_priorbox
I0906 15:59:24.443224 13560 net.cpp:434] mbox_priorbox <- conv8_2_mbox_priorbox
I0906 15:59:24.443228 13560 net.cpp:434] mbox_priorbox <- conv9_2_mbox_priorbox
I0906 15:59:24.443230 13560 net.cpp:408] mbox_priorbox -> mbox_priorbox
I0906 15:59:24.443255 13560 net.cpp:150] Setting up mbox_priorbox
I0906 15:59:24.443259 13560 net.cpp:157] Top shape: 1 2 38168 (76336)
I0906 15:59:24.443262 13560 net.cpp:165] Memory required for data: 278087648
I0906 15:59:24.443264 13560 layer_factory.hpp:77] Creating layer mbox_conf_reshape
I0906 15:59:24.443269 13560 net.cpp:100] Creating Layer mbox_conf_reshape
I0906 15:59:24.443274 13560 net.cpp:434] mbox_conf_reshape <- mbox_conf
I0906 15:59:24.443280 13560 net.cpp:408] mbox_conf_reshape -> mbox_conf_reshape
I0906 15:59:24.443312 13560 net.cpp:150] Setting up mbox_conf_reshape
I0906 15:59:24.443316 13560 net.cpp:157] Top shape: 1 9542 2 (19084)
I0906 15:59:24.443320 13560 net.cpp:165] Memory required for data: 278163984
I0906 15:59:24.443322 13560 layer_factory.hpp:77] Creating layer mbox_conf_softmax
I0906 15:59:24.443327 13560 net.cpp:100] Creating Layer mbox_conf_softmax
I0906 15:59:24.443331 13560 net.cpp:434] mbox_conf_softmax <- mbox_conf_reshape
I0906 15:59:24.443334 13560 net.cpp:408] mbox_conf_softmax -> mbox_conf_softmax
I0906 15:59:24.443801 13560 net.cpp:150] Setting up mbox_conf_softmax
I0906 15:59:24.443807 13560 net.cpp:157] Top shape: 1 9542 2 (19084)
I0906 15:59:24.443810 13560 net.cpp:165] Memory required for data: 278240320
I0906 15:59:24.443814 13560 layer_factory.hpp:77] Creating layer mbox_conf_flatten
I0906 15:59:24.443819 13560 net.cpp:100] Creating Layer mbox_conf_flatten
I0906 15:59:24.443821 13560 net.cpp:434] mbox_conf_flatten <- mbox_conf_softmax
I0906 15:59:24.443825 13560 net.cpp:408] mbox_conf_flatten -> mbox_conf_flatten
I0906 15:59:24.443851 13560 net.cpp:150] Setting up mbox_conf_flatten
I0906 15:59:24.443856 13560 net.cpp:157] Top shape: 1 19084 (19084)
I0906 15:59:24.443858 13560 net.cpp:165] Memory required for data: 278316656
I0906 15:59:24.443861 13560 layer_factory.hpp:77] Creating layer detection_out
I0906 15:59:24.443874 13560 net.cpp:100] Creating Layer detection_out
I0906 15:59:24.443879 13560 net.cpp:434] detection_out <- mbox_loc
I0906 15:59:24.443882 13560 net.cpp:434] detection_out <- mbox_conf_flatten
I0906 15:59:24.443884 13560 net.cpp:434] detection_out <- mbox_priorbox
I0906 15:59:24.443888 13560 net.cpp:408] detection_out -> detection_out
W0906 15:59:24.443917 13560 detection_output_layer.cpp:49] Failed to create directory: /home/ly/data/KITTI/results/KITTI/SSD_352x288/Main
I0906 15:59:24.444268 13560 net.cpp:150] Setting up detection_out
I0906 15:59:24.444274 13560 net.cpp:157] Top shape: 1 1 1 7 (7)
I0906 15:59:24.444278 13560 net.cpp:165] Memory required for data: 278316684
I0906 15:59:24.444279 13560 layer_factory.hpp:77] Creating layer detection_eval
I0906 15:59:24.444288 13560 net.cpp:100] Creating Layer detection_eval
I0906 15:59:24.444291 13560 net.cpp:434] detection_eval <- detection_out
I0906 15:59:24.444295 13560 net.cpp:434] detection_eval <- label
I0906 15:59:24.444298 13560 net.cpp:408] detection_eval -> detection_eval
I0906 15:59:24.444478 13560 net.cpp:150] Setting up detection_eval
I0906 15:59:24.444481 13560 net.cpp:157] Top shape: 1 1 2 5 (10)
I0906 15:59:24.444484 13560 net.cpp:165] Memory required for data: 278316724
I0906 15:59:24.444487 13560 net.cpp:228] detection_eval does not need backward computation.
I0906 15:59:24.444490 13560 net.cpp:228] detection_out does not need backward computation.
I0906 15:59:24.444500 13560 net.cpp:228] mbox_conf_flatten does not need backward computation.
I0906 15:59:24.444504 13560 net.cpp:228] mbox_conf_softmax does not need backward computation.
…
