…
I0826 13:44:10.031599 21964 solver.cpp:106] Creating training net from net file: face_train_test.prototxt
I0826 13:44:10.032101 21964 net.cpp:58] Initializing net from parameters: 
name: "Face-ResNet"
state {
  phase: TRAIN
  level: 0
  stage: ""
}
layer {
  name: "data"
  type: "Data"
  top: "data"
  top: "label"
  include {
    phase: TRAIN
  }
  transform_param {
    scale: 0.0078125
    mirror: true
    mean_value: 127.5
    mean_value: 127.5
    mean_value: 127.5
  }
  data_param {
    source: "/media/ly/data/facenet/facenet_caffe-master/face_recog_celebA_set_lmdb"
    batch_size: 16
    backend: LMDB
  }
}
layer {
  name: "conv1a"
  type: "Convolution"
  bottom: "data"
  top: "conv1a"
  param {
    lr_mult: 1
    decay_mult: 1
  }
  param {
    lr_mult: 2
    decay_mult: 0
  }
  convolution_param {
    num_output: 32
    kernel_size: 3
    stride: 1
    weight_filler {
      type: "xavier"
    }
    bias_filler {
      type: "constant"
      value: 0
    }
  }
}
layer {
  name: "relu1a"
  type: "PReLU"
  bottom: "conv1a"
  top: "conv1a"
}
layer {
  name: "conv1b"
  type: "Convolution"
  bottom: "conv1a"
  top: "conv1b"
  param {
    lr_mult: 1
    decay_mult: 1
  }
  param {
    lr_mult: 2
    decay_mult: 0
  }
  convolution_param {
    num_output: 64
    kernel_size: 3
    stride: 1
    weight_filler {
      type: "xavier"
    }
    bias_filler {
      type: "constant"
      value: 0
    }
  }
}
layer {
  name: "relu1b"
  type: "PReLU"
  bottom: "conv1b"
  top: "conv1b"
}
layer {
  name: "pool1b"
  type: "Pooling"
  bottom: "conv1b"
  top: "pool1b"
  pooling_param {
    pool: MAX
    kernel_size: 2
    stride: 2
  }
}
layer {
  name: "conv2_1"
  type: "Convolution"
  bottom: "pool1b"
  top: "conv2_1"
  param {
    lr_mult: 1
    decay_mult: 1
  }
  param {
    lr_mult: 0
    decay_mult: 0
  }
  convolution_param {
    num_output: 64
    pad: 1
    kernel_size: 3
    stride: 1
    weight_filler {
      type: "gaussian"
      std: 0.01
    }
    bias_filler {
      type: "constant"
      value: 0
    }
  }
}
layer {
  name: "relu2_1"
  type: "PReLU"
  bottom: "conv2_1"
  top: "conv2_1"
}
layer {
  name: "conv2_2"
  type: "Convolution"
  bottom: "conv2_1"
  top: "conv2_2"
  param {
    lr_mult: 1
    decay_mult: 1
  }
  param {
    lr_mult: 0
    decay_mult: 0
  }
  convolution_param {
    num_output: 64
    pad: 1
    kernel_size: 3
    stride: 1
    weight_filler {
      type: "gaussian"
      std: 0.01
    }
    bias_filler {
      type: "constant"
      value: 0
    }
  }
}
layer {
  name: "relu2_2"
  type: "PReLU"
  bottom: "conv2_2"
  top: "conv2_2"
}
layer {
  name: "res2_2"
  type: "Eltwise"
  bottom: "pool1b"
  bottom: "conv2_2"
  top: "res2_2"
  eltwise_param {
    operation: SUM
  }
}
layer {
  name: "conv2"
  type: "Convolution"
  bottom: "res2_2"
  top: "conv2"
  param {
    lr_mult: 1
    decay_mult: 1
  }
  param {
    lr_mult: 2
    decay_mult: 0
  }
  convolution_param {
    num_output: 128
    kernel_size: 3
    stride: 1
    weight_filler {
      type: "xavier"
    }
    bias_filler {
      type: "constant"
      value: 0
    }
  }
}
layer {
  name: "relu2"
  type: "PReLU"
  bottom: "conv2"
  top: "conv2"
}
layer {
  name: "pool2"
  type: "Pooling"
  bottom: "conv2"
  top: "pool2"
  pooling_param {
    pool: MAX
    kernel_size: 2
    stride: 2
  }
}
layer {
  name: "conv3_1"
  type: "Convolution"
  bottom: "pool2"
  top: "conv3_1"
  param {
    lr_mult: 1
    decay_mult: 1
  }
  param {
    lr_mult: 0
    decay_mult: 0
  }
  convolution_param {
    num_output: 128
    pad: 1
    kernel_size: 3
    stride: 1
    weight_filler {
      type: "gaussian"
      std: 0.01
    }
    bias_filler {
      type: "constant"
      value: 0
    }
  }
}
layer {
  name: "relu3_1"
  type: "PReLU"
  bottom: "conv3_1"
  top: "conv3_1"
}
layer {
  name: "conv3_2"
  type: "Convolution"
  bottom: "conv3_1"
  top: "conv3_2"
  param {
    lr_mult: 1
    decay_mult: 1
  }
  param {
    lr_mult: 0
    decay_mult: 0
  }
  convolution_param {
    num_output: 128
    pad: 1
    kernel_size: 3
    stride: 1
    weight_filler {
      type: "gaussian"
      std: 0.01
    }
    bias_filler {
      type: "constant"
      value: 0
    }
  }
}
layer {
  name: "relu3_2"
  type: "PReLU"
  bottom: "conv3_2"
  top: "conv3_2"
}
layer {
  name: "res3_2"
  type: "Eltwise"
  bottom: "pool2"
  bottom: "conv3_2"
  top: "res3_2"
  eltwise_param {
    operation: SUM
  }
}
layer {
  name: "conv3_3"
  type: "Convolution"
  bottom: "res3_2"
  top: "conv3_3"
  param {
    lr_mult: 1
    decay_mult: 1
  }
  param {
    lr_mult: 0
    decay_mult: 0
  }
  convolution_param {
    num_output: 128
    pad: 1
    kernel_size: 3
    stride: 1
    weight_filler {
      type: "gaussian"
      std: 0.01
    }
    bias_filler {
      type: "constant"
      value: 0
    }
  }
}
layer {
  name: "relu3_3"
  type: "PReLU"
  bottom: "conv3_3"
  top: "conv3_3"
}
layer {
  name: "conv3_4"
  type: "Convolution"
  bottom: "conv3_3"
  top: "conv3_4"
  param {
    lr_mult: 1
    decay_mult: 1
  }
  param {
    lr_mult: 0
    decay_mult: 0
  }
  convolution_param {
    num_output: 128
    pad: 1
    kernel_size: 3
    stride: 1
    weight_filler {
      type: "gaussian"
      std: 0.01
    }
    bias_filler {
      type: "constant"
      value: 0
    }
  }
}
layer {
  name: "relu3_4"
  type: "PReLU"
  bottom: "conv3_4"
  top: "conv3_4"
}
layer {
  name: "res3_4"
  type: "Eltwise"
  bottom: "res3_2"
  bottom: "conv3_4"
  top: "res3_4"
  eltwise_param {
    operation: SUM
  }
}
layer {
  name: "conv3"
  type: "Convolution"
  bottom: "res3_4"
  top: "conv3"
  param {
    lr_mult: 1
    decay_mult: 1
  }
  param {
    lr_mult: 2
    decay_mult: 0
  }
  convolution_param {
    num_output: 256
    kernel_size: 3
    stride: 1
    weight_filler {
      type: "xavier"
    }
    bias_filler {
      type: "constant"
      value: 0
    }
  }
}
layer {
  name: "relu3"
  type: "PReLU"
  bottom: "conv3"
  top: "conv3"
}
layer {
  name: "pool3"
  type: "Pooling"
  bottom: "conv3"
  top: "pool3"
  pooling_param {
    pool: MAX
    kernel_size: 2
    stride: 2
  }
}
layer {
  name: "conv4_1"
  type: "Convolution"
  bottom: "pool3"
  top: "conv4_1"
  param {
    lr_mult: 1
    decay_mult: 1
  }
  param {
    lr_mult: 0
    decay_mult: 0
  }
  convolution_param {
    num_output: 256
    pad: 1
    kernel_size: 3
    stride: 1
    weight_filler {
      type: "gaussian"
      std: 0.01
    }
    bias_filler {
      type: "constant"
      value: 0
    }
  }
}
layer {
  name: "relu4_1"
  type: "PReLU"
  bottom: "conv4_1"
  top: "conv4_1"
}
layer {
  name: "conv4_2"
  type: "Convolution"
  bottom: "conv4_1"
  top: "conv4_2"
  param {
    lr_mult: 1
    decay_mult: 1
  }
  param {
    lr_mult: 0
    decay_mult: 0
  }
  convolution_param {
    num_output: 256
    pad: 1
    kernel_size: 3
    stride: 1
    weight_filler {
      type: "gaussian"
      std: 0.01
    }
    bias_filler {
      type: "constant"
      value: 0
    }
  }
}
layer {
  name: "relu4_2"
  type: "PReLU"
  bottom: "conv4_2"
  top: "conv4_2"
}
layer {
  name: "res4_2"
  type: "Eltwise"
  bottom: "pool3"
  bottom: "conv4_2"
  top: "res4_2"
  eltwise_param {
    operation: SUM
  }
}
layer {
  name: "conv4_3"
  type: "Convolution"
  bottom: "res4_2"
  top: "conv4_3"
  param {
    lr_mult: 1
    decay_mult: 1
  }
  param {
    lr_mult: 0
    decay_mult: 0
  }
  convolution_param {
    num_output: 256
    pad: 1
    kernel_size: 3
    stride: 1
    weight_filler {
      type: "gaussian"
      std: 0.01
    }
    bias_filler {
      type: "constant"
      value: 0
    }
  }
}
layer {
  name: "relu4_3"
  type: "PReLU"
  bottom: "conv4_3"
  top: "conv4_3"
}
layer {
  name: "conv4_4"
  type: "Convolution"
  bottom: "conv4_3"
  top: "conv4_4"
  param {
    lr_mult: 1
    decay_mult: 1
  }
  param {
    lr_mult: 0
    decay_mult: 0
  }
  convolution_param {
    num_output: 256
    pad: 1
    kernel_size: 3
    stride: 1
    weight_filler {
      type: "gaussian"
      std: 0.01
    }
    bias_filler {
      type: "constant"
      value: 0
    }
  }
}
layer {
  name: "relu4_4"
  type: "PReLU"
  bottom: "conv4_4"
  top: "conv4_4"
}
layer {
  name: "res4_4"
  type: "Eltwise"
  bottom: "res4_2"
  bottom: "conv4_4"
  top: "res4_4"
  eltwise_param {
    operation: SUM
  }
}
layer {
  name: "conv4_5"
  type: "Convolution"
  bottom: "res4_4"
  top: "conv4_5"
  param {
    lr_mult: 1
    decay_mult: 1
  }
  param {
    lr_mult: 0
    decay_mult: 0
  }
  convolution_param {
    num_output: 256
    pad: 1
    kernel_size: 3
    stride: 1
    weight_filler {
      type: "gaussian"
      std: 0.01
    }
    bias_filler {
      type: "constant"
      value: 0
    }
  }
}
layer {
  name: "relu4_5"
  type: "PReLU"
  bottom: "conv4_5"
  top: "conv4_5"
}
layer {
  name: "conv4_6"
  type: "Convolution"
  bottom: "conv4_5"
  top: "conv4_6"
  param {
    lr_mult: 1
    decay_mult: 1
  }
  param {
    lr_mult: 0
    decay_mult: 0
  }
  convolution_param {
    num_output: 256
    pad: 1
    kernel_size: 3
    stride: 1
    weight_filler {
      type: "gaussian"
      std: 0.01
    }
    bias_filler {
      type: "constant"
      value: 0
    }
  }
}
layer {
  name: "relu4_6"
  type: "PReLU"
  bottom: "conv4_6"
  top: "conv4_6"
}
layer {
  name: "res4_6"
  type: "Eltwise"
  bottom: "res4_4"
  bottom: "conv4_6"
  top: "res4_6"
  eltwise_param {
    operation: SUM
  }
}
layer {
  name: "conv4_7"
  type: "Convolution"
  bottom: "res4_6"
  top: "conv4_7"
  param {
    lr_mult: 1
    decay_mult: 1
  }
  param {
    lr_mult: 0
    decay_mult: 0
  }
  convolution_param {
    num_output: 256
    pad: 1
    kernel_size: 3
    stride: 1
    weight_filler {
      type: "gaussian"
      std: 0.01
    }
    bias_filler {
      type: "constant"
      value: 0
    }
  }
}
layer {
  name: "relu4_7"
  type: "PReLU"
  bottom: "conv4_7"
  top: "conv4_7"
}
layer {
  name: "conv4_8"
  type: "Convolution"
  bottom: "conv4_7"
  top: "conv4_8"
  param {
    lr_mult: 1
    decay_mult: 1
  }
  param {
    lr_mult: 0
    decay_mult: 0
  }
  convolution_param {
    num_output: 256
    pad: 1
    kernel_size: 3
    stride: 1
    weight_filler {
      type: "gaussian"
      std: 0.01
    }
    bias_filler {
      type: "constant"
      value: 0
    }
  }
}
layer {
  name: "relu4_8"
  type: "PReLU"
  bottom: "conv4_8"
  top: "conv4_8"
}
layer {
  name: "res4_8"
  type: "Eltwise"
  bottom: "res4_6"
  bottom: "conv4_8"
  top: "res4_8"
  eltwise_param {
    operation: SUM
  }
}
layer {
  name: "conv4_9"
  type: "Convolution"
  bottom: "res4_8"
  top: "conv4_9"
  param {
    lr_mult: 1
    decay_mult: 1
  }
  param {
    lr_mult: 0
    decay_mult: 0
  }
  convolution_param {
    num_output: 256
    pad: 1
    kernel_size: 3
    stride: 1
    weight_filler {
      type: "gaussian"
      std: 0.01
    }
    bias_filler {
      type: "constant"
      value: 0
    }
  }
}
layer {
  name: "relu4_9"
  type: "PReLU"
  bottom: "conv4_9"
  top: "conv4_9"
}
layer {
  name: "conv4_10"
  type: "Convolution"
  bottom: "conv4_9"
  top: "conv4_10"
  param {
    lr_mult: 1
    decay_mult: 1
  }
  param {
    lr_mult: 0
    decay_mult: 0
  }
  convolution_param {
    num_output: 256
    pad: 1
    kernel_size: 3
    stride: 1
    weight_filler {
      type: "gaussian"
      std: 0.01
    }
    bias_filler {
      type: "constant"
      value: 0
    }
  }
}
layer {
  name: "relu4_10"
  type: "PReLU"
  bottom: "conv4_10"
  top: "conv4_10"
}
layer {
  name: "res4_10"
  type: "Eltwise"
  bottom: "res4_8"
  bottom: "conv4_10"
  top: "res4_10"
  eltwise_param {
    operation: SUM
  }
}
layer {
  name: "conv4"
  type: "Convolution"
  bottom: "res4_10"
  top: "conv4"
  param {
    lr_mult: 1
    decay_mult: 1
  }
  param {
    lr_mult: 2
    decay_mult: 0
  }
  convolution_param {
    num_output: 512
    kernel_size: 3
    stride: 1
    weight_filler {
      type: "xavier"
    }
    bias_filler {
      type: "constant"
      value: 0
    }
  }
}
layer {
  name: "relu4"
  type: "PReLU"
  bottom: "conv4"
  top: "conv4"
}
layer {
  name: "pool4"
  type: "Pooling"
  bottom: "conv4"
  top: "pool4"
  pooling_param {
    pool: MAX
    kernel_size: 2
    stride: 2
  }
}
layer {
  name: "conv5_1"
  type: "Convolution"
  bottom: "pool4"
  top: "conv5_1"
  param {
    lr_mult: 1
    decay_mult: 1
  }
  param {
    lr_mult: 0
    decay_mult: 0
  }
  convolution_param {
    num_output: 512
    pad: 1
    kernel_size: 3
    stride: 1
    weight_filler {
      type: "gaussian"
      std: 0.01
    }
    bias_filler {
      type: "constant"
      value: 0
    }
  }
}
layer {
  name: "relu5_1"
  type: "PReLU"
  bottom: "conv5_1"
  top: "conv5_1"
}
layer {
  name: "conv5_2"
  type: "Convolution"
  bottom: "conv5_1"
  top: "conv5_2"
  param {
    lr_mult: 1
    decay_mult: 1
  }
  param {
    lr_mult: 0
    decay_mult: 0
  }
  convolution_param {
    num_output: 512
    pad: 1
    kernel_size: 3
    stride: 1
    weight_filler {
      type: "gaussian"
      std: 0.01
    }
    bias_filler {
      type: "constant"
      value: 0
    }
  }
}
layer {
  name: "relu5_2"
  type: "PReLU"
  bottom: "conv5_2"
  top: "conv5_2"
}
layer {
  name: "res5_2"
  type: "Eltwise"
  bottom: "pool4"
  bottom: "conv5_2"
  top: "res5_2"
  eltwise_param {
    operation: SUM
  }
}
layer {
  name: "conv5_3"
  type: "Convolution"
  bottom: "res5_2"
  top: "conv5_3"
  param {
    lr_mult: 1
    decay_mult: 1
  }
  param {
    lr_mult: 0
    decay_mult: 0
  }
  convolution_param {
    num_output: 512
    pad: 1
    kernel_size: 3
    stride: 1
    weight_filler {
      type: "gaussian"
      std: 0.01
    }
    bias_filler {
      type: "constant"
      value: 0
    }
  }
}
layer {
  name: "relu5_3"
  type: "PReLU"
  bottom: "conv5_3"
  top: "conv5_3"
}
layer {
  name: "conv5_4"
  type: "Convolution"
  bottom: "conv5_3"
  top: "conv5_4"
  param {
    lr_mult: 1
    decay_mult: 1
  }
  param {
    lr_mult: 0
    decay_mult: 0
  }
  convolution_param {
    num_output: 512
    pad: 1
    kernel_size: 3
    stride: 1
    weight_filler {
      type: "gaussian"
      std: 0.01
    }
    bias_filler {
      type: "constant"
      value: 0
    }
  }
}
layer {
  name: "relu5_4"
  type: "PReLU"
  bottom: "conv5_4"
  top: "conv5_4"
}
layer {
  name: "res5_4"
  type: "Eltwise"
  bottom: "res5_2"
  bottom: "conv5_4"
  top: "res5_4"
  eltwise_param {
    operation: SUM
  }
}
layer {
  name: "conv5_5"
  type: "Convolution"
  bottom: "res5_4"
  top: "conv5_5"
  param {
    lr_mult: 1
    decay_mult: 1
  }
  param {
    lr_mult: 0
    decay_mult: 0
  }
  convolution_param {
    num_output: 512
    pad: 1
    kernel_size: 3
    stride: 1
    weight_filler {
      type: "gaussian"
      std: 0.01
    }
    bias_filler {
      type: "constant"
      value: 0
    }
  }
}
layer {
  name: "relu5_5"
  type: "PReLU"
  bottom: "conv5_5"
  top: "conv5_5"
}
layer {
  name: "conv5_6"
  type: "Convolution"
  bottom: "conv5_5"
  top: "conv5_6"
  param {
    lr_mult: 1
    decay_mult: 1
  }
  param {
    lr_mult: 0
    decay_mult: 0
  }
  convolution_param {
    num_output: 512
    pad: 1
    kernel_size: 3
    stride: 1
    weight_filler {
      type: "gaussian"
      std: 0.01
    }
    bias_filler {
      type: "constant"
      value: 0
    }
  }
}
layer {
  name: "relu5_6"
  type: "PReLU"
  bottom: "conv5_6"
  top: "conv5_6"
}
layer {
  name: "res5_6"
  type: "Eltwise"
  bottom: "res5_4"
  bottom: "conv5_6"
  top: "res5_6"
  eltwise_param {
    operation: SUM
  }
}
layer {
  name: "fc5"
  type: "InnerProduct"
  bottom: "res5_6"
  top: "fc5"
  param {
    lr_mult: 1
    decay_mult: 1
  }
  param {
    lr_mult: 2
    decay_mult: 0
  }
  inner_product_param {
    num_output: 512
    weight_filler {
      type: "xavier"
    }
    bias_filler {
      type: "constant"
      value: 0
    }
  }
}
layer {
  name: "fc6"
  type: "InnerProduct"
  bottom: "fc5"
  top: "fc6"
  param {
    lr_mult: 1
    decay_mult: 1
  }
  param {
    lr_mult: 2
    decay_mult: 0
  }
  inner_product_param {
    num_output: 10177
    weight_filler {
      type: "xavier"
    }
    bias_filler {
      type: "constant"
      value: 0
    }
  }
}
layer {
  name: "softmax_loss"
  type: "SoftmaxWithLoss"
  bottom: "fc6"
  bottom: "label"
  top: "softmax_loss"
}
layer {
  name: "center_loss"
  type: "CenterLoss"
  bottom: "fc5"
  bottom: "label"
  top: "center_loss"
  loss_weight: 0.008
  param {
    lr_mult: 1
    decay_mult: 2
  }
  center_loss_param {
    num_output: 10177
    center_filler {
      type: "xavier"
    }
  }
}
I0826 13:44:10.032543 21964 layer_factory.hpp:77] Creating layer data
I0826 13:44:10.032676 21964 net.cpp:100] Creating Layer data
I0826 13:44:10.032683 21964 net.cpp:408] data -> data
I0826 13:44:10.032701 21964 net.cpp:408] data -> label
I0826 13:44:10.033332 21983 db_lmdb.cpp:35] Opened lmdb /media/ly/data/facenet/facenet_caffe-master/face_recog_celebA_set_lmdb
I0826 13:44:10.045884 21964 data_layer.cpp:41] output data size: 16,3,224,224
I0826 13:44:10.054646 21964 net.cpp:150] Setting up data
I0826 13:44:10.054679 21964 net.cpp:157] Top shape: 16 3 224 224 (2408448)
I0826 13:44:10.054687 21964 net.cpp:157] Top shape: 16 (16)
I0826 13:44:10.054690 21964 net.cpp:165] Memory required for data: 9633856
I0826 13:44:10.054697 21964 layer_factory.hpp:77] Creating layer label_data_1_split
I0826 13:44:10.054725 21964 net.cpp:100] Creating Layer label_data_1_split
I0826 13:44:10.054731 21964 net.cpp:434] label_data_1_split <- label
I0826 13:44:10.054741 21964 net.cpp:408] label_data_1_split -> label_data_1_split_0
I0826 13:44:10.054749 21964 net.cpp:408] label_data_1_split -> label_data_1_split_1
I0826 13:44:10.054791 21964 net.cpp:150] Setting up label_data_1_split
I0826 13:44:10.054795 21964 net.cpp:157] Top shape: 16 (16)
I0826 13:44:10.054798 21964 net.cpp:157] Top shape: 16 (16)
I0826 13:44:10.054801 21964 net.cpp:165] Memory required for data: 9633984
I0826 13:44:10.054803 21964 layer_factory.hpp:77] Creating layer conv1a
I0826 13:44:10.054832 21964 net.cpp:100] Creating Layer conv1a
I0826 13:44:10.054836 21964 net.cpp:434] conv1a <- data
I0826 13:44:10.054857 21964 net.cpp:408] conv1a -> conv1a
I0826 13:44:10.765748 21964 net.cpp:150] Setting up conv1a
I0826 13:44:10.765763 21964 net.cpp:157] Top shape: 16 32 222 222 (25233408)
I0826 13:44:10.765784 21964 net.cpp:165] Memory required for data: 110567616
I0826 13:44:10.765802 21964 layer_factory.hpp:77] Creating layer relu1a
I0826 13:44:10.765825 21964 net.cpp:100] Creating Layer relu1a
I0826 13:44:10.765828 21964 net.cpp:434] relu1a <- conv1a
I0826 13:44:10.765847 21964 net.cpp:395] relu1a -> conv1a (in-place)
I0826 13:44:10.767578 21964 net.cpp:150] Setting up relu1a
I0826 13:44:10.767588 21964 net.cpp:157] Top shape: 16 32 222 222 (25233408)
I0826 13:44:10.767608 21964 net.cpp:165] Memory required for data: 211501248
I0826 13:44:10.767613 21964 layer_factory.hpp:77] Creating layer conv1b
I0826 13:44:10.767638 21964 net.cpp:100] Creating Layer conv1b
I0826 13:44:10.767640 21964 net.cpp:434] conv1b <- conv1a
I0826 13:44:10.767645 21964 net.cpp:408] conv1b -> conv1b
I0826 13:44:10.769269 21964 net.cpp:150] Setting up conv1b
I0826 13:44:10.769279 21964 net.cpp:157] Top shape: 16 64 220 220 (49561600)
I0826 13:44:10.769297 21964 net.cpp:165] Memory required for data: 409747648
I0826 13:44:10.769302 21964 layer_factory.hpp:77] Creating layer relu1b
I0826 13:44:10.769307 21964 net.cpp:100] Creating Layer relu1b
I0826 13:44:10.769326 21964 net.cpp:434] relu1b <- conv1b
I0826 13:44:10.769330 21964 net.cpp:395] relu1b -> conv1b (in-place)
I0826 13:44:10.772754 21964 net.cpp:150] Setting up relu1b
I0826 13:44:10.772776 21964 net.cpp:157] Top shape: 16 64 220 220 (49561600)
I0826 13:44:10.772797 21964 net.cpp:165] Memory required for data: 607994048
I0826 13:44:10.772805 21964 layer_factory.hpp:77] Creating layer pool1b
I0826 13:44:10.772812 21964 net.cpp:100] Creating Layer pool1b
I0826 13:44:10.772830 21964 net.cpp:434] pool1b <- conv1b
I0826 13:44:10.772835 21964 net.cpp:408] pool1b -> pool1b
I0826 13:44:10.772970 21964 net.cpp:150] Setting up pool1b
I0826 13:44:10.772974 21964 net.cpp:157] Top shape: 16 64 110 110 (12390400)
I0826 13:44:10.772979 21964 net.cpp:165] Memory required for data: 657555648
I0826 13:44:10.772980 21964 layer_factory.hpp:77] Creating layer pool1b_pool1b_0_split
I0826 13:44:10.772984 21964 net.cpp:100] Creating Layer pool1b_pool1b_0_split
I0826 13:44:10.772986 21964 net.cpp:434] pool1b_pool1b_0_split <- pool1b
I0826 13:44:10.773003 21964 net.cpp:408] pool1b_pool1b_0_split -> pool1b_pool1b_0_split_0
I0826 13:44:10.773006 21964 net.cpp:408] pool1b_pool1b_0_split -> pool1b_pool1b_0_split_1
I0826 13:44:10.773062 21964 net.cpp:150] Setting up pool1b_pool1b_0_split
I0826 13:44:10.773066 21964 net.cpp:157] Top shape: 16 64 110 110 (12390400)
I0826 13:44:10.773069 21964 net.cpp:157] Top shape: 16 64 110 110 (12390400)
I0826 13:44:10.773085 21964 net.cpp:165] Memory required for data: 756678848
I0826 13:44:10.773087 21964 layer_factory.hpp:77] Creating layer conv2_1
I0826 13:44:10.773111 21964 net.cpp:100] Creating Layer conv2_1
I0826 13:44:10.773114 21964 net.cpp:434] conv2_1 <- pool1b_pool1b_0_split_0
I0826 13:44:10.773118 21964 net.cpp:408] conv2_1 -> conv2_1
I0826 13:44:10.775640 21964 net.cpp:150] Setting up conv2_1
I0826 13:44:10.775648 21964 net.cpp:157] Top shape: 16 64 110 110 (12390400)
I0826 13:44:10.775667 21964 net.cpp:165] Memory required for data: 806240448
I0826 13:44:10.775673 21964 layer_factory.hpp:77] Creating layer relu2_1
I0826 13:44:10.775677 21964 net.cpp:100] Creating Layer relu2_1
I0826 13:44:10.775696 21964 net.cpp:434] relu2_1 <- conv2_1
I0826 13:44:10.775699 21964 net.cpp:395] relu2_1 -> conv2_1 (in-place)
I0826 13:44:10.776671 21964 net.cpp:150] Setting up relu2_1
I0826 13:44:10.776679 21964 net.cpp:157] Top shape: 16 64 110 110 (12390400)
I0826 13:44:10.776696 21964 net.cpp:165] Memory required for data: 855802048
I0826 13:44:10.776701 21964 layer_factory.hpp:77] Creating layer conv2_2
I0826 13:44:10.776708 21964 net.cpp:100] Creating Layer conv2_2
I0826 13:44:10.776726 21964 net.cpp:434] conv2_2 <- conv2_1
I0826 13:44:10.776729 21964 net.cpp:408] conv2_2 -> conv2_2
I0826 13:44:10.780391 21964 net.cpp:150] Setting up conv2_2
I0826 13:44:10.780402 21964 net.cpp:157] Top shape: 16 64 110 110 (12390400)
I0826 13:44:10.780422 21964 net.cpp:165] Memory required for data: 905363648
I0826 13:44:10.780429 21964 layer_factory.hpp:77] Creating layer relu2_2
I0826 13:44:10.780434 21964 net.cpp:100] Creating Layer relu2_2
I0826 13:44:10.780437 21964 net.cpp:434] relu2_2 <- conv2_2
I0826 13:44:10.780458 21964 net.cpp:395] relu2_2 -> conv2_2 (in-place)
I0826 13:44:10.781461 21964 net.cpp:150] Setting up relu2_2
I0826 13:44:10.781467 21964 net.cpp:157] Top shape: 16 64 110 110 (12390400)
I0826 13:44:10.781486 21964 net.cpp:165] Memory required for data: 954925248
I0826 13:44:10.781491 21964 layer_factory.hpp:77] Creating layer res2_2
I0826 13:44:10.781515 21964 net.cpp:100] Creating Layer res2_2
I0826 13:44:10.781520 21964 net.cpp:434] res2_2 <- pool1b_pool1b_0_split_1
I0826 13:44:10.781539 21964 net.cpp:434] res2_2 <- conv2_2
I0826 13:44:10.781543 21964 net.cpp:408] res2_2 -> res2_2
I0826 13:44:10.781570 21964 net.cpp:150] Setting up res2_2
I0826 13:44:10.781574 21964 net.cpp:157] Top shape: 16 64 110 110 (12390400)
I0826 13:44:10.781594 21964 net.cpp:165] Memory required for data: 1004486848
I0826 13:44:10.781597 21964 layer_factory.hpp:77] Creating layer conv2
I0826 13:44:10.781617 21964 net.cpp:100] Creating Layer conv2
I0826 13:44:10.781620 21964 net.cpp:434] conv2 <- res2_2
I0826 13:44:10.781623 21964 net.cpp:408] conv2 -> conv2
I0826 13:44:10.783955 21964 net.cpp:150] Setting up conv2
I0826 13:44:10.783963 21964 net.cpp:157] Top shape: 16 128 108 108 (23887872)
I0826 13:44:10.783982 21964 net.cpp:165] Memory required for data: 1100038336
I0826 13:44:10.783987 21964 layer_factory.hpp:77] Creating layer relu2
I0826 13:44:10.783993 21964 net.cpp:100] Creating Layer relu2
I0826 13:44:10.784010 21964 net.cpp:434] relu2 <- conv2
I0826 13:44:10.784013 21964 net.cpp:395] relu2 -> conv2 (in-place)
I0826 13:44:10.785744 21964 net.cpp:150] Setting up relu2
I0826 13:44:10.785753 21964 net.cpp:157] Top shape: 16 128 108 108 (23887872)
I0826 13:44:10.785771 21964 net.cpp:165] Memory required for data: 1195589824
I0826 13:44:10.785778 21964 layer_factory.hpp:77] Creating layer pool2
I0826 13:44:10.785799 21964 net.cpp:100] Creating Layer pool2
I0826 13:44:10.785801 21964 net.cpp:434] pool2 <- conv2
I0826 13:44:10.785805 21964 net.cpp:408] pool2 -> pool2
I0826 13:44:10.785868 21964 net.cpp:150] Setting up pool2
I0826 13:44:10.785872 21964 net.cpp:157] Top shape: 16 128 54 54 (5971968)
I0826 13:44:10.785888 21964 net.cpp:165] Memory required for data: 1219477696
I0826 13:44:10.785890 21964 layer_factory.hpp:77] Creating layer pool2_pool2_0_split
I0826 13:44:10.785895 21964 net.cpp:100] Creating Layer pool2_pool2_0_split
I0826 13:44:10.785912 21964 net.cpp:434] pool2_pool2_0_split <- pool2
I0826 13:44:10.785917 21964 net.cpp:408] pool2_pool2_0_split -> pool2_pool2_0_split_0
I0826 13:44:10.785919 21964 net.cpp:408] pool2_pool2_0_split -> pool2_pool2_0_split_1
I0826 13:44:10.785961 21964 net.cpp:150] Setting up pool2_pool2_0_split
I0826 13:44:10.785964 21964 net.cpp:157] Top shape: 16 128 54 54 (5971968)
I0826 13:44:10.785967 21964 net.cpp:157] Top shape: 16 128 54 54 (5971968)
I0826 13:44:10.785970 21964 net.cpp:165] Memory required for data: 1267253440
I0826 13:44:10.785972 21964 layer_factory.hpp:77] Creating layer conv3_1
I0826 13:44:10.785980 21964 net.cpp:100] Creating Layer conv3_1
I0826 13:44:10.785982 21964 net.cpp:434] conv3_1 <- pool2_pool2_0_split_0
I0826 13:44:10.785986 21964 net.cpp:408] conv3_1 -> conv3_1
I0826 13:44:10.788933 21964 net.cpp:150] Setting up conv3_1
I0826 13:44:10.788940 21964 net.cpp:157] Top shape: 16 128 54 54 (5971968)
I0826 13:44:10.788959 21964 net.cpp:165] Memory required for data: 1291141312
I0826 13:44:10.788966 21964 layer_factory.hpp:77] Creating layer relu3_1
I0826 13:44:10.788971 21964 net.cpp:100] Creating Layer relu3_1
I0826 13:44:10.788990 21964 net.cpp:434] relu3_1 <- conv3_1
I0826 13:44:10.788993 21964 net.cpp:395] relu3_1 -> conv3_1 (in-place)
I0826 13:44:10.789705 21964 net.cpp:150] Setting up relu3_1
I0826 13:44:10.789712 21964 net.cpp:157] Top shape: 16 128 54 54 (5971968)
I0826 13:44:10.789731 21964 net.cpp:165] Memory required for data: 1315029184
I0826 13:44:10.789734 21964 layer_factory.hpp:77] Creating layer conv3_2
I0826 13:44:10.789741 21964 net.cpp:100] Creating Layer conv3_2
I0826 13:44:10.789743 21964 net.cpp:434] conv3_2 <- conv3_1
I0826 13:44:10.789763 21964 net.cpp:408] conv3_2 -> conv3_2
I0826 13:44:10.793099 21964 net.cpp:150] Setting up conv3_2
I0826 13:44:10.793107 21964 net.cpp:157] Top shape: 16 128 54 54 (5971968)
I0826 13:44:10.793126 21964 net.cpp:165] Memory required for data: 1338917056
I0826 13:44:10.793131 21964 layer_factory.hpp:77] Creating layer relu3_2
I0826 13:44:10.793136 21964 net.cpp:100] Creating Layer relu3_2
I0826 13:44:10.793154 21964 net.cpp:434] relu3_2 <- conv3_2
I0826 13:44:10.793157 21964 net.cpp:395] relu3_2 -> conv3_2 (in-place)
I0826 13:44:10.793892 21964 net.cpp:150] Setting up relu3_2
I0826 13:44:10.793900 21964 net.cpp:157] Top shape: 16 128 54 54 (5971968)
I0826 13:44:10.793920 21964 net.cpp:165] Memory required for data: 1362804928
I0826 13:44:10.793923 21964 layer_factory.hpp:77] Creating layer res3_2
I0826 13:44:10.793943 21964 net.cpp:100] Creating Layer res3_2
I0826 13:44:10.793946 21964 net.cpp:434] res3_2 <- pool2_pool2_0_split_1
I0826 13:44:10.793951 21964 net.cpp:434] res3_2 <- conv3_2
I0826 13:44:10.793953 21964 net.cpp:408] res3_2 -> res3_2
I0826 13:44:10.793974 21964 net.cpp:150] Setting up res3_2
I0826 13:44:10.793977 21964 net.cpp:157] Top shape: 16 128 54 54 (5971968)
I0826 13:44:10.793980 21964 net.cpp:165] Memory required for data: 1386692800
I0826 13:44:10.793995 21964 layer_factory.hpp:77] Creating layer res3_2_res3_2_0_split
I0826 13:44:10.793999 21964 net.cpp:100] Creating Layer res3_2_res3_2_0_split
I0826 13:44:10.794003 21964 net.cpp:434] res3_2_res3_2_0_split <- res3_2
I0826 13:44:10.794036 21964 net.cpp:408] res3_2_res3_2_0_split -> res3_2_res3_2_0_split_0
I0826 13:44:10.794041 21964 net.cpp:408] res3_2_res3_2_0_split -> res3_2_res3_2_0_split_1
I0826 13:44:10.794070 21964 net.cpp:150] Setting up res3_2_res3_2_0_split
I0826 13:44:10.794073 21964 net.cpp:157] Top shape: 16 128 54 54 (5971968)
I0826 13:44:10.794076 21964 net.cpp:157] Top shape: 16 128 54 54 (5971968)
I0826 13:44:10.794080 21964 net.cpp:165] Memory required for data: 1434468544
I0826 13:44:10.794081 21964 layer_factory.hpp:77] Creating layer conv3_3
I0826 13:44:10.794088 21964 net.cpp:100] Creating Layer conv3_3
I0826 13:44:10.794091 21964 net.cpp:434] conv3_3 <- res3_2_res3_2_0_split_0
I0826 13:44:10.794095 21964 net.cpp:408] conv3_3 -> conv3_3
I0826 13:44:10.796728 21964 net.cpp:150] Setting up conv3_3
I0826 13:44:10.796736 21964 net.cpp:157] Top shape: 16 128 54 54 (5971968)
I0826 13:44:10.796739 21964 net.cpp:165] Memory required for data: 1458356416
I0826 13:44:10.796746 21964 layer_factory.hpp:77] Creating layer relu3_3
I0826 13:44:10.796751 21964 net.cpp:100] Creating Layer relu3_3
I0826 13:44:10.796753 21964 net.cpp:434] relu3_3 <- conv3_3
I0826 13:44:10.796756 21964 net.cpp:395] relu3_3 -> conv3_3 (in-place)
I0826 13:44:10.797417 21964 net.cpp:150] Setting up relu3_3
I0826 13:44:10.797425 21964 net.cpp:157] Top shape: 16 128 54 54 (5971968)
I0826 13:44:10.797428 21964 net.cpp:165] Memory required for data: 1482244288
I0826 13:44:10.797432 21964 layer_factory.hpp:77] Creating layer conv3_4
I0826 13:44:10.797437 21964 net.cpp:100] Creating Layer conv3_4
I0826 13:44:10.797441 21964 net.cpp:434] conv3_4 <- conv3_3
I0826 13:44:10.797446 21964 net.cpp:408] conv3_4 -> conv3_4
I0826 13:44:10.799914 21964 net.cpp:150] Setting up conv3_4
I0826 13:44:10.799921 21964 net.cpp:157] Top shape: 16 128 54 54 (5971968)
I0826 13:44:10.799926 21964 net.cpp:165] Memory required for data: 1506132160
I0826 13:44:10.799930 21964 layer_factory.hpp:77] Creating layer relu3_4
I0826 13:44:10.799934 21964 net.cpp:100] Creating Layer relu3_4
I0826 13:44:10.799937 21964 net.cpp:434] relu3_4 <- conv3_4
I0826 13:44:10.799940 21964 net.cpp:395] relu3_4 -> conv3_4 (in-place)
I0826 13:44:10.800601 21964 net.cpp:150] Setting up relu3_4
I0826 13:44:10.800606 21964 net.cpp:157] Top shape: 16 128 54 54 (5971968)
I0826 13:44:10.800611 21964 net.cpp:165] Memory required for data: 1530020032
I0826 13:44:10.800614 21964 layer_factory.hpp:77] Creating layer res3_4
I0826 13:44:10.800618 21964 net.cpp:100] Creating Layer res3_4
I0826 13:44:10.800621 21964 net.cpp:434] res3_4 <- res3_2_res3_2_0_split_1
I0826 13:44:10.800624 21964 net.cpp:434] res3_4 <- conv3_4
I0826 13:44:10.800628 21964 net.cpp:408] res3_4 -> res3_4
I0826 13:44:10.800647 21964 net.cpp:150] Setting up res3_4
I0826 13:44:10.800652 21964 net.cpp:157] Top shape: 16 128 54 54 (5971968)
I0826 13:44:10.800654 21964 net.cpp:165] Memory required for data: 1553907904
I0826 13:44:10.800657 21964 layer_factory.hpp:77] Creating layer conv3
I0826 13:44:10.800662 21964 net.cpp:100] Creating Layer conv3
I0826 13:44:10.800665 21964 net.cpp:434] conv3 <- res3_4
I0826 13:44:10.800669 21964 net.cpp:408] conv3 -> conv3
I0826 13:44:10.804121 21964 net.cpp:150] Setting up conv3
I0826 13:44:10.804128 21964 net.cpp:157] Top shape: 16 256 52 52 (11075584)
I0826 13:44:10.804133 21964 net.cpp:165] Memory required for data: 1598210240
I0826 13:44:10.804139 21964 layer_factory.hpp:77] Creating layer relu3
I0826 13:44:10.804143 21964 net.cpp:100] Creating Layer relu3
I0826 13:44:10.804147 21964 net.cpp:434] relu3 <- conv3
I0826 13:44:10.804149 21964 net.cpp:395] relu3 -> conv3 (in-place)
I0826 13:44:10.805035 21964 net.cpp:150] Setting up relu3
I0826 13:44:10.805042 21964 net.cpp:157] Top shape: 16 256 52 52 (11075584)
I0826 13:44:10.805045 21964 net.cpp:165] Memory required for data: 1642512576
I0826 13:44:10.805049 21964 layer_factory.hpp:77] Creating layer pool3
I0826 13:44:10.805056 21964 net.cpp:100] Creating Layer pool3
I0826 13:44:10.805059 21964 net.cpp:434] pool3 <- conv3
I0826 13:44:10.805063 21964 net.cpp:408] pool3 -> pool3
I0826 13:44:10.805107 21964 net.cpp:150] Setting up pool3
I0826 13:44:10.805111 21964 net.cpp:157] Top shape: 16 256 26 26 (2768896)
I0826 13:44:10.805114 21964 net.cpp:165] Memory required for data: 1653588160
I0826 13:44:10.805116 21964 layer_factory.hpp:77] Creating layer pool3_pool3_0_split
I0826 13:44:10.805120 21964 net.cpp:100] Creating Layer pool3_pool3_0_split
I0826 13:44:10.805122 21964 net.cpp:434] pool3_pool3_0_split <- pool3
I0826 13:44:10.805126 21964 net.cpp:408] pool3_pool3_0_split -> pool3_pool3_0_split_0
I0826 13:44:10.805130 21964 net.cpp:408] pool3_pool3_0_split -> pool3_pool3_0_split_1
I0826 13:44:10.805158 21964 net.cpp:150] Setting up pool3_pool3_0_split
I0826 13:44:10.805178 21964 net.cpp:157] Top shape: 16 256 26 26 (2768896)
I0826 13:44:10.805181 21964 net.cpp:157] Top shape: 16 256 26 26 (2768896)
I0826 13:44:10.805184 21964 net.cpp:165] Memory required for data: 1675739328
I0826 13:44:10.805199 21964 layer_factory.hpp:77] Creating layer conv4_1
I0826 13:44:10.805207 21964 net.cpp:100] Creating Layer conv4_1
I0826 13:44:10.805230 21964 net.cpp:434] conv4_1 <- pool3_pool3_0_split_0
I0826 13:44:10.805234 21964 net.cpp:408] conv4_1 -> conv4_1
I0826 13:44:10.811019 21964 net.cpp:150] Setting up conv4_1
I0826 13:44:10.811030 21964 net.cpp:157] Top shape: 16 256 26 26 (2768896)
I0826 13:44:10.811035 21964 net.cpp:165] Memory required for data: 1686814912
I0826 13:44:10.811041 21964 layer_factory.hpp:77] Creating layer relu4_1
I0826 13:44:10.811046 21964 net.cpp:100] Creating Layer relu4_1
I0826 13:44:10.811049 21964 net.cpp:434] relu4_1 <- conv4_1
I0826 13:44:10.811053 21964 net.cpp:395] relu4_1 -> conv4_1 (in-place)
I0826 13:44:10.811658 21964 net.cpp:150] Setting up relu4_1
I0826 13:44:10.811666 21964 net.cpp:157] Top shape: 16 256 26 26 (2768896)
I0826 13:44:10.811671 21964 net.cpp:165] Memory required for data: 1697890496
I0826 13:44:10.811676 21964 layer_factory.hpp:77] Creating layer conv4_2
I0826 13:44:10.811683 21964 net.cpp:100] Creating Layer conv4_2
I0826 13:44:10.811686 21964 net.cpp:434] conv4_2 <- conv4_1
I0826 13:44:10.811691 21964 net.cpp:408] conv4_2 -> conv4_2
I0826 13:44:10.817399 21964 net.cpp:150] Setting up conv4_2
I0826 13:44:10.817409 21964 net.cpp:157] Top shape: 16 256 26 26 (2768896)
I0826 13:44:10.817414 21964 net.cpp:165] Memory required for data: 1708966080
I0826 13:44:10.817420 21964 layer_factory.hpp:77] Creating layer relu4_2
I0826 13:44:10.817425 21964 net.cpp:100] Creating Layer relu4_2
I0826 13:44:10.817428 21964 net.cpp:434] relu4_2 <- conv4_2
I0826 13:44:10.817432 21964 net.cpp:395] relu4_2 -> conv4_2 (in-place)
I0826 13:44:10.817574 21964 net.cpp:150] Setting up relu4_2
I0826 13:44:10.817579 21964 net.cpp:157] Top shape: 16 256 26 26 (2768896)
I0826 13:44:10.817581 21964 net.cpp:165] Memory required for data: 1720041664
I0826 13:44:10.817585 21964 layer_factory.hpp:77] Creating layer res4_2
I0826 13:44:10.817589 21964 net.cpp:100] Creating Layer res4_2
I0826 13:44:10.817592 21964 net.cpp:434] res4_2 <- pool3_pool3_0_split_1
I0826 13:44:10.817595 21964 net.cpp:434] res4_2 <- conv4_2
I0826 13:44:10.817598 21964 net.cpp:408] res4_2 -> res4_2
I0826 13:44:10.817618 21964 net.cpp:150] Setting up res4_2
I0826 13:44:10.817622 21964 net.cpp:157] Top shape: 16 256 26 26 (2768896)
I0826 13:44:10.817625 21964 net.cpp:165] Memory required for data: 1731117248
I0826 13:44:10.817627 21964 layer_factory.hpp:77] Creating layer res4_2_res4_2_0_split
I0826 13:44:10.817631 21964 net.cpp:100] Creating Layer res4_2_res4_2_0_split
I0826 13:44:10.817633 21964 net.cpp:434] res4_2_res4_2_0_split <- res4_2
I0826 13:44:10.817636 21964 net.cpp:408] res4_2_res4_2_0_split -> res4_2_res4_2_0_split_0
I0826 13:44:10.817641 21964 net.cpp:408] res4_2_res4_2_0_split -> res4_2_res4_2_0_split_1
I0826 13:44:10.817687 21964 net.cpp:150] Setting up res4_2_res4_2_0_split
I0826 13:44:10.817706 21964 net.cpp:157] Top shape: 16 256 26 26 (2768896)
I0826 13:44:10.817710 21964 net.cpp:157] Top shape: 16 256 26 26 (2768896)
I0826 13:44:10.817713 21964 net.cpp:165] Memory required for data: 1753268416
I0826 13:44:10.817726 21964 layer_factory.hpp:77] Creating layer conv4_3
I0826 13:44:10.817734 21964 net.cpp:100] Creating Layer conv4_3
I0826 13:44:10.817736 21964 net.cpp:434] conv4_3 <- res4_2_res4_2_0_split_0
I0826 13:44:10.817739 21964 net.cpp:408] conv4_3 -> conv4_3
I0826 13:44:10.824286 21964 net.cpp:150] Setting up conv4_3
I0826 13:44:10.824295 21964 net.cpp:157] Top shape: 16 256 26 26 (2768896)
I0826 13:44:10.824301 21964 net.cpp:165] Memory required for data: 1764344000
I0826 13:44:10.824306 21964 layer_factory.hpp:77] Creating layer relu4_3
I0826 13:44:10.824311 21964 net.cpp:100] Creating Layer relu4_3
I0826 13:44:10.824314 21964 net.cpp:434] relu4_3 <- conv4_3
I0826 13:44:10.824318 21964 net.cpp:395] relu4_3 -> conv4_3 (in-place)
I0826 13:44:10.824493 21964 net.cpp:150] Setting up relu4_3
I0826 13:44:10.824497 21964 net.cpp:157] Top shape: 16 256 26 26 (2768896)
I0826 13:44:10.824501 21964 net.cpp:165] Memory required for data: 1775419584
I0826 13:44:10.824504 21964 layer_factory.hpp:77] Creating layer conv4_4
I0826 13:44:10.824512 21964 net.cpp:100] Creating Layer conv4_4
I0826 13:44:10.824514 21964 net.cpp:434] conv4_4 <- conv4_3
I0826 13:44:10.824518 21964 net.cpp:408] conv4_4 -> conv4_4
I0826 13:44:10.830265 21964 net.cpp:150] Setting up conv4_4
I0826 13:44:10.830276 21964 net.cpp:157] Top shape: 16 256 26 26 (2768896)
I0826 13:44:10.830279 21964 net.cpp:165] Memory required for data: 1786495168
I0826 13:44:10.830286 21964 layer_factory.hpp:77] Creating layer relu4_4
I0826 13:44:10.830291 21964 net.cpp:100] Creating Layer relu4_4
I0826 13:44:10.830294 21964 net.cpp:434] relu4_4 <- conv4_4
I0826 13:44:10.830297 21964 net.cpp:395] relu4_4 -> conv4_4 (in-place)
I0826 13:44:10.830900 21964 net.cpp:150] Setting up relu4_4
I0826 13:44:10.830907 21964 net.cpp:157] Top shape: 16 256 26 26 (2768896)
I0826 13:44:10.830911 21964 net.cpp:165] Memory required for data: 1797570752
I0826 13:44:10.830914 21964 layer_factory.hpp:77] Creating layer res4_4
I0826 13:44:10.830919 21964 net.cpp:100] Creating Layer res4_4
I0826 13:44:10.830922 21964 net.cpp:434] res4_4 <- res4_2_res4_2_0_split_1
I0826 13:44:10.830925 21964 net.cpp:434] res4_4 <- conv4_4
I0826 13:44:10.830929 21964 net.cpp:408] res4_4 -> res4_4
I0826 13:44:10.830950 21964 net.cpp:150] Setting up res4_4
I0826 13:44:10.830953 21964 net.cpp:157] Top shape: 16 256 26 26 (2768896)
I0826 13:44:10.830956 21964 net.cpp:165] Memory required for data: 1808646336
I0826 13:44:10.830960 21964 layer_factory.hpp:77] Creating layer res4_4_res4_4_0_split
I0826 13:44:10.830962 21964 net.cpp:100] Creating Layer res4_4_res4_4_0_split
I0826 13:44:10.830965 21964 net.cpp:434] res4_4_res4_4_0_split <- res4_4
I0826 13:44:10.830968 21964 net.cpp:408] res4_4_res4_4_0_split -> res4_4_res4_4_0_split_0
I0826 13:44:10.830972 21964 net.cpp:408] res4_4_res4_4_0_split -> res4_4_res4_4_0_split_1
I0826 13:44:10.831002 21964 net.cpp:150] Setting up res4_4_res4_4_0_split
I0826 13:44:10.831005 21964 net.cpp:157] Top shape: 16 256 26 26 (2768896)
I0826 13:44:10.831032 21964 net.cpp:157] Top shape: 16 256 26 26 (2768896)
I0826 13:44:10.831034 21964 net.cpp:165] Memory required for data: 1830797504
I0826 13:44:10.831037 21964 layer_factory.hpp:77] Creating layer conv4_5
I0826 13:44:10.831044 21964 net.cpp:100] Creating Layer conv4_5
I0826 13:44:10.831048 21964 net.cpp:434] conv4_5 <- res4_4_res4_4_0_split_0
I0826 13:44:10.831051 21964 net.cpp:408] conv4_5 -> conv4_5
I0826 13:44:10.836648 21964 net.cpp:150] Setting up conv4_5
I0826 13:44:10.836657 21964 net.cpp:157] Top shape: 16 256 26 26 (2768896)
I0826 13:44:10.836660 21964 net.cpp:165] Memory required for data: 1841873088
I0826 13:44:10.836665 21964 layer_factory.hpp:77] Creating layer relu4_5
I0826 13:44:10.836670 21964 net.cpp:100] Creating Layer relu4_5
I0826 13:44:10.836673 21964 net.cpp:434] relu4_5 <- conv4_5
I0826 13:44:10.836676 21964 net.cpp:395] relu4_5 -> conv4_5 (in-place)
I0826 13:44:10.836851 21964 net.cpp:150] Setting up relu4_5
I0826 13:44:10.836855 21964 net.cpp:157] Top shape: 16 256 26 26 (2768896)
I0826 13:44:10.836858 21964 net.cpp:165] Memory required for data: 1852948672
I0826 13:44:10.836874 21964 layer_factory.hpp:77] Creating layer conv4_6
I0826 13:44:10.836880 21964 net.cpp:100] Creating Layer conv4_6
I0826 13:44:10.836882 21964 net.cpp:434] conv4_6 <- conv4_5
I0826 13:44:10.836887 21964 net.cpp:408] conv4_6 -> conv4_6
I0826 13:44:10.842516 21964 net.cpp:150] Setting up conv4_6
I0826 13:44:10.842525 21964 net.cpp:157] Top shape: 16 256 26 26 (2768896)
I0826 13:44:10.842530 21964 net.cpp:165] Memory required for data: 1864024256
I0826 13:44:10.842535 21964 layer_factory.hpp:77] Creating layer relu4_6
I0826 13:44:10.842540 21964 net.cpp:100] Creating Layer relu4_6
I0826 13:44:10.842541 21964 net.cpp:434] relu4_6 <- conv4_6
I0826 13:44:10.842545 21964 net.cpp:395] relu4_6 -> conv4_6 (in-place)
I0826 13:44:10.842690 21964 net.cpp:150] Setting up relu4_6
I0826 13:44:10.842694 21964 net.cpp:157] Top shape: 16 256 26 26 (2768896)
I0826 13:44:10.842697 21964 net.cpp:165] Memory required for data: 1875099840
I0826 13:44:10.842700 21964 layer_factory.hpp:77] Creating layer res4_6
I0826 13:44:10.842705 21964 net.cpp:100] Creating Layer res4_6
I0826 13:44:10.842707 21964 net.cpp:434] res4_6 <- res4_4_res4_4_0_split_1
I0826 13:44:10.842710 21964 net.cpp:434] res4_6 <- conv4_6
I0826 13:44:10.842713 21964 net.cpp:408] res4_6 -> res4_6
I0826 13:44:10.842733 21964 net.cpp:150] Setting up res4_6
I0826 13:44:10.842737 21964 net.cpp:157] Top shape: 16 256 26 26 (2768896)
I0826 13:44:10.842741 21964 net.cpp:165] Memory required for data: 1886175424
I0826 13:44:10.842742 21964 layer_factory.hpp:77] Creating layer res4_6_res4_6_0_split
I0826 13:44:10.842746 21964 net.cpp:100] Creating Layer res4_6_res4_6_0_split
I0826 13:44:10.842749 21964 net.cpp:434] res4_6_res4_6_0_split <- res4_6
I0826 13:44:10.842752 21964 net.cpp:408] res4_6_res4_6_0_split -> res4_6_res4_6_0_split_0
I0826 13:44:10.842756 21964 net.cpp:408] res4_6_res4_6_0_split -> res4_6_res4_6_0_split_1
I0826 13:44:10.842818 21964 net.cpp:150] Setting up res4_6_res4_6_0_split
I0826 13:44:10.842823 21964 net.cpp:157] Top shape: 16 256 26 26 (2768896)
I0826 13:44:10.842825 21964 net.cpp:157] Top shape: 16 256 26 26 (2768896)
I0826 13:44:10.842828 21964 net.cpp:165] Memory required for data: 1908326592
I0826 13:44:10.842830 21964 layer_factory.hpp:77] Creating layer conv4_7
I0826 13:44:10.842836 21964 net.cpp:100] Creating Layer conv4_7
I0826 13:44:10.842839 21964 net.cpp:434] conv4_7 <- res4_6_res4_6_0_split_0
I0826 13:44:10.842842 21964 net.cpp:408] conv4_7 -> conv4_7
I0826 13:44:10.849375 21964 net.cpp:150] Setting up conv4_7
I0826 13:44:10.849383 21964 net.cpp:157] Top shape: 16 256 26 26 (2768896)
I0826 13:44:10.849387 21964 net.cpp:165] Memory required for data: 1919402176
I0826 13:44:10.849393 21964 layer_factory.hpp:77] Creating layer relu4_7
I0826 13:44:10.849398 21964 net.cpp:100] Creating Layer relu4_7
I0826 13:44:10.849401 21964 net.cpp:434] relu4_7 <- conv4_7
I0826 13:44:10.849406 21964 net.cpp:395] relu4_7 -> conv4_7 (in-place)
I0826 13:44:10.850034 21964 net.cpp:150] Setting up relu4_7
I0826 13:44:10.850041 21964 net.cpp:157] Top shape: 16 256 26 26 (2768896)
I0826 13:44:10.850044 21964 net.cpp:165] Memory required for data: 1930477760
I0826 13:44:10.850049 21964 layer_factory.hpp:77] Creating layer conv4_8
I0826 13:44:10.850054 21964 net.cpp:100] Creating Layer conv4_8
I0826 13:44:10.850057 21964 net.cpp:434] conv4_8 <- conv4_7
I0826 13:44:10.850062 21964 net.cpp:408] conv4_8 -> conv4_8
I0826 13:44:10.855679 21964 net.cpp:150] Setting up conv4_8
I0826 13:44:10.855687 21964 net.cpp:157] Top shape: 16 256 26 26 (2768896)
I0826 13:44:10.855691 21964 net.cpp:165] Memory required for data: 1941553344
I0826 13:44:10.855697 21964 layer_factory.hpp:77] Creating layer relu4_8
I0826 13:44:10.855701 21964 net.cpp:100] Creating Layer relu4_8
I0826 13:44:10.855705 21964 net.cpp:434] relu4_8 <- conv4_8
I0826 13:44:10.855708 21964 net.cpp:395] relu4_8 -> conv4_8 (in-place)
I0826 13:44:10.855880 21964 net.cpp:150] Setting up relu4_8
I0826 13:44:10.855885 21964 net.cpp:157] Top shape: 16 256 26 26 (2768896)
I0826 13:44:10.855901 21964 net.cpp:165] Memory required for data: 1952628928
I0826 13:44:10.855904 21964 layer_factory.hpp:77] Creating layer res4_8
I0826 13:44:10.855911 21964 net.cpp:100] Creating Layer res4_8
I0826 13:44:10.855913 21964 net.cpp:434] res4_8 <- res4_6_res4_6_0_split_1
I0826 13:44:10.855916 21964 net.cpp:434] res4_8 <- conv4_8
I0826 13:44:10.855919 21964 net.cpp:408] res4_8 -> res4_8
I0826 13:44:10.855955 21964 net.cpp:150] Setting up res4_8
I0826 13:44:10.855958 21964 net.cpp:157] Top shape: 16 256 26 26 (2768896)
I0826 13:44:10.855962 21964 net.cpp:165] Memory required for data: 1963704512
I0826 13:44:10.855978 21964 layer_factory.hpp:77] Creating layer res4_8_res4_8_0_split
I0826 13:44:10.855983 21964 net.cpp:100] Creating Layer res4_8_res4_8_0_split
I0826 13:44:10.855984 21964 net.cpp:434] res4_8_res4_8_0_split <- res4_8
I0826 13:44:10.855988 21964 net.cpp:408] res4_8_res4_8_0_split -> res4_8_res4_8_0_split_0
I0826 13:44:10.855991 21964 net.cpp:408] res4_8_res4_8_0_split -> res4_8_res4_8_0_split_1
I0826 13:44:10.856039 21964 net.cpp:150] Setting up res4_8_res4_8_0_split
I0826 13:44:10.856042 21964 net.cpp:157] Top shape: 16 256 26 26 (2768896)
I0826 13:44:10.856045 21964 net.cpp:157] Top shape: 16 256 26 26 (2768896)
I0826 13:44:10.856047 21964 net.cpp:165] Memory required for data: 1985855680
I0826 13:44:10.856050 21964 layer_factory.hpp:77] Creating layer conv4_9
I0826 13:44:10.856055 21964 net.cpp:100] Creating Layer conv4_9
I0826 13:44:10.856058 21964 net.cpp:434] conv4_9 <- res4_8_res4_8_0_split_0
I0826 13:44:10.856076 21964 net.cpp:408] conv4_9 -> conv4_9
I0826 13:44:10.862100 21964 net.cpp:150] Setting up conv4_9
I0826 13:44:10.862110 21964 net.cpp:157] Top shape: 16 256 26 26 (2768896)
I0826 13:44:10.862115 21964 net.cpp:165] Memory required for data: 1996931264
I0826 13:44:10.862121 21964 layer_factory.hpp:77] Creating layer relu4_9
I0826 13:44:10.862128 21964 net.cpp:100] Creating Layer relu4_9
I0826 13:44:10.862130 21964 net.cpp:434] relu4_9 <- conv4_9
I0826 13:44:10.862134 21964 net.cpp:395] relu4_9 -> conv4_9 (in-place)
I0826 13:44:10.862285 21964 net.cpp:150] Setting up relu4_9
I0826 13:44:10.862289 21964 net.cpp:157] Top shape: 16 256 26 26 (2768896)
I0826 13:44:10.862293 21964 net.cpp:165] Memory required for data: 2008006848
I0826 13:44:10.862295 21964 layer_factory.hpp:77] Creating layer conv4_10
I0826 13:44:10.862303 21964 net.cpp:100] Creating Layer conv4_10
I0826 13:44:10.862306 21964 net.cpp:434] conv4_10 <- conv4_9
I0826 13:44:10.862309 21964 net.cpp:408] conv4_10 -> conv4_10
I0826 13:44:10.868748 21964 net.cpp:150] Setting up conv4_10
I0826 13:44:10.868758 21964 net.cpp:157] Top shape: 16 256 26 26 (2768896)
I0826 13:44:10.868763 21964 net.cpp:165] Memory required for data: 2019082432
I0826 13:44:10.868768 21964 layer_factory.hpp:77] Creating layer relu4_10
I0826 13:44:10.868773 21964 net.cpp:100] Creating Layer relu4_10
I0826 13:44:10.868777 21964 net.cpp:434] relu4_10 <- conv4_10
I0826 13:44:10.868780 21964 net.cpp:395] relu4_10 -> conv4_10 (in-place)
I0826 13:44:10.869392 21964 net.cpp:150] Setting up relu4_10
I0826 13:44:10.869400 21964 net.cpp:157] Top shape: 16 256 26 26 (2768896)
I0826 13:44:10.869405 21964 net.cpp:165] Memory required for data: 2030158016
I0826 13:44:10.869407 21964 layer_factory.hpp:77] Creating layer res4_10
I0826 13:44:10.869412 21964 net.cpp:100] Creating Layer res4_10
I0826 13:44:10.869416 21964 net.cpp:434] res4_10 <- res4_8_res4_8_0_split_1
I0826 13:44:10.869419 21964 net.cpp:434] res4_10 <- conv4_10
I0826 13:44:10.869422 21964 net.cpp:408] res4_10 -> res4_10
I0826 13:44:10.869444 21964 net.cpp:150] Setting up res4_10
I0826 13:44:10.869448 21964 net.cpp:157] Top shape: 16 256 26 26 (2768896)
I0826 13:44:10.869451 21964 net.cpp:165] Memory required for data: 2041233600
I0826 13:44:10.869454 21964 layer_factory.hpp:77] Creating layer conv4
I0826 13:44:10.869459 21964 net.cpp:100] Creating Layer conv4
I0826 13:44:10.869462 21964 net.cpp:434] conv4 <- res4_10
I0826 13:44:10.869468 21964 net.cpp:408] conv4 -> conv4
I0826 13:44:10.875929 21964 net.cpp:150] Setting up conv4
I0826 13:44:10.875952 21964 net.cpp:157] Top shape: 16 512 24 24 (4718592)
I0826 13:44:10.875957 21964 net.cpp:165] Memory required for data: 2060107968
I0826 13:44:10.875963 21964 layer_factory.hpp:77] Creating layer relu4
I0826 13:44:10.875967 21964 net.cpp:100] Creating Layer relu4
I0826 13:44:10.875972 21964 net.cpp:434] relu4 <- conv4
I0826 13:44:10.875975 21964 net.cpp:395] relu4 -> conv4 (in-place)
I0826 13:44:10.876176 21964 net.cpp:150] Setting up relu4
I0826 13:44:10.876181 21964 net.cpp:157] Top shape: 16 512 24 24 (4718592)
I0826 13:44:10.876184 21964 net.cpp:165] Memory required for data: 2078982336
I0826 13:44:10.876188 21964 layer_factory.hpp:77] Creating layer pool4
I0826 13:44:10.876194 21964 net.cpp:100] Creating Layer pool4
I0826 13:44:10.876196 21964 net.cpp:434] pool4 <- conv4
I0826 13:44:10.876199 21964 net.cpp:408] pool4 -> pool4
I0826 13:44:10.876235 21964 net.cpp:150] Setting up pool4
I0826 13:44:10.876237 21964 net.cpp:157] Top shape: 16 512 12 12 (1179648)
I0826 13:44:10.876240 21964 net.cpp:165] Memory required for data: 2083700928
I0826 13:44:10.876242 21964 layer_factory.hpp:77] Creating layer pool4_pool4_0_split
I0826 13:44:10.876250 21964 net.cpp:100] Creating Layer pool4_pool4_0_split
I0826 13:44:10.876252 21964 net.cpp:434] pool4_pool4_0_split <- pool4
I0826 13:44:10.876255 21964 net.cpp:408] pool4_pool4_0_split -> pool4_pool4_0_split_0
I0826 13:44:10.876260 21964 net.cpp:408] pool4_pool4_0_split -> pool4_pool4_0_split_1
I0826 13:44:10.876291 21964 net.cpp:150] Setting up pool4_pool4_0_split
I0826 13:44:10.876293 21964 net.cpp:157] Top shape: 16 512 12 12 (1179648)
I0826 13:44:10.876312 21964 net.cpp:157] Top shape: 16 512 12 12 (1179648)
I0826 13:44:10.876314 21964 net.cpp:165] Memory required for data: 2093138112
I0826 13:44:10.876317 21964 layer_factory.hpp:77] Creating layer conv5_1
I0826 13:44:10.876336 21964 net.cpp:100] Creating Layer conv5_1
I0826 13:44:10.876339 21964 net.cpp:434] conv5_1 <- pool4_pool4_0_split_0
I0826 13:44:10.876360 21964 net.cpp:408] conv5_1 -> conv5_1
I0826 13:44:10.893541 21964 net.cpp:150] Setting up conv5_1
I0826 13:44:10.893558 21964 net.cpp:157] Top shape: 16 512 12 12 (1179648)
I0826 13:44:10.893580 21964 net.cpp:165] Memory required for data: 2097856704
I0826 13:44:10.893592 21964 layer_factory.hpp:77] Creating layer relu5_1
I0826 13:44:10.893599 21964 net.cpp:100] Creating Layer relu5_1
I0826 13:44:10.893604 21964 net.cpp:434] relu5_1 <- conv5_1
I0826 13:44:10.893622 21964 net.cpp:395] relu5_1 -> conv5_1 (in-place)
I0826 13:44:10.893784 21964 net.cpp:150] Setting up relu5_1
I0826 13:44:10.893788 21964 net.cpp:157] Top shape: 16 512 12 12 (1179648)
I0826 13:44:10.893807 21964 net.cpp:165] Memory required for data: 2102575296
I0826 13:44:10.893810 21964 layer_factory.hpp:77] Creating layer conv5_2
I0826 13:44:10.893820 21964 net.cpp:100] Creating Layer conv5_2
I0826 13:44:10.893822 21964 net.cpp:434] conv5_2 <- conv5_1
I0826 13:44:10.893827 21964 net.cpp:408] conv5_2 -> conv5_2
I0826 13:44:10.912346 21964 net.cpp:150] Setting up conv5_2
I0826 13:44:10.912361 21964 net.cpp:157] Top shape: 16 512 12 12 (1179648)
I0826 13:44:10.912367 21964 net.cpp:165] Memory required for data: 2107293888
I0826 13:44:10.912374 21964 layer_factory.hpp:77] Creating layer relu5_2
I0826 13:44:10.912381 21964 net.cpp:100] Creating Layer relu5_2
I0826 13:44:10.912385 21964 net.cpp:434] relu5_2 <- conv5_2
I0826 13:44:10.912390 21964 net.cpp:395] relu5_2 -> conv5_2 (in-place)
I0826 13:44:10.912549 21964 net.cpp:150] Setting up relu5_2
I0826 13:44:10.912554 21964 net.cpp:157] Top shape: 16 512 12 12 (1179648)
I0826 13:44:10.912557 21964 net.cpp:165] Memory required for data: 2112012480
I0826 13:44:10.912560 21964 layer_factory.hpp:77] Creating layer res5_2
I0826 13:44:10.912567 21964 net.cpp:100] Creating Layer res5_2
I0826 13:44:10.912570 21964 net.cpp:434] res5_2 <- pool4_pool4_0_split_1
I0826 13:44:10.912573 21964 net.cpp:434] res5_2 <- conv5_2
I0826 13:44:10.912577 21964 net.cpp:408] res5_2 -> res5_2
I0826 13:44:10.912613 21964 net.cpp:150] Setting up res5_2
I0826 13:44:10.912631 21964 net.cpp:157] Top shape: 16 512 12 12 (1179648)
I0826 13:44:10.912634 21964 net.cpp:165] Memory required for data: 2116731072
I0826 13:44:10.912636 21964 layer_factory.hpp:77] Creating layer res5_2_res5_2_0_split
I0826 13:44:10.912655 21964 net.cpp:100] Creating Layer res5_2_res5_2_0_split
I0826 13:44:10.912657 21964 net.cpp:434] res5_2_res5_2_0_split <- res5_2
I0826 13:44:10.912660 21964 net.cpp:408] res5_2_res5_2_0_split -> res5_2_res5_2_0_split_0
I0826 13:44:10.912664 21964 net.cpp:408] res5_2_res5_2_0_split -> res5_2_res5_2_0_split_1
I0826 13:44:10.912737 21964 net.cpp:150] Setting up res5_2_res5_2_0_split
I0826 13:44:10.912741 21964 net.cpp:157] Top shape: 16 512 12 12 (1179648)
I0826 13:44:10.912744 21964 net.cpp:157] Top shape: 16 512 12 12 (1179648)
I0826 13:44:10.912762 21964 net.cpp:165] Memory required for data: 2126168256
I0826 13:44:10.912765 21964 layer_factory.hpp:77] Creating layer conv5_3
I0826 13:44:10.912772 21964 net.cpp:100] Creating Layer conv5_3
I0826 13:44:10.912775 21964 net.cpp:434] conv5_3 <- res5_2_res5_2_0_split_0
I0826 13:44:10.912781 21964 net.cpp:408] conv5_3 -> conv5_3
I0826 13:44:10.930001 21964 net.cpp:150] Setting up conv5_3
I0826 13:44:10.930016 21964 net.cpp:157] Top shape: 16 512 12 12 (1179648)
I0826 13:44:10.930022 21964 net.cpp:165] Memory required for data: 2130886848
I0826 13:44:10.930028 21964 layer_factory.hpp:77] Creating layer relu5_3
I0826 13:44:10.930037 21964 net.cpp:100] Creating Layer relu5_3
I0826 13:44:10.930039 21964 net.cpp:434] relu5_3 <- conv5_3
I0826 13:44:10.930044 21964 net.cpp:395] relu5_3 -> conv5_3 (in-place)
I0826 13:44:10.930673 21964 net.cpp:150] Setting up relu5_3
I0826 13:44:10.930681 21964 net.cpp:157] Top shape: 16 512 12 12 (1179648)
I0826 13:44:10.930685 21964 net.cpp:165] Memory required for data: 2135605440
I0826 13:44:10.930689 21964 layer_factory.hpp:77] Creating layer conv5_4
I0826 13:44:10.930699 21964 net.cpp:100] Creating Layer conv5_4
I0826 13:44:10.930702 21964 net.cpp:434] conv5_4 <- conv5_3
I0826 13:44:10.930706 21964 net.cpp:408] conv5_4 -> conv5_4
I0826 13:44:10.947624 21964 net.cpp:150] Setting up conv5_4
I0826 13:44:10.947640 21964 net.cpp:157] Top shape: 16 512 12 12 (1179648)
I0826 13:44:10.947645 21964 net.cpp:165] Memory required for data: 2140324032
I0826 13:44:10.947652 21964 layer_factory.hpp:77] Creating layer relu5_4
I0826 13:44:10.947657 21964 net.cpp:100] Creating Layer relu5_4
I0826 13:44:10.947661 21964 net.cpp:434] relu5_4 <- conv5_4
I0826 13:44:10.947665 21964 net.cpp:395] relu5_4 -> conv5_4 (in-place)
I0826 13:44:10.947793 21964 net.cpp:150] Setting up relu5_4
I0826 13:44:10.947798 21964 net.cpp:157] Top shape: 16 512 12 12 (1179648)
I0826 13:44:10.947801 21964 net.cpp:165] Memory required for data: 2145042624
I0826 13:44:10.947804 21964 layer_factory.hpp:77] Creating layer res5_4
I0826 13:44:10.947810 21964 net.cpp:100] Creating Layer res5_4
I0826 13:44:10.947813 21964 net.cpp:434] res5_4 <- res5_2_res5_2_0_split_1
I0826 13:44:10.947816 21964 net.cpp:434] res5_4 <- conv5_4
I0826 13:44:10.947820 21964 net.cpp:408] res5_4 -> res5_4
I0826 13:44:10.947841 21964 net.cpp:150] Setting up res5_4
I0826 13:44:10.947844 21964 net.cpp:157] Top shape: 16 512 12 12 (1179648)
I0826 13:44:10.947847 21964 net.cpp:165] Memory required for data: 2149761216
I0826 13:44:10.947850 21964 layer_factory.hpp:77] Creating layer res5_4_res5_4_0_split
I0826 13:44:10.947854 21964 net.cpp:100] Creating Layer res5_4_res5_4_0_split
I0826 13:44:10.947856 21964 net.cpp:434] res5_4_res5_4_0_split <- res5_4
I0826 13:44:10.947860 21964 net.cpp:408] res5_4_res5_4_0_split -> res5_4_res5_4_0_split_0
I0826 13:44:10.947865 21964 net.cpp:408] res5_4_res5_4_0_split -> res5_4_res5_4_0_split_1
I0826 13:44:10.947923 21964 net.cpp:150] Setting up res5_4_res5_4_0_split
I0826 13:44:10.947926 21964 net.cpp:157] Top shape: 16 512 12 12 (1179648)
I0826 13:44:10.947929 21964 net.cpp:157] Top shape: 16 512 12 12 (1179648)
I0826 13:44:10.947932 21964 net.cpp:165] Memory required for data: 2159198400
I0826 13:44:10.947934 21964 layer_factory.hpp:77] Creating layer conv5_5
I0826 13:44:10.947968 21964 net.cpp:100] Creating Layer conv5_5
I0826 13:44:10.947971 21964 net.cpp:434] conv5_5 <- res5_4_res5_4_0_split_0
I0826 13:44:10.947974 21964 net.cpp:408] conv5_5 -> conv5_5
I0826 13:44:10.964915 21964 net.cpp:150] Setting up conv5_5
I0826 13:44:10.964932 21964 net.cpp:157] Top shape: 16 512 12 12 (1179648)
I0826 13:44:10.964938 21964 net.cpp:165] Memory required for data: 2163916992
I0826 13:44:10.964944 21964 layer_factory.hpp:77] Creating layer relu5_5
I0826 13:44:10.964951 21964 net.cpp:100] Creating Layer relu5_5
I0826 13:44:10.964954 21964 net.cpp:434] relu5_5 <- conv5_5
I0826 13:44:10.964959 21964 net.cpp:395] relu5_5 -> conv5_5 (in-place)
I0826 13:44:10.965083 21964 net.cpp:150] Setting up relu5_5
I0826 13:44:10.965088 21964 net.cpp:157] Top shape: 16 512 12 12 (1179648)
I0826 13:44:10.965091 21964 net.cpp:165] Memory required for data: 2168635584
I0826 13:44:10.965095 21964 layer_factory.hpp:77] Creating layer conv5_6
I0826 13:44:10.965103 21964 net.cpp:100] Creating Layer conv5_6
I0826 13:44:10.965106 21964 net.cpp:434] conv5_6 <- conv5_5
I0826 13:44:10.965109 21964 net.cpp:408] conv5_6 -> conv5_6
I0826 13:44:10.983273 21964 net.cpp:150] Setting up conv5_6
I0826 13:44:10.983289 21964 net.cpp:157] Top shape: 16 512 12 12 (1179648)
I0826 13:44:10.983294 21964 net.cpp:165] Memory required for data: 2173354176
I0826 13:44:10.983300 21964 layer_factory.hpp:77] Creating layer relu5_6
I0826 13:44:10.983307 21964 net.cpp:100] Creating Layer relu5_6
I0826 13:44:10.983311 21964 net.cpp:434] relu5_6 <- conv5_6
I0826 13:44:10.983316 21964 net.cpp:395] relu5_6 -> conv5_6 (in-place)
I0826 13:44:10.983444 21964 net.cpp:150] Setting up relu5_6
I0826 13:44:10.983448 21964 net.cpp:157] Top shape: 16 512 12 12 (1179648)
I0826 13:44:10.983453 21964 net.cpp:165] Memory required for data: 2178072768
I0826 13:44:10.983454 21964 layer_factory.hpp:77] Creating layer res5_6
I0826 13:44:10.983460 21964 net.cpp:100] Creating Layer res5_6
I0826 13:44:10.983464 21964 net.cpp:434] res5_6 <- res5_4_res5_4_0_split_1
I0826 13:44:10.983466 21964 net.cpp:434] res5_6 <- conv5_6
I0826 13:44:10.983470 21964 net.cpp:408] res5_6 -> res5_6
I0826 13:44:10.983491 21964 net.cpp:150] Setting up res5_6
I0826 13:44:10.983495 21964 net.cpp:157] Top shape: 16 512 12 12 (1179648)
I0826 13:44:10.983497 21964 net.cpp:165] Memory required for data: 2182791360
I0826 13:44:10.983500 21964 layer_factory.hpp:77] Creating layer fc5
I0826 13:44:10.983505 21964 net.cpp:100] Creating Layer fc5
I0826 13:44:10.983507 21964 net.cpp:434] fc5 <- res5_6
I0826 13:44:10.983510 21964 net.cpp:408] fc5 -> fc5
I0826 13:44:11.130666 21964 net.cpp:150] Setting up fc5
I0826 13:44:11.130683 21964 net.cpp:157] Top shape: 16 512 (8192)
I0826 13:44:11.130687 21964 net.cpp:165] Memory required for data: 2182824128
I0826 13:44:11.130695 21964 layer_factory.hpp:77] Creating layer fc5_fc5_0_split
I0826 13:44:11.130702 21964 net.cpp:100] Creating Layer fc5_fc5_0_split
I0826 13:44:11.130705 21964 net.cpp:434] fc5_fc5_0_split <- fc5
I0826 13:44:11.130710 21964 net.cpp:408] fc5_fc5_0_split -> fc5_fc5_0_split_0
I0826 13:44:11.130717 21964 net.cpp:408] fc5_fc5_0_split -> fc5_fc5_0_split_1
I0826 13:44:11.130789 21964 net.cpp:150] Setting up fc5_fc5_0_split
I0826 13:44:11.130792 21964 net.cpp:157] Top shape: 16 512 (8192)
I0826 13:44:11.130795 21964 net.cpp:157] Top shape: 16 512 (8192)
I0826 13:44:11.130813 21964 net.cpp:165] Memory required for data: 2182889664
I0826 13:44:11.130815 21964 layer_factory.hpp:77] Creating layer fc6
I0826 13:44:11.130820 21964 net.cpp:100] Creating Layer fc6
I0826 13:44:11.130823 21964 net.cpp:434] fc6 <- fc5_fc5_0_split_0
I0826 13:44:11.130826 21964 net.cpp:408] fc6 -> fc6
I0826 13:44:11.151818 21964 net.cpp:150] Setting up fc6
I0826 13:44:11.151837 21964 net.cpp:157] Top shape: 16 10177 (162832)
I0826 13:44:11.151842 21964 net.cpp:165] Memory required for data: 2183540992
I0826 13:44:11.151850 21964 layer_factory.hpp:77] Creating layer softmax_loss
I0826 13:44:11.151857 21964 net.cpp:100] Creating Layer softmax_loss
I0826 13:44:11.151895 21964 net.cpp:434] softmax_loss <- fc6
I0826 13:44:11.151901 21964 net.cpp:434] softmax_loss <- label_data_1_split_0
I0826 13:44:11.151921 21964 net.cpp:408] softmax_loss -> softmax_loss
…
