…
name: "Landmark5_face"
state {
  phase: TRAIN
  level: 0
  stage: ""
}
layer {
  name: "data"
  type: "Python"
  top: "data"
  top: "label"
  include {
    phase: TRAIN
  }
  python_param {
    module: "landmark_input_datalayer"
    layer: "ImageInputDataLayer"
    param_str: "{\"batch_size\":128, \"img_size\":128, \"need_reader\":True,\"landmark_type\":5,\"process_num\":20,\"buffer2memory\":True,\"max_angle\":10,\"img_format\":\"RGB\",\"max_epoch\":1000,\"input_paths\":\"/media/ly/data/FacialLandmark_Caffe-master/list_landmarks_celeba.txt\"}"
  }
}
layer {
  name: "Convolution1"
  type: "Convolution"
  bottom: "data"
  top: "Convolution1"
  param {
    lr_mult: 1
  }
  param {
    lr_mult: 2
  }
  convolution_param {
    num_output: 24
    pad: 1
    kernel_size: 3
    group: 1
    stride: 1
    weight_filler {
      type: "xavier"
    }
    bias_filler {
      type: "constant"
    }
  }
}
layer {
  name: "ReLU1"
  type: "ReLU"
  bottom: "Convolution1"
  top: "Convolution1"
}
layer {
  name: "Pooling1"
  type: "Pooling"
  bottom: "Convolution1"
  top: "Pooling1"
  pooling_param {
    pool: MAX
    kernel_size: 2
    stride: 2
  }
}
layer {
  name: "Convolution2"
  type: "Convolution"
  bottom: "Pooling1"
  top: "Convolution2"
  param {
    lr_mult: 1
  }
  param {
    lr_mult: 2
  }
  convolution_param {
    num_output: 64
    pad: 1
    kernel_size: 3
    group: 1
    stride: 1
    weight_filler {
      type: "xavier"
    }
    bias_filler {
      type: "constant"
    }
  }
}
layer {
  name: "ReLU1"
  type: "ReLU"
  bottom: "Convolution2"
  top: "Convolution2"
}
layer {
  name: "Convolution3"
  type: "Convolution"
  bottom: "Convolution2"
  top: "Convolution3"
  param {
    lr_mult: 1
  }
  param {
    lr_mult: 2
  }
  convolution_param {
    num_output: 64
    pad: 1
    kernel_size: 3
    group: 1
    stride: 1
    weight_filler {
      type: "xavier"
    }
    bias_filler {
      type: "constant"
    }
  }
}
layer {
  name: "ReLU1"
  type: "ReLU"
  bottom: "Convolution3"
  top: "Convolution3"
}
layer {
  name: "Pooling2"
  type: "Pooling"
  bottom: "Convolution3"
  top: "Pooling2"
  pooling_param {
    pool: MAX
    kernel_size: 2
    stride: 2
  }
}
layer {
  name: "Convolution4"
  type: "Convolution"
  bottom: "Pooling2"
  top: "Convolution4"
  param {
    lr_mult: 1
  }
  param {
    lr_mult: 2
  }
  convolution_param {
    num_output: 64
    pad: 1
    kernel_size: 3
    group: 1
    stride: 1
    weight_filler {
      type: "xavier"
    }
    bias_filler {
      type: "constant"
    }
  }
}
layer {
  name: "ReLU1"
  type: "ReLU"
  bottom: "Convolution4"
  top: "Convolution4"
}
layer {
  name: "Convolution5"
  type: "Convolution"
  bottom: "Convolution4"
  top: "Convolution5"
  param {
    lr_mult: 1
  }
  param {
    lr_mult: 2
  }
  convolution_param {
    num_output: 64
    pad: 1
    kernel_size: 3
    group: 1
    stride: 1
    weight_filler {
      type: "xavier"
    }
    bias_filler {
      type: "constant"
    }
  }
}
layer {
  name: "ReLU1"
  type: "ReLU"
  bottom: "Convolution5"
  top: "Convolution5"
}
layer {
  name: "Pooling3"
  type: "Pooling"
  bottom: "Convolution5"
  top: "Pooling3"
  pooling_param {
    pool: MAX
    kernel_size: 2
    stride: 2
  }
}
layer {
  name: "Convolution6"
  type: "Convolution"
  bottom: "Pooling3"
  top: "Convolution6"
  param {
    lr_mult: 1
  }
  param {
    lr_mult: 2
  }
  convolution_param {
    num_output: 128
    pad: 1
    kernel_size: 3
    group: 1
    stride: 1
    weight_filler {
      type: "xavier"
    }
    bias_filler {
      type: "constant"
    }
  }
}
layer {
  name: "ReLU1"
  type: "ReLU"
  bottom: "Convolution6"
  top: "Convolution6"
}
layer {
  name: "Convolution7"
  type: "Convolution"
  bottom: "Convolution6"
  top: "Convolution7"
  param {
    lr_mult: 1
  }
  param {
    lr_mult: 2
  }
  convolution_param {
    num_output: 128
    pad: 1
    kernel_size: 3
    group: 1
    stride: 1
    weight_filler {
      type: "xavier"
    }
    bias_filler {
      type: "constant"
    }
  }
}
layer {
  name: "ReLU1"
  type: "ReLU"
  bottom: "Convolution7"
  top: "Convolution7"
}
layer {
  name: "Pooling4"
  type: "Pooling"
  bottom: "Convolution7"
  top: "Pooling4"
  pooling_param {
    pool: MAX
    kernel_size: 2
    stride: 2
  }
}
layer {
  name: "Convolution8"
  type: "Convolution"
  bottom: "Pooling4"
  top: "Convolution8"
  param {
    lr_mult: 1
  }
  param {
    lr_mult: 2
  }
  convolution_param {
    num_output: 256
    pad: 1
    kernel_size: 3
    group: 1
    stride: 1
    weight_filler {
      type: "xavier"
    }
    bias_filler {
      type: "constant"
    }
  }
}
layer {
  name: "ReLU1"
  type: "ReLU"
  bottom: "Convolution8"
  top: "Convolution8"
}
layer {
  name: "InnerProduct1"
  type: "InnerProduct"
  bottom: "Convolution8"
  top: "InnerProduct1"
  param {
    lr_mult: 1
  }
  param {
    lr_mult: 2
  }
  inner_product_param {
    num_output: 1024
    weight_filler {
      type: "xavier"
    }
    bias_filler {
      type: "constant"
    }
  }
}
layer {
  name: "ReLU6"
  type: "ReLU"
  bottom: "InnerProduct1"
  top: "InnerProduct1"
}
layer {
  name: "InnerProduct2"
  type: "InnerProduct"
  bottom: "InnerProduct1"
  top: "InnerProduct2"
  param {
    lr_mult: 1
  }
  param {
    lr_mult: 2
  }
  inner_product_param {
    num_output: 10
    weight_filler {
      type: "xavier"
    }
    bias_filler {
      type: "constant"
    }
  }
}
layer {
  name: "loss"
  type: "EuclideanLoss"
  bottom: "InnerProduct2"
  bottom: "label"
  top: "loss"
}
I0912 16:07:26.628491  2916 layer_factory.hpp:77] Creating layer data
I0912 16:07:27.777961  2916 net.cpp:100] Creating Layer data
I0912 16:07:27.778024  2916 net.cpp:408] data -> data
I0912 16:07:27.778074  2916 net.cpp:408] data -> label
I0912 16:07:29.171720  2916 net.cpp:150] Setting up data
I0912 16:07:29.171826  2916 net.cpp:157] Top shape: 128 3 128 128 (6291456)
I0912 16:07:29.171881  2916 net.cpp:157] Top shape: 128 10 (1280)
I0912 16:07:29.171914  2916 net.cpp:165] Memory required for data: 25170944
I0912 16:07:29.171945  2916 layer_factory.hpp:77] Creating layer Convolution1
I0912 16:07:29.171980  2916 net.cpp:100] Creating Layer Convolution1
I0912 16:07:29.171998  2916 net.cpp:434] Convolution1 <- data
I0912 16:07:29.172029  2916 net.cpp:408] Convolution1 -> Convolution1
I0912 16:07:36.048796  2916 net.cpp:150] Setting up Convolution1
I0912 16:07:36.049006  2916 net.cpp:157] Top shape: 128 24 128 128 (50331648)
I0912 16:07:36.049098  2916 net.cpp:165] Memory required for data: 226497536
I0912 16:07:36.049198  2916 layer_factory.hpp:77] Creating layer ReLU1
I0912 16:07:36.050398  2916 net.cpp:100] Creating Layer ReLU1
I0912 16:07:36.050451  2916 net.cpp:434] ReLU1 <- Convolution1
I0912 16:07:36.050499  2916 net.cpp:395] ReLU1 -> Convolution1 (in-place)
I0912 16:07:36.051435  2916 net.cpp:150] Setting up ReLU1
I0912 16:07:36.051496  2916 net.cpp:157] Top shape: 128 24 128 128 (50331648)
I0912 16:07:36.051546  2916 net.cpp:165] Memory required for data: 427824128
I0912 16:07:36.051594  2916 layer_factory.hpp:77] Creating layer Pooling1
I0912 16:07:36.051642  2916 net.cpp:100] Creating Layer Pooling1
I0912 16:07:36.051692  2916 net.cpp:434] Pooling1 <- Convolution1
I0912 16:07:36.051781  2916 net.cpp:408] Pooling1 -> Pooling1
I0912 16:07:36.055172  2916 net.cpp:150] Setting up Pooling1
I0912 16:07:36.055238  2916 net.cpp:157] Top shape: 128 24 64 64 (12582912)
I0912 16:07:36.055286  2916 net.cpp:165] Memory required for data: 478155776
I0912 16:07:36.055332  2916 layer_factory.hpp:77] Creating layer Convolution2
I0912 16:07:36.055385  2916 net.cpp:100] Creating Layer Convolution2
I0912 16:07:36.055430  2916 net.cpp:434] Convolution2 <- Pooling1
I0912 16:07:36.055480  2916 net.cpp:408] Convolution2 -> Convolution2
I0912 16:07:36.058439  2916 net.cpp:150] Setting up Convolution2
I0912 16:07:36.058506  2916 net.cpp:157] Top shape: 128 64 64 64 (33554432)
I0912 16:07:36.058555  2916 net.cpp:165] Memory required for data: 612373504
I0912 16:07:36.058606  2916 layer_factory.hpp:77] Creating layer ReLU1
I0912 16:07:36.058655  2916 net.cpp:100] Creating Layer ReLU1
I0912 16:07:36.058699  2916 net.cpp:434] ReLU1 <- Convolution2
I0912 16:07:36.058745  2916 net.cpp:395] ReLU1 -> Convolution2 (in-place)
I0912 16:07:36.061378  2916 net.cpp:150] Setting up ReLU1
I0912 16:07:36.061441  2916 net.cpp:157] Top shape: 128 64 64 64 (33554432)
I0912 16:07:36.061491  2916 net.cpp:165] Memory required for data: 746591232
I0912 16:07:36.061543  2916 layer_factory.hpp:77] Creating layer Convolution3
I0912 16:07:36.061601  2916 net.cpp:100] Creating Layer Convolution3
I0912 16:07:36.061658  2916 net.cpp:434] Convolution3 <- Convolution2
I0912 16:07:36.061707  2916 net.cpp:408] Convolution3 -> Convolution3
I0912 16:07:36.085672  2916 net.cpp:150] Setting up Convolution3
I0912 16:07:36.089668  2916 net.cpp:157] Top shape: 128 64 64 64 (33554432)
I0912 16:07:36.089726  2916 net.cpp:165] Memory required for data: 880808960
I0912 16:07:36.089758  2916 layer_factory.hpp:77] Creating layer ReLU1
I0912 16:07:36.089788  2916 net.cpp:100] Creating Layer ReLU1
I0912 16:07:36.089807  2916 net.cpp:434] ReLU1 <- Convolution3
I0912 16:07:36.089826  2916 net.cpp:395] ReLU1 -> Convolution3 (in-place)
I0912 16:07:36.094691  2916 net.cpp:150] Setting up ReLU1
I0912 16:07:36.096575  2916 net.cpp:157] Top shape: 128 64 64 64 (33554432)
I0912 16:07:36.096608  2916 net.cpp:165] Memory required for data: 1015026688
I0912 16:07:36.096637  2916 layer_factory.hpp:77] Creating layer Pooling2
I0912 16:07:36.096666  2916 net.cpp:100] Creating Layer Pooling2
I0912 16:07:36.097656  2916 net.cpp:434] Pooling2 <- Convolution3
I0912 16:07:36.097692  2916 net.cpp:408] Pooling2 -> Pooling2
I0912 16:07:36.097815  2916 net.cpp:150] Setting up Pooling2
I0912 16:07:36.097839  2916 net.cpp:157] Top shape: 128 64 32 32 (8388608)
I0912 16:07:36.097860  2916 net.cpp:165] Memory required for data: 1048581120
I0912 16:07:36.097878  2916 layer_factory.hpp:77] Creating layer Convolution4
I0912 16:07:36.097905  2916 net.cpp:100] Creating Layer Convolution4
I0912 16:07:36.097913  2916 net.cpp:434] Convolution4 <- Pooling2
I0912 16:07:36.097918  2916 net.cpp:408] Convolution4 -> Convolution4
I0912 16:07:36.100224  2916 net.cpp:150] Setting up Convolution4
I0912 16:07:36.100234  2916 net.cpp:157] Top shape: 128 64 32 32 (8388608)
I0912 16:07:36.100240  2916 net.cpp:165] Memory required for data: 1082135552
I0912 16:07:36.100252  2916 layer_factory.hpp:77] Creating layer ReLU1
I0912 16:07:36.100260  2916 net.cpp:100] Creating Layer ReLU1
I0912 16:07:36.100265  2916 net.cpp:434] ReLU1 <- Convolution4
I0912 16:07:36.100270  2916 net.cpp:395] ReLU1 -> Convolution4 (in-place)
I0912 16:07:36.132050  2916 net.cpp:150] Setting up ReLU1
I0912 16:07:36.132104  2916 net.cpp:157] Top shape: 128 64 32 32 (8388608)
I0912 16:07:36.132127  2916 net.cpp:165] Memory required for data: 1115689984
I0912 16:07:36.132140  2916 layer_factory.hpp:77] Creating layer Convolution5
I0912 16:07:36.132166  2916 net.cpp:100] Creating Layer Convolution5
I0912 16:07:36.132180  2916 net.cpp:434] Convolution5 <- Convolution4
I0912 16:07:36.132198  2916 net.cpp:408] Convolution5 -> Convolution5
I0912 16:07:36.134637  2916 net.cpp:150] Setting up Convolution5
I0912 16:07:36.149621  2916 net.cpp:157] Top shape: 128 64 32 32 (8388608)
I0912 16:07:36.150815  2916 net.cpp:165] Memory required for data: 1149244416
I0912 16:07:36.150892  2916 layer_factory.hpp:77] Creating layer ReLU1
I0912 16:07:36.150945  2916 net.cpp:100] Creating Layer ReLU1
I0912 16:07:36.150991  2916 net.cpp:434] ReLU1 <- Convolution5
I0912 16:07:36.151041  2916 net.cpp:395] ReLU1 -> Convolution5 (in-place)
I0912 16:07:36.152853  2916 net.cpp:150] Setting up ReLU1
I0912 16:07:36.156035  2916 net.cpp:157] Top shape: 128 64 32 32 (8388608)
I0912 16:07:36.156107  2916 net.cpp:165] Memory required for data: 1182798848
I0912 16:07:36.156154  2916 layer_factory.hpp:77] Creating layer Pooling3
I0912 16:07:36.156206  2916 net.cpp:100] Creating Layer Pooling3
I0912 16:07:36.156251  2916 net.cpp:434] Pooling3 <- Convolution5
I0912 16:07:36.156299  2916 net.cpp:408] Pooling3 -> Pooling3
I0912 16:07:36.156416  2916 net.cpp:150] Setting up Pooling3
I0912 16:07:36.156463  2916 net.cpp:157] Top shape: 128 64 16 16 (2097152)
I0912 16:07:36.156509  2916 net.cpp:165] Memory required for data: 1191187456
I0912 16:07:36.156553  2916 layer_factory.hpp:77] Creating layer Convolution6
I0912 16:07:36.156603  2916 net.cpp:100] Creating Layer Convolution6
I0912 16:07:36.156648  2916 net.cpp:434] Convolution6 <- Pooling3
I0912 16:07:36.156695  2916 net.cpp:408] Convolution6 -> Convolution6
I0912 16:07:36.160151  2916 net.cpp:150] Setting up Convolution6
I0912 16:07:36.186440  2916 net.cpp:157] Top shape: 128 128 16 16 (4194304)
I0912 16:07:36.186556  2916 net.cpp:165] Memory required for data: 1207964672
I0912 16:07:36.186611  2916 layer_factory.hpp:77] Creating layer ReLU1
I0912 16:07:36.186672  2916 net.cpp:100] Creating Layer ReLU1
I0912 16:07:36.186718  2916 net.cpp:434] ReLU1 <- Convolution6
I0912 16:07:36.186766  2916 net.cpp:395] ReLU1 -> Convolution6 (in-place)
I0912 16:07:36.187430  2916 net.cpp:150] Setting up ReLU1
I0912 16:07:36.187441  2916 net.cpp:157] Top shape: 128 128 16 16 (4194304)
I0912 16:07:36.187448  2916 net.cpp:165] Memory required for data: 1224741888
I0912 16:07:36.187475  2916 layer_factory.hpp:77] Creating layer Convolution7
I0912 16:07:36.187526  2916 net.cpp:100] Creating Layer Convolution7
I0912 16:07:36.187533  2916 net.cpp:434] Convolution7 <- Convolution6
I0912 16:07:36.187562  2916 net.cpp:408] Convolution7 -> Convolution7
I0912 16:07:36.190786  2916 net.cpp:150] Setting up Convolution7
I0912 16:07:36.190798  2916 net.cpp:157] Top shape: 128 128 16 16 (4194304)
I0912 16:07:36.207676  2916 net.cpp:165] Memory required for data: 1241519104
I0912 16:07:36.207772  2916 layer_factory.hpp:77] Creating layer ReLU1
I0912 16:07:36.207818  2916 net.cpp:100] Creating Layer ReLU1
I0912 16:07:36.210283  2916 net.cpp:434] ReLU1 <- Convolution7
I0912 16:07:36.210335  2916 net.cpp:395] ReLU1 -> Convolution7 (in-place)
I0912 16:07:36.211191  2916 net.cpp:150] Setting up ReLU1
I0912 16:07:36.211236  2916 net.cpp:157] Top shape: 128 128 16 16 (4194304)
I0912 16:07:36.211272  2916 net.cpp:165] Memory required for data: 1258296320
I0912 16:07:36.211302  2916 layer_factory.hpp:77] Creating layer Pooling4
I0912 16:07:36.211341  2916 net.cpp:100] Creating Layer Pooling4
I0912 16:07:36.211372  2916 net.cpp:434] Pooling4 <- Convolution7
I0912 16:07:36.211407  2916 net.cpp:408] Pooling4 -> Pooling4
I0912 16:07:36.211510  2916 net.cpp:150] Setting up Pooling4
I0912 16:07:36.216120  2916 net.cpp:157] Top shape: 128 128 8 8 (1048576)
I0912 16:07:36.216186  2916 net.cpp:165] Memory required for data: 1262490624
I0912 16:07:36.216234  2916 layer_factory.hpp:77] Creating layer Convolution8
I0912 16:07:36.216289  2916 net.cpp:100] Creating Layer Convolution8
I0912 16:07:36.216337  2916 net.cpp:434] Convolution8 <- Pooling4
I0912 16:07:36.216384  2916 net.cpp:408] Convolution8 -> Convolution8
I0912 16:07:36.221784  2916 net.cpp:150] Setting up Convolution8
I0912 16:07:36.257498  2916 net.cpp:157] Top shape: 128 256 8 8 (2097152)
I0912 16:07:36.257570  2916 net.cpp:165] Memory required for data: 1270879232
I0912 16:07:36.257606  2916 layer_factory.hpp:77] Creating layer ReLU1
I0912 16:07:36.257658  2916 net.cpp:100] Creating Layer ReLU1
I0912 16:07:36.257676  2916 net.cpp:434] ReLU1 <- Convolution8
I0912 16:07:36.257694  2916 net.cpp:395] ReLU1 -> Convolution8 (in-place)
I0912 16:07:36.258667  2916 net.cpp:150] Setting up ReLU1
I0912 16:07:36.258678  2916 net.cpp:157] Top shape: 128 256 8 8 (2097152)
I0912 16:07:36.258684  2916 net.cpp:165] Memory required for data: 1279267840
I0912 16:07:36.258688  2916 layer_factory.hpp:77] Creating layer InnerProduct1
I0912 16:07:36.258702  2916 net.cpp:100] Creating Layer InnerProduct1
I0912 16:07:36.258705  2916 net.cpp:434] InnerProduct1 <- Convolution8
I0912 16:07:36.258711  2916 net.cpp:408] InnerProduct1 -> InnerProduct1
I0912 16:07:36.879117  2916 net.cpp:150] Setting up InnerProduct1
I0912 16:07:36.879456  2916 net.cpp:157] Top shape: 128 1024 (131072)
I0912 16:07:36.879550  2916 net.cpp:165] Memory required for data: 1279792128
I0912 16:07:36.879623  2916 layer_factory.hpp:77] Creating layer ReLU6
I0912 16:07:36.879678  2916 net.cpp:100] Creating Layer ReLU6
I0912 16:07:36.879724  2916 net.cpp:434] ReLU6 <- InnerProduct1
I0912 16:07:36.879772  2916 net.cpp:395] ReLU6 -> InnerProduct1 (in-place)
I0912 16:07:36.880556  2916 net.cpp:150] Setting up ReLU6
I0912 16:07:36.880615  2916 net.cpp:157] Top shape: 128 1024 (131072)
I0912 16:07:36.880662  2916 net.cpp:165] Memory required for data: 1280316416
I0912 16:07:36.880712  2916 layer_factory.hpp:77] Creating layer InnerProduct2
I0912 16:07:36.880769  2916 net.cpp:100] Creating Layer InnerProduct2
I0912 16:07:36.880818  2916 net.cpp:434] InnerProduct2 <- InnerProduct1
I0912 16:07:36.880867  2916 net.cpp:408] InnerProduct2 -> InnerProduct2
I0912 16:07:36.881115  2916 net.cpp:150] Setting up InnerProduct2
I0912 16:07:36.881166  2916 net.cpp:157] Top shape: 128 10 (1280)
I0912 16:07:36.881209  2916 net.cpp:165] Memory required for data: 1280321536
I0912 16:07:36.881254  2916 layer_factory.hpp:77] Creating layer loss
I0912 16:07:36.881299  2916 net.cpp:100] Creating Layer loss
I0912 16:07:36.881342  2916 net.cpp:434] loss <- InnerProduct2
I0912 16:07:36.881386  2916 net.cpp:434] loss <- label
I0912 16:07:36.881431  2916 net.cpp:408] loss -> loss
I0912 16:07:36.881527  2916 net.cpp:150] Setting up loss
…
