…
        min_scale: 0.3
        max_scale: 1
        min_aspect_ratio: 0.5
        max_aspect_ratio: 2
      }
      sample_constraint {
        min_jaccard_overlap: 0.9
      }
      max_sample: 1
      max_trials: 50
    }
    batch_sampler {
      sampler {
        min_scale: 0.3
        max_scale: 1
        min_aspect_ratio: 0.5
        max_aspect_ratio: 2
      }
      sample_constraint {
        max_jaccard_overlap: 1
      }
      max_sample: 1
      max_trials: 50
    }
    label_map_file: "data/car352x288_splitKitti_MVT_indoor/labelmap_voc.prototxt"
  }
}
layer {
  name: "conv1_1"
  type: "Convolution"
  bottom: "data"
  top: "conv1_1"
  param {
    lr_mult: 1
    decay_mult: 1
  }
  param {
    lr_mult: 2
    decay_mult: 0
  }
  convolution_param {
    num_output: 64
    pad: 1
    kernel_size: 3
    weight_filler {
      type: "xavier"
    }
    bias_filler {
      type: "constant"
      value: 0
    }
  }
}
layer {
  name: "relu1_1"
  type: "ReLU"
  bottom: "conv1_1"
  top: "conv1_1"
}
layer {
  name: "conv1_2"
  type: "Convolution"
  bottom: "conv1_1"
  top: "conv1_2"
  param {
    lr_mult: 1
    decay_mult: 1
  }
  param {
    lr_mult: 2
    decay_mult: 0
  }
  convolution_param {
    num_output: 64
    pad: 1
    kernel_size: 3
    weight_filler {
      type: "xavier"
    }
    bias_filler {
      type: "constant"
      value: 0
    }
  }
}
layer {
  name: "relu1_2"
  type: "ReLU"
  bottom: "conv1_2"
  top: "conv1_2"
}
layer {
  name: "pool1"
  type: "Pooling"
  bottom: "conv1_2"
  top: "pool1"
  pooling_param {
    pool: MAX
    kernel_size: 2
    stride: 2
  }
}
layer {
  name: "conv2_1"
  type: "Convolution"
  bottom: "pool1"
  top: "conv2_1"
  param {
    lr_mult: 1
    decay_mult: 1
  }
  param {
    lr_mult: 2
    decay_mult: 0
  }
  convolution_param {
    num_output: 128
    pad: 1
    kernel_size: 3
    weight_filler {
      type: "xavier"
    }
    bias_filler {
      type: "constant"
      value: 0
    }
  }
}
layer {
  name: "relu2_1"
  type: "ReLU"
  bottom: "conv2_1"
  top: "conv2_1"
}
layer {
  name: "conv2_2"
  type: "Convolution"
  bottom: "conv2_1"
  top: "conv2_2"
  param {
    lr_mult: 1
    decay_mult: 1
  }
  param {
    lr_mult: 2
    decay_mult: 0
  }
  convolution_param {
    num_output: 128
    pad: 1
    kernel_size: 3
    weight_filler {
      type: "xavier"
    }
    bias_filler {
      type: "constant"
      value: 0
    }
  }
}
layer {
  name: "relu2_2"
  type: "ReLU"
  bottom: "conv2_2"
  top: "conv2_2"
}
layer {
  name: "pool2"
  type: "Pooling"
  bottom: "conv2_2"
  top: "pool2"
  pooling_param {
    pool: MAX
    kernel_size: 2
    stride: 2
  }
}
layer {
  name: "conv3_1"
  type: "Convolution"
  bottom: "pool2"
  top: "conv3_1"
  param {
    lr_mult: 1
    decay_mult: 1
  }
  param {
    lr_mult: 2
    decay_mult: 0
  }
  convolution_param {
    num_output: 256
    pad: 1
    kernel_size: 3
    weight_filler {
      type: "xavier"
    }
    bias_filler {
      type: "constant"
      value: 0
    }
  }
}
layer {
  name: "relu3_1"
  type: "ReLU"
  bottom: "conv3_1"
  top: "conv3_1"
}
layer {
  name: "conv3_2"
  type: "Convolution"
  bottom: "conv3_1"
  top: "conv3_2"
  param {
    lr_mult: 1
    decay_mult: 1
  }
  param {
    lr_mult: 2
    decay_mult: 0
  }
  convolution_param {
    num_output: 256
    pad: 1
    kernel_size: 3
    weight_filler {
      type: "xavier"
    }
    bias_filler {
      type: "constant"
      value: 0
    }
  }
}
layer {
  name: "relu3_2"
  type: "ReLU"
  bottom: "conv3_2"
  top: "conv3_2"
}
layer {
  name: "conv3_3"
  type: "Convolution"
  bottom: "conv3_2"
  top: "conv3_3"
  param {
    lr_mult: 1
    decay_mult: 1
  }
  param {
    lr_mult: 2
    decay_mult: 0
  }
  convolution_param {
    num_output: 256
    pad: 1
    kernel_size: 3
    weight_filler {
      type: "xavier"
    }
    bias_filler {
      type: "constant"
      value: 0
    }
  }
}
layer {
  name: "relu3_3"
  type: "ReLU"
  bottom: "conv3_3"
  top: "conv3_3"
}
layer {
  name: "pool3"
  type: "Pooling"
  bottom: "conv3_3"
  top: "pool3"
  pooling_param {
    pool: MAX
    kernel_size: 2
    stride: 2
  }
}
layer {
  name: "conv4_1"
  type: "Convolution"
  bottom: "pool3"
  top: "conv4_1"
  param {
    lr_mult: 1
    decay_mult: 1
  }
  param {
    lr_mult: 2
    decay_mult: 0
  }
  convolution_param {
    num_output: 512
    pad: 1
    kernel_size: 3
    weight_filler {
      type: "xavier"
    }
    bias_filler {
      type: "constant"
      value: 0
    }
  }
}
layer {
  name: "relu4_1"
  type: "ReLU"
  bottom: "conv4_1"
  top: "conv4_1"
}
layer {
  name: "conv4_2"
  type: "Convolution"
  bottom: "conv4_1"
  top: "conv4_2"
  param {
    lr_mult: 1
    decay_mult: 1
  }
  param {
    lr_mult: 2
    decay_mult: 0
  }
  convolution_param {
    num_output: 512
    pad: 1
    kernel_size: 3
    weight_filler {
      type: "xavier"
    }
    bias_filler {
      type: "constant"
      value: 0
    }
  }
}
layer {
  name: "relu4_2"
  type: "ReLU"
  bottom: "conv4_2"
  top: "conv4_2"
}
layer {
  name: "conv4_3"
  type: "Convolution"
  bottom: "conv4_2"
  top: "conv4_3"
  param {
    lr_mult: 1
    decay_mult: 1
  }
  param {
    lr_mult: 2
    decay_mult: 0
  }
  convolution_param {
    num_output: 512
    pad: 1
    kernel_size: 3
    weight_filler {
      type: "xavier"
    }
    bias_filler {
      type: "constant"
      value: 0
    }
  }
}
layer {
  name: "relu4_3"
  type: "ReLU"
  bottom: "conv4_3"
  top: "conv4_3"
}
layer {
  name: "pool4"
  type: "Pooling"
  bottom: "conv4_3"
  top: "pool4"
  pooling_param {
    pool: MAX
    kernel_size: 2
    stride: 2
  }
}
layer {
  name: "conv5_1"
  type: "Convolution"
  bottom: "pool4"
  top: "conv5_1"
  param {
    lr_mult: 1
    decay_mult: 1
  }
  param {
    lr_mult: 2
    decay_mult: 0
  }
  convolution_param {
    num_output: 512
    pad: 1
    kernel_size: 3
    weight_filler {
      type: "xavier"
    }
    bias_filler {
      type: "constant"
      value: 0
    }
    dilation: 1
  }
}
layer {
  name: "relu5_1"
  type: "ReLU"
  bottom: "conv5_1"
  top: "conv5_1"
}
layer {
  name: "conv5_2"
  type: "Convolution"
  bottom: "conv5_1"
  top: "conv5_2"
  param {
    lr_mult: 1
    decay_mult: 1
  }
  param {
    lr_mult: 2
    decay_mult: 0
  }
  convolution_param {
    num_output: 512
    pad: 1
    kernel_size: 3
    weight_filler {
      type: "xavier"
    }
    bias_filler {
      type: "constant"
      value: 0
    }
    dilation: 1
  }
}
layer {
  name: "relu5_2"
  type: "ReLU"
  bottom: "conv5_2"
  top: "conv5_2"
}
layer {
  name: "conv5_3"
  type: "Convolution"
  bottom: "conv5_2"
  top: "conv5_3"
  param {
    lr_mult: 1
    decay_mult: 1
  }
  param {
    lr_mult: 2
    decay_mult: 0
  }
  convolution_param {
    num_output: 512
    pad: 1
    kernel_size: 3
    weight_filler {
      type: "xavier"
    }
    bias_filler {
      type: "constant"
      value: 0
    }
    dilation: 1
  }
}
layer {
  name: "relu5_3"
  type: "ReLU"
  bottom: "conv5_3"
  top: "conv5_3"
}
layer {
  name: "pool5"
  type: "Pooling"
  bottom: "conv5_3"
  top: "pool5"
  pooling_param {
    pool: MAX
    kernel_size: 3
    stride: 1
    pad: 1
  }
}
layer {
  name: "fc6"
  type: "Convolution"
  bottom: "pool5"
  top: "fc6"
  param {
    lr_mult: 1
    decay_mult: 1
  }
  param {
    lr_mult: 2
    decay_mult: 0
  }
  convolution_param {
    num_output: 1024
    pad: 1
    kernel_size: 3
    weight_filler {
      type: "xavier"
    }
    bias_filler {
      type: "constant"
      value: 0
    }
    dilation: 1
  }
}
layer {
  name: "relu6"
  type: "ReLU"
  bottom: "fc6"
  top: "fc6"
}
layer {
  name: "fc7"
  type: "Convolution"
  bottom: "fc6"
  top: "fc7"
  param {
    lr_mult: 1
    decay_mult: 1
  }
  param {
    lr_mult: 2
    decay_mult: 0
  }
  convolution_param {
    num_output: 1024
    kernel_size: 1
    weight_filler {
      type: "xavier"
    }
    bias_filler {
      type: "constant"
      value: 0
    }
  }
}
layer {
  name: "relu7"
  type: "ReLU"
  bottom: "fc7"
  top: "fc7"
}
layer {
  name: "conv6_1"
  type: "Convolution"
  bottom: "fc7"
  top: "conv6_1"
  param {
    lr_mult: 1
    decay_mult: 1
  }
  param {
    lr_mult: 2
    decay_mult: 0
  }
  convolution_param {
    num_output: 256
    pad: 0
    kernel_size: 1
    stride: 1
    weight_filler {
      type: "xavier"
    }
    bias_filler {
      type: "constant"
      value: 0
    }
  }
}
layer {
  name: "conv6_1_relu"
  type: "ReLU"
  bottom: "conv6_1"
  top: "conv6_1"
}
layer {
  name: "conv6_2"
  type: "Convolution"
  bottom: "conv6_1"
  top: "conv6_2"
  param {
    lr_mult: 1
    decay_mult: 1
  }
  param {
    lr_mult: 2
    decay_mult: 0
  }
  convolution_param {
    num_output: 512
    pad: 1
    kernel_size: 3
    stride: 2
    weight_filler {
      type: "xavier"
    }
    bias_filler {
      type: "constant"
      value: 0
    }
  }
}
layer {
  name: "conv6_2_relu"
  type: "ReLU"
  bottom: "conv6_2"
  top: "conv6_2"
}
layer {
  name: "conv7_1"
  type: "Convolution"
  bottom: "conv6_2"
  top: "conv7_1"
  param {
    lr_mult: 1
    decay_mult: 1
  }
  param {
    lr_mult: 2
    decay_mult: 0
  }
  convolution_param {
    num_output: 128
    pad: 0
    kernel_size: 1
    stride: 1
    weight_filler {
      type: "xavier"
    }
    bias_filler {
      type: "constant"
      value: 0
    }
  }
}
layer {
  name: "conv7_1_relu"
  type: "ReLU"
  bottom: "conv7_1"
  top: "conv7_1"
}
layer {
  name: "conv7_2"
  type: "Convolution"
  bottom: "conv7_1"
  top: "conv7_2"
  param {
    lr_mult: 1
    decay_mult: 1
  }
  param {
    lr_mult: 2
    decay_mult: 0
  }
  convolution_param {
    num_output: 256
    pad: 1
    kernel_size: 3
    stride: 2
    weight_filler {
      type: "xavier"
    }
    bias_filler {
      type: "constant"
      value: 0
    }
  }
}
layer {
  name: "conv7_2_relu"
  type: "ReLU"
  bottom: "conv7_2"
  top: "conv7_2"
}
layer {
  name: "conv8_1"
  type: "Convolution"
  bottom: "conv7_2"
  top: "conv8_1"
  param {
    lr_mult: 1
    decay_mult: 1
  }
  param {
    lr_mult: 2
    decay_mult: 0
  }
  convolution_param {
    num_output: 128
    pad: 0
    kernel_size: 1
    stride: 1
    weight_filler {
      type: "xavier"
    }
    bias_filler {
      type: "constant"
      value: 0
    }
  }
}
layer {
  name: "conv8_1_relu"
  type: "ReLU"
  bottom: "conv8_1"
  top: "conv8_1"
}
layer {
  name: "conv8_2"
  type: "Convolution"
  bottom: "conv8_1"
  top: "conv8_2"
  param {
    lr_mult: 1
    decay_mult: 1
  }
  param {
    lr_mult: 2
    decay_mult: 0
  }
  convolution_param {
    num_output: 256
    pad: 0
    kernel_size: 3
    stride: 1
    weight_filler {
      type: "xavier"
    }
    bias_filler {
      type: "constant"
      value: 0
    }
  }
}
layer {
  name: "conv8_2_relu"
  type: "ReLU"
  bottom: "conv8_2"
  top: "conv8_2"
}
layer {
  name: "conv9_1"
  type: "Convolution"
  bottom: "conv8_2"
  top: "conv9_1"
  param {
    lr_mult: 1
    decay_mult: 1
  }
  param {
    lr_mult: 2
    decay_mult: 0
  }
  convolution_param {
    num_output: 128
    pad: 0
    kernel_size: 1
    stride: 1
    weight_filler {
      type: "xavier"
    }
    bias_filler {
      type: "constant"
      value: 0
    }
  }
}
layer {
  name: "conv9_1_relu"
  type: "ReLU"
  bottom: "conv9_1"
  top: "conv9_1"
}
layer {
  name: "conv9_2"
  type: "Convolution"
  bottom: "conv9_1"
  top: "conv9_2"
  param {
    lr_mult: 1
    decay_mult: 1
  }
  param {
    lr_mult: 2
    decay_mult: 0
  }
  convolution_param {
    num_output: 256
    pad: 0
    kernel_size: 3
    stride: 1
    weight_filler {
      type: "xavier"
    }
    bias_filler {
      type: "constant"
      value: 0
    }
  }
}
layer {
  name: "conv9_2_relu"
  type: "ReLU"
  bottom: "conv9_2"
  top: "conv9_2"
}
layer {
  name: "conv4_3_norm"
  type: "Normalize"
  bottom: "conv4_3"
  top: "conv4_3_norm"
  norm_param {
    across_spatial: false
    scale_filler {
      type: "constant"
      value: 20
    }
    channel_shared: false
  }
}
layer {
  name: "conv4_3_norm_mbox_loc"
  type: "Convolution"
  bottom: "conv4_3_norm"
  top: "conv4_3_norm_mbox_loc"
  param {
    lr_mult: 1
    decay_mult: 1
  }
  param {
    lr_mult: 2
    decay_mult: 0
  }
  convolution_param {
    num_output: 16
    pad: 1
    kernel_size: 3
    stride: 1
    weight_filler {
      type: "xavier"
    }
    bias_filler {
      type: "constant"
      value: 0
    }
  }
}
layer {
  name: "conv4_3_norm_mbox_loc_perm"
  type: "Permute"
  bottom: "conv4_3_norm_mbox_loc"
  top: "conv4_3_norm_mbox_loc_perm"
  permute_param {
    order: 0
    order: 2
    order: 3
    order: 1
  }
}
layer {
  name: "conv4_3_norm_mbox_loc_flat"
  type: "Flatten"
  bottom: "conv4_3_norm_mbox_loc_perm"
  top: "conv4_3_norm_mbox_loc_flat"
  flatten_param {
    axis: 1
  }
}
layer {
  name: "conv4_3_norm_mbox_conf"
  type: "Convolution"
  bottom: "conv4_3_norm"
  top: "conv4_3_norm_mbox_conf"
  param {
    lr_mult: 1
    decay_mult: 1
  }
  param {
    lr_mult: 2
    decay_mult: 0
  }
  convolution_param {
    num_output: 8
    pad: 1
    kernel_size: 3
    stride: 1
    weight_filler {
      type: "xavier"
    }
    bias_filler {
      type: "constant"
      value: 0
    }
  }
}
layer {
  name: "conv4_3_norm_mbox_conf_perm"
  type: "Permute"
  bottom: "conv4_3_norm_mbox_conf"
  top: "conv4_3_norm_mbox_conf_perm"
  permute_param {
    order: 0
    order: 2
    order: 3
    order: 1
  }
}
layer {
  name: "conv4_3_norm_mbox_conf_flat"
  type: "Flatten"
  bottom: "conv4_3_norm_mbox_conf_perm"
  top: "conv4_3_norm_mbox_conf_flat"
  flatten_param {
    axis: 1
  }
}
layer {
  name: "conv4_3_norm_mbox_priorbox"
  type: "PriorBox"
  bottom: "conv4_3_norm"
  bottom: "data"
  top: "conv4_3_norm_mbox_priorbox"
  prior_box_param {
    min_size: 30
    max_size: 60
    aspect_ratio: 2
    flip: true
    clip: false
    variance: 0.1
    variance: 0.1
    variance: 0.2
    variance: 0.2
    step: 8
    offset: 0.5
  }
}
layer {
  name: "fc7_mbox_loc"
  type: "Convolution"
  bottom: "fc7"
  top: "fc7_mbox_loc"
  param {
    lr_mult: 1
    decay_mult: 1
  }
  param {
    lr_mult: 2
    decay_mult: 0
  }
  convolution_param {
    num_output: 24
    pad: 1
    kernel_size: 3
    stride: 1
    weight_filler {
      type: "xavier"
    }
    bias_filler {
      type: "constant"
      value: 0
    }
  }
}
layer {
  name: "fc7_mbox_loc_perm"
  type: "Permute"
  bottom: "fc7_mbox_loc"
  top: "fc7_mbox_loc_perm"
  permute_param {
    order: 0
    order: 2
    order: 3
    order: 1
  }
}
layer {
  name: "fc7_mbox_loc_flat"
  type: "Flatten"
  bottom: "fc7_mbox_loc_perm"
  top: "fc7_mbox_loc_flat"
  flatten_param {
    axis: 1
  }
}
layer {
  name: "fc7_mbox_conf"
  type: "Convolution"
  bottom: "fc7"
  top: "fc7_mbox_conf"
  param {
    lr_mult: 1
    decay_mult: 1
  }
  param {
    lr_mult: 2
    decay_mult: 0
  }
  convolution_param {
    num_output: 12
    pad: 1
    kernel_size: 3
    stride: 1
    weight_filler {
      type: "xavier"
    }
    bias_filler {
      type: "constant"
      value: 0
    }
  }
}
layer {
  name: "fc7_mbox_conf_perm"
  type: "Permute"
  bottom: "fc7_mbox_conf"
  top: "fc7_mbox_conf_perm"
  permute_param {
    order: 0
    order: 2
    order: 3
    order: 1
  }
}
layer {
  name: "fc7_mbox_conf_flat"
  type: "Flatten"
  bottom: "fc7_mbox_conf_perm"
  top: "fc7_mbox_conf_flat"
  flatten_param {
    axis: 1
  }
}
layer {
  name: "fc7_mbox_priorbox"
  type: "PriorBox"
  bottom: "fc7"
  bottom: "data"
  top: "fc7_mbox_priorbox"
  prior_box_param {
    min_size: 60
    max_size: 111
    aspect_ratio: 2
    aspect_ratio: 3
    flip: true
    clip: false
    variance: 0.1
    variance: 0.1
    variance: 0.2
    variance: 0.2
    step: 16
    offset: 0.5
  }
}
layer {
  name: "conv6_2_mbox_loc"
  type: "Convolution"
  bottom: "conv6_2"
  top: "conv6_2_mbox_loc"
  param {
    lr_mult: 1
    decay_mult: 1
  }
  param {
    lr_mult: 2
    decay_mult: 0
  }
  convolution_param {
    num_output: 24
    pad: 1
    kernel_size: 3
    stride: 1
    weight_filler {
      type: "xavier"
    }
    bias_filler {
      type: "constant"
      value: 0
    }
  }
}
layer {
  name: "conv6_2_mbox_loc_perm"
  type: "Permute"
  bottom: "conv6_2_mbox_loc"
  top: "conv6_2_mbox_loc_perm"
  permute_param {
    order: 0
    order: 2
    order: 3
    order: 1
  }
}
layer {
  name: "conv6_2_mbox_loc_flat"
  type: "Flatten"
  bottom: "conv6_2_mbox_loc_perm"
  top: "conv6_2_mbox_loc_flat"
  flatten_param {
    axis: 1
  }
}
layer {
  name: "conv6_2_mbox_conf"
  type: "Convolution"
  bottom: "conv6_2"
  top: "conv6_2_mbox_conf"
  param {
    lr_mult: 1
    decay_mult: 1
  }
  param {
    lr_mult: 2
    decay_mult: 0
  }
  convolution_param {
    num_output: 12
    pad: 1
    kernel_size: 3
    stride: 1
    weight_filler {
      type: "xavier"
    }
    bias_filler {
      type: "constant"
      value: 0
    }
  }
}
layer {
  name: "conv6_2_mbox_conf_perm"
  type: "Permute"
  bottom: "conv6_2_mbox_conf"
  top: "conv6_2_mbox_conf_perm"
  permute_param {
    order: 0
    order: 2
    order: 3
    order: 1
  }
}
layer {
  name: "conv6_2_mbox_conf_flat"
  type: "Flatten"
  bottom: "conv6_2_mbox_conf_perm"
  top: "conv6_2_mbox_conf_flat"
  flatten_param {
    axis: 1
  }
}
layer {
  name: "conv6_2_mbox_priorbox"
  type: "PriorBox"
  bottom: "conv6_2"
  bottom: "data"
  top: "conv6_2_mbox_priorbox"
  prior_box_param {
    min_size: 111
    max_size: 162
    aspect_ratio: 2
    aspect_ratio: 3
    flip: true
    clip: false
    variance: 0.1
    variance: 0.1
    variance: 0.2
    variance: 0.2
    step: 32
    offset: 0.5
  }
}
layer {
  name: "conv7_2_mbox_loc"
  type: "Convolution"
  bottom: "conv7_2"
  top: "conv7_2_mbox_loc"
  param {
    lr_mult: 1
    decay_mult: 1
  }
  param {
    lr_mult: 2
    decay_mult: 0
  }
  convolution_param {
    num_output: 24
    pad: 1
    kernel_size: 3
    stride: 1
    weight_filler {
      type: "xavier"
    }
    bias_filler {
      type: "constant"
      value: 0
    }
  }
}
layer {
  name: "conv7_2_mbox_loc_perm"
  type: "Permute"
  bottom: "conv7_2_mbox_loc"
  top: "conv7_2_mbox_loc_perm"
  permute_param {
    order: 0
    order: 2
    order: 3
    order: 1
  }
}
layer {
  name: "conv7_2_mbox_loc_flat"
  type: "Flatten"
  bottom: "conv7_2_mbox_loc_perm"
  top: "conv7_2_mbox_loc_flat"
  flatten_param {
    axis: 1
  }
}
layer {
  name: "conv7_2_mbox_conf"
  type: "Convolution"
  bottom: "conv7_2"
  top: "conv7_2_mbox_conf"
  param {
    lr_mult: 1
    decay_mult: 1
  }
  param {
    lr_mult: 2
    decay_mult: 0
  }
  convolution_param {
    num_output: 12
    pad: 1
    kernel_size: 3
    stride: 1
    weight_filler {
      type: "xavier"
    }
    bias_filler {
      type: "constant"
      value: 0
    }
  }
}
layer {
  name: "conv7_2_mbox_conf_perm"
  type: "Permute"
  bottom: "conv7_2_mbox_conf"
  top: "conv7_2_mbox_conf_perm"
  permute_param {
    order: 0
    order: 2
    order: 3
    order: 1
  }
}
layer {
  name: "conv7_2_mbox_conf_flat"
  type: "Flatten"
  bottom: "conv7_2_mbox_conf_perm"
  top: "conv7_2_mbox_conf_flat"
  flatten_param {
    axis: 1
  }
}
layer {
  name: "conv7_2_mbox_priorbox"
  type: "PriorBox"
  bottom: "conv7_2"
  bottom: "data"
  top: "conv7_2_mbox_priorbox"
  prior_box_param {
    min_size: 162
    max_size: 213
    aspect_ratio: 2
    aspect_ratio: 3
    flip: true
    clip: false
    variance: 0.1
    variance: 0.1
    variance: 0.2
    variance: 0.2
    step: 64
    offset: 0.5
  }
}
layer {
  name: "conv8_2_mbox_loc"
  type: "Convolution"
  bottom: "conv8_2"
  top: "conv8_2_mbox_loc"
  param {
    lr_mult: 1
    decay_mult: 1
  }
  param {
    lr_mult: 2
    decay_mult: 0
  }
  convolution_param {
    num_output: 16
    pad: 1
    kernel_size: 3
    stride: 1
    weight_filler {
      type: "xavier"
    }
    bias_filler {
      type: "constant"
      value: 0
    }
  }
}
layer {
  name: "conv8_2_mbox_loc_perm"
  type: "Permute"
  bottom: "conv8_2_mbox_loc"
  top: "conv8_2_mbox_loc_perm"
  permute_param {
    order: 0
    order: 2
    order: 3
    order: 1
  }
}
layer {
  name: "conv8_2_mbox_loc_flat"
  type: "Flatten"
  bottom: "conv8_2_mbox_loc_perm"
  top: "conv8_2_mbox_loc_flat"
  flatten_param {
    axis: 1
  }
}
layer {
  name: "conv8_2_mbox_conf"
  type: "Convolution"
  bottom: "conv8_2"
  top: "conv8_2_mbox_conf"
  param {
    lr_mult: 1
    decay_mult: 1
  }
  param {
    lr_mult: 2
    decay_mult: 0
  }
  convolution_param {
    num_output: 8
    pad: 1
    kernel_size: 3
    stride: 1
    weight_filler {
      type: "xavier"
    }
    bias_filler {
      type: "constant"
      value: 0
    }
  }
}
layer {
  name: "conv8_2_mbox_conf_perm"
  type: "Permute"
  bottom: "conv8_2_mbox_conf"
  top: "conv8_2_mbox_conf_perm"
  permute_param {
    order: 0
    order: 2
    order: 3
    order: 1
  }
}
layer {
  name: "conv8_2_mbox_conf_flat"
  type: "Flatten"
  bottom: "conv8_2_mbox_conf_perm"
  top: "conv8_2_mbox_conf_flat"
  flatten_param {
    axis: 1
  }
}
layer {
  name: "conv8_2_mbox_priorbox"
  type: "PriorBox"
  bottom: "conv8_2"
  bottom: "data"
  top: "conv8_2_mbox_priorbox"
  prior_box_param {
    min_size: 213
    max_size: 264
    aspect_ratio: 2
    flip: true
    clip: false
    variance: 0.1
    variance: 0.1
    variance: 0.2
    variance: 0.2
    step: 100
    offset: 0.5
  }
}
layer {
  name: "conv9_2_mbox_loc"
  type: "Convolution"
  bottom: "conv9_2"
  top: "conv9_2_mbox_loc"
  param {
    lr_mult: 1
    decay_mult: 1
  }
  param {
    lr_mult: 2
    decay_mult: 0
  }
  convolution_param {
    num_output: 16
    pad: 1
    kernel_size: 3
    stride: 1
    weight_filler {
      type: "xavier"
    }
    bias_filler {
      type: "constant"
      value: 0
    }
  }
}
layer {
  name: "conv9_2_mbox_loc_perm"
  type: "Permute"
  bottom: "conv9_2_mbox_loc"
  top: "conv9_2_mbox_loc_perm"
  permute_param {
    order: 0
    order: 2
    order: 3
    order: 1
  }
}
layer {
  name: "conv9_2_mbox_loc_flat"
  type: "Flatten"
  bottom: "conv9_2_mbox_loc_perm"
  top: "conv9_2_mbox_loc_flat"
  flatten_param {
    axis: 1
  }
}
layer {
  name: "conv9_2_mbox_conf"
  type: "Convolution"
  bottom: "conv9_2"
  top: "conv9_2_mbox_conf"
  param {
    lr_mult: 1
    decay_mult: 1
  }
  param {
    lr_mult: 2
    decay_mult: 0
  }
  convolution_param {
    num_output: 8
    pad: 1
    kernel_size: 3
    stride: 1
    weight_filler {
      type: "xavier"
    }
    bias_filler {
      type: "constant"
      value: 0
    }
  }
}
layer {
  name: "conv9_2_mbox_conf_perm"
  type: "Permute"
  bottom: "conv9_2_mbox_conf"
  top: "conv9_2_mbox_conf_perm"
  permute_param {
    order: 0
    order: 2
    order: 3
    order: 1
  }
}
layer {
  name: "conv9_2_mbox_conf_flat"
  type: "Flatten"
  bottom: "conv9_2_mbox_conf_perm"
  top: "conv9_2_mbox_conf_flat"
  flatten_param {
    axis: 1
  }
}
layer {
  name: "conv9_2_mbox_priorbox"
  type: "PriorBox"
  bottom: "conv9_2"
  bottom: "data"
  top: "conv9_2_mbox_priorbox"
  prior_box_param {
    min_size: 264
    max_size: 315
    aspect_ratio: 2
    flip: true
    clip: false
    variance: 0.1
    variance: 0.1
    variance: 0.2
    variance: 0.2
    step: 300
    offset: 0.5
  }
}
layer {
  name: "mbox_loc"
  type: "Concat"
  bottom: "conv4_3_norm_mbox_loc_flat"
  bottom: "fc7_mbox_loc_flat"
  bottom: "conv6_2_mbox_loc_flat"
  bottom: "conv7_2_mbox_loc_flat"
  bottom: "conv8_2_mbox_loc_flat"
  bottom: "conv9_2_mbox_loc_flat"
  top: "mbox_loc"
  concat_param {
    axis: 1
  }
}
layer {
  name: "mbox_conf"
  type: "Concat"
  bottom: "conv4_3_norm_mbox_conf_flat"
  bottom: "fc7_mbox_conf_flat"
  bottom: "conv6_2_mbox_conf_flat"
  bottom: "conv7_2_mbox_conf_flat"
  bottom: "conv8_2_mbox_conf_flat"
  bottom: "conv9_2_mbox_conf_flat"
  top: "mbox_conf"
  concat_param {
    axis: 1
  }
}
layer {
  name: "mbox_priorbox"
  type: "Concat"
  bottom: "conv4_3_norm_mbox_priorbox"
  bottom: "fc7_mbox_priorbox"
  bottom: "conv6_2_mbox_priorbox"
  bottom: "conv7_2_mbox_priorbox"
  bottom: "conv8_2_mbox_priorbox"
  bottom: "conv9_2_mbox_priorbox"
  top: "mbox_priorbox"
  concat_param {
    axis: 2
  }
}
layer {
  name: "mbox_loss"
  type: "MultiBoxLoss"
  bottom: "mbox_loc"
  bottom: "mbox_conf"
  bottom: "mbox_priorbox"
  bottom: "label"
  top: "mbox_loss"
  include {
    phase: TRAIN
  }
  propagate_down: true
  propagate_down: true
  propagate_down: false
  propagate_down: false
  loss_param {
    normalization: VALID
  }
  multibox_loss_param {
    loc_loss_type: SMOOTH_L1
    conf_loss_type: SOFTMAX
    loc_weight: 1
    num_classes: 2
    share_location: true
    match_type: PER_PREDICTION
    overlap_threshold: 0.5
    use_prior_for_matching: true
    background_label_id: 0
    use_difficult_gt: true
    neg_pos_ratio: 3
    neg_overlap: 0.5
    code_type: CENTER_SIZE
    ignore_cross_boundary_bbox: false
    mining_type: MAX_NEGATIVE
  }
}
I0920 11:17:56.147728 23603 layer_factory.hpp:77] Creating layer data
I0920 11:17:56.147830 23603 net.cpp:100] Creating Layer data
I0920 11:17:56.147841 23603 net.cpp:408] data -> data
I0920 11:17:56.147871 23603 net.cpp:408] data -> label
I0920 11:17:56.148579 23622 db_lmdb.cpp:35] Opened lmdb /media/ly/data/CarData/car352x288_splitKitti_MVT_indoor/lmdb/car352x288_splitKitti_MVT_indoor_trainval_lmdb
I0920 11:17:56.160763 23603 annotated_data_layer.cpp:62] output data size: 16,3,288,352
I0920 11:17:56.178490 23603 net.cpp:150] Setting up data
I0920 11:17:56.178509 23603 net.cpp:157] Top shape: 16 3 288 352 (4866048)
I0920 11:17:56.178517 23603 net.cpp:157] Top shape: 1 1 5 8 (40)
I0920 11:17:56.178520 23603 net.cpp:165] Memory required for data: 19464352
I0920 11:17:56.178527 23603 layer_factory.hpp:77] Creating layer data_data_0_split
I0920 11:17:56.178539 23603 net.cpp:100] Creating Layer data_data_0_split
I0920 11:17:56.178544 23603 net.cpp:434] data_data_0_split <- data
I0920 11:17:56.178555 23603 net.cpp:408] data_data_0_split -> data_data_0_split_0
I0920 11:17:56.178562 23603 net.cpp:408] data_data_0_split -> data_data_0_split_1
I0920 11:17:56.178567 23603 net.cpp:408] data_data_0_split -> data_data_0_split_2
I0920 11:17:56.178571 23603 net.cpp:408] data_data_0_split -> data_data_0_split_3
I0920 11:17:56.178575 23603 net.cpp:408] data_data_0_split -> data_data_0_split_4
I0920 11:17:56.178580 23603 net.cpp:408] data_data_0_split -> data_data_0_split_5
I0920 11:17:56.178584 23603 net.cpp:408] data_data_0_split -> data_data_0_split_6
I0920 11:17:56.178642 23603 net.cpp:150] Setting up data_data_0_split
I0920 11:17:56.178645 23603 net.cpp:157] Top shape: 16 3 288 352 (4866048)
I0920 11:17:56.178648 23603 net.cpp:157] Top shape: 16 3 288 352 (4866048)
I0920 11:17:56.178652 23603 net.cpp:157] Top shape: 16 3 288 352 (4866048)
I0920 11:17:56.178654 23603 net.cpp:157] Top shape: 16 3 288 352 (4866048)
I0920 11:17:56.178658 23603 net.cpp:157] Top shape: 16 3 288 352 (4866048)
I0920 11:17:56.178659 23603 net.cpp:157] Top shape: 16 3 288 352 (4866048)
I0920 11:17:56.178663 23603 net.cpp:157] Top shape: 16 3 288 352 (4866048)
I0920 11:17:56.178664 23603 net.cpp:165] Memory required for data: 155713696
I0920 11:17:56.178668 23603 layer_factory.hpp:77] Creating layer conv1_1
I0920 11:17:56.178679 23603 net.cpp:100] Creating Layer conv1_1
I0920 11:17:56.178681 23603 net.cpp:434] conv1_1 <- data_data_0_split_0
I0920 11:17:56.178685 23603 net.cpp:408] conv1_1 -> conv1_1
I0920 11:17:57.001693 23603 net.cpp:150] Setting up conv1_1
I0920 11:17:57.001709 23603 net.cpp:157] Top shape: 16 64 288 352 (103809024)
I0920 11:17:57.001715 23603 net.cpp:165] Memory required for data: 570949792
I0920 11:17:57.001731 23603 layer_factory.hpp:77] Creating layer relu1_1
I0920 11:17:57.001739 23603 net.cpp:100] Creating Layer relu1_1
I0920 11:17:57.001741 23603 net.cpp:434] relu1_1 <- conv1_1
I0920 11:17:57.001746 23603 net.cpp:395] relu1_1 -> conv1_1 (in-place)
I0920 11:17:57.002059 23603 net.cpp:150] Setting up relu1_1
I0920 11:17:57.002066 23603 net.cpp:157] Top shape: 16 64 288 352 (103809024)
I0920 11:17:57.002070 23603 net.cpp:165] Memory required for data: 986185888
I0920 11:17:57.002072 23603 layer_factory.hpp:77] Creating layer conv1_2
I0920 11:17:57.002082 23603 net.cpp:100] Creating Layer conv1_2
I0920 11:17:57.002084 23603 net.cpp:434] conv1_2 <- conv1_1
I0920 11:17:57.002089 23603 net.cpp:408] conv1_2 -> conv1_2
I0920 11:17:57.004125 23603 net.cpp:150] Setting up conv1_2
I0920 11:17:57.004134 23603 net.cpp:157] Top shape: 16 64 288 352 (103809024)
I0920 11:17:57.004138 23603 net.cpp:165] Memory required for data: 1401421984
I0920 11:17:57.004144 23603 layer_factory.hpp:77] Creating layer relu1_2
I0920 11:17:57.004148 23603 net.cpp:100] Creating Layer relu1_2
I0920 11:17:57.004150 23603 net.cpp:434] relu1_2 <- conv1_2
I0920 11:17:57.004154 23603 net.cpp:395] relu1_2 -> conv1_2 (in-place)
I0920 11:17:57.004442 23603 net.cpp:150] Setting up relu1_2
I0920 11:17:57.004448 23603 net.cpp:157] Top shape: 16 64 288 352 (103809024)
I0920 11:17:57.004452 23603 net.cpp:165] Memory required for data: 1816658080
I0920 11:17:57.004456 23603 layer_factory.hpp:77] Creating layer pool1
I0920 11:17:57.004459 23603 net.cpp:100] Creating Layer pool1
I0920 11:17:57.004462 23603 net.cpp:434] pool1 <- conv1_2
I0920 11:17:57.004465 23603 net.cpp:408] pool1 -> pool1
I0920 11:17:57.004508 23603 net.cpp:150] Setting up pool1
I0920 11:17:57.004513 23603 net.cpp:157] Top shape: 16 64 144 176 (25952256)
I0920 11:17:57.004534 23603 net.cpp:165] Memory required for data: 1920467104
I0920 11:17:57.004539 23603 layer_factory.hpp:77] Creating layer conv2_1
I0920 11:17:57.004546 23603 net.cpp:100] Creating Layer conv2_1
I0920 11:17:57.004550 23603 net.cpp:434] conv2_1 <- pool1
I0920 11:17:57.004555 23603 net.cpp:408] conv2_1 -> conv2_1
I0920 11:17:57.007279 23603 net.cpp:150] Setting up conv2_1
I0920 11:17:57.007289 23603 net.cpp:157] Top shape: 16 128 144 176 (51904512)
I0920 11:17:57.007293 23603 net.cpp:165] Memory required for data: 2128085152
I0920 11:17:57.007299 23603 layer_factory.hpp:77] Creating layer relu2_1
I0920 11:17:57.007304 23603 net.cpp:100] Creating Layer relu2_1
I0920 11:17:57.007308 23603 net.cpp:434] relu2_1 <- conv2_1
I0920 11:17:57.007310 23603 net.cpp:395] relu2_1 -> conv2_1 (in-place)
I0920 11:17:57.007791 23603 net.cpp:150] Setting up relu2_1
I0920 11:17:57.007798 23603 net.cpp:157] Top shape: 16 128 144 176 (51904512)
I0920 11:17:57.007803 23603 net.cpp:165] Memory required for data: 2335703200
I0920 11:17:57.007807 23603 layer_factory.hpp:77] Creating layer conv2_2
I0920 11:17:57.007815 23603 net.cpp:100] Creating Layer conv2_2
I0920 11:17:57.007818 23603 net.cpp:434] conv2_2 <- conv2_1
I0920 11:17:57.007822 23603 net.cpp:408] conv2_2 -> conv2_2
I0920 11:17:57.009999 23603 net.cpp:150] Setting up conv2_2
I0920 11:17:57.010007 23603 net.cpp:157] Top shape: 16 128 144 176 (51904512)
I0920 11:17:57.010012 23603 net.cpp:165] Memory required for data: 2543321248
I0920 11:17:57.010017 23603 layer_factory.hpp:77] Creating layer relu2_2
I0920 11:17:57.010021 23603 net.cpp:100] Creating Layer relu2_2
I0920 11:17:57.010025 23603 net.cpp:434] relu2_2 <- conv2_2
I0920 11:17:57.010027 23603 net.cpp:395] relu2_2 -> conv2_2 (in-place)
I0920 11:17:57.010394 23603 net.cpp:150] Setting up relu2_2
I0920 11:17:57.010401 23603 net.cpp:157] Top shape: 16 128 144 176 (51904512)
I0920 11:17:57.010406 23603 net.cpp:165] Memory required for data: 2750939296
I0920 11:17:57.010407 23603 layer_factory.hpp:77] Creating layer pool2
I0920 11:17:57.010413 23603 net.cpp:100] Creating Layer pool2
I0920 11:17:57.010416 23603 net.cpp:434] pool2 <- conv2_2
I0920 11:17:57.010419 23603 net.cpp:408] pool2 -> pool2
I0920 11:17:57.010455 23603 net.cpp:150] Setting up pool2
I0920 11:17:57.010459 23603 net.cpp:157] Top shape: 16 128 72 88 (12976128)
I0920 11:17:57.010462 23603 net.cpp:165] Memory required for data: 2802843808
I0920 11:17:57.010465 23603 layer_factory.hpp:77] Creating layer conv3_1
I0920 11:17:57.010473 23603 net.cpp:100] Creating Layer conv3_1
I0920 11:17:57.010476 23603 net.cpp:434] conv3_1 <- pool2
I0920 11:17:57.010479 23603 net.cpp:408] conv3_1 -> conv3_1
I0920 11:17:57.024154 23603 net.cpp:150] Setting up conv3_1
I0920 11:17:57.024168 23603 net.cpp:157] Top shape: 16 256 72 88 (25952256)
I0920 11:17:57.024174 23603 net.cpp:165] Memory required for data: 2906652832
I0920 11:17:57.024184 23603 layer_factory.hpp:77] Creating layer relu3_1
I0920 11:17:57.024190 23603 net.cpp:100] Creating Layer relu3_1
I0920 11:17:57.024194 23603 net.cpp:434] relu3_1 <- conv3_1
I0920 11:17:57.024199 23603 net.cpp:395] relu3_1 -> conv3_1 (in-place)
I0920 11:17:57.025527 23603 net.cpp:150] Setting up relu3_1
I0920 11:17:57.025537 23603 net.cpp:157] Top shape: 16 256 72 88 (25952256)
I0920 11:17:57.025542 23603 net.cpp:165] Memory required for data: 3010461856
I0920 11:17:57.025544 23603 layer_factory.hpp:77] Creating layer conv3_2
I0920 11:17:57.025557 23603 net.cpp:100] Creating Layer conv3_2
I0920 11:17:57.025562 23603 net.cpp:434] conv3_2 <- conv3_1
I0920 11:17:57.025568 23603 net.cpp:408] conv3_2 -> conv3_2
I0920 11:17:57.030078 23603 net.cpp:150] Setting up conv3_2
I0920 11:17:57.030093 23603 net.cpp:157] Top shape: 16 256 72 88 (25952256)
I0920 11:17:57.030099 23603 net.cpp:165] Memory required for data: 3114270880
I0920 11:17:57.030107 23603 layer_factory.hpp:77] Creating layer relu3_2
I0920 11:17:57.030113 23603 net.cpp:100] Creating Layer relu3_2
I0920 11:17:57.030117 23603 net.cpp:434] relu3_2 <- conv3_2
I0920 11:17:57.030143 23603 net.cpp:395] relu3_2 -> conv3_2 (in-place)
I0920 11:17:57.030529 23603 net.cpp:150] Setting up relu3_2
I0920 11:17:57.030534 23603 net.cpp:157] Top shape: 16 256 72 88 (25952256)
I0920 11:17:57.030539 23603 net.cpp:165] Memory required for data: 3218079904
I0920 11:17:57.030542 23603 layer_factory.hpp:77] Creating layer conv3_3
I0920 11:17:57.030553 23603 net.cpp:100] Creating Layer conv3_3
I0920 11:17:57.030556 23603 net.cpp:434] conv3_3 <- conv3_2
I0920 11:17:57.030560 23603 net.cpp:408] conv3_3 -> conv3_3
I0920 11:17:57.034873 23603 net.cpp:150] Setting up conv3_3
I0920 11:17:57.034883 23603 net.cpp:157] Top shape: 16 256 72 88 (25952256)
I0920 11:17:57.034886 23603 net.cpp:165] Memory required for data: 3321888928
I0920 11:17:57.034893 23603 layer_factory.hpp:77] Creating layer relu3_3
I0920 11:17:57.034898 23603 net.cpp:100] Creating Layer relu3_3
I0920 11:17:57.034900 23603 net.cpp:434] relu3_3 <- conv3_3
I0920 11:17:57.034905 23603 net.cpp:395] relu3_3 -> conv3_3 (in-place)
I0920 11:17:57.035274 23603 net.cpp:150] Setting up relu3_3
I0920 11:17:57.035281 23603 net.cpp:157] Top shape: 16 256 72 88 (25952256)
I0920 11:17:57.035285 23603 net.cpp:165] Memory required for data: 3425697952
I0920 11:17:57.035287 23603 layer_factory.hpp:77] Creating layer pool3
I0920 11:17:57.035293 23603 net.cpp:100] Creating Layer pool3
I0920 11:17:57.035296 23603 net.cpp:434] pool3 <- conv3_3
I0920 11:17:57.035300 23603 net.cpp:408] pool3 -> pool3
I0920 11:17:57.035336 23603 net.cpp:150] Setting up pool3
I0920 11:17:57.035341 23603 net.cpp:157] Top shape: 16 256 36 44 (6488064)
I0920 11:17:57.035343 23603 net.cpp:165] Memory required for data: 3451650208
I0920 11:17:57.035346 23603 layer_factory.hpp:77] Creating layer conv4_1
I0920 11:17:57.035353 23603 net.cpp:100] Creating Layer conv4_1
I0920 11:17:57.035356 23603 net.cpp:434] conv4_1 <- pool3
I0920 11:17:57.035359 23603 net.cpp:408] conv4_1 -> conv4_1
I0920 11:17:57.042713 23603 net.cpp:150] Setting up conv4_1
I0920 11:17:57.042728 23603 net.cpp:157] Top shape: 16 512 36 44 (12976128)
I0920 11:17:57.042734 23603 net.cpp:165] Memory required for data: 3503554720
I0920 11:17:57.042742 23603 layer_factory.hpp:77] Creating layer relu4_1
I0920 11:17:57.042747 23603 net.cpp:100] Creating Layer relu4_1
I0920 11:17:57.042752 23603 net.cpp:434] relu4_1 <- conv4_1
I0920 11:17:57.042755 23603 net.cpp:395] relu4_1 -> conv4_1 (in-place)
I0920 11:17:57.043620 23603 net.cpp:150] Setting up relu4_1
I0920 11:17:57.043630 23603 net.cpp:157] Top shape: 16 512 36 44 (12976128)
I0920 11:17:57.043635 23603 net.cpp:165] Memory required for data: 3555459232
I0920 11:17:57.043638 23603 layer_factory.hpp:77] Creating layer conv4_2
I0920 11:17:57.043649 23603 net.cpp:100] Creating Layer conv4_2
I0920 11:17:57.043653 23603 net.cpp:434] conv4_2 <- conv4_1
I0920 11:17:57.043656 23603 net.cpp:408] conv4_2 -> conv4_2
I0920 11:17:57.055236 23603 net.cpp:150] Setting up conv4_2
I0920 11:17:57.055253 23603 net.cpp:157] Top shape: 16 512 36 44 (12976128)
I0920 11:17:57.055259 23603 net.cpp:165] Memory required for data: 3607363744
I0920 11:17:57.055269 23603 layer_factory.hpp:77] Creating layer relu4_2
I0920 11:17:57.055277 23603 net.cpp:100] Creating Layer relu4_2
I0920 11:17:57.055281 23603 net.cpp:434] relu4_2 <- conv4_2
I0920 11:17:57.055286 23603 net.cpp:395] relu4_2 -> conv4_2 (in-place)
I0920 11:17:57.055660 23603 net.cpp:150] Setting up relu4_2
I0920 11:17:57.055665 23603 net.cpp:157] Top shape: 16 512 36 44 (12976128)
I0920 11:17:57.055670 23603 net.cpp:165] Memory required for data: 3659268256
I0920 11:17:57.055672 23603 layer_factory.hpp:77] Creating layer conv4_3
I0920 11:17:57.055682 23603 net.cpp:100] Creating Layer conv4_3
I0920 11:17:57.055685 23603 net.cpp:434] conv4_3 <- conv4_2
I0920 11:17:57.055689 23603 net.cpp:408] conv4_3 -> conv4_3
I0920 11:17:57.067196 23603 net.cpp:150] Setting up conv4_3
I0920 11:17:57.067212 23603 net.cpp:157] Top shape: 16 512 36 44 (12976128)
I0920 11:17:57.067220 23603 net.cpp:165] Memory required for data: 3711172768
I0920 11:17:57.067226 23603 layer_factory.hpp:77] Creating layer relu4_3
I0920 11:17:57.067251 23603 net.cpp:100] Creating Layer relu4_3
I0920 11:17:57.067255 23603 net.cpp:434] relu4_3 <- conv4_3
I0920 11:17:57.067260 23603 net.cpp:395] relu4_3 -> conv4_3 (in-place)
I0920 11:17:57.068595 23603 net.cpp:150] Setting up relu4_3
I0920 11:17:57.068603 23603 net.cpp:157] Top shape: 16 512 36 44 (12976128)
I0920 11:17:57.068608 23603 net.cpp:165] Memory required for data: 3763077280
I0920 11:17:57.068610 23603 layer_factory.hpp:77] Creating layer conv4_3_relu4_3_0_split
I0920 11:17:57.068617 23603 net.cpp:100] Creating Layer conv4_3_relu4_3_0_split
I0920 11:17:57.068621 23603 net.cpp:434] conv4_3_relu4_3_0_split <- conv4_3
I0920 11:17:57.068626 23603 net.cpp:408] conv4_3_relu4_3_0_split -> conv4_3_relu4_3_0_split_0
I0920 11:17:57.068631 23603 net.cpp:408] conv4_3_relu4_3_0_split -> conv4_3_relu4_3_0_split_1
I0920 11:17:57.068670 23603 net.cpp:150] Setting up conv4_3_relu4_3_0_split
I0920 11:17:57.068675 23603 net.cpp:157] Top shape: 16 512 36 44 (12976128)
I0920 11:17:57.068677 23603 net.cpp:157] Top shape: 16 512 36 44 (12976128)
I0920 11:17:57.068681 23603 net.cpp:165] Memory required for data: 3866886304
I0920 11:17:57.068682 23603 layer_factory.hpp:77] Creating layer pool4
I0920 11:17:57.068686 23603 net.cpp:100] Creating Layer pool4
I0920 11:17:57.068689 23603 net.cpp:434] pool4 <- conv4_3_relu4_3_0_split_0
I0920 11:17:57.068696 23603 net.cpp:408] pool4 -> pool4
I0920 11:17:57.068725 23603 net.cpp:150] Setting up pool4
I0920 11:17:57.068728 23603 net.cpp:157] Top shape: 16 512 18 22 (3244032)
I0920 11:17:57.068732 23603 net.cpp:165] Memory required for data: 3879862432
I0920 11:17:57.068734 23603 layer_factory.hpp:77] Creating layer conv5_1
I0920 11:17:57.068743 23603 net.cpp:100] Creating Layer conv5_1
I0920 11:17:57.068747 23603 net.cpp:434] conv5_1 <- pool4
I0920 11:17:57.068749 23603 net.cpp:408] conv5_1 -> conv5_1
I0920 11:17:57.080252 23603 net.cpp:150] Setting up conv5_1
I0920 11:17:57.080269 23603 net.cpp:157] Top shape: 16 512 18 22 (3244032)
I0920 11:17:57.080276 23603 net.cpp:165] Memory required for data: 3892838560
I0920 11:17:57.080282 23603 layer_factory.hpp:77] Creating layer relu5_1
I0920 11:17:57.080291 23603 net.cpp:100] Creating Layer relu5_1
I0920 11:17:57.080293 23603 net.cpp:434] relu5_1 <- conv5_1
I0920 11:17:57.080298 23603 net.cpp:395] relu5_1 -> conv5_1 (in-place)
I0920 11:17:57.080669 23603 net.cpp:150] Setting up relu5_1
I0920 11:17:57.080677 23603 net.cpp:157] Top shape: 16 512 18 22 (3244032)
I0920 11:17:57.080680 23603 net.cpp:165] Memory required for data: 3905814688
I0920 11:17:57.080683 23603 layer_factory.hpp:77] Creating layer conv5_2
I0920 11:17:57.080693 23603 net.cpp:100] Creating Layer conv5_2
I0920 11:17:57.080695 23603 net.cpp:434] conv5_2 <- conv5_1
I0920 11:17:57.080699 23603 net.cpp:408] conv5_2 -> conv5_2
I0920 11:17:57.092288 23603 net.cpp:150] Setting up conv5_2
I0920 11:17:57.092306 23603 net.cpp:157] Top shape: 16 512 18 22 (3244032)
I0920 11:17:57.092312 23603 net.cpp:165] Memory required for data: 3918790816
I0920 11:17:57.092319 23603 layer_factory.hpp:77] Creating layer relu5_2
I0920 11:17:57.092327 23603 net.cpp:100] Creating Layer relu5_2
I0920 11:17:57.092331 23603 net.cpp:434] relu5_2 <- conv5_2
I0920 11:17:57.092335 23603 net.cpp:395] relu5_2 -> conv5_2 (in-place)
I0920 11:17:57.092711 23603 net.cpp:150] Setting up relu5_2
I0920 11:17:57.092720 23603 net.cpp:157] Top shape: 16 512 18 22 (3244032)
I0920 11:17:57.092723 23603 net.cpp:165] Memory required for data: 3931766944
I0920 11:17:57.092725 23603 layer_factory.hpp:77] Creating layer conv5_3
I0920 11:17:57.092736 23603 net.cpp:100] Creating Layer conv5_3
I0920 11:17:57.092739 23603 net.cpp:434] conv5_3 <- conv5_2
I0920 11:17:57.092744 23603 net.cpp:408] conv5_3 -> conv5_3
I0920 11:17:57.105290 23603 net.cpp:150] Setting up conv5_3
I0920 11:17:57.105305 23603 net.cpp:157] Top shape: 16 512 18 22 (3244032)
I0920 11:17:57.105311 23603 net.cpp:165] Memory required for data: 3944743072
I0920 11:17:57.105319 23603 layer_factory.hpp:77] Creating layer relu5_3
I0920 11:17:57.105347 23603 net.cpp:100] Creating Layer relu5_3
I0920 11:17:57.105352 23603 net.cpp:434] relu5_3 <- conv5_3
I0920 11:17:57.105357 23603 net.cpp:395] relu5_3 -> conv5_3 (in-place)
I0920 11:17:57.105861 23603 net.cpp:150] Setting up relu5_3
I0920 11:17:57.105868 23603 net.cpp:157] Top shape: 16 512 18 22 (3244032)
I0920 11:17:57.105872 23603 net.cpp:165] Memory required for data: 3957719200
I0920 11:17:57.105875 23603 layer_factory.hpp:77] Creating layer pool5
I0920 11:17:57.105882 23603 net.cpp:100] Creating Layer pool5
I0920 11:17:57.105885 23603 net.cpp:434] pool5 <- conv5_3
I0920 11:17:57.105890 23603 net.cpp:408] pool5 -> pool5
I0920 11:17:57.105931 23603 net.cpp:150] Setting up pool5
I0920 11:17:57.105934 23603 net.cpp:157] Top shape: 16 512 18 22 (3244032)
I0920 11:17:57.105937 23603 net.cpp:165] Memory required for data: 3970695328
I0920 11:17:57.105940 23603 layer_factory.hpp:77] Creating layer fc6
I0920 11:17:57.105948 23603 net.cpp:100] Creating Layer fc6
I0920 11:17:57.105950 23603 net.cpp:434] fc6 <- pool5
I0920 11:17:57.105954 23603 net.cpp:408] fc6 -> fc6
I0920 11:17:57.127699 23603 net.cpp:150] Setting up fc6
I0920 11:17:57.127717 23603 net.cpp:157] Top shape: 16 1024 18 22 (6488064)
I0920 11:17:57.127724 23603 net.cpp:165] Memory required for data: 3996647584
I0920 11:17:57.127730 23603 layer_factory.hpp:77] Creating layer relu6
I0920 11:17:57.127738 23603 net.cpp:100] Creating Layer relu6
I0920 11:17:57.127743 23603 net.cpp:434] relu6 <- fc6
I0920 11:17:57.127746 23603 net.cpp:395] relu6 -> fc6 (in-place)
I0920 11:17:57.128352 23603 net.cpp:150] Setting up relu6
I0920 11:17:57.128360 23603 net.cpp:157] Top shape: 16 1024 18 22 (6488064)
I0920 11:17:57.128365 23603 net.cpp:165] Memory required for data: 4022599840
I0920 11:17:57.128368 23603 layer_factory.hpp:77] Creating layer fc7
I0920 11:17:57.128378 23603 net.cpp:100] Creating Layer fc7
I0920 11:17:57.128382 23603 net.cpp:434] fc7 <- fc6
I0920 11:17:57.128386 23603 net.cpp:408] fc7 -> fc7
I0920 11:17:57.134479 23603 net.cpp:150] Setting up fc7
I0920 11:17:57.134490 23603 net.cpp:157] Top shape: 16 1024 18 22 (6488064)
I0920 11:17:57.134495 23603 net.cpp:165] Memory required for data: 4048552096
I0920 11:17:57.134500 23603 layer_factory.hpp:77] Creating layer relu7
I0920 11:17:57.134507 23603 net.cpp:100] Creating Layer relu7
I0920 11:17:57.134510 23603 net.cpp:434] relu7 <- fc7
I0920 11:17:57.134515 23603 net.cpp:395] relu7 -> fc7 (in-place)
I0920 11:17:57.135849 23603 net.cpp:150] Setting up relu7
I0920 11:17:57.135859 23603 net.cpp:157] Top shape: 16 1024 18 22 (6488064)
I0920 11:17:57.135862 23603 net.cpp:165] Memory required for data: 4074504352
I0920 11:17:57.135865 23603 layer_factory.hpp:77] Creating layer fc7_relu7_0_split
I0920 11:17:57.135874 23603 net.cpp:100] Creating Layer fc7_relu7_0_split
I0920 11:17:57.135877 23603 net.cpp:434] fc7_relu7_0_split <- fc7
I0920 11:17:57.135881 23603 net.cpp:408] fc7_relu7_0_split -> fc7_relu7_0_split_0
I0920 11:17:57.135887 23603 net.cpp:408] fc7_relu7_0_split -> fc7_relu7_0_split_1
I0920 11:17:57.135892 23603 net.cpp:408] fc7_relu7_0_split -> fc7_relu7_0_split_2
I0920 11:17:57.135898 23603 net.cpp:408] fc7_relu7_0_split -> fc7_relu7_0_split_3
I0920 11:17:57.135960 23603 net.cpp:150] Setting up fc7_relu7_0_split
I0920 11:17:57.135964 23603 net.cpp:157] Top shape: 16 1024 18 22 (6488064)
I0920 11:17:57.135968 23603 net.cpp:157] Top shape: 16 1024 18 22 (6488064)
I0920 11:17:57.135970 23603 net.cpp:157] Top shape: 16 1024 18 22 (6488064)
I0920 11:17:57.135973 23603 net.cpp:157] Top shape: 16 1024 18 22 (6488064)
I0920 11:17:57.135977 23603 net.cpp:165] Memory required for data: 4178313376
I0920 11:17:57.135978 23603 layer_factory.hpp:77] Creating layer conv6_1
I0920 11:17:57.135987 23603 net.cpp:100] Creating Layer conv6_1
I0920 11:17:57.135989 23603 net.cpp:434] conv6_1 <- fc7_relu7_0_split_0
I0920 11:17:57.135993 23603 net.cpp:408] conv6_1 -> conv6_1
I0920 11:17:57.138953 23603 net.cpp:150] Setting up conv6_1
I0920 11:17:57.138962 23603 net.cpp:157] Top shape: 16 256 18 22 (1622016)
I0920 11:17:57.138979 23603 net.cpp:165] Memory required for data: 4184801440
I0920 11:17:57.138985 23603 layer_factory.hpp:77] Creating layer conv6_1_relu
I0920 11:17:57.138989 23603 net.cpp:100] Creating Layer conv6_1_relu
I0920 11:17:57.138993 23603 net.cpp:434] conv6_1_relu <- conv6_1
I0920 11:17:57.138996 23603 net.cpp:395] conv6_1_relu -> conv6_1 (in-place)
I0920 11:17:57.139370 23603 net.cpp:150] Setting up conv6_1_relu
I0920 11:17:57.139377 23603 net.cpp:157] Top shape: 16 256 18 22 (1622016)
I0920 11:17:57.139381 23603 net.cpp:165] Memory required for data: 4191289504
I0920 11:17:57.139384 23603 layer_factory.hpp:77] Creating layer conv6_2
I0920 11:17:57.139394 23603 net.cpp:100] Creating Layer conv6_2
I0920 11:17:57.139396 23603 net.cpp:434] conv6_2 <- conv6_1
I0920 11:17:57.139400 23603 net.cpp:408] conv6_2 -> conv6_2
I0920 11:17:57.145990 23603 net.cpp:150] Setting up conv6_2
I0920 11:17:57.146003 23603 net.cpp:157] Top shape: 16 512 9 11 (811008)
I0920 11:17:57.146008 23603 net.cpp:165] Memory required for data: 4194533536
I0920 11:17:57.146016 23603 layer_factory.hpp:77] Creating layer conv6_2_relu
I0920 11:17:57.146023 23603 net.cpp:100] Creating Layer conv6_2_relu
I0920 11:17:57.146025 23603 net.cpp:434] conv6_2_relu <- conv6_2
I0920 11:17:57.146029 23603 net.cpp:395] conv6_2_relu -> conv6_2 (in-place)
I0920 11:17:57.146401 23603 net.cpp:150] Setting up conv6_2_relu
I0920 11:17:57.146409 23603 net.cpp:157] Top shape: 16 512 9 11 (811008)
I0920 11:17:57.146412 23603 net.cpp:165] Memory required for data: 4197777568
I0920 11:17:57.146414 23603 layer_factory.hpp:77] Creating layer conv6_2_conv6_2_relu_0_split
I0920 11:17:57.146420 23603 net.cpp:100] Creating Layer conv6_2_conv6_2_relu_0_split
I0920 11:17:57.146423 23603 net.cpp:434] conv6_2_conv6_2_relu_0_split <- conv6_2
I0920 11:17:57.146427 23603 net.cpp:408] conv6_2_conv6_2_relu_0_split -> conv6_2_conv6_2_relu_0_split_0
I0920 11:17:57.146432 23603 net.cpp:408] conv6_2_conv6_2_relu_0_split -> conv6_2_conv6_2_relu_0_split_1
I0920 11:17:57.146436 23603 net.cpp:408] conv6_2_conv6_2_relu_0_split -> conv6_2_conv6_2_relu_0_split_2
I0920 11:17:57.146440 23603 net.cpp:408] conv6_2_conv6_2_relu_0_split -> conv6_2_conv6_2_relu_0_split_3
I0920 11:17:57.146503 23603 net.cpp:150] Setting up conv6_2_conv6_2_relu_0_split
I0920 11:17:57.146507 23603 net.cpp:157] Top shape: 16 512 9 11 (811008)
I0920 11:17:57.146512 23603 net.cpp:157] Top shape: 16 512 9 11 (811008)
I0920 11:17:57.146513 23603 net.cpp:157] Top shape: 16 512 9 11 (811008)
I0920 11:17:57.146517 23603 net.cpp:157] Top shape: 16 512 9 11 (811008)
I0920 11:17:57.146518 23603 net.cpp:165] Memory required for data: 4210753696
I0920 11:17:57.146522 23603 layer_factory.hpp:77] Creating layer conv7_1
I0920 11:17:57.146528 23603 net.cpp:100] Creating Layer conv7_1
I0920 11:17:57.146530 23603 net.cpp:434] conv7_1 <- conv6_2_conv6_2_relu_0_split_0
I0920 11:17:57.146535 23603 net.cpp:408] conv7_1 -> conv7_1
I0920 11:17:57.149232 23603 net.cpp:150] Setting up conv7_1
I0920 11:17:57.149241 23603 net.cpp:157] Top shape: 16 128 9 11 (202752)
I0920 11:17:57.149245 23603 net.cpp:165] Memory required for data: 4211564704
I0920 11:17:57.149250 23603 layer_factory.hpp:77] Creating layer conv7_1_relu
I0920 11:17:57.149255 23603 net.cpp:100] Creating Layer conv7_1_relu
I0920 11:17:57.149260 23603 net.cpp:434] conv7_1_relu <- conv7_1
I0920 11:17:57.149262 23603 net.cpp:395] conv7_1_relu -> conv7_1 (in-place)
I0920 11:17:57.149626 23603 net.cpp:150] Setting up conv7_1_relu
I0920 11:17:57.149632 23603 net.cpp:157] Top shape: 16 128 9 11 (202752)
I0920 11:17:57.149636 23603 net.cpp:165] Memory required for data: 4212375712
I0920 11:17:57.149638 23603 layer_factory.hpp:77] Creating layer conv7_2
I0920 11:17:57.149647 23603 net.cpp:100] Creating Layer conv7_2
I0920 11:17:57.149650 23603 net.cpp:434] conv7_2 <- conv7_1
I0920 11:17:57.149655 23603 net.cpp:408] conv7_2 -> conv7_2
I0920 11:17:57.152839 23603 net.cpp:150] Setting up conv7_2
I0920 11:17:57.152848 23603 net.cpp:157] Top shape: 16 256 5 6 (122880)
I0920 11:17:57.152853 23603 net.cpp:165] Memory required for data: 4212867232
I0920 11:17:57.152871 23603 layer_factory.hpp:77] Creating layer conv7_2_relu
I0920 11:17:57.152876 23603 net.cpp:100] Creating Layer conv7_2_relu
I0920 11:17:57.152880 23603 net.cpp:434] conv7_2_relu <- conv7_2
I0920 11:17:57.152884 23603 net.cpp:395] conv7_2_relu -> conv7_2 (in-place)
I0920 11:17:57.153251 23603 net.cpp:150] Setting up conv7_2_relu
I0920 11:17:57.153257 23603 net.cpp:157] Top shape: 16 256 5 6 (122880)
I0920 11:17:57.153260 23603 net.cpp:165] Memory required for data: 4213358752
I0920 11:17:57.153264 23603 layer_factory.hpp:77] Creating layer conv7_2_conv7_2_relu_0_split
I0920 11:17:57.153270 23603 net.cpp:100] Creating Layer conv7_2_conv7_2_relu_0_split
I0920 11:17:57.153273 23603 net.cpp:434] conv7_2_conv7_2_relu_0_split <- conv7_2
I0920 11:17:57.153276 23603 net.cpp:408] conv7_2_conv7_2_relu_0_split -> conv7_2_conv7_2_relu_0_split_0
I0920 11:17:57.153281 23603 net.cpp:408] conv7_2_conv7_2_relu_0_split -> conv7_2_conv7_2_relu_0_split_1
I0920 11:17:57.153285 23603 net.cpp:408] conv7_2_conv7_2_relu_0_split -> conv7_2_conv7_2_relu_0_split_2
I0920 11:17:57.153290 23603 net.cpp:408] conv7_2_conv7_2_relu_0_split -> conv7_2_conv7_2_relu_0_split_3
I0920 11:17:57.153352 23603 net.cpp:150] Setting up conv7_2_conv7_2_relu_0_split
I0920 11:17:57.153357 23603 net.cpp:157] Top shape: 16 256 5 6 (122880)
I0920 11:17:57.153359 23603 net.cpp:157] Top shape: 16 256 5 6 (122880)
I0920 11:17:57.153362 23603 net.cpp:157] Top shape: 16 256 5 6 (122880)
I0920 11:17:57.153365 23603 net.cpp:157] Top shape: 16 256 5 6 (122880)
I0920 11:17:57.153367 23603 net.cpp:165] Memory required for data: 4215324832
I0920 11:17:57.153370 23603 layer_factory.hpp:77] Creating layer conv8_1
I0920 11:17:57.153378 23603 net.cpp:100] Creating Layer conv8_1
I0920 11:17:57.153381 23603 net.cpp:434] conv8_1 <- conv7_2_conv7_2_relu_0_split_0
I0920 11:17:57.153384 23603 net.cpp:408] conv8_1 -> conv8_1
I0920 11:17:57.155212 23603 net.cpp:150] Setting up conv8_1
I0920 11:17:57.155220 23603 net.cpp:157] Top shape: 16 128 5 6 (61440)
I0920 11:17:57.155225 23603 net.cpp:165] Memory required for data: 4215570592
I0920 11:17:57.155228 23603 layer_factory.hpp:77] Creating layer conv8_1_relu
I0920 11:17:57.155233 23603 net.cpp:100] Creating Layer conv8_1_relu
I0920 11:17:57.155236 23603 net.cpp:434] conv8_1_relu <- conv8_1
I0920 11:17:57.155239 23603 net.cpp:395] conv8_1_relu -> conv8_1 (in-place)
I0920 11:17:57.156623 23603 net.cpp:150] Setting up conv8_1_relu
I0920 11:17:57.156631 23603 net.cpp:157] Top shape: 16 128 5 6 (61440)
I0920 11:17:57.156635 23603 net.cpp:165] Memory required for data: 4215816352
I0920 11:17:57.156638 23603 layer_factory.hpp:77] Creating layer conv8_2
I0920 11:17:57.156648 23603 net.cpp:100] Creating Layer conv8_2
I0920 11:17:57.156651 23603 net.cpp:434] conv8_2 <- conv8_1
I0920 11:17:57.156656 23603 net.cpp:408] conv8_2 -> conv8_2
I0920 11:17:57.159900 23603 net.cpp:150] Setting up conv8_2
I0920 11:17:57.159910 23603 net.cpp:157] Top shape: 16 256 3 4 (49152)
I0920 11:17:57.159915 23603 net.cpp:165] Memory required for data: 4216012960
I0920 11:17:57.159920 23603 layer_factory.hpp:77] Creating layer conv8_2_relu
I0920 11:17:57.159927 23603 net.cpp:100] Creating Layer conv8_2_relu
I0920 11:17:57.159930 23603 net.cpp:434] conv8_2_relu <- conv8_2
I0920 11:17:57.159934 23603 net.cpp:395] conv8_2_relu -> conv8_2 (in-place)
I0920 11:17:57.160302 23603 net.cpp:150] Setting up conv8_2_relu
I0920 11:17:57.160308 23603 net.cpp:157] Top shape: 16 256 3 4 (49152)
I0920 11:17:57.160312 23603 net.cpp:165] Memory required for data: 4216209568
I0920 11:17:57.160315 23603 layer_factory.hpp:77] Creating layer conv8_2_conv8_2_relu_0_split
I0920 11:17:57.160320 23603 net.cpp:100] Creating Layer conv8_2_conv8_2_relu_0_split
I0920 11:17:57.160323 23603 net.cpp:434] conv8_2_conv8_2_relu_0_split <- conv8_2
I0920 11:17:57.160327 23603 net.cpp:408] conv8_2_conv8_2_relu_0_split -> conv8_2_conv8_2_relu_0_split_0
I0920 11:17:57.160332 23603 net.cpp:408] conv8_2_conv8_2_relu_0_split -> conv8_2_conv8_2_relu_0_split_1
I0920 11:17:57.160351 23603 net.cpp:408] conv8_2_conv8_2_relu_0_split -> conv8_2_conv8_2_relu_0_split_2
I0920 11:17:57.160354 23603 net.cpp:408] conv8_2_conv8_2_relu_0_split -> conv8_2_conv8_2_relu_0_split_3
I0920 11:17:57.160420 23603 net.cpp:150] Setting up conv8_2_conv8_2_relu_0_split
I0920 11:17:57.160424 23603 net.cpp:157] Top shape: 16 256 3 4 (49152)
I0920 11:17:57.160428 23603 net.cpp:157] Top shape: 16 256 3 4 (49152)
I0920 11:17:57.160430 23603 net.cpp:157] Top shape: 16 256 3 4 (49152)
I0920 11:17:57.160432 23603 net.cpp:157] Top shape: 16 256 3 4 (49152)
I0920 11:17:57.160435 23603 net.cpp:165] Memory required for data: 4216996000
I0920 11:17:57.160437 23603 layer_factory.hpp:77] Creating layer conv9_1
I0920 11:17:57.160445 23603 net.cpp:100] Creating Layer conv9_1
I0920 11:17:57.160449 23603 net.cpp:434] conv9_1 <- conv8_2_conv8_2_relu_0_split_0
I0920 11:17:57.160451 23603 net.cpp:408] conv9_1 -> conv9_1
I0920 11:17:57.162159 23603 net.cpp:150] Setting up conv9_1
I0920 11:17:57.162168 23603 net.cpp:157] Top shape: 16 128 3 4 (24576)
I0920 11:17:57.162171 23603 net.cpp:165] Memory required for data: 4217094304
I0920 11:17:57.162175 23603 layer_factory.hpp:77] Creating layer conv9_1_relu
I0920 11:17:57.162181 23603 net.cpp:100] Creating Layer conv9_1_relu
I0920 11:17:57.162184 23603 net.cpp:434] conv9_1_relu <- conv9_1
I0920 11:17:57.162187 23603 net.cpp:395] conv9_1_relu -> conv9_1 (in-place)
I0920 11:17:57.162678 23603 net.cpp:150] Setting up conv9_1_relu
I0920 11:17:57.162685 23603 net.cpp:157] Top shape: 16 128 3 4 (24576)
I0920 11:17:57.162689 23603 net.cpp:165] Memory required for data: 4217192608
I0920 11:17:57.162691 23603 layer_factory.hpp:77] Creating layer conv9_2
I0920 11:17:57.162700 23603 net.cpp:100] Creating Layer conv9_2
I0920 11:17:57.162703 23603 net.cpp:434] conv9_2 <- conv9_1
I0920 11:17:57.162708 23603 net.cpp:408] conv9_2 -> conv9_2
I0920 11:17:57.166676 23603 net.cpp:150] Setting up conv9_2
I0920 11:17:57.166687 23603 net.cpp:157] Top shape: 16 256 1 2 (8192)
I0920 11:17:57.166690 23603 net.cpp:165] Memory required for data: 4217225376
I0920 11:17:57.166695 23603 layer_factory.hpp:77] Creating layer conv9_2_relu
I0920 11:17:57.166700 23603 net.cpp:100] Creating Layer conv9_2_relu
I0920 11:17:57.166703 23603 net.cpp:434] conv9_2_relu <- conv9_2
I0920 11:17:57.166707 23603 net.cpp:395] conv9_2_relu -> conv9_2 (in-place)
I0920 11:17:57.167081 23603 net.cpp:150] Setting up conv9_2_relu
I0920 11:17:57.167088 23603 net.cpp:157] Top shape: 16 256 1 2 (8192)
I0920 11:17:57.167091 23603 net.cpp:165] Memory required for data: 4217258144
I0920 11:17:57.167093 23603 layer_factory.hpp:77] Creating layer conv9_2_conv9_2_relu_0_split
I0920 11:17:57.167100 23603 net.cpp:100] Creating Layer conv9_2_conv9_2_relu_0_split
I0920 11:17:57.167104 23603 net.cpp:434] conv9_2_conv9_2_relu_0_split <- conv9_2
I0920 11:17:57.167107 23603 net.cpp:408] conv9_2_conv9_2_relu_0_split -> conv9_2_conv9_2_relu_0_split_0
I0920 11:17:57.167112 23603 net.cpp:408] conv9_2_conv9_2_relu_0_split -> conv9_2_conv9_2_relu_0_split_1
I0920 11:17:57.167116 23603 net.cpp:408] conv9_2_conv9_2_relu_0_split -> conv9_2_conv9_2_relu_0_split_2
I0920 11:17:57.167170 23603 net.cpp:150] Setting up conv9_2_conv9_2_relu_0_split
I0920 11:17:57.167174 23603 net.cpp:157] Top shape: 16 256 1 2 (8192)
I0920 11:17:57.167177 23603 net.cpp:157] Top shape: 16 256 1 2 (8192)
I0920 11:17:57.167179 23603 net.cpp:157] Top shape: 16 256 1 2 (8192)
I0920 11:17:57.167182 23603 net.cpp:165] Memory required for data: 4217356448
I0920 11:17:57.167184 23603 layer_factory.hpp:77] Creating layer conv4_3_norm
I0920 11:17:57.167189 23603 net.cpp:100] Creating Layer conv4_3_norm
I0920 11:17:57.167192 23603 net.cpp:434] conv4_3_norm <- conv4_3_relu4_3_0_split_1
I0920 11:17:57.167196 23603 net.cpp:408] conv4_3_norm -> conv4_3_norm
I0920 11:17:57.167366 23603 net.cpp:150] Setting up conv4_3_norm
I0920 11:17:57.167371 23603 net.cpp:157] Top shape: 16 512 36 44 (12976128)
I0920 11:17:57.167374 23603 net.cpp:165] Memory required for data: 4269260960
I0920 11:17:57.167388 23603 layer_factory.hpp:77] Creating layer conv4_3_norm_conv4_3_norm_0_split
I0920 11:17:57.167392 23603 net.cpp:100] Creating Layer conv4_3_norm_conv4_3_norm_0_split
I0920 11:17:57.167395 23603 net.cpp:434] conv4_3_norm_conv4_3_norm_0_split <- conv4_3_norm
I0920 11:17:57.167400 23603 net.cpp:408] conv4_3_norm_conv4_3_norm_0_split -> conv4_3_norm_conv4_3_norm_0_split_0
I0920 11:17:57.167404 23603 net.cpp:408] conv4_3_norm_conv4_3_norm_0_split -> conv4_3_norm_conv4_3_norm_0_split_1
I0920 11:17:57.167408 23603 net.cpp:408] conv4_3_norm_conv4_3_norm_0_split -> conv4_3_norm_conv4_3_norm_0_split_2
I0920 11:17:57.167456 23603 net.cpp:150] Setting up conv4_3_norm_conv4_3_norm_0_split
I0920 11:17:57.167460 23603 net.cpp:157] Top shape: 16 512 36 44 (12976128)
I0920 11:17:57.167464 23603 net.cpp:157] Top shape: 16 512 36 44 (12976128)
I0920 11:17:57.167466 23603 net.cpp:157] Top shape: 16 512 36 44 (12976128)
I0920 11:17:57.167469 23603 net.cpp:165] Memory required for data: 4424974496
I0920 11:17:57.167471 23603 layer_factory.hpp:77] Creating layer conv4_3_norm_mbox_loc
I0920 11:17:57.167479 23603 net.cpp:100] Creating Layer conv4_3_norm_mbox_loc
I0920 11:17:57.167482 23603 net.cpp:434] conv4_3_norm_mbox_loc <- conv4_3_norm_conv4_3_norm_0_split_0
I0920 11:17:57.167486 23603 net.cpp:408] conv4_3_norm_mbox_loc -> conv4_3_norm_mbox_loc
I0920 11:17:57.169626 23603 net.cpp:150] Setting up conv4_3_norm_mbox_loc
I0920 11:17:57.169633 23603 net.cpp:157] Top shape: 16 16 36 44 (405504)
I0920 11:17:57.169638 23603 net.cpp:165] Memory required for data: 4426596512
I0920 11:17:57.169644 23603 layer_factory.hpp:77] Creating layer conv4_3_norm_mbox_loc_perm
I0920 11:17:57.169649 23603 net.cpp:100] Creating Layer conv4_3_norm_mbox_loc_perm
I0920 11:17:57.169652 23603 net.cpp:434] conv4_3_norm_mbox_loc_perm <- conv4_3_norm_mbox_loc
I0920 11:17:57.169656 23603 net.cpp:408] conv4_3_norm_mbox_loc_perm -> conv4_3_norm_mbox_loc_perm
I0920 11:17:57.169766 23603 net.cpp:150] Setting up conv4_3_norm_mbox_loc_perm
I0920 11:17:57.169770 23603 net.cpp:157] Top shape: 16 36 44 16 (405504)
I0920 11:17:57.169773 23603 net.cpp:165] Memory required for data: 4428218528
I0920 11:17:57.169776 23603 layer_factory.hpp:77] Creating layer conv4_3_norm_mbox_loc_flat
I0920 11:17:57.169780 23603 net.cpp:100] Creating Layer conv4_3_norm_mbox_loc_flat
I0920 11:17:57.169783 23603 net.cpp:434] conv4_3_norm_mbox_loc_flat <- conv4_3_norm_mbox_loc_perm
I0920 11:17:57.169786 23603 net.cpp:408] conv4_3_norm_mbox_loc_flat -> conv4_3_norm_mbox_loc_flat
I0920 11:17:57.169812 23603 net.cpp:150] Setting up conv4_3_norm_mbox_loc_flat
I0920 11:17:57.169816 23603 net.cpp:157] Top shape: 16 25344 (405504)
I0920 11:17:57.169819 23603 net.cpp:165] Memory required for data: 4429840544
I0920 11:17:57.169822 23603 layer_factory.hpp:77] Creating layer conv4_3_norm_mbox_conf
I0920 11:17:57.169832 23603 net.cpp:100] Creating Layer conv4_3_norm_mbox_conf
I0920 11:17:57.169836 23603 net.cpp:434] conv4_3_norm_mbox_conf <- conv4_3_norm_conv4_3_norm_0_split_1
I0920 11:17:57.169839 23603 net.cpp:408] conv4_3_norm_mbox_conf -> conv4_3_norm_mbox_conf
I0920 11:17:57.171715 23603 net.cpp:150] Setting up conv4_3_norm_mbox_conf
I0920 11:17:57.171723 23603 net.cpp:157] Top shape: 16 8 36 44 (202752)
I0920 11:17:57.171727 23603 net.cpp:165] Memory required for data: 4430651552
I0920 11:17:57.171733 23603 layer_factory.hpp:77] Creating layer conv4_3_norm_mbox_conf_perm
I0920 11:17:57.171741 23603 net.cpp:100] Creating Layer conv4_3_norm_mbox_conf_perm
I0920 11:17:57.171743 23603 net.cpp:434] conv4_3_norm_mbox_conf_perm <- conv4_3_norm_mbox_conf
I0920 11:17:57.171747 23603 net.cpp:408] conv4_3_norm_mbox_conf_perm -> conv4_3_norm_mbox_conf_perm
I0920 11:17:57.171850 23603 net.cpp:150] Setting up conv4_3_norm_mbox_conf_perm
I0920 11:17:57.171854 23603 net.cpp:157] Top shape: 16 36 44 8 (202752)
I0920 11:17:57.171859 23603 net.cpp:165] Memory required for data: 4431462560
I0920 11:17:57.171860 23603 layer_factory.hpp:77] Creating layer conv4_3_norm_mbox_conf_flat
I0920 11:17:57.171864 23603 net.cpp:100] Creating Layer conv4_3_norm_mbox_conf_flat
I0920 11:17:57.171875 23603 net.cpp:434] conv4_3_norm_mbox_conf_flat <- conv4_3_norm_mbox_conf_perm
I0920 11:17:57.171880 23603 net.cpp:408] conv4_3_norm_mbox_conf_flat -> conv4_3_norm_mbox_conf_flat
I0920 11:17:57.171900 23603 net.cpp:150] Setting up conv4_3_norm_mbox_conf_flat
I0920 11:17:57.171903 23603 net.cpp:157] Top shape: 16 12672 (202752)
I0920 11:17:57.171907 23603 net.cpp:165] Memory required for data: 4432273568
I0920 11:17:57.171910 23603 layer_factory.hpp:77] Creating layer conv4_3_norm_mbox_priorbox
I0920 11:17:57.171916 23603 net.cpp:100] Creating Layer conv4_3_norm_mbox_priorbox
I0920 11:17:57.171918 23603 net.cpp:434] conv4_3_norm_mbox_priorbox <- conv4_3_norm_conv4_3_norm_0_split_2
I0920 11:17:57.171922 23603 net.cpp:434] conv4_3_norm_mbox_priorbox <- data_data_0_split_1
I0920 11:17:57.171926 23603 net.cpp:408] conv4_3_norm_mbox_priorbox -> conv4_3_norm_mbox_priorbox
I0920 11:17:57.171948 23603 net.cpp:150] Setting up conv4_3_norm_mbox_priorbox
I0920 11:17:57.171952 23603 net.cpp:157] Top shape: 1 2 25344 (50688)
I0920 11:17:57.171955 23603 net.cpp:165] Memory required for data: 4432476320
I0920 11:17:57.171957 23603 layer_factory.hpp:77] Creating layer fc7_mbox_loc
I0920 11:17:57.171965 23603 net.cpp:100] Creating Layer fc7_mbox_loc
I0920 11:17:57.171969 23603 net.cpp:434] fc7_mbox_loc <- fc7_relu7_0_split_1
I0920 11:17:57.171973 23603 net.cpp:408] fc7_mbox_loc -> fc7_mbox_loc
I0920 11:17:57.175338 23603 net.cpp:150] Setting up fc7_mbox_loc
I0920 11:17:57.175346 23603 net.cpp:157] Top shape: 16 24 18 22 (152064)
I0920 11:17:57.175350 23603 net.cpp:165] Memory required for data: 4433084576
I0920 11:17:57.175356 23603 layer_factory.hpp:77] Creating layer fc7_mbox_loc_perm
I0920 11:17:57.175362 23603 net.cpp:100] Creating Layer fc7_mbox_loc_perm
I0920 11:17:57.175365 23603 net.cpp:434] fc7_mbox_loc_perm <- fc7_mbox_loc
I0920 11:17:57.175369 23603 net.cpp:408] fc7_mbox_loc_perm -> fc7_mbox_loc_perm
I0920 11:17:57.175474 23603 net.cpp:150] Setting up fc7_mbox_loc_perm
I0920 11:17:57.175479 23603 net.cpp:157] Top shape: 16 18 22 24 (152064)
I0920 11:17:57.175482 23603 net.cpp:165] Memory required for data: 4433692832
I0920 11:17:57.175484 23603 layer_factory.hpp:77] Creating layer fc7_mbox_loc_flat
I0920 11:17:57.175490 23603 net.cpp:100] Creating Layer fc7_mbox_loc_flat
I0920 11:17:57.175493 23603 net.cpp:434] fc7_mbox_loc_flat <- fc7_mbox_loc_perm
I0920 11:17:57.175496 23603 net.cpp:408] fc7_mbox_loc_flat -> fc7_mbox_loc_flat
I0920 11:17:57.175516 23603 net.cpp:150] Setting up fc7_mbox_loc_flat
I0920 11:17:57.175520 23603 net.cpp:157] Top shape: 16 9504 (152064)
I0920 11:17:57.175523 23603 net.cpp:165] Memory required for data: 4434301088
I0920 11:17:57.175526 23603 layer_factory.hpp:77] Creating layer fc7_mbox_conf
I0920 11:17:57.175532 23603 net.cpp:100] Creating Layer fc7_mbox_conf
I0920 11:17:57.175536 23603 net.cpp:434] fc7_mbox_conf <- fc7_relu7_0_split_2
I0920 11:17:57.175540 23603 net.cpp:408] fc7_mbox_conf -> fc7_mbox_conf
I0920 11:17:57.177660 23603 net.cpp:150] Setting up fc7_mbox_conf
I0920 11:17:57.177668 23603 net.cpp:157] Top shape: 16 12 18 22 (76032)
I0920 11:17:57.177672 23603 net.cpp:165] Memory required for data: 4434605216
I0920 11:17:57.177677 23603 layer_factory.hpp:77] Creating layer fc7_mbox_conf_perm
I0920 11:17:57.177682 23603 net.cpp:100] Creating Layer fc7_mbox_conf_perm
I0920 11:17:57.177685 23603 net.cpp:434] fc7_mbox_conf_perm <- fc7_mbox_conf
I0920 11:17:57.177690 23603 net.cpp:408] fc7_mbox_conf_perm -> fc7_mbox_conf_perm
I0920 11:17:57.177793 23603 net.cpp:150] Setting up fc7_mbox_conf_perm
I0920 11:17:57.177798 23603 net.cpp:157] Top shape: 16 18 22 12 (76032)
I0920 11:17:57.177800 23603 net.cpp:165] Memory required for data: 4434909344
I0920 11:17:57.177803 23603 layer_factory.hpp:77] Creating layer fc7_mbox_conf_flat
I0920 11:17:57.177808 23603 net.cpp:100] Creating Layer fc7_mbox_conf_flat
I0920 11:17:57.177809 23603 net.cpp:434] fc7_mbox_conf_flat <- fc7_mbox_conf_perm
I0920 11:17:57.177814 23603 net.cpp:408] fc7_mbox_conf_flat -> fc7_mbox_conf_flat
I0920 11:17:57.177845 23603 net.cpp:150] Setting up fc7_mbox_conf_flat
I0920 11:17:57.177850 23603 net.cpp:157] Top shape: 16 4752 (76032)
I0920 11:17:57.177852 23603 net.cpp:165] Memory required for data: 4435213472
I0920 11:17:57.177855 23603 layer_factory.hpp:77] Creating layer fc7_mbox_priorbox
I0920 11:17:57.177860 23603 net.cpp:100] Creating Layer fc7_mbox_priorbox
I0920 11:17:57.177862 23603 net.cpp:434] fc7_mbox_priorbox <- fc7_relu7_0_split_3
I0920 11:17:57.177865 23603 net.cpp:434] fc7_mbox_priorbox <- data_data_0_split_2
I0920 11:17:57.177870 23603 net.cpp:408] fc7_mbox_priorbox -> fc7_mbox_priorbox
I0920 11:17:57.177891 23603 net.cpp:150] Setting up fc7_mbox_priorbox
I0920 11:17:57.177896 23603 net.cpp:157] Top shape: 1 2 9504 (19008)
I0920 11:17:57.177898 23603 net.cpp:165] Memory required for data: 4435289504
I0920 11:17:57.177901 23603 layer_factory.hpp:77] Creating layer conv6_2_mbox_loc
I0920 11:17:57.177907 23603 net.cpp:100] Creating Layer conv6_2_mbox_loc
I0920 11:17:57.177911 23603 net.cpp:434] conv6_2_mbox_loc <- conv6_2_conv6_2_relu_0_split_1
I0920 11:17:57.177915 23603 net.cpp:408] conv6_2_mbox_loc -> conv6_2_mbox_loc
I0920 11:17:57.180042 23603 net.cpp:150] Setting up conv6_2_mbox_loc
I0920 11:17:57.180049 23603 net.cpp:157] Top shape: 16 24 9 11 (38016)
I0920 11:17:57.180053 23603 net.cpp:165] Memory required for data: 4435441568
I0920 11:17:57.180058 23603 layer_factory.hpp:77] Creating layer conv6_2_mbox_loc_perm
I0920 11:17:57.180063 23603 net.cpp:100] Creating Layer conv6_2_mbox_loc_perm
I0920 11:17:57.180068 23603 net.cpp:434] conv6_2_mbox_loc_perm <- conv6_2_mbox_loc
I0920 11:17:57.180071 23603 net.cpp:408] conv6_2_mbox_loc_perm -> conv6_2_mbox_loc_perm
I0920 11:17:57.180174 23603 net.cpp:150] Setting up conv6_2_mbox_loc_perm
I0920 11:17:57.180179 23603 net.cpp:157] Top shape: 16 9 11 24 (38016)
I0920 11:17:57.180182 23603 net.cpp:165] Memory required for data: 4435593632
I0920 11:17:57.180184 23603 layer_factory.hpp:77] Creating layer conv6_2_mbox_loc_flat
I0920 11:17:57.180189 23603 net.cpp:100] Creating Layer conv6_2_mbox_loc_flat
I0920 11:17:57.180192 23603 net.cpp:434] conv6_2_mbox_loc_flat <- conv6_2_mbox_loc_perm
I0920 11:17:57.180196 23603 net.cpp:408] conv6_2_mbox_loc_flat -> conv6_2_mbox_loc_flat
I0920 11:17:57.180217 23603 net.cpp:150] Setting up conv6_2_mbox_loc_flat
I0920 11:17:57.180220 23603 net.cpp:157] Top shape: 16 2376 (38016)
I0920 11:17:57.180223 23603 net.cpp:165] Memory required for data: 4435745696
I0920 11:17:57.180225 23603 layer_factory.hpp:77] Creating layer conv6_2_mbox_conf
I0920 11:17:57.180233 23603 net.cpp:100] Creating Layer conv6_2_mbox_conf
I0920 11:17:57.180235 23603 net.cpp:434] conv6_2_mbox_conf <- conv6_2_conv6_2_relu_0_split_2
I0920 11:17:57.180240 23603 net.cpp:408] conv6_2_mbox_conf -> conv6_2_mbox_conf
I0920 11:17:57.183037 23603 net.cpp:150] Setting up conv6_2_mbox_conf
I0920 11:17:57.183045 23603 net.cpp:157] Top shape: 16 12 9 11 (19008)
I0920 11:17:57.183049 23603 net.cpp:165] Memory required for data: 4435821728
I0920 11:17:57.183053 23603 layer_factory.hpp:77] Creating layer conv6_2_mbox_conf_perm
I0920 11:17:57.183059 23603 net.cpp:100] Creating Layer conv6_2_mbox_conf_perm
I0920 11:17:57.183063 23603 net.cpp:434] conv6_2_mbox_conf_perm <- conv6_2_mbox_conf
I0920 11:17:57.183069 23603 net.cpp:408] conv6_2_mbox_conf_perm -> conv6_2_mbox_conf_perm
I0920 11:17:57.183177 23603 net.cpp:150] Setting up conv6_2_mbox_conf_perm
I0920 11:17:57.183182 23603 net.cpp:157] Top shape: 16 9 11 12 (19008)
I0920 11:17:57.183185 23603 net.cpp:165] Memory required for data: 4435897760
I0920 11:17:57.183188 23603 layer_factory.hpp:77] Creating layer conv6_2_mbox_conf_flat
I0920 11:17:57.183193 23603 net.cpp:100] Creating Layer conv6_2_mbox_conf_flat
I0920 11:17:57.183195 23603 net.cpp:434] conv6_2_mbox_conf_flat <- conv6_2_mbox_conf_perm
I0920 11:17:57.183199 23603 net.cpp:408] conv6_2_mbox_conf_flat -> conv6_2_mbox_conf_flat
I0920 11:17:57.183220 23603 net.cpp:150] Setting up conv6_2_mbox_conf_flat
I0920 11:17:57.183224 23603 net.cpp:157] Top shape: 16 1188 (19008)
I0920 11:17:57.183238 23603 net.cpp:165] Memory required for data: 4435973792
I0920 11:17:57.183240 23603 layer_factory.hpp:77] Creating layer conv6_2_mbox_priorbox
I0920 11:17:57.183245 23603 net.cpp:100] Creating Layer conv6_2_mbox_priorbox
I0920 11:17:57.183248 23603 net.cpp:434] conv6_2_mbox_priorbox <- conv6_2_conv6_2_relu_0_split_3
I0920 11:17:57.183251 23603 net.cpp:434] conv6_2_mbox_priorbox <- data_data_0_split_3
I0920 11:17:57.183255 23603 net.cpp:408] conv6_2_mbox_priorbox -> conv6_2_mbox_priorbox
I0920 11:17:57.183279 23603 net.cpp:150] Setting up conv6_2_mbox_priorbox
I0920 11:17:57.183282 23603 net.cpp:157] Top shape: 1 2 2376 (4752)
I0920 11:17:57.183285 23603 net.cpp:165] Memory required for data: 4435992800
I0920 11:17:57.183287 23603 layer_factory.hpp:77] Creating layer conv7_2_mbox_loc
I0920 11:17:57.183295 23603 net.cpp:100] Creating Layer conv7_2_mbox_loc
I0920 11:17:57.183297 23603 net.cpp:434] conv7_2_mbox_loc <- conv7_2_conv7_2_relu_0_split_1
I0920 11:17:57.183303 23603 net.cpp:408] conv7_2_mbox_loc -> conv7_2_mbox_loc
I0920 11:17:57.185241 23603 net.cpp:150] Setting up conv7_2_mbox_loc
I0920 11:17:57.185250 23603 net.cpp:157] Top shape: 16 24 5 6 (11520)
I0920 11:17:57.185253 23603 net.cpp:165] Memory required for data: 4436038880
I0920 11:17:57.185259 23603 layer_factory.hpp:77] Creating layer conv7_2_mbox_loc_perm
I0920 11:17:57.185266 23603 net.cpp:100] Creating Layer conv7_2_mbox_loc_perm
I0920 11:17:57.185269 23603 net.cpp:434] conv7_2_mbox_loc_perm <- conv7_2_mbox_loc
I0920 11:17:57.185273 23603 net.cpp:408] conv7_2_mbox_loc_perm -> conv7_2_mbox_loc_perm
I0920 11:17:57.185379 23603 net.cpp:150] Setting up conv7_2_mbox_loc_perm
I0920 11:17:57.185384 23603 net.cpp:157] Top shape: 16 5 6 24 (11520)
I0920 11:17:57.185387 23603 net.cpp:165] Memory required for data: 4436084960
I0920 11:17:57.185389 23603 layer_factory.hpp:77] Creating layer conv7_2_mbox_loc_flat
I0920 11:17:57.185395 23603 net.cpp:100] Creating Layer conv7_2_mbox_loc_flat
I0920 11:17:57.185397 23603 net.cpp:434] conv7_2_mbox_loc_flat <- conv7_2_mbox_loc_perm
I0920 11:17:57.185401 23603 net.cpp:408] conv7_2_mbox_loc_flat -> conv7_2_mbox_loc_flat
I0920 11:17:57.185420 23603 net.cpp:150] Setting up conv7_2_mbox_loc_flat
I0920 11:17:57.185425 23603 net.cpp:157] Top shape: 16 720 (11520)
I0920 11:17:57.185427 23603 net.cpp:165] Memory required for data: 4436131040
I0920 11:17:57.185429 23603 layer_factory.hpp:77] Creating layer conv7_2_mbox_conf
I0920 11:17:57.185436 23603 net.cpp:100] Creating Layer conv7_2_mbox_conf
I0920 11:17:57.185441 23603 net.cpp:434] conv7_2_mbox_conf <- conv7_2_conv7_2_relu_0_split_2
I0920 11:17:57.185444 23603 net.cpp:408] conv7_2_mbox_conf -> conv7_2_mbox_conf
I0920 11:17:57.187188 23603 net.cpp:150] Setting up conv7_2_mbox_conf
I0920 11:17:57.187196 23603 net.cpp:157] Top shape: 16 12 5 6 (5760)
I0920 11:17:57.187201 23603 net.cpp:165] Memory required for data: 4436154080
I0920 11:17:57.187204 23603 layer_factory.hpp:77] Creating layer conv7_2_mbox_conf_perm
I0920 11:17:57.187211 23603 net.cpp:100] Creating Layer conv7_2_mbox_conf_perm
I0920 11:17:57.187216 23603 net.cpp:434] conv7_2_mbox_conf_perm <- conv7_2_mbox_conf
I0920 11:17:57.187219 23603 net.cpp:408] conv7_2_mbox_conf_perm -> conv7_2_mbox_conf_perm
I0920 11:17:57.187325 23603 net.cpp:150] Setting up conv7_2_mbox_conf_perm
I0920 11:17:57.187328 23603 net.cpp:157] Top shape: 16 5 6 12 (5760)
I0920 11:17:57.187331 23603 net.cpp:165] Memory required for data: 4436177120
I0920 11:17:57.187333 23603 layer_factory.hpp:77] Creating layer conv7_2_mbox_conf_flat
I0920 11:17:57.187337 23603 net.cpp:100] Creating Layer conv7_2_mbox_conf_flat
I0920 11:17:57.187340 23603 net.cpp:434] conv7_2_mbox_conf_flat <- conv7_2_mbox_conf_perm
I0920 11:17:57.187346 23603 net.cpp:408] conv7_2_mbox_conf_flat -> conv7_2_mbox_conf_flat
I0920 11:17:57.187368 23603 net.cpp:150] Setting up conv7_2_mbox_conf_flat
I0920 11:17:57.187372 23603 net.cpp:157] Top shape: 16 360 (5760)
I0920 11:17:57.187376 23603 net.cpp:165] Memory required for data: 4436200160
I0920 11:17:57.187389 23603 layer_factory.hpp:77] Creating layer conv7_2_mbox_priorbox
I0920 11:17:57.187397 23603 net.cpp:100] Creating Layer conv7_2_mbox_priorbox
I0920 11:17:57.187402 23603 net.cpp:434] conv7_2_mbox_priorbox <- conv7_2_conv7_2_relu_0_split_3
I0920 11:17:57.187404 23603 net.cpp:434] conv7_2_mbox_priorbox <- data_data_0_split_4
I0920 11:17:57.187409 23603 net.cpp:408] conv7_2_mbox_priorbox -> conv7_2_mbox_priorbox
I0920 11:17:57.187434 23603 net.cpp:150] Setting up conv7_2_mbox_priorbox
I0920 11:17:57.187438 23603 net.cpp:157] Top shape: 1 2 720 (1440)
I0920 11:17:57.187441 23603 net.cpp:165] Memory required for data: 4436205920
I0920 11:17:57.187443 23603 layer_factory.hpp:77] Creating layer conv8_2_mbox_loc
I0920 11:17:57.187450 23603 net.cpp:100] Creating Layer conv8_2_mbox_loc
I0920 11:17:57.187454 23603 net.cpp:434] conv8_2_mbox_loc <- conv8_2_conv8_2_relu_0_split_1
I0920 11:17:57.187458 23603 net.cpp:408] conv8_2_mbox_loc -> conv8_2_mbox_loc
I0920 11:17:57.189208 23603 net.cpp:150] Setting up conv8_2_mbox_loc
I0920 11:17:57.189216 23603 net.cpp:157] Top shape: 16 16 3 4 (3072)
I0920 11:17:57.189220 23603 net.cpp:165] Memory required for data: 4436218208
I0920 11:17:57.189229 23603 layer_factory.hpp:77] Creating layer conv8_2_mbox_loc_perm
I0920 11:17:57.189235 23603 net.cpp:100] Creating Layer conv8_2_mbox_loc_perm
I0920 11:17:57.189239 23603 net.cpp:434] conv8_2_mbox_loc_perm <- conv8_2_mbox_loc
I0920 11:17:57.189244 23603 net.cpp:408] conv8_2_mbox_loc_perm -> conv8_2_mbox_loc_perm
I0920 11:17:57.189350 23603 net.cpp:150] Setting up conv8_2_mbox_loc_perm
I0920 11:17:57.189354 23603 net.cpp:157] Top shape: 16 3 4 16 (3072)
I0920 11:17:57.189358 23603 net.cpp:165] Memory required for data: 4436230496
I0920 11:17:57.189360 23603 layer_factory.hpp:77] Creating layer conv8_2_mbox_loc_flat
I0920 11:17:57.189365 23603 net.cpp:100] Creating Layer conv8_2_mbox_loc_flat
I0920 11:17:57.189369 23603 net.cpp:434] conv8_2_mbox_loc_flat <- conv8_2_mbox_loc_perm
I0920 11:17:57.189373 23603 net.cpp:408] conv8_2_mbox_loc_flat -> conv8_2_mbox_loc_flat
I0920 11:17:57.189394 23603 net.cpp:150] Setting up conv8_2_mbox_loc_flat
I0920 11:17:57.189399 23603 net.cpp:157] Top shape: 16 192 (3072)
I0920 11:17:57.189401 23603 net.cpp:165] Memory required for data: 4436242784
I0920 11:17:57.189404 23603 layer_factory.hpp:77] Creating layer conv8_2_mbox_conf
I0920 11:17:57.189409 23603 net.cpp:100] Creating Layer conv8_2_mbox_conf
I0920 11:17:57.189411 23603 net.cpp:434] conv8_2_mbox_conf <- conv8_2_conv8_2_relu_0_split_2
I0920 11:17:57.189415 23603 net.cpp:408] conv8_2_mbox_conf -> conv8_2_mbox_conf
I0920 11:17:57.192234 23603 net.cpp:150] Setting up conv8_2_mbox_conf
I0920 11:17:57.192243 23603 net.cpp:157] Top shape: 16 8 3 4 (1536)
I0920 11:17:57.192247 23603 net.cpp:165] Memory required for data: 4436248928
I0920 11:17:57.192252 23603 layer_factory.hpp:77] Creating layer conv8_2_mbox_conf_perm
I0920 11:17:57.192257 23603 net.cpp:100] Creating Layer conv8_2_mbox_conf_perm
I0920 11:17:57.192260 23603 net.cpp:434] conv8_2_mbox_conf_perm <- conv8_2_mbox_conf
I0920 11:17:57.192266 23603 net.cpp:408] conv8_2_mbox_conf_perm -> conv8_2_mbox_conf_perm
I0920 11:17:57.192373 23603 net.cpp:150] Setting up conv8_2_mbox_conf_perm
I0920 11:17:57.192376 23603 net.cpp:157] Top shape: 16 3 4 8 (1536)
I0920 11:17:57.192379 23603 net.cpp:165] Memory required for data: 4436255072
I0920 11:17:57.192382 23603 layer_factory.hpp:77] Creating layer conv8_2_mbox_conf_flat
I0920 11:17:57.192385 23603 net.cpp:100] Creating Layer conv8_2_mbox_conf_flat
I0920 11:17:57.192389 23603 net.cpp:434] conv8_2_mbox_conf_flat <- conv8_2_mbox_conf_perm
I0920 11:17:57.192391 23603 net.cpp:408] conv8_2_mbox_conf_flat -> conv8_2_mbox_conf_flat
I0920 11:17:57.192414 23603 net.cpp:150] Setting up conv8_2_mbox_conf_flat
I0920 11:17:57.192420 23603 net.cpp:157] Top shape: 16 96 (1536)
I0920 11:17:57.192422 23603 net.cpp:165] Memory required for data: 4436261216
I0920 11:17:57.192425 23603 layer_factory.hpp:77] Creating layer conv8_2_mbox_priorbox
I0920 11:17:57.192440 23603 net.cpp:100] Creating Layer conv8_2_mbox_priorbox
I0920 11:17:57.192443 23603 net.cpp:434] conv8_2_mbox_priorbox <- conv8_2_conv8_2_relu_0_split_3
I0920 11:17:57.192446 23603 net.cpp:434] conv8_2_mbox_priorbox <- data_data_0_split_5
I0920 11:17:57.192451 23603 net.cpp:408] conv8_2_mbox_priorbox -> conv8_2_mbox_priorbox
I0920 11:17:57.192476 23603 net.cpp:150] Setting up conv8_2_mbox_priorbox
I0920 11:17:57.192479 23603 net.cpp:157] Top shape: 1 2 192 (384)
I0920 11:17:57.192482 23603 net.cpp:165] Memory required for data: 4436262752
I0920 11:17:57.192484 23603 layer_factory.hpp:77] Creating layer conv9_2_mbox_loc
I0920 11:17:57.192492 23603 net.cpp:100] Creating Layer conv9_2_mbox_loc
I0920 11:17:57.192494 23603 net.cpp:434] conv9_2_mbox_loc <- conv9_2_conv9_2_relu_0_split_0
I0920 11:17:57.192498 23603 net.cpp:408] conv9_2_mbox_loc -> conv9_2_mbox_loc
I0920 11:17:57.194267 23603 net.cpp:150] Setting up conv9_2_mbox_loc
I0920 11:17:57.194274 23603 net.cpp:157] Top shape: 16 16 1 2 (512)
I0920 11:17:57.194278 23603 net.cpp:165] Memory required for data: 4436264800
I0920 11:17:57.194283 23603 layer_factory.hpp:77] Creating layer conv9_2_mbox_loc_perm
I0920 11:17:57.194288 23603 net.cpp:100] Creating Layer conv9_2_mbox_loc_perm
I0920 11:17:57.194291 23603 net.cpp:434] conv9_2_mbox_loc_perm <- conv9_2_mbox_loc
I0920 11:17:57.194295 23603 net.cpp:408] conv9_2_mbox_loc_perm -> conv9_2_mbox_loc_perm
I0920 11:17:57.194401 23603 net.cpp:150] Setting up conv9_2_mbox_loc_perm
I0920 11:17:57.194406 23603 net.cpp:157] Top shape: 16 1 2 16 (512)
I0920 11:17:57.194408 23603 net.cpp:165] Memory required for data: 4436266848
I0920 11:17:57.194411 23603 layer_factory.hpp:77] Creating layer conv9_2_mbox_loc_flat
I0920 11:17:57.194414 23603 net.cpp:100] Creating Layer conv9_2_mbox_loc_flat
I0920 11:17:57.194417 23603 net.cpp:434] conv9_2_mbox_loc_flat <- conv9_2_mbox_loc_perm
I0920 11:17:57.194420 23603 net.cpp:408] conv9_2_mbox_loc_flat -> conv9_2_mbox_loc_flat
I0920 11:17:57.194443 23603 net.cpp:150] Setting up conv9_2_mbox_loc_flat
I0920 11:17:57.194447 23603 net.cpp:157] Top shape: 16 32 (512)
I0920 11:17:57.194450 23603 net.cpp:165] Memory required for data: 4436268896
I0920 11:17:57.194453 23603 layer_factory.hpp:77] Creating layer conv9_2_mbox_conf
I0920 11:17:57.194459 23603 net.cpp:100] Creating Layer conv9_2_mbox_conf
I0920 11:17:57.194463 23603 net.cpp:434] conv9_2_mbox_conf <- conv9_2_conv9_2_relu_0_split_1
I0920 11:17:57.194466 23603 net.cpp:408] conv9_2_mbox_conf -> conv9_2_mbox_conf
I0920 11:17:57.196161 23603 net.cpp:150] Setting up conv9_2_mbox_conf
I0920 11:17:57.196168 23603 net.cpp:157] Top shape: 16 8 1 2 (256)
I0920 11:17:57.196172 23603 net.cpp:165] Memory required for data: 4436269920
I0920 11:17:57.196177 23603 layer_factory.hpp:77] Creating layer conv9_2_mbox_conf_perm
I0920 11:17:57.196182 23603 net.cpp:100] Creating Layer conv9_2_mbox_conf_perm
I0920 11:17:57.196184 23603 net.cpp:434] conv9_2_mbox_conf_perm <- conv9_2_mbox_conf
I0920 11:17:57.196189 23603 net.cpp:408] conv9_2_mbox_conf_perm -> conv9_2_mbox_conf_perm
I0920 11:17:57.196296 23603 net.cpp:150] Setting up conv9_2_mbox_conf_perm
I0920 11:17:57.196301 23603 net.cpp:157] Top shape: 16 1 2 8 (256)
I0920 11:17:57.196305 23603 net.cpp:165] Memory required for data: 4436270944
I0920 11:17:57.196306 23603 layer_factory.hpp:77] Creating layer conv9_2_mbox_conf_flat
I0920 11:17:57.196310 23603 net.cpp:100] Creating Layer conv9_2_mbox_conf_flat
I0920 11:17:57.196313 23603 net.cpp:434] conv9_2_mbox_conf_flat <- conv9_2_mbox_conf_perm
I0920 11:17:57.196316 23603 net.cpp:408] conv9_2_mbox_conf_flat -> conv9_2_mbox_conf_flat
I0920 11:17:57.196339 23603 net.cpp:150] Setting up conv9_2_mbox_conf_flat
I0920 11:17:57.196343 23603 net.cpp:157] Top shape: 16 16 (256)
I0920 11:17:57.196346 23603 net.cpp:165] Memory required for data: 4436271968
I0920 11:17:57.196348 23603 layer_factory.hpp:77] Creating layer conv9_2_mbox_priorbox
I0920 11:17:57.196352 23603 net.cpp:100] Creating Layer conv9_2_mbox_priorbox
I0920 11:17:57.196355 23603 net.cpp:434] conv9_2_mbox_priorbox <- conv9_2_conv9_2_relu_0_split_2
I0920 11:17:57.196367 23603 net.cpp:434] conv9_2_mbox_priorbox <- data_data_0_split_6
I0920 11:17:57.196373 23603 net.cpp:408] conv9_2_mbox_priorbox -> conv9_2_mbox_priorbox
I0920 11:17:57.196396 23603 net.cpp:150] Setting up conv9_2_mbox_priorbox
I0920 11:17:57.196400 23603 net.cpp:157] Top shape: 1 2 32 (64)
I0920 11:17:57.196403 23603 net.cpp:165] Memory required for data: 4436272224
I0920 11:17:57.196405 23603 layer_factory.hpp:77] Creating layer mbox_loc
I0920 11:17:57.196410 23603 net.cpp:100] Creating Layer mbox_loc
I0920 11:17:57.196413 23603 net.cpp:434] mbox_loc <- conv4_3_norm_mbox_loc_flat
I0920 11:17:57.196418 23603 net.cpp:434] mbox_loc <- fc7_mbox_loc_flat
I0920 11:17:57.196420 23603 net.cpp:434] mbox_loc <- conv6_2_mbox_loc_flat
I0920 11:17:57.196424 23603 net.cpp:434] mbox_loc <- conv7_2_mbox_loc_flat
I0920 11:17:57.196426 23603 net.cpp:434] mbox_loc <- conv8_2_mbox_loc_flat
I0920 11:17:57.196429 23603 net.cpp:434] mbox_loc <- conv9_2_mbox_loc_flat
I0920 11:17:57.196434 23603 net.cpp:408] mbox_loc -> mbox_loc
I0920 11:17:57.196458 23603 net.cpp:150] Setting up mbox_loc
I0920 11:17:57.196462 23603 net.cpp:157] Top shape: 16 38168 (610688)
I0920 11:17:57.196465 23603 net.cpp:165] Memory required for data: 4438714976
I0920 11:17:57.196468 23603 layer_factory.hpp:77] Creating layer mbox_conf
I0920 11:17:57.196472 23603 net.cpp:100] Creating Layer mbox_conf
I0920 11:17:57.196475 23603 net.cpp:434] mbox_conf <- conv4_3_norm_mbox_conf_flat
I0920 11:17:57.196477 23603 net.cpp:434] mbox_conf <- fc7_mbox_conf_flat
I0920 11:17:57.196480 23603 net.cpp:434] mbox_conf <- conv6_2_mbox_conf_flat
I0920 11:17:57.196483 23603 net.cpp:434] mbox_conf <- conv7_2_mbox_conf_flat
I0920 11:17:57.196485 23603 net.cpp:434] mbox_conf <- conv8_2_mbox_conf_flat
I0920 11:17:57.196488 23603 net.cpp:434] mbox_conf <- conv9_2_mbox_conf_flat
I0920 11:17:57.196493 23603 net.cpp:408] mbox_conf -> mbox_conf
I0920 11:17:57.196513 23603 net.cpp:150] Setting up mbox_conf
I0920 11:17:57.196517 23603 net.cpp:157] Top shape: 16 19084 (305344)
I0920 11:17:57.196521 23603 net.cpp:165] Memory required for data: 4439936352
I0920 11:17:57.196522 23603 layer_factory.hpp:77] Creating layer mbox_priorbox
I0920 11:17:57.196527 23603 net.cpp:100] Creating Layer mbox_priorbox
I0920 11:17:57.196528 23603 net.cpp:434] mbox_priorbox <- conv4_3_norm_mbox_priorbox
I0920 11:17:57.196532 23603 net.cpp:434] mbox_priorbox <- fc7_mbox_priorbox
I0920 11:17:57.196534 23603 net.cpp:434] mbox_priorbox <- conv6_2_mbox_priorbox
I0920 11:17:57.196537 23603 net.cpp:434] mbox_priorbox <- conv7_2_mbox_priorbox
I0920 11:17:57.196540 23603 net.cpp:434] mbox_priorbox <- conv8_2_mbox_priorbox
I0920 11:17:57.196542 23603 net.cpp:434] mbox_priorbox <- conv9_2_mbox_priorbox
I0920 11:17:57.196545 23603 net.cpp:408] mbox_priorbox -> mbox_priorbox
I0920 11:17:57.196566 23603 net.cpp:150] Setting up mbox_priorbox
I0920 11:17:57.196570 23603 net.cpp:157] Top shape: 1 2 38168 (76336)
I0920 11:17:57.196573 23603 net.cpp:165] Memory required for data: 4440241696
I0920 11:17:57.196576 23603 layer_factory.hpp:77] Creating layer mbox_loss
I0920 11:17:57.196583 23603 net.cpp:100] Creating Layer mbox_loss
I0920 11:17:57.196588 23603 net.cpp:434] mbox_loss <- mbox_loc
I0920 11:17:57.196589 23603 net.cpp:434] mbox_loss <- mbox_conf
I0920 11:17:57.196593 23603 net.cpp:434] mbox_loss <- mbox_priorbox
…
  top: "label"
  include {
    phase: TEST
  }
  transform_param {
    mean_value: 104
    mean_value: 117
    mean_value: 123
    resize_param {
      prob: 1
      resize_mode: WARP
      height: 288
      width: 352
      interp_mode: LINEAR
    }
  }
  data_param {
    source: "/media/ly/data/CarData/car352x288_splitKitti_MVT_indoor/lmdb/car352x288_splitKitti_MVT_indoor_test_lmdb"
    batch_size: 4
    backend: LMDB
  }
  annotated_data_param {
    batch_sampler {
    }
    label_map_file: "data/car352x288_splitKitti_MVT_indoor/labelmap_voc.prototxt"
  }
}
layer {
  name: "conv1_1"
  type: "Convolution"
  bottom: "data"
  top: "conv1_1"
  param {
    lr_mult: 1
    decay_mult: 1
  }
  param {
    lr_mult: 2
    decay_mult: 0
  }
  convolution_param {
    num_output: 64
    pad: 1
    kernel_size: 3
    weight_filler {
      type: "xavier"
    }
    bias_filler {
      type: "constant"
      value: 0
    }
  }
}
layer {
  name: "relu1_1"
  type: "ReLU"
  bottom: "conv1_1"
  top: "conv1_1"
}
layer {
  name: "conv1_2"
  type: "Convolution"
  bottom: "conv1_1"
  top: "conv1_2"
  param {
    lr_mult: 1
    decay_mult: 1
  }
  param {
    lr_mult: 2
    decay_mult: 0
  }
  convolution_param {
    num_output: 64
    pad: 1
    kernel_size: 3
    weight_filler {
      type: "xavier"
    }
    bias_filler {
      type: "constant"
      value: 0
    }
  }
}
layer {
  name: "relu1_2"
  type: "ReLU"
  bottom: "conv1_2"
  top: "conv1_2"
}
layer {
  name: "pool1"
  type: "Pooling"
  bottom: "conv1_2"
  top: "pool1"
  pooling_param {
    pool: MAX
    kernel_size: 2
    stride: 2
  }
}
layer {
  name: "conv2_1"
  type: "Convolution"
  bottom: "pool1"
  top: "conv2_1"
  param {
    lr_mult: 1
    decay_mult: 1
  }
  param {
    lr_mult: 2
    decay_mult: 0
  }
  convolution_param {
    num_output: 128
    pad: 1
    kernel_size: 3
    weight_filler {
      type: "xavier"
    }
    bias_filler {
      type: "constant"
      value: 0
    }
  }
}
layer {
  name: "relu2_1"
  type: "ReLU"
  bottom: "conv2_1"
  top: "conv2_1"
}
layer {
  name: "conv2_2"
  type: "Convolution"
  bottom: "conv2_1"
  top: "conv2_2"
  param {
    lr_mult: 1
    decay_mult: 1
  }
  param {
    lr_mult: 2
    decay_mult: 0
  }
  convolution_param {
    num_output: 128
    pad: 1
    kernel_size: 3
    weight_filler {
      type: "xavier"
    }
    bias_filler {
      type: "constant"
      value: 0
    }
  }
}
layer {
  name: "relu2_2"
  type: "ReLU"
  bottom: "conv2_2"
  top: "conv2_2"
}
layer {
  name: "pool2"
  type: "Pooling"
  bottom: "conv2_2"
  top: "pool2"
  pooling_param {
    pool: MAX
    kernel_size: 2
    stride: 2
  }
}
layer {
  name: "conv3_1"
  type: "Convolution"
  bottom: "pool2"
  top: "conv3_1"
  param {
    lr_mult: 1
    decay_mult: 1
  }
  param {
    lr_mult: 2
    decay_mult: 0
  }
  convolution_param {
    num_output: 256
    pad: 1
    kernel_size: 3
    weight_filler {
      type: "xavier"
    }
    bias_filler {
      type: "constant"
      value: 0
    }
  }
}
layer {
  name: "relu3_1"
  type: "ReLU"
  bottom: "conv3_1"
  top: "conv3_1"
}
layer {
  name: "conv3_2"
  type: "Convolution"
  bottom: "conv3_1"
  top: "conv3_2"
  param {
    lr_mult: 1
    decay_mult: 1
  }
  param {
    lr_mult: 2
    decay_mult: 0
  }
  convolution_param {
    num_output: 256
    pad: 1
    kernel_size: 3
    weight_filler {
      type: "xavier"
    }
    bias_filler {
      type: "constant"
      value: 0
    }
  }
}
layer {
  name: "relu3_2"
  type: "ReLU"
  bottom: "conv3_2"
  top: "conv3_2"
}
layer {
  name: "conv3_3"
  type: "Convolution"
  bottom: "conv3_2"
  top: "conv3_3"
  param {
    lr_mult: 1
    decay_mult: 1
  }
  param {
    lr_mult: 2
    decay_mult: 0
  }
  convolution_param {
    num_output: 256
    pad: 1
    kernel_size: 3
    weight_filler {
      type: "xavier"
    }
    bias_filler {
      type: "constant"
      value: 0
    }
  }
}
layer {
  name: "relu3_3"
  type: "ReLU"
  bottom: "conv3_3"
  top: "conv3_3"
}
layer {
  name: "pool3"
  type: "Pooling"
  bottom: "conv3_3"
  top: "pool3"
  pooling_param {
    pool: MAX
    kernel_size: 2
    stride: 2
  }
}
layer {
  name: "conv4_1"
  type: "Convolution"
  bottom: "pool3"
  top: "conv4_1"
  param {
    lr_mult: 1
    decay_mult: 1
  }
  param {
    lr_mult: 2
    decay_mult: 0
  }
  convolution_param {
    num_output: 512
    pad: 1
    kernel_size: 3
    weight_filler {
      type: "xavier"
    }
    bias_filler {
      type: "constant"
      value: 0
    }
  }
}
layer {
  name: "relu4_1"
  type: "ReLU"
  bottom: "conv4_1"
  top: "conv4_1"
}
layer {
  name: "conv4_2"
  type: "Convolution"
  bottom: "conv4_1"
  top: "conv4_2"
  param {
    lr_mult: 1
    decay_mult: 1
  }
  param {
    lr_mult: 2
    decay_mult: 0
  }
  convolution_param {
    num_output: 512
    pad: 1
    kernel_size: 3
    weight_filler {
      type: "xavier"
    }
    bias_filler {
      type: "constant"
      value: 0
    }
  }
}
layer {
  name: "relu4_2"
  type: "ReLU"
  bottom: "conv4_2"
  top: "conv4_2"
}
layer {
  name: "conv4_3"
  type: "Convolution"
  bottom: "conv4_2"
  top: "conv4_3"
  param {
    lr_mult: 1
    decay_mult: 1
  }
  param {
    lr_mult: 2
    decay_mult: 0
  }
  convolution_param {
    num_output: 512
    pad: 1
    kernel_size: 3
    weight_filler {
      type: "xavier"
    }
    bias_filler {
      type: "constant"
      value: 0
    }
  }
}
layer {
  name: "relu4_3"
  type: "ReLU"
  bottom: "conv4_3"
  top: "conv4_3"
}
layer {
  name: "pool4"
  type: "Pooling"
  bottom: "conv4_3"
  top: "pool4"
  pooling_param {
    pool: MAX
    kernel_size: 2
    stride: 2
  }
}
layer {
  name: "conv5_1"
  type: "Convolution"
  bottom: "pool4"
  top: "conv5_1"
  param {
    lr_mult: 1
    decay_mult: 1
  }
  param {
    lr_mult: 2
    decay_mult: 0
  }
  convolution_param {
    num_output: 512
    pad: 1
    kernel_size: 3
    weight_filler {
      type: "xavier"
    }
    bias_filler {
      type: "constant"
      value: 0
    }
    dilation: 1
  }
}
layer {
  name: "relu5_1"
  type: "ReLU"
  bottom: "conv5_1"
  top: "conv5_1"
}
layer {
  name: "conv5_2"
  type: "Convolution"
  bottom: "conv5_1"
  top: "conv5_2"
  param {
    lr_mult: 1
    decay_mult: 1
  }
  param {
    lr_mult: 2
    decay_mult: 0
  }
  convolution_param {
    num_output: 512
    pad: 1
    kernel_size: 3
    weight_filler {
      type: "xavier"
    }
    bias_filler {
      type: "constant"
      value: 0
    }
    dilation: 1
  }
}
layer {
  name: "relu5_2"
  type: "ReLU"
  bottom: "conv5_2"
  top: "conv5_2"
}
layer {
  name: "conv5_3"
  type: "Convolution"
  bottom: "conv5_2"
  top: "conv5_3"
  param {
    lr_mult: 1
    decay_mult: 1
  }
  param {
    lr_mult: 2
    decay_mult: 0
  }
  convolution_param {
    num_output: 512
    pad: 1
    kernel_size: 3
    weight_filler {
      type: "xavier"
    }
    bias_filler {
      type: "constant"
      value: 0
    }
    dilation: 1
  }
}
layer {
  name: "relu5_3"
  type: "ReLU"
  bottom: "conv5_3"
  top: "conv5_3"
}
layer {
  name: "pool5"
  type: "Pooling"
  bottom: "conv5_3"
  top: "pool5"
  pooling_param {
    pool: MAX
    kernel_size: 3
    stride: 1
    pad: 1
  }
}
layer {
  name: "fc6"
  type: "Convolution"
  bottom: "pool5"
  top: "fc6"
  param {
    lr_mult: 1
    decay_mult: 1
  }
  param {
    lr_mult: 2
    decay_mult: 0
  }
  convolution_param {
    num_output: 1024
    pad: 1
    kernel_size: 3
    weight_filler {
      type: "xavier"
    }
    bias_filler {
      type: "constant"
      value: 0
    }
    dilation: 1
  }
}
layer {
  name: "relu6"
  type: "ReLU"
  bottom: "fc6"
  top: "fc6"
}
layer {
  name: "fc7"
  type: "Convolution"
  bottom: "fc6"
  top: "fc7"
  param {
    lr_mult: 1
    decay_mult: 1
  }
  param {
    lr_mult: 2
    decay_mult: 0
  }
  convolution_param {
    num_output: 1024
    kernel_size: 1
    weight_filler {
      type: "xavier"
    }
    bias_filler {
      type: "constant"
      value: 0
    }
  }
}
layer {
  name: "relu7"
  type: "ReLU"
  bottom: "fc7"
  top: "fc7"
}
layer {
  name: "conv6_1"
  type: "Convolution"
  bottom: "fc7"
  top: "conv6_1"
  param {
    lr_mult: 1
    decay_mult: 1
  }
  param {
    lr_mult: 2
    decay_mult: 0
  }
  convolution_param {
    num_output: 256
    pad: 0
    kernel_size: 1
    stride: 1
    weight_filler {
      type: "xavier"
    }
    bias_filler {
      type: "constant"
      value: 0
    }
  }
}
layer {
  name: "conv6_1_relu"
  type: "ReLU"
  bottom: "conv6_1"
  top: "conv6_1"
}
layer {
  name: "conv6_2"
  type: "Convolution"
  bottom: "conv6_1"
  top: "conv6_2"
  param {
    lr_mult: 1
    decay_mult: 1
  }
  param {
    lr_mult: 2
    decay_mult: 0
  }
  convolution_param {
    num_output: 512
    pad: 1
    kernel_size: 3
    stride: 2
    weight_filler {
      type: "xavier"
    }
    bias_filler {
      type: "constant"
      value: 0
    }
  }
}
layer {
  name: "conv6_2_relu"
  type: "ReLU"
  bottom: "conv6_2"
  top: "conv6_2"
}
layer {
  name: "conv7_1"
  type: "Convolution"
  bottom: "conv6_2"
  top: "conv7_1"
  param {
    lr_mult: 1
    decay_mult: 1
  }
  param {
    lr_mult: 2
    decay_mult: 0
  }
  convolution_param {
    num_output: 128
    pad: 0
    kernel_size: 1
    stride: 1
    weight_filler {
      type: "xavier"
    }
    bias_filler {
      type: "constant"
      value: 0
    }
  }
}
layer {
  name: "conv7_1_relu"
  type: "ReLU"
  bottom: "conv7_1"
  top: "conv7_1"
}
layer {
  name: "conv7_2"
  type: "Convolution"
  bottom: "conv7_1"
  top: "conv7_2"
  param {
    lr_mult: 1
    decay_mult: 1
  }
  param {
    lr_mult: 2
    decay_mult: 0
  }
  convolution_param {
    num_output: 256
    pad: 1
    kernel_size: 3
    stride: 2
    weight_filler {
      type: "xavier"
    }
    bias_filler {
      type: "constant"
      value: 0
    }
  }
}
layer {
  name: "conv7_2_relu"
  type: "ReLU"
  bottom: "conv7_2"
  top: "conv7_2"
}
layer {
  name: "conv8_1"
  type: "Convolution"
  bottom: "conv7_2"
  top: "conv8_1"
  param {
    lr_mult: 1
    decay_mult: 1
  }
  param {
    lr_mult: 2
    decay_mult: 0
  }
  convolution_param {
    num_output: 128
    pad: 0
    kernel_size: 1
    stride: 1
    weight_filler {
      type: "xavier"
    }
    bias_filler {
      type: "constant"
      value: 0
    }
  }
}
layer {
  name: "conv8_1_relu"
  type: "ReLU"
  bottom: "conv8_1"
  top: "conv8_1"
}
layer {
  name: "conv8_2"
  type: "Convolution"
  bottom: "conv8_1"
  top: "conv8_2"
  param {
    lr_mult: 1
    decay_mult: 1
  }
  param {
    lr_mult: 2
    decay_mult: 0
  }
  convolution_param {
    num_output: 256
    pad: 0
    kernel_size: 3
    stride: 1
    weight_filler {
      type: "xavier"
    }
    bias_filler {
      type: "constant"
      value: 0
    }
  }
}
layer {
  name: "conv8_2_relu"
  type: "ReLU"
  bottom: "conv8_2"
  top: "conv8_2"
}
layer {
  name: "conv9_1"
  type: "Convolution"
  bottom: "conv8_2"
  top: "conv9_1"
  param {
    lr_mult: 1
    decay_mult: 1
  }
  param {
    lr_mult: 2
    decay_mult: 0
  }
  convolution_param {
    num_output: 128
    pad: 0
    kernel_size: 1
    stride: 1
    weight_filler {
      type: "xavier"
    }
    bias_filler {
      type: "constant"
      value: 0
    }
  }
}
layer {
  name: "conv9_1_relu"
  type: "ReLU"
  bottom: "conv9_1"
  top: "conv9_1"
}
layer {
  name: "conv9_2"
  type: "Convolution"
  bottom: "conv9_1"
  top: "conv9_2"
  param {
    lr_mult: 1
    decay_mult: 1
  }
  param {
    lr_mult: 2
    decay_mult: 0
  }
  convolution_param {
    num_output: 256
    pad: 0
    kernel_size: 3
    stride: 1
    weight_filler {
      type: "xavier"
    }
    bias_filler {
      type: "constant"
      value: 0
    }
  }
}
layer {
  name: "conv9_2_relu"
  type: "ReLU"
  bottom: "conv9_2"
  top: "conv9_2"
}
layer {
  name: "conv4_3_norm"
  type: "Normalize"
  bottom: "conv4_3"
  top: "conv4_3_norm"
  norm_param {
    across_spatial: false
    scale_filler {
      type: "constant"
      value: 20
    }
    channel_shared: false
  }
}
layer {
  name: "conv4_3_norm_mbox_loc"
  type: "Convolution"
  bottom: "conv4_3_norm"
  top: "conv4_3_norm_mbox_loc"
  param {
    lr_mult: 1
    decay_mult: 1
  }
  param {
    lr_mult: 2
    decay_mult: 0
  }
  convolution_param {
    num_output: 16
    pad: 1
    kernel_size: 3
    stride: 1
    weight_filler {
      type: "xavier"
    }
    bias_filler {
      type: "constant"
      value: 0
    }
  }
}
layer {
  name: "conv4_3_norm_mbox_loc_perm"
  type: "Permute"
  bottom: "conv4_3_norm_mbox_loc"
  top: "conv4_3_norm_mbox_loc_perm"
  permute_param {
    order: 0
    order: 2
    order: 3
    order: 1
  }
}
layer {
  name: "conv4_3_norm_mbox_loc_flat"
  type: "Flatten"
  bottom: "conv4_3_norm_mbox_loc_perm"
  top: "conv4_3_norm_mbox_loc_flat"
  flatten_param {
    axis: 1
  }
}
layer {
  name: "conv4_3_norm_mbox_conf"
  type: "Convolution"
  bottom: "conv4_3_norm"
  top: "conv4_3_norm_mbox_conf"
  param {
    lr_mult: 1
    decay_mult: 1
  }
  param {
    lr_mult: 2
    decay_mult: 0
  }
  convolution_param {
    num_output: 8
    pad: 1
    kernel_size: 3
    stride: 1
    weight_filler {
      type: "xavier"
    }
    bias_filler {
      type: "constant"
      value: 0
    }
  }
}
layer {
  name: "conv4_3_norm_mbox_conf_perm"
  type: "Permute"
  bottom: "conv4_3_norm_mbox_conf"
  top: "conv4_3_norm_mbox_conf_perm"
  permute_param {
    order: 0
    order: 2
    order: 3
    order: 1
  }
}
layer {
  name: "conv4_3_norm_mbox_conf_flat"
  type: "Flatten"
  bottom: "conv4_3_norm_mbox_conf_perm"
  top: "conv4_3_norm_mbox_conf_flat"
  flatten_param {
    axis: 1
  }
}
layer {
  name: "conv4_3_norm_mbox_priorbox"
  type: "PriorBox"
  bottom: "conv4_3_norm"
  bottom: "data"
  top: "conv4_3_norm_mbox_priorbox"
  prior_box_param {
    min_size: 30
    max_size: 60
    aspect_ratio: 2
    flip: true
    clip: false
    variance: 0.1
    variance: 0.1
    variance: 0.2
    variance: 0.2
    step: 8
    offset: 0.5
  }
}
layer {
  name: "fc7_mbox_loc"
  type: "Convolution"
  bottom: "fc7"
  top: "fc7_mbox_loc"
  param {
    lr_mult: 1
    decay_mult: 1
  }
  param {
    lr_mult: 2
    decay_mult: 0
  }
  convolution_param {
    num_output: 24
    pad: 1
    kernel_size: 3
    stride: 1
    weight_filler {
      type: "xavier"
    }
    bias_filler {
      type: "constant"
      value: 0
    }
  }
}
layer {
  name: "fc7_mbox_loc_perm"
  type: "Permute"
  bottom: "fc7_mbox_loc"
  top: "fc7_mbox_loc_perm"
  permute_param {
    order: 0
    order: 2
    order: 3
    order: 1
  }
}
layer {
  name: "fc7_mbox_loc_flat"
  type: "Flatten"
  bottom: "fc7_mbox_loc_perm"
  top: "fc7_mbox_loc_flat"
  flatten_param {
    axis: 1
  }
}
layer {
  name: "fc7_mbox_conf"
  type: "Convolution"
  bottom: "fc7"
  top: "fc7_mbox_conf"
  param {
    lr_mult: 1
    decay_mult: 1
  }
  param {
    lr_mult: 2
    decay_mult: 0
  }
  convolution_param {
    num_output: 12
    pad: 1
    kernel_size: 3
    stride: 1
    weight_filler {
      type: "xavier"
    }
    bias_filler {
      type: "constant"
      value: 0
    }
  }
}
layer {
  name: "fc7_mbox_conf_perm"
  type: "Permute"
  bottom: "fc7_mbox_conf"
  top: "fc7_mbox_conf_perm"
  permute_param {
    order: 0
    order: 2
    order: 3
    order: 1
  }
}
layer {
  name: "fc7_mbox_conf_flat"
  type: "Flatten"
  bottom: "fc7_mbox_conf_perm"
  top: "fc7_mbox_conf_flat"
  flatten_param {
    axis: 1
  }
}
layer {
  name: "fc7_mbox_priorbox"
  type: "PriorBox"
  bottom: "fc7"
  bottom: "data"
  top: "fc7_mbox_priorbox"
  prior_box_param {
    min_size: 60
    max_size: 111
    aspect_ratio: 2
    aspect_ratio: 3
    flip: true
    clip: false
    variance: 0.1
    variance: 0.1
    variance: 0.2
    variance: 0.2
    step: 16
    offset: 0.5
  }
}
layer {
  name: "conv6_2_mbox_loc"
  type: "Convolution"
  bottom: "conv6_2"
  top: "conv6_2_mbox_loc"
  param {
    lr_mult: 1
    decay_mult: 1
  }
  param {
    lr_mult: 2
    decay_mult: 0
  }
  convolution_param {
    num_output: 24
    pad: 1
    kernel_size: 3
    stride: 1
    weight_filler {
      type: "xavier"
    }
    bias_filler {
      type: "constant"
      value: 0
    }
  }
}
layer {
  name: "conv6_2_mbox_loc_perm"
  type: "Permute"
  bottom: "conv6_2_mbox_loc"
  top: "conv6_2_mbox_loc_perm"
  permute_param {
    order: 0
    order: 2
    order: 3
    order: 1
  }
}
layer {
  name: "conv6_2_mbox_loc_flat"
  type: "Flatten"
  bottom: "conv6_2_mbox_loc_perm"
  top: "conv6_2_mbox_loc_flat"
  flatten_param {
    axis: 1
  }
}
layer {
  name: "conv6_2_mbox_conf"
  type: "Convolution"
  bottom: "conv6_2"
  top: "conv6_2_mbox_conf"
  param {
    lr_mult: 1
    decay_mult: 1
  }
  param {
    lr_mult: 2
    decay_mult: 0
  }
  convolution_param {
    num_output: 12
    pad: 1
    kernel_size: 3
    stride: 1
    weight_filler {
      type: "xavier"
    }
    bias_filler {
      type: "constant"
      value: 0
    }
  }
}
layer {
  name: "conv6_2_mbox_conf_perm"
  type: "Permute"
  bottom: "conv6_2_mbox_conf"
  top: "conv6_2_mbox_conf_perm"
  permute_param {
    order: 0
    order: 2
    order: 3
    order: 1
  }
}
layer {
  name: "conv6_2_mbox_conf_flat"
  type: "Flatten"
  bottom: "conv6_2_mbox_conf_perm"
  top: "conv6_2_mbox_conf_flat"
  flatten_param {
    axis: 1
  }
}
layer {
  name: "conv6_2_mbox_priorbox"
  type: "PriorBox"
  bottom: "conv6_2"
  bottom: "data"
  top: "conv6_2_mbox_priorbox"
  prior_box_param {
    min_size: 111
    max_size: 162
    aspect_ratio: 2
    aspect_ratio: 3
    flip: true
    clip: false
    variance: 0.1
    variance: 0.1
    variance: 0.2
    variance: 0.2
    step: 32
    offset: 0.5
  }
}
layer {
  name: "conv7_2_mbox_loc"
  type: "Convolution"
  bottom: "conv7_2"
  top: "conv7_2_mbox_loc"
  param {
    lr_mult: 1
    decay_mult: 1
  }
  param {
    lr_mult: 2
    decay_mult: 0
  }
  convolution_param {
    num_output: 24
    pad: 1
    kernel_size: 3
    stride: 1
    weight_filler {
      type: "xavier"
    }
    bias_filler {
      type: "constant"
      value: 0
    }
  }
}
layer {
  name: "conv7_2_mbox_loc_perm"
  type: "Permute"
  bottom: "conv7_2_mbox_loc"
  top: "conv7_2_mbox_loc_perm"
  permute_param {
    order: 0
    order: 2
    order: 3
    order: 1
  }
}
layer {
  name: "conv7_2_mbox_loc_flat"
  type: "Flatten"
  bottom: "conv7_2_mbox_loc_perm"
  top: "conv7_2_mbox_loc_flat"
  flatten_param {
    axis: 1
  }
}
layer {
  name: "conv7_2_mbox_conf"
  type: "Convolution"
  bottom: "conv7_2"
  top: "conv7_2_mbox_conf"
  param {
    lr_mult: 1
    decay_mult: 1
  }
  param {
    lr_mult: 2
    decay_mult: 0
  }
  convolution_param {
    num_output: 12
    pad: 1
    kernel_size: 3
    stride: 1
    weight_filler {
      type: "xavier"
    }
    bias_filler {
      type: "constant"
      value: 0
    }
  }
}
layer {
  name: "conv7_2_mbox_conf_perm"
  type: "Permute"
  bottom: "conv7_2_mbox_conf"
  top: "conv7_2_mbox_conf_perm"
  permute_param {
    order: 0
    order: 2
    order: 3
    order: 1
  }
}
layer {
  name: "conv7_2_mbox_conf_flat"
  type: "Flatten"
  bottom: "conv7_2_mbox_conf_perm"
  top: "conv7_2_mbox_conf_flat"
  flatten_param {
    axis: 1
  }
}
layer {
  name: "conv7_2_mbox_priorbox"
  type: "PriorBox"
  bottom: "conv7_2"
  bottom: "data"
  top: "conv7_2_mbox_priorbox"
  prior_box_param {
    min_size: 162
    max_size: 213
    aspect_ratio: 2
    aspect_ratio: 3
    flip: true
    clip: false
    variance: 0.1
    variance: 0.1
    variance: 0.2
    variance: 0.2
    step: 64
    offset: 0.5
  }
}
layer {
  name: "conv8_2_mbox_loc"
  type: "Convolution"
  bottom: "conv8_2"
  top: "conv8_2_mbox_loc"
  param {
    lr_mult: 1
    decay_mult: 1
  }
  param {
    lr_mult: 2
    decay_mult: 0
  }
  convolution_param {
    num_output: 16
    pad: 1
    kernel_size: 3
    stride: 1
    weight_filler {
      type: "xavier"
    }
    bias_filler {
      type: "constant"
      value: 0
    }
  }
}
layer {
  name: "conv8_2_mbox_loc_perm"
  type: "Permute"
  bottom: "conv8_2_mbox_loc"
  top: "conv8_2_mbox_loc_perm"
  permute_param {
    order: 0
    order: 2
    order: 3
    order: 1
  }
}
layer {
  name: "conv8_2_mbox_loc_flat"
  type: "Flatten"
  bottom: "conv8_2_mbox_loc_perm"
  top: "conv8_2_mbox_loc_flat"
  flatten_param {
    axis: 1
  }
}
layer {
  name: "conv8_2_mbox_conf"
  type: "Convolution"
  bottom: "conv8_2"
  top: "conv8_2_mbox_conf"
  param {
    lr_mult: 1
    decay_mult: 1
  }
  param {
    lr_mult: 2
    decay_mult: 0
  }
  convolution_param {
    num_output: 8
    pad: 1
    kernel_size: 3
    stride: 1
    weight_filler {
      type: "xavier"
    }
    bias_filler {
      type: "constant"
      value: 0
    }
  }
}
layer {
  name: "conv8_2_mbox_conf_perm"
  type: "Permute"
  bottom: "conv8_2_mbox_conf"
  top: "conv8_2_mbox_conf_perm"
  permute_param {
    order: 0
    order: 2
    order: 3
    order: 1
  }
}
layer {
  name: "conv8_2_mbox_conf_flat"
  type: "Flatten"
  bottom: "conv8_2_mbox_conf_perm"
  top: "conv8_2_mbox_conf_flat"
  flatten_param {
    axis: 1
  }
}
layer {
  name: "conv8_2_mbox_priorbox"
  type: "PriorBox"
  bottom: "conv8_2"
  bottom: "data"
  top: "conv8_2_mbox_priorbox"
  prior_box_param {
    min_size: 213
    max_size: 264
    aspect_ratio: 2
    flip: true
    clip: false
    variance: 0.1
    variance: 0.1
    variance: 0.2
    variance: 0.2
    step: 100
    offset: 0.5
  }
}
layer {
  name: "conv9_2_mbox_loc"
  type: "Convolution"
  bottom: "conv9_2"
  top: "conv9_2_mbox_loc"
  param {
    lr_mult: 1
    decay_mult: 1
  }
  param {
    lr_mult: 2
    decay_mult: 0
  }
  convolution_param {
    num_output: 16
    pad: 1
    kernel_size: 3
    stride: 1
    weight_filler {
      type: "xavier"
    }
    bias_filler {
      type: "constant"
      value: 0
    }
  }
}
layer {
  name: "conv9_2_mbox_loc_perm"
  type: "Permute"
  bottom: "conv9_2_mbox_loc"
  top: "conv9_2_mbox_loc_perm"
  permute_param {
    order: 0
    order: 2
    order: 3
    order: 1
  }
}
layer {
  name: "conv9_2_mbox_loc_flat"
  type: "Flatten"
  bottom: "conv9_2_mbox_loc_perm"
  top: "conv9_2_mbox_loc_flat"
  flatten_param {
    axis: 1
  }
}
layer {
  name: "conv9_2_mbox_conf"
  type: "Convolution"
  bottom: "conv9_2"
  top: "conv9_2_mbox_conf"
  param {
    lr_mult: 1
    decay_mult: 1
  }
  param {
    lr_mult: 2
    decay_mult: 0
  }
  convolution_param {
    num_output: 8
    pad: 1
    kernel_size: 3
    stride: 1
    weight_filler {
      type: "xavier"
    }
    bias_filler {
      type: "constant"
      value: 0
    }
  }
}
layer {
  name: "conv9_2_mbox_conf_perm"
  type: "Permute"
  bottom: "conv9_2_mbox_conf"
  top: "conv9_2_mbox_conf_perm"
  permute_param {
    order: 0
    order: 2
    order: 3
    order: 1
  }
}
layer {
  name: "conv9_2_mbox_conf_flat"
  type: "Flatten"
  bottom: "conv9_2_mbox_conf_perm"
  top: "conv9_2_mbox_conf_flat"
  flatten_param {
    axis: 1
  }
}
layer {
  name: "conv9_2_mbox_priorbox"
  type: "PriorBox"
  bottom: "conv9_2"
  bottom: "data"
  top: "conv9_2_mbox_priorbox"
  prior_box_param {
    min_size: 264
    max_size: 315
    aspect_ratio: 2
    flip: true
    clip: false
    variance: 0.1
    variance: 0.1
    variance: 0.2
    variance: 0.2
    step: 300
    offset: 0.5
  }
}
layer {
  name: "mbox_loc"
  type: "Concat"
  bottom: "conv4_3_norm_mbox_loc_flat"
  bottom: "fc7_mbox_loc_flat"
  bottom: "conv6_2_mbox_loc_flat"
  bottom: "conv7_2_mbox_loc_flat"
  bottom: "conv8_2_mbox_loc_flat"
  bottom: "conv9_2_mbox_loc_flat"
  top: "mbox_loc"
  concat_param {
    axis: 1
  }
}
layer {
  name: "mbox_conf"
  type: "Concat"
  bottom: "conv4_3_norm_mbox_conf_flat"
  bottom: "fc7_mbox_conf_flat"
  bottom: "conv6_2_mbox_conf_flat"
  bottom: "conv7_2_mbox_conf_flat"
  bottom: "conv8_2_mbox_conf_flat"
  bottom: "conv9_2_mbox_conf_flat"
  top: "mbox_conf"
  concat_param {
    axis: 1
  }
}
layer {
  name: "mbox_priorbox"
  type: "Concat"
  bottom: "conv4_3_norm_mbox_priorbox"
  bottom: "fc7_mbox_priorbox"
  bottom: "conv6_2_mbox_priorbox"
  bottom: "conv7_2_mbox_priorbox"
  bottom: "conv8_2_mbox_priorbox"
  bottom: "conv9_2_mbox_priorbox"
  top: "mbox_priorbox"
  concat_param {
    axis: 2
  }
}
layer {
  name: "mbox_conf_reshape"
  type: "Reshape"
  bottom: "mbox_conf"
  top: "mbox_conf_reshape"
  reshape_param {
    shape {
      dim: 0
      dim: -1
      dim: 2
    }
  }
}
layer {
  name: "mbox_conf_softmax"
  type: "Softmax"
  bottom: "mbox_conf_reshape"
  top: "mbox_conf_softmax"
  softmax_param {
    axis: 2
  }
}
layer {
  name: "mbox_conf_flatten"
  type: "Flatten"
  bottom: "mbox_conf_softmax"
  top: "mbox_conf_flatten"
  flatten_param {
    axis: 1
  }
}
layer {
  name: "detection_out"
  type: "DetectionOutput"
  bottom: "mbox_loc"
  bottom: "mbox_conf_flatten"
  bottom: "mbox_priorbox"
  top: "detection_out"
  include {
    phase: TEST
  }
  detection_output_param {
    num_classes: 2
    share_location: true
    background_label_id: 0
    nms_param {
      nms_threshold: 0.45
      top_k: 400
    }
    save_output_param {
      output_directory: "/home/ly/data/VOCdevkit/results/car352x288_splitKitti_MVT_indoor/SSD_352x288/Main"
      output_name_prefix: "comp4_det_test_"
      output_format: "VOC"
      label_map_file: "data/car352x288_splitKitti_MVT_indoor/labelmap_voc.prototxt"
      name_size_file: "data/car352x288_splitKitti_MVT_indoor/test_name_size.txt"
      num_test_image: 6423
    }
    code_type: CENTER_SIZE
    keep_top_k: 200
    confidence_threshold: 0.01
  }
}
layer {
  name: "detection_eval"
  type: "DetectionEvaluate"
  bottom: "detection_out"
  bottom: "label"
  top: "detection_eval"
  include {
    phase: TEST
  }
  detection_evaluate_param {
    num_classes: 2
    background_label_id: 0
    overlap_threshold: 0.5
    evaluate_difficult_gt: false
    name_size_file: "data/car352x288_splitKitti_MVT_indoor/test_name_size.txt"
  }
}
I0920 11:17:57.198801 23603 layer_factory.hpp:77] Creating layer data
I0920 11:17:57.198930 23603 net.cpp:100] Creating Layer data
I0920 11:17:57.198936 23603 net.cpp:408] data -> data
I0920 11:17:57.198943 23603 net.cpp:408] data -> label
I0920 11:17:57.199728 23635 db_lmdb.cpp:35] Opened lmdb /media/ly/data/CarData/car352x288_splitKitti_MVT_indoor/lmdb/car352x288_splitKitti_MVT_indoor_test_lmdb
I0920 11:17:57.200697 23603 annotated_data_layer.cpp:62] output data size: 4,3,288,352
I0920 11:17:57.205782 23603 net.cpp:150] Setting up data
I0920 11:17:57.205797 23603 net.cpp:157] Top shape: 4 3 288 352 (1216512)
I0920 11:17:57.205803 23603 net.cpp:157] Top shape: 1 1 7 8 (56)
I0920 11:17:57.205806 23603 net.cpp:165] Memory required for data: 4866272
I0920 11:17:57.205811 23603 layer_factory.hpp:77] Creating layer data_data_0_split
I0920 11:17:57.205819 23603 net.cpp:100] Creating Layer data_data_0_split
I0920 11:17:57.205823 23603 net.cpp:434] data_data_0_split <- data
I0920 11:17:57.205829 23603 net.cpp:408] data_data_0_split -> data_data_0_split_0
I0920 11:17:57.205837 23603 net.cpp:408] data_data_0_split -> data_data_0_split_1
I0920 11:17:57.205843 23603 net.cpp:408] data_data_0_split -> data_data_0_split_2
I0920 11:17:57.205848 23603 net.cpp:408] data_data_0_split -> data_data_0_split_3
I0920 11:17:57.205855 23603 net.cpp:408] data_data_0_split -> data_data_0_split_4
I0920 11:17:57.205862 23603 net.cpp:408] data_data_0_split -> data_data_0_split_5
I0920 11:17:57.205868 23603 net.cpp:408] data_data_0_split -> data_data_0_split_6
I0920 11:17:57.206056 23603 net.cpp:150] Setting up data_data_0_split
I0920 11:17:57.206063 23603 net.cpp:157] Top shape: 4 3 288 352 (1216512)
I0920 11:17:57.206066 23603 net.cpp:157] Top shape: 4 3 288 352 (1216512)
I0920 11:17:57.206069 23603 net.cpp:157] Top shape: 4 3 288 352 (1216512)
I0920 11:17:57.206071 23603 net.cpp:157] Top shape: 4 3 288 352 (1216512)
I0920 11:17:57.206074 23603 net.cpp:157] Top shape: 4 3 288 352 (1216512)
I0920 11:17:57.206076 23603 net.cpp:157] Top shape: 4 3 288 352 (1216512)
I0920 11:17:57.206079 23603 net.cpp:157] Top shape: 4 3 288 352 (1216512)
I0920 11:17:57.206082 23603 net.cpp:165] Memory required for data: 38928608
I0920 11:17:57.206084 23603 layer_factory.hpp:77] Creating layer conv1_1
I0920 11:17:57.206094 23603 net.cpp:100] Creating Layer conv1_1
I0920 11:17:57.206097 23603 net.cpp:434] conv1_1 <- data_data_0_split_0
I0920 11:17:57.206102 23603 net.cpp:408] conv1_1 -> conv1_1
I0920 11:17:57.209250 23603 net.cpp:150] Setting up conv1_1
I0920 11:17:57.209259 23603 net.cpp:157] Top shape: 4 64 288 352 (25952256)
I0920 11:17:57.209264 23603 net.cpp:165] Memory required for data: 142737632
I0920 11:17:57.209272 23603 layer_factory.hpp:77] Creating layer relu1_1
I0920 11:17:57.209276 23603 net.cpp:100] Creating Layer relu1_1
I0920 11:17:57.209280 23603 net.cpp:434] relu1_1 <- conv1_1
I0920 11:17:57.209283 23603 net.cpp:395] relu1_1 -> conv1_1 (in-place)
I0920 11:17:57.209676 23603 net.cpp:150] Setting up relu1_1
I0920 11:17:57.209682 23603 net.cpp:157] Top shape: 4 64 288 352 (25952256)
I0920 11:17:57.209686 23603 net.cpp:165] Memory required for data: 246546656
I0920 11:17:57.209688 23603 layer_factory.hpp:77] Creating layer conv1_2
I0920 11:17:57.209697 23603 net.cpp:100] Creating Layer conv1_2
I0920 11:17:57.209700 23603 net.cpp:434] conv1_2 <- conv1_1
I0920 11:17:57.209703 23603 net.cpp:408] conv1_2 -> conv1_2
I0920 11:17:57.212056 23603 net.cpp:150] Setting up conv1_2
I0920 11:17:57.212065 23603 net.cpp:157] Top shape: 4 64 288 352 (25952256)
I0920 11:17:57.212069 23603 net.cpp:165] Memory required for data: 350355680
I0920 11:17:57.212074 23603 layer_factory.hpp:77] Creating layer relu1_2
I0920 11:17:57.212080 23603 net.cpp:100] Creating Layer relu1_2
I0920 11:17:57.212081 23603 net.cpp:434] relu1_2 <- conv1_2
I0920 11:17:57.212086 23603 net.cpp:395] relu1_2 -> conv1_2 (in-place)
I0920 11:17:57.212602 23603 net.cpp:150] Setting up relu1_2
I0920 11:17:57.212610 23603 net.cpp:157] Top shape: 4 64 288 352 (25952256)
I0920 11:17:57.212613 23603 net.cpp:165] Memory required for data: 454164704
I0920 11:17:57.212615 23603 layer_factory.hpp:77] Creating layer pool1
I0920 11:17:57.212622 23603 net.cpp:100] Creating Layer pool1
I0920 11:17:57.212625 23603 net.cpp:434] pool1 <- conv1_2
I0920 11:17:57.212628 23603 net.cpp:408] pool1 -> pool1
I0920 11:17:57.212677 23603 net.cpp:150] Setting up pool1
I0920 11:17:57.212682 23603 net.cpp:157] Top shape: 4 64 144 176 (6488064)
I0920 11:17:57.212685 23603 net.cpp:165] Memory required for data: 480116960
I0920 11:17:57.212687 23603 layer_factory.hpp:77] Creating layer conv2_1
I0920 11:17:57.212694 23603 net.cpp:100] Creating Layer conv2_1
I0920 11:17:57.212697 23603 net.cpp:434] conv2_1 <- pool1
I0920 11:17:57.212702 23603 net.cpp:408] conv2_1 -> conv2_1
I0920 11:17:57.215731 23603 net.cpp:150] Setting up conv2_1
I0920 11:17:57.215740 23603 net.cpp:157] Top shape: 4 128 144 176 (12976128)
I0920 11:17:57.215745 23603 net.cpp:165] Memory required for data: 532021472
I0920 11:17:57.215752 23603 layer_factory.hpp:77] Creating layer relu2_1
I0920 11:17:57.215757 23603 net.cpp:100] Creating Layer relu2_1
I0920 11:17:57.215760 23603 net.cpp:434] relu2_1 <- conv2_1
I0920 11:17:57.215765 23603 net.cpp:395] relu2_1 -> conv2_1 (in-place)
I0920 11:17:57.216152 23603 net.cpp:150] Setting up relu2_1
I0920 11:17:57.216159 23603 net.cpp:157] Top shape: 4 128 144 176 (12976128)
I0920 11:17:57.216162 23603 net.cpp:165] Memory required for data: 583925984
I0920 11:17:57.216166 23603 layer_factory.hpp:77] Creating layer conv2_2
I0920 11:17:57.216174 23603 net.cpp:100] Creating Layer conv2_2
I0920 11:17:57.216193 23603 net.cpp:434] conv2_2 <- conv2_1
I0920 11:17:57.216198 23603 net.cpp:408] conv2_2 -> conv2_2
I0920 11:17:57.218513 23603 net.cpp:150] Setting up conv2_2
I0920 11:17:57.218520 23603 net.cpp:157] Top shape: 4 128 144 176 (12976128)
I0920 11:17:57.218524 23603 net.cpp:165] Memory required for data: 635830496
I0920 11:17:57.218529 23603 layer_factory.hpp:77] Creating layer relu2_2
I0920 11:17:57.218533 23603 net.cpp:100] Creating Layer relu2_2
I0920 11:17:57.218536 23603 net.cpp:434] relu2_2 <- conv2_2
I0920 11:17:57.218541 23603 net.cpp:395] relu2_2 -> conv2_2 (in-place)
I0920 11:17:57.219045 23603 net.cpp:150] Setting up relu2_2
I0920 11:17:57.219053 23603 net.cpp:157] Top shape: 4 128 144 176 (12976128)
I0920 11:17:57.219056 23603 net.cpp:165] Memory required for data: 687735008
I0920 11:17:57.219059 23603 layer_factory.hpp:77] Creating layer pool2
I0920 11:17:57.219071 23603 net.cpp:100] Creating Layer pool2
I0920 11:17:57.219074 23603 net.cpp:434] pool2 <- conv2_2
I0920 11:17:57.219079 23603 net.cpp:408] pool2 -> pool2
I0920 11:17:57.219125 23603 net.cpp:150] Setting up pool2
I0920 11:17:57.219128 23603 net.cpp:157] Top shape: 4 128 72 88 (3244032)
I0920 11:17:57.219131 23603 net.cpp:165] Memory required for data: 700711136
I0920 11:17:57.219135 23603 layer_factory.hpp:77] Creating layer conv3_1
I0920 11:17:57.219139 23603 net.cpp:100] Creating Layer conv3_1
I0920 11:17:57.219142 23603 net.cpp:434] conv3_1 <- pool2
I0920 11:17:57.219146 23603 net.cpp:408] conv3_1 -> conv3_1
I0920 11:17:57.222472 23603 net.cpp:150] Setting up conv3_1
I0920 11:17:57.222481 23603 net.cpp:157] Top shape: 4 256 72 88 (6488064)
I0920 11:17:57.222486 23603 net.cpp:165] Memory required for data: 726663392
I0920 11:17:57.222492 23603 layer_factory.hpp:77] Creating layer relu3_1
I0920 11:17:57.222498 23603 net.cpp:100] Creating Layer relu3_1
I0920 11:17:57.222501 23603 net.cpp:434] relu3_1 <- conv3_1
I0920 11:17:57.222504 23603 net.cpp:395] relu3_1 -> conv3_1 (in-place)
I0920 11:17:57.222901 23603 net.cpp:150] Setting up relu3_1
I0920 11:17:57.222908 23603 net.cpp:157] Top shape: 4 256 72 88 (6488064)
I0920 11:17:57.222911 23603 net.cpp:165] Memory required for data: 752615648
I0920 11:17:57.222914 23603 layer_factory.hpp:77] Creating layer conv3_2
I0920 11:17:57.222923 23603 net.cpp:100] Creating Layer conv3_2
I0920 11:17:57.222925 23603 net.cpp:434] conv3_2 <- conv3_1
I0920 11:17:57.222929 23603 net.cpp:408] conv3_2 -> conv3_2
I0920 11:17:57.228593 23603 net.cpp:150] Setting up conv3_2
I0920 11:17:57.228606 23603 net.cpp:157] Top shape: 4 256 72 88 (6488064)
I0920 11:17:57.228612 23603 net.cpp:165] Memory required for data: 778567904
I0920 11:17:57.228621 23603 layer_factory.hpp:77] Creating layer relu3_2
I0920 11:17:57.228627 23603 net.cpp:100] Creating Layer relu3_2
I0920 11:17:57.228631 23603 net.cpp:434] relu3_2 <- conv3_2
I0920 11:17:57.228636 23603 net.cpp:395] relu3_2 -> conv3_2 (in-place)
I0920 11:17:57.229019 23603 net.cpp:150] Setting up relu3_2
I0920 11:17:57.229027 23603 net.cpp:157] Top shape: 4 256 72 88 (6488064)
I0920 11:17:57.229030 23603 net.cpp:165] Memory required for data: 804520160
I0920 11:17:57.229033 23603 layer_factory.hpp:77] Creating layer conv3_3
I0920 11:17:57.229044 23603 net.cpp:100] Creating Layer conv3_3
I0920 11:17:57.229048 23603 net.cpp:434] conv3_3 <- conv3_2
I0920 11:17:57.229053 23603 net.cpp:408] conv3_3 -> conv3_3
I0920 11:17:57.233428 23603 net.cpp:150] Setting up conv3_3
I0920 11:17:57.233436 23603 net.cpp:157] Top shape: 4 256 72 88 (6488064)
I0920 11:17:57.233441 23603 net.cpp:165] Memory required for data: 830472416
I0920 11:17:57.233448 23603 layer_factory.hpp:77] Creating layer relu3_3
I0920 11:17:57.233453 23603 net.cpp:100] Creating Layer relu3_3
I0920 11:17:57.233455 23603 net.cpp:434] relu3_3 <- conv3_3
I0920 11:17:57.233458 23603 net.cpp:395] relu3_3 -> conv3_3 (in-place)
I0920 11:17:57.233968 23603 net.cpp:150] Setting up relu3_3
I0920 11:17:57.233974 23603 net.cpp:157] Top shape: 4 256 72 88 (6488064)
I0920 11:17:57.233978 23603 net.cpp:165] Memory required for data: 856424672
I0920 11:17:57.233997 23603 layer_factory.hpp:77] Creating layer pool3
I0920 11:17:57.234009 23603 net.cpp:100] Creating Layer pool3
I0920 11:17:57.234011 23603 net.cpp:434] pool3 <- conv3_3
I0920 11:17:57.234015 23603 net.cpp:408] pool3 -> pool3
I0920 11:17:57.234064 23603 net.cpp:150] Setting up pool3
I0920 11:17:57.234068 23603 net.cpp:157] Top shape: 4 256 36 44 (1622016)
I0920 11:17:57.234071 23603 net.cpp:165] Memory required for data: 862912736
I0920 11:17:57.234074 23603 layer_factory.hpp:77] Creating layer conv4_1
I0920 11:17:57.234081 23603 net.cpp:100] Creating Layer conv4_1
I0920 11:17:57.234084 23603 net.cpp:434] conv4_1 <- pool3
I0920 11:17:57.234088 23603 net.cpp:408] conv4_1 -> conv4_1
I0920 11:17:57.242231 23603 net.cpp:150] Setting up conv4_1
I0920 11:17:57.242246 23603 net.cpp:157] Top shape: 4 512 36 44 (3244032)
I0920 11:17:57.242251 23603 net.cpp:165] Memory required for data: 875888864
I0920 11:17:57.242257 23603 layer_factory.hpp:77] Creating layer relu4_1
I0920 11:17:57.242264 23603 net.cpp:100] Creating Layer relu4_1
I0920 11:17:57.242269 23603 net.cpp:434] relu4_1 <- conv4_1
I0920 11:17:57.242274 23603 net.cpp:395] relu4_1 -> conv4_1 (in-place)
I0920 11:17:57.242671 23603 net.cpp:150] Setting up relu4_1
I0920 11:17:57.242678 23603 net.cpp:157] Top shape: 4 512 36 44 (3244032)
I0920 11:17:57.242681 23603 net.cpp:165] Memory required for data: 888864992
I0920 11:17:57.242684 23603 layer_factory.hpp:77] Creating layer conv4_2
I0920 11:17:57.242694 23603 net.cpp:100] Creating Layer conv4_2
I0920 11:17:57.242697 23603 net.cpp:434] conv4_2 <- conv4_1
I0920 11:17:57.242702 23603 net.cpp:408] conv4_2 -> conv4_2
I0920 11:17:57.254627 23603 net.cpp:150] Setting up conv4_2
I0920 11:17:57.254642 23603 net.cpp:157] Top shape: 4 512 36 44 (3244032)
I0920 11:17:57.254647 23603 net.cpp:165] Memory required for data: 901841120
I0920 11:17:57.254654 23603 layer_factory.hpp:77] Creating layer relu4_2
I0920 11:17:57.254660 23603 net.cpp:100] Creating Layer relu4_2
I0920 11:17:57.254663 23603 net.cpp:434] relu4_2 <- conv4_2
I0920 11:17:57.254667 23603 net.cpp:395] relu4_2 -> conv4_2 (in-place)
I0920 11:17:57.255218 23603 net.cpp:150] Setting up relu4_2
I0920 11:17:57.255225 23603 net.cpp:157] Top shape: 4 512 36 44 (3244032)
I0920 11:17:57.255229 23603 net.cpp:165] Memory required for data: 914817248
I0920 11:17:57.255232 23603 layer_factory.hpp:77] Creating layer conv4_3
I0920 11:17:57.255241 23603 net.cpp:100] Creating Layer conv4_3
I0920 11:17:57.255244 23603 net.cpp:434] conv4_3 <- conv4_2
I0920 11:17:57.255249 23603 net.cpp:408] conv4_3 -> conv4_3
I0920 11:17:57.266965 23603 net.cpp:150] Setting up conv4_3
I0920 11:17:57.266983 23603 net.cpp:157] Top shape: 4 512 36 44 (3244032)
I0920 11:17:57.266988 23603 net.cpp:165] Memory required for data: 927793376
I0920 11:17:57.266994 23603 layer_factory.hpp:77] Creating layer relu4_3
I0920 11:17:57.267002 23603 net.cpp:100] Creating Layer relu4_3
I0920 11:17:57.267005 23603 net.cpp:434] relu4_3 <- conv4_3
I0920 11:17:57.267010 23603 net.cpp:395] relu4_3 -> conv4_3 (in-place)
I0920 11:17:57.267403 23603 net.cpp:150] Setting up relu4_3
I0920 11:17:57.267411 23603 net.cpp:157] Top shape: 4 512 36 44 (3244032)
I0920 11:17:57.267416 23603 net.cpp:165] Memory required for data: 940769504
I0920 11:17:57.267418 23603 layer_factory.hpp:77] Creating layer conv4_3_relu4_3_0_split
I0920 11:17:57.267426 23603 net.cpp:100] Creating Layer conv4_3_relu4_3_0_split
I0920 11:17:57.267427 23603 net.cpp:434] conv4_3_relu4_3_0_split <- conv4_3
I0920 11:17:57.267431 23603 net.cpp:408] conv4_3_relu4_3_0_split -> conv4_3_relu4_3_0_split_0
I0920 11:17:57.267436 23603 net.cpp:408] conv4_3_relu4_3_0_split -> conv4_3_relu4_3_0_split_1
I0920 11:17:57.267484 23603 net.cpp:150] Setting up conv4_3_relu4_3_0_split
I0920 11:17:57.267488 23603 net.cpp:157] Top shape: 4 512 36 44 (3244032)
I0920 11:17:57.267491 23603 net.cpp:157] Top shape: 4 512 36 44 (3244032)
I0920 11:17:57.267494 23603 net.cpp:165] Memory required for data: 966721760
I0920 11:17:57.267496 23603 layer_factory.hpp:77] Creating layer pool4
I0920 11:17:57.267515 23603 net.cpp:100] Creating Layer pool4
I0920 11:17:57.267518 23603 net.cpp:434] pool4 <- conv4_3_relu4_3_0_split_0
I0920 11:17:57.267524 23603 net.cpp:408] pool4 -> pool4
I0920 11:17:57.267565 23603 net.cpp:150] Setting up pool4
I0920 11:17:57.267568 23603 net.cpp:157] Top shape: 4 512 18 22 (811008)
I0920 11:17:57.267572 23603 net.cpp:165] Memory required for data: 969965792
I0920 11:17:57.267575 23603 layer_factory.hpp:77] Creating layer conv5_1
I0920 11:17:57.267583 23603 net.cpp:100] Creating Layer conv5_1
I0920 11:17:57.267586 23603 net.cpp:434] conv5_1 <- pool4
I0920 11:17:57.267590 23603 net.cpp:408] conv5_1 -> conv5_1
I0920 11:17:57.280418 23603 net.cpp:150] Setting up conv5_1
I0920 11:17:57.280433 23603 net.cpp:157] Top shape: 4 512 18 22 (811008)
I0920 11:17:57.280441 23603 net.cpp:165] Memory required for data: 973209824
I0920 11:17:57.280447 23603 layer_factory.hpp:77] Creating layer relu5_1
I0920 11:17:57.280454 23603 net.cpp:100] Creating Layer relu5_1
I0920 11:17:57.280458 23603 net.cpp:434] relu5_1 <- conv5_1
I0920 11:17:57.280463 23603 net.cpp:395] relu5_1 -> conv5_1 (in-place)
I0920 11:17:57.280846 23603 net.cpp:150] Setting up relu5_1
I0920 11:17:57.280853 23603 net.cpp:157] Top shape: 4 512 18 22 (811008)
I0920 11:17:57.280858 23603 net.cpp:165] Memory required for data: 976453856
I0920 11:17:57.280859 23603 layer_factory.hpp:77] Creating layer conv5_2
I0920 11:17:57.280872 23603 net.cpp:100] Creating Layer conv5_2
I0920 11:17:57.280875 23603 net.cpp:434] conv5_2 <- conv5_1
I0920 11:17:57.280880 23603 net.cpp:408] conv5_2 -> conv5_2
I0920 11:17:57.292788 23603 net.cpp:150] Setting up conv5_2
I0920 11:17:57.292805 23603 net.cpp:157] Top shape: 4 512 18 22 (811008)
I0920 11:17:57.292810 23603 net.cpp:165] Memory required for data: 979697888
I0920 11:17:57.292817 23603 layer_factory.hpp:77] Creating layer relu5_2
I0920 11:17:57.292824 23603 net.cpp:100] Creating Layer relu5_2
I0920 11:17:57.292827 23603 net.cpp:434] relu5_2 <- conv5_2
I0920 11:17:57.292832 23603 net.cpp:395] relu5_2 -> conv5_2 (in-place)
I0920 11:17:57.293349 23603 net.cpp:150] Setting up relu5_2
I0920 11:17:57.293355 23603 net.cpp:157] Top shape: 4 512 18 22 (811008)
I0920 11:17:57.293359 23603 net.cpp:165] Memory required for data: 982941920
I0920 11:17:57.293362 23603 layer_factory.hpp:77] Creating layer conv5_3
I0920 11:17:57.293372 23603 net.cpp:100] Creating Layer conv5_3
I0920 11:17:57.293375 23603 net.cpp:434] conv5_3 <- conv5_2
I0920 11:17:57.293380 23603 net.cpp:408] conv5_3 -> conv5_3
I0920 11:17:57.306346 23603 net.cpp:150] Setting up conv5_3
I0920 11:17:57.306362 23603 net.cpp:157] Top shape: 4 512 18 22 (811008)
I0920 11:17:57.306367 23603 net.cpp:165] Memory required for data: 986185952
I0920 11:17:57.306375 23603 layer_factory.hpp:77] Creating layer relu5_3
I0920 11:17:57.306385 23603 net.cpp:100] Creating Layer relu5_3
I0920 11:17:57.306388 23603 net.cpp:434] relu5_3 <- conv5_3
I0920 11:17:57.306394 23603 net.cpp:395] relu5_3 -> conv5_3 (in-place)
I0920 11:17:57.306784 23603 net.cpp:150] Setting up relu5_3
I0920 11:17:57.306792 23603 net.cpp:157] Top shape: 4 512 18 22 (811008)
I0920 11:17:57.306795 23603 net.cpp:165] Memory required for data: 989429984
I0920 11:17:57.306798 23603 layer_factory.hpp:77] Creating layer pool5
I0920 11:17:57.306804 23603 net.cpp:100] Creating Layer pool5
I0920 11:17:57.306807 23603 net.cpp:434] pool5 <- conv5_3
I0920 11:17:57.306812 23603 net.cpp:408] pool5 -> pool5
I0920 11:17:57.306864 23603 net.cpp:150] Setting up pool5
I0920 11:17:57.306867 23603 net.cpp:157] Top shape: 4 512 18 22 (811008)
I0920 11:17:57.306870 23603 net.cpp:165] Memory required for data: 992674016
I0920 11:17:57.306874 23603 layer_factory.hpp:77] Creating layer fc6
I0920 11:17:57.306881 23603 net.cpp:100] Creating Layer fc6
I0920 11:17:57.306885 23603 net.cpp:434] fc6 <- pool5
I0920 11:17:57.306888 23603 net.cpp:408] fc6 -> fc6
I0920 11:17:57.328250 23603 net.cpp:150] Setting up fc6
I0920 11:17:57.328267 23603 net.cpp:157] Top shape: 4 1024 18 22 (1622016)
I0920 11:17:57.328292 23603 net.cpp:165] Memory required for data: 999162080
I0920 11:17:57.328302 23603 layer_factory.hpp:77] Creating layer relu6
I0920 11:17:57.328311 23603 net.cpp:100] Creating Layer relu6
I0920 11:17:57.328315 23603 net.cpp:434] relu6 <- fc6
I0920 11:17:57.328320 23603 net.cpp:395] relu6 -> fc6 (in-place)
I0920 11:17:57.328848 23603 net.cpp:150] Setting up relu6
I0920 11:17:57.328855 23603 net.cpp:157] Top shape: 4 1024 18 22 (1622016)
I0920 11:17:57.328860 23603 net.cpp:165] Memory required for data: 1005650144
I0920 11:17:57.328862 23603 layer_factory.hpp:77] Creating layer fc7
I0920 11:17:57.328872 23603 net.cpp:100] Creating Layer fc7
I0920 11:17:57.328874 23603 net.cpp:434] fc7 <- fc6
I0920 11:17:57.328879 23603 net.cpp:408] fc7 -> fc7
I0920 11:17:57.335036 23603 net.cpp:150] Setting up fc7
I0920 11:17:57.335047 23603 net.cpp:157] Top shape: 4 1024 18 22 (1622016)
I0920 11:17:57.335052 23603 net.cpp:165] Memory required for data: 1012138208
I0920 11:17:57.335057 23603 layer_factory.hpp:77] Creating layer relu7
I0920 11:17:57.335062 23603 net.cpp:100] Creating Layer relu7
I0920 11:17:57.335068 23603 net.cpp:434] relu7 <- fc7
I0920 11:17:57.335073 23603 net.cpp:395] relu7 -> fc7 (in-place)
I0920 11:17:57.335459 23603 net.cpp:150] Setting up relu7
I0920 11:17:57.335466 23603 net.cpp:157] Top shape: 4 1024 18 22 (1622016)
I0920 11:17:57.335469 23603 net.cpp:165] Memory required for data: 1018626272
I0920 11:17:57.335472 23603 layer_factory.hpp:77] Creating layer fc7_relu7_0_split
I0920 11:17:57.335479 23603 net.cpp:100] Creating Layer fc7_relu7_0_split
I0920 11:17:57.335482 23603 net.cpp:434] fc7_relu7_0_split <- fc7
I0920 11:17:57.335485 23603 net.cpp:408] fc7_relu7_0_split -> fc7_relu7_0_split_0
I0920 11:17:57.335490 23603 net.cpp:408] fc7_relu7_0_split -> fc7_relu7_0_split_1
I0920 11:17:57.335497 23603 net.cpp:408] fc7_relu7_0_split -> fc7_relu7_0_split_2
I0920 11:17:57.335501 23603 net.cpp:408] fc7_relu7_0_split -> fc7_relu7_0_split_3
I0920 11:17:57.335579 23603 net.cpp:150] Setting up fc7_relu7_0_split
I0920 11:17:57.335584 23603 net.cpp:157] Top shape: 4 1024 18 22 (1622016)
I0920 11:17:57.335587 23603 net.cpp:157] Top shape: 4 1024 18 22 (1622016)
I0920 11:17:57.335590 23603 net.cpp:157] Top shape: 4 1024 18 22 (1622016)
I0920 11:17:57.335592 23603 net.cpp:157] Top shape: 4 1024 18 22 (1622016)
I0920 11:17:57.335595 23603 net.cpp:165] Memory required for data: 1044578528
I0920 11:17:57.335597 23603 layer_factory.hpp:77] Creating layer conv6_1
I0920 11:17:57.335604 23603 net.cpp:100] Creating Layer conv6_1
I0920 11:17:57.335608 23603 net.cpp:434] conv6_1 <- fc7_relu7_0_split_0
I0920 11:17:57.335613 23603 net.cpp:408] conv6_1 -> conv6_1
I0920 11:17:57.339835 23603 net.cpp:150] Setting up conv6_1
I0920 11:17:57.339845 23603 net.cpp:157] Top shape: 4 256 18 22 (405504)
I0920 11:17:57.339850 23603 net.cpp:165] Memory required for data: 1046200544
I0920 11:17:57.339855 23603 layer_factory.hpp:77] Creating layer conv6_1_relu
I0920 11:17:57.339860 23603 net.cpp:100] Creating Layer conv6_1_relu
I0920 11:17:57.339864 23603 net.cpp:434] conv6_1_relu <- conv6_1
I0920 11:17:57.339869 23603 net.cpp:395] conv6_1_relu -> conv6_1 (in-place)
I0920 11:17:57.340248 23603 net.cpp:150] Setting up conv6_1_relu
I0920 11:17:57.340255 23603 net.cpp:157] Top shape: 4 256 18 22 (405504)
I0920 11:17:57.340258 23603 net.cpp:165] Memory required for data: 1047822560
I0920 11:17:57.340261 23603 layer_factory.hpp:77] Creating layer conv6_2
I0920 11:17:57.340272 23603 net.cpp:100] Creating Layer conv6_2
I0920 11:17:57.340276 23603 net.cpp:434] conv6_2 <- conv6_1
I0920 11:17:57.340281 23603 net.cpp:408] conv6_2 -> conv6_2
I0920 11:17:57.347055 23603 net.cpp:150] Setting up conv6_2
I0920 11:17:57.347074 23603 net.cpp:157] Top shape: 4 512 9 11 (202752)
I0920 11:17:57.347079 23603 net.cpp:165] Memory required for data: 1048633568
I0920 11:17:57.347090 23603 layer_factory.hpp:77] Creating layer conv6_2_relu
I0920 11:17:57.347096 23603 net.cpp:100] Creating Layer conv6_2_relu
I0920 11:17:57.347100 23603 net.cpp:434] conv6_2_relu <- conv6_2
I0920 11:17:57.347121 23603 net.cpp:395] conv6_2_relu -> conv6_2 (in-place)
I0920 11:17:57.347649 23603 net.cpp:150] Setting up conv6_2_relu
I0920 11:17:57.347656 23603 net.cpp:157] Top shape: 4 512 9 11 (202752)
I0920 11:17:57.347661 23603 net.cpp:165] Memory required for data: 1049444576
I0920 11:17:57.347663 23603 layer_factory.hpp:77] Creating layer conv6_2_conv6_2_relu_0_split
I0920 11:17:57.347669 23603 net.cpp:100] Creating Layer conv6_2_conv6_2_relu_0_split
I0920 11:17:57.347672 23603 net.cpp:434] conv6_2_conv6_2_relu_0_split <- conv6_2
I0920 11:17:57.347676 23603 net.cpp:408] conv6_2_conv6_2_relu_0_split -> conv6_2_conv6_2_relu_0_split_0
I0920 11:17:57.347682 23603 net.cpp:408] conv6_2_conv6_2_relu_0_split -> conv6_2_conv6_2_relu_0_split_1
I0920 11:17:57.347685 23603 net.cpp:408] conv6_2_conv6_2_relu_0_split -> conv6_2_conv6_2_relu_0_split_2
I0920 11:17:57.347689 23603 net.cpp:408] conv6_2_conv6_2_relu_0_split -> conv6_2_conv6_2_relu_0_split_3
I0920 11:17:57.347770 23603 net.cpp:150] Setting up conv6_2_conv6_2_relu_0_split
I0920 11:17:57.347775 23603 net.cpp:157] Top shape: 4 512 9 11 (202752)
I0920 11:17:57.347779 23603 net.cpp:157] Top shape: 4 512 9 11 (202752)
I0920 11:17:57.347781 23603 net.cpp:157] Top shape: 4 512 9 11 (202752)
I0920 11:17:57.347784 23603 net.cpp:157] Top shape: 4 512 9 11 (202752)
I0920 11:17:57.347786 23603 net.cpp:165] Memory required for data: 1052688608
I0920 11:17:57.347788 23603 layer_factory.hpp:77] Creating layer conv7_1
I0920 11:17:57.347796 23603 net.cpp:100] Creating Layer conv7_1
I0920 11:17:57.347800 23603 net.cpp:434] conv7_1 <- conv6_2_conv6_2_relu_0_split_0
I0920 11:17:57.347802 23603 net.cpp:408] conv7_1 -> conv7_1
I0920 11:17:57.350785 23603 net.cpp:150] Setting up conv7_1
I0920 11:17:57.350792 23603 net.cpp:157] Top shape: 4 128 9 11 (50688)
I0920 11:17:57.350796 23603 net.cpp:165] Memory required for data: 1052891360
I0920 11:17:57.350801 23603 layer_factory.hpp:77] Creating layer conv7_1_relu
I0920 11:17:57.350805 23603 net.cpp:100] Creating Layer conv7_1_relu
I0920 11:17:57.350809 23603 net.cpp:434] conv7_1_relu <- conv7_1
I0920 11:17:57.350812 23603 net.cpp:395] conv7_1_relu -> conv7_1 (in-place)
I0920 11:17:57.351205 23603 net.cpp:150] Setting up conv7_1_relu
I0920 11:17:57.351212 23603 net.cpp:157] Top shape: 4 128 9 11 (50688)
I0920 11:17:57.351217 23603 net.cpp:165] Memory required for data: 1053094112
I0920 11:17:57.351218 23603 layer_factory.hpp:77] Creating layer conv7_2
I0920 11:17:57.351227 23603 net.cpp:100] Creating Layer conv7_2
I0920 11:17:57.351229 23603 net.cpp:434] conv7_2 <- conv7_1
I0920 11:17:57.351234 23603 net.cpp:408] conv7_2 -> conv7_2
I0920 11:17:57.354434 23603 net.cpp:150] Setting up conv7_2
I0920 11:17:57.354442 23603 net.cpp:157] Top shape: 4 256 5 6 (30720)
I0920 11:17:57.354446 23603 net.cpp:165] Memory required for data: 1053216992
I0920 11:17:57.354450 23603 layer_factory.hpp:77] Creating layer conv7_2_relu
I0920 11:17:57.354456 23603 net.cpp:100] Creating Layer conv7_2_relu
I0920 11:17:57.354460 23603 net.cpp:434] conv7_2_relu <- conv7_2
I0920 11:17:57.354463 23603 net.cpp:395] conv7_2_relu -> conv7_2 (in-place)
I0920 11:17:57.354980 23603 net.cpp:150] Setting up conv7_2_relu
I0920 11:17:57.354988 23603 net.cpp:157] Top shape: 4 256 5 6 (30720)
I0920 11:17:57.354992 23603 net.cpp:165] Memory required for data: 1053339872
I0920 11:17:57.354995 23603 layer_factory.hpp:77] Creating layer conv7_2_conv7_2_relu_0_split
I0920 11:17:57.355001 23603 net.cpp:100] Creating Layer conv7_2_conv7_2_relu_0_split
I0920 11:17:57.355005 23603 net.cpp:434] conv7_2_conv7_2_relu_0_split <- conv7_2
I0920 11:17:57.355008 23603 net.cpp:408] conv7_2_conv7_2_relu_0_split -> conv7_2_conv7_2_relu_0_split_0
I0920 11:17:57.355013 23603 net.cpp:408] conv7_2_conv7_2_relu_0_split -> conv7_2_conv7_2_relu_0_split_1
I0920 11:17:57.355017 23603 net.cpp:408] conv7_2_conv7_2_relu_0_split -> conv7_2_conv7_2_relu_0_split_2
I0920 11:17:57.355021 23603 net.cpp:408] conv7_2_conv7_2_relu_0_split -> conv7_2_conv7_2_relu_0_split_3
I0920 11:17:57.355108 23603 net.cpp:150] Setting up conv7_2_conv7_2_relu_0_split
I0920 11:17:57.355125 23603 net.cpp:157] Top shape: 4 256 5 6 (30720)
I0920 11:17:57.355129 23603 net.cpp:157] Top shape: 4 256 5 6 (30720)
I0920 11:17:57.355132 23603 net.cpp:157] Top shape: 4 256 5 6 (30720)
I0920 11:17:57.355134 23603 net.cpp:157] Top shape: 4 256 5 6 (30720)
I0920 11:17:57.355137 23603 net.cpp:165] Memory required for data: 1053831392
I0920 11:17:57.355140 23603 layer_factory.hpp:77] Creating layer conv8_1
I0920 11:17:57.355147 23603 net.cpp:100] Creating Layer conv8_1
I0920 11:17:57.355150 23603 net.cpp:434] conv8_1 <- conv7_2_conv7_2_relu_0_split_0
I0920 11:17:57.355154 23603 net.cpp:408] conv8_1 -> conv8_1
I0920 11:17:57.356992 23603 net.cpp:150] Setting up conv8_1
I0920 11:17:57.356999 23603 net.cpp:157] Top shape: 4 128 5 6 (15360)
I0920 11:17:57.357003 23603 net.cpp:165] Memory required for data: 1053892832
I0920 11:17:57.357007 23603 layer_factory.hpp:77] Creating layer conv8_1_relu
I0920 11:17:57.357012 23603 net.cpp:100] Creating Layer conv8_1_relu
I0920 11:17:57.357015 23603 net.cpp:434] conv8_1_relu <- conv8_1
I0920 11:17:57.357019 23603 net.cpp:395] conv8_1_relu -> conv8_1 (in-place)
I0920 11:17:57.357403 23603 net.cpp:150] Setting up conv8_1_relu
I0920 11:17:57.357409 23603 net.cpp:157] Top shape: 4 128 5 6 (15360)
I0920 11:17:57.357412 23603 net.cpp:165] Memory required for data: 1053954272
I0920 11:17:57.357415 23603 layer_factory.hpp:77] Creating layer conv8_2
I0920 11:17:57.357424 23603 net.cpp:100] Creating Layer conv8_2
I0920 11:17:57.357426 23603 net.cpp:434] conv8_2 <- conv8_1
I0920 11:17:57.357430 23603 net.cpp:408] conv8_2 -> conv8_2
I0920 11:17:57.362267 23603 net.cpp:150] Setting up conv8_2
I0920 11:17:57.362278 23603 net.cpp:157] Top shape: 4 256 3 4 (12288)
I0920 11:17:57.362283 23603 net.cpp:165] Memory required for data: 1054003424
I0920 11:17:57.362290 23603 layer_factory.hpp:77] Creating layer conv8_2_relu
I0920 11:17:57.362298 23603 net.cpp:100] Creating Layer conv8_2_relu
I0920 11:17:57.362301 23603 net.cpp:434] conv8_2_relu <- conv8_2
I0920 11:17:57.362305 23603 net.cpp:395] conv8_2_relu -> conv8_2 (in-place)
I0920 11:17:57.362697 23603 net.cpp:150] Setting up conv8_2_relu
I0920 11:17:57.362704 23603 net.cpp:157] Top shape: 4 256 3 4 (12288)
I0920 11:17:57.362709 23603 net.cpp:165] Memory required for data: 1054052576
I0920 11:17:57.362710 23603 layer_factory.hpp:77] Creating layer conv8_2_conv8_2_relu_0_split
I0920 11:17:57.362717 23603 net.cpp:100] Creating Layer conv8_2_conv8_2_relu_0_split
I0920 11:17:57.362720 23603 net.cpp:434] conv8_2_conv8_2_relu_0_split <- conv8_2
I0920 11:17:57.362725 23603 net.cpp:408] conv8_2_conv8_2_relu_0_split -> conv8_2_conv8_2_relu_0_split_0
I0920 11:17:57.362730 23603 net.cpp:408] conv8_2_conv8_2_relu_0_split -> conv8_2_conv8_2_relu_0_split_1
I0920 11:17:57.362733 23603 net.cpp:408] conv8_2_conv8_2_relu_0_split -> conv8_2_conv8_2_relu_0_split_2
I0920 11:17:57.362737 23603 net.cpp:408] conv8_2_conv8_2_relu_0_split -> conv8_2_conv8_2_relu_0_split_3
I0920 11:17:57.362819 23603 net.cpp:150] Setting up conv8_2_conv8_2_relu_0_split
I0920 11:17:57.362823 23603 net.cpp:157] Top shape: 4 256 3 4 (12288)
I0920 11:17:57.362826 23603 net.cpp:157] Top shape: 4 256 3 4 (12288)
I0920 11:17:57.362829 23603 net.cpp:157] Top shape: 4 256 3 4 (12288)
I0920 11:17:57.362831 23603 net.cpp:157] Top shape: 4 256 3 4 (12288)
I0920 11:17:57.362834 23603 net.cpp:165] Memory required for data: 1054249184
I0920 11:17:57.362836 23603 layer_factory.hpp:77] Creating layer conv9_1
I0920 11:17:57.362844 23603 net.cpp:100] Creating Layer conv9_1
I0920 11:17:57.362848 23603 net.cpp:434] conv9_1 <- conv8_2_conv8_2_relu_0_split_0
I0920 11:17:57.362851 23603 net.cpp:408] conv9_1 -> conv9_1
I0920 11:17:57.364729 23603 net.cpp:150] Setting up conv9_1
I0920 11:17:57.364737 23603 net.cpp:157] Top shape: 4 128 3 4 (6144)
I0920 11:17:57.364742 23603 net.cpp:165] Memory required for data: 1054273760
I0920 11:17:57.364747 23603 layer_factory.hpp:77] Creating layer conv9_1_relu
I0920 11:17:57.364750 23603 net.cpp:100] Creating Layer conv9_1_relu
I0920 11:17:57.364768 23603 net.cpp:434] conv9_1_relu <- conv9_1
I0920 11:17:57.364773 23603 net.cpp:395] conv9_1_relu -> conv9_1 (in-place)
I0920 11:17:57.365288 23603 net.cpp:150] Setting up conv9_1_relu
I0920 11:17:57.365294 23603 net.cpp:157] Top shape: 4 128 3 4 (6144)
I0920 11:17:57.365298 23603 net.cpp:165] Memory required for data: 1054298336
I0920 11:17:57.365301 23603 layer_factory.hpp:77] Creating layer conv9_2
I0920 11:17:57.365310 23603 net.cpp:100] Creating Layer conv9_2
I0920 11:17:57.365314 23603 net.cpp:434] conv9_2 <- conv9_1
I0920 11:17:57.365317 23603 net.cpp:408] conv9_2 -> conv9_2
I0920 11:17:57.369820 23603 net.cpp:150] Setting up conv9_2
I0920 11:17:57.369830 23603 net.cpp:157] Top shape: 4 256 1 2 (2048)
I0920 11:17:57.369835 23603 net.cpp:165] Memory required for data: 1054306528
I0920 11:17:57.369843 23603 layer_factory.hpp:77] Creating layer conv9_2_relu
I0920 11:17:57.369848 23603 net.cpp:100] Creating Layer conv9_2_relu
I0920 11:17:57.369853 23603 net.cpp:434] conv9_2_relu <- conv9_2
I0920 11:17:57.369856 23603 net.cpp:395] conv9_2_relu -> conv9_2 (in-place)
I0920 11:17:57.370376 23603 net.cpp:150] Setting up conv9_2_relu
I0920 11:17:57.370384 23603 net.cpp:157] Top shape: 4 256 1 2 (2048)
I0920 11:17:57.370388 23603 net.cpp:165] Memory required for data: 1054314720
I0920 11:17:57.370390 23603 layer_factory.hpp:77] Creating layer conv9_2_conv9_2_relu_0_split
I0920 11:17:57.370396 23603 net.cpp:100] Creating Layer conv9_2_conv9_2_relu_0_split
I0920 11:17:57.370400 23603 net.cpp:434] conv9_2_conv9_2_relu_0_split <- conv9_2
I0920 11:17:57.370406 23603 net.cpp:408] conv9_2_conv9_2_relu_0_split -> conv9_2_conv9_2_relu_0_split_0
I0920 11:17:57.370412 23603 net.cpp:408] conv9_2_conv9_2_relu_0_split -> conv9_2_conv9_2_relu_0_split_1
I0920 11:17:57.370416 23603 net.cpp:408] conv9_2_conv9_2_relu_0_split -> conv9_2_conv9_2_relu_0_split_2
I0920 11:17:57.370482 23603 net.cpp:150] Setting up conv9_2_conv9_2_relu_0_split
I0920 11:17:57.370486 23603 net.cpp:157] Top shape: 4 256 1 2 (2048)
I0920 11:17:57.370491 23603 net.cpp:157] Top shape: 4 256 1 2 (2048)
I0920 11:17:57.370492 23603 net.cpp:157] Top shape: 4 256 1 2 (2048)
I0920 11:17:57.370496 23603 net.cpp:165] Memory required for data: 1054339296
I0920 11:17:57.370497 23603 layer_factory.hpp:77] Creating layer conv4_3_norm
I0920 11:17:57.370504 23603 net.cpp:100] Creating Layer conv4_3_norm
I0920 11:17:57.370508 23603 net.cpp:434] conv4_3_norm <- conv4_3_relu4_3_0_split_1
I0920 11:17:57.370512 23603 net.cpp:408] conv4_3_norm -> conv4_3_norm
I0920 11:17:57.370716 23603 net.cpp:150] Setting up conv4_3_norm
I0920 11:17:57.370720 23603 net.cpp:157] Top shape: 4 512 36 44 (3244032)
I0920 11:17:57.370724 23603 net.cpp:165] Memory required for data: 1067315424
I0920 11:17:57.370728 23603 layer_factory.hpp:77] Creating layer conv4_3_norm_conv4_3_norm_0_split
I0920 11:17:57.370731 23603 net.cpp:100] Creating Layer conv4_3_norm_conv4_3_norm_0_split
I0920 11:17:57.370733 23603 net.cpp:434] conv4_3_norm_conv4_3_norm_0_split <- conv4_3_norm
I0920 11:17:57.370738 23603 net.cpp:408] conv4_3_norm_conv4_3_norm_0_split -> conv4_3_norm_conv4_3_norm_0_split_0
I0920 11:17:57.370741 23603 net.cpp:408] conv4_3_norm_conv4_3_norm_0_split -> conv4_3_norm_conv4_3_norm_0_split_1
I0920 11:17:57.370745 23603 net.cpp:408] conv4_3_norm_conv4_3_norm_0_split -> conv4_3_norm_conv4_3_norm_0_split_2
I0920 11:17:57.370802 23603 net.cpp:150] Setting up conv4_3_norm_conv4_3_norm_0_split
I0920 11:17:57.370806 23603 net.cpp:157] Top shape: 4 512 36 44 (3244032)
I0920 11:17:57.370810 23603 net.cpp:157] Top shape: 4 512 36 44 (3244032)
I0920 11:17:57.370812 23603 net.cpp:157] Top shape: 4 512 36 44 (3244032)
I0920 11:17:57.370815 23603 net.cpp:165] Memory required for data: 1106243808
I0920 11:17:57.370817 23603 layer_factory.hpp:77] Creating layer conv4_3_norm_mbox_loc
I0920 11:17:57.370826 23603 net.cpp:100] Creating Layer conv4_3_norm_mbox_loc
I0920 11:17:57.370829 23603 net.cpp:434] conv4_3_norm_mbox_loc <- conv4_3_norm_conv4_3_norm_0_split_0
I0920 11:17:57.370833 23603 net.cpp:408] conv4_3_norm_mbox_loc -> conv4_3_norm_mbox_loc
I0920 11:17:57.372979 23603 net.cpp:150] Setting up conv4_3_norm_mbox_loc
I0920 11:17:57.372987 23603 net.cpp:157] Top shape: 4 16 36 44 (101376)
I0920 11:17:57.372992 23603 net.cpp:165] Memory required for data: 1106649312
I0920 11:17:57.372997 23603 layer_factory.hpp:77] Creating layer conv4_3_norm_mbox_loc_perm
I0920 11:17:57.373003 23603 net.cpp:100] Creating Layer conv4_3_norm_mbox_loc_perm
I0920 11:17:57.373005 23603 net.cpp:434] conv4_3_norm_mbox_loc_perm <- conv4_3_norm_mbox_loc
I0920 11:17:57.373009 23603 net.cpp:408] conv4_3_norm_mbox_loc_perm -> conv4_3_norm_mbox_loc_perm
I0920 11:17:57.373147 23603 net.cpp:150] Setting up conv4_3_norm_mbox_loc_perm
I0920 11:17:57.373152 23603 net.cpp:157] Top shape: 4 36 44 16 (101376)
I0920 11:17:57.373154 23603 net.cpp:165] Memory required for data: 1107054816
I0920 11:17:57.373157 23603 layer_factory.hpp:77] Creating layer conv4_3_norm_mbox_loc_flat
I0920 11:17:57.373164 23603 net.cpp:100] Creating Layer conv4_3_norm_mbox_loc_flat
I0920 11:17:57.373168 23603 net.cpp:434] conv4_3_norm_mbox_loc_flat <- conv4_3_norm_mbox_loc_perm
I0920 11:17:57.373174 23603 net.cpp:408] conv4_3_norm_mbox_loc_flat -> conv4_3_norm_mbox_loc_flat
I0920 11:17:57.373208 23603 net.cpp:150] Setting up conv4_3_norm_mbox_loc_flat
I0920 11:17:57.373214 23603 net.cpp:157] Top shape: 4 25344 (101376)
I0920 11:17:57.373216 23603 net.cpp:165] Memory required for data: 1107460320
I0920 11:17:57.373219 23603 layer_factory.hpp:77] Creating layer conv4_3_norm_mbox_conf
I0920 11:17:57.373234 23603 net.cpp:100] Creating Layer conv4_3_norm_mbox_conf
I0920 11:17:57.373237 23603 net.cpp:434] conv4_3_norm_mbox_conf <- conv4_3_norm_conv4_3_norm_0_split_1
I0920 11:17:57.373242 23603 net.cpp:408] conv4_3_norm_mbox_conf -> conv4_3_norm_mbox_conf
I0920 11:17:57.375469 23603 net.cpp:150] Setting up conv4_3_norm_mbox_conf
I0920 11:17:57.375478 23603 net.cpp:157] Top shape: 4 8 36 44 (50688)
I0920 11:17:57.375483 23603 net.cpp:165] Memory required for data: 1107663072
I0920 11:17:57.375488 23603 layer_factory.hpp:77] Creating layer conv4_3_norm_mbox_conf_perm
I0920 11:17:57.375494 23603 net.cpp:100] Creating Layer conv4_3_norm_mbox_conf_perm
I0920 11:17:57.375497 23603 net.cpp:434] conv4_3_norm_mbox_conf_perm <- conv4_3_norm_mbox_conf
I0920 11:17:57.375501 23603 net.cpp:408] conv4_3_norm_mbox_conf_perm -> conv4_3_norm_mbox_conf_perm
I0920 11:17:57.375640 23603 net.cpp:150] Setting up conv4_3_norm_mbox_conf_perm
I0920 11:17:57.375645 23603 net.cpp:157] Top shape: 4 36 44 8 (50688)
I0920 11:17:57.375648 23603 net.cpp:165] Memory required for data: 1107865824
I0920 11:17:57.375651 23603 layer_factory.hpp:77] Creating layer conv4_3_norm_mbox_conf_flat
I0920 11:17:57.375655 23603 net.cpp:100] Creating Layer conv4_3_norm_mbox_conf_flat
I0920 11:17:57.375658 23603 net.cpp:434] conv4_3_norm_mbox_conf_flat <- conv4_3_norm_mbox_conf_perm
I0920 11:17:57.375661 23603 net.cpp:408] conv4_3_norm_mbox_conf_flat -> conv4_3_norm_mbox_conf_flat
I0920 11:17:57.375689 23603 net.cpp:150] Setting up conv4_3_norm_mbox_conf_flat
I0920 11:17:57.375694 23603 net.cpp:157] Top shape: 4 12672 (50688)
I0920 11:17:57.375697 23603 net.cpp:165] Memory required for data: 1108068576
I0920 11:17:57.375700 23603 layer_factory.hpp:77] Creating layer conv4_3_norm_mbox_priorbox
I0920 11:17:57.375707 23603 net.cpp:100] Creating Layer conv4_3_norm_mbox_priorbox
I0920 11:17:57.375711 23603 net.cpp:434] conv4_3_norm_mbox_priorbox <- conv4_3_norm_conv4_3_norm_0_split_2
I0920 11:17:57.375716 23603 net.cpp:434] conv4_3_norm_mbox_priorbox <- data_data_0_split_1
I0920 11:17:57.375720 23603 net.cpp:408] conv4_3_norm_mbox_priorbox -> conv4_3_norm_mbox_priorbox
I0920 11:17:57.375752 23603 net.cpp:150] Setting up conv4_3_norm_mbox_priorbox
I0920 11:17:57.375756 23603 net.cpp:157] Top shape: 1 2 25344 (50688)
I0920 11:17:57.375759 23603 net.cpp:165] Memory required for data: 1108271328
I0920 11:17:57.375762 23603 layer_factory.hpp:77] Creating layer fc7_mbox_loc
I0920 11:17:57.375767 23603 net.cpp:100] Creating Layer fc7_mbox_loc
I0920 11:17:57.375782 23603 net.cpp:434] fc7_mbox_loc <- fc7_relu7_0_split_1
I0920 11:17:57.375785 23603 net.cpp:408] fc7_mbox_loc -> fc7_mbox_loc
I0920 11:17:57.379451 23603 net.cpp:150] Setting up fc7_mbox_loc
I0920 11:17:57.379460 23603 net.cpp:157] Top shape: 4 24 18 22 (38016)
I0920 11:17:57.379464 23603 net.cpp:165] Memory required for data: 1108423392
I0920 11:17:57.379470 23603 layer_factory.hpp:77] Creating layer fc7_mbox_loc_perm
I0920 11:17:57.379477 23603 net.cpp:100] Creating Layer fc7_mbox_loc_perm
I0920 11:17:57.379480 23603 net.cpp:434] fc7_mbox_loc_perm <- fc7_mbox_loc
I0920 11:17:57.379484 23603 net.cpp:408] fc7_mbox_loc_perm -> fc7_mbox_loc_perm
I0920 11:17:57.379626 23603 net.cpp:150] Setting up fc7_mbox_loc_perm
I0920 11:17:57.379631 23603 net.cpp:157] Top shape: 4 18 22 24 (38016)
I0920 11:17:57.379633 23603 net.cpp:165] Memory required for data: 1108575456
I0920 11:17:57.379637 23603 layer_factory.hpp:77] Creating layer fc7_mbox_loc_flat
I0920 11:17:57.379640 23603 net.cpp:100] Creating Layer fc7_mbox_loc_flat
I0920 11:17:57.379643 23603 net.cpp:434] fc7_mbox_loc_flat <- fc7_mbox_loc_perm
I0920 11:17:57.379647 23603 net.cpp:408] fc7_mbox_loc_flat -> fc7_mbox_loc_flat
I0920 11:17:57.379675 23603 net.cpp:150] Setting up fc7_mbox_loc_flat
I0920 11:17:57.379679 23603 net.cpp:157] Top shape: 4 9504 (38016)
I0920 11:17:57.379683 23603 net.cpp:165] Memory required for data: 1108727520
I0920 11:17:57.379685 23603 layer_factory.hpp:77] Creating layer fc7_mbox_conf
I0920 11:17:57.379693 23603 net.cpp:100] Creating Layer fc7_mbox_conf
I0920 11:17:57.379698 23603 net.cpp:434] fc7_mbox_conf <- fc7_relu7_0_split_2
I0920 11:17:57.379704 23603 net.cpp:408] fc7_mbox_conf -> fc7_mbox_conf
I0920 11:17:57.382021 23603 net.cpp:150] Setting up fc7_mbox_conf
I0920 11:17:57.382030 23603 net.cpp:157] Top shape: 4 12 18 22 (19008)
I0920 11:17:57.382035 23603 net.cpp:165] Memory required for data: 1108803552
I0920 11:17:57.382045 23603 layer_factory.hpp:77] Creating layer fc7_mbox_conf_perm
I0920 11:17:57.382051 23603 net.cpp:100] Creating Layer fc7_mbox_conf_perm
I0920 11:17:57.382055 23603 net.cpp:434] fc7_mbox_conf_perm <- fc7_mbox_conf
I0920 11:17:57.382062 23603 net.cpp:408] fc7_mbox_conf_perm -> fc7_mbox_conf_perm
I0920 11:17:57.382205 23603 net.cpp:150] Setting up fc7_mbox_conf_perm
I0920 11:17:57.382210 23603 net.cpp:157] Top shape: 4 18 22 12 (19008)
I0920 11:17:57.382213 23603 net.cpp:165] Memory required for data: 1108879584
I0920 11:17:57.382215 23603 layer_factory.hpp:77] Creating layer fc7_mbox_conf_flat
I0920 11:17:57.382221 23603 net.cpp:100] Creating Layer fc7_mbox_conf_flat
I0920 11:17:57.382225 23603 net.cpp:434] fc7_mbox_conf_flat <- fc7_mbox_conf_perm
I0920 11:17:57.382227 23603 net.cpp:408] fc7_mbox_conf_flat -> fc7_mbox_conf_flat
I0920 11:17:57.382251 23603 net.cpp:150] Setting up fc7_mbox_conf_flat
I0920 11:17:57.382256 23603 net.cpp:157] Top shape: 4 4752 (19008)
I0920 11:17:57.382258 23603 net.cpp:165] Memory required for data: 1108955616
I0920 11:17:57.382261 23603 layer_factory.hpp:77] Creating layer fc7_mbox_priorbox
I0920 11:17:57.382267 23603 net.cpp:100] Creating Layer fc7_mbox_priorbox
I0920 11:17:57.382270 23603 net.cpp:434] fc7_mbox_priorbox <- fc7_relu7_0_split_3
I0920 11:17:57.382274 23603 net.cpp:434] fc7_mbox_priorbox <- data_data_0_split_2
I0920 11:17:57.382278 23603 net.cpp:408] fc7_mbox_priorbox -> fc7_mbox_priorbox
I0920 11:17:57.382303 23603 net.cpp:150] Setting up fc7_mbox_priorbox
I0920 11:17:57.382308 23603 net.cpp:157] Top shape: 1 2 9504 (19008)
I0920 11:17:57.382310 23603 net.cpp:165] Memory required for data: 1109031648
I0920 11:17:57.382313 23603 layer_factory.hpp:77] Creating layer conv6_2_mbox_loc
I0920 11:17:57.382319 23603 net.cpp:100] Creating Layer conv6_2_mbox_loc
I0920 11:17:57.382323 23603 net.cpp:434] conv6_2_mbox_loc <- conv6_2_conv6_2_relu_0_split_1
I0920 11:17:57.382328 23603 net.cpp:408] conv6_2_mbox_loc -> conv6_2_mbox_loc
I0920 11:17:57.384598 23603 net.cpp:150] Setting up conv6_2_mbox_loc
I0920 11:17:57.384606 23603 net.cpp:157] Top shape: 4 24 9 11 (9504)
I0920 11:17:57.384622 23603 net.cpp:165] Memory required for data: 1109069664
I0920 11:17:57.384629 23603 layer_factory.hpp:77] Creating layer conv6_2_mbox_loc_perm
I0920 11:17:57.384634 23603 net.cpp:100] Creating Layer conv6_2_mbox_loc_perm
I0920 11:17:57.384637 23603 net.cpp:434] conv6_2_mbox_loc_perm <- conv6_2_mbox_loc
I0920 11:17:57.384641 23603 net.cpp:408] conv6_2_mbox_loc_perm -> conv6_2_mbox_loc_perm
I0920 11:17:57.384780 23603 net.cpp:150] Setting up conv6_2_mbox_loc_perm
I0920 11:17:57.384785 23603 net.cpp:157] Top shape: 4 9 11 24 (9504)
I0920 11:17:57.384788 23603 net.cpp:165] Memory required for data: 1109107680
I0920 11:17:57.384790 23603 layer_factory.hpp:77] Creating layer conv6_2_mbox_loc_flat
I0920 11:17:57.384794 23603 net.cpp:100] Creating Layer conv6_2_mbox_loc_flat
I0920 11:17:57.384797 23603 net.cpp:434] conv6_2_mbox_loc_flat <- conv6_2_mbox_loc_perm
I0920 11:17:57.384802 23603 net.cpp:408] conv6_2_mbox_loc_flat -> conv6_2_mbox_loc_flat
I0920 11:17:57.384827 23603 net.cpp:150] Setting up conv6_2_mbox_loc_flat
I0920 11:17:57.384830 23603 net.cpp:157] Top shape: 4 2376 (9504)
I0920 11:17:57.384833 23603 net.cpp:165] Memory required for data: 1109145696
I0920 11:17:57.384835 23603 layer_factory.hpp:77] Creating layer conv6_2_mbox_conf
I0920 11:17:57.384842 23603 net.cpp:100] Creating Layer conv6_2_mbox_conf
I0920 11:17:57.384845 23603 net.cpp:434] conv6_2_mbox_conf <- conv6_2_conv6_2_relu_0_split_2
I0920 11:17:57.384850 23603 net.cpp:408] conv6_2_mbox_conf -> conv6_2_mbox_conf
I0920 11:17:57.386929 23603 net.cpp:150] Setting up conv6_2_mbox_conf
I0920 11:17:57.386937 23603 net.cpp:157] Top shape: 4 12 9 11 (4752)
I0920 11:17:57.386941 23603 net.cpp:165] Memory required for data: 1109164704
I0920 11:17:57.386946 23603 layer_factory.hpp:77] Creating layer conv6_2_mbox_conf_perm
I0920 11:17:57.386952 23603 net.cpp:100] Creating Layer conv6_2_mbox_conf_perm
I0920 11:17:57.386955 23603 net.cpp:434] conv6_2_mbox_conf_perm <- conv6_2_mbox_conf
I0920 11:17:57.386960 23603 net.cpp:408] conv6_2_mbox_conf_perm -> conv6_2_mbox_conf_perm
I0920 11:17:57.387102 23603 net.cpp:150] Setting up conv6_2_mbox_conf_perm
I0920 11:17:57.387107 23603 net.cpp:157] Top shape: 4 9 11 12 (4752)
I0920 11:17:57.387111 23603 net.cpp:165] Memory required for data: 1109183712
I0920 11:17:57.387114 23603 layer_factory.hpp:77] Creating layer conv6_2_mbox_conf_flat
I0920 11:17:57.387117 23603 net.cpp:100] Creating Layer conv6_2_mbox_conf_flat
I0920 11:17:57.387120 23603 net.cpp:434] conv6_2_mbox_conf_flat <- conv6_2_mbox_conf_perm
I0920 11:17:57.387123 23603 net.cpp:408] conv6_2_mbox_conf_flat -> conv6_2_mbox_conf_flat
I0920 11:17:57.387151 23603 net.cpp:150] Setting up conv6_2_mbox_conf_flat
I0920 11:17:57.387154 23603 net.cpp:157] Top shape: 4 1188 (4752)
I0920 11:17:57.387156 23603 net.cpp:165] Memory required for data: 1109202720
I0920 11:17:57.387159 23603 layer_factory.hpp:77] Creating layer conv6_2_mbox_priorbox
I0920 11:17:57.387163 23603 net.cpp:100] Creating Layer conv6_2_mbox_priorbox
I0920 11:17:57.387166 23603 net.cpp:434] conv6_2_mbox_priorbox <- conv6_2_conv6_2_relu_0_split_3
I0920 11:17:57.387169 23603 net.cpp:434] conv6_2_mbox_priorbox <- data_data_0_split_3
I0920 11:17:57.387172 23603 net.cpp:408] conv6_2_mbox_priorbox -> conv6_2_mbox_priorbox
I0920 11:17:57.387199 23603 net.cpp:150] Setting up conv6_2_mbox_priorbox
I0920 11:17:57.387203 23603 net.cpp:157] Top shape: 1 2 2376 (4752)
I0920 11:17:57.387207 23603 net.cpp:165] Memory required for data: 1109221728
I0920 11:17:57.387208 23603 layer_factory.hpp:77] Creating layer conv7_2_mbox_loc
I0920 11:17:57.387214 23603 net.cpp:100] Creating Layer conv7_2_mbox_loc
I0920 11:17:57.387217 23603 net.cpp:434] conv7_2_mbox_loc <- conv7_2_conv7_2_relu_0_split_1
I0920 11:17:57.387223 23603 net.cpp:408] conv7_2_mbox_loc -> conv7_2_mbox_loc
I0920 11:17:57.390511 23603 net.cpp:150] Setting up conv7_2_mbox_loc
I0920 11:17:57.390520 23603 net.cpp:157] Top shape: 4 24 5 6 (2880)
I0920 11:17:57.390524 23603 net.cpp:165] Memory required for data: 1109233248
I0920 11:17:57.390528 23603 layer_factory.hpp:77] Creating layer conv7_2_mbox_loc_perm
I0920 11:17:57.390547 23603 net.cpp:100] Creating Layer conv7_2_mbox_loc_perm
I0920 11:17:57.390550 23603 net.cpp:434] conv7_2_mbox_loc_perm <- conv7_2_mbox_loc
I0920 11:17:57.390555 23603 net.cpp:408] conv7_2_mbox_loc_perm -> conv7_2_mbox_loc_perm
I0920 11:17:57.390698 23603 net.cpp:150] Setting up conv7_2_mbox_loc_perm
I0920 11:17:57.390703 23603 net.cpp:157] Top shape: 4 5 6 24 (2880)
I0920 11:17:57.390707 23603 net.cpp:165] Memory required for data: 1109244768
I0920 11:17:57.390709 23603 layer_factory.hpp:77] Creating layer conv7_2_mbox_loc_flat
I0920 11:17:57.390712 23603 net.cpp:100] Creating Layer conv7_2_mbox_loc_flat
I0920 11:17:57.390715 23603 net.cpp:434] conv7_2_mbox_loc_flat <- conv7_2_mbox_loc_perm
I0920 11:17:57.390718 23603 net.cpp:408] conv7_2_mbox_loc_flat -> conv7_2_mbox_loc_flat
I0920 11:17:57.390744 23603 net.cpp:150] Setting up conv7_2_mbox_loc_flat
I0920 11:17:57.390748 23603 net.cpp:157] Top shape: 4 720 (2880)
I0920 11:17:57.390751 23603 net.cpp:165] Memory required for data: 1109256288
I0920 11:17:57.390754 23603 layer_factory.hpp:77] Creating layer conv7_2_mbox_conf
I0920 11:17:57.390761 23603 net.cpp:100] Creating Layer conv7_2_mbox_conf
I0920 11:17:57.390764 23603 net.cpp:434] conv7_2_mbox_conf <- conv7_2_conv7_2_relu_0_split_2
I0920 11:17:57.390769 23603 net.cpp:408] conv7_2_mbox_conf -> conv7_2_mbox_conf
I0920 11:17:57.392769 23603 net.cpp:150] Setting up conv7_2_mbox_conf
I0920 11:17:57.392777 23603 net.cpp:157] Top shape: 4 12 5 6 (1440)
I0920 11:17:57.392781 23603 net.cpp:165] Memory required for data: 1109262048
I0920 11:17:57.392786 23603 layer_factory.hpp:77] Creating layer conv7_2_mbox_conf_perm
I0920 11:17:57.392792 23603 net.cpp:100] Creating Layer conv7_2_mbox_conf_perm
I0920 11:17:57.392796 23603 net.cpp:434] conv7_2_mbox_conf_perm <- conv7_2_mbox_conf
I0920 11:17:57.392799 23603 net.cpp:408] conv7_2_mbox_conf_perm -> conv7_2_mbox_conf_perm
I0920 11:17:57.392937 23603 net.cpp:150] Setting up conv7_2_mbox_conf_perm
I0920 11:17:57.392941 23603 net.cpp:157] Top shape: 4 5 6 12 (1440)
I0920 11:17:57.392944 23603 net.cpp:165] Memory required for data: 1109267808
I0920 11:17:57.392947 23603 layer_factory.hpp:77] Creating layer conv7_2_mbox_conf_flat
I0920 11:17:57.392952 23603 net.cpp:100] Creating Layer conv7_2_mbox_conf_flat
I0920 11:17:57.392956 23603 net.cpp:434] conv7_2_mbox_conf_flat <- conv7_2_mbox_conf_perm
I0920 11:17:57.392958 23603 net.cpp:408] conv7_2_mbox_conf_flat -> conv7_2_mbox_conf_flat
I0920 11:17:57.392984 23603 net.cpp:150] Setting up conv7_2_mbox_conf_flat
I0920 11:17:57.392988 23603 net.cpp:157] Top shape: 4 360 (1440)
I0920 11:17:57.392992 23603 net.cpp:165] Memory required for data: 1109273568
I0920 11:17:57.392993 23603 layer_factory.hpp:77] Creating layer conv7_2_mbox_priorbox
I0920 11:17:57.392999 23603 net.cpp:100] Creating Layer conv7_2_mbox_priorbox
I0920 11:17:57.393002 23603 net.cpp:434] conv7_2_mbox_priorbox <- conv7_2_conv7_2_relu_0_split_3
I0920 11:17:57.393005 23603 net.cpp:434] conv7_2_mbox_priorbox <- data_data_0_split_4
I0920 11:17:57.393009 23603 net.cpp:408] conv7_2_mbox_priorbox -> conv7_2_mbox_priorbox
I0920 11:17:57.393043 23603 net.cpp:150] Setting up conv7_2_mbox_priorbox
I0920 11:17:57.393048 23603 net.cpp:157] Top shape: 1 2 720 (1440)
I0920 11:17:57.393050 23603 net.cpp:165] Memory required for data: 1109279328
I0920 11:17:57.393052 23603 layer_factory.hpp:77] Creating layer conv8_2_mbox_loc
I0920 11:17:57.393060 23603 net.cpp:100] Creating Layer conv8_2_mbox_loc
I0920 11:17:57.393064 23603 net.cpp:434] conv8_2_mbox_loc <- conv8_2_conv8_2_relu_0_split_1
I0920 11:17:57.393067 23603 net.cpp:408] conv8_2_mbox_loc -> conv8_2_mbox_loc
I0920 11:17:57.395088 23603 net.cpp:150] Setting up conv8_2_mbox_loc
I0920 11:17:57.395097 23603 net.cpp:157] Top shape: 4 16 3 4 (768)
I0920 11:17:57.395100 23603 net.cpp:165] Memory required for data: 1109282400
I0920 11:17:57.395110 23603 layer_factory.hpp:77] Creating layer conv8_2_mbox_loc_perm
I0920 11:17:57.395115 23603 net.cpp:100] Creating Layer conv8_2_mbox_loc_perm
I0920 11:17:57.395133 23603 net.cpp:434] conv8_2_mbox_loc_perm <- conv8_2_mbox_loc
I0920 11:17:57.395139 23603 net.cpp:408] conv8_2_mbox_loc_perm -> conv8_2_mbox_loc_perm
I0920 11:17:57.395287 23603 net.cpp:150] Setting up conv8_2_mbox_loc_perm
I0920 11:17:57.395292 23603 net.cpp:157] Top shape: 4 3 4 16 (768)
I0920 11:17:57.395294 23603 net.cpp:165] Memory required for data: 1109285472
I0920 11:17:57.395298 23603 layer_factory.hpp:77] Creating layer conv8_2_mbox_loc_flat
I0920 11:17:57.395301 23603 net.cpp:100] Creating Layer conv8_2_mbox_loc_flat
I0920 11:17:57.395304 23603 net.cpp:434] conv8_2_mbox_loc_flat <- conv8_2_mbox_loc_perm
I0920 11:17:57.395308 23603 net.cpp:408] conv8_2_mbox_loc_flat -> conv8_2_mbox_loc_flat
I0920 11:17:57.395337 23603 net.cpp:150] Setting up conv8_2_mbox_loc_flat
I0920 11:17:57.395341 23603 net.cpp:157] Top shape: 4 192 (768)
I0920 11:17:57.395344 23603 net.cpp:165] Memory required for data: 1109288544
I0920 11:17:57.395347 23603 layer_factory.hpp:77] Creating layer conv8_2_mbox_conf
I0920 11:17:57.395356 23603 net.cpp:100] Creating Layer conv8_2_mbox_conf
I0920 11:17:57.395360 23603 net.cpp:434] conv8_2_mbox_conf <- conv8_2_conv8_2_relu_0_split_2
I0920 11:17:57.395367 23603 net.cpp:408] conv8_2_mbox_conf -> conv8_2_mbox_conf
I0920 11:17:57.398299 23603 net.cpp:150] Setting up conv8_2_mbox_conf
I0920 11:17:57.398308 23603 net.cpp:157] Top shape: 4 8 3 4 (384)
I0920 11:17:57.398311 23603 net.cpp:165] Memory required for data: 1109290080
I0920 11:17:57.398316 23603 layer_factory.hpp:77] Creating layer conv8_2_mbox_conf_perm
I0920 11:17:57.398324 23603 net.cpp:100] Creating Layer conv8_2_mbox_conf_perm
I0920 11:17:57.398326 23603 net.cpp:434] conv8_2_mbox_conf_perm <- conv8_2_mbox_conf
I0920 11:17:57.398330 23603 net.cpp:408] conv8_2_mbox_conf_perm -> conv8_2_mbox_conf_perm
I0920 11:17:57.398469 23603 net.cpp:150] Setting up conv8_2_mbox_conf_perm
I0920 11:17:57.398473 23603 net.cpp:157] Top shape: 4 3 4 8 (384)
I0920 11:17:57.398476 23603 net.cpp:165] Memory required for data: 1109291616
I0920 11:17:57.398478 23603 layer_factory.hpp:77] Creating layer conv8_2_mbox_conf_flat
I0920 11:17:57.398484 23603 net.cpp:100] Creating Layer conv8_2_mbox_conf_flat
I0920 11:17:57.398488 23603 net.cpp:434] conv8_2_mbox_conf_flat <- conv8_2_mbox_conf_perm
I0920 11:17:57.398490 23603 net.cpp:408] conv8_2_mbox_conf_flat -> conv8_2_mbox_conf_flat
I0920 11:17:57.398517 23603 net.cpp:150] Setting up conv8_2_mbox_conf_flat
I0920 11:17:57.398520 23603 net.cpp:157] Top shape: 4 96 (384)
I0920 11:17:57.398524 23603 net.cpp:165] Memory required for data: 1109293152
I0920 11:17:57.398526 23603 layer_factory.hpp:77] Creating layer conv8_2_mbox_priorbox
I0920 11:17:57.398531 23603 net.cpp:100] Creating Layer conv8_2_mbox_priorbox
I0920 11:17:57.398535 23603 net.cpp:434] conv8_2_mbox_priorbox <- conv8_2_conv8_2_relu_0_split_3
I0920 11:17:57.398537 23603 net.cpp:434] conv8_2_mbox_priorbox <- data_data_0_split_5
I0920 11:17:57.398541 23603 net.cpp:408] conv8_2_mbox_priorbox -> conv8_2_mbox_priorbox
I0920 11:17:57.398568 23603 net.cpp:150] Setting up conv8_2_mbox_priorbox
I0920 11:17:57.398571 23603 net.cpp:157] Top shape: 1 2 192 (384)
I0920 11:17:57.398574 23603 net.cpp:165] Memory required for data: 1109294688
I0920 11:17:57.398576 23603 layer_factory.hpp:77] Creating layer conv9_2_mbox_loc
I0920 11:17:57.398584 23603 net.cpp:100] Creating Layer conv9_2_mbox_loc
I0920 11:17:57.398588 23603 net.cpp:434] conv9_2_mbox_loc <- conv9_2_conv9_2_relu_0_split_0
I0920 11:17:57.398592 23603 net.cpp:408] conv9_2_mbox_loc -> conv9_2_mbox_loc
I0920 11:17:57.400763 23603 net.cpp:150] Setting up conv9_2_mbox_loc
I0920 11:17:57.400771 23603 net.cpp:157] Top shape: 4 16 1 2 (128)
I0920 11:17:57.400775 23603 net.cpp:165] Memory required for data: 1109295200
I0920 11:17:57.400779 23603 layer_factory.hpp:77] Creating layer conv9_2_mbox_loc_perm
I0920 11:17:57.400785 23603 net.cpp:100] Creating Layer conv9_2_mbox_loc_perm
I0920 11:17:57.400789 23603 net.cpp:434] conv9_2_mbox_loc_perm <- conv9_2_mbox_loc
I0920 11:17:57.400794 23603 net.cpp:408] conv9_2_mbox_loc_perm -> conv9_2_mbox_loc_perm
I0920 11:17:57.400945 23603 net.cpp:150] Setting up conv9_2_mbox_loc_perm
I0920 11:17:57.400951 23603 net.cpp:157] Top shape: 4 1 2 16 (128)
I0920 11:17:57.400954 23603 net.cpp:165] Memory required for data: 1109295712
I0920 11:17:57.400956 23603 layer_factory.hpp:77] Creating layer conv9_2_mbox_loc_flat
I0920 11:17:57.400960 23603 net.cpp:100] Creating Layer conv9_2_mbox_loc_flat
I0920 11:17:57.400964 23603 net.cpp:434] conv9_2_mbox_loc_flat <- conv9_2_mbox_loc_perm
I0920 11:17:57.400966 23603 net.cpp:408] conv9_2_mbox_loc_flat -> conv9_2_mbox_loc_flat
I0920 11:17:57.400992 23603 net.cpp:150] Setting up conv9_2_mbox_loc_flat
I0920 11:17:57.400996 23603 net.cpp:157] Top shape: 4 32 (128)
I0920 11:17:57.401000 23603 net.cpp:165] Memory required for data: 1109296224
I0920 11:17:57.401001 23603 layer_factory.hpp:77] Creating layer conv9_2_mbox_conf
I0920 11:17:57.401010 23603 net.cpp:100] Creating Layer conv9_2_mbox_conf
I0920 11:17:57.401012 23603 net.cpp:434] conv9_2_mbox_conf <- conv9_2_conv9_2_relu_0_split_1
I0920 11:17:57.401015 23603 net.cpp:408] conv9_2_mbox_conf -> conv9_2_mbox_conf
I0920 11:17:57.402995 23603 net.cpp:150] Setting up conv9_2_mbox_conf
I0920 11:17:57.403002 23603 net.cpp:157] Top shape: 4 8 1 2 (64)
I0920 11:17:57.403007 23603 net.cpp:165] Memory required for data: 1109296480
I0920 11:17:57.403012 23603 layer_factory.hpp:77] Creating layer conv9_2_mbox_conf_perm
I0920 11:17:57.403015 23603 net.cpp:100] Creating Layer conv9_2_mbox_conf_perm
I0920 11:17:57.403018 23603 net.cpp:434] conv9_2_mbox_conf_perm <- conv9_2_mbox_conf
I0920 11:17:57.403023 23603 net.cpp:408] conv9_2_mbox_conf_perm -> conv9_2_mbox_conf_perm
I0920 11:17:57.403172 23603 net.cpp:150] Setting up conv9_2_mbox_conf_perm
I0920 11:17:57.403177 23603 net.cpp:157] Top shape: 4 1 2 8 (64)
I0920 11:17:57.403180 23603 net.cpp:165] Memory required for data: 1109296736
I0920 11:17:57.403182 23603 layer_factory.hpp:77] Creating layer conv9_2_mbox_conf_flat
I0920 11:17:57.403187 23603 net.cpp:100] Creating Layer conv9_2_mbox_conf_flat
I0920 11:17:57.403190 23603 net.cpp:434] conv9_2_mbox_conf_flat <- conv9_2_mbox_conf_perm
I0920 11:17:57.403193 23603 net.cpp:408] conv9_2_mbox_conf_flat -> conv9_2_mbox_conf_flat
I0920 11:17:57.403219 23603 net.cpp:150] Setting up conv9_2_mbox_conf_flat
I0920 11:17:57.403223 23603 net.cpp:157] Top shape: 4 16 (64)
I0920 11:17:57.403226 23603 net.cpp:165] Memory required for data: 1109296992
I0920 11:17:57.403229 23603 layer_factory.hpp:77] Creating layer conv9_2_mbox_priorbox
I0920 11:17:57.403234 23603 net.cpp:100] Creating Layer conv9_2_mbox_priorbox
I0920 11:17:57.403237 23603 net.cpp:434] conv9_2_mbox_priorbox <- conv9_2_conv9_2_relu_0_split_2
I0920 11:17:57.403240 23603 net.cpp:434] conv9_2_mbox_priorbox <- data_data_0_split_6
I0920 11:17:57.403244 23603 net.cpp:408] conv9_2_mbox_priorbox -> conv9_2_mbox_priorbox
I0920 11:17:57.403277 23603 net.cpp:150] Setting up conv9_2_mbox_priorbox
I0920 11:17:57.403281 23603 net.cpp:157] Top shape: 1 2 32 (64)
I0920 11:17:57.403285 23603 net.cpp:165] Memory required for data: 1109297248
I0920 11:17:57.403286 23603 layer_factory.hpp:77] Creating layer mbox_loc
I0920 11:17:57.403292 23603 net.cpp:100] Creating Layer mbox_loc
I0920 11:17:57.403295 23603 net.cpp:434] mbox_loc <- conv4_3_norm_mbox_loc_flat
I0920 11:17:57.403300 23603 net.cpp:434] mbox_loc <- fc7_mbox_loc_flat
I0920 11:17:57.403302 23603 net.cpp:434] mbox_loc <- conv6_2_mbox_loc_flat
I0920 11:17:57.403306 23603 net.cpp:434] mbox_loc <- conv7_2_mbox_loc_flat
I0920 11:17:57.403308 23603 net.cpp:434] mbox_loc <- conv8_2_mbox_loc_flat
I0920 11:17:57.403311 23603 net.cpp:434] mbox_loc <- conv9_2_mbox_loc_flat
I0920 11:17:57.403316 23603 net.cpp:408] mbox_loc -> mbox_loc
I0920 11:17:57.403349 23603 net.cpp:150] Setting up mbox_loc
I0920 11:17:57.403353 23603 net.cpp:157] Top shape: 4 38168 (152672)
I0920 11:17:57.403357 23603 net.cpp:165] Memory required for data: 1109907936
I0920 11:17:57.403359 23603 layer_factory.hpp:77] Creating layer mbox_conf
I0920 11:17:57.403373 23603 net.cpp:100] Creating Layer mbox_conf
I0920 11:17:57.403376 23603 net.cpp:434] mbox_conf <- conv4_3_norm_mbox_conf_flat
I0920 11:17:57.403379 23603 net.cpp:434] mbox_conf <- fc7_mbox_conf_flat
I0920 11:17:57.403383 23603 net.cpp:434] mbox_conf <- conv6_2_mbox_conf_flat
I0920 11:17:57.403385 23603 net.cpp:434] mbox_conf <- conv7_2_mbox_conf_flat
I0920 11:17:57.403388 23603 net.cpp:434] mbox_conf <- conv8_2_mbox_conf_flat
I0920 11:17:57.403390 23603 net.cpp:434] mbox_conf <- conv9_2_mbox_conf_flat
I0920 11:17:57.403393 23603 net.cpp:408] mbox_conf -> mbox_conf
I0920 11:17:57.403419 23603 net.cpp:150] Setting up mbox_conf
I0920 11:17:57.403424 23603 net.cpp:157] Top shape: 4 19084 (76336)
I0920 11:17:57.403426 23603 net.cpp:165] Memory required for data: 1110213280
I0920 11:17:57.403429 23603 layer_factory.hpp:77] Creating layer mbox_priorbox
I0920 11:17:57.403432 23603 net.cpp:100] Creating Layer mbox_priorbox
I0920 11:17:57.403436 23603 net.cpp:434] mbox_priorbox <- conv4_3_norm_mbox_priorbox
I0920 11:17:57.403441 23603 net.cpp:434] mbox_priorbox <- fc7_mbox_priorbox
I0920 11:17:57.403446 23603 net.cpp:434] mbox_priorbox <- conv6_2_mbox_priorbox
I0920 11:17:57.403450 23603 net.cpp:434] mbox_priorbox <- conv7_2_mbox_priorbox
I0920 11:17:57.403453 23603 net.cpp:434] mbox_priorbox <- conv8_2_mbox_priorbox
I0920 11:17:57.403457 23603 net.cpp:434] mbox_priorbox <- conv9_2_mbox_priorbox
I0920 11:17:57.403462 23603 net.cpp:408] mbox_priorbox -> mbox_priorbox
I0920 11:17:57.403491 23603 net.cpp:150] Setting up mbox_priorbox
I0920 11:17:57.403496 23603 net.cpp:157] Top shape: 1 2 38168 (76336)
I0920 11:17:57.403499 23603 net.cpp:165] Memory required for data: 1110518624
I0920 11:17:57.403501 23603 layer_factory.hpp:77] Creating layer mbox_conf_reshape
I0920 11:17:57.403511 23603 net.cpp:100] Creating Layer mbox_conf_reshape
I0920 11:17:57.403513 23603 net.cpp:434] mbox_conf_reshape <- mbox_conf
I0920 11:17:57.403517 23603 net.cpp:408] mbox_conf_reshape -> mbox_conf_reshape
I0920 11:17:57.403551 23603 net.cpp:150] Setting up mbox_conf_reshape
I0920 11:17:57.403555 23603 net.cpp:157] Top shape: 4 9542 2 (76336)
I0920 11:17:57.403558 23603 net.cpp:165] Memory required for data: 1110823968
I0920 11:17:57.403560 23603 layer_factory.hpp:77] Creating layer mbox_conf_softmax
I0920 11:17:57.403564 23603 net.cpp:100] Creating Layer mbox_conf_softmax
I0920 11:17:57.403568 23603 net.cpp:434] mbox_conf_softmax <- mbox_conf_reshape
I0920 11:17:57.403570 23603 net.cpp:408] mbox_conf_softmax -> mbox_conf_softmax
I0920 11:17:57.404052 23603 net.cpp:150] Setting up mbox_conf_softmax
I0920 11:17:57.404058 23603 net.cpp:157] Top shape: 4 9542 2 (76336)
I0920 11:17:57.404062 23603 net.cpp:165] Memory required for data: 1111129312
I0920 11:17:57.404064 23603 layer_factory.hpp:77] Creating layer mbox_conf_flatten
I0920 11:17:57.404069 23603 net.cpp:100] Creating Layer mbox_conf_flatten
I0920 11:17:57.404072 23603 net.cpp:434] mbox_conf_flatten <- mbox_conf_softmax
I0920 11:17:57.404076 23603 net.cpp:408] mbox_conf_flatten -> mbox_conf_flatten
I0920 11:17:57.404103 23603 net.cpp:150] Setting up mbox_conf_flatten
I0920 11:17:57.404109 23603 net.cpp:157] Top shape: 4 19084 (76336)
I0920 11:17:57.404110 23603 net.cpp:165] Memory required for data: 1111434656
I0920 11:17:57.404114 23603 layer_factory.hpp:77] Creating layer detection_out
I0920 11:17:57.404126 23603 net.cpp:100] Creating Layer detection_out
I0920 11:17:57.404130 23603 net.cpp:434] detection_out <- mbox_loc
I0920 11:17:57.404134 23603 net.cpp:434] detection_out <- mbox_conf_flatten
I0920 11:17:57.404136 23603 net.cpp:434] detection_out <- mbox_priorbox
I0920 11:17:57.404140 23603 net.cpp:408] detection_out -> detection_out
W0920 11:17:57.404167 23603 detection_output_layer.cpp:49] Failed to create directory: /home/ly/data/VOCdevkit/results/car352x288_splitKitti_MVT_indoor/SSD_352x288/Main
I0920 11:17:57.406848 23603 net.cpp:150] Setting up detection_out
I0920 11:17:57.406855 23603 net.cpp:157] Top shape: 1 1 1 7 (7)
I0920 11:17:57.406859 23603 net.cpp:165] Memory required for data: 1111434684
I0920 11:17:57.406872 23603 layer_factory.hpp:77] Creating layer detection_eval
I0920 11:17:57.406883 23603 net.cpp:100] Creating Layer detection_eval
I0920 11:17:57.406888 23603 net.cpp:434] detection_eval <- detection_out
I0920 11:17:57.406891 23603 net.cpp:434] detection_eval <- label
I0920 11:17:57.406898 23603 net.cpp:408] detection_eval -> detection_eval
I0920 11:17:57.407752 23603 net.cpp:150] Setting up detection_eval
I0920 11:17:57.407757 23603 net.cpp:157] Top shape: 1 1 2 5 (10)
I0920 11:17:57.407759 23603 net.cpp:165] Memory required for data: 1111434724
I0920 11:17:57.407763 23603 net.cpp:228] detection_eval does not need backward computation.
I0920 11:17:57.407768 23603 net.cpp:228] detection_out does not need backward computation.
I0920 11:17:57.407773 23603 net.cpp:228] mbox_conf_flatten does not need backward computation.
I0920 11:17:57.407776 23603 net.cpp:228] mbox_conf_softmax does not need backward computation.
…
