…
I0826 15:26:38.511720 25446 solver.cpp:106] Creating training net from net file: face_train_test.prototxt
I0826 15:26:38.512199 25446 net.cpp:58] Initializing net from parameters: 
name: "Face-ResNet"
state {
  phase: TRAIN
  level: 0
  stage: ""
}
layer {
  name: "data"
  type: "Data"
  top: "data"
  top: "label"
  include {
    phase: TRAIN
  }
  transform_param {
    scale: 0.0078125
    mirror: true
    mean_value: 127.5
    mean_value: 127.5
    mean_value: 127.5
  }
  data_param {
    source: "/media/ly/data/facenet/facenet_caffe-master/face_recog_celebA_set_lmdb"
    batch_size: 16
    backend: LMDB
  }
}
layer {
  name: "conv1a"
  type: "Convolution"
  bottom: "data"
  top: "conv1a"
  param {
    lr_mult: 1
    decay_mult: 1
  }
  param {
    lr_mult: 2
    decay_mult: 0
  }
  convolution_param {
    num_output: 32
    kernel_size: 3
    stride: 1
    weight_filler {
      type: "xavier"
    }
    bias_filler {
      type: "constant"
      value: 0
    }
  }
}
layer {
  name: "relu1a"
  type: "PReLU"
  bottom: "conv1a"
  top: "conv1a"
}
layer {
  name: "conv1b"
  type: "Convolution"
  bottom: "conv1a"
  top: "conv1b"
  param {
    lr_mult: 1
    decay_mult: 1
  }
  param {
    lr_mult: 2
    decay_mult: 0
  }
  convolution_param {
    num_output: 64
    kernel_size: 3
    stride: 1
    weight_filler {
      type: "xavier"
    }
    bias_filler {
      type: "constant"
      value: 0
    }
  }
}
layer {
  name: "relu1b"
  type: "PReLU"
  bottom: "conv1b"
  top: "conv1b"
}
layer {
  name: "pool1b"
  type: "Pooling"
  bottom: "conv1b"
  top: "pool1b"
  pooling_param {
    pool: MAX
    kernel_size: 2
    stride: 2
  }
}
layer {
  name: "conv2_1"
  type: "Convolution"
  bottom: "pool1b"
  top: "conv2_1"
  param {
    lr_mult: 1
    decay_mult: 1
  }
  param {
    lr_mult: 0
    decay_mult: 0
  }
  convolution_param {
    num_output: 64
    pad: 1
    kernel_size: 3
    stride: 1
    weight_filler {
      type: "gaussian"
      std: 0.01
    }
    bias_filler {
      type: "constant"
      value: 0
    }
  }
}
layer {
  name: "relu2_1"
  type: "PReLU"
  bottom: "conv2_1"
  top: "conv2_1"
}
layer {
  name: "conv2_2"
  type: "Convolution"
  bottom: "conv2_1"
  top: "conv2_2"
  param {
    lr_mult: 1
    decay_mult: 1
  }
  param {
    lr_mult: 0
    decay_mult: 0
  }
  convolution_param {
    num_output: 64
    pad: 1
    kernel_size: 3
    stride: 1
    weight_filler {
      type: "gaussian"
      std: 0.01
    }
    bias_filler {
      type: "constant"
      value: 0
    }
  }
}
layer {
  name: "relu2_2"
  type: "PReLU"
  bottom: "conv2_2"
  top: "conv2_2"
}
layer {
  name: "res2_2"
  type: "Eltwise"
  bottom: "pool1b"
  bottom: "conv2_2"
  top: "res2_2"
  eltwise_param {
    operation: SUM
  }
}
layer {
  name: "conv2"
  type: "Convolution"
  bottom: "res2_2"
  top: "conv2"
  param {
    lr_mult: 1
    decay_mult: 1
  }
  param {
    lr_mult: 2
    decay_mult: 0
  }
  convolution_param {
    num_output: 128
    kernel_size: 3
    stride: 1
    weight_filler {
      type: "xavier"
    }
    bias_filler {
      type: "constant"
      value: 0
    }
  }
}
layer {
  name: "relu2"
  type: "PReLU"
  bottom: "conv2"
  top: "conv2"
}
layer {
  name: "pool2"
  type: "Pooling"
  bottom: "conv2"
  top: "pool2"
  pooling_param {
    pool: MAX
    kernel_size: 2
    stride: 2
  }
}
layer {
  name: "conv3_1"
  type: "Convolution"
  bottom: "pool2"
  top: "conv3_1"
  param {
    lr_mult: 1
    decay_mult: 1
  }
  param {
    lr_mult: 0
    decay_mult: 0
  }
  convolution_param {
    num_output: 128
    pad: 1
    kernel_size: 3
    stride: 1
    weight_filler {
      type: "gaussian"
      std: 0.01
    }
    bias_filler {
      type: "constant"
      value: 0
    }
  }
}
layer {
  name: "relu3_1"
  type: "PReLU"
  bottom: "conv3_1"
  top: "conv3_1"
}
layer {
  name: "conv3_2"
  type: "Convolution"
  bottom: "conv3_1"
  top: "conv3_2"
  param {
    lr_mult: 1
    decay_mult: 1
  }
  param {
    lr_mult: 0
    decay_mult: 0
  }
  convolution_param {
    num_output: 128
    pad: 1
    kernel_size: 3
    stride: 1
    weight_filler {
      type: "gaussian"
      std: 0.01
    }
    bias_filler {
      type: "constant"
      value: 0
    }
  }
}
layer {
  name: "relu3_2"
  type: "PReLU"
  bottom: "conv3_2"
  top: "conv3_2"
}
layer {
  name: "res3_2"
  type: "Eltwise"
  bottom: "pool2"
  bottom: "conv3_2"
  top: "res3_2"
  eltwise_param {
    operation: SUM
  }
}
layer {
  name: "conv3_3"
  type: "Convolution"
  bottom: "res3_2"
  top: "conv3_3"
  param {
    lr_mult: 1
    decay_mult: 1
  }
  param {
    lr_mult: 0
    decay_mult: 0
  }
  convolution_param {
    num_output: 128
    pad: 1
    kernel_size: 3
    stride: 1
    weight_filler {
      type: "gaussian"
      std: 0.01
    }
    bias_filler {
      type: "constant"
      value: 0
    }
  }
}
layer {
  name: "relu3_3"
  type: "PReLU"
  bottom: "conv3_3"
  top: "conv3_3"
}
layer {
  name: "conv3_4"
  type: "Convolution"
  bottom: "conv3_3"
  top: "conv3_4"
  param {
    lr_mult: 1
    decay_mult: 1
  }
  param {
    lr_mult: 0
    decay_mult: 0
  }
  convolution_param {
    num_output: 128
    pad: 1
    kernel_size: 3
    stride: 1
    weight_filler {
      type: "gaussian"
      std: 0.01
    }
    bias_filler {
      type: "constant"
      value: 0
    }
  }
}
layer {
  name: "relu3_4"
  type: "PReLU"
  bottom: "conv3_4"
  top: "conv3_4"
}
layer {
  name: "res3_4"
  type: "Eltwise"
  bottom: "res3_2"
  bottom: "conv3_4"
  top: "res3_4"
  eltwise_param {
    operation: SUM
  }
}
layer {
  name: "conv3"
  type: "Convolution"
  bottom: "res3_4"
  top: "conv3"
  param {
    lr_mult: 1
    decay_mult: 1
  }
  param {
    lr_mult: 2
    decay_mult: 0
  }
  convolution_param {
    num_output: 256
    kernel_size: 3
    stride: 1
    weight_filler {
      type: "xavier"
    }
    bias_filler {
      type: "constant"
      value: 0
    }
  }
}
layer {
  name: "relu3"
  type: "PReLU"
  bottom: "conv3"
  top: "conv3"
}
layer {
  name: "pool3"
  type: "Pooling"
  bottom: "conv3"
  top: "pool3"
  pooling_param {
    pool: MAX
    kernel_size: 2
    stride: 2
  }
}
layer {
  name: "conv4_1"
  type: "Convolution"
  bottom: "pool3"
  top: "conv4_1"
  param {
    lr_mult: 1
    decay_mult: 1
  }
  param {
    lr_mult: 0
    decay_mult: 0
  }
  convolution_param {
    num_output: 256
    pad: 1
    kernel_size: 3
    stride: 1
    weight_filler {
      type: "gaussian"
      std: 0.01
    }
    bias_filler {
      type: "constant"
      value: 0
    }
  }
}
layer {
  name: "relu4_1"
  type: "PReLU"
  bottom: "conv4_1"
  top: "conv4_1"
}
layer {
  name: "conv4_2"
  type: "Convolution"
  bottom: "conv4_1"
  top: "conv4_2"
  param {
    lr_mult: 1
    decay_mult: 1
  }
  param {
    lr_mult: 0
    decay_mult: 0
  }
  convolution_param {
    num_output: 256
    pad: 1
    kernel_size: 3
    stride: 1
    weight_filler {
      type: "gaussian"
      std: 0.01
    }
    bias_filler {
      type: "constant"
      value: 0
    }
  }
}
layer {
  name: "relu4_2"
  type: "PReLU"
  bottom: "conv4_2"
  top: "conv4_2"
}
layer {
  name: "res4_2"
  type: "Eltwise"
  bottom: "pool3"
  bottom: "conv4_2"
  top: "res4_2"
  eltwise_param {
    operation: SUM
  }
}
layer {
  name: "conv4_3"
  type: "Convolution"
  bottom: "res4_2"
  top: "conv4_3"
  param {
    lr_mult: 1
    decay_mult: 1
  }
  param {
    lr_mult: 0
    decay_mult: 0
  }
  convolution_param {
    num_output: 256
    pad: 1
    kernel_size: 3
    stride: 1
    weight_filler {
      type: "gaussian"
      std: 0.01
    }
    bias_filler {
      type: "constant"
      value: 0
    }
  }
}
layer {
  name: "relu4_3"
  type: "PReLU"
  bottom: "conv4_3"
  top: "conv4_3"
}
layer {
  name: "conv4_4"
  type: "Convolution"
  bottom: "conv4_3"
  top: "conv4_4"
  param {
    lr_mult: 1
    decay_mult: 1
  }
  param {
    lr_mult: 0
    decay_mult: 0
  }
  convolution_param {
    num_output: 256
    pad: 1
    kernel_size: 3
    stride: 1
    weight_filler {
      type: "gaussian"
      std: 0.01
    }
    bias_filler {
      type: "constant"
      value: 0
    }
  }
}
layer {
  name: "relu4_4"
  type: "PReLU"
  bottom: "conv4_4"
  top: "conv4_4"
}
layer {
  name: "res4_4"
  type: "Eltwise"
  bottom: "res4_2"
  bottom: "conv4_4"
  top: "res4_4"
  eltwise_param {
    operation: SUM
  }
}
layer {
  name: "conv4_5"
  type: "Convolution"
  bottom: "res4_4"
  top: "conv4_5"
  param {
    lr_mult: 1
    decay_mult: 1
  }
  param {
    lr_mult: 0
    decay_mult: 0
  }
  convolution_param {
    num_output: 256
    pad: 1
    kernel_size: 3
    stride: 1
    weight_filler {
      type: "gaussian"
      std: 0.01
    }
    bias_filler {
      type: "constant"
      value: 0
    }
  }
}
layer {
  name: "relu4_5"
  type: "PReLU"
  bottom: "conv4_5"
  top: "conv4_5"
}
layer {
  name: "conv4_6"
  type: "Convolution"
  bottom: "conv4_5"
  top: "conv4_6"
  param {
    lr_mult: 1
    decay_mult: 1
  }
  param {
    lr_mult: 0
    decay_mult: 0
  }
  convolution_param {
    num_output: 256
    pad: 1
    kernel_size: 3
    stride: 1
    weight_filler {
      type: "gaussian"
      std: 0.01
    }
    bias_filler {
      type: "constant"
      value: 0
    }
  }
}
layer {
  name: "relu4_6"
  type: "PReLU"
  bottom: "conv4_6"
  top: "conv4_6"
}
layer {
  name: "res4_6"
  type: "Eltwise"
  bottom: "res4_4"
  bottom: "conv4_6"
  top: "res4_6"
  eltwise_param {
    operation: SUM
  }
}
layer {
  name: "conv4_7"
  type: "Convolution"
  bottom: "res4_6"
  top: "conv4_7"
  param {
    lr_mult: 1
    decay_mult: 1
  }
  param {
    lr_mult: 0
    decay_mult: 0
  }
  convolution_param {
    num_output: 256
    pad: 1
    kernel_size: 3
    stride: 1
    weight_filler {
      type: "gaussian"
      std: 0.01
    }
    bias_filler {
      type: "constant"
      value: 0
    }
  }
}
layer {
  name: "relu4_7"
  type: "PReLU"
  bottom: "conv4_7"
  top: "conv4_7"
}
layer {
  name: "conv4_8"
  type: "Convolution"
  bottom: "conv4_7"
  top: "conv4_8"
  param {
    lr_mult: 1
    decay_mult: 1
  }
  param {
    lr_mult: 0
    decay_mult: 0
  }
  convolution_param {
    num_output: 256
    pad: 1
    kernel_size: 3
    stride: 1
    weight_filler {
      type: "gaussian"
      std: 0.01
    }
    bias_filler {
      type: "constant"
      value: 0
    }
  }
}
layer {
  name: "relu4_8"
  type: "PReLU"
  bottom: "conv4_8"
  top: "conv4_8"
}
layer {
  name: "res4_8"
  type: "Eltwise"
  bottom: "res4_6"
  bottom: "conv4_8"
  top: "res4_8"
  eltwise_param {
    operation: SUM
  }
}
layer {
  name: "conv4_9"
  type: "Convolution"
  bottom: "res4_8"
  top: "conv4_9"
  param {
    lr_mult: 1
    decay_mult: 1
  }
  param {
    lr_mult: 0
    decay_mult: 0
  }
  convolution_param {
    num_output: 256
    pad: 1
    kernel_size: 3
    stride: 1
    weight_filler {
      type: "gaussian"
      std: 0.01
    }
    bias_filler {
      type: "constant"
      value: 0
    }
  }
}
layer {
  name: "relu4_9"
  type: "PReLU"
  bottom: "conv4_9"
  top: "conv4_9"
}
layer {
  name: "conv4_10"
  type: "Convolution"
  bottom: "conv4_9"
  top: "conv4_10"
  param {
    lr_mult: 1
    decay_mult: 1
  }
  param {
    lr_mult: 0
    decay_mult: 0
  }
  convolution_param {
    num_output: 256
    pad: 1
    kernel_size: 3
    stride: 1
    weight_filler {
      type: "gaussian"
      std: 0.01
    }
    bias_filler {
      type: "constant"
      value: 0
    }
  }
}
layer {
  name: "relu4_10"
  type: "PReLU"
  bottom: "conv4_10"
  top: "conv4_10"
}
layer {
  name: "res4_10"
  type: "Eltwise"
  bottom: "res4_8"
  bottom: "conv4_10"
  top: "res4_10"
  eltwise_param {
    operation: SUM
  }
}
layer {
  name: "conv4"
  type: "Convolution"
  bottom: "res4_10"
  top: "conv4"
  param {
    lr_mult: 1
    decay_mult: 1
  }
  param {
    lr_mult: 2
    decay_mult: 0
  }
  convolution_param {
    num_output: 512
    kernel_size: 3
    stride: 1
    weight_filler {
      type: "xavier"
    }
    bias_filler {
      type: "constant"
      value: 0
    }
  }
}
layer {
  name: "relu4"
  type: "PReLU"
  bottom: "conv4"
  top: "conv4"
}
layer {
  name: "pool4"
  type: "Pooling"
  bottom: "conv4"
  top: "pool4"
  pooling_param {
    pool: MAX
    kernel_size: 2
    stride: 2
  }
}
layer {
  name: "conv5_1"
  type: "Convolution"
  bottom: "pool4"
  top: "conv5_1"
  param {
    lr_mult: 1
    decay_mult: 1
  }
  param {
    lr_mult: 0
    decay_mult: 0
  }
  convolution_param {
    num_output: 512
    pad: 1
    kernel_size: 3
    stride: 1
    weight_filler {
      type: "gaussian"
      std: 0.01
    }
    bias_filler {
      type: "constant"
      value: 0
    }
  }
}
layer {
  name: "relu5_1"
  type: "PReLU"
  bottom: "conv5_1"
  top: "conv5_1"
}
layer {
  name: "conv5_2"
  type: "Convolution"
  bottom: "conv5_1"
  top: "conv5_2"
  param {
    lr_mult: 1
    decay_mult: 1
  }
  param {
    lr_mult: 0
    decay_mult: 0
  }
  convolution_param {
    num_output: 512
    pad: 1
    kernel_size: 3
    stride: 1
    weight_filler {
      type: "gaussian"
      std: 0.01
    }
    bias_filler {
      type: "constant"
      value: 0
    }
  }
}
layer {
  name: "relu5_2"
  type: "PReLU"
  bottom: "conv5_2"
  top: "conv5_2"
}
layer {
  name: "res5_2"
  type: "Eltwise"
  bottom: "pool4"
  bottom: "conv5_2"
  top: "res5_2"
  eltwise_param {
    operation: SUM
  }
}
layer {
  name: "conv5_3"
  type: "Convolution"
  bottom: "res5_2"
  top: "conv5_3"
  param {
    lr_mult: 1
    decay_mult: 1
  }
  param {
    lr_mult: 0
    decay_mult: 0
  }
  convolution_param {
    num_output: 512
    pad: 1
    kernel_size: 3
    stride: 1
    weight_filler {
      type: "gaussian"
      std: 0.01
    }
    bias_filler {
      type: "constant"
      value: 0
    }
  }
}
layer {
  name: "relu5_3"
  type: "PReLU"
  bottom: "conv5_3"
  top: "conv5_3"
}
layer {
  name: "conv5_4"
  type: "Convolution"
  bottom: "conv5_3"
  top: "conv5_4"
  param {
    lr_mult: 1
    decay_mult: 1
  }
  param {
    lr_mult: 0
    decay_mult: 0
  }
  convolution_param {
    num_output: 512
    pad: 1
    kernel_size: 3
    stride: 1
    weight_filler {
      type: "gaussian"
      std: 0.01
    }
    bias_filler {
      type: "constant"
      value: 0
    }
  }
}
layer {
  name: "relu5_4"
  type: "PReLU"
  bottom: "conv5_4"
  top: "conv5_4"
}
layer {
  name: "res5_4"
  type: "Eltwise"
  bottom: "res5_2"
  bottom: "conv5_4"
  top: "res5_4"
  eltwise_param {
    operation: SUM
  }
}
layer {
  name: "conv5_5"
  type: "Convolution"
  bottom: "res5_4"
  top: "conv5_5"
  param {
    lr_mult: 1
    decay_mult: 1
  }
  param {
    lr_mult: 0
    decay_mult: 0
  }
  convolution_param {
    num_output: 512
    pad: 1
    kernel_size: 3
    stride: 1
    weight_filler {
      type: "gaussian"
      std: 0.01
    }
    bias_filler {
      type: "constant"
      value: 0
    }
  }
}
layer {
  name: "relu5_5"
  type: "PReLU"
  bottom: "conv5_5"
  top: "conv5_5"
}
layer {
  name: "conv5_6"
  type: "Convolution"
  bottom: "conv5_5"
  top: "conv5_6"
  param {
    lr_mult: 1
    decay_mult: 1
  }
  param {
    lr_mult: 0
    decay_mult: 0
  }
  convolution_param {
    num_output: 512
    pad: 1
    kernel_size: 3
    stride: 1
    weight_filler {
      type: "gaussian"
      std: 0.01
    }
    bias_filler {
      type: "constant"
      value: 0
    }
  }
}
layer {
  name: "relu5_6"
  type: "PReLU"
  bottom: "conv5_6"
  top: "conv5_6"
}
layer {
  name: "res5_6"
  type: "Eltwise"
  bottom: "res5_4"
  bottom: "conv5_6"
  top: "res5_6"
  eltwise_param {
    operation: SUM
  }
}
layer {
  name: "fc_5"
  type: "InnerProduct"
  bottom: "res5_6"
  top: "fc_5"
  param {
    lr_mult: 1
    decay_mult: 1
  }
  param {
    lr_mult: 2
    decay_mult: 0
  }
  inner_product_param {
    num_output: 512
    weight_filler {
      type: "xavier"
    }
    bias_filler {
      type: "constant"
      value: 0
    }
  }
}
layer {
  name: "fc_6"
  type: "InnerProduct"
  bottom: "fc_5"
  top: "fc_6"
  param {
    lr_mult: 1
    decay_mult: 1
  }
  param {
    lr_mult: 2
    decay_mult: 0
  }
  inner_product_param {
    num_output: 10177
    weight_filler {
      type: "xavier"
    }
    bias_filler {
      type: "constant"
      value: 0
    }
  }
}
layer {
  name: "softmax_loss"
  type: "SoftmaxWithLoss"
  bottom: "fc_6"
  bottom: "label"
  top: "softmax_loss"
}
layer {
  name: "center_loss"
  type: "CenterLoss"
  bottom: "fc_5"
  bottom: "label"
  top: "center_loss"
  loss_weight: 0.008
  param {
    lr_mult: 1
    decay_mult: 2
  }
  center_loss_param {
    num_output: 10177
    center_filler {
      type: "xavier"
    }
  }
}
I0826 15:26:38.512702 25446 layer_factory.hpp:77] Creating layer data
I0826 15:26:38.512887 25446 net.cpp:100] Creating Layer data
I0826 15:26:38.512897 25446 net.cpp:408] data -> data
I0826 15:26:38.512915 25446 net.cpp:408] data -> label
I0826 15:26:38.513540 25465 db_lmdb.cpp:35] Opened lmdb /media/ly/data/facenet/facenet_caffe-master/face_recog_celebA_set_lmdb
I0826 15:26:38.526090 25446 data_layer.cpp:41] output data size: 16,3,224,224
I0826 15:26:38.535876 25446 net.cpp:150] Setting up data
I0826 15:26:38.535897 25446 net.cpp:157] Top shape: 16 3 224 224 (2408448)
I0826 15:26:38.535904 25446 net.cpp:157] Top shape: 16 (16)
I0826 15:26:38.535907 25446 net.cpp:165] Memory required for data: 9633856
I0826 15:26:38.535913 25446 layer_factory.hpp:77] Creating layer label_data_1_split
I0826 15:26:38.535924 25446 net.cpp:100] Creating Layer label_data_1_split
I0826 15:26:38.535929 25446 net.cpp:434] label_data_1_split <- label
I0826 15:26:38.535939 25446 net.cpp:408] label_data_1_split -> label_data_1_split_0
I0826 15:26:38.535948 25446 net.cpp:408] label_data_1_split -> label_data_1_split_1
I0826 15:26:38.535984 25446 net.cpp:150] Setting up label_data_1_split
I0826 15:26:38.535990 25446 net.cpp:157] Top shape: 16 (16)
I0826 15:26:38.535995 25446 net.cpp:157] Top shape: 16 (16)
I0826 15:26:38.536000 25446 net.cpp:165] Memory required for data: 9633984
I0826 15:26:38.536015 25446 layer_factory.hpp:77] Creating layer conv1a
I0826 15:26:38.536043 25446 net.cpp:100] Creating Layer conv1a
I0826 15:26:38.536046 25446 net.cpp:434] conv1a <- data
I0826 15:26:38.536049 25446 net.cpp:408] conv1a -> conv1a
I0826 15:26:39.267613 25446 net.cpp:150] Setting up conv1a
I0826 15:26:39.267629 25446 net.cpp:157] Top shape: 16 32 222 222 (25233408)
I0826 15:26:39.267652 25446 net.cpp:165] Memory required for data: 110567616
I0826 15:26:39.267668 25446 layer_factory.hpp:77] Creating layer relu1a
I0826 15:26:39.267676 25446 net.cpp:100] Creating Layer relu1a
I0826 15:26:39.267694 25446 net.cpp:434] relu1a <- conv1a
I0826 15:26:39.267700 25446 net.cpp:395] relu1a -> conv1a (in-place)
I0826 15:26:39.269476 25446 net.cpp:150] Setting up relu1a
I0826 15:26:39.269485 25446 net.cpp:157] Top shape: 16 32 222 222 (25233408)
I0826 15:26:39.269490 25446 net.cpp:165] Memory required for data: 211501248
I0826 15:26:39.269496 25446 layer_factory.hpp:77] Creating layer conv1b
I0826 15:26:39.269505 25446 net.cpp:100] Creating Layer conv1b
I0826 15:26:39.269508 25446 net.cpp:434] conv1b <- conv1a
I0826 15:26:39.269512 25446 net.cpp:408] conv1b -> conv1b
I0826 15:26:39.270937 25446 net.cpp:150] Setting up conv1b
I0826 15:26:39.270946 25446 net.cpp:157] Top shape: 16 64 220 220 (49561600)
I0826 15:26:39.270951 25446 net.cpp:165] Memory required for data: 409747648
I0826 15:26:39.270956 25446 layer_factory.hpp:77] Creating layer relu1b
I0826 15:26:39.270959 25446 net.cpp:100] Creating Layer relu1b
I0826 15:26:39.270962 25446 net.cpp:434] relu1b <- conv1b
I0826 15:26:39.270965 25446 net.cpp:395] relu1b -> conv1b (in-place)
I0826 15:26:39.274452 25446 net.cpp:150] Setting up relu1b
I0826 15:26:39.274468 25446 net.cpp:157] Top shape: 16 64 220 220 (49561600)
I0826 15:26:39.274474 25446 net.cpp:165] Memory required for data: 607994048
I0826 15:26:39.274482 25446 layer_factory.hpp:77] Creating layer pool1b
I0826 15:26:39.274488 25446 net.cpp:100] Creating Layer pool1b
I0826 15:26:39.274492 25446 net.cpp:434] pool1b <- conv1b
I0826 15:26:39.274497 25446 net.cpp:408] pool1b -> pool1b
I0826 15:26:39.274619 25446 net.cpp:150] Setting up pool1b
I0826 15:26:39.274624 25446 net.cpp:157] Top shape: 16 64 110 110 (12390400)
I0826 15:26:39.274628 25446 net.cpp:165] Memory required for data: 657555648
I0826 15:26:39.274631 25446 layer_factory.hpp:77] Creating layer pool1b_pool1b_0_split
I0826 15:26:39.274636 25446 net.cpp:100] Creating Layer pool1b_pool1b_0_split
I0826 15:26:39.274637 25446 net.cpp:434] pool1b_pool1b_0_split <- pool1b
I0826 15:26:39.274641 25446 net.cpp:408] pool1b_pool1b_0_split -> pool1b_pool1b_0_split_0
I0826 15:26:39.274646 25446 net.cpp:408] pool1b_pool1b_0_split -> pool1b_pool1b_0_split_1
I0826 15:26:39.274670 25446 net.cpp:150] Setting up pool1b_pool1b_0_split
I0826 15:26:39.274674 25446 net.cpp:157] Top shape: 16 64 110 110 (12390400)
I0826 15:26:39.274677 25446 net.cpp:157] Top shape: 16 64 110 110 (12390400)
I0826 15:26:39.274679 25446 net.cpp:165] Memory required for data: 756678848
I0826 15:26:39.274682 25446 layer_factory.hpp:77] Creating layer conv2_1
I0826 15:26:39.274693 25446 net.cpp:100] Creating Layer conv2_1
I0826 15:26:39.274698 25446 net.cpp:434] conv2_1 <- pool1b_pool1b_0_split_0
I0826 15:26:39.274703 25446 net.cpp:408] conv2_1 -> conv2_1
I0826 15:26:39.276949 25446 net.cpp:150] Setting up conv2_1
I0826 15:26:39.276957 25446 net.cpp:157] Top shape: 16 64 110 110 (12390400)
I0826 15:26:39.276960 25446 net.cpp:165] Memory required for data: 806240448
I0826 15:26:39.276965 25446 layer_factory.hpp:77] Creating layer relu2_1
I0826 15:26:39.276969 25446 net.cpp:100] Creating Layer relu2_1
I0826 15:26:39.276973 25446 net.cpp:434] relu2_1 <- conv2_1
I0826 15:26:39.276975 25446 net.cpp:395] relu2_1 -> conv2_1 (in-place)
I0826 15:26:39.277941 25446 net.cpp:150] Setting up relu2_1
I0826 15:26:39.277948 25446 net.cpp:157] Top shape: 16 64 110 110 (12390400)
I0826 15:26:39.277952 25446 net.cpp:165] Memory required for data: 855802048
I0826 15:26:39.277957 25446 layer_factory.hpp:77] Creating layer conv2_2
I0826 15:26:39.277964 25446 net.cpp:100] Creating Layer conv2_2
I0826 15:26:39.277967 25446 net.cpp:434] conv2_2 <- conv2_1
I0826 15:26:39.277971 25446 net.cpp:408] conv2_2 -> conv2_2
I0826 15:26:39.280758 25446 net.cpp:150] Setting up conv2_2
I0826 15:26:39.280767 25446 net.cpp:157] Top shape: 16 64 110 110 (12390400)
I0826 15:26:39.280771 25446 net.cpp:165] Memory required for data: 905363648
I0826 15:26:39.280776 25446 layer_factory.hpp:77] Creating layer relu2_2
I0826 15:26:39.280781 25446 net.cpp:100] Creating Layer relu2_2
I0826 15:26:39.280786 25446 net.cpp:434] relu2_2 <- conv2_2
I0826 15:26:39.280788 25446 net.cpp:395] relu2_2 -> conv2_2 (in-place)
I0826 15:26:39.281759 25446 net.cpp:150] Setting up relu2_2
I0826 15:26:39.281767 25446 net.cpp:157] Top shape: 16 64 110 110 (12390400)
I0826 15:26:39.281771 25446 net.cpp:165] Memory required for data: 954925248
I0826 15:26:39.281775 25446 layer_factory.hpp:77] Creating layer res2_2
I0826 15:26:39.281786 25446 net.cpp:100] Creating Layer res2_2
I0826 15:26:39.281790 25446 net.cpp:434] res2_2 <- pool1b_pool1b_0_split_1
I0826 15:26:39.281792 25446 net.cpp:434] res2_2 <- conv2_2
I0826 15:26:39.281795 25446 net.cpp:408] res2_2 -> res2_2
I0826 15:26:39.281819 25446 net.cpp:150] Setting up res2_2
I0826 15:26:39.281823 25446 net.cpp:157] Top shape: 16 64 110 110 (12390400)
I0826 15:26:39.281826 25446 net.cpp:165] Memory required for data: 1004486848
I0826 15:26:39.281828 25446 layer_factory.hpp:77] Creating layer conv2
I0826 15:26:39.281834 25446 net.cpp:100] Creating Layer conv2
I0826 15:26:39.281837 25446 net.cpp:434] conv2 <- res2_2
I0826 15:26:39.281841 25446 net.cpp:408] conv2 -> conv2
I0826 15:26:39.284255 25446 net.cpp:150] Setting up conv2
I0826 15:26:39.284265 25446 net.cpp:157] Top shape: 16 128 108 108 (23887872)
I0826 15:26:39.284284 25446 net.cpp:165] Memory required for data: 1100038336
I0826 15:26:39.284289 25446 layer_factory.hpp:77] Creating layer relu2
I0826 15:26:39.284294 25446 net.cpp:100] Creating Layer relu2
I0826 15:26:39.284298 25446 net.cpp:434] relu2 <- conv2
I0826 15:26:39.284304 25446 net.cpp:395] relu2 -> conv2 (in-place)
I0826 15:26:39.286046 25446 net.cpp:150] Setting up relu2
I0826 15:26:39.286056 25446 net.cpp:157] Top shape: 16 128 108 108 (23887872)
I0826 15:26:39.286062 25446 net.cpp:165] Memory required for data: 1195589824
I0826 15:26:39.286067 25446 layer_factory.hpp:77] Creating layer pool2
I0826 15:26:39.286072 25446 net.cpp:100] Creating Layer pool2
I0826 15:26:39.286074 25446 net.cpp:434] pool2 <- conv2
I0826 15:26:39.286078 25446 net.cpp:408] pool2 -> pool2
I0826 15:26:39.286129 25446 net.cpp:150] Setting up pool2
I0826 15:26:39.286135 25446 net.cpp:157] Top shape: 16 128 54 54 (5971968)
I0826 15:26:39.286154 25446 net.cpp:165] Memory required for data: 1219477696
I0826 15:26:39.286156 25446 layer_factory.hpp:77] Creating layer pool2_pool2_0_split
I0826 15:26:39.286164 25446 net.cpp:100] Creating Layer pool2_pool2_0_split
I0826 15:26:39.286166 25446 net.cpp:434] pool2_pool2_0_split <- pool2
I0826 15:26:39.286170 25446 net.cpp:408] pool2_pool2_0_split -> pool2_pool2_0_split_0
I0826 15:26:39.286173 25446 net.cpp:408] pool2_pool2_0_split -> pool2_pool2_0_split_1
I0826 15:26:39.286237 25446 net.cpp:150] Setting up pool2_pool2_0_split
I0826 15:26:39.286242 25446 net.cpp:157] Top shape: 16 128 54 54 (5971968)
I0826 15:26:39.286244 25446 net.cpp:157] Top shape: 16 128 54 54 (5971968)
I0826 15:26:39.286247 25446 net.cpp:165] Memory required for data: 1267253440
I0826 15:26:39.286249 25446 layer_factory.hpp:77] Creating layer conv3_1
I0826 15:26:39.286257 25446 net.cpp:100] Creating Layer conv3_1
I0826 15:26:39.286258 25446 net.cpp:434] conv3_1 <- pool2_pool2_0_split_0
I0826 15:26:39.286262 25446 net.cpp:408] conv3_1 -> conv3_1
I0826 15:26:39.289098 25446 net.cpp:150] Setting up conv3_1
I0826 15:26:39.289105 25446 net.cpp:157] Top shape: 16 128 54 54 (5971968)
I0826 15:26:39.289124 25446 net.cpp:165] Memory required for data: 1291141312
I0826 15:26:39.289131 25446 layer_factory.hpp:77] Creating layer relu3_1
I0826 15:26:39.289137 25446 net.cpp:100] Creating Layer relu3_1
I0826 15:26:39.289144 25446 net.cpp:434] relu3_1 <- conv3_1
I0826 15:26:39.289149 25446 net.cpp:395] relu3_1 -> conv3_1 (in-place)
I0826 15:26:39.289837 25446 net.cpp:150] Setting up relu3_1
I0826 15:26:39.289845 25446 net.cpp:157] Top shape: 16 128 54 54 (5971968)
I0826 15:26:39.289849 25446 net.cpp:165] Memory required for data: 1315029184
I0826 15:26:39.289867 25446 layer_factory.hpp:77] Creating layer conv3_2
I0826 15:26:39.289875 25446 net.cpp:100] Creating Layer conv3_2
I0826 15:26:39.289877 25446 net.cpp:434] conv3_2 <- conv3_1
I0826 15:26:39.289881 25446 net.cpp:408] conv3_2 -> conv3_2
I0826 15:26:39.292876 25446 net.cpp:150] Setting up conv3_2
I0826 15:26:39.292884 25446 net.cpp:157] Top shape: 16 128 54 54 (5971968)
I0826 15:26:39.292903 25446 net.cpp:165] Memory required for data: 1338917056
I0826 15:26:39.292908 25446 layer_factory.hpp:77] Creating layer relu3_2
I0826 15:26:39.292912 25446 net.cpp:100] Creating Layer relu3_2
I0826 15:26:39.292915 25446 net.cpp:434] relu3_2 <- conv3_2
I0826 15:26:39.292918 25446 net.cpp:395] relu3_2 -> conv3_2 (in-place)
I0826 15:26:39.293629 25446 net.cpp:150] Setting up relu3_2
I0826 15:26:39.293637 25446 net.cpp:157] Top shape: 16 128 54 54 (5971968)
I0826 15:26:39.293655 25446 net.cpp:165] Memory required for data: 1362804928
I0826 15:26:39.293659 25446 layer_factory.hpp:77] Creating layer res3_2
I0826 15:26:39.293664 25446 net.cpp:100] Creating Layer res3_2
I0826 15:26:39.293668 25446 net.cpp:434] res3_2 <- pool2_pool2_0_split_1
I0826 15:26:39.293670 25446 net.cpp:434] res3_2 <- conv3_2
I0826 15:26:39.293674 25446 net.cpp:408] res3_2 -> res3_2
I0826 15:26:39.293695 25446 net.cpp:150] Setting up res3_2
I0826 15:26:39.293699 25446 net.cpp:157] Top shape: 16 128 54 54 (5971968)
I0826 15:26:39.293702 25446 net.cpp:165] Memory required for data: 1386692800
I0826 15:26:39.293705 25446 layer_factory.hpp:77] Creating layer res3_2_res3_2_0_split
I0826 15:26:39.293711 25446 net.cpp:100] Creating Layer res3_2_res3_2_0_split
I0826 15:26:39.293715 25446 net.cpp:434] res3_2_res3_2_0_split <- res3_2
I0826 15:26:39.293735 25446 net.cpp:408] res3_2_res3_2_0_split -> res3_2_res3_2_0_split_0
I0826 15:26:39.293741 25446 net.cpp:408] res3_2_res3_2_0_split -> res3_2_res3_2_0_split_1
I0826 15:26:39.293779 25446 net.cpp:150] Setting up res3_2_res3_2_0_split
I0826 15:26:39.293785 25446 net.cpp:157] Top shape: 16 128 54 54 (5971968)
I0826 15:26:39.293803 25446 net.cpp:157] Top shape: 16 128 54 54 (5971968)
I0826 15:26:39.293807 25446 net.cpp:165] Memory required for data: 1434468544
I0826 15:26:39.293825 25446 layer_factory.hpp:77] Creating layer conv3_3
I0826 15:26:39.293833 25446 net.cpp:100] Creating Layer conv3_3
I0826 15:26:39.293838 25446 net.cpp:434] conv3_3 <- res3_2_res3_2_0_split_0
I0826 15:26:39.293843 25446 net.cpp:408] conv3_3 -> conv3_3
I0826 15:26:39.296653 25446 net.cpp:150] Setting up conv3_3
I0826 15:26:39.296661 25446 net.cpp:157] Top shape: 16 128 54 54 (5971968)
I0826 15:26:39.296680 25446 net.cpp:165] Memory required for data: 1458356416
I0826 15:26:39.296685 25446 layer_factory.hpp:77] Creating layer relu3_3
I0826 15:26:39.296690 25446 net.cpp:100] Creating Layer relu3_3
I0826 15:26:39.296694 25446 net.cpp:434] relu3_3 <- conv3_3
I0826 15:26:39.296696 25446 net.cpp:395] relu3_3 -> conv3_3 (in-place)
I0826 15:26:39.297415 25446 net.cpp:150] Setting up relu3_3
I0826 15:26:39.297422 25446 net.cpp:157] Top shape: 16 128 54 54 (5971968)
I0826 15:26:39.297441 25446 net.cpp:165] Memory required for data: 1482244288
I0826 15:26:39.297446 25446 layer_factory.hpp:77] Creating layer conv3_4
I0826 15:26:39.297451 25446 net.cpp:100] Creating Layer conv3_4
I0826 15:26:39.297454 25446 net.cpp:434] conv3_4 <- conv3_3
I0826 15:26:39.297458 25446 net.cpp:408] conv3_4 -> conv3_4
I0826 15:26:39.299810 25446 net.cpp:150] Setting up conv3_4
I0826 15:26:39.299818 25446 net.cpp:157] Top shape: 16 128 54 54 (5971968)
I0826 15:26:39.299821 25446 net.cpp:165] Memory required for data: 1506132160
I0826 15:26:39.299825 25446 layer_factory.hpp:77] Creating layer relu3_4
I0826 15:26:39.299829 25446 net.cpp:100] Creating Layer relu3_4
I0826 15:26:39.299832 25446 net.cpp:434] relu3_4 <- conv3_4
I0826 15:26:39.299835 25446 net.cpp:395] relu3_4 -> conv3_4 (in-place)
I0826 15:26:39.300583 25446 net.cpp:150] Setting up relu3_4
I0826 15:26:39.300591 25446 net.cpp:157] Top shape: 16 128 54 54 (5971968)
I0826 15:26:39.300595 25446 net.cpp:165] Memory required for data: 1530020032
I0826 15:26:39.300599 25446 layer_factory.hpp:77] Creating layer res3_4
I0826 15:26:39.300606 25446 net.cpp:100] Creating Layer res3_4
I0826 15:26:39.300608 25446 net.cpp:434] res3_4 <- res3_2_res3_2_0_split_1
I0826 15:26:39.300611 25446 net.cpp:434] res3_4 <- conv3_4
I0826 15:26:39.300616 25446 net.cpp:408] res3_4 -> res3_4
I0826 15:26:39.300637 25446 net.cpp:150] Setting up res3_4
I0826 15:26:39.300643 25446 net.cpp:157] Top shape: 16 128 54 54 (5971968)
I0826 15:26:39.300648 25446 net.cpp:165] Memory required for data: 1553907904
I0826 15:26:39.300652 25446 layer_factory.hpp:77] Creating layer conv3
I0826 15:26:39.300659 25446 net.cpp:100] Creating Layer conv3
I0826 15:26:39.300662 25446 net.cpp:434] conv3 <- res3_4
I0826 15:26:39.300667 25446 net.cpp:408] conv3 -> conv3
I0826 15:26:39.303905 25446 net.cpp:150] Setting up conv3
I0826 15:26:39.303915 25446 net.cpp:157] Top shape: 16 256 52 52 (11075584)
I0826 15:26:39.303934 25446 net.cpp:165] Memory required for data: 1598210240
I0826 15:26:39.303939 25446 layer_factory.hpp:77] Creating layer relu3
I0826 15:26:39.303944 25446 net.cpp:100] Creating Layer relu3
I0826 15:26:39.303947 25446 net.cpp:434] relu3 <- conv3
I0826 15:26:39.303951 25446 net.cpp:395] relu3 -> conv3 (in-place)
I0826 15:26:39.304862 25446 net.cpp:150] Setting up relu3
I0826 15:26:39.304869 25446 net.cpp:157] Top shape: 16 256 52 52 (11075584)
I0826 15:26:39.304888 25446 net.cpp:165] Memory required for data: 1642512576
I0826 15:26:39.304891 25446 layer_factory.hpp:77] Creating layer pool3
I0826 15:26:39.304896 25446 net.cpp:100] Creating Layer pool3
I0826 15:26:39.304899 25446 net.cpp:434] pool3 <- conv3
I0826 15:26:39.304903 25446 net.cpp:408] pool3 -> pool3
I0826 15:26:39.304971 25446 net.cpp:150] Setting up pool3
I0826 15:26:39.304975 25446 net.cpp:157] Top shape: 16 256 26 26 (2768896)
I0826 15:26:39.304980 25446 net.cpp:165] Memory required for data: 1653588160
I0826 15:26:39.304981 25446 layer_factory.hpp:77] Creating layer pool3_pool3_0_split
I0826 15:26:39.304986 25446 net.cpp:100] Creating Layer pool3_pool3_0_split
I0826 15:26:39.304987 25446 net.cpp:434] pool3_pool3_0_split <- pool3
I0826 15:26:39.304991 25446 net.cpp:408] pool3_pool3_0_split -> pool3_pool3_0_split_0
I0826 15:26:39.304996 25446 net.cpp:408] pool3_pool3_0_split -> pool3_pool3_0_split_1
I0826 15:26:39.305042 25446 net.cpp:150] Setting up pool3_pool3_0_split
I0826 15:26:39.305047 25446 net.cpp:157] Top shape: 16 256 26 26 (2768896)
I0826 15:26:39.305065 25446 net.cpp:157] Top shape: 16 256 26 26 (2768896)
I0826 15:26:39.305068 25446 net.cpp:165] Memory required for data: 1675739328
I0826 15:26:39.305070 25446 layer_factory.hpp:77] Creating layer conv4_1
I0826 15:26:39.305078 25446 net.cpp:100] Creating Layer conv4_1
I0826 15:26:39.305080 25446 net.cpp:434] conv4_1 <- pool3_pool3_0_split_0
I0826 15:26:39.305084 25446 net.cpp:408] conv4_1 -> conv4_1
I0826 15:26:39.310443 25446 net.cpp:150] Setting up conv4_1
I0826 15:26:39.310452 25446 net.cpp:157] Top shape: 16 256 26 26 (2768896)
I0826 15:26:39.310456 25446 net.cpp:165] Memory required for data: 1686814912
I0826 15:26:39.310461 25446 layer_factory.hpp:77] Creating layer relu4_1
I0826 15:26:39.310465 25446 net.cpp:100] Creating Layer relu4_1
I0826 15:26:39.310468 25446 net.cpp:434] relu4_1 <- conv4_1
I0826 15:26:39.310472 25446 net.cpp:395] relu4_1 -> conv4_1 (in-place)
I0826 15:26:39.311100 25446 net.cpp:150] Setting up relu4_1
I0826 15:26:39.311106 25446 net.cpp:157] Top shape: 16 256 26 26 (2768896)
I0826 15:26:39.311110 25446 net.cpp:165] Memory required for data: 1697890496
I0826 15:26:39.311115 25446 layer_factory.hpp:77] Creating layer conv4_2
I0826 15:26:39.311122 25446 net.cpp:100] Creating Layer conv4_2
I0826 15:26:39.311125 25446 net.cpp:434] conv4_2 <- conv4_1
I0826 15:26:39.311128 25446 net.cpp:408] conv4_2 -> conv4_2
I0826 15:26:39.316540 25446 net.cpp:150] Setting up conv4_2
I0826 15:26:39.316548 25446 net.cpp:157] Top shape: 16 256 26 26 (2768896)
I0826 15:26:39.316568 25446 net.cpp:165] Memory required for data: 1708966080
I0826 15:26:39.316573 25446 layer_factory.hpp:77] Creating layer relu4_2
I0826 15:26:39.316577 25446 net.cpp:100] Creating Layer relu4_2
I0826 15:26:39.316581 25446 net.cpp:434] relu4_2 <- conv4_2
I0826 15:26:39.316586 25446 net.cpp:395] relu4_2 -> conv4_2 (in-place)
I0826 15:26:39.316751 25446 net.cpp:150] Setting up relu4_2
I0826 15:26:39.316756 25446 net.cpp:157] Top shape: 16 256 26 26 (2768896)
I0826 15:26:39.316773 25446 net.cpp:165] Memory required for data: 1720041664
I0826 15:26:39.316777 25446 layer_factory.hpp:77] Creating layer res4_2
I0826 15:26:39.316782 25446 net.cpp:100] Creating Layer res4_2
I0826 15:26:39.316785 25446 net.cpp:434] res4_2 <- pool3_pool3_0_split_1
I0826 15:26:39.316789 25446 net.cpp:434] res4_2 <- conv4_2
I0826 15:26:39.316794 25446 net.cpp:408] res4_2 -> res4_2
I0826 15:26:39.316820 25446 net.cpp:150] Setting up res4_2
I0826 15:26:39.316843 25446 net.cpp:157] Top shape: 16 256 26 26 (2768896)
I0826 15:26:39.316848 25446 net.cpp:165] Memory required for data: 1731117248
I0826 15:26:39.316869 25446 layer_factory.hpp:77] Creating layer res4_2_res4_2_0_split
I0826 15:26:39.316874 25446 net.cpp:100] Creating Layer res4_2_res4_2_0_split
I0826 15:26:39.316879 25446 net.cpp:434] res4_2_res4_2_0_split <- res4_2
I0826 15:26:39.316884 25446 net.cpp:408] res4_2_res4_2_0_split -> res4_2_res4_2_0_split_0
I0826 15:26:39.316890 25446 net.cpp:408] res4_2_res4_2_0_split -> res4_2_res4_2_0_split_1
I0826 15:26:39.316932 25446 net.cpp:150] Setting up res4_2_res4_2_0_split
I0826 15:26:39.316937 25446 net.cpp:157] Top shape: 16 256 26 26 (2768896)
I0826 15:26:39.316941 25446 net.cpp:157] Top shape: 16 256 26 26 (2768896)
I0826 15:26:39.316956 25446 net.cpp:165] Memory required for data: 1753268416
I0826 15:26:39.316987 25446 layer_factory.hpp:77] Creating layer conv4_3
I0826 15:26:39.316994 25446 net.cpp:100] Creating Layer conv4_3
I0826 15:26:39.316998 25446 net.cpp:434] conv4_3 <- res4_2_res4_2_0_split_0
I0826 15:26:39.317000 25446 net.cpp:408] conv4_3 -> conv4_3
I0826 15:26:39.323352 25446 net.cpp:150] Setting up conv4_3
I0826 15:26:39.323364 25446 net.cpp:157] Top shape: 16 256 26 26 (2768896)
I0826 15:26:39.323369 25446 net.cpp:165] Memory required for data: 1764344000
I0826 15:26:39.323375 25446 layer_factory.hpp:77] Creating layer relu4_3
I0826 15:26:39.323380 25446 net.cpp:100] Creating Layer relu4_3
I0826 15:26:39.323384 25446 net.cpp:434] relu4_3 <- conv4_3
I0826 15:26:39.323387 25446 net.cpp:395] relu4_3 -> conv4_3 (in-place)
I0826 15:26:39.323572 25446 net.cpp:150] Setting up relu4_3
I0826 15:26:39.323577 25446 net.cpp:157] Top shape: 16 256 26 26 (2768896)
I0826 15:26:39.323581 25446 net.cpp:165] Memory required for data: 1775419584
I0826 15:26:39.323585 25446 layer_factory.hpp:77] Creating layer conv4_4
I0826 15:26:39.323590 25446 net.cpp:100] Creating Layer conv4_4
I0826 15:26:39.323593 25446 net.cpp:434] conv4_4 <- conv4_3
I0826 15:26:39.323596 25446 net.cpp:408] conv4_4 -> conv4_4
I0826 15:26:39.329852 25446 net.cpp:150] Setting up conv4_4
I0826 15:26:39.329862 25446 net.cpp:157] Top shape: 16 256 26 26 (2768896)
I0826 15:26:39.329866 25446 net.cpp:165] Memory required for data: 1786495168
I0826 15:26:39.329874 25446 layer_factory.hpp:77] Creating layer relu4_4
I0826 15:26:39.329879 25446 net.cpp:100] Creating Layer relu4_4
I0826 15:26:39.329881 25446 net.cpp:434] relu4_4 <- conv4_4
I0826 15:26:39.329885 25446 net.cpp:395] relu4_4 -> conv4_4 (in-place)
I0826 15:26:39.330531 25446 net.cpp:150] Setting up relu4_4
I0826 15:26:39.330539 25446 net.cpp:157] Top shape: 16 256 26 26 (2768896)
I0826 15:26:39.330543 25446 net.cpp:165] Memory required for data: 1797570752
I0826 15:26:39.330548 25446 layer_factory.hpp:77] Creating layer res4_4
I0826 15:26:39.330552 25446 net.cpp:100] Creating Layer res4_4
I0826 15:26:39.330556 25446 net.cpp:434] res4_4 <- res4_2_res4_2_0_split_1
I0826 15:26:39.330559 25446 net.cpp:434] res4_4 <- conv4_4
I0826 15:26:39.330562 25446 net.cpp:408] res4_4 -> res4_4
I0826 15:26:39.330598 25446 net.cpp:150] Setting up res4_4
I0826 15:26:39.330602 25446 net.cpp:157] Top shape: 16 256 26 26 (2768896)
I0826 15:26:39.330607 25446 net.cpp:165] Memory required for data: 1808646336
I0826 15:26:39.330610 25446 layer_factory.hpp:77] Creating layer res4_4_res4_4_0_split
I0826 15:26:39.330631 25446 net.cpp:100] Creating Layer res4_4_res4_4_0_split
I0826 15:26:39.330634 25446 net.cpp:434] res4_4_res4_4_0_split <- res4_4
I0826 15:26:39.330639 25446 net.cpp:408] res4_4_res4_4_0_split -> res4_4_res4_4_0_split_0
I0826 15:26:39.330644 25446 net.cpp:408] res4_4_res4_4_0_split -> res4_4_res4_4_0_split_1
I0826 15:26:39.330711 25446 net.cpp:150] Setting up res4_4_res4_4_0_split
I0826 15:26:39.330716 25446 net.cpp:157] Top shape: 16 256 26 26 (2768896)
I0826 15:26:39.330719 25446 net.cpp:157] Top shape: 16 256 26 26 (2768896)
I0826 15:26:39.330721 25446 net.cpp:165] Memory required for data: 1830797504
I0826 15:26:39.330724 25446 layer_factory.hpp:77] Creating layer conv4_5
I0826 15:26:39.330729 25446 net.cpp:100] Creating Layer conv4_5
I0826 15:26:39.330732 25446 net.cpp:434] conv4_5 <- res4_4_res4_4_0_split_0
I0826 15:26:39.330736 25446 net.cpp:408] conv4_5 -> conv4_5
I0826 15:26:39.336604 25446 net.cpp:150] Setting up conv4_5
I0826 15:26:39.336614 25446 net.cpp:157] Top shape: 16 256 26 26 (2768896)
I0826 15:26:39.336619 25446 net.cpp:165] Memory required for data: 1841873088
I0826 15:26:39.336627 25446 layer_factory.hpp:77] Creating layer relu4_5
I0826 15:26:39.336630 25446 net.cpp:100] Creating Layer relu4_5
I0826 15:26:39.336634 25446 net.cpp:434] relu4_5 <- conv4_5
I0826 15:26:39.336638 25446 net.cpp:395] relu4_5 -> conv4_5 (in-place)
I0826 15:26:39.336822 25446 net.cpp:150] Setting up relu4_5
I0826 15:26:39.336828 25446 net.cpp:157] Top shape: 16 256 26 26 (2768896)
I0826 15:26:39.336832 25446 net.cpp:165] Memory required for data: 1852948672
I0826 15:26:39.336848 25446 layer_factory.hpp:77] Creating layer conv4_6
I0826 15:26:39.336854 25446 net.cpp:100] Creating Layer conv4_6
I0826 15:26:39.336858 25446 net.cpp:434] conv4_6 <- conv4_5
I0826 15:26:39.336861 25446 net.cpp:408] conv4_6 -> conv4_6
I0826 15:26:39.342471 25446 net.cpp:150] Setting up conv4_6
I0826 15:26:39.342479 25446 net.cpp:157] Top shape: 16 256 26 26 (2768896)
I0826 15:26:39.342483 25446 net.cpp:165] Memory required for data: 1864024256
I0826 15:26:39.342489 25446 layer_factory.hpp:77] Creating layer relu4_6
I0826 15:26:39.342494 25446 net.cpp:100] Creating Layer relu4_6
I0826 15:26:39.342496 25446 net.cpp:434] relu4_6 <- conv4_6
I0826 15:26:39.342500 25446 net.cpp:395] relu4_6 -> conv4_6 (in-place)
I0826 15:26:39.342658 25446 net.cpp:150] Setting up relu4_6
I0826 15:26:39.342662 25446 net.cpp:157] Top shape: 16 256 26 26 (2768896)
I0826 15:26:39.342665 25446 net.cpp:165] Memory required for data: 1875099840
I0826 15:26:39.342669 25446 layer_factory.hpp:77] Creating layer res4_6
I0826 15:26:39.342674 25446 net.cpp:100] Creating Layer res4_6
I0826 15:26:39.342676 25446 net.cpp:434] res4_6 <- res4_4_res4_4_0_split_1
I0826 15:26:39.342679 25446 net.cpp:434] res4_6 <- conv4_6
I0826 15:26:39.342682 25446 net.cpp:408] res4_6 -> res4_6
I0826 15:26:39.342703 25446 net.cpp:150] Setting up res4_6
I0826 15:26:39.342707 25446 net.cpp:157] Top shape: 16 256 26 26 (2768896)
I0826 15:26:39.342710 25446 net.cpp:165] Memory required for data: 1886175424
I0826 15:26:39.342712 25446 layer_factory.hpp:77] Creating layer res4_6_res4_6_0_split
I0826 15:26:39.342716 25446 net.cpp:100] Creating Layer res4_6_res4_6_0_split
I0826 15:26:39.342718 25446 net.cpp:434] res4_6_res4_6_0_split <- res4_6
I0826 15:26:39.342722 25446 net.cpp:408] res4_6_res4_6_0_split -> res4_6_res4_6_0_split_0
I0826 15:26:39.342744 25446 net.cpp:408] res4_6_res4_6_0_split -> res4_6_res4_6_0_split_1
I0826 15:26:39.342797 25446 net.cpp:150] Setting up res4_6_res4_6_0_split
I0826 15:26:39.342800 25446 net.cpp:157] Top shape: 16 256 26 26 (2768896)
I0826 15:26:39.342803 25446 net.cpp:157] Top shape: 16 256 26 26 (2768896)
I0826 15:26:39.342806 25446 net.cpp:165] Memory required for data: 1908326592
I0826 15:26:39.342808 25446 layer_factory.hpp:77] Creating layer conv4_7
I0826 15:26:39.342818 25446 net.cpp:100] Creating Layer conv4_7
I0826 15:26:39.342821 25446 net.cpp:434] conv4_7 <- res4_6_res4_6_0_split_0
I0826 15:26:39.342828 25446 net.cpp:408] conv4_7 -> conv4_7
I0826 15:26:39.349617 25446 net.cpp:150] Setting up conv4_7
I0826 15:26:39.349627 25446 net.cpp:157] Top shape: 16 256 26 26 (2768896)
I0826 15:26:39.349632 25446 net.cpp:165] Memory required for data: 1919402176
I0826 15:26:39.349638 25446 layer_factory.hpp:77] Creating layer relu4_7
I0826 15:26:39.349644 25446 net.cpp:100] Creating Layer relu4_7
I0826 15:26:39.349647 25446 net.cpp:434] relu4_7 <- conv4_7
I0826 15:26:39.349650 25446 net.cpp:395] relu4_7 -> conv4_7 (in-place)
I0826 15:26:39.350262 25446 net.cpp:150] Setting up relu4_7
I0826 15:26:39.350270 25446 net.cpp:157] Top shape: 16 256 26 26 (2768896)
I0826 15:26:39.350289 25446 net.cpp:165] Memory required for data: 1930477760
I0826 15:26:39.350293 25446 layer_factory.hpp:77] Creating layer conv4_8
I0826 15:26:39.350301 25446 net.cpp:100] Creating Layer conv4_8
I0826 15:26:39.350302 25446 net.cpp:434] conv4_8 <- conv4_7
I0826 15:26:39.350307 25446 net.cpp:408] conv4_8 -> conv4_8
I0826 15:26:39.356006 25446 net.cpp:150] Setting up conv4_8
I0826 15:26:39.356019 25446 net.cpp:157] Top shape: 16 256 26 26 (2768896)
I0826 15:26:39.356022 25446 net.cpp:165] Memory required for data: 1941553344
I0826 15:26:39.356029 25446 layer_factory.hpp:77] Creating layer relu4_8
I0826 15:26:39.356034 25446 net.cpp:100] Creating Layer relu4_8
I0826 15:26:39.356039 25446 net.cpp:434] relu4_8 <- conv4_8
I0826 15:26:39.356042 25446 net.cpp:395] relu4_8 -> conv4_8 (in-place)
I0826 15:26:39.356243 25446 net.cpp:150] Setting up relu4_8
I0826 15:26:39.356251 25446 net.cpp:157] Top shape: 16 256 26 26 (2768896)
I0826 15:26:39.356269 25446 net.cpp:165] Memory required for data: 1952628928
I0826 15:26:39.356274 25446 layer_factory.hpp:77] Creating layer res4_8
I0826 15:26:39.356282 25446 net.cpp:100] Creating Layer res4_8
I0826 15:26:39.356287 25446 net.cpp:434] res4_8 <- res4_6_res4_6_0_split_1
I0826 15:26:39.356292 25446 net.cpp:434] res4_8 <- conv4_8
I0826 15:26:39.356297 25446 net.cpp:408] res4_8 -> res4_8
I0826 15:26:39.356323 25446 net.cpp:150] Setting up res4_8
I0826 15:26:39.356328 25446 net.cpp:157] Top shape: 16 256 26 26 (2768896)
I0826 15:26:39.356333 25446 net.cpp:165] Memory required for data: 1963704512
I0826 15:26:39.356335 25446 layer_factory.hpp:77] Creating layer res4_8_res4_8_0_split
I0826 15:26:39.356343 25446 net.cpp:100] Creating Layer res4_8_res4_8_0_split
I0826 15:26:39.356345 25446 net.cpp:434] res4_8_res4_8_0_split <- res4_8
I0826 15:26:39.356350 25446 net.cpp:408] res4_8_res4_8_0_split -> res4_8_res4_8_0_split_0
I0826 15:26:39.356356 25446 net.cpp:408] res4_8_res4_8_0_split -> res4_8_res4_8_0_split_1
I0826 15:26:39.356398 25446 net.cpp:150] Setting up res4_8_res4_8_0_split
I0826 15:26:39.356402 25446 net.cpp:157] Top shape: 16 256 26 26 (2768896)
I0826 15:26:39.356407 25446 net.cpp:157] Top shape: 16 256 26 26 (2768896)
I0826 15:26:39.356411 25446 net.cpp:165] Memory required for data: 1985855680
I0826 15:26:39.356415 25446 layer_factory.hpp:77] Creating layer conv4_9
I0826 15:26:39.356422 25446 net.cpp:100] Creating Layer conv4_9
I0826 15:26:39.356426 25446 net.cpp:434] conv4_9 <- res4_8_res4_8_0_split_0
I0826 15:26:39.356432 25446 net.cpp:408] conv4_9 -> conv4_9
I0826 15:26:39.362468 25446 net.cpp:150] Setting up conv4_9
I0826 15:26:39.362478 25446 net.cpp:157] Top shape: 16 256 26 26 (2768896)
I0826 15:26:39.362483 25446 net.cpp:165] Memory required for data: 1996931264
I0826 15:26:39.362488 25446 layer_factory.hpp:77] Creating layer relu4_9
I0826 15:26:39.362494 25446 net.cpp:100] Creating Layer relu4_9
I0826 15:26:39.362498 25446 net.cpp:434] relu4_9 <- conv4_9
I0826 15:26:39.362501 25446 net.cpp:395] relu4_9 -> conv4_9 (in-place)
I0826 15:26:39.362661 25446 net.cpp:150] Setting up relu4_9
I0826 15:26:39.362668 25446 net.cpp:157] Top shape: 16 256 26 26 (2768896)
I0826 15:26:39.362670 25446 net.cpp:165] Memory required for data: 2008006848
I0826 15:26:39.362673 25446 layer_factory.hpp:77] Creating layer conv4_10
I0826 15:26:39.362680 25446 net.cpp:100] Creating Layer conv4_10
I0826 15:26:39.362684 25446 net.cpp:434] conv4_10 <- conv4_9
I0826 15:26:39.362687 25446 net.cpp:408] conv4_10 -> conv4_10
I0826 15:26:39.369567 25446 net.cpp:150] Setting up conv4_10
I0826 15:26:39.369580 25446 net.cpp:157] Top shape: 16 256 26 26 (2768896)
I0826 15:26:39.369585 25446 net.cpp:165] Memory required for data: 2019082432
I0826 15:26:39.369593 25446 layer_factory.hpp:77] Creating layer relu4_10
I0826 15:26:39.369599 25446 net.cpp:100] Creating Layer relu4_10
I0826 15:26:39.369602 25446 net.cpp:434] relu4_10 <- conv4_10
I0826 15:26:39.369607 25446 net.cpp:395] relu4_10 -> conv4_10 (in-place)
I0826 15:26:39.370260 25446 net.cpp:150] Setting up relu4_10
I0826 15:26:39.370267 25446 net.cpp:157] Top shape: 16 256 26 26 (2768896)
I0826 15:26:39.370270 25446 net.cpp:165] Memory required for data: 2030158016
I0826 15:26:39.370275 25446 layer_factory.hpp:77] Creating layer res4_10
I0826 15:26:39.370280 25446 net.cpp:100] Creating Layer res4_10
I0826 15:26:39.370282 25446 net.cpp:434] res4_10 <- res4_8_res4_8_0_split_1
I0826 15:26:39.370285 25446 net.cpp:434] res4_10 <- conv4_10
I0826 15:26:39.370290 25446 net.cpp:408] res4_10 -> res4_10
I0826 15:26:39.370332 25446 net.cpp:150] Setting up res4_10
I0826 15:26:39.370337 25446 net.cpp:157] Top shape: 16 256 26 26 (2768896)
I0826 15:26:39.370355 25446 net.cpp:165] Memory required for data: 2041233600
I0826 15:26:39.370358 25446 layer_factory.hpp:77] Creating layer conv4
I0826 15:26:39.370364 25446 net.cpp:100] Creating Layer conv4
I0826 15:26:39.370368 25446 net.cpp:434] conv4 <- res4_10
I0826 15:26:39.370373 25446 net.cpp:408] conv4 -> conv4
I0826 15:26:39.376845 25446 net.cpp:150] Setting up conv4
I0826 15:26:39.376868 25446 net.cpp:157] Top shape: 16 512 24 24 (4718592)
I0826 15:26:39.376873 25446 net.cpp:165] Memory required for data: 2060107968
I0826 15:26:39.376878 25446 layer_factory.hpp:77] Creating layer relu4
I0826 15:26:39.376883 25446 net.cpp:100] Creating Layer relu4
I0826 15:26:39.376885 25446 net.cpp:434] relu4 <- conv4
I0826 15:26:39.376889 25446 net.cpp:395] relu4 -> conv4 (in-place)
I0826 15:26:39.377162 25446 net.cpp:150] Setting up relu4
I0826 15:26:39.377167 25446 net.cpp:157] Top shape: 16 512 24 24 (4718592)
I0826 15:26:39.377171 25446 net.cpp:165] Memory required for data: 2078982336
I0826 15:26:39.377174 25446 layer_factory.hpp:77] Creating layer pool4
I0826 15:26:39.377180 25446 net.cpp:100] Creating Layer pool4
I0826 15:26:39.377183 25446 net.cpp:434] pool4 <- conv4
I0826 15:26:39.377187 25446 net.cpp:408] pool4 -> pool4
I0826 15:26:39.377267 25446 net.cpp:150] Setting up pool4
I0826 15:26:39.377272 25446 net.cpp:157] Top shape: 16 512 12 12 (1179648)
I0826 15:26:39.377275 25446 net.cpp:165] Memory required for data: 2083700928
I0826 15:26:39.377279 25446 layer_factory.hpp:77] Creating layer pool4_pool4_0_split
I0826 15:26:39.377285 25446 net.cpp:100] Creating Layer pool4_pool4_0_split
I0826 15:26:39.377287 25446 net.cpp:434] pool4_pool4_0_split <- pool4
I0826 15:26:39.377291 25446 net.cpp:408] pool4_pool4_0_split -> pool4_pool4_0_split_0
I0826 15:26:39.377295 25446 net.cpp:408] pool4_pool4_0_split -> pool4_pool4_0_split_1
I0826 15:26:39.377363 25446 net.cpp:150] Setting up pool4_pool4_0_split
I0826 15:26:39.377367 25446 net.cpp:157] Top shape: 16 512 12 12 (1179648)
I0826 15:26:39.377372 25446 net.cpp:157] Top shape: 16 512 12 12 (1179648)
I0826 15:26:39.377373 25446 net.cpp:165] Memory required for data: 2093138112
I0826 15:26:39.377377 25446 layer_factory.hpp:77] Creating layer conv5_1
I0826 15:26:39.377382 25446 net.cpp:100] Creating Layer conv5_1
I0826 15:26:39.377384 25446 net.cpp:434] conv5_1 <- pool4_pool4_0_split_0
I0826 15:26:39.377388 25446 net.cpp:408] conv5_1 -> conv5_1
I0826 15:26:39.395036 25446 net.cpp:150] Setting up conv5_1
I0826 15:26:39.395053 25446 net.cpp:157] Top shape: 16 512 12 12 (1179648)
I0826 15:26:39.395058 25446 net.cpp:165] Memory required for data: 2097856704
I0826 15:26:39.395071 25446 layer_factory.hpp:77] Creating layer relu5_1
I0826 15:26:39.395076 25446 net.cpp:100] Creating Layer relu5_1
I0826 15:26:39.395081 25446 net.cpp:434] relu5_1 <- conv5_1
I0826 15:26:39.395085 25446 net.cpp:395] relu5_1 -> conv5_1 (in-place)
I0826 15:26:39.395221 25446 net.cpp:150] Setting up relu5_1
I0826 15:26:39.395227 25446 net.cpp:157] Top shape: 16 512 12 12 (1179648)
I0826 15:26:39.395231 25446 net.cpp:165] Memory required for data: 2102575296
I0826 15:26:39.395233 25446 layer_factory.hpp:77] Creating layer conv5_2
I0826 15:26:39.395242 25446 net.cpp:100] Creating Layer conv5_2
I0826 15:26:39.395246 25446 net.cpp:434] conv5_2 <- conv5_1
I0826 15:26:39.395249 25446 net.cpp:408] conv5_2 -> conv5_2
I0826 15:26:39.412992 25446 net.cpp:150] Setting up conv5_2
I0826 15:26:39.413007 25446 net.cpp:157] Top shape: 16 512 12 12 (1179648)
I0826 15:26:39.413013 25446 net.cpp:165] Memory required for data: 2107293888
I0826 15:26:39.413019 25446 layer_factory.hpp:77] Creating layer relu5_2
I0826 15:26:39.413025 25446 net.cpp:100] Creating Layer relu5_2
I0826 15:26:39.413028 25446 net.cpp:434] relu5_2 <- conv5_2
I0826 15:26:39.413033 25446 net.cpp:395] relu5_2 -> conv5_2 (in-place)
I0826 15:26:39.413202 25446 net.cpp:150] Setting up relu5_2
I0826 15:26:39.413208 25446 net.cpp:157] Top shape: 16 512 12 12 (1179648)
I0826 15:26:39.413225 25446 net.cpp:165] Memory required for data: 2112012480
I0826 15:26:39.413229 25446 layer_factory.hpp:77] Creating layer res5_2
I0826 15:26:39.413236 25446 net.cpp:100] Creating Layer res5_2
I0826 15:26:39.413241 25446 net.cpp:434] res5_2 <- pool4_pool4_0_split_1
I0826 15:26:39.413250 25446 net.cpp:434] res5_2 <- conv5_2
I0826 15:26:39.413257 25446 net.cpp:408] res5_2 -> res5_2
I0826 15:26:39.413282 25446 net.cpp:150] Setting up res5_2
I0826 15:26:39.413314 25446 net.cpp:157] Top shape: 16 512 12 12 (1179648)
I0826 15:26:39.413319 25446 net.cpp:165] Memory required for data: 2116731072
I0826 15:26:39.413321 25446 layer_factory.hpp:77] Creating layer res5_2_res5_2_0_split
I0826 15:26:39.413326 25446 net.cpp:100] Creating Layer res5_2_res5_2_0_split
I0826 15:26:39.413329 25446 net.cpp:434] res5_2_res5_2_0_split <- res5_2
I0826 15:26:39.413332 25446 net.cpp:408] res5_2_res5_2_0_split -> res5_2_res5_2_0_split_0
I0826 15:26:39.413336 25446 net.cpp:408] res5_2_res5_2_0_split -> res5_2_res5_2_0_split_1
I0826 15:26:39.413393 25446 net.cpp:150] Setting up res5_2_res5_2_0_split
I0826 15:26:39.413410 25446 net.cpp:157] Top shape: 16 512 12 12 (1179648)
I0826 15:26:39.413414 25446 net.cpp:157] Top shape: 16 512 12 12 (1179648)
I0826 15:26:39.413416 25446 net.cpp:165] Memory required for data: 2126168256
I0826 15:26:39.413419 25446 layer_factory.hpp:77] Creating layer conv5_3
I0826 15:26:39.413424 25446 net.cpp:100] Creating Layer conv5_3
I0826 15:26:39.413427 25446 net.cpp:434] conv5_3 <- res5_2_res5_2_0_split_0
I0826 15:26:39.413432 25446 net.cpp:408] conv5_3 -> conv5_3
I0826 15:26:39.431022 25446 net.cpp:150] Setting up conv5_3
I0826 15:26:39.431038 25446 net.cpp:157] Top shape: 16 512 12 12 (1179648)
I0826 15:26:39.431044 25446 net.cpp:165] Memory required for data: 2130886848
I0826 15:26:39.431067 25446 layer_factory.hpp:77] Creating layer relu5_3
I0826 15:26:39.431075 25446 net.cpp:100] Creating Layer relu5_3
I0826 15:26:39.431082 25446 net.cpp:434] relu5_3 <- conv5_3
I0826 15:26:39.431089 25446 net.cpp:395] relu5_3 -> conv5_3 (in-place)
I0826 15:26:39.431723 25446 net.cpp:150] Setting up relu5_3
I0826 15:26:39.431730 25446 net.cpp:157] Top shape: 16 512 12 12 (1179648)
I0826 15:26:39.431735 25446 net.cpp:165] Memory required for data: 2135605440
I0826 15:26:39.431738 25446 layer_factory.hpp:77] Creating layer conv5_4
I0826 15:26:39.431747 25446 net.cpp:100] Creating Layer conv5_4
I0826 15:26:39.431751 25446 net.cpp:434] conv5_4 <- conv5_3
I0826 15:26:39.431754 25446 net.cpp:408] conv5_4 -> conv5_4
I0826 15:26:39.448890 25446 net.cpp:150] Setting up conv5_4
I0826 15:26:39.448905 25446 net.cpp:157] Top shape: 16 512 12 12 (1179648)
I0826 15:26:39.448911 25446 net.cpp:165] Memory required for data: 2140324032
I0826 15:26:39.448917 25446 layer_factory.hpp:77] Creating layer relu5_4
I0826 15:26:39.448925 25446 net.cpp:100] Creating Layer relu5_4
I0826 15:26:39.448930 25446 net.cpp:434] relu5_4 <- conv5_4
I0826 15:26:39.448935 25446 net.cpp:395] relu5_4 -> conv5_4 (in-place)
I0826 15:26:39.449071 25446 net.cpp:150] Setting up relu5_4
I0826 15:26:39.449076 25446 net.cpp:157] Top shape: 16 512 12 12 (1179648)
I0826 15:26:39.449079 25446 net.cpp:165] Memory required for data: 2145042624
I0826 15:26:39.449082 25446 layer_factory.hpp:77] Creating layer res5_4
I0826 15:26:39.449088 25446 net.cpp:100] Creating Layer res5_4
I0826 15:26:39.449091 25446 net.cpp:434] res5_4 <- res5_2_res5_2_0_split_1
I0826 15:26:39.449095 25446 net.cpp:434] res5_4 <- conv5_4
I0826 15:26:39.449098 25446 net.cpp:408] res5_4 -> res5_4
I0826 15:26:39.449120 25446 net.cpp:150] Setting up res5_4
I0826 15:26:39.449123 25446 net.cpp:157] Top shape: 16 512 12 12 (1179648)
I0826 15:26:39.449126 25446 net.cpp:165] Memory required for data: 2149761216
I0826 15:26:39.449128 25446 layer_factory.hpp:77] Creating layer res5_4_res5_4_0_split
I0826 15:26:39.449131 25446 net.cpp:100] Creating Layer res5_4_res5_4_0_split
I0826 15:26:39.449134 25446 net.cpp:434] res5_4_res5_4_0_split <- res5_4
I0826 15:26:39.449139 25446 net.cpp:408] res5_4_res5_4_0_split -> res5_4_res5_4_0_split_0
I0826 15:26:39.449143 25446 net.cpp:408] res5_4_res5_4_0_split -> res5_4_res5_4_0_split_1
I0826 15:26:39.449193 25446 net.cpp:150] Setting up res5_4_res5_4_0_split
I0826 15:26:39.449198 25446 net.cpp:157] Top shape: 16 512 12 12 (1179648)
I0826 15:26:39.449203 25446 net.cpp:157] Top shape: 16 512 12 12 (1179648)
I0826 15:26:39.449208 25446 net.cpp:165] Memory required for data: 2159198400
I0826 15:26:39.449210 25446 layer_factory.hpp:77] Creating layer conv5_5
I0826 15:26:39.449234 25446 net.cpp:100] Creating Layer conv5_5
I0826 15:26:39.449239 25446 net.cpp:434] conv5_5 <- res5_4_res5_4_0_split_0
I0826 15:26:39.449244 25446 net.cpp:408] conv5_5 -> conv5_5
I0826 15:26:39.466624 25446 net.cpp:150] Setting up conv5_5
I0826 15:26:39.466640 25446 net.cpp:157] Top shape: 16 512 12 12 (1179648)
I0826 15:26:39.466645 25446 net.cpp:165] Memory required for data: 2163916992
I0826 15:26:39.466652 25446 layer_factory.hpp:77] Creating layer relu5_5
I0826 15:26:39.466658 25446 net.cpp:100] Creating Layer relu5_5
I0826 15:26:39.466662 25446 net.cpp:434] relu5_5 <- conv5_5
I0826 15:26:39.466666 25446 net.cpp:395] relu5_5 -> conv5_5 (in-place)
I0826 15:26:39.466835 25446 net.cpp:150] Setting up relu5_5
I0826 15:26:39.466841 25446 net.cpp:157] Top shape: 16 512 12 12 (1179648)
I0826 15:26:39.466859 25446 net.cpp:165] Memory required for data: 2168635584
I0826 15:26:39.466863 25446 layer_factory.hpp:77] Creating layer conv5_6
I0826 15:26:39.466872 25446 net.cpp:100] Creating Layer conv5_6
I0826 15:26:39.466876 25446 net.cpp:434] conv5_6 <- conv5_5
I0826 15:26:39.466879 25446 net.cpp:408] conv5_6 -> conv5_6
I0826 15:26:39.486151 25446 net.cpp:150] Setting up conv5_6
I0826 15:26:39.486166 25446 net.cpp:157] Top shape: 16 512 12 12 (1179648)
I0826 15:26:39.486171 25446 net.cpp:165] Memory required for data: 2173354176
I0826 15:26:39.486178 25446 layer_factory.hpp:77] Creating layer relu5_6
I0826 15:26:39.486186 25446 net.cpp:100] Creating Layer relu5_6
I0826 15:26:39.486189 25446 net.cpp:434] relu5_6 <- conv5_6
I0826 15:26:39.486193 25446 net.cpp:395] relu5_6 -> conv5_6 (in-place)
I0826 15:26:39.486336 25446 net.cpp:150] Setting up relu5_6
I0826 15:26:39.486341 25446 net.cpp:157] Top shape: 16 512 12 12 (1179648)
I0826 15:26:39.486344 25446 net.cpp:165] Memory required for data: 2178072768
I0826 15:26:39.486348 25446 layer_factory.hpp:77] Creating layer res5_6
I0826 15:26:39.486354 25446 net.cpp:100] Creating Layer res5_6
I0826 15:26:39.486357 25446 net.cpp:434] res5_6 <- res5_4_res5_4_0_split_1
I0826 15:26:39.486361 25446 net.cpp:434] res5_6 <- conv5_6
I0826 15:26:39.486363 25446 net.cpp:408] res5_6 -> res5_6
I0826 15:26:39.486387 25446 net.cpp:150] Setting up res5_6
I0826 15:26:39.486390 25446 net.cpp:157] Top shape: 16 512 12 12 (1179648)
I0826 15:26:39.486393 25446 net.cpp:165] Memory required for data: 2182791360
I0826 15:26:39.486395 25446 layer_factory.hpp:77] Creating layer fc_5
I0826 15:26:39.486400 25446 net.cpp:100] Creating Layer fc_5
I0826 15:26:39.486402 25446 net.cpp:434] fc_5 <- res5_6
I0826 15:26:39.486407 25446 net.cpp:408] fc_5 -> fc_5
I0826 15:26:39.636106 25446 net.cpp:150] Setting up fc_5
I0826 15:26:39.636124 25446 net.cpp:157] Top shape: 16 512 (8192)
I0826 15:26:39.636128 25446 net.cpp:165] Memory required for data: 2182824128
I0826 15:26:39.636137 25446 layer_factory.hpp:77] Creating layer fc_5_fc_5_0_split
I0826 15:26:39.636143 25446 net.cpp:100] Creating Layer fc_5_fc_5_0_split
I0826 15:26:39.636147 25446 net.cpp:434] fc_5_fc_5_0_split <- fc_5
I0826 15:26:39.636152 25446 net.cpp:408] fc_5_fc_5_0_split -> fc_5_fc_5_0_split_0
I0826 15:26:39.636159 25446 net.cpp:408] fc_5_fc_5_0_split -> fc_5_fc_5_0_split_1
I0826 15:26:39.636199 25446 net.cpp:150] Setting up fc_5_fc_5_0_split
I0826 15:26:39.636204 25446 net.cpp:157] Top shape: 16 512 (8192)
I0826 15:26:39.636209 25446 net.cpp:157] Top shape: 16 512 (8192)
I0826 15:26:39.636212 25446 net.cpp:165] Memory required for data: 2182889664
I0826 15:26:39.636216 25446 layer_factory.hpp:77] Creating layer fc_6
I0826 15:26:39.636224 25446 net.cpp:100] Creating Layer fc_6
I0826 15:26:39.636227 25446 net.cpp:434] fc_6 <- fc_5_fc_5_0_split_0
I0826 15:26:39.636231 25446 net.cpp:408] fc_6 -> fc_6
I0826 15:26:39.657500 25446 net.cpp:150] Setting up fc_6
I0826 15:26:39.657516 25446 net.cpp:157] Top shape: 16 10177 (162832)
I0826 15:26:39.657522 25446 net.cpp:165] Memory required for data: 2183540992
I0826 15:26:39.657531 25446 layer_factory.hpp:77] Creating layer softmax_loss
I0826 15:26:39.657537 25446 net.cpp:100] Creating Layer softmax_loss
I0826 15:26:39.657580 25446 net.cpp:434] softmax_loss <- fc_6
I0826 15:26:39.657586 25446 net.cpp:434] softmax_loss <- label_data_1_split_0
I0826 15:26:39.657598 25446 net.cpp:408] softmax_loss -> softmax_loss
…
