…
        min_scale: 0.3
        max_scale: 1
        min_aspect_ratio: 0.5
        max_aspect_ratio: 2
      }
      sample_constraint {
        min_jaccard_overlap: 0.9
      }
      max_sample: 1
      max_trials: 50
    }
    batch_sampler {
      sampler {
        min_scale: 0.3
        max_scale: 1
        min_aspect_ratio: 0.5
        max_aspect_ratio: 2
      }
      sample_constraint {
        max_jaccard_overlap: 1
      }
      max_sample: 1
      max_trials: 50
    }
    label_map_file: "data/car352x288_splitKitti_MVT_indoor/labelmap_voc.prototxt"
  }
}
layer {
  name: "conv1_1"
  type: "Convolution"
  bottom: "data"
  top: "conv1_1"
  param {
    lr_mult: 1
    decay_mult: 1
  }
  param {
    lr_mult: 2
    decay_mult: 0
  }
  convolution_param {
    num_output: 64
    pad: 1
    kernel_size: 3
    weight_filler {
      type: "xavier"
    }
    bias_filler {
      type: "constant"
      value: 0
    }
  }
}
layer {
  name: "relu1_1"
  type: "ReLU"
  bottom: "conv1_1"
  top: "conv1_1"
}
layer {
  name: "conv1_2"
  type: "Convolution"
  bottom: "conv1_1"
  top: "conv1_2"
  param {
    lr_mult: 1
    decay_mult: 1
  }
  param {
    lr_mult: 2
    decay_mult: 0
  }
  convolution_param {
    num_output: 64
    pad: 1
    kernel_size: 3
    weight_filler {
      type: "xavier"
    }
    bias_filler {
      type: "constant"
      value: 0
    }
  }
}
layer {
  name: "relu1_2"
  type: "ReLU"
  bottom: "conv1_2"
  top: "conv1_2"
}
layer {
  name: "pool1"
  type: "Pooling"
  bottom: "conv1_2"
  top: "pool1"
  pooling_param {
    pool: MAX
    kernel_size: 2
    stride: 2
  }
}
layer {
  name: "conv2_1"
  type: "Convolution"
  bottom: "pool1"
  top: "conv2_1"
  param {
    lr_mult: 1
    decay_mult: 1
  }
  param {
    lr_mult: 2
    decay_mult: 0
  }
  convolution_param {
    num_output: 128
    pad: 1
    kernel_size: 3
    weight_filler {
      type: "xavier"
    }
    bias_filler {
      type: "constant"
      value: 0
    }
  }
}
layer {
  name: "relu2_1"
  type: "ReLU"
  bottom: "conv2_1"
  top: "conv2_1"
}
layer {
  name: "conv2_2"
  type: "Convolution"
  bottom: "conv2_1"
  top: "conv2_2"
  param {
    lr_mult: 1
    decay_mult: 1
  }
  param {
    lr_mult: 2
    decay_mult: 0
  }
  convolution_param {
    num_output: 128
    pad: 1
    kernel_size: 3
    weight_filler {
      type: "xavier"
    }
    bias_filler {
      type: "constant"
      value: 0
    }
  }
}
layer {
  name: "relu2_2"
  type: "ReLU"
  bottom: "conv2_2"
  top: "conv2_2"
}
layer {
  name: "pool2"
  type: "Pooling"
  bottom: "conv2_2"
  top: "pool2"
  pooling_param {
    pool: MAX
    kernel_size: 2
    stride: 2
  }
}
layer {
  name: "conv3_1"
  type: "Convolution"
  bottom: "pool2"
  top: "conv3_1"
  param {
    lr_mult: 1
    decay_mult: 1
  }
  param {
    lr_mult: 2
    decay_mult: 0
  }
  convolution_param {
    num_output: 256
    pad: 1
    kernel_size: 3
    weight_filler {
      type: "xavier"
    }
    bias_filler {
      type: "constant"
      value: 0
    }
  }
}
layer {
  name: "relu3_1"
  type: "ReLU"
  bottom: "conv3_1"
  top: "conv3_1"
}
layer {
  name: "conv3_2"
  type: "Convolution"
  bottom: "conv3_1"
  top: "conv3_2"
  param {
    lr_mult: 1
    decay_mult: 1
  }
  param {
    lr_mult: 2
    decay_mult: 0
  }
  convolution_param {
    num_output: 256
    pad: 1
    kernel_size: 3
    weight_filler {
      type: "xavier"
    }
    bias_filler {
      type: "constant"
      value: 0
    }
  }
}
layer {
  name: "relu3_2"
  type: "ReLU"
  bottom: "conv3_2"
  top: "conv3_2"
}
layer {
  name: "conv3_3"
  type: "Convolution"
  bottom: "conv3_2"
  top: "conv3_3"
  param {
    lr_mult: 1
    decay_mult: 1
  }
  param {
    lr_mult: 2
    decay_mult: 0
  }
  convolution_param {
    num_output: 256
    pad: 1
    kernel_size: 3
    weight_filler {
      type: "xavier"
    }
    bias_filler {
      type: "constant"
      value: 0
    }
  }
}
layer {
  name: "relu3_3"
  type: "ReLU"
  bottom: "conv3_3"
  top: "conv3_3"
}
layer {
  name: "pool3"
  type: "Pooling"
  bottom: "conv3_3"
  top: "pool3"
  pooling_param {
    pool: MAX
    kernel_size: 2
    stride: 2
  }
}
layer {
  name: "conv4_1"
  type: "Convolution"
  bottom: "pool3"
  top: "conv4_1"
  param {
    lr_mult: 1
    decay_mult: 1
  }
  param {
    lr_mult: 2
    decay_mult: 0
  }
  convolution_param {
    num_output: 512
    pad: 1
    kernel_size: 3
    weight_filler {
      type: "xavier"
    }
    bias_filler {
      type: "constant"
      value: 0
    }
  }
}
layer {
  name: "relu4_1"
  type: "ReLU"
  bottom: "conv4_1"
  top: "conv4_1"
}
layer {
  name: "conv4_2"
  type: "Convolution"
  bottom: "conv4_1"
  top: "conv4_2"
  param {
    lr_mult: 1
    decay_mult: 1
  }
  param {
    lr_mult: 2
    decay_mult: 0
  }
  convolution_param {
    num_output: 512
    pad: 1
    kernel_size: 3
    weight_filler {
      type: "xavier"
    }
    bias_filler {
      type: "constant"
      value: 0
    }
  }
}
layer {
  name: "relu4_2"
  type: "ReLU"
  bottom: "conv4_2"
  top: "conv4_2"
}
layer {
  name: "conv4_3"
  type: "Convolution"
  bottom: "conv4_2"
  top: "conv4_3"
  param {
    lr_mult: 1
    decay_mult: 1
  }
  param {
    lr_mult: 2
    decay_mult: 0
  }
  convolution_param {
    num_output: 512
    pad: 1
    kernel_size: 3
    weight_filler {
      type: "xavier"
    }
    bias_filler {
      type: "constant"
      value: 0
    }
  }
}
layer {
  name: "relu4_3"
  type: "ReLU"
  bottom: "conv4_3"
  top: "conv4_3"
}
layer {
  name: "pool4"
  type: "Pooling"
  bottom: "conv4_3"
  top: "pool4"
  pooling_param {
    pool: MAX
    kernel_size: 2
    stride: 2
  }
}
layer {
  name: "conv5_1"
  type: "Convolution"
  bottom: "pool4"
  top: "conv5_1"
  param {
    lr_mult: 1
    decay_mult: 1
  }
  param {
    lr_mult: 2
    decay_mult: 0
  }
  convolution_param {
    num_output: 512
    pad: 1
    kernel_size: 3
    weight_filler {
      type: "xavier"
    }
    bias_filler {
      type: "constant"
      value: 0
    }
    dilation: 1
  }
}
layer {
  name: "relu5_1"
  type: "ReLU"
  bottom: "conv5_1"
  top: "conv5_1"
}
layer {
  name: "conv5_2"
  type: "Convolution"
  bottom: "conv5_1"
  top: "conv5_2"
  param {
    lr_mult: 1
    decay_mult: 1
  }
  param {
    lr_mult: 2
    decay_mult: 0
  }
  convolution_param {
    num_output: 512
    pad: 1
    kernel_size: 3
    weight_filler {
      type: "xavier"
    }
    bias_filler {
      type: "constant"
      value: 0
    }
    dilation: 1
  }
}
layer {
  name: "relu5_2"
  type: "ReLU"
  bottom: "conv5_2"
  top: "conv5_2"
}
layer {
  name: "conv5_3"
  type: "Convolution"
  bottom: "conv5_2"
  top: "conv5_3"
  param {
    lr_mult: 1
    decay_mult: 1
  }
  param {
    lr_mult: 2
    decay_mult: 0
  }
  convolution_param {
    num_output: 512
    pad: 1
    kernel_size: 3
    weight_filler {
      type: "xavier"
    }
    bias_filler {
      type: "constant"
      value: 0
    }
    dilation: 1
  }
}
layer {
  name: "relu5_3"
  type: "ReLU"
  bottom: "conv5_3"
  top: "conv5_3"
}
layer {
  name: "pool5"
  type: "Pooling"
  bottom: "conv5_3"
  top: "pool5"
  pooling_param {
    pool: MAX
    kernel_size: 3
    stride: 1
    pad: 1
  }
}
layer {
  name: "fc6"
  type: "Convolution"
  bottom: "pool5"
  top: "fc6"
  param {
    lr_mult: 1
    decay_mult: 1
  }
  param {
    lr_mult: 2
    decay_mult: 0
  }
  convolution_param {
    num_output: 1024
    pad: 1
    kernel_size: 3
    weight_filler {
      type: "xavier"
    }
    bias_filler {
      type: "constant"
      value: 0
    }
    dilation: 1
  }
}
layer {
  name: "relu6"
  type: "ReLU"
  bottom: "fc6"
  top: "fc6"
}
layer {
  name: "fc7"
  type: "Convolution"
  bottom: "fc6"
  top: "fc7"
  param {
    lr_mult: 1
    decay_mult: 1
  }
  param {
    lr_mult: 2
    decay_mult: 0
  }
  convolution_param {
    num_output: 1024
    kernel_size: 1
    weight_filler {
      type: "xavier"
    }
    bias_filler {
      type: "constant"
      value: 0
    }
  }
}
layer {
  name: "relu7"
  type: "ReLU"
  bottom: "fc7"
  top: "fc7"
}
layer {
  name: "conv6_1"
  type: "Convolution"
  bottom: "fc7"
  top: "conv6_1"
  param {
    lr_mult: 1
    decay_mult: 1
  }
  param {
    lr_mult: 2
    decay_mult: 0
  }
  convolution_param {
    num_output: 256
    pad: 0
    kernel_size: 1
    stride: 1
    weight_filler {
      type: "xavier"
    }
    bias_filler {
      type: "constant"
      value: 0
    }
  }
}
layer {
  name: "conv6_1_relu"
  type: "ReLU"
  bottom: "conv6_1"
  top: "conv6_1"
}
layer {
  name: "conv6_2"
  type: "Convolution"
  bottom: "conv6_1"
  top: "conv6_2"
  param {
    lr_mult: 1
    decay_mult: 1
  }
  param {
    lr_mult: 2
    decay_mult: 0
  }
  convolution_param {
    num_output: 512
    pad: 1
    kernel_size: 3
    stride: 2
    weight_filler {
      type: "xavier"
    }
    bias_filler {
      type: "constant"
      value: 0
    }
  }
}
layer {
  name: "conv6_2_relu"
  type: "ReLU"
  bottom: "conv6_2"
  top: "conv6_2"
}
layer {
  name: "conv7_1"
  type: "Convolution"
  bottom: "conv6_2"
  top: "conv7_1"
  param {
    lr_mult: 1
    decay_mult: 1
  }
  param {
    lr_mult: 2
    decay_mult: 0
  }
  convolution_param {
    num_output: 128
    pad: 0
    kernel_size: 1
    stride: 1
    weight_filler {
      type: "xavier"
    }
    bias_filler {
      type: "constant"
      value: 0
    }
  }
}
layer {
  name: "conv7_1_relu"
  type: "ReLU"
  bottom: "conv7_1"
  top: "conv7_1"
}
layer {
  name: "conv7_2"
  type: "Convolution"
  bottom: "conv7_1"
  top: "conv7_2"
  param {
    lr_mult: 1
    decay_mult: 1
  }
  param {
    lr_mult: 2
    decay_mult: 0
  }
  convolution_param {
    num_output: 256
    pad: 1
    kernel_size: 3
    stride: 2
    weight_filler {
      type: "xavier"
    }
    bias_filler {
      type: "constant"
      value: 0
    }
  }
}
layer {
  name: "conv7_2_relu"
  type: "ReLU"
  bottom: "conv7_2"
  top: "conv7_2"
}
layer {
  name: "conv8_1"
  type: "Convolution"
  bottom: "conv7_2"
  top: "conv8_1"
  param {
    lr_mult: 1
    decay_mult: 1
  }
  param {
    lr_mult: 2
    decay_mult: 0
  }
  convolution_param {
    num_output: 128
    pad: 0
    kernel_size: 1
    stride: 1
    weight_filler {
      type: "xavier"
    }
    bias_filler {
      type: "constant"
      value: 0
    }
  }
}
layer {
  name: "conv8_1_relu"
  type: "ReLU"
  bottom: "conv8_1"
  top: "conv8_1"
}
layer {
  name: "conv8_2"
  type: "Convolution"
  bottom: "conv8_1"
  top: "conv8_2"
  param {
    lr_mult: 1
    decay_mult: 1
  }
  param {
    lr_mult: 2
    decay_mult: 0
  }
  convolution_param {
    num_output: 256
    pad: 0
    kernel_size: 3
    stride: 1
    weight_filler {
      type: "xavier"
    }
    bias_filler {
      type: "constant"
      value: 0
    }
  }
}
layer {
  name: "conv8_2_relu"
  type: "ReLU"
  bottom: "conv8_2"
  top: "conv8_2"
}
layer {
  name: "conv9_1"
  type: "Convolution"
  bottom: "conv8_2"
  top: "conv9_1"
  param {
    lr_mult: 1
    decay_mult: 1
  }
  param {
    lr_mult: 2
    decay_mult: 0
  }
  convolution_param {
    num_output: 128
    pad: 0
    kernel_size: 1
    stride: 1
    weight_filler {
      type: "xavier"
    }
    bias_filler {
      type: "constant"
      value: 0
    }
  }
}
layer {
  name: "conv9_1_relu"
  type: "ReLU"
  bottom: "conv9_1"
  top: "conv9_1"
}
layer {
  name: "conv9_2"
  type: "Convolution"
  bottom: "conv9_1"
  top: "conv9_2"
  param {
    lr_mult: 1
    decay_mult: 1
  }
  param {
    lr_mult: 2
    decay_mult: 0
  }
  convolution_param {
    num_output: 256
    pad: 0
    kernel_size: 3
    stride: 1
    weight_filler {
      type: "xavier"
    }
    bias_filler {
      type: "constant"
      value: 0
    }
  }
}
layer {
  name: "conv9_2_relu"
  type: "ReLU"
  bottom: "conv9_2"
  top: "conv9_2"
}
layer {
  name: "conv4_3_norm"
  type: "Normalize"
  bottom: "conv4_3"
  top: "conv4_3_norm"
  norm_param {
    across_spatial: false
    scale_filler {
      type: "constant"
      value: 20
    }
    channel_shared: false
  }
}
layer {
  name: "conv4_3_norm_mbox_loc"
  type: "Convolution"
  bottom: "conv4_3_norm"
  top: "conv4_3_norm_mbox_loc"
  param {
    lr_mult: 1
    decay_mult: 1
  }
  param {
    lr_mult: 2
    decay_mult: 0
  }
  convolution_param {
    num_output: 16
    pad: 1
    kernel_size: 3
    stride: 1
    weight_filler {
      type: "xavier"
    }
    bias_filler {
      type: "constant"
      value: 0
    }
  }
}
layer {
  name: "conv4_3_norm_mbox_loc_perm"
  type: "Permute"
  bottom: "conv4_3_norm_mbox_loc"
  top: "conv4_3_norm_mbox_loc_perm"
  permute_param {
    order: 0
    order: 2
    order: 3
    order: 1
  }
}
layer {
  name: "conv4_3_norm_mbox_loc_flat"
  type: "Flatten"
  bottom: "conv4_3_norm_mbox_loc_perm"
  top: "conv4_3_norm_mbox_loc_flat"
  flatten_param {
    axis: 1
  }
}
layer {
  name: "conv4_3_norm_mbox_conf"
  type: "Convolution"
  bottom: "conv4_3_norm"
  top: "conv4_3_norm_mbox_conf"
  param {
    lr_mult: 1
    decay_mult: 1
  }
  param {
    lr_mult: 2
    decay_mult: 0
  }
  convolution_param {
    num_output: 8
    pad: 1
    kernel_size: 3
    stride: 1
    weight_filler {
      type: "xavier"
    }
    bias_filler {
      type: "constant"
      value: 0
    }
  }
}
layer {
  name: "conv4_3_norm_mbox_conf_perm"
  type: "Permute"
  bottom: "conv4_3_norm_mbox_conf"
  top: "conv4_3_norm_mbox_conf_perm"
  permute_param {
    order: 0
    order: 2
    order: 3
    order: 1
  }
}
layer {
  name: "conv4_3_norm_mbox_conf_flat"
  type: "Flatten"
  bottom: "conv4_3_norm_mbox_conf_perm"
  top: "conv4_3_norm_mbox_conf_flat"
  flatten_param {
    axis: 1
  }
}
layer {
  name: "conv4_3_norm_mbox_priorbox"
  type: "PriorBox"
  bottom: "conv4_3_norm"
  bottom: "data"
  top: "conv4_3_norm_mbox_priorbox"
  prior_box_param {
    min_size: 30
    max_size: 60
    aspect_ratio: 2
    flip: true
    clip: false
    variance: 0.1
    variance: 0.1
    variance: 0.2
    variance: 0.2
    step: 8
    offset: 0.5
  }
}
layer {
  name: "fc7_mbox_loc"
  type: "Convolution"
  bottom: "fc7"
  top: "fc7_mbox_loc"
  param {
    lr_mult: 1
    decay_mult: 1
  }
  param {
    lr_mult: 2
    decay_mult: 0
  }
  convolution_param {
    num_output: 24
    pad: 1
    kernel_size: 3
    stride: 1
    weight_filler {
      type: "xavier"
    }
    bias_filler {
      type: "constant"
      value: 0
    }
  }
}
layer {
  name: "fc7_mbox_loc_perm"
  type: "Permute"
  bottom: "fc7_mbox_loc"
  top: "fc7_mbox_loc_perm"
  permute_param {
    order: 0
    order: 2
    order: 3
    order: 1
  }
}
layer {
  name: "fc7_mbox_loc_flat"
  type: "Flatten"
  bottom: "fc7_mbox_loc_perm"
  top: "fc7_mbox_loc_flat"
  flatten_param {
    axis: 1
  }
}
layer {
  name: "fc7_mbox_conf"
  type: "Convolution"
  bottom: "fc7"
  top: "fc7_mbox_conf"
  param {
    lr_mult: 1
    decay_mult: 1
  }
  param {
    lr_mult: 2
    decay_mult: 0
  }
  convolution_param {
    num_output: 12
    pad: 1
    kernel_size: 3
    stride: 1
    weight_filler {
      type: "xavier"
    }
    bias_filler {
      type: "constant"
      value: 0
    }
  }
}
layer {
  name: "fc7_mbox_conf_perm"
  type: "Permute"
  bottom: "fc7_mbox_conf"
  top: "fc7_mbox_conf_perm"
  permute_param {
    order: 0
    order: 2
    order: 3
    order: 1
  }
}
layer {
  name: "fc7_mbox_conf_flat"
  type: "Flatten"
  bottom: "fc7_mbox_conf_perm"
  top: "fc7_mbox_conf_flat"
  flatten_param {
    axis: 1
  }
}
layer {
  name: "fc7_mbox_priorbox"
  type: "PriorBox"
  bottom: "fc7"
  bottom: "data"
  top: "fc7_mbox_priorbox"
  prior_box_param {
    min_size: 60
    max_size: 111
    aspect_ratio: 2
    aspect_ratio: 3
    flip: true
    clip: false
    variance: 0.1
    variance: 0.1
    variance: 0.2
    variance: 0.2
    step: 16
    offset: 0.5
  }
}
layer {
  name: "conv6_2_mbox_loc"
  type: "Convolution"
  bottom: "conv6_2"
  top: "conv6_2_mbox_loc"
  param {
    lr_mult: 1
    decay_mult: 1
  }
  param {
    lr_mult: 2
    decay_mult: 0
  }
  convolution_param {
    num_output: 24
    pad: 1
    kernel_size: 3
    stride: 1
    weight_filler {
      type: "xavier"
    }
    bias_filler {
      type: "constant"
      value: 0
    }
  }
}
layer {
  name: "conv6_2_mbox_loc_perm"
  type: "Permute"
  bottom: "conv6_2_mbox_loc"
  top: "conv6_2_mbox_loc_perm"
  permute_param {
    order: 0
    order: 2
    order: 3
    order: 1
  }
}
layer {
  name: "conv6_2_mbox_loc_flat"
  type: "Flatten"
  bottom: "conv6_2_mbox_loc_perm"
  top: "conv6_2_mbox_loc_flat"
  flatten_param {
    axis: 1
  }
}
layer {
  name: "conv6_2_mbox_conf"
  type: "Convolution"
  bottom: "conv6_2"
  top: "conv6_2_mbox_conf"
  param {
    lr_mult: 1
    decay_mult: 1
  }
  param {
    lr_mult: 2
    decay_mult: 0
  }
  convolution_param {
    num_output: 12
    pad: 1
    kernel_size: 3
    stride: 1
    weight_filler {
      type: "xavier"
    }
    bias_filler {
      type: "constant"
      value: 0
    }
  }
}
layer {
  name: "conv6_2_mbox_conf_perm"
  type: "Permute"
  bottom: "conv6_2_mbox_conf"
  top: "conv6_2_mbox_conf_perm"
  permute_param {
    order: 0
    order: 2
    order: 3
    order: 1
  }
}
layer {
  name: "conv6_2_mbox_conf_flat"
  type: "Flatten"
  bottom: "conv6_2_mbox_conf_perm"
  top: "conv6_2_mbox_conf_flat"
  flatten_param {
    axis: 1
  }
}
layer {
  name: "conv6_2_mbox_priorbox"
  type: "PriorBox"
  bottom: "conv6_2"
  bottom: "data"
  top: "conv6_2_mbox_priorbox"
  prior_box_param {
    min_size: 111
    max_size: 162
    aspect_ratio: 2
    aspect_ratio: 3
    flip: true
    clip: false
    variance: 0.1
    variance: 0.1
    variance: 0.2
    variance: 0.2
    step: 32
    offset: 0.5
  }
}
layer {
  name: "conv7_2_mbox_loc"
  type: "Convolution"
  bottom: "conv7_2"
  top: "conv7_2_mbox_loc"
  param {
    lr_mult: 1
    decay_mult: 1
  }
  param {
    lr_mult: 2
    decay_mult: 0
  }
  convolution_param {
    num_output: 24
    pad: 1
    kernel_size: 3
    stride: 1
    weight_filler {
      type: "xavier"
    }
    bias_filler {
      type: "constant"
      value: 0
    }
  }
}
layer {
  name: "conv7_2_mbox_loc_perm"
  type: "Permute"
  bottom: "conv7_2_mbox_loc"
  top: "conv7_2_mbox_loc_perm"
  permute_param {
    order: 0
    order: 2
    order: 3
    order: 1
  }
}
layer {
  name: "conv7_2_mbox_loc_flat"
  type: "Flatten"
  bottom: "conv7_2_mbox_loc_perm"
  top: "conv7_2_mbox_loc_flat"
  flatten_param {
    axis: 1
  }
}
layer {
  name: "conv7_2_mbox_conf"
  type: "Convolution"
  bottom: "conv7_2"
  top: "conv7_2_mbox_conf"
  param {
    lr_mult: 1
    decay_mult: 1
  }
  param {
    lr_mult: 2
    decay_mult: 0
  }
  convolution_param {
    num_output: 12
    pad: 1
    kernel_size: 3
    stride: 1
    weight_filler {
      type: "xavier"
    }
    bias_filler {
      type: "constant"
      value: 0
    }
  }
}
layer {
  name: "conv7_2_mbox_conf_perm"
  type: "Permute"
  bottom: "conv7_2_mbox_conf"
  top: "conv7_2_mbox_conf_perm"
  permute_param {
    order: 0
    order: 2
    order: 3
    order: 1
  }
}
layer {
  name: "conv7_2_mbox_conf_flat"
  type: "Flatten"
  bottom: "conv7_2_mbox_conf_perm"
  top: "conv7_2_mbox_conf_flat"
  flatten_param {
    axis: 1
  }
}
layer {
  name: "conv7_2_mbox_priorbox"
  type: "PriorBox"
  bottom: "conv7_2"
  bottom: "data"
  top: "conv7_2_mbox_priorbox"
  prior_box_param {
    min_size: 162
    max_size: 213
    aspect_ratio: 2
    aspect_ratio: 3
    flip: true
    clip: false
    variance: 0.1
    variance: 0.1
    variance: 0.2
    variance: 0.2
    step: 64
    offset: 0.5
  }
}
layer {
  name: "conv8_2_mbox_loc"
  type: "Convolution"
  bottom: "conv8_2"
  top: "conv8_2_mbox_loc"
  param {
    lr_mult: 1
    decay_mult: 1
  }
  param {
    lr_mult: 2
    decay_mult: 0
  }
  convolution_param {
    num_output: 16
    pad: 1
    kernel_size: 3
    stride: 1
    weight_filler {
      type: "xavier"
    }
    bias_filler {
      type: "constant"
      value: 0
    }
  }
}
layer {
  name: "conv8_2_mbox_loc_perm"
  type: "Permute"
  bottom: "conv8_2_mbox_loc"
  top: "conv8_2_mbox_loc_perm"
  permute_param {
    order: 0
    order: 2
    order: 3
    order: 1
  }
}
layer {
  name: "conv8_2_mbox_loc_flat"
  type: "Flatten"
  bottom: "conv8_2_mbox_loc_perm"
  top: "conv8_2_mbox_loc_flat"
  flatten_param {
    axis: 1
  }
}
layer {
  name: "conv8_2_mbox_conf"
  type: "Convolution"
  bottom: "conv8_2"
  top: "conv8_2_mbox_conf"
  param {
    lr_mult: 1
    decay_mult: 1
  }
  param {
    lr_mult: 2
    decay_mult: 0
  }
  convolution_param {
    num_output: 8
    pad: 1
    kernel_size: 3
    stride: 1
    weight_filler {
      type: "xavier"
    }
    bias_filler {
      type: "constant"
      value: 0
    }
  }
}
layer {
  name: "conv8_2_mbox_conf_perm"
  type: "Permute"
  bottom: "conv8_2_mbox_conf"
  top: "conv8_2_mbox_conf_perm"
  permute_param {
    order: 0
    order: 2
    order: 3
    order: 1
  }
}
layer {
  name: "conv8_2_mbox_conf_flat"
  type: "Flatten"
  bottom: "conv8_2_mbox_conf_perm"
  top: "conv8_2_mbox_conf_flat"
  flatten_param {
    axis: 1
  }
}
layer {
  name: "conv8_2_mbox_priorbox"
  type: "PriorBox"
  bottom: "conv8_2"
  bottom: "data"
  top: "conv8_2_mbox_priorbox"
  prior_box_param {
    min_size: 213
    max_size: 264
    aspect_ratio: 2
    flip: true
    clip: false
    variance: 0.1
    variance: 0.1
    variance: 0.2
    variance: 0.2
    step: 100
    offset: 0.5
  }
}
layer {
  name: "conv9_2_mbox_loc"
  type: "Convolution"
  bottom: "conv9_2"
  top: "conv9_2_mbox_loc"
  param {
    lr_mult: 1
    decay_mult: 1
  }
  param {
    lr_mult: 2
    decay_mult: 0
  }
  convolution_param {
    num_output: 16
    pad: 1
    kernel_size: 3
    stride: 1
    weight_filler {
      type: "xavier"
    }
    bias_filler {
      type: "constant"
      value: 0
    }
  }
}
layer {
  name: "conv9_2_mbox_loc_perm"
  type: "Permute"
  bottom: "conv9_2_mbox_loc"
  top: "conv9_2_mbox_loc_perm"
  permute_param {
    order: 0
    order: 2
    order: 3
    order: 1
  }
}
layer {
  name: "conv9_2_mbox_loc_flat"
  type: "Flatten"
  bottom: "conv9_2_mbox_loc_perm"
  top: "conv9_2_mbox_loc_flat"
  flatten_param {
    axis: 1
  }
}
layer {
  name: "conv9_2_mbox_conf"
  type: "Convolution"
  bottom: "conv9_2"
  top: "conv9_2_mbox_conf"
  param {
    lr_mult: 1
    decay_mult: 1
  }
  param {
    lr_mult: 2
    decay_mult: 0
  }
  convolution_param {
    num_output: 8
    pad: 1
    kernel_size: 3
    stride: 1
    weight_filler {
      type: "xavier"
    }
    bias_filler {
      type: "constant"
      value: 0
    }
  }
}
layer {
  name: "conv9_2_mbox_conf_perm"
  type: "Permute"
  bottom: "conv9_2_mbox_conf"
  top: "conv9_2_mbox_conf_perm"
  permute_param {
    order: 0
    order: 2
    order: 3
    order: 1
  }
}
layer {
  name: "conv9_2_mbox_conf_flat"
  type: "Flatten"
  bottom: "conv9_2_mbox_conf_perm"
  top: "conv9_2_mbox_conf_flat"
  flatten_param {
    axis: 1
  }
}
layer {
  name: "conv9_2_mbox_priorbox"
  type: "PriorBox"
  bottom: "conv9_2"
  bottom: "data"
  top: "conv9_2_mbox_priorbox"
  prior_box_param {
    min_size: 264
    max_size: 315
    aspect_ratio: 2
    flip: true
    clip: false
    variance: 0.1
    variance: 0.1
    variance: 0.2
    variance: 0.2
    step: 300
    offset: 0.5
  }
}
layer {
  name: "mbox_loc"
  type: "Concat"
  bottom: "conv4_3_norm_mbox_loc_flat"
  bottom: "fc7_mbox_loc_flat"
  bottom: "conv6_2_mbox_loc_flat"
  bottom: "conv7_2_mbox_loc_flat"
  bottom: "conv8_2_mbox_loc_flat"
  bottom: "conv9_2_mbox_loc_flat"
  top: "mbox_loc"
  concat_param {
    axis: 1
  }
}
layer {
  name: "mbox_conf"
  type: "Concat"
  bottom: "conv4_3_norm_mbox_conf_flat"
  bottom: "fc7_mbox_conf_flat"
  bottom: "conv6_2_mbox_conf_flat"
  bottom: "conv7_2_mbox_conf_flat"
  bottom: "conv8_2_mbox_conf_flat"
  bottom: "conv9_2_mbox_conf_flat"
  top: "mbox_conf"
  concat_param {
    axis: 1
  }
}
layer {
  name: "mbox_priorbox"
  type: "Concat"
  bottom: "conv4_3_norm_mbox_priorbox"
  bottom: "fc7_mbox_priorbox"
  bottom: "conv6_2_mbox_priorbox"
  bottom: "conv7_2_mbox_priorbox"
  bottom: "conv8_2_mbox_priorbox"
  bottom: "conv9_2_mbox_priorbox"
  top: "mbox_priorbox"
  concat_param {
    axis: 2
  }
}
layer {
  name: "mbox_loss"
  type: "MultiBoxLoss"
  bottom: "mbox_loc"
  bottom: "mbox_conf"
  bottom: "mbox_priorbox"
  bottom: "label"
  top: "mbox_loss"
  include {
    phase: TRAIN
  }
  propagate_down: true
  propagate_down: true
  propagate_down: false
  propagate_down: false
  loss_param {
    normalization: VALID
  }
  multibox_loss_param {
    loc_loss_type: SMOOTH_L1
    conf_loss_type: SOFTMAX
    loc_weight: 1
    num_classes: 2
    share_location: true
    match_type: PER_PREDICTION
    overlap_threshold: 0.5
    use_prior_for_matching: true
    background_label_id: 0
    use_difficult_gt: true
    neg_pos_ratio: 3
    neg_overlap: 0.5
    code_type: CENTER_SIZE
    ignore_cross_boundary_bbox: false
    mining_type: MAX_NEGATIVE
  }
}
I0920 09:41:45.835922 18667 layer_factory.hpp:77] Creating layer data
I0920 09:41:45.836045 18667 net.cpp:100] Creating Layer data
I0920 09:41:45.836056 18667 net.cpp:408] data -> data
I0920 09:41:45.836083 18667 net.cpp:408] data -> label
I0920 09:41:45.837096 18686 db_lmdb.cpp:35] Opened lmdb /media/ly/data/CarData/car352x288_splitKitti_MVT_indoor/lmdb/car352x288_splitKitti_MVT_indoor_trainval_lmdb
I0920 09:41:45.849524 18667 annotated_data_layer.cpp:62] output data size: 16,3,288,352
I0920 09:41:45.866972 18667 net.cpp:150] Setting up data
I0920 09:41:45.867007 18667 net.cpp:157] Top shape: 16 3 288 352 (4866048)
I0920 09:41:45.867014 18667 net.cpp:157] Top shape: 1 1 5 8 (40)
I0920 09:41:45.867017 18667 net.cpp:165] Memory required for data: 19464352
I0920 09:41:45.867024 18667 layer_factory.hpp:77] Creating layer data_data_0_split
I0920 09:41:45.867036 18667 net.cpp:100] Creating Layer data_data_0_split
I0920 09:41:45.867041 18667 net.cpp:434] data_data_0_split <- data
I0920 09:41:45.867053 18667 net.cpp:408] data_data_0_split -> data_data_0_split_0
I0920 09:41:45.867060 18667 net.cpp:408] data_data_0_split -> data_data_0_split_1
I0920 09:41:45.867069 18667 net.cpp:408] data_data_0_split -> data_data_0_split_2
I0920 09:41:45.867074 18667 net.cpp:408] data_data_0_split -> data_data_0_split_3
I0920 09:41:45.867076 18667 net.cpp:408] data_data_0_split -> data_data_0_split_4
I0920 09:41:45.867081 18667 net.cpp:408] data_data_0_split -> data_data_0_split_5
I0920 09:41:45.867085 18667 net.cpp:408] data_data_0_split -> data_data_0_split_6
I0920 09:41:45.867156 18667 net.cpp:150] Setting up data_data_0_split
I0920 09:41:45.867161 18667 net.cpp:157] Top shape: 16 3 288 352 (4866048)
I0920 09:41:45.867163 18667 net.cpp:157] Top shape: 16 3 288 352 (4866048)
I0920 09:41:45.867167 18667 net.cpp:157] Top shape: 16 3 288 352 (4866048)
I0920 09:41:45.867170 18667 net.cpp:157] Top shape: 16 3 288 352 (4866048)
I0920 09:41:45.867173 18667 net.cpp:157] Top shape: 16 3 288 352 (4866048)
I0920 09:41:45.867177 18667 net.cpp:157] Top shape: 16 3 288 352 (4866048)
I0920 09:41:45.867178 18667 net.cpp:157] Top shape: 16 3 288 352 (4866048)
I0920 09:41:45.867182 18667 net.cpp:165] Memory required for data: 155713696
I0920 09:41:45.867184 18667 layer_factory.hpp:77] Creating layer conv1_1
I0920 09:41:45.867197 18667 net.cpp:100] Creating Layer conv1_1
I0920 09:41:45.867200 18667 net.cpp:434] conv1_1 <- data_data_0_split_0
I0920 09:41:45.867204 18667 net.cpp:408] conv1_1 -> conv1_1
I0920 09:41:46.681051 18667 net.cpp:150] Setting up conv1_1
I0920 09:41:46.681067 18667 net.cpp:157] Top shape: 16 64 288 352 (103809024)
I0920 09:41:46.681088 18667 net.cpp:165] Memory required for data: 570949792
I0920 09:41:46.681123 18667 layer_factory.hpp:77] Creating layer relu1_1
I0920 09:41:46.681130 18667 net.cpp:100] Creating Layer relu1_1
I0920 09:41:46.681136 18667 net.cpp:434] relu1_1 <- conv1_1
I0920 09:41:46.681140 18667 net.cpp:395] relu1_1 -> conv1_1 (in-place)
I0920 09:41:46.681465 18667 net.cpp:150] Setting up relu1_1
I0920 09:41:46.681471 18667 net.cpp:157] Top shape: 16 64 288 352 (103809024)
I0920 09:41:46.681491 18667 net.cpp:165] Memory required for data: 986185888
I0920 09:41:46.681493 18667 layer_factory.hpp:77] Creating layer conv1_2
I0920 09:41:46.681519 18667 net.cpp:100] Creating Layer conv1_2
I0920 09:41:46.681521 18667 net.cpp:434] conv1_2 <- conv1_1
I0920 09:41:46.681525 18667 net.cpp:408] conv1_2 -> conv1_2
I0920 09:41:46.683538 18667 net.cpp:150] Setting up conv1_2
I0920 09:41:46.683547 18667 net.cpp:157] Top shape: 16 64 288 352 (103809024)
I0920 09:41:46.683565 18667 net.cpp:165] Memory required for data: 1401421984
I0920 09:41:46.683571 18667 layer_factory.hpp:77] Creating layer relu1_2
I0920 09:41:46.683575 18667 net.cpp:100] Creating Layer relu1_2
I0920 09:41:46.683594 18667 net.cpp:434] relu1_2 <- conv1_2
I0920 09:41:46.683598 18667 net.cpp:395] relu1_2 -> conv1_2 (in-place)
I0920 09:41:46.683959 18667 net.cpp:150] Setting up relu1_2
I0920 09:41:46.683964 18667 net.cpp:157] Top shape: 16 64 288 352 (103809024)
I0920 09:41:46.683984 18667 net.cpp:165] Memory required for data: 1816658080
I0920 09:41:46.683985 18667 layer_factory.hpp:77] Creating layer pool1
I0920 09:41:46.683992 18667 net.cpp:100] Creating Layer pool1
I0920 09:41:46.684010 18667 net.cpp:434] pool1 <- conv1_2
I0920 09:41:46.684015 18667 net.cpp:408] pool1 -> pool1
I0920 09:41:46.684082 18667 net.cpp:150] Setting up pool1
I0920 09:41:46.684085 18667 net.cpp:157] Top shape: 16 64 144 176 (25952256)
I0920 09:41:46.684134 18667 net.cpp:165] Memory required for data: 1920467104
I0920 09:41:46.684137 18667 layer_factory.hpp:77] Creating layer conv2_1
I0920 09:41:46.684144 18667 net.cpp:100] Creating Layer conv2_1
I0920 09:41:46.684146 18667 net.cpp:434] conv2_1 <- pool1
I0920 09:41:46.684150 18667 net.cpp:408] conv2_1 -> conv2_1
I0920 09:41:46.686700 18667 net.cpp:150] Setting up conv2_1
I0920 09:41:46.686708 18667 net.cpp:157] Top shape: 16 128 144 176 (51904512)
I0920 09:41:46.686728 18667 net.cpp:165] Memory required for data: 2128085152
I0920 09:41:46.686733 18667 layer_factory.hpp:77] Creating layer relu2_1
I0920 09:41:46.686753 18667 net.cpp:100] Creating Layer relu2_1
I0920 09:41:46.686755 18667 net.cpp:434] relu2_1 <- conv2_1
I0920 09:41:46.686758 18667 net.cpp:395] relu2_1 -> conv2_1 (in-place)
I0920 09:41:46.687242 18667 net.cpp:150] Setting up relu2_1
I0920 09:41:46.687248 18667 net.cpp:157] Top shape: 16 128 144 176 (51904512)
I0920 09:41:46.687268 18667 net.cpp:165] Memory required for data: 2335703200
I0920 09:41:46.687270 18667 layer_factory.hpp:77] Creating layer conv2_2
I0920 09:41:46.687294 18667 net.cpp:100] Creating Layer conv2_2
I0920 09:41:46.687297 18667 net.cpp:434] conv2_2 <- conv2_1
I0920 09:41:46.687301 18667 net.cpp:408] conv2_2 -> conv2_2
I0920 09:41:46.689347 18667 net.cpp:150] Setting up conv2_2
I0920 09:41:46.689353 18667 net.cpp:157] Top shape: 16 128 144 176 (51904512)
I0920 09:41:46.689373 18667 net.cpp:165] Memory required for data: 2543321248
I0920 09:41:46.689376 18667 layer_factory.hpp:77] Creating layer relu2_2
I0920 09:41:46.689380 18667 net.cpp:100] Creating Layer relu2_2
I0920 09:41:46.689399 18667 net.cpp:434] relu2_2 <- conv2_2
I0920 09:41:46.689402 18667 net.cpp:395] relu2_2 -> conv2_2 (in-place)
I0920 09:41:46.689772 18667 net.cpp:150] Setting up relu2_2
I0920 09:41:46.689779 18667 net.cpp:157] Top shape: 16 128 144 176 (51904512)
I0920 09:41:46.689781 18667 net.cpp:165] Memory required for data: 2750939296
I0920 09:41:46.689785 18667 layer_factory.hpp:77] Creating layer pool2
I0920 09:41:46.689805 18667 net.cpp:100] Creating Layer pool2
I0920 09:41:46.689806 18667 net.cpp:434] pool2 <- conv2_2
I0920 09:41:46.689810 18667 net.cpp:408] pool2 -> pool2
I0920 09:41:46.689873 18667 net.cpp:150] Setting up pool2
I0920 09:41:46.689877 18667 net.cpp:157] Top shape: 16 128 72 88 (12976128)
I0920 09:41:46.689893 18667 net.cpp:165] Memory required for data: 2802843808
I0920 09:41:46.689895 18667 layer_factory.hpp:77] Creating layer conv3_1
I0920 09:41:46.689916 18667 net.cpp:100] Creating Layer conv3_1
I0920 09:41:46.689919 18667 net.cpp:434] conv3_1 <- pool2
I0920 09:41:46.689924 18667 net.cpp:408] conv3_1 -> conv3_1
I0920 09:41:46.693842 18667 net.cpp:150] Setting up conv3_1
I0920 09:41:46.693851 18667 net.cpp:157] Top shape: 16 256 72 88 (25952256)
I0920 09:41:46.693871 18667 net.cpp:165] Memory required for data: 2906652832
I0920 09:41:46.693881 18667 layer_factory.hpp:77] Creating layer relu3_1
I0920 09:41:46.693886 18667 net.cpp:100] Creating Layer relu3_1
I0920 09:41:46.693890 18667 net.cpp:434] relu3_1 <- conv3_1
I0920 09:41:46.693895 18667 net.cpp:395] relu3_1 -> conv3_1 (in-place)
I0920 09:41:46.695708 18667 net.cpp:150] Setting up relu3_1
I0920 09:41:46.695715 18667 net.cpp:157] Top shape: 16 256 72 88 (25952256)
I0920 09:41:46.695734 18667 net.cpp:165] Memory required for data: 3010461856
I0920 09:41:46.695739 18667 layer_factory.hpp:77] Creating layer conv3_2
I0920 09:41:46.695749 18667 net.cpp:100] Creating Layer conv3_2
I0920 09:41:46.695752 18667 net.cpp:434] conv3_2 <- conv3_1
I0920 09:41:46.695757 18667 net.cpp:408] conv3_2 -> conv3_2
I0920 09:41:46.699889 18667 net.cpp:150] Setting up conv3_2
I0920 09:41:46.699898 18667 net.cpp:157] Top shape: 16 256 72 88 (25952256)
I0920 09:41:46.699901 18667 net.cpp:165] Memory required for data: 3114270880
I0920 09:41:46.699923 18667 layer_factory.hpp:77] Creating layer relu3_2
I0920 09:41:46.699928 18667 net.cpp:100] Creating Layer relu3_2
I0920 09:41:46.699930 18667 net.cpp:434] relu3_2 <- conv3_2
I0920 09:41:46.699951 18667 net.cpp:395] relu3_2 -> conv3_2 (in-place)
I0920 09:41:46.700340 18667 net.cpp:150] Setting up relu3_2
I0920 09:41:46.700345 18667 net.cpp:157] Top shape: 16 256 72 88 (25952256)
I0920 09:41:46.700350 18667 net.cpp:165] Memory required for data: 3218079904
I0920 09:41:46.700351 18667 layer_factory.hpp:77] Creating layer conv3_3
I0920 09:41:46.700359 18667 net.cpp:100] Creating Layer conv3_3
I0920 09:41:46.700362 18667 net.cpp:434] conv3_3 <- conv3_2
I0920 09:41:46.700367 18667 net.cpp:408] conv3_3 -> conv3_3
I0920 09:41:46.704522 18667 net.cpp:150] Setting up conv3_3
I0920 09:41:46.704530 18667 net.cpp:157] Top shape: 16 256 72 88 (25952256)
I0920 09:41:46.704550 18667 net.cpp:165] Memory required for data: 3321888928
I0920 09:41:46.704556 18667 layer_factory.hpp:77] Creating layer relu3_3
I0920 09:41:46.704576 18667 net.cpp:100] Creating Layer relu3_3
I0920 09:41:46.704579 18667 net.cpp:434] relu3_3 <- conv3_3
I0920 09:41:46.704583 18667 net.cpp:395] relu3_3 -> conv3_3 (in-place)
I0920 09:41:46.704957 18667 net.cpp:150] Setting up relu3_3
I0920 09:41:46.704963 18667 net.cpp:157] Top shape: 16 256 72 88 (25952256)
I0920 09:41:46.704982 18667 net.cpp:165] Memory required for data: 3425697952
I0920 09:41:46.704984 18667 layer_factory.hpp:77] Creating layer pool3
I0920 09:41:46.704990 18667 net.cpp:100] Creating Layer pool3
I0920 09:41:46.704993 18667 net.cpp:434] pool3 <- conv3_3
I0920 09:41:46.705013 18667 net.cpp:408] pool3 -> pool3
I0920 09:41:46.705049 18667 net.cpp:150] Setting up pool3
I0920 09:41:46.705054 18667 net.cpp:157] Top shape: 16 256 36 44 (6488064)
I0920 09:41:46.705056 18667 net.cpp:165] Memory required for data: 3451650208
I0920 09:41:46.705075 18667 layer_factory.hpp:77] Creating layer conv4_1
I0920 09:41:46.705082 18667 net.cpp:100] Creating Layer conv4_1
I0920 09:41:46.705085 18667 net.cpp:434] conv4_1 <- pool3
I0920 09:41:46.705088 18667 net.cpp:408] conv4_1 -> conv4_1
I0920 09:41:46.712347 18667 net.cpp:150] Setting up conv4_1
I0920 09:41:46.712361 18667 net.cpp:157] Top shape: 16 512 36 44 (12976128)
I0920 09:41:46.712366 18667 net.cpp:165] Memory required for data: 3503554720
I0920 09:41:46.712373 18667 layer_factory.hpp:77] Creating layer relu4_1
I0920 09:41:46.712378 18667 net.cpp:100] Creating Layer relu4_1
I0920 09:41:46.712383 18667 net.cpp:434] relu4_1 <- conv4_1
I0920 09:41:46.712388 18667 net.cpp:395] relu4_1 -> conv4_1 (in-place)
I0920 09:41:46.712879 18667 net.cpp:150] Setting up relu4_1
I0920 09:41:46.712886 18667 net.cpp:157] Top shape: 16 512 36 44 (12976128)
I0920 09:41:46.712890 18667 net.cpp:165] Memory required for data: 3555459232
I0920 09:41:46.712893 18667 layer_factory.hpp:77] Creating layer conv4_2
I0920 09:41:46.712903 18667 net.cpp:100] Creating Layer conv4_2
I0920 09:41:46.712906 18667 net.cpp:434] conv4_2 <- conv4_1
I0920 09:41:46.712910 18667 net.cpp:408] conv4_2 -> conv4_2
I0920 09:41:46.724263 18667 net.cpp:150] Setting up conv4_2
I0920 09:41:46.724279 18667 net.cpp:157] Top shape: 16 512 36 44 (12976128)
I0920 09:41:46.724285 18667 net.cpp:165] Memory required for data: 3607363744
I0920 09:41:46.724294 18667 layer_factory.hpp:77] Creating layer relu4_2
I0920 09:41:46.724301 18667 net.cpp:100] Creating Layer relu4_2
I0920 09:41:46.724305 18667 net.cpp:434] relu4_2 <- conv4_2
I0920 09:41:46.724310 18667 net.cpp:395] relu4_2 -> conv4_2 (in-place)
I0920 09:41:46.724683 18667 net.cpp:150] Setting up relu4_2
I0920 09:41:46.724689 18667 net.cpp:157] Top shape: 16 512 36 44 (12976128)
I0920 09:41:46.724692 18667 net.cpp:165] Memory required for data: 3659268256
I0920 09:41:46.724694 18667 layer_factory.hpp:77] Creating layer conv4_3
I0920 09:41:46.724704 18667 net.cpp:100] Creating Layer conv4_3
I0920 09:41:46.724706 18667 net.cpp:434] conv4_3 <- conv4_2
I0920 09:41:46.724709 18667 net.cpp:408] conv4_3 -> conv4_3
I0920 09:41:46.735970 18667 net.cpp:150] Setting up conv4_3
I0920 09:41:46.735985 18667 net.cpp:157] Top shape: 16 512 36 44 (12976128)
I0920 09:41:46.735991 18667 net.cpp:165] Memory required for data: 3711172768
I0920 09:41:46.735997 18667 layer_factory.hpp:77] Creating layer relu4_3
I0920 09:41:46.736021 18667 net.cpp:100] Creating Layer relu4_3
I0920 09:41:46.736025 18667 net.cpp:434] relu4_3 <- conv4_3
I0920 09:41:46.736030 18667 net.cpp:395] relu4_3 -> conv4_3 (in-place)
I0920 09:41:46.737361 18667 net.cpp:150] Setting up relu4_3
I0920 09:41:46.737370 18667 net.cpp:157] Top shape: 16 512 36 44 (12976128)
I0920 09:41:46.737375 18667 net.cpp:165] Memory required for data: 3763077280
I0920 09:41:46.737377 18667 layer_factory.hpp:77] Creating layer conv4_3_relu4_3_0_split
I0920 09:41:46.737385 18667 net.cpp:100] Creating Layer conv4_3_relu4_3_0_split
I0920 09:41:46.737388 18667 net.cpp:434] conv4_3_relu4_3_0_split <- conv4_3
I0920 09:41:46.737392 18667 net.cpp:408] conv4_3_relu4_3_0_split -> conv4_3_relu4_3_0_split_0
I0920 09:41:46.737398 18667 net.cpp:408] conv4_3_relu4_3_0_split -> conv4_3_relu4_3_0_split_1
I0920 09:41:46.737435 18667 net.cpp:150] Setting up conv4_3_relu4_3_0_split
I0920 09:41:46.737439 18667 net.cpp:157] Top shape: 16 512 36 44 (12976128)
I0920 09:41:46.737442 18667 net.cpp:157] Top shape: 16 512 36 44 (12976128)
I0920 09:41:46.737445 18667 net.cpp:165] Memory required for data: 3866886304
I0920 09:41:46.737448 18667 layer_factory.hpp:77] Creating layer pool4
I0920 09:41:46.737454 18667 net.cpp:100] Creating Layer pool4
I0920 09:41:46.737457 18667 net.cpp:434] pool4 <- conv4_3_relu4_3_0_split_0
I0920 09:41:46.737462 18667 net.cpp:408] pool4 -> pool4
I0920 09:41:46.737491 18667 net.cpp:150] Setting up pool4
I0920 09:41:46.737495 18667 net.cpp:157] Top shape: 16 512 18 22 (3244032)
I0920 09:41:46.737498 18667 net.cpp:165] Memory required for data: 3879862432
I0920 09:41:46.737500 18667 layer_factory.hpp:77] Creating layer conv5_1
I0920 09:41:46.737507 18667 net.cpp:100] Creating Layer conv5_1
I0920 09:41:46.737510 18667 net.cpp:434] conv5_1 <- pool4
I0920 09:41:46.737514 18667 net.cpp:408] conv5_1 -> conv5_1
I0920 09:41:46.748845 18667 net.cpp:150] Setting up conv5_1
I0920 09:41:46.748862 18667 net.cpp:157] Top shape: 16 512 18 22 (3244032)
I0920 09:41:46.748868 18667 net.cpp:165] Memory required for data: 3892838560
I0920 09:41:46.748874 18667 layer_factory.hpp:77] Creating layer relu5_1
I0920 09:41:46.748880 18667 net.cpp:100] Creating Layer relu5_1
I0920 09:41:46.748884 18667 net.cpp:434] relu5_1 <- conv5_1
I0920 09:41:46.748888 18667 net.cpp:395] relu5_1 -> conv5_1 (in-place)
I0920 09:41:46.749255 18667 net.cpp:150] Setting up relu5_1
I0920 09:41:46.749261 18667 net.cpp:157] Top shape: 16 512 18 22 (3244032)
I0920 09:41:46.749265 18667 net.cpp:165] Memory required for data: 3905814688
I0920 09:41:46.749269 18667 layer_factory.hpp:77] Creating layer conv5_2
I0920 09:41:46.749279 18667 net.cpp:100] Creating Layer conv5_2
I0920 09:41:46.749282 18667 net.cpp:434] conv5_2 <- conv5_1
I0920 09:41:46.749287 18667 net.cpp:408] conv5_2 -> conv5_2
I0920 09:41:46.760718 18667 net.cpp:150] Setting up conv5_2
I0920 09:41:46.760736 18667 net.cpp:157] Top shape: 16 512 18 22 (3244032)
I0920 09:41:46.760742 18667 net.cpp:165] Memory required for data: 3918790816
I0920 09:41:46.760748 18667 layer_factory.hpp:77] Creating layer relu5_2
I0920 09:41:46.760756 18667 net.cpp:100] Creating Layer relu5_2
I0920 09:41:46.760761 18667 net.cpp:434] relu5_2 <- conv5_2
I0920 09:41:46.760766 18667 net.cpp:395] relu5_2 -> conv5_2 (in-place)
I0920 09:41:46.761133 18667 net.cpp:150] Setting up relu5_2
I0920 09:41:46.761140 18667 net.cpp:157] Top shape: 16 512 18 22 (3244032)
I0920 09:41:46.761144 18667 net.cpp:165] Memory required for data: 3931766944
I0920 09:41:46.761147 18667 layer_factory.hpp:77] Creating layer conv5_3
I0920 09:41:46.761155 18667 net.cpp:100] Creating Layer conv5_3
I0920 09:41:46.761158 18667 net.cpp:434] conv5_3 <- conv5_2
I0920 09:41:46.761162 18667 net.cpp:408] conv5_3 -> conv5_3
I0920 09:41:46.773349 18667 net.cpp:150] Setting up conv5_3
I0920 09:41:46.773365 18667 net.cpp:157] Top shape: 16 512 18 22 (3244032)
I0920 09:41:46.773370 18667 net.cpp:165] Memory required for data: 3944743072
I0920 09:41:46.773377 18667 layer_factory.hpp:77] Creating layer relu5_3
I0920 09:41:46.773404 18667 net.cpp:100] Creating Layer relu5_3
I0920 09:41:46.773408 18667 net.cpp:434] relu5_3 <- conv5_3
I0920 09:41:46.773413 18667 net.cpp:395] relu5_3 -> conv5_3 (in-place)
I0920 09:41:46.773907 18667 net.cpp:150] Setting up relu5_3
I0920 09:41:46.773914 18667 net.cpp:157] Top shape: 16 512 18 22 (3244032)
I0920 09:41:46.773918 18667 net.cpp:165] Memory required for data: 3957719200
I0920 09:41:46.773921 18667 layer_factory.hpp:77] Creating layer pool5
I0920 09:41:46.773929 18667 net.cpp:100] Creating Layer pool5
I0920 09:41:46.773932 18667 net.cpp:434] pool5 <- conv5_3
I0920 09:41:46.773936 18667 net.cpp:408] pool5 -> pool5
I0920 09:41:46.773974 18667 net.cpp:150] Setting up pool5
I0920 09:41:46.773978 18667 net.cpp:157] Top shape: 16 512 18 22 (3244032)
I0920 09:41:46.773982 18667 net.cpp:165] Memory required for data: 3970695328
I0920 09:41:46.773984 18667 layer_factory.hpp:77] Creating layer fc6
I0920 09:41:46.773993 18667 net.cpp:100] Creating Layer fc6
I0920 09:41:46.773995 18667 net.cpp:434] fc6 <- pool5
I0920 09:41:46.773998 18667 net.cpp:408] fc6 -> fc6
I0920 09:41:46.794893 18667 net.cpp:150] Setting up fc6
I0920 09:41:46.794910 18667 net.cpp:157] Top shape: 16 1024 18 22 (6488064)
I0920 09:41:46.794916 18667 net.cpp:165] Memory required for data: 3996647584
I0920 09:41:46.794924 18667 layer_factory.hpp:77] Creating layer relu6
I0920 09:41:46.794931 18667 net.cpp:100] Creating Layer relu6
I0920 09:41:46.794934 18667 net.cpp:434] relu6 <- fc6
I0920 09:41:46.794940 18667 net.cpp:395] relu6 -> fc6 (in-place)
I0920 09:41:46.795444 18667 net.cpp:150] Setting up relu6
I0920 09:41:46.795451 18667 net.cpp:157] Top shape: 16 1024 18 22 (6488064)
I0920 09:41:46.795455 18667 net.cpp:165] Memory required for data: 4022599840
I0920 09:41:46.795459 18667 layer_factory.hpp:77] Creating layer fc7
I0920 09:41:46.795469 18667 net.cpp:100] Creating Layer fc7
I0920 09:41:46.795471 18667 net.cpp:434] fc7 <- fc6
I0920 09:41:46.795475 18667 net.cpp:408] fc7 -> fc7
I0920 09:41:46.801507 18667 net.cpp:150] Setting up fc7
I0920 09:41:46.801517 18667 net.cpp:157] Top shape: 16 1024 18 22 (6488064)
I0920 09:41:46.801522 18667 net.cpp:165] Memory required for data: 4048552096
I0920 09:41:46.801527 18667 layer_factory.hpp:77] Creating layer relu7
I0920 09:41:46.801532 18667 net.cpp:100] Creating Layer relu7
I0920 09:41:46.801534 18667 net.cpp:434] relu7 <- fc7
I0920 09:41:46.801537 18667 net.cpp:395] relu7 -> fc7 (in-place)
I0920 09:41:46.802937 18667 net.cpp:150] Setting up relu7
I0920 09:41:46.802945 18667 net.cpp:157] Top shape: 16 1024 18 22 (6488064)
I0920 09:41:46.802949 18667 net.cpp:165] Memory required for data: 4074504352
I0920 09:41:46.802953 18667 layer_factory.hpp:77] Creating layer fc7_relu7_0_split
I0920 09:41:46.802959 18667 net.cpp:100] Creating Layer fc7_relu7_0_split
I0920 09:41:46.802963 18667 net.cpp:434] fc7_relu7_0_split <- fc7
I0920 09:41:46.802968 18667 net.cpp:408] fc7_relu7_0_split -> fc7_relu7_0_split_0
I0920 09:41:46.802973 18667 net.cpp:408] fc7_relu7_0_split -> fc7_relu7_0_split_1
I0920 09:41:46.802980 18667 net.cpp:408] fc7_relu7_0_split -> fc7_relu7_0_split_2
I0920 09:41:46.802984 18667 net.cpp:408] fc7_relu7_0_split -> fc7_relu7_0_split_3
I0920 09:41:46.803045 18667 net.cpp:150] Setting up fc7_relu7_0_split
I0920 09:41:46.803048 18667 net.cpp:157] Top shape: 16 1024 18 22 (6488064)
I0920 09:41:46.803053 18667 net.cpp:157] Top shape: 16 1024 18 22 (6488064)
I0920 09:41:46.803056 18667 net.cpp:157] Top shape: 16 1024 18 22 (6488064)
I0920 09:41:46.803059 18667 net.cpp:157] Top shape: 16 1024 18 22 (6488064)
I0920 09:41:46.803061 18667 net.cpp:165] Memory required for data: 4178313376
I0920 09:41:46.803071 18667 layer_factory.hpp:77] Creating layer conv6_1
I0920 09:41:46.803078 18667 net.cpp:100] Creating Layer conv6_1
I0920 09:41:46.803081 18667 net.cpp:434] conv6_1 <- fc7_relu7_0_split_0
I0920 09:41:46.803086 18667 net.cpp:408] conv6_1 -> conv6_1
I0920 09:41:46.806071 18667 net.cpp:150] Setting up conv6_1
I0920 09:41:46.806079 18667 net.cpp:157] Top shape: 16 256 18 22 (1622016)
I0920 09:41:46.806098 18667 net.cpp:165] Memory required for data: 4184801440
I0920 09:41:46.806103 18667 layer_factory.hpp:77] Creating layer conv6_1_relu
I0920 09:41:46.806110 18667 net.cpp:100] Creating Layer conv6_1_relu
I0920 09:41:46.806113 18667 net.cpp:434] conv6_1_relu <- conv6_1
I0920 09:41:46.806118 18667 net.cpp:395] conv6_1_relu -> conv6_1 (in-place)
I0920 09:41:46.806478 18667 net.cpp:150] Setting up conv6_1_relu
I0920 09:41:46.806483 18667 net.cpp:157] Top shape: 16 256 18 22 (1622016)
I0920 09:41:46.806488 18667 net.cpp:165] Memory required for data: 4191289504
I0920 09:41:46.806491 18667 layer_factory.hpp:77] Creating layer conv6_2
I0920 09:41:46.806500 18667 net.cpp:100] Creating Layer conv6_2
I0920 09:41:46.806504 18667 net.cpp:434] conv6_2 <- conv6_1
I0920 09:41:46.806509 18667 net.cpp:408] conv6_2 -> conv6_2
I0920 09:41:46.813051 18667 net.cpp:150] Setting up conv6_2
I0920 09:41:46.813062 18667 net.cpp:157] Top shape: 16 512 9 11 (811008)
I0920 09:41:46.813066 18667 net.cpp:165] Memory required for data: 4194533536
I0920 09:41:46.813076 18667 layer_factory.hpp:77] Creating layer conv6_2_relu
I0920 09:41:46.813081 18667 net.cpp:100] Creating Layer conv6_2_relu
I0920 09:41:46.813084 18667 net.cpp:434] conv6_2_relu <- conv6_2
I0920 09:41:46.813087 18667 net.cpp:395] conv6_2_relu -> conv6_2 (in-place)
I0920 09:41:46.813452 18667 net.cpp:150] Setting up conv6_2_relu
I0920 09:41:46.813457 18667 net.cpp:157] Top shape: 16 512 9 11 (811008)
I0920 09:41:46.813462 18667 net.cpp:165] Memory required for data: 4197777568
I0920 09:41:46.813463 18667 layer_factory.hpp:77] Creating layer conv6_2_conv6_2_relu_0_split
I0920 09:41:46.813470 18667 net.cpp:100] Creating Layer conv6_2_conv6_2_relu_0_split
I0920 09:41:46.813473 18667 net.cpp:434] conv6_2_conv6_2_relu_0_split <- conv6_2
I0920 09:41:46.813477 18667 net.cpp:408] conv6_2_conv6_2_relu_0_split -> conv6_2_conv6_2_relu_0_split_0
I0920 09:41:46.813482 18667 net.cpp:408] conv6_2_conv6_2_relu_0_split -> conv6_2_conv6_2_relu_0_split_1
I0920 09:41:46.813486 18667 net.cpp:408] conv6_2_conv6_2_relu_0_split -> conv6_2_conv6_2_relu_0_split_2
I0920 09:41:46.813490 18667 net.cpp:408] conv6_2_conv6_2_relu_0_split -> conv6_2_conv6_2_relu_0_split_3
I0920 09:41:46.813550 18667 net.cpp:150] Setting up conv6_2_conv6_2_relu_0_split
I0920 09:41:46.813555 18667 net.cpp:157] Top shape: 16 512 9 11 (811008)
I0920 09:41:46.813557 18667 net.cpp:157] Top shape: 16 512 9 11 (811008)
I0920 09:41:46.813560 18667 net.cpp:157] Top shape: 16 512 9 11 (811008)
I0920 09:41:46.813562 18667 net.cpp:157] Top shape: 16 512 9 11 (811008)
I0920 09:41:46.813565 18667 net.cpp:165] Memory required for data: 4210753696
I0920 09:41:46.813567 18667 layer_factory.hpp:77] Creating layer conv7_1
I0920 09:41:46.813573 18667 net.cpp:100] Creating Layer conv7_1
I0920 09:41:46.813576 18667 net.cpp:434] conv7_1 <- conv6_2_conv6_2_relu_0_split_0
I0920 09:41:46.813582 18667 net.cpp:408] conv7_1 -> conv7_1
I0920 09:41:46.816215 18667 net.cpp:150] Setting up conv7_1
I0920 09:41:46.816223 18667 net.cpp:157] Top shape: 16 128 9 11 (202752)
I0920 09:41:46.816228 18667 net.cpp:165] Memory required for data: 4211564704
I0920 09:41:46.816232 18667 layer_factory.hpp:77] Creating layer conv7_1_relu
I0920 09:41:46.816237 18667 net.cpp:100] Creating Layer conv7_1_relu
I0920 09:41:46.816241 18667 net.cpp:434] conv7_1_relu <- conv7_1
I0920 09:41:46.816244 18667 net.cpp:395] conv7_1_relu -> conv7_1 (in-place)
I0920 09:41:46.816601 18667 net.cpp:150] Setting up conv7_1_relu
I0920 09:41:46.816607 18667 net.cpp:157] Top shape: 16 128 9 11 (202752)
I0920 09:41:46.816610 18667 net.cpp:165] Memory required for data: 4212375712
I0920 09:41:46.816613 18667 layer_factory.hpp:77] Creating layer conv7_2
I0920 09:41:46.816622 18667 net.cpp:100] Creating Layer conv7_2
I0920 09:41:46.816625 18667 net.cpp:434] conv7_2 <- conv7_1
I0920 09:41:46.816629 18667 net.cpp:408] conv7_2 -> conv7_2
I0920 09:41:46.819775 18667 net.cpp:150] Setting up conv7_2
I0920 09:41:46.819783 18667 net.cpp:157] Top shape: 16 256 5 6 (122880)
I0920 09:41:46.819787 18667 net.cpp:165] Memory required for data: 4212867232
I0920 09:41:46.819805 18667 layer_factory.hpp:77] Creating layer conv7_2_relu
I0920 09:41:46.819811 18667 net.cpp:100] Creating Layer conv7_2_relu
I0920 09:41:46.819814 18667 net.cpp:434] conv7_2_relu <- conv7_2
I0920 09:41:46.819818 18667 net.cpp:395] conv7_2_relu -> conv7_2 (in-place)
I0920 09:41:46.820181 18667 net.cpp:150] Setting up conv7_2_relu
I0920 09:41:46.820188 18667 net.cpp:157] Top shape: 16 256 5 6 (122880)
I0920 09:41:46.820191 18667 net.cpp:165] Memory required for data: 4213358752
I0920 09:41:46.820194 18667 layer_factory.hpp:77] Creating layer conv7_2_conv7_2_relu_0_split
I0920 09:41:46.820199 18667 net.cpp:100] Creating Layer conv7_2_conv7_2_relu_0_split
I0920 09:41:46.820202 18667 net.cpp:434] conv7_2_conv7_2_relu_0_split <- conv7_2
I0920 09:41:46.820206 18667 net.cpp:408] conv7_2_conv7_2_relu_0_split -> conv7_2_conv7_2_relu_0_split_0
I0920 09:41:46.820211 18667 net.cpp:408] conv7_2_conv7_2_relu_0_split -> conv7_2_conv7_2_relu_0_split_1
I0920 09:41:46.820215 18667 net.cpp:408] conv7_2_conv7_2_relu_0_split -> conv7_2_conv7_2_relu_0_split_2
I0920 09:41:46.820219 18667 net.cpp:408] conv7_2_conv7_2_relu_0_split -> conv7_2_conv7_2_relu_0_split_3
I0920 09:41:46.820279 18667 net.cpp:150] Setting up conv7_2_conv7_2_relu_0_split
I0920 09:41:46.820282 18667 net.cpp:157] Top shape: 16 256 5 6 (122880)
I0920 09:41:46.820286 18667 net.cpp:157] Top shape: 16 256 5 6 (122880)
I0920 09:41:46.820288 18667 net.cpp:157] Top shape: 16 256 5 6 (122880)
I0920 09:41:46.820291 18667 net.cpp:157] Top shape: 16 256 5 6 (122880)
I0920 09:41:46.820293 18667 net.cpp:165] Memory required for data: 4215324832
I0920 09:41:46.820297 18667 layer_factory.hpp:77] Creating layer conv8_1
I0920 09:41:46.820304 18667 net.cpp:100] Creating Layer conv8_1
I0920 09:41:46.820307 18667 net.cpp:434] conv8_1 <- conv7_2_conv7_2_relu_0_split_0
I0920 09:41:46.820312 18667 net.cpp:408] conv8_1 -> conv8_1
I0920 09:41:46.821982 18667 net.cpp:150] Setting up conv8_1
I0920 09:41:46.821990 18667 net.cpp:157] Top shape: 16 128 5 6 (61440)
I0920 09:41:46.821995 18667 net.cpp:165] Memory required for data: 4215570592
I0920 09:41:46.821998 18667 layer_factory.hpp:77] Creating layer conv8_1_relu
I0920 09:41:46.822002 18667 net.cpp:100] Creating Layer conv8_1_relu
I0920 09:41:46.822005 18667 net.cpp:434] conv8_1_relu <- conv8_1
I0920 09:41:46.822010 18667 net.cpp:395] conv8_1_relu -> conv8_1 (in-place)
I0920 09:41:46.823355 18667 net.cpp:150] Setting up conv8_1_relu
I0920 09:41:46.823364 18667 net.cpp:157] Top shape: 16 128 5 6 (61440)
I0920 09:41:46.823367 18667 net.cpp:165] Memory required for data: 4215816352
I0920 09:41:46.823370 18667 layer_factory.hpp:77] Creating layer conv8_2
I0920 09:41:46.823380 18667 net.cpp:100] Creating Layer conv8_2
I0920 09:41:46.823385 18667 net.cpp:434] conv8_2 <- conv8_1
I0920 09:41:46.823388 18667 net.cpp:408] conv8_2 -> conv8_2
I0920 09:41:46.826438 18667 net.cpp:150] Setting up conv8_2
I0920 09:41:46.826447 18667 net.cpp:157] Top shape: 16 256 3 4 (49152)
I0920 09:41:46.826450 18667 net.cpp:165] Memory required for data: 4216012960
I0920 09:41:46.826455 18667 layer_factory.hpp:77] Creating layer conv8_2_relu
I0920 09:41:46.826459 18667 net.cpp:100] Creating Layer conv8_2_relu
I0920 09:41:46.826462 18667 net.cpp:434] conv8_2_relu <- conv8_2
I0920 09:41:46.826467 18667 net.cpp:395] conv8_2_relu -> conv8_2 (in-place)
I0920 09:41:46.826833 18667 net.cpp:150] Setting up conv8_2_relu
I0920 09:41:46.826839 18667 net.cpp:157] Top shape: 16 256 3 4 (49152)
I0920 09:41:46.826843 18667 net.cpp:165] Memory required for data: 4216209568
I0920 09:41:46.826845 18667 layer_factory.hpp:77] Creating layer conv8_2_conv8_2_relu_0_split
I0920 09:41:46.826853 18667 net.cpp:100] Creating Layer conv8_2_conv8_2_relu_0_split
I0920 09:41:46.826855 18667 net.cpp:434] conv8_2_conv8_2_relu_0_split <- conv8_2
I0920 09:41:46.826859 18667 net.cpp:408] conv8_2_conv8_2_relu_0_split -> conv8_2_conv8_2_relu_0_split_0
I0920 09:41:46.826864 18667 net.cpp:408] conv8_2_conv8_2_relu_0_split -> conv8_2_conv8_2_relu_0_split_1
I0920 09:41:46.826879 18667 net.cpp:408] conv8_2_conv8_2_relu_0_split -> conv8_2_conv8_2_relu_0_split_2
I0920 09:41:46.826884 18667 net.cpp:408] conv8_2_conv8_2_relu_0_split -> conv8_2_conv8_2_relu_0_split_3
I0920 09:41:46.826946 18667 net.cpp:150] Setting up conv8_2_conv8_2_relu_0_split
I0920 09:41:46.826949 18667 net.cpp:157] Top shape: 16 256 3 4 (49152)
I0920 09:41:46.826953 18667 net.cpp:157] Top shape: 16 256 3 4 (49152)
I0920 09:41:46.826956 18667 net.cpp:157] Top shape: 16 256 3 4 (49152)
I0920 09:41:46.826958 18667 net.cpp:157] Top shape: 16 256 3 4 (49152)
I0920 09:41:46.826961 18667 net.cpp:165] Memory required for data: 4216996000
I0920 09:41:46.826963 18667 layer_factory.hpp:77] Creating layer conv9_1
I0920 09:41:46.826969 18667 net.cpp:100] Creating Layer conv9_1
I0920 09:41:46.826972 18667 net.cpp:434] conv9_1 <- conv8_2_conv8_2_relu_0_split_0
I0920 09:41:46.826977 18667 net.cpp:408] conv9_1 -> conv9_1
I0920 09:41:46.828660 18667 net.cpp:150] Setting up conv9_1
I0920 09:41:46.828668 18667 net.cpp:157] Top shape: 16 128 3 4 (24576)
I0920 09:41:46.828672 18667 net.cpp:165] Memory required for data: 4217094304
I0920 09:41:46.828676 18667 layer_factory.hpp:77] Creating layer conv9_1_relu
I0920 09:41:46.828682 18667 net.cpp:100] Creating Layer conv9_1_relu
I0920 09:41:46.828685 18667 net.cpp:434] conv9_1_relu <- conv9_1
I0920 09:41:46.828688 18667 net.cpp:395] conv9_1_relu -> conv9_1 (in-place)
I0920 09:41:46.829171 18667 net.cpp:150] Setting up conv9_1_relu
I0920 09:41:46.829178 18667 net.cpp:157] Top shape: 16 128 3 4 (24576)
I0920 09:41:46.829182 18667 net.cpp:165] Memory required for data: 4217192608
I0920 09:41:46.829185 18667 layer_factory.hpp:77] Creating layer conv9_2
I0920 09:41:46.829192 18667 net.cpp:100] Creating Layer conv9_2
I0920 09:41:46.829195 18667 net.cpp:434] conv9_2 <- conv9_1
I0920 09:41:46.829200 18667 net.cpp:408] conv9_2 -> conv9_2
I0920 09:41:46.833122 18667 net.cpp:150] Setting up conv9_2
I0920 09:41:46.833132 18667 net.cpp:157] Top shape: 16 256 1 2 (8192)
I0920 09:41:46.833137 18667 net.cpp:165] Memory required for data: 4217225376
I0920 09:41:46.833142 18667 layer_factory.hpp:77] Creating layer conv9_2_relu
I0920 09:41:46.833146 18667 net.cpp:100] Creating Layer conv9_2_relu
I0920 09:41:46.833149 18667 net.cpp:434] conv9_2_relu <- conv9_2
I0920 09:41:46.833153 18667 net.cpp:395] conv9_2_relu -> conv9_2 (in-place)
I0920 09:41:46.833518 18667 net.cpp:150] Setting up conv9_2_relu
I0920 09:41:46.833523 18667 net.cpp:157] Top shape: 16 256 1 2 (8192)
I0920 09:41:46.833528 18667 net.cpp:165] Memory required for data: 4217258144
I0920 09:41:46.833529 18667 layer_factory.hpp:77] Creating layer conv9_2_conv9_2_relu_0_split
I0920 09:41:46.833536 18667 net.cpp:100] Creating Layer conv9_2_conv9_2_relu_0_split
I0920 09:41:46.833539 18667 net.cpp:434] conv9_2_conv9_2_relu_0_split <- conv9_2
I0920 09:41:46.833542 18667 net.cpp:408] conv9_2_conv9_2_relu_0_split -> conv9_2_conv9_2_relu_0_split_0
I0920 09:41:46.833549 18667 net.cpp:408] conv9_2_conv9_2_relu_0_split -> conv9_2_conv9_2_relu_0_split_1
I0920 09:41:46.833554 18667 net.cpp:408] conv9_2_conv9_2_relu_0_split -> conv9_2_conv9_2_relu_0_split_2
I0920 09:41:46.833603 18667 net.cpp:150] Setting up conv9_2_conv9_2_relu_0_split
I0920 09:41:46.833607 18667 net.cpp:157] Top shape: 16 256 1 2 (8192)
I0920 09:41:46.833611 18667 net.cpp:157] Top shape: 16 256 1 2 (8192)
I0920 09:41:46.833613 18667 net.cpp:157] Top shape: 16 256 1 2 (8192)
I0920 09:41:46.833616 18667 net.cpp:165] Memory required for data: 4217356448
I0920 09:41:46.833618 18667 layer_factory.hpp:77] Creating layer conv4_3_norm
I0920 09:41:46.833623 18667 net.cpp:100] Creating Layer conv4_3_norm
I0920 09:41:46.833626 18667 net.cpp:434] conv4_3_norm <- conv4_3_relu4_3_0_split_1
I0920 09:41:46.833631 18667 net.cpp:408] conv4_3_norm -> conv4_3_norm
I0920 09:41:46.833786 18667 net.cpp:150] Setting up conv4_3_norm
I0920 09:41:46.833791 18667 net.cpp:157] Top shape: 16 512 36 44 (12976128)
I0920 09:41:46.833793 18667 net.cpp:165] Memory required for data: 4269260960
I0920 09:41:46.833809 18667 layer_factory.hpp:77] Creating layer conv4_3_norm_conv4_3_norm_0_split
I0920 09:41:46.833813 18667 net.cpp:100] Creating Layer conv4_3_norm_conv4_3_norm_0_split
I0920 09:41:46.833818 18667 net.cpp:434] conv4_3_norm_conv4_3_norm_0_split <- conv4_3_norm
I0920 09:41:46.833822 18667 net.cpp:408] conv4_3_norm_conv4_3_norm_0_split -> conv4_3_norm_conv4_3_norm_0_split_0
I0920 09:41:46.833825 18667 net.cpp:408] conv4_3_norm_conv4_3_norm_0_split -> conv4_3_norm_conv4_3_norm_0_split_1
I0920 09:41:46.833829 18667 net.cpp:408] conv4_3_norm_conv4_3_norm_0_split -> conv4_3_norm_conv4_3_norm_0_split_2
I0920 09:41:46.833874 18667 net.cpp:150] Setting up conv4_3_norm_conv4_3_norm_0_split
I0920 09:41:46.833878 18667 net.cpp:157] Top shape: 16 512 36 44 (12976128)
I0920 09:41:46.833881 18667 net.cpp:157] Top shape: 16 512 36 44 (12976128)
I0920 09:41:46.833884 18667 net.cpp:157] Top shape: 16 512 36 44 (12976128)
I0920 09:41:46.833886 18667 net.cpp:165] Memory required for data: 4424974496
I0920 09:41:46.833889 18667 layer_factory.hpp:77] Creating layer conv4_3_norm_mbox_loc
I0920 09:41:46.833897 18667 net.cpp:100] Creating Layer conv4_3_norm_mbox_loc
I0920 09:41:46.833899 18667 net.cpp:434] conv4_3_norm_mbox_loc <- conv4_3_norm_conv4_3_norm_0_split_0
I0920 09:41:46.833904 18667 net.cpp:408] conv4_3_norm_mbox_loc -> conv4_3_norm_mbox_loc
I0920 09:41:46.836002 18667 net.cpp:150] Setting up conv4_3_norm_mbox_loc
I0920 09:41:46.836010 18667 net.cpp:157] Top shape: 16 16 36 44 (405504)
I0920 09:41:46.836014 18667 net.cpp:165] Memory required for data: 4426596512
I0920 09:41:46.836020 18667 layer_factory.hpp:77] Creating layer conv4_3_norm_mbox_loc_perm
I0920 09:41:46.836025 18667 net.cpp:100] Creating Layer conv4_3_norm_mbox_loc_perm
I0920 09:41:46.836028 18667 net.cpp:434] conv4_3_norm_mbox_loc_perm <- conv4_3_norm_mbox_loc
I0920 09:41:46.836031 18667 net.cpp:408] conv4_3_norm_mbox_loc_perm -> conv4_3_norm_mbox_loc_perm
I0920 09:41:46.836135 18667 net.cpp:150] Setting up conv4_3_norm_mbox_loc_perm
I0920 09:41:46.836141 18667 net.cpp:157] Top shape: 16 36 44 16 (405504)
I0920 09:41:46.836144 18667 net.cpp:165] Memory required for data: 4428218528
I0920 09:41:46.836148 18667 layer_factory.hpp:77] Creating layer conv4_3_norm_mbox_loc_flat
I0920 09:41:46.836151 18667 net.cpp:100] Creating Layer conv4_3_norm_mbox_loc_flat
I0920 09:41:46.836154 18667 net.cpp:434] conv4_3_norm_mbox_loc_flat <- conv4_3_norm_mbox_loc_perm
I0920 09:41:46.836158 18667 net.cpp:408] conv4_3_norm_mbox_loc_flat -> conv4_3_norm_mbox_loc_flat
I0920 09:41:46.836184 18667 net.cpp:150] Setting up conv4_3_norm_mbox_loc_flat
I0920 09:41:46.836186 18667 net.cpp:157] Top shape: 16 25344 (405504)
I0920 09:41:46.836189 18667 net.cpp:165] Memory required for data: 4429840544
I0920 09:41:46.836192 18667 layer_factory.hpp:77] Creating layer conv4_3_norm_mbox_conf
I0920 09:41:46.836202 18667 net.cpp:100] Creating Layer conv4_3_norm_mbox_conf
I0920 09:41:46.836205 18667 net.cpp:434] conv4_3_norm_mbox_conf <- conv4_3_norm_conv4_3_norm_0_split_1
I0920 09:41:46.836210 18667 net.cpp:408] conv4_3_norm_mbox_conf -> conv4_3_norm_mbox_conf
I0920 09:41:46.838063 18667 net.cpp:150] Setting up conv4_3_norm_mbox_conf
I0920 09:41:46.838069 18667 net.cpp:157] Top shape: 16 8 36 44 (202752)
I0920 09:41:46.838074 18667 net.cpp:165] Memory required for data: 4430651552
I0920 09:41:46.838080 18667 layer_factory.hpp:77] Creating layer conv4_3_norm_mbox_conf_perm
I0920 09:41:46.838085 18667 net.cpp:100] Creating Layer conv4_3_norm_mbox_conf_perm
I0920 09:41:46.838089 18667 net.cpp:434] conv4_3_norm_mbox_conf_perm <- conv4_3_norm_mbox_conf
I0920 09:41:46.838093 18667 net.cpp:408] conv4_3_norm_mbox_conf_perm -> conv4_3_norm_mbox_conf_perm
I0920 09:41:46.838191 18667 net.cpp:150] Setting up conv4_3_norm_mbox_conf_perm
I0920 09:41:46.838196 18667 net.cpp:157] Top shape: 16 36 44 8 (202752)
I0920 09:41:46.838198 18667 net.cpp:165] Memory required for data: 4431462560
I0920 09:41:46.838201 18667 layer_factory.hpp:77] Creating layer conv4_3_norm_mbox_conf_flat
I0920 09:41:46.838205 18667 net.cpp:100] Creating Layer conv4_3_norm_mbox_conf_flat
I0920 09:41:46.838217 18667 net.cpp:434] conv4_3_norm_mbox_conf_flat <- conv4_3_norm_mbox_conf_perm
I0920 09:41:46.838222 18667 net.cpp:408] conv4_3_norm_mbox_conf_flat -> conv4_3_norm_mbox_conf_flat
I0920 09:41:46.838243 18667 net.cpp:150] Setting up conv4_3_norm_mbox_conf_flat
I0920 09:41:46.838246 18667 net.cpp:157] Top shape: 16 12672 (202752)
I0920 09:41:46.838249 18667 net.cpp:165] Memory required for data: 4432273568
I0920 09:41:46.838253 18667 layer_factory.hpp:77] Creating layer conv4_3_norm_mbox_priorbox
I0920 09:41:46.838258 18667 net.cpp:100] Creating Layer conv4_3_norm_mbox_priorbox
I0920 09:41:46.838260 18667 net.cpp:434] conv4_3_norm_mbox_priorbox <- conv4_3_norm_conv4_3_norm_0_split_2
I0920 09:41:46.838263 18667 net.cpp:434] conv4_3_norm_mbox_priorbox <- data_data_0_split_1
I0920 09:41:46.838268 18667 net.cpp:408] conv4_3_norm_mbox_priorbox -> conv4_3_norm_mbox_priorbox
I0920 09:41:46.838289 18667 net.cpp:150] Setting up conv4_3_norm_mbox_priorbox
I0920 09:41:46.838294 18667 net.cpp:157] Top shape: 1 2 25344 (50688)
I0920 09:41:46.838296 18667 net.cpp:165] Memory required for data: 4432476320
I0920 09:41:46.838299 18667 layer_factory.hpp:77] Creating layer fc7_mbox_loc
I0920 09:41:46.838305 18667 net.cpp:100] Creating Layer fc7_mbox_loc
I0920 09:41:46.838310 18667 net.cpp:434] fc7_mbox_loc <- fc7_relu7_0_split_1
I0920 09:41:46.838313 18667 net.cpp:408] fc7_mbox_loc -> fc7_mbox_loc
I0920 09:41:46.841656 18667 net.cpp:150] Setting up fc7_mbox_loc
I0920 09:41:46.841665 18667 net.cpp:157] Top shape: 16 24 18 22 (152064)
I0920 09:41:46.841670 18667 net.cpp:165] Memory required for data: 4433084576
I0920 09:41:46.841675 18667 layer_factory.hpp:77] Creating layer fc7_mbox_loc_perm
I0920 09:41:46.841681 18667 net.cpp:100] Creating Layer fc7_mbox_loc_perm
I0920 09:41:46.841684 18667 net.cpp:434] fc7_mbox_loc_perm <- fc7_mbox_loc
I0920 09:41:46.841691 18667 net.cpp:408] fc7_mbox_loc_perm -> fc7_mbox_loc_perm
I0920 09:41:46.841791 18667 net.cpp:150] Setting up fc7_mbox_loc_perm
I0920 09:41:46.841795 18667 net.cpp:157] Top shape: 16 18 22 24 (152064)
I0920 09:41:46.841799 18667 net.cpp:165] Memory required for data: 4433692832
I0920 09:41:46.841801 18667 layer_factory.hpp:77] Creating layer fc7_mbox_loc_flat
I0920 09:41:46.841805 18667 net.cpp:100] Creating Layer fc7_mbox_loc_flat
I0920 09:41:46.841809 18667 net.cpp:434] fc7_mbox_loc_flat <- fc7_mbox_loc_perm
I0920 09:41:46.841812 18667 net.cpp:408] fc7_mbox_loc_flat -> fc7_mbox_loc_flat
I0920 09:41:46.841831 18667 net.cpp:150] Setting up fc7_mbox_loc_flat
I0920 09:41:46.841835 18667 net.cpp:157] Top shape: 16 9504 (152064)
I0920 09:41:46.841837 18667 net.cpp:165] Memory required for data: 4434301088
I0920 09:41:46.841840 18667 layer_factory.hpp:77] Creating layer fc7_mbox_conf
I0920 09:41:46.841847 18667 net.cpp:100] Creating Layer fc7_mbox_conf
I0920 09:41:46.841851 18667 net.cpp:434] fc7_mbox_conf <- fc7_relu7_0_split_2
I0920 09:41:46.841856 18667 net.cpp:408] fc7_mbox_conf -> fc7_mbox_conf
I0920 09:41:46.843948 18667 net.cpp:150] Setting up fc7_mbox_conf
I0920 09:41:46.843956 18667 net.cpp:157] Top shape: 16 12 18 22 (76032)
I0920 09:41:46.843962 18667 net.cpp:165] Memory required for data: 4434605216
I0920 09:41:46.843969 18667 layer_factory.hpp:77] Creating layer fc7_mbox_conf_perm
I0920 09:41:46.843974 18667 net.cpp:100] Creating Layer fc7_mbox_conf_perm
I0920 09:41:46.843978 18667 net.cpp:434] fc7_mbox_conf_perm <- fc7_mbox_conf
I0920 09:41:46.843982 18667 net.cpp:408] fc7_mbox_conf_perm -> fc7_mbox_conf_perm
I0920 09:41:46.844084 18667 net.cpp:150] Setting up fc7_mbox_conf_perm
I0920 09:41:46.844087 18667 net.cpp:157] Top shape: 16 18 22 12 (76032)
I0920 09:41:46.844090 18667 net.cpp:165] Memory required for data: 4434909344
I0920 09:41:46.844094 18667 layer_factory.hpp:77] Creating layer fc7_mbox_conf_flat
I0920 09:41:46.844097 18667 net.cpp:100] Creating Layer fc7_mbox_conf_flat
I0920 09:41:46.844100 18667 net.cpp:434] fc7_mbox_conf_flat <- fc7_mbox_conf_perm
I0920 09:41:46.844105 18667 net.cpp:408] fc7_mbox_conf_flat -> fc7_mbox_conf_flat
I0920 09:41:46.844137 18667 net.cpp:150] Setting up fc7_mbox_conf_flat
I0920 09:41:46.844141 18667 net.cpp:157] Top shape: 16 4752 (76032)
I0920 09:41:46.844144 18667 net.cpp:165] Memory required for data: 4435213472
I0920 09:41:46.844146 18667 layer_factory.hpp:77] Creating layer fc7_mbox_priorbox
I0920 09:41:46.844151 18667 net.cpp:100] Creating Layer fc7_mbox_priorbox
I0920 09:41:46.844154 18667 net.cpp:434] fc7_mbox_priorbox <- fc7_relu7_0_split_3
I0920 09:41:46.844157 18667 net.cpp:434] fc7_mbox_priorbox <- data_data_0_split_2
I0920 09:41:46.844161 18667 net.cpp:408] fc7_mbox_priorbox -> fc7_mbox_priorbox
I0920 09:41:46.844184 18667 net.cpp:150] Setting up fc7_mbox_priorbox
I0920 09:41:46.844188 18667 net.cpp:157] Top shape: 1 2 9504 (19008)
I0920 09:41:46.844192 18667 net.cpp:165] Memory required for data: 4435289504
I0920 09:41:46.844194 18667 layer_factory.hpp:77] Creating layer conv6_2_mbox_loc
I0920 09:41:46.844202 18667 net.cpp:100] Creating Layer conv6_2_mbox_loc
I0920 09:41:46.844205 18667 net.cpp:434] conv6_2_mbox_loc <- conv6_2_conv6_2_relu_0_split_1
I0920 09:41:46.844209 18667 net.cpp:408] conv6_2_mbox_loc -> conv6_2_mbox_loc
I0920 09:41:46.846299 18667 net.cpp:150] Setting up conv6_2_mbox_loc
I0920 09:41:46.846307 18667 net.cpp:157] Top shape: 16 24 9 11 (38016)
I0920 09:41:46.846312 18667 net.cpp:165] Memory required for data: 4435441568
I0920 09:41:46.846316 18667 layer_factory.hpp:77] Creating layer conv6_2_mbox_loc_perm
I0920 09:41:46.846323 18667 net.cpp:100] Creating Layer conv6_2_mbox_loc_perm
I0920 09:41:46.846326 18667 net.cpp:434] conv6_2_mbox_loc_perm <- conv6_2_mbox_loc
I0920 09:41:46.846331 18667 net.cpp:408] conv6_2_mbox_loc_perm -> conv6_2_mbox_loc_perm
I0920 09:41:46.846432 18667 net.cpp:150] Setting up conv6_2_mbox_loc_perm
I0920 09:41:46.846436 18667 net.cpp:157] Top shape: 16 9 11 24 (38016)
I0920 09:41:46.846439 18667 net.cpp:165] Memory required for data: 4435593632
I0920 09:41:46.846442 18667 layer_factory.hpp:77] Creating layer conv6_2_mbox_loc_flat
I0920 09:41:46.846446 18667 net.cpp:100] Creating Layer conv6_2_mbox_loc_flat
I0920 09:41:46.846449 18667 net.cpp:434] conv6_2_mbox_loc_flat <- conv6_2_mbox_loc_perm
I0920 09:41:46.846452 18667 net.cpp:408] conv6_2_mbox_loc_flat -> conv6_2_mbox_loc_flat
I0920 09:41:46.846474 18667 net.cpp:150] Setting up conv6_2_mbox_loc_flat
I0920 09:41:46.846478 18667 net.cpp:157] Top shape: 16 2376 (38016)
I0920 09:41:46.846482 18667 net.cpp:165] Memory required for data: 4435745696
I0920 09:41:46.846483 18667 layer_factory.hpp:77] Creating layer conv6_2_mbox_conf
I0920 09:41:46.846491 18667 net.cpp:100] Creating Layer conv6_2_mbox_conf
I0920 09:41:46.846495 18667 net.cpp:434] conv6_2_mbox_conf <- conv6_2_conv6_2_relu_0_split_2
I0920 09:41:46.846499 18667 net.cpp:408] conv6_2_mbox_conf -> conv6_2_mbox_conf
I0920 09:41:46.849267 18667 net.cpp:150] Setting up conv6_2_mbox_conf
I0920 09:41:46.849274 18667 net.cpp:157] Top shape: 16 12 9 11 (19008)
I0920 09:41:46.849278 18667 net.cpp:165] Memory required for data: 4435821728
I0920 09:41:46.849283 18667 layer_factory.hpp:77] Creating layer conv6_2_mbox_conf_perm
I0920 09:41:46.849290 18667 net.cpp:100] Creating Layer conv6_2_mbox_conf_perm
I0920 09:41:46.849294 18667 net.cpp:434] conv6_2_mbox_conf_perm <- conv6_2_mbox_conf
I0920 09:41:46.849298 18667 net.cpp:408] conv6_2_mbox_conf_perm -> conv6_2_mbox_conf_perm
I0920 09:41:46.849401 18667 net.cpp:150] Setting up conv6_2_mbox_conf_perm
I0920 09:41:46.849406 18667 net.cpp:157] Top shape: 16 9 11 12 (19008)
I0920 09:41:46.849408 18667 net.cpp:165] Memory required for data: 4435897760
I0920 09:41:46.849411 18667 layer_factory.hpp:77] Creating layer conv6_2_mbox_conf_flat
I0920 09:41:46.849416 18667 net.cpp:100] Creating Layer conv6_2_mbox_conf_flat
I0920 09:41:46.849419 18667 net.cpp:434] conv6_2_mbox_conf_flat <- conv6_2_mbox_conf_perm
I0920 09:41:46.849423 18667 net.cpp:408] conv6_2_mbox_conf_flat -> conv6_2_mbox_conf_flat
I0920 09:41:46.849444 18667 net.cpp:150] Setting up conv6_2_mbox_conf_flat
I0920 09:41:46.849448 18667 net.cpp:157] Top shape: 16 1188 (19008)
I0920 09:41:46.849462 18667 net.cpp:165] Memory required for data: 4435973792
I0920 09:41:46.849464 18667 layer_factory.hpp:77] Creating layer conv6_2_mbox_priorbox
I0920 09:41:46.849470 18667 net.cpp:100] Creating Layer conv6_2_mbox_priorbox
I0920 09:41:46.849474 18667 net.cpp:434] conv6_2_mbox_priorbox <- conv6_2_conv6_2_relu_0_split_3
I0920 09:41:46.849478 18667 net.cpp:434] conv6_2_mbox_priorbox <- data_data_0_split_3
I0920 09:41:46.849481 18667 net.cpp:408] conv6_2_mbox_priorbox -> conv6_2_mbox_priorbox
I0920 09:41:46.849505 18667 net.cpp:150] Setting up conv6_2_mbox_priorbox
I0920 09:41:46.849509 18667 net.cpp:157] Top shape: 1 2 2376 (4752)
I0920 09:41:46.849512 18667 net.cpp:165] Memory required for data: 4435992800
I0920 09:41:46.849514 18667 layer_factory.hpp:77] Creating layer conv7_2_mbox_loc
I0920 09:41:46.849524 18667 net.cpp:100] Creating Layer conv7_2_mbox_loc
I0920 09:41:46.849526 18667 net.cpp:434] conv7_2_mbox_loc <- conv7_2_conv7_2_relu_0_split_1
I0920 09:41:46.849531 18667 net.cpp:408] conv7_2_mbox_loc -> conv7_2_mbox_loc
I0920 09:41:46.851464 18667 net.cpp:150] Setting up conv7_2_mbox_loc
I0920 09:41:46.851471 18667 net.cpp:157] Top shape: 16 24 5 6 (11520)
I0920 09:41:46.851476 18667 net.cpp:165] Memory required for data: 4436038880
I0920 09:41:46.851482 18667 layer_factory.hpp:77] Creating layer conv7_2_mbox_loc_perm
I0920 09:41:46.851487 18667 net.cpp:100] Creating Layer conv7_2_mbox_loc_perm
I0920 09:41:46.851491 18667 net.cpp:434] conv7_2_mbox_loc_perm <- conv7_2_mbox_loc
I0920 09:41:46.851495 18667 net.cpp:408] conv7_2_mbox_loc_perm -> conv7_2_mbox_loc_perm
I0920 09:41:46.851596 18667 net.cpp:150] Setting up conv7_2_mbox_loc_perm
I0920 09:41:46.851600 18667 net.cpp:157] Top shape: 16 5 6 24 (11520)
I0920 09:41:46.851603 18667 net.cpp:165] Memory required for data: 4436084960
I0920 09:41:46.851606 18667 layer_factory.hpp:77] Creating layer conv7_2_mbox_loc_flat
I0920 09:41:46.851611 18667 net.cpp:100] Creating Layer conv7_2_mbox_loc_flat
I0920 09:41:46.851614 18667 net.cpp:434] conv7_2_mbox_loc_flat <- conv7_2_mbox_loc_perm
I0920 09:41:46.851619 18667 net.cpp:408] conv7_2_mbox_loc_flat -> conv7_2_mbox_loc_flat
I0920 09:41:46.851639 18667 net.cpp:150] Setting up conv7_2_mbox_loc_flat
I0920 09:41:46.851642 18667 net.cpp:157] Top shape: 16 720 (11520)
I0920 09:41:46.851644 18667 net.cpp:165] Memory required for data: 4436131040
I0920 09:41:46.851647 18667 layer_factory.hpp:77] Creating layer conv7_2_mbox_conf
I0920 09:41:46.851655 18667 net.cpp:100] Creating Layer conv7_2_mbox_conf
I0920 09:41:46.851657 18667 net.cpp:434] conv7_2_mbox_conf <- conv7_2_conv7_2_relu_0_split_2
I0920 09:41:46.851661 18667 net.cpp:408] conv7_2_mbox_conf -> conv7_2_mbox_conf
I0920 09:41:46.853354 18667 net.cpp:150] Setting up conv7_2_mbox_conf
I0920 09:41:46.853361 18667 net.cpp:157] Top shape: 16 12 5 6 (5760)
I0920 09:41:46.853368 18667 net.cpp:165] Memory required for data: 4436154080
I0920 09:41:46.853372 18667 layer_factory.hpp:77] Creating layer conv7_2_mbox_conf_perm
I0920 09:41:46.853379 18667 net.cpp:100] Creating Layer conv7_2_mbox_conf_perm
I0920 09:41:46.853382 18667 net.cpp:434] conv7_2_mbox_conf_perm <- conv7_2_mbox_conf
I0920 09:41:46.853386 18667 net.cpp:408] conv7_2_mbox_conf_perm -> conv7_2_mbox_conf_perm
I0920 09:41:46.853487 18667 net.cpp:150] Setting up conv7_2_mbox_conf_perm
I0920 09:41:46.853490 18667 net.cpp:157] Top shape: 16 5 6 12 (5760)
I0920 09:41:46.853493 18667 net.cpp:165] Memory required for data: 4436177120
I0920 09:41:46.853497 18667 layer_factory.hpp:77] Creating layer conv7_2_mbox_conf_flat
I0920 09:41:46.853502 18667 net.cpp:100] Creating Layer conv7_2_mbox_conf_flat
I0920 09:41:46.853504 18667 net.cpp:434] conv7_2_mbox_conf_flat <- conv7_2_mbox_conf_perm
I0920 09:41:46.853508 18667 net.cpp:408] conv7_2_mbox_conf_flat -> conv7_2_mbox_conf_flat
I0920 09:41:46.853530 18667 net.cpp:150] Setting up conv7_2_mbox_conf_flat
I0920 09:41:46.853534 18667 net.cpp:157] Top shape: 16 360 (5760)
I0920 09:41:46.853538 18667 net.cpp:165] Memory required for data: 4436200160
I0920 09:41:46.853549 18667 layer_factory.hpp:77] Creating layer conv7_2_mbox_priorbox
I0920 09:41:46.853554 18667 net.cpp:100] Creating Layer conv7_2_mbox_priorbox
I0920 09:41:46.853557 18667 net.cpp:434] conv7_2_mbox_priorbox <- conv7_2_conv7_2_relu_0_split_3
I0920 09:41:46.853561 18667 net.cpp:434] conv7_2_mbox_priorbox <- data_data_0_split_4
I0920 09:41:46.853565 18667 net.cpp:408] conv7_2_mbox_priorbox -> conv7_2_mbox_priorbox
I0920 09:41:46.853590 18667 net.cpp:150] Setting up conv7_2_mbox_priorbox
I0920 09:41:46.853593 18667 net.cpp:157] Top shape: 1 2 720 (1440)
I0920 09:41:46.853596 18667 net.cpp:165] Memory required for data: 4436205920
I0920 09:41:46.853600 18667 layer_factory.hpp:77] Creating layer conv8_2_mbox_loc
I0920 09:41:46.853606 18667 net.cpp:100] Creating Layer conv8_2_mbox_loc
I0920 09:41:46.853610 18667 net.cpp:434] conv8_2_mbox_loc <- conv8_2_conv8_2_relu_0_split_1
I0920 09:41:46.853615 18667 net.cpp:408] conv8_2_mbox_loc -> conv8_2_mbox_loc
I0920 09:41:46.855340 18667 net.cpp:150] Setting up conv8_2_mbox_loc
I0920 09:41:46.855347 18667 net.cpp:157] Top shape: 16 16 3 4 (3072)
I0920 09:41:46.855352 18667 net.cpp:165] Memory required for data: 4436218208
I0920 09:41:46.855360 18667 layer_factory.hpp:77] Creating layer conv8_2_mbox_loc_perm
I0920 09:41:46.855366 18667 net.cpp:100] Creating Layer conv8_2_mbox_loc_perm
I0920 09:41:46.855370 18667 net.cpp:434] conv8_2_mbox_loc_perm <- conv8_2_mbox_loc
I0920 09:41:46.855374 18667 net.cpp:408] conv8_2_mbox_loc_perm -> conv8_2_mbox_loc_perm
I0920 09:41:46.855476 18667 net.cpp:150] Setting up conv8_2_mbox_loc_perm
I0920 09:41:46.855480 18667 net.cpp:157] Top shape: 16 3 4 16 (3072)
I0920 09:41:46.855484 18667 net.cpp:165] Memory required for data: 4436230496
I0920 09:41:46.855486 18667 layer_factory.hpp:77] Creating layer conv8_2_mbox_loc_flat
I0920 09:41:46.855490 18667 net.cpp:100] Creating Layer conv8_2_mbox_loc_flat
I0920 09:41:46.855494 18667 net.cpp:434] conv8_2_mbox_loc_flat <- conv8_2_mbox_loc_perm
I0920 09:41:46.855497 18667 net.cpp:408] conv8_2_mbox_loc_flat -> conv8_2_mbox_loc_flat
I0920 09:41:46.855520 18667 net.cpp:150] Setting up conv8_2_mbox_loc_flat
I0920 09:41:46.855523 18667 net.cpp:157] Top shape: 16 192 (3072)
I0920 09:41:46.855526 18667 net.cpp:165] Memory required for data: 4436242784
I0920 09:41:46.855528 18667 layer_factory.hpp:77] Creating layer conv8_2_mbox_conf
I0920 09:41:46.855535 18667 net.cpp:100] Creating Layer conv8_2_mbox_conf
I0920 09:41:46.855538 18667 net.cpp:434] conv8_2_mbox_conf <- conv8_2_conv8_2_relu_0_split_2
I0920 09:41:46.855542 18667 net.cpp:408] conv8_2_mbox_conf -> conv8_2_mbox_conf
I0920 09:41:46.858255 18667 net.cpp:150] Setting up conv8_2_mbox_conf
I0920 09:41:46.858263 18667 net.cpp:157] Top shape: 16 8 3 4 (1536)
I0920 09:41:46.858268 18667 net.cpp:165] Memory required for data: 4436248928
I0920 09:41:46.858271 18667 layer_factory.hpp:77] Creating layer conv8_2_mbox_conf_perm
I0920 09:41:46.858278 18667 net.cpp:100] Creating Layer conv8_2_mbox_conf_perm
I0920 09:41:46.858283 18667 net.cpp:434] conv8_2_mbox_conf_perm <- conv8_2_mbox_conf
I0920 09:41:46.858286 18667 net.cpp:408] conv8_2_mbox_conf_perm -> conv8_2_mbox_conf_perm
I0920 09:41:46.858387 18667 net.cpp:150] Setting up conv8_2_mbox_conf_perm
I0920 09:41:46.858392 18667 net.cpp:157] Top shape: 16 3 4 8 (1536)
I0920 09:41:46.858394 18667 net.cpp:165] Memory required for data: 4436255072
I0920 09:41:46.858397 18667 layer_factory.hpp:77] Creating layer conv8_2_mbox_conf_flat
I0920 09:41:46.858402 18667 net.cpp:100] Creating Layer conv8_2_mbox_conf_flat
I0920 09:41:46.858404 18667 net.cpp:434] conv8_2_mbox_conf_flat <- conv8_2_mbox_conf_perm
I0920 09:41:46.858408 18667 net.cpp:408] conv8_2_mbox_conf_flat -> conv8_2_mbox_conf_flat
I0920 09:41:46.858429 18667 net.cpp:150] Setting up conv8_2_mbox_conf_flat
I0920 09:41:46.858433 18667 net.cpp:157] Top shape: 16 96 (1536)
I0920 09:41:46.858436 18667 net.cpp:165] Memory required for data: 4436261216
I0920 09:41:46.858438 18667 layer_factory.hpp:77] Creating layer conv8_2_mbox_priorbox
I0920 09:41:46.858455 18667 net.cpp:100] Creating Layer conv8_2_mbox_priorbox
I0920 09:41:46.858459 18667 net.cpp:434] conv8_2_mbox_priorbox <- conv8_2_conv8_2_relu_0_split_3
I0920 09:41:46.858462 18667 net.cpp:434] conv8_2_mbox_priorbox <- data_data_0_split_5
I0920 09:41:46.858467 18667 net.cpp:408] conv8_2_mbox_priorbox -> conv8_2_mbox_priorbox
I0920 09:41:46.858491 18667 net.cpp:150] Setting up conv8_2_mbox_priorbox
I0920 09:41:46.858495 18667 net.cpp:157] Top shape: 1 2 192 (384)
I0920 09:41:46.858497 18667 net.cpp:165] Memory required for data: 4436262752
I0920 09:41:46.858500 18667 layer_factory.hpp:77] Creating layer conv9_2_mbox_loc
I0920 09:41:46.858508 18667 net.cpp:100] Creating Layer conv9_2_mbox_loc
I0920 09:41:46.858512 18667 net.cpp:434] conv9_2_mbox_loc <- conv9_2_conv9_2_relu_0_split_0
I0920 09:41:46.858516 18667 net.cpp:408] conv9_2_mbox_loc -> conv9_2_mbox_loc
I0920 09:41:46.860255 18667 net.cpp:150] Setting up conv9_2_mbox_loc
I0920 09:41:46.860262 18667 net.cpp:157] Top shape: 16 16 1 2 (512)
I0920 09:41:46.860266 18667 net.cpp:165] Memory required for data: 4436264800
I0920 09:41:46.860270 18667 layer_factory.hpp:77] Creating layer conv9_2_mbox_loc_perm
I0920 09:41:46.860277 18667 net.cpp:100] Creating Layer conv9_2_mbox_loc_perm
I0920 09:41:46.860280 18667 net.cpp:434] conv9_2_mbox_loc_perm <- conv9_2_mbox_loc
I0920 09:41:46.860286 18667 net.cpp:408] conv9_2_mbox_loc_perm -> conv9_2_mbox_loc_perm
I0920 09:41:46.860386 18667 net.cpp:150] Setting up conv9_2_mbox_loc_perm
I0920 09:41:46.860390 18667 net.cpp:157] Top shape: 16 1 2 16 (512)
I0920 09:41:46.860394 18667 net.cpp:165] Memory required for data: 4436266848
I0920 09:41:46.860396 18667 layer_factory.hpp:77] Creating layer conv9_2_mbox_loc_flat
I0920 09:41:46.860401 18667 net.cpp:100] Creating Layer conv9_2_mbox_loc_flat
I0920 09:41:46.860404 18667 net.cpp:434] conv9_2_mbox_loc_flat <- conv9_2_mbox_loc_perm
I0920 09:41:46.860409 18667 net.cpp:408] conv9_2_mbox_loc_flat -> conv9_2_mbox_loc_flat
I0920 09:41:46.860430 18667 net.cpp:150] Setting up conv9_2_mbox_loc_flat
I0920 09:41:46.860435 18667 net.cpp:157] Top shape: 16 32 (512)
I0920 09:41:46.860436 18667 net.cpp:165] Memory required for data: 4436268896
I0920 09:41:46.860440 18667 layer_factory.hpp:77] Creating layer conv9_2_mbox_conf
I0920 09:41:46.860446 18667 net.cpp:100] Creating Layer conv9_2_mbox_conf
I0920 09:41:46.860450 18667 net.cpp:434] conv9_2_mbox_conf <- conv9_2_conv9_2_relu_0_split_1
I0920 09:41:46.860455 18667 net.cpp:408] conv9_2_mbox_conf -> conv9_2_mbox_conf
I0920 09:41:46.862113 18667 net.cpp:150] Setting up conv9_2_mbox_conf
I0920 09:41:46.862121 18667 net.cpp:157] Top shape: 16 8 1 2 (256)
I0920 09:41:46.862125 18667 net.cpp:165] Memory required for data: 4436269920
I0920 09:41:46.862129 18667 layer_factory.hpp:77] Creating layer conv9_2_mbox_conf_perm
I0920 09:41:46.862136 18667 net.cpp:100] Creating Layer conv9_2_mbox_conf_perm
I0920 09:41:46.862139 18667 net.cpp:434] conv9_2_mbox_conf_perm <- conv9_2_mbox_conf
I0920 09:41:46.862144 18667 net.cpp:408] conv9_2_mbox_conf_perm -> conv9_2_mbox_conf_perm
I0920 09:41:46.862246 18667 net.cpp:150] Setting up conv9_2_mbox_conf_perm
I0920 09:41:46.862251 18667 net.cpp:157] Top shape: 16 1 2 8 (256)
I0920 09:41:46.862254 18667 net.cpp:165] Memory required for data: 4436270944
I0920 09:41:46.862257 18667 layer_factory.hpp:77] Creating layer conv9_2_mbox_conf_flat
I0920 09:41:46.862262 18667 net.cpp:100] Creating Layer conv9_2_mbox_conf_flat
I0920 09:41:46.862264 18667 net.cpp:434] conv9_2_mbox_conf_flat <- conv9_2_mbox_conf_perm
I0920 09:41:46.862268 18667 net.cpp:408] conv9_2_mbox_conf_flat -> conv9_2_mbox_conf_flat
I0920 09:41:46.862289 18667 net.cpp:150] Setting up conv9_2_mbox_conf_flat
I0920 09:41:46.862293 18667 net.cpp:157] Top shape: 16 16 (256)
I0920 09:41:46.862295 18667 net.cpp:165] Memory required for data: 4436271968
I0920 09:41:46.862298 18667 layer_factory.hpp:77] Creating layer conv9_2_mbox_priorbox
I0920 09:41:46.862303 18667 net.cpp:100] Creating Layer conv9_2_mbox_priorbox
I0920 09:41:46.862306 18667 net.cpp:434] conv9_2_mbox_priorbox <- conv9_2_conv9_2_relu_0_split_2
I0920 09:41:46.862318 18667 net.cpp:434] conv9_2_mbox_priorbox <- data_data_0_split_6
I0920 09:41:46.862323 18667 net.cpp:408] conv9_2_mbox_priorbox -> conv9_2_mbox_priorbox
I0920 09:41:46.862346 18667 net.cpp:150] Setting up conv9_2_mbox_priorbox
I0920 09:41:46.862350 18667 net.cpp:157] Top shape: 1 2 32 (64)
I0920 09:41:46.862354 18667 net.cpp:165] Memory required for data: 4436272224
I0920 09:41:46.862355 18667 layer_factory.hpp:77] Creating layer mbox_loc
I0920 09:41:46.862361 18667 net.cpp:100] Creating Layer mbox_loc
I0920 09:41:46.862365 18667 net.cpp:434] mbox_loc <- conv4_3_norm_mbox_loc_flat
I0920 09:41:46.862368 18667 net.cpp:434] mbox_loc <- fc7_mbox_loc_flat
I0920 09:41:46.862372 18667 net.cpp:434] mbox_loc <- conv6_2_mbox_loc_flat
I0920 09:41:46.862375 18667 net.cpp:434] mbox_loc <- conv7_2_mbox_loc_flat
I0920 09:41:46.862378 18667 net.cpp:434] mbox_loc <- conv8_2_mbox_loc_flat
I0920 09:41:46.862380 18667 net.cpp:434] mbox_loc <- conv9_2_mbox_loc_flat
I0920 09:41:46.862385 18667 net.cpp:408] mbox_loc -> mbox_loc
I0920 09:41:46.862409 18667 net.cpp:150] Setting up mbox_loc
I0920 09:41:46.862413 18667 net.cpp:157] Top shape: 16 38168 (610688)
I0920 09:41:46.862416 18667 net.cpp:165] Memory required for data: 4438714976
I0920 09:41:46.862419 18667 layer_factory.hpp:77] Creating layer mbox_conf
I0920 09:41:46.862423 18667 net.cpp:100] Creating Layer mbox_conf
I0920 09:41:46.862426 18667 net.cpp:434] mbox_conf <- conv4_3_norm_mbox_conf_flat
I0920 09:41:46.862429 18667 net.cpp:434] mbox_conf <- fc7_mbox_conf_flat
I0920 09:41:46.862432 18667 net.cpp:434] mbox_conf <- conv6_2_mbox_conf_flat
I0920 09:41:46.862434 18667 net.cpp:434] mbox_conf <- conv7_2_mbox_conf_flat
I0920 09:41:46.862437 18667 net.cpp:434] mbox_conf <- conv8_2_mbox_conf_flat
I0920 09:41:46.862440 18667 net.cpp:434] mbox_conf <- conv9_2_mbox_conf_flat
I0920 09:41:46.862443 18667 net.cpp:408] mbox_conf -> mbox_conf
I0920 09:41:46.862464 18667 net.cpp:150] Setting up mbox_conf
I0920 09:41:46.862468 18667 net.cpp:157] Top shape: 16 19084 (305344)
I0920 09:41:46.862471 18667 net.cpp:165] Memory required for data: 4439936352
I0920 09:41:46.862474 18667 layer_factory.hpp:77] Creating layer mbox_priorbox
I0920 09:41:46.862478 18667 net.cpp:100] Creating Layer mbox_priorbox
I0920 09:41:46.862480 18667 net.cpp:434] mbox_priorbox <- conv4_3_norm_mbox_priorbox
I0920 09:41:46.862483 18667 net.cpp:434] mbox_priorbox <- fc7_mbox_priorbox
I0920 09:41:46.862486 18667 net.cpp:434] mbox_priorbox <- conv6_2_mbox_priorbox
I0920 09:41:46.862488 18667 net.cpp:434] mbox_priorbox <- conv7_2_mbox_priorbox
I0920 09:41:46.862491 18667 net.cpp:434] mbox_priorbox <- conv8_2_mbox_priorbox
I0920 09:41:46.862494 18667 net.cpp:434] mbox_priorbox <- conv9_2_mbox_priorbox
I0920 09:41:46.862498 18667 net.cpp:408] mbox_priorbox -> mbox_priorbox
I0920 09:41:46.862519 18667 net.cpp:150] Setting up mbox_priorbox
I0920 09:41:46.862522 18667 net.cpp:157] Top shape: 1 2 38168 (76336)
I0920 09:41:46.862525 18667 net.cpp:165] Memory required for data: 4440241696
I0920 09:41:46.862527 18667 layer_factory.hpp:77] Creating layer mbox_loss
I0920 09:41:46.862535 18667 net.cpp:100] Creating Layer mbox_loss
I0920 09:41:46.862538 18667 net.cpp:434] mbox_loss <- mbox_loc
I0920 09:41:46.862541 18667 net.cpp:434] mbox_loss <- mbox_conf
I0920 09:41:46.862545 18667 net.cpp:434] mbox_loss <- mbox_priorbox
…
  top: "label"
  include {
    phase: TEST
  }
  transform_param {
    mean_value: 104
    mean_value: 117
    mean_value: 123
    resize_param {
      prob: 1
      resize_mode: WARP
      height: 288
      width: 352
      interp_mode: LINEAR
    }
  }
  data_param {
    source: "/media/ly/data/CarData/car352x288_splitKitti_MVT_indoor/lmdb/car352x288_splitKitti_MVT_indoor_test_lmdb"
    batch_size: 4
    backend: LMDB
  }
  annotated_data_param {
    batch_sampler {
    }
    label_map_file: "data/car352x288_splitKitti_MVT_indoor/labelmap_voc.prototxt"
  }
}
layer {
  name: "conv1_1"
  type: "Convolution"
  bottom: "data"
  top: "conv1_1"
  param {
    lr_mult: 1
    decay_mult: 1
  }
  param {
    lr_mult: 2
    decay_mult: 0
  }
  convolution_param {
    num_output: 64
    pad: 1
    kernel_size: 3
    weight_filler {
      type: "xavier"
    }
    bias_filler {
      type: "constant"
      value: 0
    }
  }
}
layer {
  name: "relu1_1"
  type: "ReLU"
  bottom: "conv1_1"
  top: "conv1_1"
}
layer {
  name: "conv1_2"
  type: "Convolution"
  bottom: "conv1_1"
  top: "conv1_2"
  param {
    lr_mult: 1
    decay_mult: 1
  }
  param {
    lr_mult: 2
    decay_mult: 0
  }
  convolution_param {
    num_output: 64
    pad: 1
    kernel_size: 3
    weight_filler {
      type: "xavier"
    }
    bias_filler {
      type: "constant"
      value: 0
    }
  }
}
layer {
  name: "relu1_2"
  type: "ReLU"
  bottom: "conv1_2"
  top: "conv1_2"
}
layer {
  name: "pool1"
  type: "Pooling"
  bottom: "conv1_2"
  top: "pool1"
  pooling_param {
    pool: MAX
    kernel_size: 2
    stride: 2
  }
}
layer {
  name: "conv2_1"
  type: "Convolution"
  bottom: "pool1"
  top: "conv2_1"
  param {
    lr_mult: 1
    decay_mult: 1
  }
  param {
    lr_mult: 2
    decay_mult: 0
  }
  convolution_param {
    num_output: 128
    pad: 1
    kernel_size: 3
    weight_filler {
      type: "xavier"
    }
    bias_filler {
      type: "constant"
      value: 0
    }
  }
}
layer {
  name: "relu2_1"
  type: "ReLU"
  bottom: "conv2_1"
  top: "conv2_1"
}
layer {
  name: "conv2_2"
  type: "Convolution"
  bottom: "conv2_1"
  top: "conv2_2"
  param {
    lr_mult: 1
    decay_mult: 1
  }
  param {
    lr_mult: 2
    decay_mult: 0
  }
  convolution_param {
    num_output: 128
    pad: 1
    kernel_size: 3
    weight_filler {
      type: "xavier"
    }
    bias_filler {
      type: "constant"
      value: 0
    }
  }
}
layer {
  name: "relu2_2"
  type: "ReLU"
  bottom: "conv2_2"
  top: "conv2_2"
}
layer {
  name: "pool2"
  type: "Pooling"
  bottom: "conv2_2"
  top: "pool2"
  pooling_param {
    pool: MAX
    kernel_size: 2
    stride: 2
  }
}
layer {
  name: "conv3_1"
  type: "Convolution"
  bottom: "pool2"
  top: "conv3_1"
  param {
    lr_mult: 1
    decay_mult: 1
  }
  param {
    lr_mult: 2
    decay_mult: 0
  }
  convolution_param {
    num_output: 256
    pad: 1
    kernel_size: 3
    weight_filler {
      type: "xavier"
    }
    bias_filler {
      type: "constant"
      value: 0
    }
  }
}
layer {
  name: "relu3_1"
  type: "ReLU"
  bottom: "conv3_1"
  top: "conv3_1"
}
layer {
  name: "conv3_2"
  type: "Convolution"
  bottom: "conv3_1"
  top: "conv3_2"
  param {
    lr_mult: 1
    decay_mult: 1
  }
  param {
    lr_mult: 2
    decay_mult: 0
  }
  convolution_param {
    num_output: 256
    pad: 1
    kernel_size: 3
    weight_filler {
      type: "xavier"
    }
    bias_filler {
      type: "constant"
      value: 0
    }
  }
}
layer {
  name: "relu3_2"
  type: "ReLU"
  bottom: "conv3_2"
  top: "conv3_2"
}
layer {
  name: "conv3_3"
  type: "Convolution"
  bottom: "conv3_2"
  top: "conv3_3"
  param {
    lr_mult: 1
    decay_mult: 1
  }
  param {
    lr_mult: 2
    decay_mult: 0
  }
  convolution_param {
    num_output: 256
    pad: 1
    kernel_size: 3
    weight_filler {
      type: "xavier"
    }
    bias_filler {
      type: "constant"
      value: 0
    }
  }
}
layer {
  name: "relu3_3"
  type: "ReLU"
  bottom: "conv3_3"
  top: "conv3_3"
}
layer {
  name: "pool3"
  type: "Pooling"
  bottom: "conv3_3"
  top: "pool3"
  pooling_param {
    pool: MAX
    kernel_size: 2
    stride: 2
  }
}
layer {
  name: "conv4_1"
  type: "Convolution"
  bottom: "pool3"
  top: "conv4_1"
  param {
    lr_mult: 1
    decay_mult: 1
  }
  param {
    lr_mult: 2
    decay_mult: 0
  }
  convolution_param {
    num_output: 512
    pad: 1
    kernel_size: 3
    weight_filler {
      type: "xavier"
    }
    bias_filler {
      type: "constant"
      value: 0
    }
  }
}
layer {
  name: "relu4_1"
  type: "ReLU"
  bottom: "conv4_1"
  top: "conv4_1"
}
layer {
  name: "conv4_2"
  type: "Convolution"
  bottom: "conv4_1"
  top: "conv4_2"
  param {
    lr_mult: 1
    decay_mult: 1
  }
  param {
    lr_mult: 2
    decay_mult: 0
  }
  convolution_param {
    num_output: 512
    pad: 1
    kernel_size: 3
    weight_filler {
      type: "xavier"
    }
    bias_filler {
      type: "constant"
      value: 0
    }
  }
}
layer {
  name: "relu4_2"
  type: "ReLU"
  bottom: "conv4_2"
  top: "conv4_2"
}
layer {
  name: "conv4_3"
  type: "Convolution"
  bottom: "conv4_2"
  top: "conv4_3"
  param {
    lr_mult: 1
    decay_mult: 1
  }
  param {
    lr_mult: 2
    decay_mult: 0
  }
  convolution_param {
    num_output: 512
    pad: 1
    kernel_size: 3
    weight_filler {
      type: "xavier"
    }
    bias_filler {
      type: "constant"
      value: 0
    }
  }
}
layer {
  name: "relu4_3"
  type: "ReLU"
  bottom: "conv4_3"
  top: "conv4_3"
}
layer {
  name: "pool4"
  type: "Pooling"
  bottom: "conv4_3"
  top: "pool4"
  pooling_param {
    pool: MAX
    kernel_size: 2
    stride: 2
  }
}
layer {
  name: "conv5_1"
  type: "Convolution"
  bottom: "pool4"
  top: "conv5_1"
  param {
    lr_mult: 1
    decay_mult: 1
  }
  param {
    lr_mult: 2
    decay_mult: 0
  }
  convolution_param {
    num_output: 512
    pad: 1
    kernel_size: 3
    weight_filler {
      type: "xavier"
    }
    bias_filler {
      type: "constant"
      value: 0
    }
    dilation: 1
  }
}
layer {
  name: "relu5_1"
  type: "ReLU"
  bottom: "conv5_1"
  top: "conv5_1"
}
layer {
  name: "conv5_2"
  type: "Convolution"
  bottom: "conv5_1"
  top: "conv5_2"
  param {
    lr_mult: 1
    decay_mult: 1
  }
  param {
    lr_mult: 2
    decay_mult: 0
  }
  convolution_param {
    num_output: 512
    pad: 1
    kernel_size: 3
    weight_filler {
      type: "xavier"
    }
    bias_filler {
      type: "constant"
      value: 0
    }
    dilation: 1
  }
}
layer {
  name: "relu5_2"
  type: "ReLU"
  bottom: "conv5_2"
  top: "conv5_2"
}
layer {
  name: "conv5_3"
  type: "Convolution"
  bottom: "conv5_2"
  top: "conv5_3"
  param {
    lr_mult: 1
    decay_mult: 1
  }
  param {
    lr_mult: 2
    decay_mult: 0
  }
  convolution_param {
    num_output: 512
    pad: 1
    kernel_size: 3
    weight_filler {
      type: "xavier"
    }
    bias_filler {
      type: "constant"
      value: 0
    }
    dilation: 1
  }
}
layer {
  name: "relu5_3"
  type: "ReLU"
  bottom: "conv5_3"
  top: "conv5_3"
}
layer {
  name: "pool5"
  type: "Pooling"
  bottom: "conv5_3"
  top: "pool5"
  pooling_param {
    pool: MAX
    kernel_size: 3
    stride: 1
    pad: 1
  }
}
layer {
  name: "fc6"
  type: "Convolution"
  bottom: "pool5"
  top: "fc6"
  param {
    lr_mult: 1
    decay_mult: 1
  }
  param {
    lr_mult: 2
    decay_mult: 0
  }
  convolution_param {
    num_output: 1024
    pad: 1
    kernel_size: 3
    weight_filler {
      type: "xavier"
    }
    bias_filler {
      type: "constant"
      value: 0
    }
    dilation: 1
  }
}
layer {
  name: "relu6"
  type: "ReLU"
  bottom: "fc6"
  top: "fc6"
}
layer {
  name: "fc7"
  type: "Convolution"
  bottom: "fc6"
  top: "fc7"
  param {
    lr_mult: 1
    decay_mult: 1
  }
  param {
    lr_mult: 2
    decay_mult: 0
  }
  convolution_param {
    num_output: 1024
    kernel_size: 1
    weight_filler {
      type: "xavier"
    }
    bias_filler {
      type: "constant"
      value: 0
    }
  }
}
layer {
  name: "relu7"
  type: "ReLU"
  bottom: "fc7"
  top: "fc7"
}
layer {
  name: "conv6_1"
  type: "Convolution"
  bottom: "fc7"
  top: "conv6_1"
  param {
    lr_mult: 1
    decay_mult: 1
  }
  param {
    lr_mult: 2
    decay_mult: 0
  }
  convolution_param {
    num_output: 256
    pad: 0
    kernel_size: 1
    stride: 1
    weight_filler {
      type: "xavier"
    }
    bias_filler {
      type: "constant"
      value: 0
    }
  }
}
layer {
  name: "conv6_1_relu"
  type: "ReLU"
  bottom: "conv6_1"
  top: "conv6_1"
}
layer {
  name: "conv6_2"
  type: "Convolution"
  bottom: "conv6_1"
  top: "conv6_2"
  param {
    lr_mult: 1
    decay_mult: 1
  }
  param {
    lr_mult: 2
    decay_mult: 0
  }
  convolution_param {
    num_output: 512
    pad: 1
    kernel_size: 3
    stride: 2
    weight_filler {
      type: "xavier"
    }
    bias_filler {
      type: "constant"
      value: 0
    }
  }
}
layer {
  name: "conv6_2_relu"
  type: "ReLU"
  bottom: "conv6_2"
  top: "conv6_2"
}
layer {
  name: "conv7_1"
  type: "Convolution"
  bottom: "conv6_2"
  top: "conv7_1"
  param {
    lr_mult: 1
    decay_mult: 1
  }
  param {
    lr_mult: 2
    decay_mult: 0
  }
  convolution_param {
    num_output: 128
    pad: 0
    kernel_size: 1
    stride: 1
    weight_filler {
      type: "xavier"
    }
    bias_filler {
      type: "constant"
      value: 0
    }
  }
}
layer {
  name: "conv7_1_relu"
  type: "ReLU"
  bottom: "conv7_1"
  top: "conv7_1"
}
layer {
  name: "conv7_2"
  type: "Convolution"
  bottom: "conv7_1"
  top: "conv7_2"
  param {
    lr_mult: 1
    decay_mult: 1
  }
  param {
    lr_mult: 2
    decay_mult: 0
  }
  convolution_param {
    num_output: 256
    pad: 1
    kernel_size: 3
    stride: 2
    weight_filler {
      type: "xavier"
    }
    bias_filler {
      type: "constant"
      value: 0
    }
  }
}
layer {
  name: "conv7_2_relu"
  type: "ReLU"
  bottom: "conv7_2"
  top: "conv7_2"
}
layer {
  name: "conv8_1"
  type: "Convolution"
  bottom: "conv7_2"
  top: "conv8_1"
  param {
    lr_mult: 1
    decay_mult: 1
  }
  param {
    lr_mult: 2
    decay_mult: 0
  }
  convolution_param {
    num_output: 128
    pad: 0
    kernel_size: 1
    stride: 1
    weight_filler {
      type: "xavier"
    }
    bias_filler {
      type: "constant"
      value: 0
    }
  }
}
layer {
  name: "conv8_1_relu"
  type: "ReLU"
  bottom: "conv8_1"
  top: "conv8_1"
}
layer {
  name: "conv8_2"
  type: "Convolution"
  bottom: "conv8_1"
  top: "conv8_2"
  param {
    lr_mult: 1
    decay_mult: 1
  }
  param {
    lr_mult: 2
    decay_mult: 0
  }
  convolution_param {
    num_output: 256
    pad: 0
    kernel_size: 3
    stride: 1
    weight_filler {
      type: "xavier"
    }
    bias_filler {
      type: "constant"
      value: 0
    }
  }
}
layer {
  name: "conv8_2_relu"
  type: "ReLU"
  bottom: "conv8_2"
  top: "conv8_2"
}
layer {
  name: "conv9_1"
  type: "Convolution"
  bottom: "conv8_2"
  top: "conv9_1"
  param {
    lr_mult: 1
    decay_mult: 1
  }
  param {
    lr_mult: 2
    decay_mult: 0
  }
  convolution_param {
    num_output: 128
    pad: 0
    kernel_size: 1
    stride: 1
    weight_filler {
      type: "xavier"
    }
    bias_filler {
      type: "constant"
      value: 0
    }
  }
}
layer {
  name: "conv9_1_relu"
  type: "ReLU"
  bottom: "conv9_1"
  top: "conv9_1"
}
layer {
  name: "conv9_2"
  type: "Convolution"
  bottom: "conv9_1"
  top: "conv9_2"
  param {
    lr_mult: 1
    decay_mult: 1
  }
  param {
    lr_mult: 2
    decay_mult: 0
  }
  convolution_param {
    num_output: 256
    pad: 0
    kernel_size: 3
    stride: 1
    weight_filler {
      type: "xavier"
    }
    bias_filler {
      type: "constant"
      value: 0
    }
  }
}
layer {
  name: "conv9_2_relu"
  type: "ReLU"
  bottom: "conv9_2"
  top: "conv9_2"
}
layer {
  name: "conv4_3_norm"
  type: "Normalize"
  bottom: "conv4_3"
  top: "conv4_3_norm"
  norm_param {
    across_spatial: false
    scale_filler {
      type: "constant"
      value: 20
    }
    channel_shared: false
  }
}
layer {
  name: "conv4_3_norm_mbox_loc"
  type: "Convolution"
  bottom: "conv4_3_norm"
  top: "conv4_3_norm_mbox_loc"
  param {
    lr_mult: 1
    decay_mult: 1
  }
  param {
    lr_mult: 2
    decay_mult: 0
  }
  convolution_param {
    num_output: 16
    pad: 1
    kernel_size: 3
    stride: 1
    weight_filler {
      type: "xavier"
    }
    bias_filler {
      type: "constant"
      value: 0
    }
  }
}
layer {
  name: "conv4_3_norm_mbox_loc_perm"
  type: "Permute"
  bottom: "conv4_3_norm_mbox_loc"
  top: "conv4_3_norm_mbox_loc_perm"
  permute_param {
    order: 0
    order: 2
    order: 3
    order: 1
  }
}
layer {
  name: "conv4_3_norm_mbox_loc_flat"
  type: "Flatten"
  bottom: "conv4_3_norm_mbox_loc_perm"
  top: "conv4_3_norm_mbox_loc_flat"
  flatten_param {
    axis: 1
  }
}
layer {
  name: "conv4_3_norm_mbox_conf"
  type: "Convolution"
  bottom: "conv4_3_norm"
  top: "conv4_3_norm_mbox_conf"
  param {
    lr_mult: 1
    decay_mult: 1
  }
  param {
    lr_mult: 2
    decay_mult: 0
  }
  convolution_param {
    num_output: 8
    pad: 1
    kernel_size: 3
    stride: 1
    weight_filler {
      type: "xavier"
    }
    bias_filler {
      type: "constant"
      value: 0
    }
  }
}
layer {
  name: "conv4_3_norm_mbox_conf_perm"
  type: "Permute"
  bottom: "conv4_3_norm_mbox_conf"
  top: "conv4_3_norm_mbox_conf_perm"
  permute_param {
    order: 0
    order: 2
    order: 3
    order: 1
  }
}
layer {
  name: "conv4_3_norm_mbox_conf_flat"
  type: "Flatten"
  bottom: "conv4_3_norm_mbox_conf_perm"
  top: "conv4_3_norm_mbox_conf_flat"
  flatten_param {
    axis: 1
  }
}
layer {
  name: "conv4_3_norm_mbox_priorbox"
  type: "PriorBox"
  bottom: "conv4_3_norm"
  bottom: "data"
  top: "conv4_3_norm_mbox_priorbox"
  prior_box_param {
    min_size: 30
    max_size: 60
    aspect_ratio: 2
    flip: true
    clip: false
    variance: 0.1
    variance: 0.1
    variance: 0.2
    variance: 0.2
    step: 8
    offset: 0.5
  }
}
layer {
  name: "fc7_mbox_loc"
  type: "Convolution"
  bottom: "fc7"
  top: "fc7_mbox_loc"
  param {
    lr_mult: 1
    decay_mult: 1
  }
  param {
    lr_mult: 2
    decay_mult: 0
  }
  convolution_param {
    num_output: 24
    pad: 1
    kernel_size: 3
    stride: 1
    weight_filler {
      type: "xavier"
    }
    bias_filler {
      type: "constant"
      value: 0
    }
  }
}
layer {
  name: "fc7_mbox_loc_perm"
  type: "Permute"
  bottom: "fc7_mbox_loc"
  top: "fc7_mbox_loc_perm"
  permute_param {
    order: 0
    order: 2
    order: 3
    order: 1
  }
}
layer {
  name: "fc7_mbox_loc_flat"
  type: "Flatten"
  bottom: "fc7_mbox_loc_perm"
  top: "fc7_mbox_loc_flat"
  flatten_param {
    axis: 1
  }
}
layer {
  name: "fc7_mbox_conf"
  type: "Convolution"
  bottom: "fc7"
  top: "fc7_mbox_conf"
  param {
    lr_mult: 1
    decay_mult: 1
  }
  param {
    lr_mult: 2
    decay_mult: 0
  }
  convolution_param {
    num_output: 12
    pad: 1
    kernel_size: 3
    stride: 1
    weight_filler {
      type: "xavier"
    }
    bias_filler {
      type: "constant"
      value: 0
    }
  }
}
layer {
  name: "fc7_mbox_conf_perm"
  type: "Permute"
  bottom: "fc7_mbox_conf"
  top: "fc7_mbox_conf_perm"
  permute_param {
    order: 0
    order: 2
    order: 3
    order: 1
  }
}
layer {
  name: "fc7_mbox_conf_flat"
  type: "Flatten"
  bottom: "fc7_mbox_conf_perm"
  top: "fc7_mbox_conf_flat"
  flatten_param {
    axis: 1
  }
}
layer {
  name: "fc7_mbox_priorbox"
  type: "PriorBox"
  bottom: "fc7"
  bottom: "data"
  top: "fc7_mbox_priorbox"
  prior_box_param {
    min_size: 60
    max_size: 111
    aspect_ratio: 2
    aspect_ratio: 3
    flip: true
    clip: false
    variance: 0.1
    variance: 0.1
    variance: 0.2
    variance: 0.2
    step: 16
    offset: 0.5
  }
}
layer {
  name: "conv6_2_mbox_loc"
  type: "Convolution"
  bottom: "conv6_2"
  top: "conv6_2_mbox_loc"
  param {
    lr_mult: 1
    decay_mult: 1
  }
  param {
    lr_mult: 2
    decay_mult: 0
  }
  convolution_param {
    num_output: 24
    pad: 1
    kernel_size: 3
    stride: 1
    weight_filler {
      type: "xavier"
    }
    bias_filler {
      type: "constant"
      value: 0
    }
  }
}
layer {
  name: "conv6_2_mbox_loc_perm"
  type: "Permute"
  bottom: "conv6_2_mbox_loc"
  top: "conv6_2_mbox_loc_perm"
  permute_param {
    order: 0
    order: 2
    order: 3
    order: 1
  }
}
layer {
  name: "conv6_2_mbox_loc_flat"
  type: "Flatten"
  bottom: "conv6_2_mbox_loc_perm"
  top: "conv6_2_mbox_loc_flat"
  flatten_param {
    axis: 1
  }
}
layer {
  name: "conv6_2_mbox_conf"
  type: "Convolution"
  bottom: "conv6_2"
  top: "conv6_2_mbox_conf"
  param {
    lr_mult: 1
    decay_mult: 1
  }
  param {
    lr_mult: 2
    decay_mult: 0
  }
  convolution_param {
    num_output: 12
    pad: 1
    kernel_size: 3
    stride: 1
    weight_filler {
      type: "xavier"
    }
    bias_filler {
      type: "constant"
      value: 0
    }
  }
}
layer {
  name: "conv6_2_mbox_conf_perm"
  type: "Permute"
  bottom: "conv6_2_mbox_conf"
  top: "conv6_2_mbox_conf_perm"
  permute_param {
    order: 0
    order: 2
    order: 3
    order: 1
  }
}
layer {
  name: "conv6_2_mbox_conf_flat"
  type: "Flatten"
  bottom: "conv6_2_mbox_conf_perm"
  top: "conv6_2_mbox_conf_flat"
  flatten_param {
    axis: 1
  }
}
layer {
  name: "conv6_2_mbox_priorbox"
  type: "PriorBox"
  bottom: "conv6_2"
  bottom: "data"
  top: "conv6_2_mbox_priorbox"
  prior_box_param {
    min_size: 111
    max_size: 162
    aspect_ratio: 2
    aspect_ratio: 3
    flip: true
    clip: false
    variance: 0.1
    variance: 0.1
    variance: 0.2
    variance: 0.2
    step: 32
    offset: 0.5
  }
}
layer {
  name: "conv7_2_mbox_loc"
  type: "Convolution"
  bottom: "conv7_2"
  top: "conv7_2_mbox_loc"
  param {
    lr_mult: 1
    decay_mult: 1
  }
  param {
    lr_mult: 2
    decay_mult: 0
  }
  convolution_param {
    num_output: 24
    pad: 1
    kernel_size: 3
    stride: 1
    weight_filler {
      type: "xavier"
    }
    bias_filler {
      type: "constant"
      value: 0
    }
  }
}
layer {
  name: "conv7_2_mbox_loc_perm"
  type: "Permute"
  bottom: "conv7_2_mbox_loc"
  top: "conv7_2_mbox_loc_perm"
  permute_param {
    order: 0
    order: 2
    order: 3
    order: 1
  }
}
layer {
  name: "conv7_2_mbox_loc_flat"
  type: "Flatten"
  bottom: "conv7_2_mbox_loc_perm"
  top: "conv7_2_mbox_loc_flat"
  flatten_param {
    axis: 1
  }
}
layer {
  name: "conv7_2_mbox_conf"
  type: "Convolution"
  bottom: "conv7_2"
  top: "conv7_2_mbox_conf"
  param {
    lr_mult: 1
    decay_mult: 1
  }
  param {
    lr_mult: 2
    decay_mult: 0
  }
  convolution_param {
    num_output: 12
    pad: 1
    kernel_size: 3
    stride: 1
    weight_filler {
      type: "xavier"
    }
    bias_filler {
      type: "constant"
      value: 0
    }
  }
}
layer {
  name: "conv7_2_mbox_conf_perm"
  type: "Permute"
  bottom: "conv7_2_mbox_conf"
  top: "conv7_2_mbox_conf_perm"
  permute_param {
    order: 0
    order: 2
    order: 3
    order: 1
  }
}
layer {
  name: "conv7_2_mbox_conf_flat"
  type: "Flatten"
  bottom: "conv7_2_mbox_conf_perm"
  top: "conv7_2_mbox_conf_flat"
  flatten_param {
    axis: 1
  }
}
layer {
  name: "conv7_2_mbox_priorbox"
  type: "PriorBox"
  bottom: "conv7_2"
  bottom: "data"
  top: "conv7_2_mbox_priorbox"
  prior_box_param {
    min_size: 162
    max_size: 213
    aspect_ratio: 2
    aspect_ratio: 3
    flip: true
    clip: false
    variance: 0.1
    variance: 0.1
    variance: 0.2
    variance: 0.2
    step: 64
    offset: 0.5
  }
}
layer {
  name: "conv8_2_mbox_loc"
  type: "Convolution"
  bottom: "conv8_2"
  top: "conv8_2_mbox_loc"
  param {
    lr_mult: 1
    decay_mult: 1
  }
  param {
    lr_mult: 2
    decay_mult: 0
  }
  convolution_param {
    num_output: 16
    pad: 1
    kernel_size: 3
    stride: 1
    weight_filler {
      type: "xavier"
    }
    bias_filler {
      type: "constant"
      value: 0
    }
  }
}
layer {
  name: "conv8_2_mbox_loc_perm"
  type: "Permute"
  bottom: "conv8_2_mbox_loc"
  top: "conv8_2_mbox_loc_perm"
  permute_param {
    order: 0
    order: 2
    order: 3
    order: 1
  }
}
layer {
  name: "conv8_2_mbox_loc_flat"
  type: "Flatten"
  bottom: "conv8_2_mbox_loc_perm"
  top: "conv8_2_mbox_loc_flat"
  flatten_param {
    axis: 1
  }
}
layer {
  name: "conv8_2_mbox_conf"
  type: "Convolution"
  bottom: "conv8_2"
  top: "conv8_2_mbox_conf"
  param {
    lr_mult: 1
    decay_mult: 1
  }
  param {
    lr_mult: 2
    decay_mult: 0
  }
  convolution_param {
    num_output: 8
    pad: 1
    kernel_size: 3
    stride: 1
    weight_filler {
      type: "xavier"
    }
    bias_filler {
      type: "constant"
      value: 0
    }
  }
}
layer {
  name: "conv8_2_mbox_conf_perm"
  type: "Permute"
  bottom: "conv8_2_mbox_conf"
  top: "conv8_2_mbox_conf_perm"
  permute_param {
    order: 0
    order: 2
    order: 3
    order: 1
  }
}
layer {
  name: "conv8_2_mbox_conf_flat"
  type: "Flatten"
  bottom: "conv8_2_mbox_conf_perm"
  top: "conv8_2_mbox_conf_flat"
  flatten_param {
    axis: 1
  }
}
layer {
  name: "conv8_2_mbox_priorbox"
  type: "PriorBox"
  bottom: "conv8_2"
  bottom: "data"
  top: "conv8_2_mbox_priorbox"
  prior_box_param {
    min_size: 213
    max_size: 264
    aspect_ratio: 2
    flip: true
    clip: false
    variance: 0.1
    variance: 0.1
    variance: 0.2
    variance: 0.2
    step: 100
    offset: 0.5
  }
}
layer {
  name: "conv9_2_mbox_loc"
  type: "Convolution"
  bottom: "conv9_2"
  top: "conv9_2_mbox_loc"
  param {
    lr_mult: 1
    decay_mult: 1
  }
  param {
    lr_mult: 2
    decay_mult: 0
  }
  convolution_param {
    num_output: 16
    pad: 1
    kernel_size: 3
    stride: 1
    weight_filler {
      type: "xavier"
    }
    bias_filler {
      type: "constant"
      value: 0
    }
  }
}
layer {
  name: "conv9_2_mbox_loc_perm"
  type: "Permute"
  bottom: "conv9_2_mbox_loc"
  top: "conv9_2_mbox_loc_perm"
  permute_param {
    order: 0
    order: 2
    order: 3
    order: 1
  }
}
layer {
  name: "conv9_2_mbox_loc_flat"
  type: "Flatten"
  bottom: "conv9_2_mbox_loc_perm"
  top: "conv9_2_mbox_loc_flat"
  flatten_param {
    axis: 1
  }
}
layer {
  name: "conv9_2_mbox_conf"
  type: "Convolution"
  bottom: "conv9_2"
  top: "conv9_2_mbox_conf"
  param {
    lr_mult: 1
    decay_mult: 1
  }
  param {
    lr_mult: 2
    decay_mult: 0
  }
  convolution_param {
    num_output: 8
    pad: 1
    kernel_size: 3
    stride: 1
    weight_filler {
      type: "xavier"
    }
    bias_filler {
      type: "constant"
      value: 0
    }
  }
}
layer {
  name: "conv9_2_mbox_conf_perm"
  type: "Permute"
  bottom: "conv9_2_mbox_conf"
  top: "conv9_2_mbox_conf_perm"
  permute_param {
    order: 0
    order: 2
    order: 3
    order: 1
  }
}
layer {
  name: "conv9_2_mbox_conf_flat"
  type: "Flatten"
  bottom: "conv9_2_mbox_conf_perm"
  top: "conv9_2_mbox_conf_flat"
  flatten_param {
    axis: 1
  }
}
layer {
  name: "conv9_2_mbox_priorbox"
  type: "PriorBox"
  bottom: "conv9_2"
  bottom: "data"
  top: "conv9_2_mbox_priorbox"
  prior_box_param {
    min_size: 264
    max_size: 315
    aspect_ratio: 2
    flip: true
    clip: false
    variance: 0.1
    variance: 0.1
    variance: 0.2
    variance: 0.2
    step: 300
    offset: 0.5
  }
}
layer {
  name: "mbox_loc"
  type: "Concat"
  bottom: "conv4_3_norm_mbox_loc_flat"
  bottom: "fc7_mbox_loc_flat"
  bottom: "conv6_2_mbox_loc_flat"
  bottom: "conv7_2_mbox_loc_flat"
  bottom: "conv8_2_mbox_loc_flat"
  bottom: "conv9_2_mbox_loc_flat"
  top: "mbox_loc"
  concat_param {
    axis: 1
  }
}
layer {
  name: "mbox_conf"
  type: "Concat"
  bottom: "conv4_3_norm_mbox_conf_flat"
  bottom: "fc7_mbox_conf_flat"
  bottom: "conv6_2_mbox_conf_flat"
  bottom: "conv7_2_mbox_conf_flat"
  bottom: "conv8_2_mbox_conf_flat"
  bottom: "conv9_2_mbox_conf_flat"
  top: "mbox_conf"
  concat_param {
    axis: 1
  }
}
layer {
  name: "mbox_priorbox"
  type: "Concat"
  bottom: "conv4_3_norm_mbox_priorbox"
  bottom: "fc7_mbox_priorbox"
  bottom: "conv6_2_mbox_priorbox"
  bottom: "conv7_2_mbox_priorbox"
  bottom: "conv8_2_mbox_priorbox"
  bottom: "conv9_2_mbox_priorbox"
  top: "mbox_priorbox"
  concat_param {
    axis: 2
  }
}
layer {
  name: "mbox_conf_reshape"
  type: "Reshape"
  bottom: "mbox_conf"
  top: "mbox_conf_reshape"
  reshape_param {
    shape {
      dim: 0
      dim: -1
      dim: 2
    }
  }
}
layer {
  name: "mbox_conf_softmax"
  type: "Softmax"
  bottom: "mbox_conf_reshape"
  top: "mbox_conf_softmax"
  softmax_param {
    axis: 2
  }
}
layer {
  name: "mbox_conf_flatten"
  type: "Flatten"
  bottom: "mbox_conf_softmax"
  top: "mbox_conf_flatten"
  flatten_param {
    axis: 1
  }
}
layer {
  name: "detection_out"
  type: "DetectionOutput"
  bottom: "mbox_loc"
  bottom: "mbox_conf_flatten"
  bottom: "mbox_priorbox"
  top: "detection_out"
  include {
    phase: TEST
  }
  detection_output_param {
    num_classes: 2
    share_location: true
    background_label_id: 0
    nms_param {
      nms_threshold: 0.45
      top_k: 400
    }
    save_output_param {
      output_directory: "/home/ly/data/VOCdevkit/results/car352x288_splitKitti_MVT_indoor/SSD_352x288/Main"
      output_name_prefix: "comp4_det_test_"
      output_format: "VOC"
      label_map_file: "data/car352x288_splitKitti_MVT_indoor/labelmap_voc.prototxt"
      name_size_file: "data/car352x288_splitKitti_MVT_indoor/test_name_size.txt"
      num_test_image: 6423
    }
    code_type: CENTER_SIZE
    keep_top_k: 200
    confidence_threshold: 0.01
  }
}
layer {
  name: "detection_eval"
  type: "DetectionEvaluate"
  bottom: "detection_out"
  bottom: "label"
  top: "detection_eval"
  include {
    phase: TEST
  }
  detection_evaluate_param {
    num_classes: 2
    background_label_id: 0
    overlap_threshold: 0.5
    evaluate_difficult_gt: false
    name_size_file: "data/car352x288_splitKitti_MVT_indoor/test_name_size.txt"
  }
}
I0920 09:41:46.864814 18667 layer_factory.hpp:77] Creating layer data
I0920 09:41:46.864936 18667 net.cpp:100] Creating Layer data
I0920 09:41:46.864943 18667 net.cpp:408] data -> data
I0920 09:41:46.864948 18667 net.cpp:408] data -> label
I0920 09:41:46.865648 18699 db_lmdb.cpp:35] Opened lmdb /media/ly/data/CarData/car352x288_splitKitti_MVT_indoor/lmdb/car352x288_splitKitti_MVT_indoor_test_lmdb
I0920 09:41:46.866580 18667 annotated_data_layer.cpp:62] output data size: 4,3,288,352
I0920 09:41:46.871788 18667 net.cpp:150] Setting up data
I0920 09:41:46.871804 18667 net.cpp:157] Top shape: 4 3 288 352 (1216512)
I0920 09:41:46.871810 18667 net.cpp:157] Top shape: 1 1 7 8 (56)
I0920 09:41:46.871814 18667 net.cpp:165] Memory required for data: 4866272
I0920 09:41:46.871817 18667 layer_factory.hpp:77] Creating layer data_data_0_split
I0920 09:41:46.871827 18667 net.cpp:100] Creating Layer data_data_0_split
I0920 09:41:46.871830 18667 net.cpp:434] data_data_0_split <- data
I0920 09:41:46.871836 18667 net.cpp:408] data_data_0_split -> data_data_0_split_0
I0920 09:41:46.871843 18667 net.cpp:408] data_data_0_split -> data_data_0_split_1
I0920 09:41:46.871847 18667 net.cpp:408] data_data_0_split -> data_data_0_split_2
I0920 09:41:46.871851 18667 net.cpp:408] data_data_0_split -> data_data_0_split_3
I0920 09:41:46.871855 18667 net.cpp:408] data_data_0_split -> data_data_0_split_4
I0920 09:41:46.871858 18667 net.cpp:408] data_data_0_split -> data_data_0_split_5
I0920 09:41:46.871862 18667 net.cpp:408] data_data_0_split -> data_data_0_split_6
I0920 09:41:46.871999 18667 net.cpp:150] Setting up data_data_0_split
I0920 09:41:46.872004 18667 net.cpp:157] Top shape: 4 3 288 352 (1216512)
I0920 09:41:46.872007 18667 net.cpp:157] Top shape: 4 3 288 352 (1216512)
I0920 09:41:46.872010 18667 net.cpp:157] Top shape: 4 3 288 352 (1216512)
I0920 09:41:46.872012 18667 net.cpp:157] Top shape: 4 3 288 352 (1216512)
I0920 09:41:46.872015 18667 net.cpp:157] Top shape: 4 3 288 352 (1216512)
I0920 09:41:46.872017 18667 net.cpp:157] Top shape: 4 3 288 352 (1216512)
I0920 09:41:46.872020 18667 net.cpp:157] Top shape: 4 3 288 352 (1216512)
I0920 09:41:46.872023 18667 net.cpp:165] Memory required for data: 38928608
I0920 09:41:46.872025 18667 layer_factory.hpp:77] Creating layer conv1_1
I0920 09:41:46.872035 18667 net.cpp:100] Creating Layer conv1_1
I0920 09:41:46.872036 18667 net.cpp:434] conv1_1 <- data_data_0_split_0
I0920 09:41:46.872040 18667 net.cpp:408] conv1_1 -> conv1_1
I0920 09:41:46.875195 18667 net.cpp:150] Setting up conv1_1
I0920 09:41:46.875202 18667 net.cpp:157] Top shape: 4 64 288 352 (25952256)
I0920 09:41:46.875206 18667 net.cpp:165] Memory required for data: 142737632
I0920 09:41:46.875216 18667 layer_factory.hpp:77] Creating layer relu1_1
I0920 09:41:46.875221 18667 net.cpp:100] Creating Layer relu1_1
I0920 09:41:46.875224 18667 net.cpp:434] relu1_1 <- conv1_1
I0920 09:41:46.875228 18667 net.cpp:395] relu1_1 -> conv1_1 (in-place)
I0920 09:41:46.875622 18667 net.cpp:150] Setting up relu1_1
I0920 09:41:46.875629 18667 net.cpp:157] Top shape: 4 64 288 352 (25952256)
I0920 09:41:46.875633 18667 net.cpp:165] Memory required for data: 246546656
I0920 09:41:46.875635 18667 layer_factory.hpp:77] Creating layer conv1_2
I0920 09:41:46.875644 18667 net.cpp:100] Creating Layer conv1_2
I0920 09:41:46.875648 18667 net.cpp:434] conv1_2 <- conv1_1
I0920 09:41:46.875651 18667 net.cpp:408] conv1_2 -> conv1_2
I0920 09:41:46.877946 18667 net.cpp:150] Setting up conv1_2
I0920 09:41:46.877954 18667 net.cpp:157] Top shape: 4 64 288 352 (25952256)
I0920 09:41:46.877959 18667 net.cpp:165] Memory required for data: 350355680
I0920 09:41:46.877964 18667 layer_factory.hpp:77] Creating layer relu1_2
I0920 09:41:46.877969 18667 net.cpp:100] Creating Layer relu1_2
I0920 09:41:46.877971 18667 net.cpp:434] relu1_2 <- conv1_2
I0920 09:41:46.877975 18667 net.cpp:395] relu1_2 -> conv1_2 (in-place)
I0920 09:41:46.878484 18667 net.cpp:150] Setting up relu1_2
I0920 09:41:46.878490 18667 net.cpp:157] Top shape: 4 64 288 352 (25952256)
I0920 09:41:46.878494 18667 net.cpp:165] Memory required for data: 454164704
I0920 09:41:46.878497 18667 layer_factory.hpp:77] Creating layer pool1
I0920 09:41:46.878504 18667 net.cpp:100] Creating Layer pool1
I0920 09:41:46.878506 18667 net.cpp:434] pool1 <- conv1_2
I0920 09:41:46.878510 18667 net.cpp:408] pool1 -> pool1
I0920 09:41:46.878554 18667 net.cpp:150] Setting up pool1
I0920 09:41:46.878559 18667 net.cpp:157] Top shape: 4 64 144 176 (6488064)
I0920 09:41:46.878562 18667 net.cpp:165] Memory required for data: 480116960
I0920 09:41:46.878564 18667 layer_factory.hpp:77] Creating layer conv2_1
I0920 09:41:46.878571 18667 net.cpp:100] Creating Layer conv2_1
I0920 09:41:46.878574 18667 net.cpp:434] conv2_1 <- pool1
I0920 09:41:46.878578 18667 net.cpp:408] conv2_1 -> conv2_1
I0920 09:41:46.881523 18667 net.cpp:150] Setting up conv2_1
I0920 09:41:46.881532 18667 net.cpp:157] Top shape: 4 128 144 176 (12976128)
I0920 09:41:46.881536 18667 net.cpp:165] Memory required for data: 532021472
I0920 09:41:46.881542 18667 layer_factory.hpp:77] Creating layer relu2_1
I0920 09:41:46.881549 18667 net.cpp:100] Creating Layer relu2_1
I0920 09:41:46.881552 18667 net.cpp:434] relu2_1 <- conv2_1
I0920 09:41:46.881556 18667 net.cpp:395] relu2_1 -> conv2_1 (in-place)
I0920 09:41:46.881938 18667 net.cpp:150] Setting up relu2_1
I0920 09:41:46.881944 18667 net.cpp:157] Top shape: 4 128 144 176 (12976128)
I0920 09:41:46.881948 18667 net.cpp:165] Memory required for data: 583925984
I0920 09:41:46.881952 18667 layer_factory.hpp:77] Creating layer conv2_2
I0920 09:41:46.881960 18667 net.cpp:100] Creating Layer conv2_2
I0920 09:41:46.881976 18667 net.cpp:434] conv2_2 <- conv2_1
I0920 09:41:46.881981 18667 net.cpp:408] conv2_2 -> conv2_2
I0920 09:41:46.884253 18667 net.cpp:150] Setting up conv2_2
I0920 09:41:46.884261 18667 net.cpp:157] Top shape: 4 128 144 176 (12976128)
I0920 09:41:46.884265 18667 net.cpp:165] Memory required for data: 635830496
I0920 09:41:46.884270 18667 layer_factory.hpp:77] Creating layer relu2_2
I0920 09:41:46.884275 18667 net.cpp:100] Creating Layer relu2_2
I0920 09:41:46.884279 18667 net.cpp:434] relu2_2 <- conv2_2
I0920 09:41:46.884282 18667 net.cpp:395] relu2_2 -> conv2_2 (in-place)
I0920 09:41:46.884780 18667 net.cpp:150] Setting up relu2_2
I0920 09:41:46.884788 18667 net.cpp:157] Top shape: 4 128 144 176 (12976128)
I0920 09:41:46.884791 18667 net.cpp:165] Memory required for data: 687735008
I0920 09:41:46.884793 18667 layer_factory.hpp:77] Creating layer pool2
I0920 09:41:46.884799 18667 net.cpp:100] Creating Layer pool2
I0920 09:41:46.884802 18667 net.cpp:434] pool2 <- conv2_2
I0920 09:41:46.884806 18667 net.cpp:408] pool2 -> pool2
I0920 09:41:46.884850 18667 net.cpp:150] Setting up pool2
I0920 09:41:46.884855 18667 net.cpp:157] Top shape: 4 128 72 88 (3244032)
I0920 09:41:46.884857 18667 net.cpp:165] Memory required for data: 700711136
I0920 09:41:46.884860 18667 layer_factory.hpp:77] Creating layer conv3_1
I0920 09:41:46.884866 18667 net.cpp:100] Creating Layer conv3_1
I0920 09:41:46.884869 18667 net.cpp:434] conv3_1 <- pool2
I0920 09:41:46.884872 18667 net.cpp:408] conv3_1 -> conv3_1
I0920 09:41:46.888144 18667 net.cpp:150] Setting up conv3_1
I0920 09:41:46.888152 18667 net.cpp:157] Top shape: 4 256 72 88 (6488064)
I0920 09:41:46.888156 18667 net.cpp:165] Memory required for data: 726663392
I0920 09:41:46.888164 18667 layer_factory.hpp:77] Creating layer relu3_1
I0920 09:41:46.888168 18667 net.cpp:100] Creating Layer relu3_1
I0920 09:41:46.888171 18667 net.cpp:434] relu3_1 <- conv3_1
I0920 09:41:46.888175 18667 net.cpp:395] relu3_1 -> conv3_1 (in-place)
I0920 09:41:46.888613 18667 net.cpp:150] Setting up relu3_1
I0920 09:41:46.888619 18667 net.cpp:157] Top shape: 4 256 72 88 (6488064)
I0920 09:41:46.888623 18667 net.cpp:165] Memory required for data: 752615648
I0920 09:41:46.888626 18667 layer_factory.hpp:77] Creating layer conv3_2
I0920 09:41:46.888634 18667 net.cpp:100] Creating Layer conv3_2
I0920 09:41:46.888638 18667 net.cpp:434] conv3_2 <- conv3_1
I0920 09:41:46.888641 18667 net.cpp:408] conv3_2 -> conv3_2
I0920 09:41:46.894028 18667 net.cpp:150] Setting up conv3_2
I0920 09:41:46.894038 18667 net.cpp:157] Top shape: 4 256 72 88 (6488064)
I0920 09:41:46.894043 18667 net.cpp:165] Memory required for data: 778567904
I0920 09:41:46.894050 18667 layer_factory.hpp:77] Creating layer relu3_2
I0920 09:41:46.894057 18667 net.cpp:100] Creating Layer relu3_2
I0920 09:41:46.894060 18667 net.cpp:434] relu3_2 <- conv3_2
I0920 09:41:46.894064 18667 net.cpp:395] relu3_2 -> conv3_2 (in-place)
I0920 09:41:46.894443 18667 net.cpp:150] Setting up relu3_2
I0920 09:41:46.894449 18667 net.cpp:157] Top shape: 4 256 72 88 (6488064)
I0920 09:41:46.894452 18667 net.cpp:165] Memory required for data: 804520160
I0920 09:41:46.894455 18667 layer_factory.hpp:77] Creating layer conv3_3
I0920 09:41:46.894466 18667 net.cpp:100] Creating Layer conv3_3
I0920 09:41:46.894470 18667 net.cpp:434] conv3_3 <- conv3_2
I0920 09:41:46.894474 18667 net.cpp:408] conv3_3 -> conv3_3
I0920 09:41:46.898849 18667 net.cpp:150] Setting up conv3_3
I0920 09:41:46.898859 18667 net.cpp:157] Top shape: 4 256 72 88 (6488064)
I0920 09:41:46.898864 18667 net.cpp:165] Memory required for data: 830472416
I0920 09:41:46.898869 18667 layer_factory.hpp:77] Creating layer relu3_3
I0920 09:41:46.898876 18667 net.cpp:100] Creating Layer relu3_3
I0920 09:41:46.898880 18667 net.cpp:434] relu3_3 <- conv3_3
I0920 09:41:46.898885 18667 net.cpp:395] relu3_3 -> conv3_3 (in-place)
I0920 09:41:46.899399 18667 net.cpp:150] Setting up relu3_3
I0920 09:41:46.899406 18667 net.cpp:157] Top shape: 4 256 72 88 (6488064)
I0920 09:41:46.899410 18667 net.cpp:165] Memory required for data: 856424672
I0920 09:41:46.899423 18667 layer_factory.hpp:77] Creating layer pool3
I0920 09:41:46.899431 18667 net.cpp:100] Creating Layer pool3
I0920 09:41:46.899435 18667 net.cpp:434] pool3 <- conv3_3
I0920 09:41:46.899438 18667 net.cpp:408] pool3 -> pool3
I0920 09:41:46.899485 18667 net.cpp:150] Setting up pool3
I0920 09:41:46.899490 18667 net.cpp:157] Top shape: 4 256 36 44 (1622016)
I0920 09:41:46.899493 18667 net.cpp:165] Memory required for data: 862912736
I0920 09:41:46.899495 18667 layer_factory.hpp:77] Creating layer conv4_1
I0920 09:41:46.899503 18667 net.cpp:100] Creating Layer conv4_1
I0920 09:41:46.899507 18667 net.cpp:434] conv4_1 <- pool3
I0920 09:41:46.899509 18667 net.cpp:408] conv4_1 -> conv4_1
I0920 09:41:46.907474 18667 net.cpp:150] Setting up conv4_1
I0920 09:41:46.907487 18667 net.cpp:157] Top shape: 4 512 36 44 (3244032)
I0920 09:41:46.907492 18667 net.cpp:165] Memory required for data: 875888864
I0920 09:41:46.907500 18667 layer_factory.hpp:77] Creating layer relu4_1
I0920 09:41:46.907505 18667 net.cpp:100] Creating Layer relu4_1
I0920 09:41:46.907508 18667 net.cpp:434] relu4_1 <- conv4_1
I0920 09:41:46.907513 18667 net.cpp:395] relu4_1 -> conv4_1 (in-place)
I0920 09:41:46.907903 18667 net.cpp:150] Setting up relu4_1
I0920 09:41:46.907909 18667 net.cpp:157] Top shape: 4 512 36 44 (3244032)
I0920 09:41:46.907913 18667 net.cpp:165] Memory required for data: 888864992
I0920 09:41:46.907917 18667 layer_factory.hpp:77] Creating layer conv4_2
I0920 09:41:46.907925 18667 net.cpp:100] Creating Layer conv4_2
I0920 09:41:46.907928 18667 net.cpp:434] conv4_2 <- conv4_1
I0920 09:41:46.907932 18667 net.cpp:408] conv4_2 -> conv4_2
I0920 09:41:46.919579 18667 net.cpp:150] Setting up conv4_2
I0920 09:41:46.919591 18667 net.cpp:157] Top shape: 4 512 36 44 (3244032)
I0920 09:41:46.919597 18667 net.cpp:165] Memory required for data: 901841120
I0920 09:41:46.919605 18667 layer_factory.hpp:77] Creating layer relu4_2
I0920 09:41:46.919612 18667 net.cpp:100] Creating Layer relu4_2
I0920 09:41:46.919616 18667 net.cpp:434] relu4_2 <- conv4_2
I0920 09:41:46.919620 18667 net.cpp:395] relu4_2 -> conv4_2 (in-place)
I0920 09:41:46.920151 18667 net.cpp:150] Setting up relu4_2
I0920 09:41:46.920158 18667 net.cpp:157] Top shape: 4 512 36 44 (3244032)
I0920 09:41:46.920162 18667 net.cpp:165] Memory required for data: 914817248
I0920 09:41:46.920166 18667 layer_factory.hpp:77] Creating layer conv4_3
I0920 09:41:46.920176 18667 net.cpp:100] Creating Layer conv4_3
I0920 09:41:46.920178 18667 net.cpp:434] conv4_3 <- conv4_2
I0920 09:41:46.920182 18667 net.cpp:408] conv4_3 -> conv4_3
I0920 09:41:46.931782 18667 net.cpp:150] Setting up conv4_3
I0920 09:41:46.931798 18667 net.cpp:157] Top shape: 4 512 36 44 (3244032)
I0920 09:41:46.931804 18667 net.cpp:165] Memory required for data: 927793376
I0920 09:41:46.931812 18667 layer_factory.hpp:77] Creating layer relu4_3
I0920 09:41:46.931819 18667 net.cpp:100] Creating Layer relu4_3
I0920 09:41:46.931823 18667 net.cpp:434] relu4_3 <- conv4_3
I0920 09:41:46.931828 18667 net.cpp:395] relu4_3 -> conv4_3 (in-place)
I0920 09:41:46.932210 18667 net.cpp:150] Setting up relu4_3
I0920 09:41:46.932217 18667 net.cpp:157] Top shape: 4 512 36 44 (3244032)
I0920 09:41:46.932220 18667 net.cpp:165] Memory required for data: 940769504
I0920 09:41:46.932224 18667 layer_factory.hpp:77] Creating layer conv4_3_relu4_3_0_split
I0920 09:41:46.932230 18667 net.cpp:100] Creating Layer conv4_3_relu4_3_0_split
I0920 09:41:46.932232 18667 net.cpp:434] conv4_3_relu4_3_0_split <- conv4_3
I0920 09:41:46.932236 18667 net.cpp:408] conv4_3_relu4_3_0_split -> conv4_3_relu4_3_0_split_0
I0920 09:41:46.932241 18667 net.cpp:408] conv4_3_relu4_3_0_split -> conv4_3_relu4_3_0_split_1
I0920 09:41:46.932286 18667 net.cpp:150] Setting up conv4_3_relu4_3_0_split
I0920 09:41:46.932291 18667 net.cpp:157] Top shape: 4 512 36 44 (3244032)
I0920 09:41:46.932294 18667 net.cpp:157] Top shape: 4 512 36 44 (3244032)
I0920 09:41:46.932296 18667 net.cpp:165] Memory required for data: 966721760
I0920 09:41:46.932299 18667 layer_factory.hpp:77] Creating layer pool4
I0920 09:41:46.932318 18667 net.cpp:100] Creating Layer pool4
I0920 09:41:46.932322 18667 net.cpp:434] pool4 <- conv4_3_relu4_3_0_split_0
I0920 09:41:46.932325 18667 net.cpp:408] pool4 -> pool4
I0920 09:41:46.932365 18667 net.cpp:150] Setting up pool4
I0920 09:41:46.932369 18667 net.cpp:157] Top shape: 4 512 18 22 (811008)
I0920 09:41:46.932373 18667 net.cpp:165] Memory required for data: 969965792
I0920 09:41:46.932374 18667 layer_factory.hpp:77] Creating layer conv5_1
I0920 09:41:46.932382 18667 net.cpp:100] Creating Layer conv5_1
I0920 09:41:46.932385 18667 net.cpp:434] conv5_1 <- pool4
I0920 09:41:46.932389 18667 net.cpp:408] conv5_1 -> conv5_1
I0920 09:41:46.945061 18667 net.cpp:150] Setting up conv5_1
I0920 09:41:46.945077 18667 net.cpp:157] Top shape: 4 512 18 22 (811008)
I0920 09:41:46.945083 18667 net.cpp:165] Memory required for data: 973209824
I0920 09:41:46.945091 18667 layer_factory.hpp:77] Creating layer relu5_1
I0920 09:41:46.945096 18667 net.cpp:100] Creating Layer relu5_1
I0920 09:41:46.945101 18667 net.cpp:434] relu5_1 <- conv5_1
I0920 09:41:46.945106 18667 net.cpp:395] relu5_1 -> conv5_1 (in-place)
I0920 09:41:46.945484 18667 net.cpp:150] Setting up relu5_1
I0920 09:41:46.945492 18667 net.cpp:157] Top shape: 4 512 18 22 (811008)
I0920 09:41:46.945494 18667 net.cpp:165] Memory required for data: 976453856
I0920 09:41:46.945497 18667 layer_factory.hpp:77] Creating layer conv5_2
I0920 09:41:46.945508 18667 net.cpp:100] Creating Layer conv5_2
I0920 09:41:46.945511 18667 net.cpp:434] conv5_2 <- conv5_1
I0920 09:41:46.945516 18667 net.cpp:408] conv5_2 -> conv5_2
I0920 09:41:46.956930 18667 net.cpp:150] Setting up conv5_2
I0920 09:41:46.956946 18667 net.cpp:157] Top shape: 4 512 18 22 (811008)
I0920 09:41:46.956952 18667 net.cpp:165] Memory required for data: 979697888
I0920 09:41:46.956959 18667 layer_factory.hpp:77] Creating layer relu5_2
I0920 09:41:46.956966 18667 net.cpp:100] Creating Layer relu5_2
I0920 09:41:46.956970 18667 net.cpp:434] relu5_2 <- conv5_2
I0920 09:41:46.956974 18667 net.cpp:395] relu5_2 -> conv5_2 (in-place)
I0920 09:41:46.957495 18667 net.cpp:150] Setting up relu5_2
I0920 09:41:46.957504 18667 net.cpp:157] Top shape: 4 512 18 22 (811008)
I0920 09:41:46.957509 18667 net.cpp:165] Memory required for data: 982941920
I0920 09:41:46.957511 18667 layer_factory.hpp:77] Creating layer conv5_3
I0920 09:41:46.957521 18667 net.cpp:100] Creating Layer conv5_3
I0920 09:41:46.957525 18667 net.cpp:434] conv5_3 <- conv5_2
I0920 09:41:46.957528 18667 net.cpp:408] conv5_3 -> conv5_3
I0920 09:41:46.970201 18667 net.cpp:150] Setting up conv5_3
I0920 09:41:46.970213 18667 net.cpp:157] Top shape: 4 512 18 22 (811008)
I0920 09:41:46.970219 18667 net.cpp:165] Memory required for data: 986185952
I0920 09:41:46.970227 18667 layer_factory.hpp:77] Creating layer relu5_3
I0920 09:41:46.970237 18667 net.cpp:100] Creating Layer relu5_3
I0920 09:41:46.970242 18667 net.cpp:434] relu5_3 <- conv5_3
I0920 09:41:46.970245 18667 net.cpp:395] relu5_3 -> conv5_3 (in-place)
I0920 09:41:46.970633 18667 net.cpp:150] Setting up relu5_3
I0920 09:41:46.970639 18667 net.cpp:157] Top shape: 4 512 18 22 (811008)
I0920 09:41:46.970643 18667 net.cpp:165] Memory required for data: 989429984
I0920 09:41:46.970645 18667 layer_factory.hpp:77] Creating layer pool5
I0920 09:41:46.970651 18667 net.cpp:100] Creating Layer pool5
I0920 09:41:46.970654 18667 net.cpp:434] pool5 <- conv5_3
I0920 09:41:46.970659 18667 net.cpp:408] pool5 -> pool5
I0920 09:41:46.970708 18667 net.cpp:150] Setting up pool5
I0920 09:41:46.970712 18667 net.cpp:157] Top shape: 4 512 18 22 (811008)
I0920 09:41:46.970715 18667 net.cpp:165] Memory required for data: 992674016
I0920 09:41:46.970717 18667 layer_factory.hpp:77] Creating layer fc6
I0920 09:41:46.970726 18667 net.cpp:100] Creating Layer fc6
I0920 09:41:46.970729 18667 net.cpp:434] fc6 <- pool5
I0920 09:41:46.970732 18667 net.cpp:408] fc6 -> fc6
I0920 09:41:46.991840 18667 net.cpp:150] Setting up fc6
I0920 09:41:46.991858 18667 net.cpp:157] Top shape: 4 1024 18 22 (1622016)
I0920 09:41:46.991883 18667 net.cpp:165] Memory required for data: 999162080
I0920 09:41:46.991891 18667 layer_factory.hpp:77] Creating layer relu6
I0920 09:41:46.991899 18667 net.cpp:100] Creating Layer relu6
I0920 09:41:46.991902 18667 net.cpp:434] relu6 <- fc6
I0920 09:41:46.991909 18667 net.cpp:395] relu6 -> fc6 (in-place)
I0920 09:41:46.992426 18667 net.cpp:150] Setting up relu6
I0920 09:41:46.992434 18667 net.cpp:157] Top shape: 4 1024 18 22 (1622016)
I0920 09:41:46.992437 18667 net.cpp:165] Memory required for data: 1005650144
I0920 09:41:46.992440 18667 layer_factory.hpp:77] Creating layer fc7
I0920 09:41:46.992449 18667 net.cpp:100] Creating Layer fc7
I0920 09:41:46.992452 18667 net.cpp:434] fc7 <- fc6
I0920 09:41:46.992456 18667 net.cpp:408] fc7 -> fc7
I0920 09:41:46.998479 18667 net.cpp:150] Setting up fc7
I0920 09:41:46.998488 18667 net.cpp:157] Top shape: 4 1024 18 22 (1622016)
I0920 09:41:46.998492 18667 net.cpp:165] Memory required for data: 1012138208
I0920 09:41:46.998497 18667 layer_factory.hpp:77] Creating layer relu7
I0920 09:41:46.998502 18667 net.cpp:100] Creating Layer relu7
I0920 09:41:46.998505 18667 net.cpp:434] relu7 <- fc7
I0920 09:41:46.998509 18667 net.cpp:395] relu7 -> fc7 (in-place)
I0920 09:41:46.998886 18667 net.cpp:150] Setting up relu7
I0920 09:41:46.998893 18667 net.cpp:157] Top shape: 4 1024 18 22 (1622016)
I0920 09:41:46.998896 18667 net.cpp:165] Memory required for data: 1018626272
I0920 09:41:46.998899 18667 layer_factory.hpp:77] Creating layer fc7_relu7_0_split
I0920 09:41:46.998905 18667 net.cpp:100] Creating Layer fc7_relu7_0_split
I0920 09:41:46.998908 18667 net.cpp:434] fc7_relu7_0_split <- fc7
I0920 09:41:46.998912 18667 net.cpp:408] fc7_relu7_0_split -> fc7_relu7_0_split_0
I0920 09:41:46.998917 18667 net.cpp:408] fc7_relu7_0_split -> fc7_relu7_0_split_1
I0920 09:41:46.998924 18667 net.cpp:408] fc7_relu7_0_split -> fc7_relu7_0_split_2
I0920 09:41:46.998927 18667 net.cpp:408] fc7_relu7_0_split -> fc7_relu7_0_split_3
I0920 09:41:46.999001 18667 net.cpp:150] Setting up fc7_relu7_0_split
I0920 09:41:46.999006 18667 net.cpp:157] Top shape: 4 1024 18 22 (1622016)
I0920 09:41:46.999011 18667 net.cpp:157] Top shape: 4 1024 18 22 (1622016)
I0920 09:41:46.999013 18667 net.cpp:157] Top shape: 4 1024 18 22 (1622016)
I0920 09:41:46.999016 18667 net.cpp:157] Top shape: 4 1024 18 22 (1622016)
I0920 09:41:46.999018 18667 net.cpp:165] Memory required for data: 1044578528
I0920 09:41:46.999022 18667 layer_factory.hpp:77] Creating layer conv6_1
I0920 09:41:46.999027 18667 net.cpp:100] Creating Layer conv6_1
I0920 09:41:46.999030 18667 net.cpp:434] conv6_1 <- fc7_relu7_0_split_0
I0920 09:41:46.999034 18667 net.cpp:408] conv6_1 -> conv6_1
I0920 09:41:47.003211 18667 net.cpp:150] Setting up conv6_1
I0920 09:41:47.003221 18667 net.cpp:157] Top shape: 4 256 18 22 (405504)
I0920 09:41:47.003226 18667 net.cpp:165] Memory required for data: 1046200544
I0920 09:41:47.003230 18667 layer_factory.hpp:77] Creating layer conv6_1_relu
I0920 09:41:47.003237 18667 net.cpp:100] Creating Layer conv6_1_relu
I0920 09:41:47.003240 18667 net.cpp:434] conv6_1_relu <- conv6_1
I0920 09:41:47.003244 18667 net.cpp:395] conv6_1_relu -> conv6_1 (in-place)
I0920 09:41:47.003623 18667 net.cpp:150] Setting up conv6_1_relu
I0920 09:41:47.003629 18667 net.cpp:157] Top shape: 4 256 18 22 (405504)
I0920 09:41:47.003633 18667 net.cpp:165] Memory required for data: 1047822560
I0920 09:41:47.003635 18667 layer_factory.hpp:77] Creating layer conv6_2
I0920 09:41:47.003646 18667 net.cpp:100] Creating Layer conv6_2
I0920 09:41:47.003649 18667 net.cpp:434] conv6_2 <- conv6_1
I0920 09:41:47.003654 18667 net.cpp:408] conv6_2 -> conv6_2
I0920 09:41:47.010349 18667 net.cpp:150] Setting up conv6_2
I0920 09:41:47.010361 18667 net.cpp:157] Top shape: 4 512 9 11 (202752)
I0920 09:41:47.010366 18667 net.cpp:165] Memory required for data: 1048633568
I0920 09:41:47.010376 18667 layer_factory.hpp:77] Creating layer conv6_2_relu
I0920 09:41:47.010382 18667 net.cpp:100] Creating Layer conv6_2_relu
I0920 09:41:47.010386 18667 net.cpp:434] conv6_2_relu <- conv6_2
I0920 09:41:47.010406 18667 net.cpp:395] conv6_2_relu -> conv6_2 (in-place)
I0920 09:41:47.010926 18667 net.cpp:150] Setting up conv6_2_relu
I0920 09:41:47.010933 18667 net.cpp:157] Top shape: 4 512 9 11 (202752)
I0920 09:41:47.010937 18667 net.cpp:165] Memory required for data: 1049444576
I0920 09:41:47.010941 18667 layer_factory.hpp:77] Creating layer conv6_2_conv6_2_relu_0_split
I0920 09:41:47.010947 18667 net.cpp:100] Creating Layer conv6_2_conv6_2_relu_0_split
I0920 09:41:47.010951 18667 net.cpp:434] conv6_2_conv6_2_relu_0_split <- conv6_2
I0920 09:41:47.010954 18667 net.cpp:408] conv6_2_conv6_2_relu_0_split -> conv6_2_conv6_2_relu_0_split_0
I0920 09:41:47.010959 18667 net.cpp:408] conv6_2_conv6_2_relu_0_split -> conv6_2_conv6_2_relu_0_split_1
I0920 09:41:47.010963 18667 net.cpp:408] conv6_2_conv6_2_relu_0_split -> conv6_2_conv6_2_relu_0_split_2
I0920 09:41:47.010967 18667 net.cpp:408] conv6_2_conv6_2_relu_0_split -> conv6_2_conv6_2_relu_0_split_3
I0920 09:41:47.011044 18667 net.cpp:150] Setting up conv6_2_conv6_2_relu_0_split
I0920 09:41:47.011049 18667 net.cpp:157] Top shape: 4 512 9 11 (202752)
I0920 09:41:47.011052 18667 net.cpp:157] Top shape: 4 512 9 11 (202752)
I0920 09:41:47.011054 18667 net.cpp:157] Top shape: 4 512 9 11 (202752)
I0920 09:41:47.011057 18667 net.cpp:157] Top shape: 4 512 9 11 (202752)
I0920 09:41:47.011060 18667 net.cpp:165] Memory required for data: 1052688608
I0920 09:41:47.011062 18667 layer_factory.hpp:77] Creating layer conv7_1
I0920 09:41:47.011075 18667 net.cpp:100] Creating Layer conv7_1
I0920 09:41:47.011078 18667 net.cpp:434] conv7_1 <- conv6_2_conv6_2_relu_0_split_0
I0920 09:41:47.011082 18667 net.cpp:408] conv7_1 -> conv7_1
I0920 09:41:47.013959 18667 net.cpp:150] Setting up conv7_1
I0920 09:41:47.013967 18667 net.cpp:157] Top shape: 4 128 9 11 (50688)
I0920 09:41:47.013972 18667 net.cpp:165] Memory required for data: 1052891360
I0920 09:41:47.013975 18667 layer_factory.hpp:77] Creating layer conv7_1_relu
I0920 09:41:47.013981 18667 net.cpp:100] Creating Layer conv7_1_relu
I0920 09:41:47.013984 18667 net.cpp:434] conv7_1_relu <- conv7_1
I0920 09:41:47.013988 18667 net.cpp:395] conv7_1_relu -> conv7_1 (in-place)
I0920 09:41:47.014389 18667 net.cpp:150] Setting up conv7_1_relu
I0920 09:41:47.014394 18667 net.cpp:157] Top shape: 4 128 9 11 (50688)
I0920 09:41:47.014397 18667 net.cpp:165] Memory required for data: 1053094112
I0920 09:41:47.014400 18667 layer_factory.hpp:77] Creating layer conv7_2
I0920 09:41:47.014407 18667 net.cpp:100] Creating Layer conv7_2
I0920 09:41:47.014410 18667 net.cpp:434] conv7_2 <- conv7_1
I0920 09:41:47.014415 18667 net.cpp:408] conv7_2 -> conv7_2
I0920 09:41:47.017624 18667 net.cpp:150] Setting up conv7_2
I0920 09:41:47.017632 18667 net.cpp:157] Top shape: 4 256 5 6 (30720)
I0920 09:41:47.017637 18667 net.cpp:165] Memory required for data: 1053216992
I0920 09:41:47.017640 18667 layer_factory.hpp:77] Creating layer conv7_2_relu
I0920 09:41:47.017644 18667 net.cpp:100] Creating Layer conv7_2_relu
I0920 09:41:47.017647 18667 net.cpp:434] conv7_2_relu <- conv7_2
I0920 09:41:47.017652 18667 net.cpp:395] conv7_2_relu -> conv7_2 (in-place)
I0920 09:41:47.018179 18667 net.cpp:150] Setting up conv7_2_relu
I0920 09:41:47.018187 18667 net.cpp:157] Top shape: 4 256 5 6 (30720)
I0920 09:41:47.018190 18667 net.cpp:165] Memory required for data: 1053339872
I0920 09:41:47.018193 18667 layer_factory.hpp:77] Creating layer conv7_2_conv7_2_relu_0_split
I0920 09:41:47.018199 18667 net.cpp:100] Creating Layer conv7_2_conv7_2_relu_0_split
I0920 09:41:47.018203 18667 net.cpp:434] conv7_2_conv7_2_relu_0_split <- conv7_2
I0920 09:41:47.018206 18667 net.cpp:408] conv7_2_conv7_2_relu_0_split -> conv7_2_conv7_2_relu_0_split_0
I0920 09:41:47.018211 18667 net.cpp:408] conv7_2_conv7_2_relu_0_split -> conv7_2_conv7_2_relu_0_split_1
I0920 09:41:47.018215 18667 net.cpp:408] conv7_2_conv7_2_relu_0_split -> conv7_2_conv7_2_relu_0_split_2
I0920 09:41:47.018218 18667 net.cpp:408] conv7_2_conv7_2_relu_0_split -> conv7_2_conv7_2_relu_0_split_3
I0920 09:41:47.018326 18667 net.cpp:150] Setting up conv7_2_conv7_2_relu_0_split
I0920 09:41:47.018340 18667 net.cpp:157] Top shape: 4 256 5 6 (30720)
I0920 09:41:47.018344 18667 net.cpp:157] Top shape: 4 256 5 6 (30720)
I0920 09:41:47.018347 18667 net.cpp:157] Top shape: 4 256 5 6 (30720)
I0920 09:41:47.018349 18667 net.cpp:157] Top shape: 4 256 5 6 (30720)
I0920 09:41:47.018352 18667 net.cpp:165] Memory required for data: 1053831392
I0920 09:41:47.018354 18667 layer_factory.hpp:77] Creating layer conv8_1
I0920 09:41:47.018362 18667 net.cpp:100] Creating Layer conv8_1
I0920 09:41:47.018364 18667 net.cpp:434] conv8_1 <- conv7_2_conv7_2_relu_0_split_0
I0920 09:41:47.018368 18667 net.cpp:408] conv8_1 -> conv8_1
I0920 09:41:47.020182 18667 net.cpp:150] Setting up conv8_1
I0920 09:41:47.020190 18667 net.cpp:157] Top shape: 4 128 5 6 (15360)
I0920 09:41:47.020193 18667 net.cpp:165] Memory required for data: 1053892832
I0920 09:41:47.020198 18667 layer_factory.hpp:77] Creating layer conv8_1_relu
I0920 09:41:47.020202 18667 net.cpp:100] Creating Layer conv8_1_relu
I0920 09:41:47.020205 18667 net.cpp:434] conv8_1_relu <- conv8_1
I0920 09:41:47.020210 18667 net.cpp:395] conv8_1_relu -> conv8_1 (in-place)
I0920 09:41:47.020606 18667 net.cpp:150] Setting up conv8_1_relu
I0920 09:41:47.020612 18667 net.cpp:157] Top shape: 4 128 5 6 (15360)
I0920 09:41:47.020615 18667 net.cpp:165] Memory required for data: 1053954272
I0920 09:41:47.020618 18667 layer_factory.hpp:77] Creating layer conv8_2
I0920 09:41:47.020642 18667 net.cpp:100] Creating Layer conv8_2
I0920 09:41:47.020644 18667 net.cpp:434] conv8_2 <- conv8_1
I0920 09:41:47.020648 18667 net.cpp:408] conv8_2 -> conv8_2
I0920 09:41:47.025192 18667 net.cpp:150] Setting up conv8_2
I0920 09:41:47.025205 18667 net.cpp:157] Top shape: 4 256 3 4 (12288)
I0920 09:41:47.025210 18667 net.cpp:165] Memory required for data: 1054003424
I0920 09:41:47.025218 18667 layer_factory.hpp:77] Creating layer conv8_2_relu
I0920 09:41:47.025223 18667 net.cpp:100] Creating Layer conv8_2_relu
I0920 09:41:47.025228 18667 net.cpp:434] conv8_2_relu <- conv8_2
I0920 09:41:47.025233 18667 net.cpp:395] conv8_2_relu -> conv8_2 (in-place)
I0920 09:41:47.025640 18667 net.cpp:150] Setting up conv8_2_relu
I0920 09:41:47.025646 18667 net.cpp:157] Top shape: 4 256 3 4 (12288)
I0920 09:41:47.025650 18667 net.cpp:165] Memory required for data: 1054052576
I0920 09:41:47.025652 18667 layer_factory.hpp:77] Creating layer conv8_2_conv8_2_relu_0_split
I0920 09:41:47.025660 18667 net.cpp:100] Creating Layer conv8_2_conv8_2_relu_0_split
I0920 09:41:47.025663 18667 net.cpp:434] conv8_2_conv8_2_relu_0_split <- conv8_2
I0920 09:41:47.025667 18667 net.cpp:408] conv8_2_conv8_2_relu_0_split -> conv8_2_conv8_2_relu_0_split_0
I0920 09:41:47.025672 18667 net.cpp:408] conv8_2_conv8_2_relu_0_split -> conv8_2_conv8_2_relu_0_split_1
I0920 09:41:47.025676 18667 net.cpp:408] conv8_2_conv8_2_relu_0_split -> conv8_2_conv8_2_relu_0_split_2
I0920 09:41:47.025681 18667 net.cpp:408] conv8_2_conv8_2_relu_0_split -> conv8_2_conv8_2_relu_0_split_3
I0920 09:41:47.025790 18667 net.cpp:150] Setting up conv8_2_conv8_2_relu_0_split
I0920 09:41:47.025794 18667 net.cpp:157] Top shape: 4 256 3 4 (12288)
I0920 09:41:47.025799 18667 net.cpp:157] Top shape: 4 256 3 4 (12288)
I0920 09:41:47.025800 18667 net.cpp:157] Top shape: 4 256 3 4 (12288)
I0920 09:41:47.025804 18667 net.cpp:157] Top shape: 4 256 3 4 (12288)
I0920 09:41:47.025805 18667 net.cpp:165] Memory required for data: 1054249184
I0920 09:41:47.025808 18667 layer_factory.hpp:77] Creating layer conv9_1
I0920 09:41:47.025816 18667 net.cpp:100] Creating Layer conv9_1
I0920 09:41:47.025820 18667 net.cpp:434] conv9_1 <- conv8_2_conv8_2_relu_0_split_0
I0920 09:41:47.025823 18667 net.cpp:408] conv9_1 -> conv9_1
I0920 09:41:47.027685 18667 net.cpp:150] Setting up conv9_1
I0920 09:41:47.027693 18667 net.cpp:157] Top shape: 4 128 3 4 (6144)
I0920 09:41:47.027698 18667 net.cpp:165] Memory required for data: 1054273760
I0920 09:41:47.027701 18667 layer_factory.hpp:77] Creating layer conv9_1_relu
I0920 09:41:47.027706 18667 net.cpp:100] Creating Layer conv9_1_relu
I0920 09:41:47.027724 18667 net.cpp:434] conv9_1_relu <- conv9_1
I0920 09:41:47.027743 18667 net.cpp:395] conv9_1_relu -> conv9_1 (in-place)
I0920 09:41:47.028270 18667 net.cpp:150] Setting up conv9_1_relu
I0920 09:41:47.028277 18667 net.cpp:157] Top shape: 4 128 3 4 (6144)
I0920 09:41:47.028281 18667 net.cpp:165] Memory required for data: 1054298336
I0920 09:41:47.028283 18667 layer_factory.hpp:77] Creating layer conv9_2
I0920 09:41:47.028291 18667 net.cpp:100] Creating Layer conv9_2
I0920 09:41:47.028295 18667 net.cpp:434] conv9_2 <- conv9_1
I0920 09:41:47.028298 18667 net.cpp:408] conv9_2 -> conv9_2
I0920 09:41:47.032644 18667 net.cpp:150] Setting up conv9_2
I0920 09:41:47.032657 18667 net.cpp:157] Top shape: 4 256 1 2 (2048)
I0920 09:41:47.032662 18667 net.cpp:165] Memory required for data: 1054306528
I0920 09:41:47.032670 18667 layer_factory.hpp:77] Creating layer conv9_2_relu
I0920 09:41:47.032676 18667 net.cpp:100] Creating Layer conv9_2_relu
I0920 09:41:47.032680 18667 net.cpp:434] conv9_2_relu <- conv9_2
I0920 09:41:47.032685 18667 net.cpp:395] conv9_2_relu -> conv9_2 (in-place)
I0920 09:41:47.033224 18667 net.cpp:150] Setting up conv9_2_relu
I0920 09:41:47.033231 18667 net.cpp:157] Top shape: 4 256 1 2 (2048)
I0920 09:41:47.033236 18667 net.cpp:165] Memory required for data: 1054314720
I0920 09:41:47.033237 18667 layer_factory.hpp:77] Creating layer conv9_2_conv9_2_relu_0_split
I0920 09:41:47.033244 18667 net.cpp:100] Creating Layer conv9_2_conv9_2_relu_0_split
I0920 09:41:47.033247 18667 net.cpp:434] conv9_2_conv9_2_relu_0_split <- conv9_2
I0920 09:41:47.033252 18667 net.cpp:408] conv9_2_conv9_2_relu_0_split -> conv9_2_conv9_2_relu_0_split_0
I0920 09:41:47.033257 18667 net.cpp:408] conv9_2_conv9_2_relu_0_split -> conv9_2_conv9_2_relu_0_split_1
I0920 09:41:47.033262 18667 net.cpp:408] conv9_2_conv9_2_relu_0_split -> conv9_2_conv9_2_relu_0_split_2
I0920 09:41:47.033357 18667 net.cpp:150] Setting up conv9_2_conv9_2_relu_0_split
I0920 09:41:47.033361 18667 net.cpp:157] Top shape: 4 256 1 2 (2048)
I0920 09:41:47.033365 18667 net.cpp:157] Top shape: 4 256 1 2 (2048)
I0920 09:41:47.033367 18667 net.cpp:157] Top shape: 4 256 1 2 (2048)
I0920 09:41:47.033370 18667 net.cpp:165] Memory required for data: 1054339296
I0920 09:41:47.033372 18667 layer_factory.hpp:77] Creating layer conv4_3_norm
I0920 09:41:47.033377 18667 net.cpp:100] Creating Layer conv4_3_norm
I0920 09:41:47.033380 18667 net.cpp:434] conv4_3_norm <- conv4_3_relu4_3_0_split_1
I0920 09:41:47.033385 18667 net.cpp:408] conv4_3_norm -> conv4_3_norm
I0920 09:41:47.033702 18667 net.cpp:150] Setting up conv4_3_norm
I0920 09:41:47.033708 18667 net.cpp:157] Top shape: 4 512 36 44 (3244032)
I0920 09:41:47.033713 18667 net.cpp:165] Memory required for data: 1067315424
I0920 09:41:47.033718 18667 layer_factory.hpp:77] Creating layer conv4_3_norm_conv4_3_norm_0_split
I0920 09:41:47.033725 18667 net.cpp:100] Creating Layer conv4_3_norm_conv4_3_norm_0_split
I0920 09:41:47.033728 18667 net.cpp:434] conv4_3_norm_conv4_3_norm_0_split <- conv4_3_norm
I0920 09:41:47.033736 18667 net.cpp:408] conv4_3_norm_conv4_3_norm_0_split -> conv4_3_norm_conv4_3_norm_0_split_0
I0920 09:41:47.033742 18667 net.cpp:408] conv4_3_norm_conv4_3_norm_0_split -> conv4_3_norm_conv4_3_norm_0_split_1
I0920 09:41:47.033772 18667 net.cpp:408] conv4_3_norm_conv4_3_norm_0_split -> conv4_3_norm_conv4_3_norm_0_split_2
I0920 09:41:47.033835 18667 net.cpp:150] Setting up conv4_3_norm_conv4_3_norm_0_split
I0920 09:41:47.033838 18667 net.cpp:157] Top shape: 4 512 36 44 (3244032)
I0920 09:41:47.033843 18667 net.cpp:157] Top shape: 4 512 36 44 (3244032)
I0920 09:41:47.033844 18667 net.cpp:157] Top shape: 4 512 36 44 (3244032)
I0920 09:41:47.033848 18667 net.cpp:165] Memory required for data: 1106243808
I0920 09:41:47.033849 18667 layer_factory.hpp:77] Creating layer conv4_3_norm_mbox_loc
I0920 09:41:47.033859 18667 net.cpp:100] Creating Layer conv4_3_norm_mbox_loc
I0920 09:41:47.033862 18667 net.cpp:434] conv4_3_norm_mbox_loc <- conv4_3_norm_conv4_3_norm_0_split_0
I0920 09:41:47.033866 18667 net.cpp:408] conv4_3_norm_mbox_loc -> conv4_3_norm_mbox_loc
I0920 09:41:47.036121 18667 net.cpp:150] Setting up conv4_3_norm_mbox_loc
I0920 09:41:47.036131 18667 net.cpp:157] Top shape: 4 16 36 44 (101376)
I0920 09:41:47.036135 18667 net.cpp:165] Memory required for data: 1106649312
I0920 09:41:47.036141 18667 layer_factory.hpp:77] Creating layer conv4_3_norm_mbox_loc_perm
I0920 09:41:47.036149 18667 net.cpp:100] Creating Layer conv4_3_norm_mbox_loc_perm
I0920 09:41:47.036154 18667 net.cpp:434] conv4_3_norm_mbox_loc_perm <- conv4_3_norm_mbox_loc
I0920 09:41:47.036157 18667 net.cpp:408] conv4_3_norm_mbox_loc_perm -> conv4_3_norm_mbox_loc_perm
I0920 09:41:47.036293 18667 net.cpp:150] Setting up conv4_3_norm_mbox_loc_perm
I0920 09:41:47.036298 18667 net.cpp:157] Top shape: 4 36 44 16 (101376)
I0920 09:41:47.036300 18667 net.cpp:165] Memory required for data: 1107054816
I0920 09:41:47.036303 18667 layer_factory.hpp:77] Creating layer conv4_3_norm_mbox_loc_flat
I0920 09:41:47.036307 18667 net.cpp:100] Creating Layer conv4_3_norm_mbox_loc_flat
I0920 09:41:47.036311 18667 net.cpp:434] conv4_3_norm_mbox_loc_flat <- conv4_3_norm_mbox_loc_perm
I0920 09:41:47.036314 18667 net.cpp:408] conv4_3_norm_mbox_loc_flat -> conv4_3_norm_mbox_loc_flat
I0920 09:41:47.036343 18667 net.cpp:150] Setting up conv4_3_norm_mbox_loc_flat
I0920 09:41:47.036347 18667 net.cpp:157] Top shape: 4 25344 (101376)
I0920 09:41:47.036350 18667 net.cpp:165] Memory required for data: 1107460320
I0920 09:41:47.036352 18667 layer_factory.hpp:77] Creating layer conv4_3_norm_mbox_conf
I0920 09:41:47.036363 18667 net.cpp:100] Creating Layer conv4_3_norm_mbox_conf
I0920 09:41:47.036366 18667 net.cpp:434] conv4_3_norm_mbox_conf <- conv4_3_norm_conv4_3_norm_0_split_1
I0920 09:41:47.036371 18667 net.cpp:408] conv4_3_norm_mbox_conf -> conv4_3_norm_mbox_conf
I0920 09:41:47.038609 18667 net.cpp:150] Setting up conv4_3_norm_mbox_conf
I0920 09:41:47.038617 18667 net.cpp:157] Top shape: 4 8 36 44 (50688)
I0920 09:41:47.038621 18667 net.cpp:165] Memory required for data: 1107663072
I0920 09:41:47.038627 18667 layer_factory.hpp:77] Creating layer conv4_3_norm_mbox_conf_perm
I0920 09:41:47.038632 18667 net.cpp:100] Creating Layer conv4_3_norm_mbox_conf_perm
I0920 09:41:47.038635 18667 net.cpp:434] conv4_3_norm_mbox_conf_perm <- conv4_3_norm_mbox_conf
I0920 09:41:47.038640 18667 net.cpp:408] conv4_3_norm_mbox_conf_perm -> conv4_3_norm_mbox_conf_perm
I0920 09:41:47.038769 18667 net.cpp:150] Setting up conv4_3_norm_mbox_conf_perm
I0920 09:41:47.038772 18667 net.cpp:157] Top shape: 4 36 44 8 (50688)
I0920 09:41:47.038775 18667 net.cpp:165] Memory required for data: 1107865824
I0920 09:41:47.038777 18667 layer_factory.hpp:77] Creating layer conv4_3_norm_mbox_conf_flat
I0920 09:41:47.038782 18667 net.cpp:100] Creating Layer conv4_3_norm_mbox_conf_flat
I0920 09:41:47.038785 18667 net.cpp:434] conv4_3_norm_mbox_conf_flat <- conv4_3_norm_mbox_conf_perm
I0920 09:41:47.038789 18667 net.cpp:408] conv4_3_norm_mbox_conf_flat -> conv4_3_norm_mbox_conf_flat
I0920 09:41:47.038813 18667 net.cpp:150] Setting up conv4_3_norm_mbox_conf_flat
I0920 09:41:47.038816 18667 net.cpp:157] Top shape: 4 12672 (50688)
I0920 09:41:47.038820 18667 net.cpp:165] Memory required for data: 1108068576
I0920 09:41:47.038822 18667 layer_factory.hpp:77] Creating layer conv4_3_norm_mbox_priorbox
I0920 09:41:47.038828 18667 net.cpp:100] Creating Layer conv4_3_norm_mbox_priorbox
I0920 09:41:47.038831 18667 net.cpp:434] conv4_3_norm_mbox_priorbox <- conv4_3_norm_conv4_3_norm_0_split_2
I0920 09:41:47.038836 18667 net.cpp:434] conv4_3_norm_mbox_priorbox <- data_data_0_split_1
I0920 09:41:47.038841 18667 net.cpp:408] conv4_3_norm_mbox_priorbox -> conv4_3_norm_mbox_priorbox
I0920 09:41:47.038867 18667 net.cpp:150] Setting up conv4_3_norm_mbox_priorbox
I0920 09:41:47.038870 18667 net.cpp:157] Top shape: 1 2 25344 (50688)
I0920 09:41:47.038873 18667 net.cpp:165] Memory required for data: 1108271328
I0920 09:41:47.038877 18667 layer_factory.hpp:77] Creating layer fc7_mbox_loc
I0920 09:41:47.038882 18667 net.cpp:100] Creating Layer fc7_mbox_loc
I0920 09:41:47.038897 18667 net.cpp:434] fc7_mbox_loc <- fc7_relu7_0_split_1
I0920 09:41:47.038902 18667 net.cpp:408] fc7_mbox_loc -> fc7_mbox_loc
I0920 09:41:47.042428 18667 net.cpp:150] Setting up fc7_mbox_loc
I0920 09:41:47.042435 18667 net.cpp:157] Top shape: 4 24 18 22 (38016)
I0920 09:41:47.042439 18667 net.cpp:165] Memory required for data: 1108423392
I0920 09:41:47.042446 18667 layer_factory.hpp:77] Creating layer fc7_mbox_loc_perm
I0920 09:41:47.042452 18667 net.cpp:100] Creating Layer fc7_mbox_loc_perm
I0920 09:41:47.042456 18667 net.cpp:434] fc7_mbox_loc_perm <- fc7_mbox_loc
I0920 09:41:47.042460 18667 net.cpp:408] fc7_mbox_loc_perm -> fc7_mbox_loc_perm
I0920 09:41:47.042590 18667 net.cpp:150] Setting up fc7_mbox_loc_perm
I0920 09:41:47.042594 18667 net.cpp:157] Top shape: 4 18 22 24 (38016)
I0920 09:41:47.042598 18667 net.cpp:165] Memory required for data: 1108575456
I0920 09:41:47.042599 18667 layer_factory.hpp:77] Creating layer fc7_mbox_loc_flat
I0920 09:41:47.042604 18667 net.cpp:100] Creating Layer fc7_mbox_loc_flat
I0920 09:41:47.042608 18667 net.cpp:434] fc7_mbox_loc_flat <- fc7_mbox_loc_perm
I0920 09:41:47.042611 18667 net.cpp:408] fc7_mbox_loc_flat -> fc7_mbox_loc_flat
I0920 09:41:47.042635 18667 net.cpp:150] Setting up fc7_mbox_loc_flat
I0920 09:41:47.042639 18667 net.cpp:157] Top shape: 4 9504 (38016)
I0920 09:41:47.042641 18667 net.cpp:165] Memory required for data: 1108727520
I0920 09:41:47.042644 18667 layer_factory.hpp:77] Creating layer fc7_mbox_conf
I0920 09:41:47.042651 18667 net.cpp:100] Creating Layer fc7_mbox_conf
I0920 09:41:47.042654 18667 net.cpp:434] fc7_mbox_conf <- fc7_relu7_0_split_2
I0920 09:41:47.042659 18667 net.cpp:408] fc7_mbox_conf -> fc7_mbox_conf
I0920 09:41:47.044978 18667 net.cpp:150] Setting up fc7_mbox_conf
I0920 09:41:47.044986 18667 net.cpp:157] Top shape: 4 12 18 22 (19008)
I0920 09:41:47.044989 18667 net.cpp:165] Memory required for data: 1108803552
I0920 09:41:47.044996 18667 layer_factory.hpp:77] Creating layer fc7_mbox_conf_perm
I0920 09:41:47.045001 18667 net.cpp:100] Creating Layer fc7_mbox_conf_perm
I0920 09:41:47.045006 18667 net.cpp:434] fc7_mbox_conf_perm <- fc7_mbox_conf
I0920 09:41:47.045009 18667 net.cpp:408] fc7_mbox_conf_perm -> fc7_mbox_conf_perm
I0920 09:41:47.045138 18667 net.cpp:150] Setting up fc7_mbox_conf_perm
I0920 09:41:47.045142 18667 net.cpp:157] Top shape: 4 18 22 12 (19008)
I0920 09:41:47.045145 18667 net.cpp:165] Memory required for data: 1108879584
I0920 09:41:47.045148 18667 layer_factory.hpp:77] Creating layer fc7_mbox_conf_flat
I0920 09:41:47.045153 18667 net.cpp:100] Creating Layer fc7_mbox_conf_flat
I0920 09:41:47.045156 18667 net.cpp:434] fc7_mbox_conf_flat <- fc7_mbox_conf_perm
I0920 09:41:47.045159 18667 net.cpp:408] fc7_mbox_conf_flat -> fc7_mbox_conf_flat
I0920 09:41:47.045183 18667 net.cpp:150] Setting up fc7_mbox_conf_flat
I0920 09:41:47.045186 18667 net.cpp:157] Top shape: 4 4752 (19008)
I0920 09:41:47.045189 18667 net.cpp:165] Memory required for data: 1108955616
I0920 09:41:47.045192 18667 layer_factory.hpp:77] Creating layer fc7_mbox_priorbox
I0920 09:41:47.045197 18667 net.cpp:100] Creating Layer fc7_mbox_priorbox
I0920 09:41:47.045200 18667 net.cpp:434] fc7_mbox_priorbox <- fc7_relu7_0_split_3
I0920 09:41:47.045204 18667 net.cpp:434] fc7_mbox_priorbox <- data_data_0_split_2
I0920 09:41:47.045208 18667 net.cpp:408] fc7_mbox_priorbox -> fc7_mbox_priorbox
I0920 09:41:47.045233 18667 net.cpp:150] Setting up fc7_mbox_priorbox
I0920 09:41:47.045236 18667 net.cpp:157] Top shape: 1 2 9504 (19008)
I0920 09:41:47.045239 18667 net.cpp:165] Memory required for data: 1109031648
I0920 09:41:47.045241 18667 layer_factory.hpp:77] Creating layer conv6_2_mbox_loc
I0920 09:41:47.045248 18667 net.cpp:100] Creating Layer conv6_2_mbox_loc
I0920 09:41:47.045253 18667 net.cpp:434] conv6_2_mbox_loc <- conv6_2_conv6_2_relu_0_split_1
I0920 09:41:47.045256 18667 net.cpp:408] conv6_2_mbox_loc -> conv6_2_mbox_loc
I0920 09:41:47.047436 18667 net.cpp:150] Setting up conv6_2_mbox_loc
I0920 09:41:47.047444 18667 net.cpp:157] Top shape: 4 24 9 11 (9504)
I0920 09:41:47.047461 18667 net.cpp:165] Memory required for data: 1109069664
I0920 09:41:47.047466 18667 layer_factory.hpp:77] Creating layer conv6_2_mbox_loc_perm
I0920 09:41:47.047472 18667 net.cpp:100] Creating Layer conv6_2_mbox_loc_perm
I0920 09:41:47.047475 18667 net.cpp:434] conv6_2_mbox_loc_perm <- conv6_2_mbox_loc
I0920 09:41:47.047479 18667 net.cpp:408] conv6_2_mbox_loc_perm -> conv6_2_mbox_loc_perm
I0920 09:41:47.047613 18667 net.cpp:150] Setting up conv6_2_mbox_loc_perm
I0920 09:41:47.047617 18667 net.cpp:157] Top shape: 4 9 11 24 (9504)
I0920 09:41:47.047621 18667 net.cpp:165] Memory required for data: 1109107680
I0920 09:41:47.047623 18667 layer_factory.hpp:77] Creating layer conv6_2_mbox_loc_flat
I0920 09:41:47.047627 18667 net.cpp:100] Creating Layer conv6_2_mbox_loc_flat
I0920 09:41:47.047629 18667 net.cpp:434] conv6_2_mbox_loc_flat <- conv6_2_mbox_loc_perm
I0920 09:41:47.047633 18667 net.cpp:408] conv6_2_mbox_loc_flat -> conv6_2_mbox_loc_flat
I0920 09:41:47.047657 18667 net.cpp:150] Setting up conv6_2_mbox_loc_flat
I0920 09:41:47.047662 18667 net.cpp:157] Top shape: 4 2376 (9504)
I0920 09:41:47.047664 18667 net.cpp:165] Memory required for data: 1109145696
I0920 09:41:47.047667 18667 layer_factory.hpp:77] Creating layer conv6_2_mbox_conf
I0920 09:41:47.047673 18667 net.cpp:100] Creating Layer conv6_2_mbox_conf
I0920 09:41:47.047677 18667 net.cpp:434] conv6_2_mbox_conf <- conv6_2_conv6_2_relu_0_split_2
I0920 09:41:47.047680 18667 net.cpp:408] conv6_2_mbox_conf -> conv6_2_mbox_conf
I0920 09:41:47.049681 18667 net.cpp:150] Setting up conv6_2_mbox_conf
I0920 09:41:47.049688 18667 net.cpp:157] Top shape: 4 12 9 11 (4752)
I0920 09:41:47.049692 18667 net.cpp:165] Memory required for data: 1109164704
I0920 09:41:47.049697 18667 layer_factory.hpp:77] Creating layer conv6_2_mbox_conf_perm
I0920 09:41:47.049702 18667 net.cpp:100] Creating Layer conv6_2_mbox_conf_perm
I0920 09:41:47.049705 18667 net.cpp:434] conv6_2_mbox_conf_perm <- conv6_2_mbox_conf
I0920 09:41:47.049710 18667 net.cpp:408] conv6_2_mbox_conf_perm -> conv6_2_mbox_conf_perm
I0920 09:41:47.049844 18667 net.cpp:150] Setting up conv6_2_mbox_conf_perm
I0920 09:41:47.049846 18667 net.cpp:157] Top shape: 4 9 11 12 (4752)
I0920 09:41:47.049850 18667 net.cpp:165] Memory required for data: 1109183712
I0920 09:41:47.049852 18667 layer_factory.hpp:77] Creating layer conv6_2_mbox_conf_flat
I0920 09:41:47.049856 18667 net.cpp:100] Creating Layer conv6_2_mbox_conf_flat
I0920 09:41:47.049859 18667 net.cpp:434] conv6_2_mbox_conf_flat <- conv6_2_mbox_conf_perm
I0920 09:41:47.049861 18667 net.cpp:408] conv6_2_mbox_conf_flat -> conv6_2_mbox_conf_flat
I0920 09:41:47.049885 18667 net.cpp:150] Setting up conv6_2_mbox_conf_flat
I0920 09:41:47.049888 18667 net.cpp:157] Top shape: 4 1188 (4752)
I0920 09:41:47.049891 18667 net.cpp:165] Memory required for data: 1109202720
I0920 09:41:47.049893 18667 layer_factory.hpp:77] Creating layer conv6_2_mbox_priorbox
I0920 09:41:47.049898 18667 net.cpp:100] Creating Layer conv6_2_mbox_priorbox
I0920 09:41:47.049902 18667 net.cpp:434] conv6_2_mbox_priorbox <- conv6_2_conv6_2_relu_0_split_3
I0920 09:41:47.049906 18667 net.cpp:434] conv6_2_mbox_priorbox <- data_data_0_split_3
I0920 09:41:47.049909 18667 net.cpp:408] conv6_2_mbox_priorbox -> conv6_2_mbox_priorbox
I0920 09:41:47.049935 18667 net.cpp:150] Setting up conv6_2_mbox_priorbox
I0920 09:41:47.049938 18667 net.cpp:157] Top shape: 1 2 2376 (4752)
I0920 09:41:47.049942 18667 net.cpp:165] Memory required for data: 1109221728
I0920 09:41:47.049944 18667 layer_factory.hpp:77] Creating layer conv7_2_mbox_loc
I0920 09:41:47.049949 18667 net.cpp:100] Creating Layer conv7_2_mbox_loc
I0920 09:41:47.049952 18667 net.cpp:434] conv7_2_mbox_loc <- conv7_2_conv7_2_relu_0_split_1
I0920 09:41:47.049955 18667 net.cpp:408] conv7_2_mbox_loc -> conv7_2_mbox_loc
I0920 09:41:47.053340 18667 net.cpp:150] Setting up conv7_2_mbox_loc
I0920 09:41:47.053349 18667 net.cpp:157] Top shape: 4 24 5 6 (2880)
I0920 09:41:47.053354 18667 net.cpp:165] Memory required for data: 1109233248
I0920 09:41:47.053373 18667 layer_factory.hpp:77] Creating layer conv7_2_mbox_loc_perm
I0920 09:41:47.053391 18667 net.cpp:100] Creating Layer conv7_2_mbox_loc_perm
I0920 09:41:47.053395 18667 net.cpp:434] conv7_2_mbox_loc_perm <- conv7_2_mbox_loc
I0920 09:41:47.053400 18667 net.cpp:408] conv7_2_mbox_loc_perm -> conv7_2_mbox_loc_perm
I0920 09:41:47.053608 18667 net.cpp:150] Setting up conv7_2_mbox_loc_perm
I0920 09:41:47.053612 18667 net.cpp:157] Top shape: 4 5 6 24 (2880)
I0920 09:41:47.053616 18667 net.cpp:165] Memory required for data: 1109244768
I0920 09:41:47.053617 18667 layer_factory.hpp:77] Creating layer conv7_2_mbox_loc_flat
I0920 09:41:47.053622 18667 net.cpp:100] Creating Layer conv7_2_mbox_loc_flat
I0920 09:41:47.053625 18667 net.cpp:434] conv7_2_mbox_loc_flat <- conv7_2_mbox_loc_perm
I0920 09:41:47.053628 18667 net.cpp:408] conv7_2_mbox_loc_flat -> conv7_2_mbox_loc_flat
I0920 09:41:47.053670 18667 net.cpp:150] Setting up conv7_2_mbox_loc_flat
I0920 09:41:47.053674 18667 net.cpp:157] Top shape: 4 720 (2880)
I0920 09:41:47.053678 18667 net.cpp:165] Memory required for data: 1109256288
I0920 09:41:47.053679 18667 layer_factory.hpp:77] Creating layer conv7_2_mbox_conf
I0920 09:41:47.053686 18667 net.cpp:100] Creating Layer conv7_2_mbox_conf
I0920 09:41:47.053690 18667 net.cpp:434] conv7_2_mbox_conf <- conv7_2_conv7_2_relu_0_split_2
I0920 09:41:47.053695 18667 net.cpp:408] conv7_2_mbox_conf -> conv7_2_mbox_conf
I0920 09:41:47.055729 18667 net.cpp:150] Setting up conv7_2_mbox_conf
I0920 09:41:47.055737 18667 net.cpp:157] Top shape: 4 12 5 6 (1440)
I0920 09:41:47.055740 18667 net.cpp:165] Memory required for data: 1109262048
I0920 09:41:47.055744 18667 layer_factory.hpp:77] Creating layer conv7_2_mbox_conf_perm
I0920 09:41:47.055750 18667 net.cpp:100] Creating Layer conv7_2_mbox_conf_perm
I0920 09:41:47.055754 18667 net.cpp:434] conv7_2_mbox_conf_perm <- conv7_2_mbox_conf
I0920 09:41:47.055758 18667 net.cpp:408] conv7_2_mbox_conf_perm -> conv7_2_mbox_conf_perm
I0920 09:41:47.055891 18667 net.cpp:150] Setting up conv7_2_mbox_conf_perm
I0920 09:41:47.055896 18667 net.cpp:157] Top shape: 4 5 6 12 (1440)
I0920 09:41:47.055898 18667 net.cpp:165] Memory required for data: 1109267808
I0920 09:41:47.055900 18667 layer_factory.hpp:77] Creating layer conv7_2_mbox_conf_flat
I0920 09:41:47.055904 18667 net.cpp:100] Creating Layer conv7_2_mbox_conf_flat
I0920 09:41:47.055907 18667 net.cpp:434] conv7_2_mbox_conf_flat <- conv7_2_mbox_conf_perm
I0920 09:41:47.055912 18667 net.cpp:408] conv7_2_mbox_conf_flat -> conv7_2_mbox_conf_flat
I0920 09:41:47.055938 18667 net.cpp:150] Setting up conv7_2_mbox_conf_flat
I0920 09:41:47.055943 18667 net.cpp:157] Top shape: 4 360 (1440)
I0920 09:41:47.055945 18667 net.cpp:165] Memory required for data: 1109273568
I0920 09:41:47.055948 18667 layer_factory.hpp:77] Creating layer conv7_2_mbox_priorbox
I0920 09:41:47.055951 18667 net.cpp:100] Creating Layer conv7_2_mbox_priorbox
I0920 09:41:47.055954 18667 net.cpp:434] conv7_2_mbox_priorbox <- conv7_2_conv7_2_relu_0_split_3
I0920 09:41:47.055958 18667 net.cpp:434] conv7_2_mbox_priorbox <- data_data_0_split_4
I0920 09:41:47.055964 18667 net.cpp:408] conv7_2_mbox_priorbox -> conv7_2_mbox_priorbox
I0920 09:41:47.055991 18667 net.cpp:150] Setting up conv7_2_mbox_priorbox
I0920 09:41:47.055994 18667 net.cpp:157] Top shape: 1 2 720 (1440)
I0920 09:41:47.055997 18667 net.cpp:165] Memory required for data: 1109279328
I0920 09:41:47.055999 18667 layer_factory.hpp:77] Creating layer conv8_2_mbox_loc
I0920 09:41:47.056006 18667 net.cpp:100] Creating Layer conv8_2_mbox_loc
I0920 09:41:47.056010 18667 net.cpp:434] conv8_2_mbox_loc <- conv8_2_conv8_2_relu_0_split_1
I0920 09:41:47.056015 18667 net.cpp:408] conv8_2_mbox_loc -> conv8_2_mbox_loc
I0920 09:41:47.057957 18667 net.cpp:150] Setting up conv8_2_mbox_loc
I0920 09:41:47.057965 18667 net.cpp:157] Top shape: 4 16 3 4 (768)
I0920 09:41:47.057968 18667 net.cpp:165] Memory required for data: 1109282400
I0920 09:41:47.057977 18667 layer_factory.hpp:77] Creating layer conv8_2_mbox_loc_perm
I0920 09:41:47.057984 18667 net.cpp:100] Creating Layer conv8_2_mbox_loc_perm
I0920 09:41:47.057996 18667 net.cpp:434] conv8_2_mbox_loc_perm <- conv8_2_mbox_loc
I0920 09:41:47.058001 18667 net.cpp:408] conv8_2_mbox_loc_perm -> conv8_2_mbox_loc_perm
I0920 09:41:47.058136 18667 net.cpp:150] Setting up conv8_2_mbox_loc_perm
I0920 09:41:47.058140 18667 net.cpp:157] Top shape: 4 3 4 16 (768)
I0920 09:41:47.058143 18667 net.cpp:165] Memory required for data: 1109285472
I0920 09:41:47.058145 18667 layer_factory.hpp:77] Creating layer conv8_2_mbox_loc_flat
I0920 09:41:47.058149 18667 net.cpp:100] Creating Layer conv8_2_mbox_loc_flat
I0920 09:41:47.058152 18667 net.cpp:434] conv8_2_mbox_loc_flat <- conv8_2_mbox_loc_perm
I0920 09:41:47.058157 18667 net.cpp:408] conv8_2_mbox_loc_flat -> conv8_2_mbox_loc_flat
I0920 09:41:47.058183 18667 net.cpp:150] Setting up conv8_2_mbox_loc_flat
I0920 09:41:47.058187 18667 net.cpp:157] Top shape: 4 192 (768)
I0920 09:41:47.058190 18667 net.cpp:165] Memory required for data: 1109288544
I0920 09:41:47.058192 18667 layer_factory.hpp:77] Creating layer conv8_2_mbox_conf
I0920 09:41:47.058198 18667 net.cpp:100] Creating Layer conv8_2_mbox_conf
I0920 09:41:47.058202 18667 net.cpp:434] conv8_2_mbox_conf <- conv8_2_conv8_2_relu_0_split_2
I0920 09:41:47.058205 18667 net.cpp:408] conv8_2_mbox_conf -> conv8_2_mbox_conf
I0920 09:41:47.060952 18667 net.cpp:150] Setting up conv8_2_mbox_conf
I0920 09:41:47.060961 18667 net.cpp:157] Top shape: 4 8 3 4 (384)
I0920 09:41:47.060964 18667 net.cpp:165] Memory required for data: 1109290080
I0920 09:41:47.060968 18667 layer_factory.hpp:77] Creating layer conv8_2_mbox_conf_perm
I0920 09:41:47.060976 18667 net.cpp:100] Creating Layer conv8_2_mbox_conf_perm
I0920 09:41:47.060978 18667 net.cpp:434] conv8_2_mbox_conf_perm <- conv8_2_mbox_conf
I0920 09:41:47.060982 18667 net.cpp:408] conv8_2_mbox_conf_perm -> conv8_2_mbox_conf_perm
I0920 09:41:47.061115 18667 net.cpp:150] Setting up conv8_2_mbox_conf_perm
I0920 09:41:47.061120 18667 net.cpp:157] Top shape: 4 3 4 8 (384)
I0920 09:41:47.061122 18667 net.cpp:165] Memory required for data: 1109291616
I0920 09:41:47.061125 18667 layer_factory.hpp:77] Creating layer conv8_2_mbox_conf_flat
I0920 09:41:47.061128 18667 net.cpp:100] Creating Layer conv8_2_mbox_conf_flat
I0920 09:41:47.061131 18667 net.cpp:434] conv8_2_mbox_conf_flat <- conv8_2_mbox_conf_perm
I0920 09:41:47.061137 18667 net.cpp:408] conv8_2_mbox_conf_flat -> conv8_2_mbox_conf_flat
I0920 09:41:47.061163 18667 net.cpp:150] Setting up conv8_2_mbox_conf_flat
I0920 09:41:47.061167 18667 net.cpp:157] Top shape: 4 96 (384)
I0920 09:41:47.061169 18667 net.cpp:165] Memory required for data: 1109293152
I0920 09:41:47.061172 18667 layer_factory.hpp:77] Creating layer conv8_2_mbox_priorbox
I0920 09:41:47.061177 18667 net.cpp:100] Creating Layer conv8_2_mbox_priorbox
I0920 09:41:47.061179 18667 net.cpp:434] conv8_2_mbox_priorbox <- conv8_2_conv8_2_relu_0_split_3
I0920 09:41:47.061182 18667 net.cpp:434] conv8_2_mbox_priorbox <- data_data_0_split_5
I0920 09:41:47.061188 18667 net.cpp:408] conv8_2_mbox_priorbox -> conv8_2_mbox_priorbox
I0920 09:41:47.061215 18667 net.cpp:150] Setting up conv8_2_mbox_priorbox
I0920 09:41:47.061219 18667 net.cpp:157] Top shape: 1 2 192 (384)
I0920 09:41:47.061223 18667 net.cpp:165] Memory required for data: 1109294688
I0920 09:41:47.061224 18667 layer_factory.hpp:77] Creating layer conv9_2_mbox_loc
I0920 09:41:47.061231 18667 net.cpp:100] Creating Layer conv9_2_mbox_loc
I0920 09:41:47.061234 18667 net.cpp:434] conv9_2_mbox_loc <- conv9_2_conv9_2_relu_0_split_0
I0920 09:41:47.061239 18667 net.cpp:408] conv9_2_mbox_loc -> conv9_2_mbox_loc
I0920 09:41:47.063311 18667 net.cpp:150] Setting up conv9_2_mbox_loc
I0920 09:41:47.063318 18667 net.cpp:157] Top shape: 4 16 1 2 (128)
I0920 09:41:47.063323 18667 net.cpp:165] Memory required for data: 1109295200
I0920 09:41:47.063326 18667 layer_factory.hpp:77] Creating layer conv9_2_mbox_loc_perm
I0920 09:41:47.063333 18667 net.cpp:100] Creating Layer conv9_2_mbox_loc_perm
I0920 09:41:47.063336 18667 net.cpp:434] conv9_2_mbox_loc_perm <- conv9_2_mbox_loc
I0920 09:41:47.063340 18667 net.cpp:408] conv9_2_mbox_loc_perm -> conv9_2_mbox_loc_perm
I0920 09:41:47.063486 18667 net.cpp:150] Setting up conv9_2_mbox_loc_perm
I0920 09:41:47.063490 18667 net.cpp:157] Top shape: 4 1 2 16 (128)
I0920 09:41:47.063493 18667 net.cpp:165] Memory required for data: 1109295712
I0920 09:41:47.063495 18667 layer_factory.hpp:77] Creating layer conv9_2_mbox_loc_flat
I0920 09:41:47.063500 18667 net.cpp:100] Creating Layer conv9_2_mbox_loc_flat
I0920 09:41:47.063503 18667 net.cpp:434] conv9_2_mbox_loc_flat <- conv9_2_mbox_loc_perm
I0920 09:41:47.063508 18667 net.cpp:408] conv9_2_mbox_loc_flat -> conv9_2_mbox_loc_flat
I0920 09:41:47.063534 18667 net.cpp:150] Setting up conv9_2_mbox_loc_flat
I0920 09:41:47.063536 18667 net.cpp:157] Top shape: 4 32 (128)
I0920 09:41:47.063539 18667 net.cpp:165] Memory required for data: 1109296224
I0920 09:41:47.063542 18667 layer_factory.hpp:77] Creating layer conv9_2_mbox_conf
I0920 09:41:47.063549 18667 net.cpp:100] Creating Layer conv9_2_mbox_conf
I0920 09:41:47.063551 18667 net.cpp:434] conv9_2_mbox_conf <- conv9_2_conv9_2_relu_0_split_1
I0920 09:41:47.063556 18667 net.cpp:408] conv9_2_mbox_conf -> conv9_2_mbox_conf
I0920 09:41:47.065454 18667 net.cpp:150] Setting up conv9_2_mbox_conf
I0920 09:41:47.065461 18667 net.cpp:157] Top shape: 4 8 1 2 (64)
I0920 09:41:47.065464 18667 net.cpp:165] Memory required for data: 1109296480
I0920 09:41:47.065469 18667 layer_factory.hpp:77] Creating layer conv9_2_mbox_conf_perm
I0920 09:41:47.065475 18667 net.cpp:100] Creating Layer conv9_2_mbox_conf_perm
I0920 09:41:47.065479 18667 net.cpp:434] conv9_2_mbox_conf_perm <- conv9_2_mbox_conf
I0920 09:41:47.065482 18667 net.cpp:408] conv9_2_mbox_conf_perm -> conv9_2_mbox_conf_perm
I0920 09:41:47.065620 18667 net.cpp:150] Setting up conv9_2_mbox_conf_perm
I0920 09:41:47.065624 18667 net.cpp:157] Top shape: 4 1 2 8 (64)
I0920 09:41:47.065627 18667 net.cpp:165] Memory required for data: 1109296736
I0920 09:41:47.065629 18667 layer_factory.hpp:77] Creating layer conv9_2_mbox_conf_flat
I0920 09:41:47.065634 18667 net.cpp:100] Creating Layer conv9_2_mbox_conf_flat
I0920 09:41:47.065637 18667 net.cpp:434] conv9_2_mbox_conf_flat <- conv9_2_mbox_conf_perm
I0920 09:41:47.065640 18667 net.cpp:408] conv9_2_mbox_conf_flat -> conv9_2_mbox_conf_flat
I0920 09:41:47.065666 18667 net.cpp:150] Setting up conv9_2_mbox_conf_flat
I0920 09:41:47.065670 18667 net.cpp:157] Top shape: 4 16 (64)
I0920 09:41:47.065672 18667 net.cpp:165] Memory required for data: 1109296992
I0920 09:41:47.065675 18667 layer_factory.hpp:77] Creating layer conv9_2_mbox_priorbox
I0920 09:41:47.065680 18667 net.cpp:100] Creating Layer conv9_2_mbox_priorbox
I0920 09:41:47.065683 18667 net.cpp:434] conv9_2_mbox_priorbox <- conv9_2_conv9_2_relu_0_split_2
I0920 09:41:47.065686 18667 net.cpp:434] conv9_2_mbox_priorbox <- data_data_0_split_6
I0920 09:41:47.065690 18667 net.cpp:408] conv9_2_mbox_priorbox -> conv9_2_mbox_priorbox
I0920 09:41:47.065716 18667 net.cpp:150] Setting up conv9_2_mbox_priorbox
I0920 09:41:47.065721 18667 net.cpp:157] Top shape: 1 2 32 (64)
I0920 09:41:47.065723 18667 net.cpp:165] Memory required for data: 1109297248
I0920 09:41:47.065726 18667 layer_factory.hpp:77] Creating layer mbox_loc
I0920 09:41:47.065730 18667 net.cpp:100] Creating Layer mbox_loc
I0920 09:41:47.065734 18667 net.cpp:434] mbox_loc <- conv4_3_norm_mbox_loc_flat
I0920 09:41:47.065738 18667 net.cpp:434] mbox_loc <- fc7_mbox_loc_flat
I0920 09:41:47.065742 18667 net.cpp:434] mbox_loc <- conv6_2_mbox_loc_flat
I0920 09:41:47.065744 18667 net.cpp:434] mbox_loc <- conv7_2_mbox_loc_flat
I0920 09:41:47.065748 18667 net.cpp:434] mbox_loc <- conv8_2_mbox_loc_flat
I0920 09:41:47.065750 18667 net.cpp:434] mbox_loc <- conv9_2_mbox_loc_flat
I0920 09:41:47.065757 18667 net.cpp:408] mbox_loc -> mbox_loc
I0920 09:41:47.065783 18667 net.cpp:150] Setting up mbox_loc
I0920 09:41:47.065786 18667 net.cpp:157] Top shape: 4 38168 (152672)
I0920 09:41:47.065791 18667 net.cpp:165] Memory required for data: 1109907936
I0920 09:41:47.065794 18667 layer_factory.hpp:77] Creating layer mbox_conf
I0920 09:41:47.065807 18667 net.cpp:100] Creating Layer mbox_conf
I0920 09:41:47.065811 18667 net.cpp:434] mbox_conf <- conv4_3_norm_mbox_conf_flat
I0920 09:41:47.065814 18667 net.cpp:434] mbox_conf <- fc7_mbox_conf_flat
I0920 09:41:47.065819 18667 net.cpp:434] mbox_conf <- conv6_2_mbox_conf_flat
I0920 09:41:47.065820 18667 net.cpp:434] mbox_conf <- conv7_2_mbox_conf_flat
I0920 09:41:47.065824 18667 net.cpp:434] mbox_conf <- conv8_2_mbox_conf_flat
I0920 09:41:47.065826 18667 net.cpp:434] mbox_conf <- conv9_2_mbox_conf_flat
I0920 09:41:47.065830 18667 net.cpp:408] mbox_conf -> mbox_conf
I0920 09:41:47.065855 18667 net.cpp:150] Setting up mbox_conf
I0920 09:41:47.065860 18667 net.cpp:157] Top shape: 4 19084 (76336)
I0920 09:41:47.065862 18667 net.cpp:165] Memory required for data: 1110213280
I0920 09:41:47.065865 18667 layer_factory.hpp:77] Creating layer mbox_priorbox
I0920 09:41:47.065868 18667 net.cpp:100] Creating Layer mbox_priorbox
I0920 09:41:47.065871 18667 net.cpp:434] mbox_priorbox <- conv4_3_norm_mbox_priorbox
I0920 09:41:47.065874 18667 net.cpp:434] mbox_priorbox <- fc7_mbox_priorbox
I0920 09:41:47.065877 18667 net.cpp:434] mbox_priorbox <- conv6_2_mbox_priorbox
I0920 09:41:47.065879 18667 net.cpp:434] mbox_priorbox <- conv7_2_mbox_priorbox
I0920 09:41:47.065882 18667 net.cpp:434] mbox_priorbox <- conv8_2_mbox_priorbox
I0920 09:41:47.065884 18667 net.cpp:434] mbox_priorbox <- conv9_2_mbox_priorbox
I0920 09:41:47.065888 18667 net.cpp:408] mbox_priorbox -> mbox_priorbox
I0920 09:41:47.065913 18667 net.cpp:150] Setting up mbox_priorbox
I0920 09:41:47.065917 18667 net.cpp:157] Top shape: 1 2 38168 (76336)
I0920 09:41:47.065920 18667 net.cpp:165] Memory required for data: 1110518624
I0920 09:41:47.065923 18667 layer_factory.hpp:77] Creating layer mbox_conf_reshape
I0920 09:41:47.065932 18667 net.cpp:100] Creating Layer mbox_conf_reshape
I0920 09:41:47.065935 18667 net.cpp:434] mbox_conf_reshape <- mbox_conf
I0920 09:41:47.065938 18667 net.cpp:408] mbox_conf_reshape -> mbox_conf_reshape
I0920 09:41:47.065969 18667 net.cpp:150] Setting up mbox_conf_reshape
I0920 09:41:47.065973 18667 net.cpp:157] Top shape: 4 9542 2 (76336)
I0920 09:41:47.065976 18667 net.cpp:165] Memory required for data: 1110823968
I0920 09:41:47.065979 18667 layer_factory.hpp:77] Creating layer mbox_conf_softmax
I0920 09:41:47.065984 18667 net.cpp:100] Creating Layer mbox_conf_softmax
I0920 09:41:47.065989 18667 net.cpp:434] mbox_conf_softmax <- mbox_conf_reshape
I0920 09:41:47.065991 18667 net.cpp:408] mbox_conf_softmax -> mbox_conf_softmax
I0920 09:41:47.066450 18667 net.cpp:150] Setting up mbox_conf_softmax
I0920 09:41:47.066457 18667 net.cpp:157] Top shape: 4 9542 2 (76336)
I0920 09:41:47.066460 18667 net.cpp:165] Memory required for data: 1111129312
I0920 09:41:47.066463 18667 layer_factory.hpp:77] Creating layer mbox_conf_flatten
I0920 09:41:47.066468 18667 net.cpp:100] Creating Layer mbox_conf_flatten
I0920 09:41:47.066470 18667 net.cpp:434] mbox_conf_flatten <- mbox_conf_softmax
I0920 09:41:47.066474 18667 net.cpp:408] mbox_conf_flatten -> mbox_conf_flatten
I0920 09:41:47.066501 18667 net.cpp:150] Setting up mbox_conf_flatten
I0920 09:41:47.066504 18667 net.cpp:157] Top shape: 4 19084 (76336)
I0920 09:41:47.066507 18667 net.cpp:165] Memory required for data: 1111434656
I0920 09:41:47.066509 18667 layer_factory.hpp:77] Creating layer detection_out
I0920 09:41:47.066521 18667 net.cpp:100] Creating Layer detection_out
I0920 09:41:47.066525 18667 net.cpp:434] detection_out <- mbox_loc
I0920 09:41:47.066529 18667 net.cpp:434] detection_out <- mbox_conf_flatten
I0920 09:41:47.066531 18667 net.cpp:434] detection_out <- mbox_priorbox
I0920 09:41:47.066536 18667 net.cpp:408] detection_out -> detection_out
W0920 09:41:47.066565 18667 detection_output_layer.cpp:49] Failed to create directory: /home/ly/data/VOCdevkit/results/car352x288_splitKitti_MVT_indoor/SSD_352x288/Main
I0920 09:41:47.069348 18667 net.cpp:150] Setting up detection_out
I0920 09:41:47.069355 18667 net.cpp:157] Top shape: 1 1 1 7 (7)
I0920 09:41:47.069358 18667 net.cpp:165] Memory required for data: 1111434684
I0920 09:41:47.069370 18667 layer_factory.hpp:77] Creating layer detection_eval
I0920 09:41:47.069396 18667 net.cpp:100] Creating Layer detection_eval
I0920 09:41:47.069398 18667 net.cpp:434] detection_eval <- detection_out
I0920 09:41:47.069401 18667 net.cpp:434] detection_eval <- label
I0920 09:41:47.069406 18667 net.cpp:408] detection_eval -> detection_eval
I0920 09:41:47.070284 18667 net.cpp:150] Setting up detection_eval
I0920 09:41:47.070289 18667 net.cpp:157] Top shape: 1 1 2 5 (10)
I0920 09:41:47.070292 18667 net.cpp:165] Memory required for data: 1111434724
I0920 09:41:47.070295 18667 net.cpp:228] detection_eval does not need backward computation.
I0920 09:41:47.070297 18667 net.cpp:228] detection_out does not need backward computation.
I0920 09:41:47.070300 18667 net.cpp:228] mbox_conf_flatten does not need backward computation.
I0920 09:41:47.070303 18667 net.cpp:228] mbox_conf_softmax does not need backward computation.
…
